082523/0823_03shift.pth (torch, 618339 bytes, 58 tensors)

lstm.lstm1.weight_ih_l0 f4 [256, 12]
0	0x38a348b4	7.785988e-05
1	0xba0dd34c	-0.0005410209
2	0xba556c19	-0.0008141413
3	0xb9bcca92	-0.0003600908
4	0x391deef6	0.00015061707
5	0xba14a2f3	-0.0005670033
6	0xb9a7fa40	-0.00032039173
7	0x39236f60	0.00015586382
8	0x392b5dec	0.0001634282
9	0xb9481afb	-0.00019083537
10	0xb8efa905	-0.000114278904
11	0xba191da5	-0.0005840904
12	0xbbcef2f5	-0.006315584
13	0xbb9696f3	-0.0045956313
14	0xbaf79476	-0.0018888849
15	0x3afb03a2	0.0019150863
16	0xba9baf9a	-0.0011877895
17	0xbc0771e9	-0.008266904
18	0x3a42c179	0.00074293424
19	0x3a8cb1d0	0.0010734145
20	0xbc175e80	-0.009238839
21	0x3b913c40	0.004432231
22	0x3baa71b7	0.005201544
23	0x3bb52910	0.0055285767
24	0x3c513b29	0.012770453
25	0x3bd0ff07	0.006378058
26	0x3c40900a	0.011753092
27	0x3c98ec84	0.018667467
28	0x3a26b50e	0.0006359377
29	0x3b789fb0	0.0037936978
30	0x3c0e5480	0.008687139
31	0xbb44b19c	-0.003001309
32	0xbb5e4dc8	-0.0033920873
33	0x3c0ec11c	0.008713033
34	0x3c7634a3	0.015027198
35	0x3b66fa6b	0.0035244476
36	0x3d02965f	0.031881686
37	0x3c14aba1	0.009074123
38	0xbca7ddf4	-0.020491578
39	0x3c3d3df1	0.0115504125
40	0xbb4343dd	-0.0029795088
41	0xbc060b72	-0.00818144
42	0x3cd8ad7e	0.026449915
43	0x3be32437	0.0069318074
44	0x3b811194	0.003938863
45	0xbd75631e	-0.05990898
46	0xbad0f90f	-0.0015943366
47	0xbb84b4dc	-0.0040498804
48	0x3a364ac8	0.00069538923
49	0x3aa2de8a	0.0012425941
50	0x3a816f6d	0.0009875126
51	0x3a5d6fee	0.000844716
52	0x39ad9492	0.00033107825
53	0xb9501a5a	-0.00019846243
54	0x3a7c957e	0.0009635313
55	0x3a4f9c49	0.00079197116
56	0x3a4bcecd	0.0007774651
57	0x3a8bc089	0.0010662238
58	0x3a1f1871	0.00060690107
59	0x38bf7cd1	9.1308386e-05
60	0x3a8212cb	0.0009923814
61	0x3b50f436	0.0031883842
62	0x3b3c9144	0.0028773108
63	0x3a5c0686	0.0008393306
64	0xb8fc3f92	-0.00012028137
65	0x3aa62e07	0.0012678512
66	0xb9ac44d9	-0.00032857692
67	0xb95ea7e1	-0.0002123411
68	0xb97ebd22	-0.00024293785
69	0x3a24956d	0.00062783697
70	0x3a94def4	0.0011357949
71	0x3b719a83	0.0036865778
72	0xbac0ba1d	-0.0014703904
73	0x39024680	0.0001242403
74	0xb9c55a71	-0.00037642152
75	0x3a362ddc	0.00069495826
76	0x3a8ade7a	0.0010594868
77	0x3a017f4e	0.00049399293
78	0xba0b1e25	-0.0005306921
79	0x3a6985c4	0.0008908177
80	0x3a3f0b07	0.0007287715
81	0x379b2d4e	1.8498537e-05
82	0xb958e9ac	-0.00020686415
83	0x39b29432	0.0003406122
84	0x3a6c128c	0.0009005449
85	0xb8c40e9e	-9.348731e-05
86	0xba36b017	-0.00069689885
87	0xb91364a9	-0.00014056511
88	0x3abea1c6	0.0014544062
89	0x3a46d8dd	0.0007585416
90	0x39c0360d	0.00036661365
91	0x38ac633f	8.220085e-05
92	0x38a6f8bb	7.9618265e-05
93	0x380bd755	3.3340726e-05
94	0xba2cec7a	-0.0006596517
95	0x394350a8	0.00018626696
96	0xba5991f1	-0.000829964
97	0x39e8565f	0.0004431484
98	0x3a58453d	0.00082500634
99	0x3941992e	0.00018462978
100	0xba892692	-0.0010463765
101	0xba6858f5	-0.0008863353
102	0xba0c36fc	-0.00053487695
103	0xb9eade24	-0.00044797466
104	0xb9f2004e	-0.00046158064
105	0x387d5fbb	6.0409056e-05
106	0xb927d02c	-0.00016003911
107	0xb8ff1fc4	-0.00012165264
108	0x3ceeca17	0.029149098
109	0x3d0133de	0.031543605
110	0xbcf3dbfd	-0.029767985
111	0xbc66bc05	-0.014082913
112	0x3c371ba3	0.011176023
113	0x3bea3ffa	0.00714874
114	0xbcc40146	-0.023926388
115	0x3d0c94b6	0.03432151
116	0x3c3aada4	0.011393938
117	0xb99aa9fe	-0.00029499823
118	0x3ba96824	0.0051698852
119	0x3d2817ee	0.041038446
120	0x3b6a262f	0.0035728326
121	0x398321ee	0.00025011547
122	0xbb3f697e	-0.0029207165
123	0x3c0b6b86	0.008509522
124	0x3b0a9f68	0.0021152142
125	0xbb5c1236	-0.003358019
126	0x3c249ad7	0.010046682
127	0x3a906627	0.0011016772
128	0x3af19db1	0.0018433837
129	0x3b3f31ae	0.0029173899
130	0x3beb0eb7	0.007173385
131	0xbc02abe5	-0.007975553
132	0xbbb62420	-0.0055585057
133	0xbc131460	-0.008977026
134	0xbce90b3b	-0.028447738
135	0x3a3c5cc7	0.0007185456
136	0x3b795682	0.0038045947
137	0x3b8f6891	0.004376479
138	0xbc5aca4f	-0.013353898
139	0xbc90a2f8	-0.017655835
140	0x3bc32000	0.0059547424
141	0xbaab9027	-0.0013089225
142	0x3bcf5d3a	0.006328252
143	0x3c4cbfed	0.012496931
144	0x3b9d531b	0.0048011667
145	0x3b10574d	0.0022024692
146	0x3b02790d	0.0019908578
147	0x3bcb5ec6	0.0062063662
148	0x3a7e0885	0.00096906006
149	0x3bae1c05	0.005313399
150	0x3b987837	0.0046530026
151	0x3b595e84	0.0033167908
152	0x3b5ab2ff	0.003337085
153	0x3b95f549	0.0045763594
154	0x3bbc17cf	0.005740143
155	0xb986e884	-0.0002573171
156	0xbb092234	-0.0020924928
157	0x38878a9e	6.463121e-05
158	0x3ba8d540	0.0051523745
159	0x3aa7b69a	0.0012795508
160	0x3b37d90f	0.002805296
161	0x3b5d43ec	0.0033762408
162	0xbafdc4d8	-0.0019361032
163	0x390b9ae4	0.00013313774
164	0x3922b961	0.00015518583
165	0x3b2a9797	0.0026030296
166	0x3ab3c439	0.0013715095
167	0x3ab5d543	0.0013872761
168	0x3a9e686e	0.0012085566
169	0x3a83e3e4	0.0010062424
170	0x39cab576	0.0003866364
171	0x3af629fa	0.001878082
172	0x3ab03c4e	0.0013445707
173	0xb4c429f2	-3.6538364e-07
174	0x39cc8089	0.00039005678
175	0x3947988a	0.00019034944
176	0x394796ba	0.00019034269
177	0x3a01178c	0.0004924468
178	0x3abcc44b	0.0014401762
179	0x3a735fc6	0.0009283986
180	0xbc7bc165	-0.015365933
181	0x3bee4789	0.0072717112
182	0x3cc120ce	0.023575213
183	0x3cd12a9e	0.025533017
184	0xb6f4bc2f	-7.293674e-06
185	0xbb914a2c	-0.004433891
186	0x3ce60a65	0.028081128
187	0x3d32931a	0.04359732
188	0xbc9e1106	-0.019295227
189	0xbc6ae07b	-0.014335747
190	0xbbc09eae	-0.005878291
191	0xbc9e319f	-0.01931077
192	0x3b31eb0f	0.0027148162
193	0x3aaea16d	0.0013323255
194	0xbb638a4b	-0.003471988
195	0x3c094c81	0.008380056
196	0xbaae6b11	-0.0013307055
197	0x3ba132df	0.0049193944
198	0x3bf8f59f	0.0075976397
199	0x3ad07a60	0.0015905611
200	0x3ac32552	0.0014888442
201	0xba8713e6	-0.0010305613
202	0x3bd7a7ec	0.006581297
203	0x3aae8069	0.0013313416
204	0xbb1b59f3	-0.0023704737
205	0xba46f3a6	-0.0007589407
206	0xb9b12202	-0.0003378541
207	0xb88d4290	-6.735802e-05
208	0xba59dfea	-0.0008311259
209	0xba8e7120	-0.0010867454
210	0xb7ac29f1	-2.0523528e-05
211	0xbb28f38f	-0.0025779938
212	0xbb27812d	-0.0025559172
213	0xbaf56860	-0.0018723123
214	0xb92c250d	-0.00016417001
215	0xba36e5bf	-0.0006976984
216	0x3b9980c6	0.0046845404
217	0x3c00ba10	0.007856861
218	0x3c2a6dfa	0.010402197
219	0x3b507292	0.003180657
220	0xbac121ad	-0.0014734768
221	0x3b308102	0.0026932363
222	0x3bfb1766	0.0076627014
223	0x3c16d957	0.009207091
224	0x3c17dce0	0.009268969
225	0x3bb08ed3	0.0053881197
226	0x3a693a0a	0.0008896893
227	0xbabc059a	-0.0014344931
228	0x3b35d041	0.0027742537
229	0xb98f3a99	-0.00027318744
230	0xbabd4e61	-0.0014442914
231	0x3b1648fa	0.002293168
232	0xba627d85	-0.00086399197
233	0x39c1ada3	0.00036941198
234	0x38d2d481	0.00010053162
235	0xb6c18463	-5.76726e-06
236	0xb87a0226	-5.9606646e-05
237	0x3b3304fe	0.0027316208
238	0x3ac4eced	0.0015024223
239	0xb8ba8b0f	-8.895073e-05
240	0x3a3fb925	0.00073136605
241	0x3916934d	0.00014359989
242	0x3a87fab2	0.0010374396
243	0x3920a1d2	0.00015319072
244	0x38ca31bc	9.641374e-05
245	0xba3a1feb	-0.0007100093
246	0x3920c4fb	0.0001533217
247	0x3a22dc5e	0.0006212647
248	0x3a259969	0.00063171104
249	0x3999b543	0.00029317485
250	0x3a050347	0.0005074036
251	0x3983c7c1	0.00025135095
252	0x3b90d752	0.0044201994
253	0x3b4d86e1	0.0031360912
254	0x3bad07e1	0.0052804803
255	0x3b589e23	0.0033053241

lstm.lstm1.weight_hh_l0 f4 [256, 64]
0	0x370c9506	8.3793475e-06
1	0x37962abf	1.7901299e-05
2	0xb7abd9c7	-2.0486199e-05
3	0x37230cfd	9.718581e-06
4	0x37d7d1c7	2.5727682e-05
5	0xb70dcfba	-8.45262e-06
6	0xb6948dad	-4.427237e-06
7	0xb7522bd2	-1.2527178e-05
8	0x36ffe0a6	7.6257447e-06
9	0xb84e0add	-4.9124345e-05
10	0xb8251cbb	-3.9365823e-05
11	0xb70dc357	-8.449736e-06
12	0x36be990c	5.6802583e-06
13	0x380d9d02	3.3763245e-05
14	0xb7cf6888	-2.4725e-05
15	0xb6e5ca9d	-6.848319e-06
16	0xb8937c90	-7.032708e-05
17	0x37c47d0b	2.3423248e-05
18	0x37187ad9	9.088509e-06
19	0x379ab4a6	1.8442352e-05
20	0xb7156151	-8.90375e-06
21	0xb71c9a1b	-9.334205e-06
22	0x3712f2e1	8.758828e-06
23	0xb5f0ab62	-1.7931272e-06
24	0x372dd01d	1.0360059e-05
25	0xb7e00b0b	-2.6708023e-05
26	0x373242a3	1.0625142e-05
27	0x353ee95e	7.112011e-07
28	0x34c33dd8	3.6366578e-07
29	0xb5deec95	-1.6609143e-06
30	0xb869b66b	-5.572142e-05
31	0x38558c47	5.09138e-05
32	0x37ac8d2f	2.0569742e-05
33	0x38208da5	3.827889e-05
34	0x37fd56bd	3.0200341e-05
35	0xb52e3c03	-6.490738e-07
36	0x37444b60	1.170006e-05
37	0xb7a54886	-1.9703304e-05
38	0x3826c214	3.9758233e-05
39	0x3799d040	1.8335995e-05
40	0xb8254ad3	-3.940875e-05
41	0xb8241995	-3.9124472e-05
42	0xb76430fa	-1.3601262e-05
43	0xb6016af1	-1.9284746e-06
44	0x3833e7cc	4.2892803e-05
45	0xb1d94912	-6.3238383e-09
46	0xb84812bf	-4.7701174e-05
47	0xb79c99d0	-1.8668274e-05
48	0x36d16da5	6.2414497e-06
49	0x375b96b9	1.308851e-05
50	0x374d9658	1.2253957e-05
51	0xb5dfe970	-1.6682734e-06
52	0xb8b2dba0	-8.52861e-05
53	0x37ca2a7c	2.410006e-05
54	0xb6c52bfa	-5.876177e-06
55	0x37d61fc7	2.5525585e-05
56	0x37a8c5cc	2.0119267e-05
57	0xb7972167	-1.8016157e-05
58	0xb7b0c4e1	-2.1072514e-05
59	0x382f544f	4.180177e-05
60	0xb7eb9419	-2.8083146e-05
61	0x372edc7d	1.0422545e-05
62	0xb801ba5f	-3.092957e-05
63	0x37b69098	2.1763422e-05
64	0x3a08fb87	0.0005225469
65	0xbaf9fec5	-0.001907312
66	0x37cc3eeb	2.4347994e-05
67	0xbab00a42	-0.0013430791
68	0x369bab2b	4.6392865e-06
69	0x39ba3e5a	0.0003552314
70	0xbaf6650d	-0.0018798426
71	0xba4401f9	-0.00074771006
72	0xba6e4a26	-0.00090900285
73	0xbad3f897	-0.0016172108
74	0xbaa11a53	-0.001229117
75	0xbb120187	-0.0022278742
76	0xb882e494	-6.241459e-05
77	0xbb002531	-0.0019553418
78	0xbac4e0cc	-0.0015020608
79	0xba855427	-0.0010172174
80	0xba0835d0	-0.0005196007
81	0x3a1cf78f	0.0005987817
82	0xbaf725d9	-0.0018855884
83	0xb85496b9	-5.068511e-05
84	0x3a0cb5d4	0.00053676707
85	0xbaac0b55	-0.0013125936
86	0xb99d3f0f	-0.00029992356
87	0xbad0afc2	-0.001592152
88	0xba5f1404	-0.00085097575
89	0xba85d2df	-0.0010209939
90	0x3abd6f04	0.0014452641
91	0xba37550a	-0.0006993568
92	0xbab8518a	-0.0014062386
93	0x3a3ea7d7	0.0007272935
94	0xbb29ba10	-0.0025898255
95	0xbad436a2	-0.0016190598
96	0xbaac314d	-0.0013137251
97	0xbb161609	-0.0022901318
98	0xba9584a5	-0.0011407329
99	0xb8cd943a	-9.802771e-05
100	0xbb22094e	-0.0024724784
101	0xbb3115d9	-0.002702108
102	0xb9eb0f17	-0.00044833936
103	0xb8b730a3	-8.735179e-05
104	0xbabe36e3	-0.0014512207
105	0xbac6c12b	-0.001516377
106	0xbb6c0452	-0.0036013317
107	0x3a4c40b9	0.0007791627
108	0xba5b7b2e	-0.0008372542
109	0xba42577f	-0.00074135506
110	0xba078d59	-0.0005170904
111	0x39e7a059	0.00044179222
112	0xba2be2a8	-0.0006556907
113	0x3a347fac	0.00068854797
114	0xba9ccdad	-0.0011963152
115	0xba912593	-0.001107382
116	0xbb4b3913	-0.003100936
117	0x397bbe4c	0.00024008116
118	0x39fe9b07	0.0004856216
119	0xbabd3134	-0.0014434219
120	0xbaafe04c	-0.0013418286
121	0xb9d8c833	-0.0004134789
122	0xbac8bef6	-0.00153157
123	0xbb2914ef	-0.002579983
124	0xba99726e	-0.0011707076
125	0xb7eb7877	-2.8070279e-05
126	0xb60a5a48	-2.0616153e-06
127	0xb902f6d2	-0.00012489714
128	0xb9aedc1a	-0.00033351855
129	0xba6eed7b	-0.0009114367
130	0xbb135387	-0.0022480206
131	0xb99adc1f	-0.00029537172
132	0xb910087d	-0.00013736072
133	0x399fb588	0.00030462095
134	0x38dfe2a8	0.00010675687
135	0xba4db93d	-0.0007847732
136	0xba178bac	-0.00057810056
137	0xbb1de94f	-0.0024095362
138	0x3b29c0d1	0.002590228
139	0xbb3ff016	-0.002928739
140	0xb9d63714	-0.00040858297
141	0x3a1e6fe3	0.0006043894
142	0xbae253b7	-0.0017267381
143	0xba15e509	-0.0005718028
144	0xba3c7b4a	-0.00071900024
145	0xbac4b575	-0.0015007692
146	0xba85080a	-0.001014949
147	0xb8c6fae4	-9.488108e-05
148	0x390f13e9	0.0001364496
149	0xba9e3d64	-0.0012072739
150	0xb9a89125	-0.00032151598
151	0xba7114aa	-0.00091964996
152	0xba1bd977	-0.00059451855
153	0xbac77f60	-0.0015220456
154	0xb9c0eb8b	-0.00036796587
155	0xbaaf775f	-0.0013387016
156	0xb9fbd3d1	-0.00048032266
157	0x3995294b	0.0002845026
158	0xbb2bd9bf	-0.0026222316
159	0xb92f5285	-0.00016720041
160	0x39955a8b	0.00028486954
161	0xbb224c90	-0.0024764873
162	0x38bedc4b	9.100939e-05
163	0xba9c30dd	-0.0011916418
164	0xba844fa0	-0.0010094531
165	0xbb014ffc	-0.0019731512
166	0x3a454c0d	0.0007526286
167	0x3a0b3cf3	0.00053115113
168	0xbacdc569	-0.0015699092
169	0xbb2f4f6d	-0.0026750222
170	0xbb46e863	-0.0030350916
171	0xb9f2ad7b	-0.0004628709
172	0xbaea1b6a	-0.0017860953
173	0xbaa31809	-0.0012443076
174	0xbb09c96f	-0.0021024605
175	0xbac77872	-0.0015218391
176	0xba8f0c89	-0.001091377
177	0x381e01bd	3.7671754e-05
178	0xba23b228	-0.0006244504
179	0xb98aa582	-0.00026444724
180	0xbb1f0f26	-0.0024270504
181	0xb8052ee5	-3.1753345e-05
182	0x391737d4	0.0001442128
183	0xb7ec29d0	-2.8152863e-05
184	0xba799407	-0.0009520654
185	0xba9fb309	-0.0012184094
186	0x39812992	0.0002463577
187	0x3a9ac3d2	0.0011807627
188	0xba37814f	-0.00070001645
189	0xba002d13	-0.0004889529
190	0xba3a7647	-0.00071129616
191	0xb97b5d00	-0.0002397187
192	0x37aa507d	2.030306e-05
193	0x3abeae0c	0.001454772
194	0xb9ee0a5d	-0.0004540262
195	0xbb83a967	-0.004017997
196	0x3abd5d34	0.0014447332
197	0x395b05bb	0.00020887602
198	0x384322c0	4.6523986e-05
199	0x39a93b2b	0.00032278275
200	0xba779052	-0.00094438076
201	0x39f96585	0.0004756862
202	0xba8fbf84	-0.001096711
203	0x3976b90e	0.00023529326
204	0xba411de9	-0.00073668227
205	0x3aaad4b7	0.0013033365
206	0x3a02a493	0.000498363
207	0xbb800989	-0.0039073867
208	0xbab5a2cb	-0.001385772
209	0xba72cf4a	-0.0009262456
210	0xbb034d6d	-0.0020035163
211	0xbad29d6f	-0.0016068647
212	0x39a7ca36	0.0003200338
213	0xba440dee	-0.00074788823
214	0x39e99105	0.0004454927
215	0xbb02d464	-0.001996302
216	0xb958f460	-0.00020690402
217	0xbababf1b	-0.0014247628
218	0xba0516b1	-0.00050769286
219	0x3a1daa10	0.0006014416
220	0x3b71abf9	0.0036876185
221	0xb971cd1b	-0.00023059959
222	0xb7d42df8	-2.5293775e-05
223	0xbb957c26	-0.004561919
224	0xbab7c4d0	-0.0014020447
225	0xb83a822e	-4.4467095e-05
226	0x38f7ba2a	0.000118125536
227	0xba2ba889	-0.0006548246
228	0xba82f2eb	-0.0009990608
229	0x370468dc	7.892228e-06
230	0xbaa42ce0	-0.0012525581
231	0x3a25c28c	0.000632324
232	0xba9c7da5	-0.00119393
233	0xba90cd82	-0.0011047574
234	0x3b3b0ad9	0.0028540401
235	0xbac28e56	-0.0014843445
236	0x3af0707a	0.0018344068
237	0x37056d8c	7.952924e-06
238	0xbaa28b9b	-0.0012401225
239	0x3a864a9b	0.0010245623
240	0x38bf5fa8	9.125407e-05
241	0xb8f79398	-0.00011805369
242	0x3a1b8a93	0.000593343
243	0xb9f67025	-0.0004700433
244	0x39bbf0f9	0.00035846958
245	0x39a3f744	0.0003127401
246	0xba19569f	-0.00058493944
247	0xb9dc2515	-0.00041989298
248	0xb9e19c1a	-0.0004303165
249	0xb9f3566d	-0.00046412964
250	0xbb3ab9ea	-0.002849216
251	0xba17e031	-0.00057936
252	0xbb331339	-0.002732469
253	0xba7fa20a	-0.0009751624
254	0xba624ae3	-0.0008632375
255	0xb87db951	-6.049249e-05

lstm.lstm1.bias_ih_l0 f4 [256]
0	0xb9f2ee1b	-0.0004633524
1	0xbb7edf12	-0.0038890284
2	0x3c3def5d	0.011592713
3	0x3cd98519	0.026552724
4	0x3a90a8ab	0.0011036595
5	0x3a26cad6	0.00063626224
6	0xbaa4b6ee	-0.0012566724
7	0x3a19b416	0.0005863322
8	0xb8a15141	-7.692213e-05
9	0x3cf0ca5d	0.02939337
10	0x3c096c4c	0.008387636
11	0x3c1bfcf4	0.009520758
12	0x3bed4a69	0.0072415364
13	0x3a84a48a	0.0010119837
14	0x3a04f9dd	0.0005072633
15	0x3d351468	0.044208914
16	0x3beb592d	0.0071822614
17	0xba7647e5	-0.00093948684
18	0x3b9a8cf7	0.0047165114
19	0x3ab2570a	0.0013606262
20	0xb8b3007d	-8.535476e-05
21	0x3b227419	0.0024788438
22	0x3b03579c	0.0020041233
23	0xbd2685bf	-0.040654894
24	0x391278af	0.00013968603
25	0x3ba01cbf	0.0048862393
26	0x3949b257	0.0001923529
27	0x3a920936	0.0011141661
28	0x3cd327b1	0.025775762
29	0x3a4f8e0d	0.00079175906
30	0x3cbd20a8	0.02308686
31	0x3cda082b	0.026615223
32	0x3a87cd3f	0.0010360851
33	0x3bf48d0a	0.007463102
34	0xba50f912	-0.00079716847
35	0x3b16a49e	0.0022986303
36	0xbc4c19c4	-0.012457315
37	0x3c112826	0.00885967
38	0xbbfa5429	-0.007639427
39	0x3a10f534	0.0005529702
40	0x3bbddf87	0.005794469
41	0x3c061779	0.008184307
42	0xbd8f968c	-0.070111364
43	0x3b85e150	0.0040856972
44	0x3c1b7380	0.009487987
45	0x3b6cdc68	0.0036142115
46	0xbb3b6be6	-0.0028598248
47	0x3b4312ad	0.002976577
48	0x3afe796c	0.0019414849
49	0x3a8e340f	0.0010849255
50	0x3c0c106b	0.008548836
51	0x39f50a20	0.00046737585
52	0xbc462cda	-0.012095654
53	0x39cb920c	0.0003882799
54	0xba2be018	-0.0006556525
55	0xbae78632	-0.0017663895
56	0x3a6ac343	0.0008955488
57	0x3b1ea05a	0.0024204464
58	0xbc405bc1	-0.011740626
59	0xbc7eff8d	-0.015563858
60	0x3cda34a0	0.026636422
61	0x3c58081a	0.013185525
62	0x3b41e369	0.002958501
63	0x3a67d674	0.00088439067
64	0xba5232a1	-0.00080184086
65	0x3c8fc964	0.017552085
66	0x3c49e990	0.012323752
67	0x3c753b4b	0.01496775
68	0x3a9dfa3b	0.0012052724
69	0x3b124be9	0.0022323078
70	0x3a343f92	0.0006875928
71	0xb9f5359a	-0.00046769978
72	0xba550a48	-0.0008126837
73	0x3c1d04eb	0.009583692
74	0x3c1cb2c6	0.009564107
75	0x3bce196b	0.006289651
76	0x3bb0ff7a	0.005401549
77	0x39d7ac50	0.00041136378
78	0xb6fcf590	-7.5387725e-06
79	0xbca2803e	-0.019836541
80	0x3b04ad21	0.0020244794
81	0xbb386649	-0.0028137139
82	0x3bec713c	0.007215647
83	0xba28766a	-0.00064263365
84	0xb92f33f0	-0.00016708649
85	0x3b4fb2fb	0.0031692374
86	0x39fe572e	0.0004851161
87	0x3c9f2174	0.019425131
88	0xb938b843	-0.0001761625
89	0x3bc466ee	0.0059937155
90	0xba974e1f	-0.0011543668
91	0x3ab1f24c	0.0013576238
92	0x3c9041b6	0.017609458
93	0x3a00bcb0	0.0004910929
94	0xbc21ea7b	-0.009882565
95	0x3d21c6cc	0.039496228
96	0x3b64f444	0.0034935633
97	0x3bae534e	0.0053199893
98	0xba3a5eff	-0.00071094924
99	0x3adcf93e	0.0016858948
100	0xbca96a68	-0.020680621
101	0x3c162294	0.0091635175
102	0x3ba6ba31	0.0050881137
103	0x3a86fc9e	0.0010298674
104	0x3be63d8f	0.0070263813
105	0x3bda51a9	0.0066625667
106	0xbd95b4fa	-0.07309909
107	0x3b72186f	0.0036940833
108	0x3ba4bd3d	0.005027442
109	0x3b44b661	0.0030015933
110	0xbc1ec97e	-0.009691594
111	0x3b3da990	0.0028940178
112	0x3ad3804b	0.0016136257
113	0x3a90327e	0.0011001376
114	0x3b2cd037	0.0026369223
115	0x3a3b7b27	0.0007151835
116	0xbc5bf237	-0.013424448
117	0x395d2720	0.00021090778
118	0xba96947b	-0.0011488342
119	0xba718342	-0.00092129793
120	0xbc80db24	-0.015729494
121	0x3aebbf90	0.0017986167
122	0xbcfc33d9	-0.030786442
123	0x3c9e9664	0.019358821
124	0xbc4a6fc9	-0.012355753
125	0x3c0fb55b	0.008771266
126	0x3b47038c	0.0030367104
127	0xb913e71e	-0.0001410511
128	0xbb2f633c	-0.002676203
129	0x3d6c3851	0.057670895
130	0xbd3faa98	-0.04679355
131	0x3c8c5537	0.017130477
132	0x3d0da644	0.03458239
133	0x3d9a16de	0.07523893
134	0x3d8a1f6d	0.06744275
135	0x3c9159a0	0.017742932
136	0x3d31a696	0.04337176
137	0x3d3a3c7c	0.04546784
138	0xbd312c62	-0.043255217
139	0x3d570458	0.052494377
140	0x3d9d3b55	0.07677332
141	0xbd4bef4b	-0.049788754
142	0xbdb0bbcc	-0.086295694
143	0x3bfc3d8e	0.0076977676
144	0xbcc21b36	-0.023694616
145	0xbaa4e56f	-0.0012580584
146	0xbd8cee50	-0.06881392
147	0x3b4ae409	0.0030958673
148	0xbc45be22	-0.012069257
149	0x3cddb1e0	0.027062356
150	0x3cb0425a	0.021516014
151	0x3d2ee6c0	0.04270053
152	0xbd2075f6	-0.039174996
153	0x3d52bebb	0.051451426
154	0xbd565fd5	-0.052337486
155	0x3d7101fa	0.058839776
156	0xbc83ecb8	-0.016104087
157	0xbce6c1a9	-0.028168516
158	0x3c9b561e	0.018961962
159	0x3db45a11	0.08806241
160	0x3c6739b3	0.014112878
161	0x3d2e4cd2	0.04255373
162	0x3d5ace0b	0.053419154
163	0xbc3794eb	-0.011204938
164	0x3da1f289	0.07907588
165	0x3c90e49d	0.017687136
166	0x3d2797d6	0.040916286
167	0xbca5b316	-0.020226996
168	0xbc3a8668	-0.011384584
169	0xbabecbd2	-0.0014556593
170	0x3d3a5ebc	0.045500502
171	0xbc607ff6	-0.013702383
172	0x3d48c20f	0.049013194
173	0xbc1162df	-0.00887367
174	0x3d761512	0.060078688
175	0xbd94a000	-0.0725708
176	0xbc8d8773	-0.017276501
177	0x3c8d9809	0.01728441
178	0x3d0e0cad	0.034680057
179	0xbd877259	-0.06613607
180	0x3dabedf4	0.08394995
181	0x3ceac8bd	0.028660173
182	0x3d4c535e	0.049884193
183	0x3db4112f	0.0879234
184	0x3d91fec8	0.07128674
185	0xb992ce32	-0.00028000918
186	0xbd9a8a65	-0.07545928
187	0x3d77e957	0.060525265
188	0xbc1063e7	-0.008812881
189	0xbcdad500	-0.026712894
190	0xbcac13eb	-0.021005591
191	0xbce4a137	-0.027908904
192	0xb9eff93a	-0.0004577132
193	0x3bab9809	0.00523663
194	0x3c41f1fb	0.011837478
195	0xbd4520af	-0.048126873
196	0x3a90211b	0.0010996194
197	0x3a182c83	0.00058049726
198	0x39ca0f27	0.00038539732
199	0x3a2100b7	0.0006141769
200	0xb853222e	-5.0338153e-05
201	0x3c5340be	0.012893854
202	0x3b5022b0	0.0031758957
203	0xbaec61f9	-0.0018034569
204	0x3bf0b904	0.0073462743
205	0x3a62dc23	0.0008654019
206	0x39e01395	0.000427392
207	0x3d4f75f0	0.050649583
208	0x3bcb18ac	0.0061980095
209	0xba5c0465	-0.0008392989
210	0x3bee8083	0.0072785034
211	0x3ab68f94	0.0013928288
212	0xb8977081	-7.2211966e-05
213	0x3b24c527	0.0025141926
214	0x3af8d866	0.001898539
215	0xbcb946b7	-0.022616727
216	0x391fa4e1	0.00015224844
217	0x3b979433	0.004625821
218	0x393efc8c	0.00018213893
219	0x3a921630	0.0011145528
220	0x3cc9edc6	0.024649512
221	0x3a61da68	0.0008615614
222	0x3cac805f	0.021057306
223	0xbcecc2d8	-0.028901502
224	0x3c6151a0	0.013752371
225	0x3bf4cfb2	0.0074710483
226	0xba3fb16a	-0.00073125085
227	0x3b16b398	0.002299523
228	0xbc83c00f	-0.016082792
229	0x3c110634	0.008851577
230	0xbbb91c4e	-0.005649126
231	0x3a1946da	0.00058470445
232	0x3bbd97f9	0.005785939
233	0x3c1497ef	0.009069427
234	0x3da9bd99	0.08288116
235	0x3b873ea6	0.0041273413
236	0x3c1b842b	0.0094919605
237	0x3b6585d2	0.003502239
238	0x3bfd52fb	0.0077308393
239	0x3b47aed9	0.0030469208
240	0x3b000b07	0.0019537823
241	0x3a8d3313	0.0010772668
242	0xbb429b37	-0.0029694566
243	0x39f2c2ec	0.00046303065
244	0xbcc2f1e4	-0.023796983
245	0x39cb8336	0.00038816937
246	0xba22adb0	-0.0006205691
247	0xbaf3f8c8	-0.0018613571
248	0xbd238b1c	-0.039927587
249	0x3b1ccdc0	0.0023926347
250	0x3c3d7ad2	0.011564927
251	0x3b0e7ca3	0.002174177
252	0xbb2a5122	-0.00259883
253	0x3c58a676	0.013223281
254	0x3b3fa70f	0.0029243862
255	0x3a67a645	0.0008836727

lstm.lstm1.bias_hh_l0 f4 [256]
0	0xb9f2ee1b	-0.0004633524
1	0x3bc4e771	0.0060090353
2	0x3c3dea55	0.011591514
3	0xbd25df2a	-0.04049603
4	0x3a90a8ab	0.0011036595
5	0x3a26cae7	0.0006362632
6	0x3b50d064	0.0031862492
7	0x3a19b416	0.0005863322
8	0xb8a1513d	-7.69221e-05
9	0x3d341884	0.043968692
10	0x3c1e95f3	0.009679305
11	0xbccd3bd5	-0.025052944
12	0x3bedcf5c	0.007257385
13	0x3a85c266	0.001020503
14	0x3a09069e	0.00052271213
15	0x3c2c6654	0.010522444
16	0x3bba2733	0.0056809424
17	0xba67253c	-0.0008817499
18	0x3c15ac74	0.009135354
19	0x3ab25683	0.0013606105
20	0xb8b3007d	-8.535476e-05
21	0x3b227419	0.0024788438
22	0x3b03579c	0.0020041233
23	0xbc13fe13	-0.009032744
24	0x391278af	0.00013968603
25	0x3bac0f53	0.00525085
26	0x395abe1b	0.0002086092
27	0x3a920936	0.0011141661
28	0x3cc18673	0.02362368
29	0x3a4f8e18	0.0007917597
30	0x3b77c61a	0.0037807287
31	0xbd340fba	-0.04396031
32	0x3bf9078d	0.007599777
33	0x3bf181c0	0.0073702037
34	0xba50f9cd	-0.00079717935
35	0x3b16a49e	0.0022986303
36	0xbd012ce9	-0.03153697
37	0x3c112848	0.008859701
38	0x3bd12f31	0.0063837995
39	0x3a10f534	0.0005529702
40	0x3bbddf87	0.005794469
41	0x3c46eae0	0.0121409595
42	0x3d584ddb	0.052808624
43	0x3b85b540	0.0040804446
44	0x3c1b9161	0.00949511
45	0x3b6cdc68	0.0036142115
46	0x3c0389a9	0.008028426
47	0x3b44443d	0.00299479
48	0x3afe796c	0.0019414849
49	0x3a8e340f	0.0010849255
50	0x3b7b2064	0.0038318867
51	0x39f5140a	0.00046744972
52	0xbd1d28a5	-0.03836884
53	0x39cb920c	0.0003882799
54	0xba2be018	-0.0006556525
55	0xbae9499f	-0.001779843
56	0xbc1d022f	-0.00958304
57	0x3b1ea05a	0.0024204464
58	0xbd1480f3	-0.036255788
59	0xbd21606e	-0.039398603
60	0x3cf2bf98	0.029632375
61	0x3c58081a	0.013185525
62	0x3b41e64d	0.0029586733
63	0x3a67d67a	0.000884391
64	0xba5232a1	-0.00080184086
65	0x3ba350b4	0.004983986
66	0x3c49e990	0.012323752
67	0xbd193f9c	-0.03741418
68	0x3a9dfa3b	0.0012052724
69	0x3b124be9	0.0022323078
70	0xb8daf66c	-0.0001044095
71	0xb9f5359a	-0.00046769978
72	0xba550a48	-0.0008126837
73	0xbd82e93b	-0.063921414
74	0x3b8749e0	0.0041286796
75	0x3b8e25b0	0.004337989
76	0x3bb0f75e	0.005400582
77	0x39d0291c	0.0003970348
78	0x3707c778	8.0930695e-06
79	0xbbf902a0	-0.00759919
80	0x3b19fb02	0.002349556
81	0xbb39b213	-0.00283349
82	0x3b8ff487	0.0043931636
83	0xba287697	-0.00064263627
84	0xb92f33f0	-0.00016708649
85	0x3b4fb2fb	0.0031692374
86	0x39fe572e	0.0004851161
87	0xbcc1fc82	-0.023679975
88	0xb938b843	-0.0001761625
89	0x3bcb391b	0.006201876
90	0xba9729c8	-0.0011532838
91	0x3ab1f24c	0.0013576238
92	0x3c85abe0	0.016317308
93	0x3a00bcb0	0.0004910929
94	0xbcd6f6c6	-0.026240718
95	0x3d049377	0.032367196
96	0xb9b47285	-0.000344176
97	0x3bafa2b7	0.0053599733
98	0xba3a5efd	-0.0007109491
99	0x3adcf93e	0.0016858948
100	0xbc76f191	-0.015072242
101	0x3c162293	0.009163517
102	0xbb5fbf9d	-0.003414131
103	0x3a86fc9e	0.0010298674
104	0x3be63d8f	0.0070263813
105	0x3c15ce70	0.009143457
106	0x3ce7fbc9	0.028318303
107	0x3b722699	0.0036949276
108	0x3ba4bcbb	0.0050273812
109	0x3b44b661	0.0030015933
110	0xbb8b7539	-0.0042559174
111	0x3b3da82b	0.0028939347
112	0x3ad3804b	0.0016136257
113	0x3a90327e	0.0011001376
114	0x3b04596d	0.0020194903
115	0x3a3b7acb	0.00071517815
116	0x3c13bcb9	0.009017163
117	0x395d2720	0.00021090778
118	0xba96947b	-0.0011488342
119	0xba70aab1	-0.00091807084
120	0x3c511f1d	0.012763766
121	0x3aebbf90	0.0017986167
122	0xbcbd5f20	-0.023116648
123	0x3c7be6c5	0.015374844
124	0x3c9efcc2	0.019407634
125	0x3c0fb55b	0.008771266
126	0x3b47035a	0.0030366988
127	0xb913e71e	-0.0001410511
128	0xbccea01c	-0.02522283
129	0x3dbfa053	0.09356751
130	0x3d9c30f0	0.076265216
131	0xbd097c62	-0.033565886
132	0xbb964516	-0.0045858724
133	0xbd8edf62	-0.06976201
134	0xbd9601ed	-0.07324586
135	0xbba75fcd	-0.005107856
136	0xbc0d0dab	-0.008609216
137	0x3d9f5e86	0.07781701
138	0x3deefb90	0.116690755
139	0x3917bced	0.00014470863
140	0xbcc3d0f6	-0.023903351
141	0x3d8399ac	0.06425795
142	0x3d88ecb1	0.0668577
143	0xbd570992	-0.05249936
144	0x3d81488f	0.063126676
145	0xbb988f40	-0.0046557486
146	0x3d700c14	0.05860527
147	0x3d9114c9	0.070840426
148	0xbc8bcfb6	-0.017066818
149	0xbcaa1f50	-0.020766884
150	0x3c72ac8f	0.014811649
151	0x3cedf821	0.029048981
152	0x3d4e9e93	0.050444197
153	0xbd5d1590	-0.05397564
154	0x3b22e097	0.0024853104
155	0xbd203dda	-0.039121486
156	0xbd8c849f	-0.06861233
157	0xbc569508	-0.013097055
158	0x3d9d5113	0.07681479
159	0x3dc2af39	0.09506077
160	0x3db1a9a8	0.086749375
161	0xbdad086d	-0.08448873
162	0xbd91685a	-0.070999816
163	0xbcdcf079	-0.026970135
164	0xbdbeff9c	-0.09326097
165	0x3d3ff779	0.046866868
166	0x39864be8	0.00025615026
167	0x3bf21257	0.00738744
168	0xbd2a6c71	-0.041607324
169	0xbd95c8b9	-0.073136754
170	0x3c628a2d	0.013826889
171	0xbd4fdd24	-0.050748006
172	0x3b832e68	0.004003335
173	0xbd2adbd8	-0.041713566
174	0xbd12af1a	-0.03581152
175	0x3dbdc43a	0.09265943
176	0x3c5e7db9	0.013579779
177	0xbcdb3ca0	-0.026762307
178	0x3d1ae58a	0.03781656
179	0x3d3c150b	0.045918506
180	0x3c1545ce	0.009110881
181	0xbc43a68a	-0.0119415615
182	0xbb5d776c	-0.0033793105
183	0xbd8d556f	-0.06901061
184	0x3daaf85c	0.08348152
185	0xbc3238c5	-0.010877793
186	0x3de9b7b4	0.11411992
187	0x3cbfc3f9	0.023408877
188	0x3d279f26	0.04092326
189	0x3d3504c6	0.044194005
190	0xbca8f2b0	-0.020623535
191	0x3d83bc59	0.06432409
192	0xb9eff93a	-0.0004577132
193	0x394b51ac	0.00019390014
194	0x3c41f0a8	0.011837162
195	0x3d6331bf	0.055467363
196	0x3a90211b	0.0010996194
197	0x3a182c87	0.0005804975
198	0xbacf8575	-0.001583262
199	0x3a2100b7	0.0006141769
200	0xb853222e	-5.0338153e-05
201	0x3d2eafd8	0.042648166
202	0x3bd08688	0.0063636936
203	0xbd1eb26d	-0.03874438
204	0x3bf043e2	0.007332311
205	0x3a6b3314	0.000897215
206	0x3a09e57f	0.0005260333
207	0x3c26cee9	0.010181167
208	0x3bc58f93	0.0060290783
209	0xba76265d	-0.0009389872
210	0x3c3ad979	0.011404389
211	0x3ab69390	0.0013929475
212	0xb8977081	-7.2211966e-05
213	0x3b24c527	0.0025141926
214	0x3af8d866	0.001898539
215	0x3c35f1ad	0.011104983
216	0x391fa4e1	0.00015224844
217	0x3bb0612a	0.0053826766
218	0x3932f131	0.00017065254
219	0x3a921630	0.0011145528
220	0x3cc05c03	0.023481375
221	0x3a61da63	0.0008615611
222	0x3cf657f0	0.030071229
223	0x3d1bc5a1	0.03803027
224	0x3b0a267c	0.0021080067
225	0x3bef995e	0.007311984
226	0xba3fb420	-0.00073129125
227	0x3b16b398	0.002299523
228	0x3cd30fdb	0.025764396
229	0x3c11063d	0.008851585
230	0x3b8df598	0.0043322556
231	0x3a1946df	0.00058470474
232	0x3bbd97f9	0.005785939
233	0x3c2b4c6a	0.01045523
234	0xbd300520	-0.042973638
235	0x3b879a5b	0.0041382737
236	0x3c1b9af6	0.009497395
237	0x3b6585d2	0.003502239
238	0xbb0027f7	-0.001955507
239	0x3b47a21e	0.003046162
240	0x3b000b07	0.0019537823
241	0x3a8d3313	0.0010772668
242	0xbb231960	-0.002488695
243	0x39f2c7ea	0.00046306784
244	0xbd083036	-0.033249103
245	0x39cb8336	0.00038816937
246	0xba22adb0	-0.0006205691
247	0xbaf4c1d1	-0.0018673484
248	0x3d353617	0.044241037
249	0x3b1ccdc0	0.0023926347
250	0xbd1d0a69	-0.038340006
251	0x3c90dcd4	0.017683424
252	0x3c959db5	0.018263677
253	0x3c58a676	0.013223281
254	0x3b3f8911	0.0029225985
255	0x3a67a64e	0.0008836732

lstm.bn1.weight f4 [7]
0	0xbbd00d33	-0.0063492297
1	0x3dbfe017	0.093689136
2	0x3e82c349	0.25539616
3	0x3ec1eda9	0.37876633
4	0x3eded1ea	0.43519527
5	0x3eedd695	0.46452776
6	0x3f2e553c	0.6809881

lstm.bn1.bias f4 [7]
0	0x3b31a772	0.0027107862
1	0x3b449157	0.0029993856
2	0x3c06916d	0.008213383
3	0x3c445f43	0.011985603
4	0x3c05827c	0.008148786
5	0x3ba77d89	0.0051114005
6	0x3d0cf351	0.034411732

lstm.bn1.running_mean f4 [7]
0	0x3c5f2932	0.013620662
1	0x3ca5f622	0.020258967
2	0x3cc08c93	0.023504531
3	0x3ccd996a	0.025097568
4	0x3cd4061b	0.025881818
5	0x3cd7312f	0.02626857
6	0x3cd8c213	0.02645973

lstm.bn1.running_var f4 [7]
0	0x39a4abe1	0.00031408577
1	0x3a309452	0.00067359686
2	0x3a69978e	0.0008910828
3	0x3a83cf22	0.0010056237
4	0x3a8b54fd	0.0010630187
5	0x3a8f05f0	0.0010911804
6	0x3a90d2d2	0.0011049157

lstm.lstm2.weight_ih_l0 f4 [256, 64]
0	0xb9acc099	-0.00032949893
1	0x3868a134	5.5463242e-05
2	0x39b1d504	0.0003391878
3	0x3a4050f5	0.0007336282
4	0xb9ca9396	-0.00038638402
5	0xb9a5aef8	-0.00031601614
6	0x3923ae35	0.00015609789
7	0xb88f765d	-6.840818e-05
8	0xb9837ebd	-0.00025080694
9	0xbb1ecbf1	-0.0024230445
10	0x3994c19e	0.00028373016
11	0xba565cd2	-0.00081772835
12	0xb88670e5	-6.410646e-05
13	0xba0b94ab	-0.00053245825
14	0x39816087	0.00024676716
15	0x3aa40473	0.0012513533
16	0x3a12aa0d	0.00055947975
17	0xba113ab8	-0.0005540061
18	0x3a653f24	0.00087450654
19	0xba33fef5	-0.00068662997
20	0xb982652f	-0.0002487092
21	0x395c1cb7	0.00020991532
22	0xb9c5c578	-0.00037721894
23	0x3aa72e3f	0.0012754871
24	0xb96c6368	-0.00022543746
25	0xb9a3bd3e	-0.0003123078
26	0xb9f61f65	-0.00046944167
27	0xb8be4ee3	-9.0746e-05
28	0xba001f91	-0.0004887516
29	0xb9912ca9	-0.0002768983
30	0xba415e1b	-0.00073763885
31	0x3a709b35	0.0009178401
32	0x3a10467c	0.0005503667
33	0x39fb0122	0.00047875295
34	0xb99db804	-0.00030082476
35	0xb902c09e	-0.00012469522
36	0x3a4a1c1a	0.0007709876
37	0x3a4cd54f	0.0007813768
38	0x3901b61d	0.00012370241
39	0xb9c01a22	-0.00036640564
40	0x3a4188e9	0.0007382767
41	0xba0155a3	-0.00049337203
42	0xb9bad258	-0.00035633403
43	0xb9fc72ff	-0.00048150864
44	0xba473696	-0.00075993815
45	0xb9b42b1b	-0.00034364391
46	0xb815e35c	-3.5736113e-05
47	0xb7b1361c	-2.112524e-05
48	0xb948f17b	-0.00019163445
49	0xb9c9ec67	-0.0003851384
50	0xba2dca00	-0.00066295266
51	0xb961002d	-0.00021457738
52	0x3a845c70	0.0010098349
53	0xb9e136fd	-0.00042956314
54	0xb986500a	-0.00025618105
55	0xb9c32ecc	-0.00037228165
56	0xb905a1a0	-0.00012744078
57	0xb8356910	-4.325161e-05
58	0x3a436269	0.0007453324
59	0xb904c1bd	-0.00012660674
60	0xbad82dad	-0.0016493105
61	0x39ac2692	0.00032835134
62	0xb7919eb5	-1.735925e-05
63	0xba1ffbec	-0.0006102908
64	0xbb22c52a	-0.0024836757
65	0x3c0bda2a	0.008535901
66	0x398db0d0	0.0002702535
67	0xbb8af72e	-0.004240892
68	0x3aa0c3b6	0.0012265358
69	0x3a90a336	0.0011034969
70	0x3b05922e	0.002038132
71	0xbb4629b6	-0.0030237264
72	0x3b168c65	0.0022971865
73	0x3bc01fc5	0.005863162
74	0x3b23c170	0.0024987124
75	0x3c5c33b7	0.013440064
76	0xbbb5fe5c	-0.0055540036
77	0x3b4af2b7	0.0030967423
78	0xbaffd6bb	-0.0019518951
79	0x3bc8bc6d	0.0061259777
80	0xb97760a1	-0.00023591753
81	0xbb63baff	-0.003474891
82	0x3b64bb4b	0.0034901674
83	0xba1b624b	-0.00059274276
84	0xbb2e0f10	-0.002655927
85	0xbb0280a6	-0.0019913106
86	0x3b42ffbc	0.002975448
87	0x3ba4b459	0.005026382
88	0x37f5a37c	2.9282404e-05
89	0xbbd5fcbb	-0.006530372
90	0xbb5a68a5	-0.0033326533
91	0xbb05a964	-0.0020395154
92	0x3bd77337	0.006575014
93	0xbb469296	-0.0030299774
94	0xbba83345	-0.005133065
95	0xbcb9bf30	-0.022674173
96	0x3b517746	0.0031961962
97	0x3afb3417	0.0019165304
98	0x3b918e16	0.004441987
99	0xbb81807f	-0.0039520855
100	0x3bd7beb4	0.006584013
101	0xbb3d1185	-0.0028849554
102	0x3bc3467f	0.0059593315
103	0x394ccdc7	0.00019531614
104	0xbabfcecd	-0.0014633775
105	0xbc0492cf	-0.0080916425
106	0x3cd819b0	0.026379436
107	0xbb6ebde4	-0.0036429102
108	0x3b21992f	0.0024657955
109	0xbb86da7b	-0.0041154004
110	0xbb9b65b6	-0.0047423495
111	0xbb25681a	-0.0025239051
112	0xbb406bca	-0.0029361122
113	0xbac329c1	-0.0014889763
114	0x3ba812cb	0.0051291934
115	0x3a1eca70	0.0006057387
116	0xbb797fd9	-0.0038070588
117	0xbac17f3d	-0.0014762651
118	0xbad9937c	-0.001659974
119	0x3bd54da3	0.006509499
120	0x3c94cbc5	0.018163571
121	0xbb91cc32	-0.004449391
122	0x39fb536c	0.00047936605
123	0x3c34b39d	0.011029151
124	0xbb357b28	-0.0027691815
125	0xbb29da14	-0.0025917338
126	0xbb4dd844	-0.0031409422
127	0x399d8f9e	0.00030052377
128	0x388ff848	6.865017e-05
129	0xb9e9dbb3	-0.00044604912
130	0xbaa01fd9	-0.0012216523
131	0xbb187c71	-0.0023267532
132	0x3a5268ae	0.0008026463
133	0x395ed958	0.00021252537
134	0xba2f460a	-0.0006686157
135	0xba059b2a	-0.00050966686
136	0xb99630ae	-0.000286465
137	0xbac08cf1	-0.0014690441
138	0x385a34de	5.2024487e-05
139	0xb90b8119	-0.00013304166
140	0xb9cc2898	-0.00038940157
141	0x3b0a3576	0.0021088994
142	0xbaab58b5	-0.0013072701
143	0xba8e9795	-0.0010878915
144	0xba9c9ac3	-0.0011947978
145	0xb6ac8eab	-5.142608e-06
146	0xba97d409	-0.0011583577
147	0x3974f7fe	0.00023362038
148	0xb890f95d	-6.9129026e-05
149	0xbad1a1e2	-0.0015993679
150	0x3a5dead1	0.00084654713
151	0x3a298cd3	0.0006467823
152	0x394e48e2	0.00019672842
153	0xbaae7913	-0.0013311229
154	0x37ca52b8	2.4118795e-05
155	0xb8ac9424	-8.2291925e-05
156	0xb9a136ef	-0.00030749242
157	0xb9834fc6	-0.00025045703
158	0xbb54deff	-0.003248155
159	0xba396037	-0.0007071527
160	0xbabe81ce	-0.0014534534
161	0xbb1d5d95	-0.0024012078
162	0xb9b60a06	-0.00034721213
163	0xba48531c	-0.0007641779
164	0xbb20ae9f	-0.0024518145
165	0xbb2659c0	-0.0025383085
166	0xba10d2d4	-0.000552458
167	0x3a965843	0.0011470396
168	0xbb49249f	-0.0030691994
169	0xbb85eea4	-0.004087286
170	0x39fe1c58	0.00048467773
171	0x3974a535	0.00023331198
172	0xb92d8f05	-0.00016551845
173	0xba1539c2	-0.00056925055
174	0xbb58ccd1	-0.0033081064
175	0xb991f79b	-0.00027841036
176	0xb9ca8b10	-0.00038632052
177	0x3a3729b1	0.00069871085
178	0x3aec4d54	0.0018028417
179	0xb81879d9	-3.6353103e-05
180	0xbb2bb9cc	-0.0026203273
181	0x3931882f	0.00016930768
182	0x39396a5d	0.00017682598
183	0xba15890d	-0.0005704321
184	0x3b69d287	0.0035678463
185	0xb9d03161	-0.00039709642
186	0xbb001812	-0.0019545597
187	0x3a08a82e	0.0005213049
188	0xbad954ba	-0.0016581037
189	0x3ad08a96	0.0015910442
190	0xba8ef731	-0.0010907409
191	0x3a8aa406	0.0010577447
192	0xb8b1f9c5	-8.486541e-05
193	0xb9c4a5d4	-0.00037507585
194	0x3991d173	0.00027812607
195	0x389eb79d	7.568228e-05
196	0xb9281e3b	-0.0001603299
197	0xb889cde6	-6.571021e-05
198	0xb97d5a4c	-0.00024161598
199	0xb899f3a5	-7.340991e-05
200	0xb967af92	-0.00022095282
201	0xb8a2a547	-7.755547e-05
202	0x3908b520	0.00013037445
203	0xb9838f37	-0.0002509297
204	0xb8268738	-3.9703416e-05
205	0xba13afb1	-0.0005633785
206	0x3824138a	3.9118844e-05
207	0x392e1d39	0.0001660482
208	0x3a01ab10	0.000494645
209	0xb7b4424f	-2.148855e-05
210	0x395f2a39	0.00021282666
211	0xb97a988b	-0.00023898685
212	0xb8dd7774	-0.00010560351
213	0xb838abc9	-4.4029006e-05
214	0xb91d88be	-0.00015023627
215	0x3a150a6c	0.0005685452
216	0xb9280613	-0.00016023991
217	0x392934b4	0.0001613673
218	0xb920e356	-0.00015343478
219	0xb86a5713	-5.587104e-05
220	0xb9d2ffc3	-0.0004024488
221	0xb9098989	-0.00013116574
222	0x39501eaa	0.00019847849
223	0xb5a1f7bf	-1.2067538e-06
224	0xb95f0e4f	-0.00021272268
225	0xb7f355aa	-2.9007748e-05
226	0xb984a4ef	-0.00025299887
227	0xb7841382	-1.574471e-05
228	0xb8c7c808	-9.526318e-05
229	0x37a98bb7	2.021143e-05
230	0xb823ef72	-3.908523e-05
231	0xb973b92e	-0.0002324327
232	0x39aeb98c	0.0003332611
233	0x3932e649	0.00017061191
234	0xb8afb782	-8.378831e-05
235	0xb7ef3953	-2.8517714e-05
236	0xb9a27134	-0.0003098339
237	0xb9124bb5	-0.00013951848
238	0x3a288a2b	0.000642928
239	0x3849e3ee	4.813441e-05
240	0xb8c4132c	-9.349579e-05
241	0xb8cf5230	-9.885838e-05
242	0xb995fb42	-0.00028606696
243	0xb8afaacd	-8.3764644e-05
244	0x3a1780c3	0.000577938
245	0xb92a3c1f	-0.0001623486
246	0xb9036939	-0.00012532332
247	0xb988eb5d	-0.000261153
248	0xb9881c51	-0.0002596104
249	0x38dff7ef	0.0001067965
250	0x397368bc	0.00023213302
251	0xb9d1bf95	-0.00040006326
252	0x3867a509	5.5228393e-05
253	0x39054054	0.00012707833
254	0xb7d1dcca	-2.5017554e-05
255	0xb98bc4ce	-0.00026658777

lstm.lstm2.weight_hh_l0 f4 [256, 64]
0	0x392827f9	0.0001603662
1	0x38db093d	0.000104444545
2	0x3842a136	4.6403344e-05
3	0x391ee6d2	0.00015154041
4	0x38c5a6e6	9.424779e-05
5	0x38ff1f2d	0.000121651545
6	0x38dcd389	0.00010529819
7	0x37b0971c	2.10512e-05
8	0x390c0599	0.00013353526
9	0x38361d73	4.3419608e-05
10	0x3900e1b8	0.00012291118
11	0x38809bd5	6.1325416e-05
12	0xb889405c	-6.544657e-05
13	0x3823fad0	3.9095816e-05
14	0xb77f0a94	-1.5201647e-05
15	0x38d36004	0.00010079148
16	0x392fb313	0.00016756011
17	0x38f7da33	0.000118185206
18	0x38d2ec52	0.000100575984
19	0x39307544	0.00016828353
20	0x38f87509	0.00011847361
21	0x392c49d2	0.00016430698
22	0x39819118	0.000247129
23	0x3904b2e9	0.0001265515
24	0x392f961e	0.00016745224
25	0x38e092ab	0.000107084714
26	0xb7f21df1	-2.886259e-05
27	0x3924eb58	0.00015727931
28	0x3791f561	1.739961e-05
29	0x3992eb36	0.00028022536
30	0x391b8238	0.00014830462
31	0x38f4a1c0	0.00011664955
32	0x386f12a4	5.69994e-05
33	0x38ec3288	0.00011262769
34	0x3917d27f	0.00014478898
35	0x3921893f	0.00015405285
36	0x381201f7	3.4810942e-05
37	0x38e28fbb	0.00010803292
38	0x39335c99	0.00017105266
39	0x3787ffce	1.6212372e-05
40	0x390be769	0.0001334228
41	0x38a4c925	7.8575955e-05
42	0x3909c79a	0.00013139696
43	0x3891d363	6.953513e-05
44	0x3908fae3	0.00013063433
45	0xb9a70680	-0.00031857565
46	0x3922c662	0.00015523427
47	0x39305a1f	0.0001681824
48	0xb8ae1934	-8.301661e-05
49	0x3882d37e	6.2382765e-05
50	0x39191a9f	0.00014601134
51	0xb891c42e	-6.95068e-05
52	0x376ba8e9	1.4046419e-05
53	0x38e7a51a	0.00011045691
54	0x39832b96	0.0002501874
55	0x39156f31	0.0001425117
56	0x392a0a3d	0.00016216277
57	0x38fa78ba	0.00011943416
58	0x3980497f	0.0002446882
59	0x39112848	0.00013843284
60	0x38cc43b3	9.740088e-05
61	0x38ae63f4	8.315584e-05
62	0x3940f41a	0.00018401482
63	0x38ee81b9	0.00011372887
64	0xba8191ce	-0.0009885372
65	0xbaa5ccc7	-0.0012649529
66	0x3ab31777	0.0013663609
67	0xba2b5b60	-0.0006536748
68	0xba04ca48	-0.00050655426
69	0xb97e24bb	-0.00024237011
70	0xb97cf1e4	-0.00024122704
71	0xbb7fca67	-0.0039030553
72	0xb8f1bd4d	-0.000115270355
73	0x3b12c3be	0.0022394503
74	0xba1fc83e	-0.0006095207
75	0xb6f37fce	-7.2568428e-06
76	0x3b2be1a2	0.0026227017
77	0x3b0c8847	0.0021443532
78	0xba133d52	-0.00056167424
79	0xba6fd8d0	-0.0009149434
80	0x396811ea	0.00022131918
81	0x3786074e	1.5977446e-05
82	0x396e75c6	0.00022741323
83	0xb9d04684	-0.0003972539
84	0x37321952	1.0615522e-05
85	0xba926758	-0.0011169715
86	0x3a966ee3	0.0011477139
87	0xb9042682	-0.00012602846
88	0xb8b47c02	-8.606167e-05
89	0xbb5303a5	-0.0032198217
90	0x3a03a578	0.000502191
91	0xba4d41b8	-0.0007829922
92	0x3bab58bb	0.0052290834
93	0xba702d30	-0.0009162007
94	0xb946f3bf	-0.00018973554
95	0x392c6313	0.00016440106
96	0xb8adf739	-8.295332e-05
97	0xba81f478	-0.0009914776
98	0xbaf43287	-0.0018630781
99	0x387b54c1	5.9921997e-05
100	0x3ab07360	0.0013462119
101	0x39b09ceb	0.0003368625
102	0xbacca455	-0.001561294
103	0xbae61303	-0.0017553273
104	0xb9656d93	-0.00021879961
105	0xba580aeb	-0.0008241373
106	0x39cd3dd8	0.00039146724
107	0x3a6b73b2	0.00089817785
108	0x3aa3476f	0.0012457202
109	0xbb187322	-0.0023261984
110	0xba72d7d9	-0.0009263731
111	0xb948009b	-0.00019073712
112	0x39efd1f2	0.00045742054
113	0x39847f7c	0.00025271985
114	0xba105802	-0.0005506278
115	0x3a236d8a	0.0006234279
116	0x3b2948c0	0.0025830716
117	0x383658ff	4.3475065e-05
118	0xba579cbb	-0.0008224954
119	0xbabcb4d5	-0.0014397154
120	0xbab2326c	-0.0013595349
121	0xbb03507e	-0.002003699
122	0xba5ff1d1	-0.00085428084
123	0xbaa438bf	-0.0012529119
124	0xbb1d59b1	-0.002400976
125	0x387711fb	5.8906135e-05
126	0xba8a1c57	-0.001053701
127	0x3ae300e2	0.0017318989
128	0x395db5ad	0.00021143882
129	0x3999f952	0.00029368192
130	0x392c36af	0.0001642357
131	0x38dd829f	0.00010562431
132	0xb68bfe87	-4.1721537e-06
133	0xb9c1c6df	-0.0003696
134	0x379776d6	1.805594e-05
135	0x396a159f	0.00022324033
136	0xb949a34f	-0.00019229691
137	0x3927d1dc	0.0001600454
138	0xb74d0163	-1.2219275e-05
139	0x37e1b5d7	2.6906766e-05
140	0x399f56f3	0.00030391625
141	0x3a355aa6	0.000691811
142	0x3938482f	0.00017574498
143	0xb850ce16	-4.9782997e-05
144	0x366b6b4e	3.5080188e-06
145	0x38cfafa4	9.903245e-05
146	0x37c4c86c	2.345835e-05
147	0xb8da33ac	-0.00010404675
148	0x3734fc28	1.0787546e-05
149	0xb891a58b	-6.9449736e-05
150	0x39f7681e	0.00047189085
151	0x37b150cd	2.113767e-05
152	0xb9a47f45	-0.0003137534
153	0x3948d38a	0.00019152291
154	0xb922a842	-0.00015512205
155	0xb966d6fc	-0.00022014597
156	0x3a3aee3c	0.00071308366
157	0xb9b65ecf	-0.00034784383
158	0xb73b473c	-1.1162654e-05
159	0xb9fa4906	-0.00047738123
160	0x374c355d	1.2171772e-05
161	0xb89804b0	-7.248798e-05
162	0x349ee061	2.959305e-07
163	0xb8a7cc67	-8.0012534e-05
164	0x387141b4	5.752007e-05
165	0xb7eeaccc	-2.8452276e-05
166	0xb715b049	-8.922137e-06
167	0x3a462106	0.00075580215
168	0xba51e8ed	-0.0008007426
169	0xb8c21969	-9.255374e-05
170	0x3776a656	1.4701471e-05
171	0xb52c18a3	-6.4110844e-07
172	0xb91961c6	-0.0001462764
173	0x396506c0	0.00021841656
174	0x38b2f93e	8.5341264e-05
175	0x39345d66	0.00017200931
176	0xb79b7d46	-1.8535775e-05
177	0xb909afcf	-0.00013130832
178	0xb8aba370	-8.184358e-05
179	0xb91022d9	-0.00013745892
180	0x39828f4b	0.00024902294
181	0x3855c611	5.096762e-05
182	0xb89596b5	-7.132945e-05
183	0x37ba94fd	2.2242306e-05
184	0xb8cd2abe	-9.783123e-05
185	0xb9211753	-0.00015362845
186	0xb9ba20c9	-0.0003550111
187	0x3964b118	0.00021809747
188	0x381058dd	3.4415036e-05
189	0x3926740a	0.00015874222
190	0xb89720e0	-7.2063645e-05
191	0xb87a0e33	-5.961787e-05
192	0x38da5917	0.00010411644
193	0x388d16bc	6.7276385e-05
194	0x3710473d	8.599655e-06
195	0x38b4a6d6	8.6141445e-05
196	0x3867f1d2	5.5299904e-05
197	0x38f130bf	0.00011500855
198	0x383eecf8	4.5520224e-05
199	0x388044c8	6.116327e-05
200	0x3822158d	3.864388e-05
201	0x380f2150	3.412488e-05
202	0x3899d05a	7.334417e-05
203	0x3739566b	1.104698e-05
204	0xb88ac16c	-6.6163804e-05
205	0x3784b118	1.5818092e-05
206	0xb773d3d1	-1.4533246e-05
207	0x38f0b223	0.00011477272
208	0x38a1935d	7.704527e-05
209	0x3846d290	4.740298e-05
210	0x37d44fa7	2.530946e-05
211	0x38cf66c4	9.889671e-05
212	0x3824df38	3.9308536e-05
213	0x390ad6e4	0.00013240759
214	0x38f186a9	0.00011516858
215	0x386a889b	5.591717e-05
216	0x38e59711	0.00010947709
217	0x39558825	0.00020363981
218	0xb6603c02	-3.341353e-06
219	0x38e10fad	0.00010731756
220	0xb89e9a9d	-7.562826e-05
221	0x39543bfc	0.00020240241
222	0x388ff6c1	6.864733e-05
223	0x38a972d8	8.079939e-05
224	0x379319a0	1.7535698e-05
225	0x38e947a8	0.00011123653
226	0x39379880	0.0001750905
227	0x38ba9adf	8.898018e-05
228	0x3632998d	2.6613445e-06
229	0x375ea04c	1.3269553e-05
230	0x3935022c	0.00017262314
231	0x373dca2f	1.1312352e-05
232	0x391fe40f	0.0001524838
233	0x387661cc	5.874205e-05
234	0x38550616	5.0788825e-05
235	0x373d5a2b	1.1286272e-05
236	0xb7690e1d	-1.3891168e-05
237	0xb90a1a13	-0.00013170419
238	0x38e8baed	0.0001109744
239	0x38921e6c	6.967489e-05
240	0xb746c3b0	-1.1847282e-05
241	0x375d3ee8	1.3187273e-05
242	0x38cbd70e	9.7198514e-05
243	0xb7caa780	-2.4158275e-05
244	0xb72d8f20	-1.0344927e-05
245	0x37ff4497	3.0430308e-05
246	0x38dccd13	0.000105286155
247	0x39174b00	0.00014428422
248	0x3924fed3	0.00015735188
249	0x394b93fb	0.00019414716
250	0x392b73de	0.00016350995
251	0x388f57d3	6.83513e-05
252	0x38c606a4	9.442613e-05
253	0x378fc21f	1.7137323e-05
254	0x39171df5	0.00014411642
255	0x3756bb1c	1.2798959e-05
