073123/0809hoxy3.pth (torch, 603272 bytes, 41 tensors)

lstm.conv1.weight f4 [32, 3, 1]
0	0x3e50169a	0.20321122
1	0x3e8d11a7	0.2755253
2	0xbedcde0d	-0.4313816
3	0xbe73d4eb	-0.2381169
4	0xbe21ec86	-0.15812883
5	0x3dd537e7	0.10411053
6	0xbe8299f8	-0.25508094
7	0xbf091abd	-0.53556424
8	0xbeb4342b	-0.3519605
9	0x3ea717c4	0.3263532
10	0x3ea31af6	0.31856507
11	0x3d9a303b	0.075287305
12	0x3e58c33d	0.21168227
13	0x3e795aba	0.24351016
14	0x3d2e233c	0.04251407
15	0x3df0f991	0.11766351
16	0xbd645f01	-0.055754665
17	0xbefee491	-0.49783757
18	0x3e8c5c4e	0.27414173
19	0xbedab4e6	-0.4271614
20	0xbdeaa737	-0.11457675
21	0x3f0a19eb	0.539458
22	0xbf07f558	-0.5310874
23	0x3f0119b3	0.5042984
24	0x3e35b6c8	0.17745507
25	0x3ede0f08	0.43370843
26	0x3f1cfda8	0.6132455
27	0x3f1fb327	0.6238274
28	0x3ef35f04	0.4753343
29	0x3ed43cfe	0.41452783
30	0x3f0f9774	0.56090474
31	0xbe02b4f8	-0.12764347
32	0x3e5cbd44	0.21556574
33	0xbe2da194	-0.16956168
34	0x3f0cd443	0.55011386
35	0x3f1d1684	0.6136248
36	0xbce693df	-0.028146682
37	0x3eb42346	0.35183161
38	0xbe964f20	-0.29357243
39	0x3e370095	0.17871316
40	0x3ec36986	0.38166445
41	0xbe970e84	-0.29503262
42	0xbee8ab6c	-0.45443285
43	0xbf08282c	-0.531863
44	0x3e77f275	0.24213584
45	0xbc830ac4	-0.015996344
46	0x3f0949e3	0.5362837
47	0xbdd42ae2	-0.10359742
48	0x3d28b61f	0.04118931
49	0xbeb3288a	-0.34991866
50	0xbe55cc69	-0.20878758
51	0x3efd582b	0.4948133
52	0xbe0e86fe	-0.13918683
53	0x3f091fe9	0.53564316
54	0xbe4f543c	-0.20246977
55	0xbe2ceaba	-0.16886416
56	0x3f07f9ae	0.53115356
57	0xbde92ae2	-0.11385132
58	0xbf038f85	-0.5139087
59	0xbd5cabaa	-0.05387465
60	0xbee9c3cb	-0.4565719
61	0x3dd52a2f	0.104084365
62	0x3f2c7910	0.67372227
63	0x3d408711	0.04700381
64	0x3f0515ed	0.5198658
65	0xbeabf001	-0.33581546
66	0x3f0ca889	0.54944664
67	0x3ea0548a	0.31314498
68	0xbf02dc25	-0.51117164
69	0x3efbce0d	0.49180642
70	0x3f1bc0c4	0.6084101
71	0x3c12062d	0.008912605
72	0x3eb11003	0.34582528
73	0xbe285a02	-0.16440585
74	0xbf12bb47	-0.5731701
75	0xbea1d19d	-0.31605235
76	0x3eb69750	0.35662317
77	0x3e85dbbd	0.2614421
78	0x3d74cec1	0.05976749
79	0x3eedf676	0.46477097
80	0x3e338480	0.17531013
81	0xbe8684f6	-0.26273316
82	0xbe34148b	-0.17585962
83	0x3e9050a4	0.28186524
84	0xbe0df304	-0.13862234
85	0x3e96a071	0.29419282
86	0x3e1bf76e	0.15231106
87	0xbc0f0feb	-0.0087318225
88	0x3e94dfeb	0.29077086
89	0xbf15baa6	-0.5848793
90	0xbf09f790	-0.53893375
91	0x3aacf5ca	0.001319581
92	0x3e1676c6	0.14693746
93	0x3e04e269	0.12976994
94	0x3ede8cb5	0.43466726
95	0x3e68d087	0.22735797

lstm.conv1.bias f4 [32]
0	0xbec55e9f	-0.38548753
1	0xbecb1c0a	-0.3966983
2	0x3e968052	0.29394776
3	0xbd5bd9a4	-0.053674355
4	0x3e04d161	0.12970497
5	0xbe4580a8	-0.1928736
6	0x3db68faa	0.089141205
7	0xbea2bfdc	-0.31787002
8	0xbde11ffd	-0.109924294
9	0x3e214ece	0.15752718
10	0xbd682d36	-0.05668374
11	0xbf108248	-0.56448793
12	0x3c297810	0.010343567
13	0x3d141e18	0.036161512
14	0x3e8e29b4	0.27766192
15	0xbe98c815	-0.2984015
16	0xbe9f2864	-0.31085503
17	0xbe6a8282	-0.22901347
18	0xbecc19a0	-0.398633
19	0x3eb9b2e6	0.362693
20	0xbdf53812	-0.11973585
21	0xbee3f5d8	-0.445235
22	0xbeded059	-0.43518332
23	0xbc566dae	-0.013087673
24	0xbe5fa598	-0.21840513
25	0xbec41086	-0.38293856
26	0xbe574f48	-0.21026337
27	0x3ea900a0	0.3300829
28	0x3e2aa6c3	0.16665177
29	0xbef7fe54	-0.48436224
30	0x3f1000d1	0.56251246
31	0xbe790981	-0.24320032

lstm.conv2.weight f4 [64, 32, 1]
0	0x3d361cd3	0.044461083
1	0x3dc23f6b	0.09484752
2	0xbda8254b	-0.08210238
3	0xbca25105	-0.019814024
4	0x3de27c5a	0.110588744
5	0xbe5ab18d	-0.21356793
6	0x3d55e547	0.05222061
7	0xbd13fbeb	-0.03612892
8	0x3e03803c	0.12841886
9	0xbdc74919	-0.09730739
10	0xbd6c970c	-0.057761237
11	0xbe060590	-0.1308806
12	0x3dddceb8	0.10830444
13	0x3dffebe1	0.12496162
14	0xba00bf21	-0.0004911293
15	0x3d911196	0.070834324
16	0xbdadcc5d	-0.08486245
17	0x3e0c9a8f	0.13730834
18	0x3df6a483	0.12043097
19	0x3b093b8f	0.002094004
20	0x3dafe80f	0.085891835
21	0xbcc0b5fc	-0.023524277
22	0x3e451742	0.19247153
23	0x3d7ce208	0.061738998
24	0xbdb7f965	-0.08983115
25	0xbe2002b0	-0.15626025
26	0xbc26535d	-0.010151711
27	0x3d5415c6	0.051778577
28	0xbe24865f	-0.16066884
29	0x3b30324a	0.0026885443
30	0xbe00579f	-0.12533425
31	0x3d4caee6	0.049971484
32	0xbda85d6a	-0.08220942
33	0xbd1ba80f	-0.03800207
34	0x3de018a0	0.10942197
35	0xbdcf2de8	-0.10116178
36	0x3e21dcf7	0.15806948
37	0x3de82ee0	0.11337066
38	0x3daa5b80	0.083182335
39	0x3e1bc1ff	0.15210722
40	0x3c906f73	0.017631268
41	0xbe023720	-0.12716341
42	0xbcff4785	-0.031162033
43	0x3de942fa	0.11389728
44	0x3d92acf0	0.071618915
45	0xbe20274e	-0.15639994
46	0x3d3421b6	0.04397746
47	0x3e32dfd2	0.17468193
48	0xbd5d44d9	-0.054020736
49	0x3e5e698b	0.21719949
50	0xbc6f8a50	-0.014620379
51	0xbdb4b978	-0.08824438
52	0x3d71fa83	0.059076797
53	0x3daa5c83	0.083184265
54	0x3dd0193c	0.10161063
55	0x3e3bedea	0.18352476
56	0xbd005cec	-0.031338617
57	0x3d403f90	0.046935618
58	0x3e19d7b0	0.15023685
59	0x3d9293ef	0.07157122
60	0x3e357c5d	0.17723222
61	0xbe546d35	-0.20744784
62	0xbe5f24ca	-0.21791378
63	0xbdf39625	-0.11893872
64	0xbd37db55	-0.044886906
65	0xbd9d7118	-0.076875865
66	0x3bd1df98	0.0064048283
67	0xbe1a718a	-0.15082374
68	0x3dba75fb	0.09104534
69	0x3dc0ec0f	0.094200246
70	0xbe0e4245	-0.13892467
71	0xbdc32a80	-0.095295906
72	0x3d4a286b	0.04935495
73	0xbe5b0cc8	-0.21391594
74	0x3d226ded	0.039655615
75	0xbd1fe03f	-0.039032217
76	0xbd6b5f4c	-0.05746393
77	0xbc56b098	-0.013103627
78	0xbe4785f3	-0.19484691
79	0xbe5c3b8c	-0.2150709
80	0x3d7319f7	0.059350934
81	0x3d6b9310	0.057513297
82	0x3dcf769a	0.10130043
83	0xbc1e5172	-0.009662973
84	0xbc39d07b	-0.0113412095
85	0xbd780545	-0.0605519
86	0x3d3142e2	0.043276675
87	0xbe0e20fe	-0.13879773
88	0x3d474b07	0.048655536
89	0xbd44e2cc	-0.048067853
90	0xbe4695c5	-0.1939307
91	0x3d9d9cd0	0.07695925
92	0x3ddc3a19	0.10753269
93	0xbe289e73	-0.16466694
94	0xbd9b8fc6	-0.07595782
95	0xbe1873c3	-0.1488791
96	0xbde01a18	-0.10942477
97	0xbdcb5efe	-0.09930228
98	0x3d473c1d	0.048641313
99	0x3dcdda66	0.10051422
100	0xbd9b85e4	-0.07593897
101	0x3d6ff192	0.05857999
102	0xbd80f34d	-0.06296406
103	0xbdaa4744	-0.08314374
104	0xbe320382	-0.1738415
105	0xbe1e20c1	-0.15442182
106	0xbe2cb037	-0.16864096
107	0x3cac470f	0.021029977
108	0xbe7dec35	-0.24797137
109	0xbd118e50	-0.03553611
110	0x3ca674b6	0.020319324
111	0xbd3925c8	-0.045202047
112	0xbe4a9090	-0.19781709
113	0xbd9de964	-0.07710531
114	0x3db90ab9	0.09035248
115	0x3c873ebe	0.01650941
116	0xbb9acf75	-0.004724438
117	0xbe24be28	-0.16088164
118	0xb9f250e7	-0.00046218114
119	0xbdf79395	-0.12088696
120	0xbd489b89	-0.048976455
121	0xbdd2e32e	-0.10297237
122	0xbde62747	-0.1123796
123	0xbe09115b	-0.13385527
124	0xbd8e7cd4	-0.06957403
125	0x3dbe5c6c	0.09294972
126	0x3dcf1b21	0.10112596
127	0x3b6156ac	0.0034383936
128	0x3e32dee6	0.17467842
129	0x3c25822b	0.010101835
130	0x3e35c3f0	0.17750525
131	0xbe0fdc7f	-0.14048956
132	0xbcf03d9d	-0.029326255
133	0xbe082afb	-0.13297646
134	0x3d76c2b6	0.060244285
135	0x3dfd2964	0.1236141
136	0x3da20abb	0.07912203
137	0xbcb4a18c	-0.022049688
138	0xbdb2d553	-0.087320946
139	0xbe17406b	-0.14770667
140	0xbdfdc60f	-0.12391292
141	0xbdd1c787	-0.10243135
142	0x3e2b1376	0.16706643
143	0xbca83343	-0.020532256
144	0xbdb36d15	-0.0876104
145	0xbdbce020	-0.09222436
146	0xbddb3ae2	-0.107045904
147	0xbd2277e5	-0.03966512
148	0xbdf1b3c5	-0.118018664
149	0xbd85d4a1	-0.06534696
150	0xbd37c9df	-0.044870254
151	0xbd2d2682	-0.042273052
152	0xbd2f97db	-0.04286943
153	0xbc73cdb6	-0.014880588
154	0xbcd54404	-0.026033409
155	0x3e0e5088	0.13897908
156	0xbe156fe9	-0.14593472
157	0x3e0f35fe	0.1398544
158	0x3d98d441	0.07462359
159	0xbe2c49a3	-0.16824965
160	0x3e07a703	0.13247304
161	0x3e482c6f	0.195482
162	0x3e5c994b	0.21542852
163	0xbe1cb183	-0.1530209
164	0xbd41479e	-0.04718744
165	0x3ce067c3	0.027393227
166	0xbd837c72	-0.064202204
167	0x3e036e20	0.12834978
168	0xbde2037e	-0.11035822
169	0x3df0197f	0.11723613
170	0x3d294e0e	0.041334204
171	0x3da1f272	0.07907571
172	0xbe10df55	-0.14147694
173	0xbe2b8722	-0.16750768
174	0x3e6382b0	0.22217822
175	0x3ddc387f	0.10752963
176	0x3d5cb332	0.05388183
177	0x3dbe9fca	0.09307821
178	0x3c28f42d	0.010312122
179	0x3d299fd4	0.04141219
180	0xbe3608f4	-0.17776853
181	0xbd91a59d	-0.07111666
182	0x3e14acc2	0.14519027
183	0xbe30c47c	-0.17262453
184	0xbdb03d36	-0.08605425
185	0x3db928bc	0.090409726
186	0x3ba5d55b	0.0050608343
187	0xbd7f38fb	-0.0623102
188	0xbe199231	-0.14997174
189	0x3dabe4bd	0.08393238
190	0x3dfa02b2	0.12207545
191	0x3d7fff31	0.06249923
192	0xbde863a0	-0.11347127
193	0x3e071df0	0.13195014
194	0xbe462946	-0.19351682
195	0x3de6542f	0.112465255
196	0xbc8930a9	-0.016746836
197	0xbd9626ec	-0.073316425
198	0xbe2f317a	-0.17108718
199	0x3dce34fa	0.10068698
200	0xbe585d52	-0.21129349
201	0xbd6642b7	-0.056215968
202	0xbe1dd26d	-0.15412302
203	0xbe28b811	-0.16476466
204	0xbc940b16	-0.018071692
205	0x3c58d668	0.013234712
206	0xbe32937c	-0.17439073
207	0x3d0e243c	0.034702525
208	0xbc2b8596	-0.010468861
209	0xbe34d9bc	-0.17661184
210	0x3dd3fff2	0.10351552
211	0x3d878462	0.06617047
212	0x3c5a6e9f	0.013332038
213	0x3e30f69f	0.17281578
214	0x3e10f3d0	0.14155507
215	0xbd61c62a	-0.055120625
216	0xbce9e2aa	-0.028550465
217	0x3dd4d1fd	0.103916146
218	0x3dbf2cd3	0.093347214
219	0xbe3e691f	-0.18594788
220	0xbe2f3053	-0.17108278
221	0xbda7c460	-0.081917524
222	0xbe1ee703	-0.15517811
223	0xbd8ed0e8	-0.069734395
224	0xbbb7aa55	-0.005605022
225	0x3d04baf9	0.032404874
226	0xbe494b1c	-0.19657558
227	0xbc45ccc4	-0.012072746
228	0xbd934677	-0.071911745
229	0xbd1ec8ac	-0.038765594
230	0xbd93807b	-0.0720224
231	0xbcaecb5a	-0.0213372
232	0xbdcc8f16	-0.09988229
233	0xbe0ed26e	-0.1394746
234	0xbe2e1e00	-0.17003632
235	0x3d313ceb	0.043270987
236	0xbdf17f37	-0.117918424
237	0x3ddeaeed	0.10873208
238	0xbcb2b600	-0.0218153
239	0x3def0d54	0.11672464
240	0x3dcfa198	0.101382434
241	0x3c631068	0.013858892
242	0xbe56513a	-0.20929423
243	0xbd5488bb	-0.05188821
244	0xbdc583d7	-0.09644287
245	0xba26a519	-0.0006356999
246	0xbdf39e1c	-0.11895391
247	0xbe274fd2	-0.16339043
248	0x3d813b89	0.063101836
249	0xbde74e19	-0.11294193
250	0x3d115c08	0.03548816
251	0x3d474f58	0.048659652
252	0xbda34b67	-0.07973366
253	0xbe06a81a	-0.13150063
254	0xbe3b72f8	-0.18305576
255	0xbe4a9c27	-0.1978613

lstm.conv2.bias f4 [64]
0	0x3ddf8ef7	0.1091594
1	0xbe31cd48	-0.17363465
2	0x3e3276b8	0.174281
3	0xbe2ef8b1	-0.17087056
4	0xbe338d29	-0.17534317
5	0x3d196d2b	0.037457626
6	0x3e27d799	0.16390838
7	0xbe2a229e	-0.16614768
8	0xbd478c3a	-0.048717715
9	0xbde01b62	-0.10942723
10	0x3db24cc2	0.08706047
11	0x3e32a75e	0.17446658
12	0xbdd27cb7	-0.10277694
13	0xbd4c86fe	-0.049933426
14	0x3dd8dcaf	0.10588967
15	0xbd747f77	-0.059691872
16	0xbe197fbf	-0.14990138
17	0x3d1e5b69	0.038661394
18	0x39d4c86c	0.00040585117
19	0xbd6bdf15	-0.057585794
20	0xbd533bde	-0.051570766
21	0xbca3434b	-0.019929549
22	0xbd08d816	-0.0334092
23	0xbdef37b0	-0.116805434
24	0xbda17d89	-0.07885272
25	0xbd08fc44	-0.033443704
26	0xbe09c0da	-0.13452473
27	0x3d19e327	0.037570145
28	0x3d84ffd1	0.064941056
29	0xbe3206ba	-0.17385378
30	0xbdc333ed	-0.095313884
31	0xbda14fc8	-0.07876545
32	0xbe2d27d3	-0.16909723
33	0xbc2ba249	-0.0104757035
34	0x3db2a82d	0.08723483
35	0xbe2fae42	-0.17156318
36	0x3d966321	0.07343126
37	0x3e0f0e5b	0.1397032
38	0x3c22d47e	0.009938357
39	0x3de01770	0.1094197
40	0x3d6005b7	0.05469295
41	0xbdd80dd7	-0.10549515
42	0x3dcc0698	0.09962195
43	0x3df5935e	0.11990999
44	0xbda7caad	-0.08192954
45	0x3c21f4ae	0.009884996
46	0x3d135e63	0.035978686
47	0x3d4d46b2	0.05011625
48	0xbdbba89a	-0.091630176
49	0x3d276ab7	0.040873256
50	0xbd8d0fab	-0.06887754
51	0xbcbe845e	-0.023256477
52	0x3e05cae0	0.13065672
53	0xbd9e2d6a	-0.07723506
54	0xbde09cb5	-0.109673895
55	0x3df69b99	0.12041397
56	0xbddb8af7	-0.10719865
57	0x3e12f5e9	0.1435162
58	0x3e254ba6	0.16142139
59	0x3df3c5a8	0.11902934
60	0x3df98e1d	0.12185309
61	0x3d8c1f71	0.068419345
62	0xbc96e95d	-0.018421823
63	0x3d371b87	0.044703986

lstm.encoder_lstm1.weight_ih_l0 f4 [128, 10]
0	0xbdb78d30	-0.08962476
1	0x3cdfa6b1	0.027301164
2	0x3daa0330	0.08301389
3	0xbdcb1a69	-0.09917147
4	0x3e0721fa	0.13196555
5	0x3d6bd313	0.057574343
6	0xbc518831	-0.012788818
7	0xbe14750f	-0.1449778
8	0xbe5ab449	-0.21357836
9	0xbdfd1a8f	-0.12358581
10	0x3afe4a01	0.0019400717
11	0xbd938025	-0.07202176
12	0x3d7c2116	0.06155499
13	0x3d645ce4	0.05575265
14	0x3de7ef10	0.113248944
15	0xbb8ef628	-0.00436284
16	0x3e3b26fc	0.1827659
17	0xbd626dd8	-0.055280536
18	0x3a8e340a	0.0010849249
19	0x3e306a90	0.1722815
20	0xbe0af4cb	-0.13569944
21	0xbdfefebd	-0.12450931
22	0xbe9145f5	-0.28373685
23	0x3d1947e6	0.037422083
24	0xbe4ddfca	-0.201049
25	0x3ca80f81	0.020515205
26	0xbdf91a8c	-0.121632665
27	0x3e36adeb	0.17839782
28	0x3d82600b	0.06365975
29	0x3dda5f2a	0.10662682
30	0xbe7f1d0f	-0.24913429
31	0xbe5e26ab	-0.21694438
32	0xbded5b3a	-0.11589666
33	0xbd7f1b8c	-0.06228213
34	0x3e65826e	0.22413036
35	0xbcd66a76	-0.026173811
36	0xbd1c7533	-0.038197707
37	0xbccea2f0	-0.025224179
38	0x3dcca6a1	0.099927194
39	0xba8c337d	-0.0010696497
40	0x3e1f692b	0.15567462
41	0x3da10f48	0.07864243
42	0x3dce6e4b	0.100796305
43	0x3e3192f8	0.1734122
44	0x3dac12d5	0.084020294
45	0xbc5f844c	-0.013642382
46	0x3cf60a94	0.03003434
47	0x3e237762	0.1596351
48	0x3e3506b3	0.17678337
49	0xbd333822	-0.043754704
50	0x3d062362	0.032748587
51	0xbe0e2404	-0.13880926
52	0xbe3c37b1	-0.1838062
53	0xbe601d7f	-0.21886252
54	0x3c629b64	0.013830993
55	0xbdda11bf	-0.10647916
56	0xbd3ec25c	-0.046572074
57	0xbb424a3f	-0.0029646305
58	0x3ce659f2	0.028119061
59	0x3db63b09	0.08897979
60	0xbdcc9257	-0.099888496
61	0x3b090398	0.0020906683
62	0xbe6c07fd	-0.23049922
63	0xbd05e444	-0.032688394
64	0x3bb564f7	0.0055357176
65	0xbe35a239	-0.17737664
66	0x3d20c982	0.039254673
67	0x3d95ad69	0.07308466
68	0x3e868ebb	0.2628077
69	0x3e3c95f6	0.1841658
70	0x3ccee3c2	0.025255088
71	0x3d3b4f71	0.045730058
72	0x3de12e61	0.10995174
73	0xbe02ab94	-0.12760764
74	0xbdbdd3f2	-0.09268941
75	0x3d5dd556	0.05415853
76	0xbcaeee24	-0.021353789
77	0xbe0a55be	-0.1350927
78	0xbd78d68a	-0.060751475
79	0x3e55ed41	0.20891286
80	0x3e11cfb9	0.14239396
81	0x3e405374	0.18781835
82	0x3dfc9d1e	0.12334655
83	0x3db813a6	0.08988123
84	0xbd28bd3a	-0.041196086
85	0x3e8a944c	0.27066267
86	0x3dc59ab1	0.09648646
87	0x3e0ce45e	0.1375899
88	0x3d474008	0.04864505
89	0x3d12f051	0.035873715
90	0x3ba89a22	0.005145327
91	0x3d984e5c	0.07436821
92	0xbe163d57	-0.14671837
93	0x3d7b3804	0.061332718
94	0x3d9b2546	0.07575469
95	0xbd87fe67	-0.0664032
96	0xbe52d609	-0.2058946
97	0x3deb48d0	0.11488497
98	0x3d5cf599	0.053945158
99	0xbe3176e7	-0.17330514
100	0xbccdfd12	-0.025145087
101	0xbe85a7ce	-0.26104587
102	0xbdf0e607	-0.11762624
103	0xbe164dbe	-0.14678094
104	0x3cbff348	0.023431435
105	0x3e21d45d	0.15803666
106	0x3e56c98a	0.20975319
107	0x3e53deab	0.2069041
108	0xbe3472d0	-0.17621922
109	0xbd15c646	-0.03656604
110	0x3e08515e	0.13312289
111	0x3ddd05c1	0.10792113
112	0x3dbbb350	0.091650605
113	0xbe6854d2	-0.22688606
114	0xbe390478	-0.18068111
115	0xbce8c4ad	-0.028414095
116	0x3bfc07c4	0.0076913554
117	0xbdd7b026	-0.105316445
118	0xbd3a6c49	-0.045513425
119	0xbd79e6fd	-0.061011303
120	0xbd53854c	-0.051640794
121	0xbdca1c6a	-0.09868701
122	0xbe0e8dfb	-0.13921349
123	0xbd4fc8d9	-0.050728653
124	0x3e31a2a0	0.17347193
125	0x3e7bc886	0.24588212
126	0x3ddf991a	0.10917874
127	0x3dd41040	0.10354662
128	0x3d0e6d18	0.03477201
129	0x3e88a469	0.26687935
130	0xbe3add1e	-0.18248412
131	0xbccca212	-0.024979625
132	0xbc2e85d7	-0.010652027
133	0xbdad5c6b	-0.08464893
134	0x3d7ccfd1	0.061721627
135	0xbe55a5b9	-0.20864
136	0xbd20c03c	-0.03924583
137	0xbe1844d7	-0.1487001
138	0xbdcd0035	-0.10009805
139	0xbc9944c7	-0.018709553
140	0xbd7c13e5	-0.06154241
141	0x3e7fcd41	0.24980642
142	0x3cca4105	0.024689207
143	0xbe571d64	-0.21007305
144	0xbe578f37	-0.21050726
145	0xbc2a2c83	-0.010386589
146	0xbe55aff0	-0.20867896
147	0x3d9135a8	0.07090312
148	0xbe0bd2bf	-0.13654612
149	0x3dfa122b	0.122104965
150	0x3dde68e1	0.10859848
151	0xbd8852cf	-0.066564195
152	0x3e4291c5	0.19000919
153	0xbe6a9a21	-0.22910358
154	0xbdd2fd7f	-0.10302257
155	0xbdd1c243	-0.102421306
156	0xbc2af30e	-0.010433925
157	0x3e242e9d	0.16033407
158	0x3e764b9a	0.24052277
159	0x3ba0b524	0.004904406
160	0xbde7fbd2	-0.11327328
161	0xbe090665	-0.13381346
162	0x3dc7b5fd	0.097515084
163	0xbe916e1a	-0.28404313
164	0xbe83426a	-0.25636607
165	0x3d86ded7	0.06585472
166	0x3d0fa663	0.035070788
167	0xbcca0bb7	-0.02466379
168	0xbaa8eba3	-0.0012887608
169	0x3de3e7ce	0.111281976
170	0xbdba68a0	-0.09101987
171	0xbd89cd79	-0.06728644
172	0xbcf01436	-0.029306512
173	0xbd941a24	-0.072315484
174	0xbd5e4386	-0.054263614
175	0xbdee6992	-0.1164123
176	0xbdcb73d3	-0.09934201
177	0xbddf53b3	-0.10904636
178	0xbd169e39	-0.036771987
179	0x3e86caee	0.26326698
180	0x3c9ec7be	0.019382354
181	0x3cc88bd8	0.024480745
182	0xbd8b18de	-0.067918524
183	0x3d498e3b	0.049207907
184	0xbd1de990	-0.03855282
185	0xbd9cded9	-0.07659692
186	0xbca29c6d	-0.01984998
187	0xbca04a73	-0.01956675
188	0xbd43f10d	-0.047837306
189	0x3e15db8f	0.14634536
190	0xbe1e3625	-0.15450342
191	0xbdec2e85	-0.115323104
192	0xbe22ec76	-0.15910515
193	0xbccf6028	-0.025314406
194	0xbd681e6d	-0.05666964
195	0x3e1f4a18	0.15555608
196	0x3e152b32	0.14567259
197	0xbd53ffa8	-0.051757485
198	0x3d699b89	0.057033096
199	0xbd4a24e3	-0.049351584
200	0x3e62f9a4	0.22165543
201	0x3e414ee2	0.18877748
202	0x3de4ce38	0.111721456
203	0x3d689a75	0.056787927
204	0x3d6832de	0.056689136
205	0xbd9d79e8	-0.076892674
206	0xbde0fcd4	-0.10985723
207	0x3df24cd5	0.11831061
208	0xbdce5c57	-0.10076206
209	0x3d859eac	0.06524405
210	0xbc8df102	-0.017326836
211	0xbc16d0d1	-0.009205059
212	0x3d49ffff	0.049316403
213	0xbda41792	-0.08012308
214	0xbe11e579	-0.14247693
215	0xbd7cbc82	-0.061703213
216	0xbceb3a00	-0.02871418
217	0xbb61a0e1	-0.0034428167
218	0x3ceaa26f	0.028641907
219	0xbc845129	-0.016151981
220	0x3d5bb8ee	0.05364316
221	0x3e3b8fb6	0.1831654
222	0xbd966659	-0.0734374
223	0x3c513c48	0.01277072
224	0xbe2ccc0d	-0.16874714
225	0xbe16b5dd	-0.14717813
226	0xbe50df1c	-0.2039761
227	0xbe0e4e2d	-0.13897009
228	0xbaee806b	-0.001819623
229	0xbe6e16e7	-0.23250924
230	0x3e6291c7	0.22125922
231	0xbd1ba8ff	-0.038002964
232	0xbddd63c0	-0.108100414
233	0x3e18e3da	0.14930668
234	0x3c13f867	0.009031392
235	0x3e384aca	0.1799728
236	0x3c6a5ded	0.01430462
237	0x3d32787f	0.043571945
238	0xbd96bf44	-0.073607
239	0x3cb3ddd4	0.021956362
240	0xbe7fd707	-0.2498437
241	0xbe6b72cf	-0.22993015
242	0xbe59dc1a	-0.21275368
243	0xbe4ac945	-0.1980334
244	0xbe523f7f	-0.20532034
245	0x3e0b4664	0.1360107
246	0x3dea79da	0.114490226
247	0xbd373be6	-0.044734858
248	0xbd5f732c	-0.054553196
249	0x3e6bff12	0.2304652
250	0x3e5a1502	0.21297076
251	0x3d1e4507	0.03864005
252	0x3e018d4d	0.12651558
253	0xbde37832	-0.1110691
254	0xbdbe6955	-0.09297434
255	0xbe1e4743	-0.15456872

lstm.encoder_lstm1.weight_hh_l0 f4 [128, 32]
0	0xbd8fab6c	-0.07015118
1	0xbe2c9bb1	-0.16856267
2	0x3d3f0b4d	0.046641637
3	0x3e3d8142	0.18506339
4	0xbcbeefaf	-0.02330765
5	0xbe323d4e	-0.17406198
6	0xbe58f43a	-0.21186915
7	0x3db612ec	0.08890328
8	0xbe8b5d38	-0.27219558
9	0x3e7f975a	0.2496008
10	0xbd259cf3	-0.04043288
11	0x3ddd1581	0.10795117
12	0x3e045d7b	0.12926285
13	0xbd953d95	-0.072871365
14	0x3e30e171	0.17273499
15	0xbde44076	-0.111451074
16	0xbde079a5	-0.10960702
17	0x3b6f8b75	0.0036551629
18	0x3e104f54	0.14092761
19	0x3df76fb4	0.120818526
20	0x3e39491a	0.18094292
21	0x3d2e32ad	0.042528797
22	0xbe3732a4	-0.17890412
23	0x3e52c817	0.2058414
24	0x3c3d9be3	0.011572811
25	0xb9b69c28	-0.0003483009
26	0xbdc60dc4	-0.09670594
27	0x3d9d3aac	0.076772064
28	0x3b7d38f3	0.003863868
29	0x3e14cbe2	0.145309
30	0xbe63c479	-0.22242917
31	0x3e80be81	0.25145343
32	0xbe10c842	-0.14138892
33	0x3e4c893e	0.19974229
34	0x3e221dbb	0.15831654
35	0xbe171901	-0.14755632
36	0xbd961de8	-0.07329923
37	0xbe1b4b18	-0.15165365
38	0x3e2fe489	0.17177023
39	0x3d8fe50b	0.07026108
40	0x3c16cc03	0.009203914
41	0xbe1d7c31	-0.15379407
42	0xbd84a7dd	-0.0647733
43	0x3de6788d	0.11253462
44	0xbdf3d529	-0.119058914
45	0xbcc7544e	-0.024332192
46	0xbe0a0f14	-0.13482314
47	0xbe154883	-0.14578442
48	0x3e467747	0.19381438
49	0x3dccfb50	0.100088716
50	0x3db2b02a	0.08725007
51	0x3dabfbd0	0.08397639
52	0x3dd177ff	0.102279656
53	0xbc6964f9	-0.014245265
54	0x3e1b809f	0.15185784
55	0x3d01ab4b	0.0316575
56	0xbd87eb17	-0.06636637
57	0x3cfa9c86	0.030592214
58	0x3cea49e6	0.02859969
59	0x3dd47357	0.10373562
60	0x3e0f1a27	0.1397482
61	0xbe28c50a	-0.16481414
62	0x3e3a8940	0.18216419
63	0x3e06e81e	0.13174483
64	0x3e117679	0.1420535
65	0x3d229aa4	0.039698258
66	0x3e572bbf	0.21012782
67	0xbe482286	-0.1954442
68	0xbd40a115	-0.04702862
69	0xbe53fad8	-0.20701158
70	0xbbaffcdd	-0.00537072
71	0x3e0b4d2c	0.13603657
72	0xbddaa76e	-0.10676466
73	0x3da68ec4	0.08132699
74	0xbde15250	-0.11002028
75	0x3c68fe8a	0.014220843
76	0x3d63a528	0.055577427
77	0xbddd3562	-0.108011976
78	0x3daa0beb	0.083030544
79	0xbe759ecc	-0.23986357
80	0xbcc84260	-0.024445713
81	0x3e1a1068	0.15045321
82	0xbdb7ce98	-0.089749515
83	0x3cc3224b	0.023820063
84	0xbd9dda2c	-0.077076286
85	0x3e6d3d7c	0.23167986
86	0x3d59acd5	0.05314334
87	0xbd2e1002	-0.042495735
88	0x3d23f7f2	0.04003138
89	0xbe30c549	-0.17262758
90	0x3dee6b29	0.11641533
91	0xbdf6c7c8	-0.12049824
92	0xbc9265be	-0.01787078
93	0x3d761369	0.060077105
94	0xbc5f5a76	-0.013632407
95	0x3d0a331e	0.033740155
96	0xbd12d3bc	-0.035846457
97	0xbdabffd7	-0.08398407
98	0x3dedcdd9	0.11611528
99	0xbd142056	-0.03616365
100	0x3d9af1e0	0.07565665
101	0x3e153b5c	0.14573425
102	0xbdff7f80	-0.124754906
103	0xbdbe6fa6	-0.09298639
104	0xbcab5d8c	-0.02091863
105	0xbe0b4bce	-0.13603136
106	0x3e5ed0fe	0.21759412
107	0xbda1a3c4	-0.07892564
108	0x3db75cb9	0.08953232
109	0x3e17cddd	0.14824624
110	0xbe26c080	-0.1628437
111	0x3e357421	0.17720081
112	0xbd831df5	-0.06402198
113	0xbe40f69a	-0.18844071
114	0x3c212465	0.009835337
115	0x3dbe535e	0.09293245
116	0x3e06a1a3	0.13147597
117	0xbe321207	-0.1738969
118	0xbdb9977e	-0.09062098
119	0xbda829b5	-0.0821108
120	0x3e00d39e	0.12580726
121	0xbdeb679b	-0.114943705
122	0xbdee71d1	-0.116428025
123	0x3dab9079	0.08377165
124	0x3dd3b725	0.103376664
125	0x3e03b994	0.12863761
126	0x3e4e1f28	0.20129073
127	0x3b673a50	0.003528256
128	0x3e060f2c	0.13091725
129	0xbac94b06	-0.0015357442
130	0xbe107b20	-0.14109468
131	0x3dc0c584	0.09412673
132	0xbe52a959	-0.20572414
133	0xbdd3e4a6	-0.103463456
134	0xbd386291	-0.045015875
135	0x3c37b358	0.0112121925
136	0xbd2e1f4d	-0.04251032
137	0xbd9de5e2	-0.07709862
138	0x3d9e54dc	0.077310294
139	0xbb88b991	-0.004172512
140	0xbdb08640	-0.08619356
141	0xbde1bae7	-0.11021977
142	0xbe0c251e	-0.13686034
143	0xbdfc0821	-0.12306238
144	0x3d3dda4c	0.046350762
145	0x3b899454	0.0041985903
146	0x3d63f1c9	0.055650506
147	0x3da09716	0.07841317
148	0x3cacd8ca	0.021099467
149	0x3d62368f	0.055227812
150	0x3b75d5d4	0.0037511485
151	0xbe03907f	-0.1284809
152	0xbdb1c785	-0.086806335
153	0xbe010eca	-0.12603298
154	0xbd54300e	-0.05180364
155	0x3d62555e	0.055257194
156	0xbd0f83f8	-0.035037965
157	0x3dc283e5	0.09497813
158	0xbdbe0a54	-0.09279314
159	0xbe268196	-0.1626037
160	0x3c70ee1a	0.014705205
161	0xbe1dcf35	-0.15411074
162	0x3ddf187c	0.10893342
163	0x3e31bd20	0.17357302
164	0x3e2421c2	0.16028503
165	0xbe36cfa8	-0.17852652
166	0x3d4c0600	0.04981041
167	0x3df88035	0.121338286
168	0x3cb94143	0.022614127
169	0x3c729856	0.0148068275
170	0xbd8c2755	-0.068434395
171	0x3d87d380	0.06632137
172	0x3cabb920	0.020962298
173	0x3cda64cc	0.026659392
174	0xbd5da32e	-0.0541107
175	0xbe7794bd	-0.24177833
176	0x3db36a8a	0.08760555
177	0x3e08d380	0.13361931
178	0xbca342b1	-0.019929262
179	0x3dfeb2f0	0.12436473
180	0x3e2382a2	0.15967801
181	0x3e71132e	0.23542473
182	0xbdd4f82e	-0.10398899
183	0xba9f55fc	-0.0012156363
184	0x3de8e5cb	0.113719545
185	0xbe39285d	-0.18081804
186	0x3e4ad021	0.19805957
187	0x3e171c25	0.1475683
188	0xbd43822f	-0.047731575
189	0xbde0879d	-0.10963366
190	0xbe13f9ea	-0.14450803
191	0xbd18e5f9	-0.037328694
192	0x3d59d013	0.05317695
193	0x3d83ef28	0.064421
194	0x3ad48853	0.0016214944
195	0xbe11f951	-0.14255263
196	0xbdc523bd	-0.09625957
197	0xbcda4143	-0.026642447
198	0x3e4c33f0	0.19941688
199	0xbc05fbc0	-0.008177698
200	0x3e7cba21	0.24680378
201	0xbdac2de5	-0.08407191
202	0x3bc8d623	0.0061290427
203	0xbbd2fd6c	-0.0064389016
204	0x3e870b15	0.26375642
205	0x3d5c51eb	0.05378906
206	0xbe8859f0	-0.26631117
207	0x3e274db0	0.16338229
208	0x3e9cab02	0.3059922
209	0xbdf68ed3	-0.1203896
210	0xbd2a1306	-0.04152205
211	0xbdb2b367	-0.087256245
212	0xbded37c1	-0.115829
213	0xbe001311	-0.12507273
214	0x3cf7fdb7	0.030272348
215	0xbdaf378d	-0.08555517
216	0x3d884ef9	0.06655688
217	0x3d7b3e6e	0.061338834
218	0xbd7566e7	-0.05991259
219	0xbd9b0e8f	-0.07571136
220	0xbdbd95a3	-0.092570566
221	0xbdc5744a	-0.09641321
222	0xbdd789fd	-0.10524366
223	0xbe3a65f6	-0.18202958
224	0xbe42627f	-0.18982886
225	0x3d8abf6a	0.067747906
226	0xbe3d61b8	-0.18494308
227	0x3d7b0641	0.06128526
228	0xbd7084d5	-0.05872043
229	0x3c8c0909	0.017094152
230	0xbe130fb6	-0.14361462
231	0x3ce1c514	0.027559794
232	0x3c52d36e	0.012867792
233	0xbdcd7052	-0.10031189
234	0xb893e560	-7.052231e-05
235	0xbd5100fb	-0.051026326
236	0x3c8a6a07	0.01689626
237	0xbdeb1740	-0.11479044
238	0x3dcf86e9	0.10133154
239	0xbd84fd11	-0.06493581
240	0xbe3e51a7	-0.18585835
241	0x3df64e5e	0.12026666
242	0x3e2210df	0.15826748
243	0xbdf20394	-0.11817089
244	0xbca6ea1f	-0.02037531
245	0x3e0eae37	0.13933645
246	0xbd010fbd	-0.03150915
247	0xbdc331ed	-0.09531007
248	0xbd8e1270	-0.069371104
249	0xbd94088c	-0.07228193
250	0x3dda9c45	0.10674337
251	0xbcc882bc	-0.024476402
252	0xbcb6635d	-0.022264177
253	0xbbc5a8d6	-0.0060320897
254	0xbc2b032e	-0.01043777
255	0xbe27fe4b	-0.16405599

lstm.encoder_lstm1.bias_ih_l0 f4 [128]
0	0xbe4ad7e5	-0.1980892
1	0xbdf45829	-0.11930878
2	0xbc7b7f35	-0.015350153
3	0xbd4f8c3a	-0.05067084
4	0x3da79bd5	0.081840195
5	0xbde96ff9	-0.1139831
6	0xbc286acc	-0.010279369
7	0x3decb518	0.115579784
8	0x3e6a9408	0.22908032
9	0x3cea2d04	0.028585918
10	0x3d76ec6e	0.06028407
11	0x3c18ed3d	0.009333906
12	0x3e1b6616	0.15175661
13	0xbe2fd8f4	-0.17172605
14	0x3b71d68c	0.0036901562
15	0x3d24ffdc	0.04028307
16	0xbc63f7cf	-0.013914063
17	0xbdf39679	-0.11893935
18	0xbdc71ad3	-0.09721913
19	0xbd84b2d5	-0.06479422
20	0xbe127e34	-0.14305955
21	0x3c8e483b	0.017368427
22	0xbe0b0fbd	-0.13580222
23	0x3e07bb60	0.13255072
24	0xbdc58af0	-0.09645641
25	0x3e3e85cd	0.18605728
26	0xbcacd054	-0.021095432
27	0xbe6b531d	-0.22980924
28	0x3dcaad22	0.09896304
29	0x3e3a576f	0.18197416
30	0xbd9eda58	-0.077564895
31	0x3d6d75df	0.05797374
32	0xbb7e31c6	-0.0038786991
33	0x3dbb32a6	0.0914052
34	0xbe539877	-0.2066363
35	0xbe1f1e32	-0.15538862
36	0xbb81c33a	-0.0039600404
37	0xbc543bda	-0.012953723
38	0x3e8a2215	0.26979128
39	0xbe205787	-0.15658389
40	0x3e7c11f8	0.2461623
41	0x3d95b461	0.07309795
42	0x3d6fbdba	0.058530547
43	0xbcf8e0a1	-0.030380549
44	0x3c575e88	0.013145097
45	0x3d496cce	0.04917603
46	0x3d246de2	0.040143855
47	0xbe14aa27	-0.14518033
48	0x3cf33e04	0.029692657
49	0xbda8c8fb	-0.08241459
50	0xbd81bf7d	-0.063353516
51	0xbe25aeef	-0.16180013
52	0xbe26d0a3	-0.16290526
53	0x3e033da8	0.12816489
54	0xbe48ae58	-0.19597757
55	0x3e56a170	0.20960021
56	0x3e209bc2	0.15684417
57	0xbd3a0184	-0.0454116
58	0xbe508e57	-0.20366798
59	0xbdf4a7b1	-0.11946047
60	0x3def05a0	0.11670995
61	0x3e2b1244	0.16706187
62	0xbdc49674	-0.09599009
63	0x3cfbd083	0.030739075
64	0xbc886cf6	-0.01665352
65	0xbd7155ac	-0.058919594
66	0xbc23ce54	-0.009997923
67	0xbe0fc91e	-0.14041564
68	0xbe1ff4f8	-0.15620792
69	0xbccc083a	-0.024906266
70	0xbbc8bfb7	-0.00612637
71	0x3de77c1d	0.113029696
72	0x3e4255f5	0.18978103
73	0xbe410f01	-0.1885338
74	0xbc2982d0	-0.01034613
75	0x3c8a6d8d	0.016897941
76	0x3d81a33e	0.06329964
77	0x3c752efe	0.014964817
78	0xbe65c7b6	-0.22439465
79	0xbc5e44ed	-0.013566238
80	0x3e4c6b20	0.1996274
81	0xbdd1deea	-0.102475956
82	0x3dc20c75	0.09475032
83	0xbe2ce860	-0.16885519
84	0xbe244c51	-0.16044737
85	0xbdec605d	-0.11541817
86	0x3d4a9b1c	0.04946433
87	0xbe6b827e	-0.22998998
88	0x3dd4ba73	0.10387125
89	0xbd35b654	-0.044363335
90	0xbd33cbca	-0.04389552
91	0x3d8f6919	0.07002468
92	0xbe4669ae	-0.19376251
93	0xbdbc5abe	-0.09196995
94	0x3e196231	0.14978863
95	0x3c80c155	0.015717188
96	0xbe79532e	-0.24348137
97	0xbd8454c6	-0.06461482
98	0xbd010fe4	-0.031509295
99	0xbc3356c0	-0.010945976
100	0xbd822a8b	-0.06355771
101	0xbe6e947c	-0.2329883
102	0xbc0e8424	-0.008698497
103	0x3c308f5d	0.010776368
104	0x3e0f0bc7	0.13969336
105	0xbe4d2a66	-0.20035705
106	0xbab0cb58	-0.0013488336
107	0xbc9cb01e	-0.019126948
108	0x3ddef21b	0.10886022
109	0x3d998998	0.07496947
110	0x3e7993c2	0.24372771
111	0x3d777688	0.060415775
112	0x3e380edf	0.17974423
113	0xbcd8974f	-0.026439337
114	0x3d7a5e62	0.061125167
115	0x3dd4d0a1	0.10391355
116	0x3e0d33ed	0.1378934
117	0x3d588a06	0.052866004
118	0xbd5c6e2e	-0.053816013
119	0x3d2329ca	0.039834775
120	0x3e1e8408	0.15480053
121	0xbd3c172b	-0.045920532
122	0xbd052a6c	-0.03251116
123	0x3c85b9c9	0.01632394
124	0x3d63d4d5	0.055622894
125	0x3e0e566f	0.1390016
126	0x3cce6869	0.025196271
127	0x3d8d9652	0.06913437

lstm.encoder_lstm1.bias_hh_l0 f4 [128]
0	0xbe355cd6	-0.17711195
1	0xbe008082	-0.12549022
2	0xbe6b9056	-0.23004279
3	0xbdc8eb45	-0.09810499
4	0x3dcea92e	0.10090862
5	0xbdb02514	-0.08600822
6	0x3e0932a0	0.13398218
7	0xbdc7f211	-0.097629674
8	0x3e4b31e2	0.19843248
9	0xbe1bff15	-0.15234025
10	0xbdfe0c7a	-0.124047235
11	0xbe533124	-0.20624214
12	0xbde0d20f	-0.109775655
13	0x3bcd2b22	0.0062612453
14	0x3e0c221d	0.13684888
15	0xbce3593a	-0.027752507
16	0xbc732a3e	-0.014841614
17	0xbdbfe216	-0.09369294
18	0x3d8c3ab7	0.068471365
19	0xbdaa2c4f	-0.083092324
20	0xbade4fac	-0.0016961
21	0x3db8e8a6	0.09028749
22	0xbe0f5666	-0.13997802
23	0x3e4aa56a	0.19789663
24	0xbc6f6b15	-0.014612933
25	0x3e346fb1	0.17620732
26	0xbe3ff6ed	-0.18746538
27	0xbe569e11	-0.20958735
28	0xbddeabd5	-0.10872618
29	0xbc55976f	-0.013036593
30	0xbc7e1409	-0.015507706
31	0x3cffbcf5	0.031218031
32	0xbe6be517	-0.2303661
33	0xbddd5aa5	-0.10808305
34	0xbd4b6fc8	-0.04966715
35	0x3d8358b9	0.06413407
36	0xbcc9460f	-0.02456954
37	0xbdd9a414	-0.106269985
38	0x3d1ac695	0.03778704
39	0x3dece98a	0.115679815
40	0x3d37cb14	0.044871405
41	0xbe0ef859	-0.13961925
42	0x3a1b16d8	0.0005916185
43	0xbd148d31	-0.036267463
44	0xbd4d825a	-0.05017314
45	0xbe1d0d3e	-0.15337083
46	0x3c880719	0.016604947
47	0xbe3ec73c	-0.1863069
48	0x3e3b1a99	0.18271865
49	0xbd63fa38	-0.05565855
50	0x3dfc9f85	0.123351134
51	0xbe03e7fb	-0.12881462
52	0xbdc97131	-0.09836043
53	0xbe4e7334	-0.20161134
54	0x3aa9bcc1	0.001294993
55	0x3e00804a	0.12548938
56	0x3d9fae42	0.07796909
57	0x3df01bc2	0.117240444
58	0x3cf21e72	0.029555533
59	0xbd7c538d	-0.061603118
60	0xbcb8e6cb	-0.022570988
61	0xbe2ccafe	-0.1687431
62	0xbd5afbe7	-0.05346289
63	0xbd6d53ab	-0.05794112
64	0xbdac0a9c	-0.08400461
65	0x3dfafd19	0.12255306
66	0xbc8c6aaf	-0.017140714
67	0xbd13b0f7	-0.03605744
68	0x3d0bb91f	0.034112092
69	0x3dd2770a	0.10276611
70	0x3e8661d7	0.2624652
71	0xbe17391c	-0.14767879
72	0x3e7f6326	0.24940166
73	0x3d69335f	0.056933757
74	0x3e3bd06b	0.18341224
75	0xbcc97bd0	-0.024595171
76	0x3e2af1c0	0.16693783
77	0x3e2726a9	0.16323341
78	0xbd5fc4dc	-0.0546311
79	0x3de868af	0.11348092
80	0x3e052c88	0.13005269
81	0xbc806e65	-0.01567764
82	0xbe1f2030	-0.15539622
83	0xbe1cada6	-0.15300617
84	0xbc2969fa	-0.010340208
85	0x3d1c9e8f	0.03823715
86	0x3d922c66	0.071373746
87	0xbe70fcd2	-0.23533943
88	0x3d42e94c	0.04758577
89	0x3e5947c6	0.21218786
90	0xbda5d5b1	-0.08097399
91	0x3ceb89aa	0.028752167
92	0x3deab869	0.11460955
93	0x3a8e75be	0.001086883
94	0xbc60575f	-0.013692706
95	0xbd3954b5	-0.0452468
96	0xbd0a5522	-0.033772595
97	0xba578c5a	-0.0008222513
98	0xbe048acc	-0.12943572
99	0x3e134fcd	0.1438591
100	0xbd667f4c	-0.056273744
101	0x3d72198a	0.059106387
102	0x3e36777b	0.17819016
103	0x3dd98c50	0.106224656
104	0x3d1486a4	0.036261216
105	0xbd222165	-0.03958263
106	0x3d6cdb3f	0.057826277
107	0xbe5fca1d	-0.21854444
108	0x3a36d3ab	0.000697429
109	0xbdb34368	-0.08753091
110	0xbb08a854	-0.0020852285
111	0xbda5c73d	-0.08094642
112	0xbd4ea588	-0.05045083
113	0xbcadbd1f	-0.021208344
114	0x3d8be0e6	0.06830005
115	0x3da11140	0.07864618
116	0x3dedf9ad	0.116198875
117	0xbd17c71d	-0.037055124
118	0x3dc18757	0.09449642
119	0x3da5a8eb	0.08088859
120	0xbdeb6087	-0.114930205
121	0x3de54561	0.111948736
122	0x3c8406eb	0.01611658
123	0x3d945996	0.0724365
124	0xbd62d556	-0.055379234
125	0xbd0a6e9e	-0.0337969
126	0xbe617fcd	-0.22021408
127	0xbdf72cd9	-0.12069101

lstm.encoder_lstm2.weight_ih_l0 f4 [256, 32]
0	0x3bd63231	0.006536745
1	0xbd0d988f	-0.03456932
2	0x3de1589e	0.110032305
3	0xbdabb969	-0.083849736
4	0xbd49cd3b	-0.04926799
5	0xbd454ae6	-0.04816713
6	0x3ce8a7bd	0.028400296
7	0xbe364e45	-0.17803295
8	0x3dd2fdde	0.103023276
9	0xbd583259	-0.05278239
10	0x3de9de95	0.11419407
11	0xbc8df99d	-0.017330939
12	0x3e1daedd	0.15398736
13	0x3dc8df67	0.098082356
14	0xbded3374	-0.115820795
15	0xbc85aaf7	-0.016316874
16	0x3d3db141	0.04631162
17	0x3d2ace7a	0.041700818
18	0xbd0eacd7	-0.0348328
19	0xbde9ce05	-0.11416248
20	0x3ca69878	0.020336375
21	0xbd48ce55	-0.0490249
22	0xbda78e74	-0.08181468
23	0x3dde2cd2	0.108483925
24	0xbde99e27	-0.11407118
25	0xbdda7e85	-0.10668663
26	0xbdba762f	-0.09104573
27	0xbd4250c4	-0.047440305
28	0xbc906a42	-0.017628793
29	0x3d0fa3d0	0.035068333
30	0xbd75e49a	-0.060032465
31	0xbdc3a139	-0.09552235
32	0x3dc9c6a9	0.098523445
33	0x3d0431ce	0.03227406
34	0x3da76112	0.081728116
35	0xbd38b5a4	-0.0450951
36	0x3de7b350	0.11313498
37	0x3cfdbd2e	0.030973997
38	0xbdce27ff	-0.100662224
39	0x3d0bdc0e	0.034145407
40	0xbe30a1a3	-0.1724916
41	0x3a41c9cc	0.0007392436
42	0xbde078dc	-0.10960552
43	0xbd0f6bf5	-0.035015065
44	0xbdacab32	-0.084310904
45	0xbac695cb	-0.0015150843
46	0x3dfe493a	0.124163106
47	0xbe3ccfad	-0.18438597
48	0xbe0fe27f	-0.14051245
49	0x3c26f615	0.0101905065
50	0x3dad5428	0.08463317
51	0x3cefc684	0.029269464
52	0x3dff56e2	0.124677435
53	0x3db2ebcb	0.0873638
54	0xbdd7e130	-0.10540998
55	0x3d3572fc	0.04429911
56	0xbde2800b	-0.110595785
57	0xbe06be10	-0.1315844
58	0x3e06a68e	0.13149473
59	0x3d926816	0.07148759
60	0x3d445200	0.047929764
61	0x3cc754dd	0.024332458
62	0x3d3ab7ab	0.045585316
63	0x3e426d67	0.18987046
64	0x3c029b55	0.007971604
65	0xbcdce2bd	-0.026963586
66	0x3e0a8f7c	0.13531297
67	0xbd81fb08	-0.063467085
68	0x3e220d8f	0.15825485
69	0xbdc3d3db	-0.095618926
70	0xbd825475	-0.06363765
71	0x3d12e78a	0.035865344
72	0xbc57c198	-0.013168715
73	0x3d8d6b3b	0.06905218
74	0x3da674af	0.081277244
75	0xbc5e778b	-0.013578306
76	0x3d3b5b32	0.045741268
77	0x3d35820c	0.044313475
78	0xbd6b1494	-0.05739267
79	0xbd6c938f	-0.05775791
80	0x3d4c90dd	0.04994284
81	0xbd94e4d8	-0.07270211
82	0x3c7f54ef	0.015584215
83	0x3c40c356	0.011765322
84	0x3d5bea87	0.05369046
85	0x394d5a7f	0.00019584036
86	0xbdd7acba	-0.10530992
87	0x3e0cff89	0.13769354
88	0xbc8715b3	-0.01648984
89	0xbccd0f78	-0.02503179
90	0x3de87db6	0.113521025
91	0x3d98601d	0.07440207
92	0x3cc12634	0.023577787
93	0xbd41a7d4	-0.047279194
94	0xbdda7bed	-0.10668168
95	0xbc35e8ad	-0.0111028375
96	0x3d94c1f2	0.07263555
97	0x3d22cdd1	0.039747063
98	0x3e39e6df	0.18154477
99	0xbd1c6cad	-0.03818958
100	0xbd46cfac	-0.048537895
101	0xbe1bb22e	-0.15204689
102	0x3d744ed4	0.05964549
103	0x3d29bec6	0.0414417
104	0xbe1a19dc	-0.15048927
105	0x3dc5aae0	0.096517324
106	0x3d950683	0.07276633
107	0x3d04cd3d	0.032422293
108	0x3d1419a5	0.03615727
109	0xbdab168b	-0.08353909
110	0x3c43f679	0.011960619
111	0xbc9ce592	-0.019152436
112	0xbca7a142	-0.020462636
113	0x3be2a1c7	0.006916258
114	0x3d21a8e4	0.039467707
115	0x3e2e32f8	0.1701163
116	0x3e2bd011	0.1677859
117	0x3e10e4e4	0.14149815
118	0xbc2ef1c3	-0.010677758
119	0x3e2cb1a5	0.16864641
120	0x3c2ba59b	0.010476495
121	0x3d3e0092	0.046387263
122	0x3ddc8485	0.107674636
123	0x3da6afdd	0.08139012
124	0xbe0e79fb	-0.1391372
125	0xbe0581b3	-0.13037758
126	0xbe328674	-0.17434102
127	0xbbd582fb	-0.006515858
128	0xbd5d82cf	-0.054079827
129	0xbd5f27e9	-0.05448142
130	0xbdaa5c69	-0.08318407
131	0x3d53b55c	0.05168663
132	0xbd8df12e	-0.06930767
133	0x3dc17c36	0.094475195
134	0xbdef76dd	-0.11692593
135	0xbccc2fa2	-0.024925057
136	0xbe091f9a	-0.13390961
137	0x3dedcdc3	0.116115116
138	0x3d6b1bb6	0.057399474
139	0xbc18e62b	-0.00933222
140	0xbd920255	-0.07129351
141	0x3cf24cad	0.029577577
142	0x3cd4c567	0.025973035
143	0x3d49d774	0.049277738
144	0xbe099704	-0.13436514
145	0x3d8379b1	0.06419695
146	0xbd648d9e	-0.05579912
147	0x3d150991	0.036386076
148	0x3daf1c79	0.085503526
149	0x3c8e1dd4	0.017348208
150	0x3d5f8139	0.054566596
151	0x3dd579c6	0.10423617
152	0xbdf5d79a	-0.12004013
153	0xbc6d048f	-0.014466419
154	0xbdd0b8e0	-0.10191512
155	0xbcb2c481	-0.021822216
156	0x3e35ebeb	0.17765777
157	0xbceedfec	-0.029159509
158	0x3ddadb88	0.106864035
159	0xb94d043a	-0.00019551898
160	0x3d49cd45	0.049268026
161	0x3dbf1a19	0.093311496
162	0x3cc86e08	0.02446653
163	0xbe087c21	-0.13328601
164	0x3bf4a48d	0.007465905
165	0x3dc4c40e	0.09607707
166	0xbc122c20	-0.008921653
167	0x3dd4af64	0.103850156
168	0x3be16560	0.00687854
169	0xbde21db8	-0.11040825
170	0x3a7f1db3	0.00097319036
171	0x3e1e9974	0.15488225
172	0xbd98b1ad	-0.07455764
173	0xbb0fc53e	-0.0021937634
174	0xbd3fe6c4	-0.046850935
175	0xbd3022ce	-0.043001942
176	0x3a09686b	0.0005241695
177	0x3d9e6206	0.0773354
178	0x3d3da741	0.046302084
179	0xbda16d02	-0.0788212
180	0xbe01ed14	-0.12688094
181	0x3db7f131	0.089815505
182	0x3e048730	0.12942195
183	0x3d3c5a9f	0.04598486
184	0x3d1c95c8	0.03822878
185	0x3d99e311	0.075140126
186	0xbde5a805	-0.11213688
187	0x3d8faa69	0.07014925
188	0xbdba344e	-0.090920076
189	0xbd205dbd	-0.039151896
190	0xbd85cb0a	-0.06532867
191	0xbda911c4	-0.08255342
192	0x3e0d6dc7	0.13811408
193	0xbda1c1e2	-0.07898308
194	0x3e017f59	0.12646236
195	0x3d187756	0.037223183
196	0xbd127210	-0.03575331
197	0x3c385cb6	0.011252573
198	0xbd99bcf2	-0.075067416
199	0x3b0cefac	0.002150516
200	0xbdc38a86	-0.095479056
201	0x3d78b6da	0.060721256
202	0xbd3c3e21	-0.04595769
203	0x3da6d543	0.08146145
204	0xbdd413c6	-0.10355334
205	0xbdbc00ca	-0.09179838
206	0x3e1f56bd	0.15560432
207	0xbe36a358	-0.17835748
208	0xbda69e54	-0.081356674
209	0x3e058569	0.13039173
210	0xbc20e57e	-0.00982034
211	0x3e460704	0.19338614
212	0x3e120d37	0.14262854
213	0x3dfa23cb	0.12213858
214	0x3c8a78f1	0.016903372
215	0x3d294e96	0.04133471
216	0xbe2594a7	-0.16169988
217	0x3ca5d989	0.02024533
218	0x3e25c2ef	0.16187643
219	0xbd788492	-0.060673304
220	0xbdabf9f5	-0.08397285
221	0x3e2a552c	0.16634053
222	0xbbd296c3	-0.0064266636
223	0xbd2a5fc6	-0.041595243
224	0xbcfbc008	-0.030731216
225	0x3e29f0d8	0.16595781
226	0xbcabf4cd	-0.020990754
227	0xbdb9310e	-0.090425596
228	0xbe3222f6	-0.17396149
229	0x3cbfa38d	0.023393417
230	0x3df25c17	0.11833971
231	0xbcac65f3	-0.021044707
232	0x3b866f6b	0.0041026375
233	0x3dbbbe8f	0.091672055
234	0x3d3dad55	0.04630788
235	0xbc8f0a43	-0.017460948
236	0x3d1f101b	0.03883372
237	0xbe305395	-0.17219384
238	0xbddaf23c	-0.10690734
239	0x3c249908	0.010046251
240	0x3d893ef2	0.06701459
241	0xbcd4ffd4	-0.026000895
242	0xbe0e5601	-0.13899995
243	0x3d475eac	0.04867427
244	0x3d197a4e	0.037470154
245	0x3e2f47fe	0.17117307
246	0xbdb7c08e	-0.08972274
247	0xbcd47841	-0.025936248
248	0xbd41123b	-0.047136527
249	0xbdc124be	-0.09430836
250	0x3db84a68	0.08998567
251	0xbd99fae6	-0.07518558
252	0x3c9e30c1	0.019310357
253	0x3de2a40c	0.11066446
254	0x3d488aaf	0.048960384
255	0x3bf2e8bd	0.0074129985

lstm.encoder_lstm2.weight_hh_l0 f4 [256, 64]
0	0xbe2cf616	-0.1689075
1	0x3d91bb9b	0.07115861
2	0xbc1af776	-0.009458413
3	0xbcf29ae3	-0.029614871
4	0xbe34750d	-0.17622776
5	0xbdab667c	-0.08369157
6	0x3d0debc5	0.034648675
7	0xbd67f086	-0.056625865
8	0xbdeef92c	-0.116686195
9	0x3d458a94	0.04822786
10	0x3d2f40e4	0.042786494
11	0xbdac728d	-0.08420286
12	0xbe20aa2b	-0.15689914
13	0xbd6628b2	-0.056191154
14	0x3e3b391a	0.18283501
15	0x3db1218c	0.08648977
16	0xbccd1ae8	-0.025037244
17	0x3d3b162b	0.045675438
18	0x3d1d9170	0.038468778
19	0xbdb9b550	-0.09067786
20	0x3bef0e1b	0.0072953827
21	0xbbc5edd0	-0.0060403123
22	0xbd8f1529	-0.06986458
23	0xbcee5d17	-0.029097123
24	0xbd99b653	-0.07505479
25	0xbd9a0a4f	-0.075214975
26	0x3d5fa15a	0.054597236
27	0x3e060b45	0.13090236
28	0xbe268e8c	-0.16265315
29	0x3cfe1c59	0.031019377
30	0x3de7d32c	0.11319575
31	0x3e044987	0.12918673
32	0xbd2a0334	-0.04150696
33	0xbddb8d5a	-0.1072032
34	0xbdab4767	-0.08363228
35	0x3d9139f9	0.070911355
36	0x3d93a934	0.07210007
37	0xbd044119	-0.032288644
38	0x3d9499f9	0.072559305
39	0x3de5ef0b	0.112272345
40	0xbd85bcf4	-0.065301806
41	0x3e4f1a2b	0.20224826
42	0x3e0b4a26	0.13602504
43	0x3d715e77	0.05892798
44	0x3bbbe601	0.0057342057
45	0xbb59912f	-0.0033198108
46	0xbc2fb958	-0.010725342
47	0xbc5baaba	-0.013407404
48	0x3d3425e1	0.043981437
49	0xbe17e815	-0.14834626
50	0x3dc9f172	0.09860505
51	0xbd792a6b	-0.06083147
52	0xbe2b122f	-0.16706155
53	0xbd9b4b03	-0.07582667
54	0x3d5ff1aa	0.05467383
55	0xbb38cf69	-0.0028199798
56	0xbe0be1e6	-0.13660392
57	0xbddf0594	-0.10889736
58	0x3e129639	0.14315118
59	0x3cb470f6	0.02202652
60	0x3cf6a15d	0.03010624
61	0x3ded19e9	0.115772076
62	0x3e12daee	0.14341328
63	0xbd9e2289	-0.07721431
64	0xbdf626e5	-0.12019137
65	0xbdd1e633	-0.10248985
66	0x3dd6a12c	0.1047996
67	0xbd246ce6	-0.040142916
68	0x3dc04a67	0.09389191
69	0x3d05d857	0.03267702
70	0xbdc43a32	-0.095814124
71	0xbcefb34e	-0.029260304
72	0x3bc139f7	0.0058968025
73	0xbe0a9db0	-0.13536716
74	0xbcb45117	-0.022011323
75	0xbc8a74c7	-0.016901387
76	0x3d3d08cd	0.04615097
77	0x3dacad6f	0.08431517
78	0x3cf14510	0.029451877
79	0xbe3ac793	-0.18240194
80	0xbb99a622	-0.004688994
81	0xbbdce513	-0.006741175
82	0xbc7bf387	-0.015377886
83	0x3e01b276	0.12665734
84	0xbd8b2682	-0.06794454
85	0xbd8e750e	-0.0695592
86	0xbdf9b327	-0.12192374
87	0x3cc5372f	0.024074165
88	0x3e3bf06e	0.18353435
89	0x3d604add	0.054758895
90	0x3c638e1a	0.01388886
91	0xbc7422de	-0.014900891
92	0xbc07a23b	-0.008278425
93	0x3bf4ff39	0.007476714
94	0x3d549abf	0.05190539
95	0x3d7f342e	0.06230562
96	0xbdcd73d6	-0.100318596
97	0x3deef356	0.116675064
98	0xbe178afc	-0.14799112
99	0x3a32bb09	0.00068180315
100	0x3dfc365d	0.123150565
101	0x3b53e489	0.0032332262
102	0xbe07a245	-0.13245495
103	0x3da2df27	0.07952719
104	0x3bc0831e	0.0058750054
105	0x3e08092c	0.13284749
106	0xbe1b9de1	-0.15196945
107	0xbddbffc4	-0.10742143
108	0xbe1efe34	-0.15526658
109	0x3d531d2a	0.051541485
110	0x3d0b1925	0.033959527
111	0x3e39ae6d	0.18132944
112	0x3e106389	0.1410047
113	0xbc164380	-0.009171367
114	0x3d2edc1c	0.04269038
115	0x3e02fa56	0.12790808
116	0x3d22f0f4	0.039780572
117	0x3d1962d3	0.03744776
118	0x3db9a7cf	0.0906521
119	0xbcc1a25b	-0.023636987
120	0x3df5fa53	0.12010636
121	0xbdc64721	-0.096815355
122	0x3d21b93f	0.039483305
123	0x3c060fe7	0.008182502
124	0xbd43aaa3	-0.047770154
125	0xbd292cdd	-0.04130255
126	0xbda03c0b	-0.07823952
127	0x3d91a4bf	0.07111501
128	0xbe18ce63	-0.1492248
129	0x3dc970c3	0.09835961
130	0xbd8e0d4f	-0.06936132
131	0x3cd08ee2	0.025458757
132	0xbe4f9f23	-0.2027555
133	0x3d03aaeb	0.032145422
134	0xbde0ed39	-0.10982747
135	0xbd41ab19	-0.047282312
136	0xbe16e12b	-0.14734332
137	0x3e0f2839	0.13980187
138	0x3e00e772	0.1258829
139	0x3d269c63	0.040676486
140	0x3d568988	0.052377254
141	0xbd9720ee	-0.07379328
142	0xbc0140a5	-0.007888948
143	0xbe08ed99	-0.13371886
144	0xbda5d339	-0.08096928
145	0x3e1e49cd	0.1545784
146	0xbcbdb49b	-0.023157408
147	0xbcdd51c1	-0.027016522
148	0xbe0a4e22	-0.13506368
149	0x3decfe47	0.11571937
150	0xbdd08245	-0.10181097
151	0xbe00b97a	-0.12570754
152	0x3d342d48	0.043988496
153	0x3cd77fda	0.026306082
154	0x3e68baa9	0.22727455
155	0x3d359ae6	0.044337176
156	0xbced4c41	-0.028967025
157	0x3a7fea70	0.0009762412
158	0x3d470149	0.04858521
159	0x3e028ee1	0.12749816
160	0x3cbd41a9	0.023102598
161	0x3d412838	0.047157496
162	0x3dbcbd19	0.09215755
163	0x3cc58c5a	0.024114776
164	0xbd8b617a	-0.068057016
165	0xbdfdf175	-0.1239957
166	0xbbcaeede	-0.006193026
167	0xbddcb956	-0.107775375
168	0xbe1a90f4	-0.15094358
169	0xbd0d10ca	-0.03443984
170	0x3d2eb923	0.04265703
171	0xbdb885c3	-0.09009888
172	0xbdc257d9	-0.09489412
173	0xbd348900	-0.044075966
174	0x3d499419	0.049213503
175	0xbd84a4f8	-0.06476778
176	0x3db52e66	0.088467404
177	0x3c1aa2e4	0.00943825
178	0xbda1130a	-0.078649595
179	0xbdec8ac0	-0.11549902
180	0xbd1a77f9	-0.03771207
181	0x3d9dbdf2	0.07702245
182	0xbda2a3a0	-0.07941365
183	0x3cb20837	0.021732433
184	0xbcb23b47	-0.021756781
185	0xbd12db38	-0.035853595
186	0xbe0e8652	-0.13918427
187	0xbc5b8280	-0.013397813
188	0x3dc92ce0	0.09823012
189	0xbc1a1098	-0.00940337
190	0x3d215c7c	0.03939484
191	0x3dd6c5ae	0.10486923
192	0xbe122b67	-0.14274369
193	0xbdb10133	-0.08642807
194	0xbcce88af	-0.02521166
195	0x3e2dbbe5	0.16966207
196	0xbd2039d9	-0.039117668
197	0xbd904d34	-0.07045975
198	0xbad4282d	-0.001618629
199	0x3d413617	0.047170725
200	0xbc025356	-0.007954439
201	0xbd910350	-0.0708071
202	0x3e0b8cb0	0.13627887
203	0xbd9b30d6	-0.07577674
204	0x3db800a9	0.08984501
205	0x3d2eff30	0.042723835
206	0xbd09696b	-0.0335478
207	0x3d1b5cdf	0.037930366
208	0xbdc256a0	-0.09489179
209	0x3e0be1c4	0.13660342
210	0x3d8da96c	0.0691708
211	0x3aa690fc	0.0012708004
212	0xbcb5a48a	-0.022173185
213	0x3caad021	0.020851197
214	0xbd3c4021	-0.045959596
215	0xbd9e0312	-0.07715429
216	0xbd8c8dd8	-0.06862992
217	0xbd1866d1	-0.03720743
218	0x3d8bb6f3	0.06822004
219	0x3de7c774	0.113173395
220	0x3be3e82b	0.006955167
221	0x3db8ed0e	0.090295896
222	0x3dd82d7d	0.10555551
223	0xbd9ed5ec	-0.07755646
224	0xbdb29243	-0.087193035
225	0xbe0190a1	-0.12652828
226	0xbdb72835	-0.08943216
227	0xbe0feb3f	-0.14054583
228	0x3c2e0d3e	0.010623274
229	0x3da3a35d	0.079901434
230	0xbc928526	-0.017885756
231	0xbcd7266f	-0.026263444
232	0xbda14398	-0.078742206
233	0x3dd5f380	0.104468346
234	0x3ccee5b6	0.02525602
235	0xbd2941a8	-0.04132238
236	0x3da6f360	0.08151889
237	0x3c90d6d2	0.01768056
238	0x3dba7f80	0.0910635
239	0xbda5ec5f	-0.08101725
240	0x3dfd09f9	0.12355418
241	0xbe0c0f58	-0.13677728
242	0x3cce58d5	0.025188843
243	0x3d8c368a	0.0684634
244	0x3cf0eded	0.029410327
245	0x3d3d1e9b	0.046171766
246	0xbd1fcad4	-0.03901179
247	0xbccb9c9a	-0.024854947
248	0xbd5361eb	-0.051607054
249	0x3d6daf43	0.05802847
250	0x3deb8537	0.11500018
251	0xbd8acc74	-0.067772776
252	0xbd621b05	-0.05520155
253	0xbe1289b5	-0.14310344
254	0x3e0037c9	0.1252128
255	0xbba67844	-0.0050802547
