073123/0809hoxy.pth (torch, 603749 bytes, 41 tensors)

lstm.conv1.weight f4 [32, 7, 1]
00000000: d733 8fbd d258 8dbc 749d 1ebe 19d1 51be
00000010: 82c8 633e 77a4 05be 9de0 edbe acf0 abbe
00000020: 455a 16bd 18f8 33be 22c8 4abe ddb3 343e
00000030: a5a2 363e 8549 febe 8629 2f3e 8d98 ec3d
00000040: 0d7a bcbe f51c e03d 097c b2bc 7d15 aa3e
00000050: c05e bbbd d7e3 a13c d374 ab3e d425 6fbe
00000060: 9860 79bd c60c 443e 8cc3 86be 6da3 3c3e
00000070: 72fb 99be 88e9 96be f2e2 b43d bbb7 34be
00000080: 1eb7 773e 0f4b b9bd 0d78 59be 5c9c cabe
00000090: d47b a93e 256e 22bd fd4a b03e d302 da3c
000000a0: 8bf8 883e 3165 99be 81a4 aebe 493c ac3d
000000b0: e853 bf3d 09e0 7ebe 59da 0fbe 8ed8 d0bd
000000c0: 0b31 8ebe 3c09 f53d 7050 c3bd 0803 2abe
000000d0: fd88 893e 14d1 02be 3b8c 433c 8e72 2f3e
000000e0: fccd 393e 10f0 92be af8f 033f 9291 983e
000000f0: f47d 393d 10a7 2b3d 8bac 293b a1b0 183e
00000100: c52f a33c c7fb ea3e 3373 b03e d52c aabe
00000110: f40c a43e 8153 96be 9347 15be bd1a 52be
00000120: b22b c53d bcd0 113d 7586 183d 37d8 c2bd
00000130: ad1d 01bf 9bc4 633e a38d 493e 4ab6 ac3d
00000140: cf0d 323d 36ff a6be f277 aa3d 31e4 35be
00000150: c07f 5ebe 2dcf af3d b0f6 053d 3e3b 63be
00000160: 30ae 29be b1f6 acbe 9688 1bbe 99be 3e3e
00000170: 34cb b03e 8530 babd a146 043e 775d 9b3d
00000180: 21ff 68bd f955 e03d 052b 823e da1c 98be
00000190: 4974 b3bd e976 4fbe c548 8abd 1e07 573e
000001a0: 085b 9fbe fb20 2abe 7a53 303e 28c4 c43c
000001b0: 8a68 093e 95d9 a3be c951 05bf f6e0 d4bc
000001c0: 0cfc 80bd 3cf4 a2be 5ba2 46be e670 20be
000001d0: e96e 61be b1c6 18be 330d 8cbd d6b4 313d
000001e0: 4ad7 d43d 7f32 ac3c 60d9 d6bd d62b 74be
000001f0: cc9a b8be 8980 3f3e 2719 be3d 9bcd 39be
00000200: 3de7 313e 0d8f ecbc ec22 8fbe 5627 0e3d
00000210: 8684 b63e c745 f43d ae97 8abe 8a91 81be
00000220: 37e6 00be dc1f a7be 9822 2fbe f722 d03d
00000230: d3ae 80be 799c 5bbd 8a2c f43d bdb3 533e
00000240: 53af aebc 48d0 6fbe b77e b8be 2361 683e
00000250: 6a7e 77be bb93 9b3d bd84 aa3e 8438 043c
00000260: 5d51 59be 2e6e ef3e 2899 92be ecd1 0d3d
00000270: 5c21 9d3d b5fa 97be 5f25 a43d 03cb 1fbe
00000280: 0e3a 9abe 3eb7 babe 8804 a83c 4409 7abe
00000290: a8b6 7d3e 33d8 64be 4794 153e e65e f53c
000002a0: 7457 9ebe 2fc9 1d3e 0e72 42be 02b6 d53b
000002b0: a630 d1bd 741b 65be e478 033e 849c 09bb
000002c0: a118 a0be 8c87 093e f2fb 8c3e a03d 083e
000002d0: 187b a6be 108f a13e 8c24 153e 0f7a 2cbe
000002e0: a89a 133e e9c3 35be 43ac 07be 1e4b a63e
000002f0: 921b 523d 6732 913c 7dfa ca3e 1f02 7e3e
00000300: df93 a93d bcee 583e cd98 24bd 212a 4fbe
00000310: ec2b 6a3e cca8 04bd 18e1 c93e 55f6 433e
00000320: bcb1 bbbe 8708 b23e f415 f9bd 9b20 223d
00000330: a00c 893e 81b2 823d 185b 5cbd 0d48 843e
00000340: 8095 17be e3fa a1be e223 e23d 4fb1 a0bd
00000350: f1f6 a0bd 3aa9 86be ac06 1a3e 141d f33d
00000360: 02bb 6c3e 22bc 8a3c deb2 703e f89f b43d
00000370: cab3 68be 3243 f63d cea5 a0be f069 f4bd
-0.069923095 -0.017254267 -0.15489751 -0.2048992 0.22244456 -0.1305102 -0.4646043 -0.33582056
-0.03670718 -0.17575109 -0.19802907 0.17646737 0.17835481 -0.49665466 0.17105684 0.11552534
-0.36811867 0.10943023 -0.02178766 0.3321952 -0.091489315 0.019761963 0.33487567 -0.23354274
-0.060883135 0.19145498 -0.26321065 0.18421717 -0.3007465 -0.29475045 0.08832349 -0.17648213
0.24190947 -0.090475194 -0.21237202 -0.39572418 0.33102286 -0.039655823 0.34432212 0.026612675
0.26752123 -0.29960015 -0.34109882 0.08409936 0.09342176 -0.2489015 -0.14048137 -0.101975545
-0.27771792 0.11964652 -0.095368266 -0.16602719 0.26862326 -0.1277507 0.011935289 0.17133543
0.18144983 -0.28698778 0.5139112 0.2979856 0.045286134 0.04190737 0.0025890197 0.14911129
0.01992024 0.45895216 0.3446289 -0.3323733 0.32041132 -0.29360583 -0.14578085 -0.20518012
0.09627475 0.035599455 0.037237603 -0.09513896 -0.50435907 0.22242968 0.19682936 0.084332064
0.0434702 -0.32616585 0.08323659 -0.1776283 -0.2172842 0.085844375 0.032705963 -0.22190568
-0.16570354 -0.3378196 -0.15188822 0.18627395 0.34530032 -0.090912856 0.12917568 0.075861864
-0.056883935 0.10953898 0.25423446 -0.29709512 -0.08762414 -0.20260204 -0.06752161 0.20998809
-0.3112414 -0.16614144 0.17219344 0.024019316 0.13418785 -0.3200194 -0.5207792 -0.025986176
-0.06298074 -0.3182696 -0.19397871 -0.15668067 -0.22014965 -0.14919545 -0.06838455 0.04338535
0.10392626 0.021020172 -0.1049068 -0.23844847 -0.360556 0.18701376 0.09282141 -0.18144839
0.17373367 -0.028876806 -0.2795633 0.034705482 0.35647982 0.119273715 -0.27068847 -0.2530635
-0.1258782 -0.32641494 -0.1710304 0.10162919 -0.2513338 -0.05361602 0.11922558 0.20674033
-0.021323835 -0.23419297 -0.36034176 0.22693305 -0.24169317 0.07596537 0.33304396 0.008070115
-0.21222444 0.46763748 -0.28632474 0.034624025 0.076723784 -0.29683462 0.080149405 -0.15604787
-0.30122417 -0.36467928 0.020509973 -0.24417597 0.24776709 -0.22348098 0.14607345 0.029952478
-0.30926096 0.15408777 -0.18988821 0.006521941 -0.10214357 -0.22373754 0.12839085 -0.0020997832
-0.3126879 0.13430613 0.2753597 0.13304758 -0.32515788 0.3155446 0.14564723 -0.16843437
0.14414465 -0.17750515 -0.13249306 0.32479185 0.051295824 0.017724229 0.39644232 0.24805497
0.08280157 0.2118482 -0.040184785 -0.20230915 0.22868317 -0.03238754 0.39429545 0.19136937
-0.36659038 0.3477213 -0.1216239 0.039581876 0.26767445 0.06381703 -0.05379781 0.2583622
-0.14803123 -0.31636724 0.11042 -0.07846319 -0.078596 -0.26300985 0.15041608 0.118707806
0.23118213 0.016935412 0.23505732 0.08819574 -0.22724834 0.12024535 -0.313765 -0.119342685

lstm.conv1.bias f4 [32]
00000000: d36b a1bd e497 0b3e 91dd c63d 662a 80be
00000010: 5990 d13d a5e0 49be 7651 40be 4405 a6be
00000020: 8cc2 f2bd 917d 683e 1a59 8d3e d090 1c3e
00000030: dc7d 29be 1a6c ff3d 59e5 a4be ebda 433e
00000040: e270 bebd 1cdc 11bd 5053 00be cde3 d4bd
00000050: bef9 103e 2cb3 c33d 4cbc 403e 4baa 18be
00000060: e91b 9c3e 4404 4bbe 50bf adbd 5c52 a93e
00000070: f874 b43e 0610 fd3d 6a44 7a3e 2fe4 cfbe
-0.07881894 0.1363216 0.09710229 -0.25032347 0.1023261 -0.19714601 -0.18781075 -0.32425892
-0.11853513 0.2270415 0.27607042 0.15289617 -0.16551918 0.124717906 -0.32206228 0.1912648
-0.092988744 -0.035610303 -0.12531781 -0.10395012 0.14157769 0.09555659 0.1882183 -0.14908712
0.30490044 -0.19825846 -0.084837556 0.33070648 0.3524549 0.12356572 0.2444016 -0.40603778

lstm.conv2.weight f4 [64, 32, 1]
00000000: be0a 843c c7b8 e8bd 69e6 22bd 5d63 0abe
00000010: 6c0e 01bd c01b 913d b674 123e 8c96 16be
00000020: db08 4dbe 05ae 1bbe 3805 153e 1f4d 993c
00000030: 0e8c 24bd 1099 0cbd 5aa5 313d 0b51 ef3d
00000040: 06db 41bd b2af 5dbe 433c 16be 48c6 1cbd
00000050: f32d bd3c 8b17 18be 983a b3bd 1990 bcbd
00000060: 0634 23be ac66 75be 5ca0 3abe 3688 a03d
00000070: 039e 09be 2b3a d63d 2c14 3fbd 21e1 8c3d
00000080: 0881 20be eead 47bd 8382 053e 75b2 06bc
00000090: 7343 56be 7e91 253e cdb5 b3bd e3ab bd3d
000000a0: f6f9 fe3d 0206 023e d23e 02be 5a37 45bd
000000b0: bb61 6e3c f54c c23d 965c 393e 7f83 b23d
000000c0: de5a 4e3d 0b3e b6bd f583 a23c 08ff 09bd
000000d0: e650 323d 23d8 3bbd 6577 1bbd 8778 eabd
000000e0: 0e3d e3bd 6a5e 28bc 8386 84bd af6f e13d
000000f0: 5ea3 06be d003 2b3e 0611 0e3d 40da 953d
00000100: 8bd0 65bd cfe2 0ebe 1f39 37be c375 febd
00000110: 9939 50be 12fa 15be da7f 553d 0773 d13c
00000120: 44a2 6abc 2977 2abe 7c45 e23d ea62 abbd
00000130: 1e7a a7bd 93a8 80bd 8af7 99bb 6b9b 903b
00000140: 907b 1e3e cc36 a23d 1b75 cbbd 3e7a 32be
00000150: 3e50 e53d 43e9 aabd b1f0 e5bb 2280 00be
00000160: e3cf 113e 69e1 293c 13dc f03d f4c8 6bbe
00000170: c926 d33d fa14 19bd 921b f5bd d504 febd
00000180: d76d e3bc 9f25 0c3d 7bd5 06be 6e01 70bd
00000190: b7a5 7cbc 2e4a a6bd d7a7 0f3e 9633 af3d
000001a0: 7f02 b33d e78a 993d cb6f 08bc 0769 98bd
000001b0: ec5f 243d 714c 41be 1ea4 9cbd 89a3 45be
000001c0: 02cd 2d3e 5f23 e53b ceec e9bd ad2b 54be
000001d0: 98fc b2bd 346c 5dbc 4458 36be 58c6 0b3e
000001e0: e1fe 8e3d 1011 bbbd 171c 58be 1fdf 1ebe
000001f0: fa0a 20bc 3a4b 2a3d 2264 503b 17f7 ac3d
00000200: 0974 a63c fd0f 07be a66c 9e3c 3bad 2fbe
00000210: b696 c1bc b6f5 ddbc 0d9e e63d 178b 30be
00000220: 3266 87bd 982b 35be 4a55 d7bd 0f11 293e
00000230: 9b7b 213e d85b bc3d 458c 57bd 8d28 33be
00000240: 12ae 013d 4b95 b13d bf2d f5bd 328c 113e
00000250: 2a33 523b ac6d f5bc 96dc c2ba 5552 4dbc
00000260: 9736 37be 9373 71be ef51 e43d 8165 f43c
00000270: 1cfe f13c acde a9bd 49e8 24be 3fda a3bd
00000280: 6ad5 97bd d7fd cb3d 6e52 be3d 0178 073d
00000290: c656 1abe 2b44 163e 1841 31bd f500 e7bc
000002a0: 5eb1 3f3e edaf b7bd c4b0 94bd d705 a83d
000002b0: 8891 d9bd 14d6 9cbd 66de d4bd 5690 f0bc
000002c0: 565b 79be e2da d23b db09 fb3d 4b21 1a3d
000002d0: 6999 173e 159b e23d 3594 38be 3e71 263e
000002e0: 8938 9f3d e29d e33d 0de5 303e 0d9e 49bc
000002f0: aec0 c83d e591 f8bd aa98 b4bd 0383 db3d
00000300: da3e 843d 7a88 1bbe 60ac 83bc 5aa4 873d
00000310: 7c86 88bc fcfc 23be 0bcd 3a3d af44 0abe
00000320: 9f2d 1abd 078d dabd ef70 d6bd f27c 10be
00000330: caad 28bb 2095 983d 0d55 9a3c 8553 83bc
00000340: 53e0 c63d 7729 36bd 5107 51bd fbbc 35be
00000350: 6b36 383d e563 35be a4eb 803d e33c a33d
00000360: df6c a4bd 7fea 08be 7296 46be b3ab f0bc
00000370: fa8a 9a3d ed98 963c 39b0 2b3c 82b6 693d
00000380: 4c21 39be 7da9 d8bc 6dff e3bb 78c7 a0bc
00000390: 1533 3ebe 14d9 7abd 50bb ce3d 7794 193d
000003a0: bdcc ef3d b083 e23d 91f5 0cbd f2c5 d9bd
000003b0: c8fe 2fbd 4c90 dcbd f039 febd 3193 9d3c
000003c0: 25dd a13d 8967 81bc f65e 303e 145b fdbd
000003d0: 2cee 313c 463c 4a3d a972 543d 293f 6bbe
000003e0: 1801 e4bd 9f28 383d 7acd 313e 79b8 45be
000003f0: 85cb fc3d 11e2 f63d 8b4d 5abd 46b1 08be
0.016118404 -0.113633685 -0.039770517 -0.13514467 -0.031507894 0.07085371 0.14302334 -0.14705867
-0.2002291 -0.15203102 0.14552772 0.018713532 -0.04017263 -0.03432566 0.043370582 0.116853796
-0.047328018 -0.21649054 -0.14671426 -0.038275033 0.0230932 -0.14852731 -0.0875141 -0.09207172
-0.15937814 -0.23964947 -0.18225235 0.0783848 -0.13439183 0.104603134 -0.046650097 0.068788774
-0.15674222 -0.048749857 0.13038068 -0.008221258 -0.20924167 0.16168782 -0.0877491 0.092613004
0.1245002 0.12697604 -0.12719277 -0.04814849 0.014549668 0.09487335 0.18101725 0.08716487
0.050379626 -0.088985525 0.019838313 -0.033690482 0.043534182 -0.04586042 -0.03795566 -0.1144877
-0.1109563 -0.010276416 -0.064709686 0.1100763 -0.13148257 0.16700673 0.034684204 0.073170185
-0.056107085 -0.13953708 -0.17892884 -0.12424805 -0.20334472 -0.14646176 0.052123882 0.025567545
-0.014320914 -0.16647018 0.11048409 -0.08368476 -0.08177589 -0.06282153 -0.0046986984 0.0044130585
0.15476823 0.07920608 -0.099344455 -0.17429444 0.111969456 -0.083452724 -0.007017218 -0.12548879
0.14239459 0.010368683 0.11760726 -0.23025876 0.10310132 -0.03737352 -0.11968149 -0.124032654
-0.027762337 0.034215566 -0.13167374 -0.058595113 -0.015420369 -0.081196174 0.1402887 0.08554761
0.087407105 0.07497197 -0.008327435 -0.074419074 0.04013054 -0.18876816 -0.0764849 -0.19300665
0.16972736 0.006992742 -0.1142212 -0.20719786 -0.08739585 -0.013514567 -0.17807108 0.13649881
0.06982208 -0.09134114 -0.21104465 -0.15514801 -0.009768242 0.041575648 0.0031797965 0.08445566
0.020319002 -0.13189693 0.019338917 -0.17155926 -0.023631435 -0.027094703 0.112606145 -0.17240559
-0.06611289 -0.17692411 -0.105143145 0.16510414 0.15769808 0.09197205 -0.052624006 -0.17495938
0.031660147 0.086710535 -0.11971616 0.14213637 0.0032073953 -0.029959522 -0.0014866765 -0.0125318365
-0.17891918 -0.23579244 0.1114844 0.029833557 0.029540114 -0.082944244 -0.16104235 -0.080006115
-0.074137524 0.099605255 0.09293066 0.03307343 -0.15072164 0.14674442 -0.04327497 -0.028198699
0.18720004 -0.08969102 -0.07260278 0.08204239 -0.10623461 -0.0765802 -0.10393982 -0.0293657
-0.24351248 0.0064347843 0.12257739 0.037629407 0.14804615 0.11064736 -0.18025286 0.16254136
0.07774455 0.11114098 0.17274876 -0.012305749 0.09802376 -0.12137202 -0.08818181 0.10718348
0.064573005 -0.1518878 -0.016073406 0.066231444 -0.01666569 -0.16014475 0.0456057 -0.13502763
-0.037641164 -0.1067143 -0.10470759 -0.14110163 -0.0025738352 0.07450318 0.018839383 -0.016031036
0.09710755 -0.044473138 -0.051032368 -0.17747872 0.044973772 -0.17713888 0.06294945 0.079705976
-0.08028578 -0.13370703 -0.19393328 -0.029378748 0.07546039 0.018383468 0.0104790265 0.05705882
-0.18079108 -0.026448006 -0.0069579394 -0.019626364 -0.18574174 -0.061242178 0.10094321 0.037495103
0.117089726 0.11060274 -0.034413878 -0.10633458 -0.042967588 -0.1076971 -0.124133945 0.019235225
0.07903508 -0.01579644 0.17223725 -0.123708874 0.010860007 0.049373887 0.05186716 -0.22973312
-0.11133021 0.044960614 0.1736354 -0.19308652 0.12343506 0.120548375 -0.053296607 -0.13348874

lstm.conv2.bias f4 [64]
00000000: 0a7b ebbd 9b41 b43c cd72 093e 332b bfbd
00000010: 2b98 473c 9c07 b93d 5a50 d5bc ed08 8ebd
00000020: ea27 85bd 1ac7 bb3d 1add d53d 4192 f63d
00000030: 22d2 6f3d 967c 1bbd 2473 1a3c ab98 313e
00000040: 3099 193e 1bbe 0d3e b83d cb3c 750e 54bd
00000050: 050b 093e df6e 12be 4186 9bbd 22bb fd3d
00000060: bbdd 1f3d 7603 45bc 9afa 0abe e256 db3d
00000070: 4b4f bfbc 34f1 f2bd 420e 16bd b413 46bd
00000080: f3f5 12be 148f a73d c3ec f13d d615 e4bd
00000090: b1a4 1c3e 2bd3 d53c dc9b e3bc cd53 a73d
000000a0: c1af 043e 2e69 193e ed91 8fbd c378 ca3d
000000b0: b8e0 8c3d 6976 983c aaea f93a 2889 eebc
000000c0: 849d b2bc 7b8e f9bd 8782 8ebd b4b0 2a3e
000000d0: 0b50 39bd 26d3 0d3e 2015 c5bd d45a d13d
000000e0: 6afe 70bd d221 2abe d0e5 083e 50cc 0c3e
000000f0: 47fe 653d c2a1 c93d 8c1d 1f3c ef5e bdbd
-0.11498077 0.02200394 0.134227 -0.093344115 0.012182276 0.090346545 -0.026039291 -0.06935296
-0.06501754 0.09168835 0.104425624 0.120396145 0.058550008 -0.03796061 0.009426866 0.17343394
0.14999843 0.1384205 0.024809703 -0.0517716 0.1338311 -0.14300106 -0.07593966 0.123892084
0.039029818 -0.012024751 -0.1357216 0.10709931 -0.02335324 -0.11862412 -0.03663469 -0.048358634
-0.14351635 0.08181587 0.11812737 -0.111369774 0.152972 0.02610167 -0.02778428 0.081702806
0.1295767 0.14981529 -0.07010255 0.09886315 0.06878799 0.01861115 0.0019067128 -0.029118136
-0.021803625 -0.12185379 -0.0695849 0.1666897 -0.04524235 0.13850078 -0.0962317 0.10222402
-0.05883638 -0.16614464 0.13368917 0.13749814 0.0561507 0.09845306 0.009711634 -0.09246623

lstm.encoder_lstm1.weight_ih_l0 f4 [128, 10]
00000000: c8b5 41be 3afa 9c3d a3a9 663d 2a06 07be
00000010: de42 f5bd a473 73bd 417c f9bd 1f73 143d
00000020: 8369 28be 26da fd3d a585 ebbb f353 20be
00000030: ba76 32be 3120 053e 286f 41be c55b 17bd
00000040: b8a2 da3d 8de4 273d 1e1a 2ebd 6bf5 92bd
00000050: a883 223e 7ec9 213c 326c cc3c de9b 663e
00000060: 66d1 42bd 74bc f53d bcc6 583d 446f e1bd
00000070: 6857 00be d628 1bbe bd73 f83d 8906 25be
00000080: 159f aa3d fcab 2bbe f984 643c df77 b63d
00000090: d183 c23d 1376 093e dd56 c03d d939 c8bd
000000a0: fb7d eb3d 6a8a 17be 6521 883d df0e 933d
000000b0: f27f 73bd b1ac 953c d0d6 e33c 29db 6abd
000000c0: f437 293e fd4d dcbb 292a b4bd 6bb3 c43d
000000d0: a81e 8ebd 40b4 89bd 7008 5bbc caa4 843d
000000e0: 9869 55bc 4581 913e b8b3 f93d e625 8fbd
000000f0: d902 8dbb 7e37 f13a b4e8 9b3d a90f 893e
00000100: 9e67 403e 707f b23d 83e6 0ebe 8042 683e
00000110: 5b33 083e c39a b2bc d184 98bd 9ad7 b0bc
00000120: ca8d 2b3d aec1 b43d ff8f f9bc f021 c9bc
00000130: ba97 573e 9e54 83bd 7935 0f3e 0dc6 f53d
00000140: afd0 df3c 3d99 cfbd f662 13be 409a 29be
00000150: c3ff f03d 0510 1e3d ebb3 d93d cce7 b73d
00000160: dca3 06bd e8cc 423d 62b1 203d 02d5 213e
00000170: 920e 973d 5e7d b13e f80d 2e3e 2210 bdbd
00000180: 0973 013e dc57 16be 73fa 853c c383 15be
00000190: 6470 eabd 88db 01bc 6521 233d 817a 02be
000001a0: 25f8 0bbe 4385 1d3e c611 b9bc b7c7 2e3d
000001b0: 1b5f 52bd 5a0f c93d c835 afbd 0e3b 15be
000001c0: 7e8d 493d 4c64 d7bb cfd3 fc3c 1268 c63d
000001d0: b2f1 1fbe e904 ca3c 3429 423e 9f47 31be
000001e0: 5187 02bc 6f97 f63c 7ba2 42be 6fed 2dbe
000001f0: 9f8d 5fbc 1414 c0bd dc6c c83d 3d29 02be
00000200: a193 68bd 6a0c 0c3e d7d5 94bd a83f 8fbc
00000210: 55b0 c23d 7021 c1bd e199 c63c 8524 adbd
00000220: 80db 88bb 6207 07be f6f6 e03c 22a1 8b3e
00000230: ac78 cf3c 0720 333e 156c dfbc 1050 893d
00000240: 3606 66bd f4b5 d63d 63d1 2f3c f732 e2bd
00000250: 330a 483d 7397 f53c 860a 5abb a925 083e
00000260: 91ac 0f3e 9ab5 893d 0443 c43d 4ae5 4b3e
00000270: 1d66 21bd eb21 673e fc08 c93d 16d6 5bbb
00000280: 36b0 ec3d a254 a3bd c4b5 b8bd 126c c4bb
00000290: 8e76 98bd 8c24 c3bd 767f 283e 1ee9 08be
000002a0: c4f2 693e e767 e7bc d7fb ffbb 81cd 063e
000002b0: 2934 f93d a925 903d 7232 f5bb 5bda 60be
000002c0: d5c2 c9bd b7ad 46bd b432 de3d 1ffa aebd
000002d0: 5381 16be e99a b13d 7c31 3bbe 6464 9bbd
000002e0: a59b 023d 8c6e 1cbe 7ab7 4bbe af02 fc3d
000002f0: 0d51 aa3d 0712 483b 6499 063e 7d10 cdbd
00000300: 257c 1d3e 273c 0fbe 83e4 443d 10ed 2cbc
00000310: 490d 09be 032a 07be 2fbe 4dbe e329 593a
00000320: 1a65 29be 28d9 e23c 58be 053d 6b1e 10be
00000330: 8fb0 cabd 1b21 e8bd 517d c63d 6c61 243e
00000340: d46d 7dbd 45ac e7bd 6fef d3bc b159 07be
00000350: c63f 4bbd 4eb5 6cbd a053 293e 9593 cebd
00000360: c8fd cdbd 7138 a93d b6dd 39be 1339 063e
00000370: 9bbb a6bd e9d0 cabd ef26 c1bd 15b8 173e
00000380: 5d85 793d 4958 10bd 94bb a33c 1398 17be
00000390: 4065 823d c977 8a3d cf52 38bd dec9 323d
000003a0: 8fc3 303d 255c 86bb 4cba 4dbc 463f ef3d
000003b0: 954c 5a3d 493e 163d 0e01 223e 70f5 4e3c
000003c0: bcea 313e db64 b93d 4dad 293e 6603 52bd
000003d0: 20ec 263e fb75 25be 5482 553e 50f7 383c
000003e0: 93b7 b7bc 7957 4b3e e827 a13d 852e c93d
000003f0: 4eb8 9c3d 3905 2b3d 70e7 47bd 1c42 7dbd
-0.18917 0.076649144 0.056314122 -0.13185945 -0.119756445 -0.059436455 -0.12181903 0.0362426
-0.164465 0.12395124 -0.0071875625 -0.15657024 -0.17428103 0.13000561 -0.18890059 -0.036952753
0.106755674 0.040989447 -0.042505376 -0.07175716 0.15870535 0.0098747 0.024953935 0.22520396
-0.04756298 0.11998835 0.052923903 -0.1100755 -0.12533343 -0.15152296 0.1213145 -0.16115774
0.08331124 -0.16764826 0.013947719 0.08909582 0.09497798 0.13423948 0.09391568 -0.097766586
0.11498638 -0.14798895 0.066469945 0.07180571 -0.05944819 0.018270822 0.027812392 -0.057337914
0.1652525 -0.006723164 -0.08797104 0.09604534 -0.06939441 -0.06723833 -0.013368711 0.064767435
-0.013025664 0.28418937 0.12192482 -0.069896504 -0.004303318 0.0018403379 0.07612744 0.2676976
0.18789527 0.08715713 -0.1395512 0.22681618 0.1330084 -0.021802312 -0.07447208 -0.021587182
0.041883267 0.08826004 -0.03046417 -0.024552315 0.21053973 -0.06412624 0.13985242 0.12000666
0.027321188 -0.1013665 -0.1439322 -0.16562748 0.11767533 0.038589496 0.1063002 0.089797586
-0.032871112 0.047558695 0.039231665 0.15803912 0.07375826 0.3466596 0.16997516 -0.09231593
0.12641539 -0.14681953 0.016354775 -0.14601044 -0.11447218 -0.0079258755 0.03982677 -0.12742044
-0.13668878 0.15382867 -0.022591483 0.04267093 -0.05136023 0.09817381 -0.0855518 -0.14573309
0.049207203 -0.0065732356 0.030862717 0.096878186 -0.15619543 0.024660544 0.1896103 -0.17312478
-0.007966832 0.030101506 -0.19007294 -0.16985105 -0.013644605 -0.093788296 0.09786388 -0.12711044
-0.056781415 0.1367661 -0.07267349 -0.017486408 0.09506289 -0.09430206 0.024243297 -0.08454231
-0.004176557 -0.1318641 0.02746151 0.27271372 0.025326096 0.17492686 -0.027273217 0.06704724
-0.056158267 0.104839236 0.010731074 -0.11044877 0.04883785 0.029979443 -0.0033270433 0.13295616
0.14030673 0.06724091 0.09583095 0.19911686 -0.039404023 0.22571532 0.09816167 -0.0033544353
0.11557047 -0.07975127 -0.09019044 -0.0059943283 -0.074444875 -0.09528455 0.16454872 -0.13370177
0.22846514 -0.028247787 -0.007812004 0.13164331 0.12168152 0.07038433 -0.00748282 -0.21958296
-0.098516144 -0.04850551 0.108495146 -0.085438006 -0.14697771 0.08672125 -0.18280596 -0.07587507
0.031886715 -0.15276545 -0.1989421 0.12305199 0.083162405 0.0030528323 0.13144451 -0.100129105
0.15379389 -0.1398779 0.04806949 -0.010554567 -0.13383974 -0.1319962 -0.2009208 0.00082841347
-0.16542473 0.027691439 0.03265223 -0.14074104 -0.09896957 -0.11334439 0.09691871 0.16052788
-0.06187232 -0.11312155 -0.025871007 -0.13217808 -0.049621366 -0.057790093 0.16535807 -0.10086743
-0.100581706 0.082627185 -0.18150982 0.1310771 -0.08141252 -0.09903128 -0.09431254 0.14816315
0.0609182 -0.035240445 0.019986905 -0.14804105 0.06366968 0.067611285 -0.045000847 0.043649547
0.04315525 -0.00410034 -0.012556624 0.1168199 0.05329569 0.036680494 0.15820715 0.012631759
0.173747 0.0905244 0.16570015 -0.051272772 0.16301012 -0.16158287 0.20850497 0.011289433
-0.022426402 0.19857587 0.0786894 0.09823326 0.07652341 0.041753028 -0.0488047 -0.061830625

lstm.encoder_lstm1.weight_hh_l0 f4 [128, 32]
00000000: 0f24 adbd 57a9 20be b4d7 40be e913 103e
00000010: 0091 6cbe 41ca c43d 3b9e 29be 6861 5c3d
00000020: eb9d edbd dc8e d5bd 1813 22be 3f21 c3bd
00000030: ded1 f63b 51f0 ed3c 6eb1 d2bd ca99 7abd
00000040: 47fe d93d 226d ae3d 83c4 063e 077c 2fbe
00000050: d568 96bd 8ec6 76bb 5dcf ae3d cd28 ff3d
00000060: e2d7 f0bd 3c3b 763d c216 173d e0dc 573e
00000070: d793 04be c1a3 243e 8696 4b3d 1300 e7bd
00000080: 2f9b d33d 5622 1fbe 000f 3fbe fd41 c43d
00000090: 61fc 0d3d f624 08be ff27 3a3d b282 493d
000000a0: ea5e 673d 0e80 8f3d 0257 d03d b595 a63d
000000b0: b9ec 58bd 84b4 a1bd 71c8 873d a7b0 62bd
000000c0: e113 eb3b d728 9f3d 9483 17be d860 6a3d
000000d0: d8d7 5f3d 71a4 503d 005f 97bc d5ac b13d
000000e0: 54fb 00be 7f2c c83d 82b3 12be 34ca 17be
000000f0: 19d3 2fbe cf5a f1bb 9d4a f2bd 9e4f 393d
00000100: b44d adbd a83d 10bd adce dbbd f2df 423e
00000110: 5496 1e3e 9009 0dbe 320d c2bd 7801 163e
00000120: 90c2 bebb d9f0 58bd 09ff 41be 000b 3b3d
00000130: eef6 b63d f27b cb3d 93c8 31be ecbe 72bd
00000140: 4fa4 87bd 19bc d53d cfe4 a73d b8d7 1ebe
00000150: 8f9f 26bd e3a7 9cbd 65f1 8f3c b087 b8bd
00000160: 05ff e5bd 3431 2d3d b554 0d3e 174c 333d
00000170: 1102 333e 7d9a a2bd 757d c6bd 62db a5bd
00000180: 22ed 91bd 34e7 9c3d 8437 e7bd 3d19 81bd
00000190: 59f1 14be 9d69 3a3e c5fa 1cbe 1cc5 0fbb
000001a0: 47aa 123d d07d 3e3e b5d1 6abe be66 c03d
000001b0: 4223 563d acb0 5a3b 36f9 c23d 5878 d93d
000001c0: c7e5 b9bd 66ab 92bd 1489 d63b 687b 2bbe
000001d0: 3576 9dbd ed2f 1a3d 42a3 1b3e b18f a83b
000001e0: 8d78 0d3e bff5 15be b694 b93d 41f9 0b3e
000001f0: f2de 44be c81b 90bd 05b7 923c 1041 933d
00000200: a835 0f3d 0444 0b3e 1a34 b23c adf8 f93d
00000210: 4850 ddbd 94be 37be b0c2 35be 5fde a93d
00000220: d463 173d b012 933d 6c6f 6fbe f83d 863e
00000230: 3144 3a3e 440a 973c d14c 0cbd 4792 f13c
00000240: 1bd9 8fbd eb0c f2bd 2990 79bc 891f fcbb
00000250: 389a a73c f813 26be 6967 003e 4e45 173c
00000260: 6d07 55bd 69e3 abbc acc1 363d 7798 c4bd
00000270: 9e01 0b3e 0318 74bc 6fbb 1f3e d47a 03be
00000280: a45b ea3d b428 563d 4900 41be 2c8b cdbd
00000290: d41a 0bbe d2d8 093e d210 28be 6741 bcbd
000002a0: 6160 083e 944f 9abd 37ba cbbd a16a 153e
000002b0: 6001 de3c 0456 b2bd a925 b23d 7b80 9b3d
000002c0: dbf7 223d 316e fe3d 9e44 263c c675 203e
000002d0: e1fa 40bd b548 3cbd 8063 59bd 6fa9 10be
000002e0: 87fd fd3d c103 8bbd 46a0 693d 6654 ee3d
000002f0: 4eba 07bd e685 9c3c dde9 573d 7228 4abc
00000300: da1c 1cbc d152 773d f87e c73d 1e97 443e
00000310: 0169 e53c dfee 44be 5665 913d 98d9 a4bc
00000320: cdea 2abe db00 54bd 878c 51bd 0890 a03c
00000330: 6887 453d f9ce b93d 1ba5 23be 5fda 2e3e
00000340: 9682 4f3e 6340 c23d b7f8 a6bc 59a1 403e
00000350: 77b1 a03d ec09 05be 89dd 933d 3c0b 12be
00000360: a7dd 3bbd 305c 893d 0505 0b3e e3b8 a3bd
00000370: c648 6cbc c05e a73d 3bc7 abbd 7265 4bbe
00000380: a86f ac3d 972b 51bb 206d 12be 97c8 7b3d
00000390: 0d1b a8bd e809 f3bc 1eb9 27be 379e 713d
000003a0: ec81 65bd c87f 363d c688 b0bd 3fb1 19bd
000003b0: 6e71 d2bd e9ae 9abc 3f15 b73d 2767 e33d
000003c0: add1 253e a33f da3d 85ef 24be a9f1 023e
000003d0: 55b2 bcbc 884b 073e fc32 e6bd 5434 a2bd
000003e0: bf76 ce3d 82f2 b4bd 0308 b6ba a745 9d3d
000003f0: 9bb6 f23d 0a51 703d d321 b6bd 96fb d2bd
-0.08454143 -0.15689598 -0.18832284 0.14070095 -0.23102188 0.09608889 -0.16564266 0.05380383
-0.11602386 -0.10427639 -0.15827596 -0.095278256 0.0075323423 0.029045256 -0.10287748 -0.06118182
0.10644203 0.08516909 0.13160901 -0.17137156 -0.07344214 -0.003765497 0.08535645 0.12458954
-0.117599264 0.060115084 0.036886938 0.21080351 -0.12947021 0.16078092 0.049704097 -0.11279311
0.10332333 -0.15540442 -0.18658066 0.09582899 0.034664515 -0.1329535 0.0454483 0.049196906
0.056487 0.07006846 0.101728454 0.08134023 -0.05296013 -0.07895759 0.06630028 -0.05534425
0.0071740006 0.077714615 -0.14796287 0.057221264 0.054649204 0.050938074 -0.018477917 0.08675543
-0.12595874 0.09774112 -0.1432629 -0.14823228 -0.17170371 -0.0073655616 -0.118306376 0.045241944
-0.08462086 -0.03521505 -0.1073278 0.19030741 0.15487033 -0.13773179 -0.09475173 0.14648998
-0.0058215335 -0.052964065 -0.18944944 0.045664787 0.08933817 0.0993575 -0.17361669 -0.05926411
-0.06623136 0.104362674 0.08197939 -0.15511978 -0.04067951 -0.07649209 0.01757116 -0.09010255
-0.11230282 0.042283252 0.13801844 0.043773737 0.17481257 -0.079396226 -0.09691898 -0.080984846
-0.071253076 0.07661286 -0.11289886 -0.06303642 -0.14545192 0.18204351 -0.15330036 -0.0021937555
0.03580692 0.18602681 -0.2293156 0.093945965 0.05227972 0.0033369465 0.095201895 0.10618657
-0.0907703 -0.07161598 0.0065471027 -0.16746294 -0.07688562 0.03764336 0.15198997 0.0051440825
0.13815518 -0.14644526 0.090615675 0.13669302 -0.19225672 -0.07036549 0.017909536 0.07190144
0.03496328 0.13600165 0.02175336 0.12205634 -0.10806328 -0.17943794 -0.17750049 0.08294367
0.036960438 0.07181299 -0.23382348 0.26219153 0.18190075 0.018437512 -0.034252945 0.029488696
-0.070238315 -0.1181887 -0.015232124 -0.007694189 0.02045928 -0.16218555 0.12539448 0.009232832
-0.052009035 -0.020982461 0.044618294 -0.09599393 0.13574836 -0.014898303 0.15598844 -0.12839824
0.1144326 0.05228491 -0.18847765 -0.100363106 -0.13584453 0.13461617 -0.16412666 -0.09192162
0.13318016 -0.075347096 -0.09947627 0.14591457 0.027100265 -0.087078124 0.08698589 0.07592865
0.039787155 0.12423361 0.010148196 0.15669927 -0.047114257 -0.045967776 -0.053073406 -0.14127134
0.12401872 -0.067878254 0.057037614 0.116371915 -0.03313666 0.019106817 0.052713264 -0.0123387445
-0.009528363 0.060381714 0.09741014 0.19198272 0.028004171 -0.19231747 0.070994064 -0.020123288
-0.16691132 -0.05175863 -0.051159408 0.01959993 0.048224837 0.0907268 -0.15980951 0.1707549
0.20264658 0.09484937 -0.020382268 0.18811549 0.07846349 -0.12992066 0.07219989 -0.14262098
-0.04586568 0.067070365 0.13576134 -0.07994249 -0.014421647 0.08172369 -0.083876096 -0.19862917
0.08419734 -0.003191685 -0.1429944 0.061470594 -0.082082845 -0.02966781 -0.1637921 0.058988776
-0.056032106 0.044555455 -0.086198375 -0.03752255 -0.10275541 -0.018882232 0.08939599 0.11103659
0.16193266 0.10656669 -0.16106994 0.12787499 -0.023034254 0.13212407 -0.11240193 -0.07920137
0.10081243 -0.08835317 -0.0013887886 0.07679301 0.118512355 0.058671035 -0.0889317 -0.103018925

lstm.encoder_lstm1.bias_ih_l0 f4 [128]
00000000: 201d 313d 0e39 10be dc90 483d 532e ee3c
00000010: 358e e63d 2c57 1cbe 7433 0f3e 6b88 243e
00000020: 015d 123e 98e1 17be 2091 b3bd 95ae 87bc
00000030: 13e9 5b3d f88b da3c 632f 51bd 1207 203e
00000040: e3a6 bc3d 43c2 0b3e 796b 4c3d 7e37 26be
00000050: 5386 863c f2b5 c23d 4c62 0bbe 58d5 573d
00000060: b480 26be 0313 f03d bde4 25be 61f8 1d3e
00000070: 6484 12bd 540a 783d 3661 313e 3eda dcbd
00000080: b535 343e 5bc1 283d 1f22 383e 0304 fcbd
00000090: b2c3 9fbb 3eb9 0f3e 2f6f 47bd 3ac0 03be
000000a0: 2249 10bd d91d bdbd d84f 6b3d b17e 403e
000000b0: e232 0ebe c638 263e c3e0 873b d7f4 71bd
000000c0: 749e 2cbe 0ce7 04be 3ce6 80bd bda6 d63b
000000d0: f418 f6bd 834e 77bd e2b6 d7bd 831c 82bd
000000e0: 8e65 1fbd 0bde c83d 4a81 2cbe 07c2 1cbe
000000f0: 8233 8cbd aede 46bd 57d0 1ebe e917 823d
00000100: 5e3a e23d 7cab 7fbd b2ca 423e d0ce 5a3e
00000110: 3765 01be 4672 f8bd 70e4 27bc 3f8b 353b
00000120: 91e3 3c3d ccbb a53d 3c9c f7bd d898 5f3d
00000130: 67b0 d93b 618d 853d 7a8c cebd 337f 0d3e
00000140: 7855 42bd c8b1 b7bd 5c58 96bc 5643 c13d
00000150: 9ae9 e5bd c1b6 93bd c516 22be dca7 a8bd
00000160: 84d4 0f3e 07b5 b83d 5078 353d c1a2 f0bc
00000170: edfb 683d abd4 11bd f06c c93d d872 513c
00000180: eb2e 523d f7f0 0abe 7ba2 c73c e1d6 04bd
00000190: 06e9 663b ceab 033e b10a b73d ee85 e13d
000001a0: 8a02 4b3d b335 233e cc76 91bd 0142 193e
000001b0: c458 abbd 43eb d73d 4015 8fbd 7ccd a43d
000001c0: 6828 96bc 723d 223e 45b1 27bd b96b 863d
000001d0: 3f47 b7bd 4125 84bd 0fd7 fa3b 0b8b eb3c
000001e0: b0eb 163d cb05 75bc 8954 843d 5387 2abe
000001f0: 136b 9cbc 2bf5 873e 7471 07be 026f 3c3d
0.043240666 -0.14084265 0.048966274 0.029074823 0.112575926 -0.15267628 0.13984472 0.16067664
0.1429329 -0.14832151 -0.08767915 -0.01656274 0.053689074 0.02667807 -0.051070582 0.15627697
0.092115186 0.13648324 0.04990718 -0.16232106 0.016421473 0.095073596 -0.13611716 0.052693695
-0.16260034 0.11722376 -0.16200538 0.1542678 -0.03577079 0.060556725 0.1732224 -0.10783814
0.17598613 0.041200023 0.17981766 -0.12305453 -0.0048756236 0.14035508 -0.048690017 -0.12866297
-0.035225995 -0.092342086 0.05744919 0.18798329 -0.13886598 0.16232595 0.0041466667 -0.059071388
-0.1685732 -0.12978762 -0.06293914 0.0065506385 -0.12016478 -0.06037761 -0.10532929 -0.063530944
-0.03891521 0.09807976 -0.16846195 -0.1530839 -0.06845762 -0.048552208 -0.15509163 0.06352217
0.11046289 -0.0624194 0.19022635 0.21367955 -0.12636267 -0.12131171 -0.010247335 0.0027701405
0.04611546 0.0809246 -0.12090346 0.054589123 0.0066433433 0.065211065 -0.100853875 0.13818054
-0.04744479 -0.08969456 -0.01835268 0.094366714 -0.112261966 -0.07212592 -0.15828998 -0.08235142
0.14045912 0.09018903 0.044304192 -0.029374482 0.05688088 -0.035603207 0.09835231 0.012783729
0.051314276 -0.13568483 0.024369469 -0.032431487 0.0035234108 0.12858507 0.08937586 0.11011873
0.04956297 0.15938453 -0.07102737 0.14966585 -0.0836654 0.105429195 -0.06986475 0.080470055
-0.018329814 0.15843752 -0.04094054 0.06563515 -0.08949136 -0.06452418 0.0076550315 0.028752824
0.036845863 -0.014954994 0.06461436 -0.16653185 -0.019094026 0.26554236 -0.13226873 0.046004303

lstm.encoder_lstm1.bias_hh_l0 f4 [128]
00000000: ce66 8ebc 21c9 213d e4bd 1fbd 5586 a8bd
00000010: 3b23 4d3d a259 923d 84e7 4d3d a961 81bd
00000020: 4097 84bd fe2e 763d ed14 6dbd 55fb 4dbc
00000030: 99cc 91bd f646 a8bd 2e75 94bd af2a 243d
00000040: a4ee 153c a4f4 4e3e 4026 463e 7d54 653c
00000050: 8750 0bbe 1c5c 9dbb d8bf ebbd 838e ad3d
00000060: 2206 4cbe 55ca 3e3d 97d7 cdbd ec07 c3bd
00000070: 9668 32bc 98e7 2f3e 6c21 393e 48cd ee3d
00000080: 99a2 47bd ce0c b03d f49d 103e 989d 1d3e
00000090: 0c1a 6e3e 701a 293d f79d 1b3c 598e 4b3c
000000a0: 1975 f8bb 6ddf a33d f2c9 473d 2c60 b03d
000000b0: 020e 883d 54f5 da3d f4ef 81bd 7558 69bd
000000c0: d0fb 853b dd47 833c d025 15be eb53 e1bc
000000d0: a03a ec3d f226 1a3e 849c e4bd de08 eabd
000000e0: bcff 5a3d a469 3a3e 4a5f 3f3d a830 dcbd
000000f0: f18f 0bbe 3989 ca3c b97a dcbb b4e4 073d
00000100: f6fc cebd 37da f93c 81b4 0f3d 1962 c63d
00000110: af66 2c3e 8e42 3b3d 4c92 16be fd4a db3d
00000120: da1b edbd 5837 e33d 37b6 fabd b8d8 2d3e
00000130: 8b86 31bd 2ee9 edbd 41c9 9e3d b43c 433e
00000140: fc21 2b3d a92d d5bd 995d f4bd 40fe f23b
00000150: cca5 8abc 6824 0dbc a7fa b43d fb32 46bd
00000160: b854 14bd 820d 04be 1222 093e cd0d 82bd
00000170: e792 c23c a820 223e 25df 2c3d 5250 97bc
00000180: c414 503c 10e7 053e 8f13 4b3d 5ab3 993d
00000190: 50b8 5d3e 46e3 1cbe 062e c73c 3066 2f3e
000001a0: 5686 b6bd f572 293e 5cb2 97bd 9785 94bd
000001b0: 9fdf 103c 4bc3 fe3d eb08 5bbc ffa9 643d
000001c0: 0eee 9bbd b2e6 02be a395 08bd c711 a73b
000001d0: ae90 2b3d 979b e8bd b647 e8bd 1754 103e
000001e0: bf00 44bd 2256 a03d 6801 9a3c 83c4 43be
000001f0: be04 36be ced3 853e c300 f2bd d191 96bd
-0.017383005 0.039498452 -0.038999453 -0.08228747 0.050082427 0.07146002 0.05026962 -0.06317455
-0.06474161 0.06010341 -0.057881285 -0.012572129 -0.07119102 -0.0821666 -0.07248913 0.04007977
0.009151135 0.2021051 0.19350529 0.013997194 -0.13604937 -0.00480224 -0.11511201 0.084744476
-0.19924214 0.046579678 -0.10050886 -0.09522995 -0.010889193 0.1717819 0.18079156 0.11660248
-0.04873905 0.08596192 0.14122754 0.15392148 0.23252124 0.04128498 0.009498111 0.012424075
-0.0075823185 0.080015995 0.048776574 0.08612093 0.06643297 0.10691324 -0.063445956 -0.056969125
0.0040888563 0.016025478 -0.14565206 -0.027505836 0.11534619 0.15053919 -0.111626655 -0.114274725
0.053466544 0.18204361 0.046721734 -0.10751468 -0.13629128 0.024723636 -0.006728497 0.033177093
-0.10106842 0.03049956 0.03508425 0.096866794 0.16836046 0.04571777 -0.14704245 0.10707662
-0.11577578 0.1109454 -0.12241786 0.16977203 -0.0433412 -0.11616741 0.0775323 0.19066125
0.041780457 -0.104090996 -0.11931915 0.007415563 -0.016924761 -0.008614637 0.08836871 -0.048388463
-0.036213607 -0.12895778 0.13391903 -0.063502885 0.02375169 0.1583277 0.042204995 -0.018470917
0.012700263 0.13076425 0.0495792 0.07504912 0.21652341 -0.15321073 0.024313938 0.17128825
-0.08912341 0.16547759 -0.07407066 -0.07252043 0.008842378 0.12439593 -0.013368825 0.055826183
-0.07613765 -0.12783316 -0.03334583 0.005098555 0.041886024 -0.113578014 -0.11341803 0.14094578
-0.047852274 0.078289285 0.018799499 -0.19117932 -0.17775247 0.26138157 -0.118165515 -0.07352031

lstm.encoder_lstm2.weight_ih_l0 f4 [256, 32]
00000000: c02b 513d e437 5c3c 2901 b9bd 2f85 f2bd
00000010: b59e bd3b 1099 8c3d 7b73 b33d 304d 143e
00000020: 1a64 12be aac7 083e 342e e13c 98e7 81bd
00000030: 0a5e d53d 6287 473d e54a f7bb 93cc 903c
00000040: 2b4b 94bd 6d16 79bd f9c4 853d 6ac1 02be
00000050: d4c5 dabd bb87 8cbc 8d55 0d3d 5b0c cebd
00000060: 8a24 933b 25fa d93b d52d e1bd 47db 3a3d
00000070: 990f adbc 5843 143c cc4f 52bd 69cc 0e3d
00000080: 5fd3 4c3d 508b c03d dfff cabd 5b2e 973d
00000090: 2a3e 10be 495f a23c 1a36 d53d 8c5b 9f3d
000000a0: 9d6d 043e b95b 4fbe 1ede 013c de6f 2bbe
000000b0: 41b2 173d 83e2 09bc 37de 93bd 07e2 08be
000000c0: 66df 993d d8e7 9c3d 7d64 abbc 73c2 803c
000000d0: c31b 0dbd 2b0c 973a 2e50 36bd f380 0a3e
000000e0: 0bc3 d63d bba4 0ebd 3792 8abc 96c9 f53c
000000f0: 299f e03c 1574 e7bd 6a8d 083e 7b62 ebbd
00000100: 20bc e4bb c399 0abe ab39 9fbd b27a c83c
00000110: d14e 3e3e 4ec8 d63d 0f48 263d 4f71 883d
00000120: e080 ddbc 9dce e8bd bfc7 473e 7205 02be
00000130: dc21 073e 46d9 9e3d acec 3fbc c3e3 08be
00000140: d568 e3bd 9b15 9abd 09ef 2d3d eb98 a93d
00000150: 466e 8bbd c7b0 d33d ca58 e23d 4a21 083d
00000160: edc5 623d 4f69 023e 072c 7cbc 2bbb 213d
00000170: 9b11 1dbd 0447 d93b 33e5 0ebe da80 f43c
00000180: dd82 2d3d 74d8 e3bd b9f4 d3bc 65ba babd
00000190: 32fc 8a3d 4ee0 74bb 735a d3bd 23d3 82bd
000001a0: 3be5 253c 3128 fe3d 7886 983d 7b15 083e
000001b0: 0b7d 83bd bbf2 9bbb d6e3 153d a297 043e
000001c0: ef86 d7bd 013f aa3d 18f9 48bd 14b2 6f3d
000001d0: 6d83 673d 0bb4 5b3d f3bb 0c3d 1418 5fbd
000001e0: b525 e33d 4798 72bb 9809 0a3d b699 a0bd
000001f0: 72d6 66bd e4fb 6ebc ed2c 85bc f11e 903d
00000200: e973 753c d18d 963d aff2 1e3d 9d52 97bd
00000210: 4b2c b0bd f6a7 033e 19db 123e 3fe6 2ebe
00000220: d85f 70bd 4f50 adbb d343 b3bd 77d8 d9bd
00000230: 53a1 e3bd e51c 393e 71dd 213d e934 c93c
00000240: 0210 b1bd 8101 1fbd b88a 873d ae1a 09be
00000250: 44e3 c23d df90 cebd 6cc0 bebc 8316 f13c
00000260: 5c0a 163c cb76 6d3d 1ebf 03be 5ffa 44bd
00000270: 0fe3 a5bc dee8 4b3c 3a1f 9b3d d11f babd
00000280: a9b3 d8bd ac26 c9bc 0bc4 4c3d aeac a5bd
00000290: 86c5 8fbd 5b03 80bc d1a9 e53d 3dcd dfbd
000002a0: 1189 c73d b606 093d 7bad 43bd cc30 5ebb
000002b0: a9ea d0bd 6fc3 babd 9c40 853d 17d1 9b3c
000002c0: 5037 163d b286 ee3d ad78 cebb c61b ffbd
000002d0: c89d e23d e52f a53d 4cac 92bc 214d febd
000002e0: be47 feba 0207 8f3a bf3c 74bd 75e2 01be
000002f0: a3d1 fbbc 547d ed3d a184 aa3c 7268 c6bd
00000300: 9087 ee3d 5a45 773d 7590 123d 58ab f03c
00000310: b132 c7bd 8b6d 6bbd 58ae 3a3d 05c8 10be
00000320: f963 9bbd 7e81 eabd 25a8 93bb 75c0 e73c
00000330: adbe eebd f205 a9bd 1991 f43d 0c91 debc
00000340: 9248 aebd a0e7 66bd 2f48 613c eed0 573d
00000350: fdf0 abbd d14e 083e ab5c 563d 0c5b 9dbd
00000360: 8470 dc3c 301e 433d 1be1 373c 76b7 ce3d
00000370: c7c8 ee3c f6c7 1a3d 7ccc 8bbc 1c90 2e3d
00000380: 2f02 2b3d 0c8b a1bd 4057 54bd 82b4 e13c
00000390: 46d2 09be a073 d53c 5cf9 983d 02e0 9b3d
000003a0: 888c b6bd 99d0 2ebd 5ec7 fabd 8c4f 93bc
000003b0: d4ba f03d 1e6f ab3c 7c3d fabd 3ac0 b9bd
000003c0: 4094 8dbd 95e8 823c 588e 25bd f9bd 0ebe
000003d0: 9d4b 0f3b 2952 e8bb 08ec ef3d 745c da3c
000003e0: 5580 bebc 73ec 25bd c0b5 1ebd ec0e ab3d
000003f0: 8d06 b4bc acd9 f2bd 4655 a7bd 2919 1d3d
0.051067114 0.01344106 -0.090334244 -0.11841809 0.0057867416 0.06865132 0.087622605 0.1448257
-0.14295998 0.13357416 0.027487852 -0.06343001 0.10418327 0.048713095 -0.00754677 0.017675674
-0.072409 -0.060812403 0.0653171 -0.12769094 -0.10682264 -0.017154565 0.034505416 -0.1006095
0.00449044 0.006652134 -0.1099507 0.045619275 -0.021125602 0.009049259 -0.05134563 0.03486291
0.050006267 0.09401572 -0.09912085 0.073818885 -0.14086214 0.019820826 0.1041071 0.07781133
0.12932439 -0.20249833 0.007926492 -0.16741893 0.03703523 -0.008415821 -0.072201185 -0.13367473
0.07513313 0.07661408 -0.02092194 0.01571772 -0.034450304 0.0011524012 -0.04451006 0.13525753
0.1048642 -0.034825068 -0.016915424 0.03000335 0.027419643 -0.11301438 0.13335195 -0.11493393
-0.006980434 -0.13535218 -0.07774671 0.024472568 0.18584754 0.10487424 0.040596064 0.06662237
-0.027038991 -0.11367533 0.19509791 -0.1269739 0.1319651 0.07756285 -0.011714142 -0.13368134
-0.111039795 -0.07523652 0.04246429 0.0828112 -0.06808142 0.10336452 0.110520914 0.033234872
0.055364538 0.12735485 -0.015391356 0.039485138 -0.038346868 0.00663078 -0.1395462 0.029846597
0.04236113 -0.111252695 -0.025873529 -0.09117583 0.06786384 -0.0037365141 -0.10319986 -0.063879274
0.010125454 0.1241001 0.07447523 0.13289444 -0.064203344 -0.0047591603 0.036594234 0.12948468
-0.105237834 0.08312798 -0.04906568 0.058519438 0.05652182 0.0536385 0.03435893 -0.054466322
0.110911764 -0.0037017034 0.033700556 -0.07841818 -0.056356855 -0.014586423 -0.016256774 0.070371516
0.014981248 0.07351268 0.03880566 -0.07388804 -0.08602198 0.12857041 0.14341392 -0.1708002
-0.058685154 -0.0052891145 -0.08753171 -0.106369905 -0.111147545 0.18077429 0.039517824 0.024561362
-0.086456314 -0.038819794 0.066182554 -0.13389084 0.09516004 -0.10086226 -0.023285113 0.02942968
0.009157743 0.057974618 -0.12865874 -0.048090335 -0.020249872 0.012445657 0.07574315 -0.090881
-0.105811425 -0.024554573 0.04999165 -0.08089577 -0.070200965 -0.0156266 0.112140305 -0.10927818
0.0974294 0.033453666 -0.047772866 -0.0033903597 -0.10201008 -0.09119307 0.06506464 0.0190206
0.036673844 0.11646785 -0.006301007 -0.12456469 0.11065251 0.08065776 -0.017904423 -0.12417055
-0.0019400043 0.0010912123 -0.059628244 -0.12684043 -0.030739611 0.1159617 0.020815196 -0.0968789
0.1164695 0.060368873 0.035782296 0.029378578 -0.097264655 -0.057477515 0.045576423 -0.14138801
-0.07587428 -0.1145048 -0.0045061284 0.028290013 -0.11657462 -0.08253087 0.11941738 -0.027168773
-0.085099354 -0.05637324 0.01375012 0.052689485 -0.08395574 0.13311316 0.05233447 -0.076833814
0.02690912 0.04763621 0.011223103 0.10093586 0.029148472 0.037788354 -0.01706528 0.042617902
0.04175013 -0.07887849 -0.05184102 0.027551893 -0.13459119 0.02605611 0.074694365 0.076110855
-0.08913523 -0.042679403 -0.122450575 -0.017982267 0.11754385 0.020927008 -0.122187585 -0.090698674
-0.06913042 0.015980044 -0.040418953 -0.13939656 0.0021865137 -0.0070898724 0.11714941 0.026655413
-0.023254553 -0.0405087 -0.03874755 0.083524555 -0.02197578 -0.11857924 -0.081705615 0.038354073

lstm.encoder_lstm2.weight_hh_l0 f4 [256, 64]
00000000: c562 143e 8b0e 0ebd b608 8f3d f055 debb
00000010: eb95 72bd 6389 66bd a30c dbbd 02e0 0ebd
00000020: a0ac 8cbd 12dd 993d 73a3 c13d f866 92bd
00000030: afde 773d b12d e9bc 23c0 84bd 6377 8fbc
00000040: 3419 073e 0349 113d 86e9 f4bd 77d9 af3d
00000050: c2d2 c93a b880 f03d 5f93 99bd ed45 4d3d
00000060: 2bed d4bd a826 c53d 8129 acbd 82c7 ee3d
00000070: c16c b9bd 2ded 9ebd 32d8 1bbd 1e7a c6bd
00000080: 0391 2cbd 50b8 4a3d 85bb d3bd a317 ddbd
00000090: f68e 4e3d 417b bc3c e013 06bd ab03 e1bd
000000a0: 68d2 0a3d e460 c5bd 20e7 023e 5ec8 8cbd
000000b0: ccf5 e03d cb22 c6bd 7435 14bd 998b 063e
000000c0: 40ad fdbd d7f0 99bd 1153 3e3c fd1d be3d
000000d0: 463e 0fbe eec0 4bbc 804a fabd f5ee bfbd
000000e0: 9f45 eebc 8c1e 9fbd 22e9 75bc 5a9b e0bd
000000f0: 7279 203c 5c46 0bbc 49fd e2bd 0f2f f7bd
00000100: bbff 70bd 6473 a83d 6317 53bc 77a3 c83c
00000110: c79e a63b 7d05 323d 457b 103e 44e4 48bd
00000120: 25bd 07be 2786 d4bd 75e4 b13d 8a10 0ebe
00000130: f69e 133d d13a c1bd f9f6 b43d 92af 243d
00000140: 2eec a73d 0966 d039 adfb 0f3e c105 9bbc
00000150: 492e 2f3d 8ae9 8c3d d98d 9ebc 1d5f 573d
00000160: 7971 0b3e c2c5 e8bc fdc4 42be d740 0a3d
00000170: 2701 d03d dca3 0ebd 2119 93bd 3ed4 053d
00000180: 239e 7f3d b169 a93c 82bd 833d 3c47 05be
00000190: b80b 023d 15ed 6bbc 89a9 63bd 79f2 073e
000001a0: 15aa b8bd 038c 1fbe 6708 f2bd 3b8c a83c
000001b0: f4d3 7dbc 996f 093e 90cf 39bd a5cf 1dbc
000001c0: 19a9 c03d a5f2 0d3d 1235 64bd 692a bbbc
000001d0: f52c 70bd 40a0 af3c 9059 81bd 409b 4c3d
000001e0: a3d1 193d 9900 bbbd 0af8 fe3d 0f1f cfbb
000001f0: 8274 743d a755 ee3b 1832 ad3d d2c3 f5bd
00000200: 16e8 f4bd 633f 5cbd e712 6ebc 3b3e c93c
00000210: df99 3cbd 94c7 bf3d a2d4 0e3e 0a0b df3d
00000220: d604 913d 1183 b5bd 1a15 93bd 4ff9 91bc
00000230: 9fc3 b4bd 5626 6ebc c354 80bc 98c8 88bd
00000240: 85e0 8cbd d91b 7d3d 2116 dfbd b77f 0abe
00000250: d7a0 5e3b f7be 5abd 7d7f 8dbd e0b6 853b
00000260: cabb 93bd 9569 1a3d 9f46 14be 3861 dfbd
00000270: eefd b3bc 2511 94bd 44d9 3f3d f5ba 85bd
00000280: d109 6dbd f3f4 17bd 58a9 933c 4596 e4bd
00000290: fc73 803c 59db 953d b63b 02bd 8b06 aabd
000002a0: 17d0 b83d b89f 173d 9f55 ebbd 47b3 3fbd
000002b0: ff35 d0bd 4540 f5bd 1177 26bd 0e89 ad3c
000002c0: 23d2 3cbc db14 d9bd a717 1fbd b77f 973d
000002d0: 520b 4f3d 3c39 8a3d 56c8 3b3d bec2 7a3d
000002e0: 5a53 28bd 999b 123d d5db 46bd 11a2 f63d
000002f0: afac 803c b9e3 23bb daa5 c93c d929 df3d
00000300: 1910 abbd 4588 d5bd dd5b d3bd 107a 863d
00000310: e67c 97bd e7aa 043e 8538 c0bd de28 bdbd
00000320: 8e1e f33d fb10 91bc 039b 833d ef5b 0c3e
00000330: 09a2 d73c 36f2 143d 6a26 283d 6062 b8bd
00000340: db26 0dbe f481 b6bc c304 de3d 8179 9cbc
00000350: ef02 b33d b320 a9bd 3988 28bd 1e70 2fbc
00000360: 50d3 7f3d 99be b5bd bb42 563d 58b2 9bbd
00000370: ddbf 2abc aa63 9dbd cfa6 be3c 766e f03d
00000380: beae c93d c7ac 543d 0010 a53d 4dfd 523d
00000390: af9e b93c 1d0d 0b3e a078 6f3d 3676 6dbd
000003a0: 275f 05bd 990d efbb ff8a 03bd 5b96 27bd
000003b0: 34fb 87bd a532 84bd c856 2abe 0f4c f83d
000003c0: 44e4 af3d ddcb 223d ddab 05be 16f2 8f3d
000003d0: 31b2 8ebc f1cd bfbd ec12 153e 73eb 703d
000003e0: 1732 8dbd 8839 a9bd 27c4 7bbd 04f8 03be
000003f0: 52e9 13be 0826 f6bd 2647 f7bd f6f1 de3d
0.14490803 -0.034681838 0.06984083 -0.006785147 -0.059225004 -0.056283366 -0.1069577 -0.0348816
-0.06868863 0.07512869 0.094550036 -0.07148546 0.060515102 -0.02846417 -0.0648196 -0.017512983
0.13193208 0.03547002 -0.119586036 0.085864 0.0015397894 0.11743301 -0.07498812 0.050115515
-0.10396799 0.09626514 -0.08406354 0.11659147 -0.09053946 -0.077600814 -0.038047977 -0.09691261
-0.04213048 0.04949218 -0.10338501 -0.10795524 0.050429307 0.02300799 -0.032733798 -0.10987028
0.033892065 -0.09637621 0.1278348 -0.068741545 0.10984382 -0.09674605 -0.03618379 0.1313919
-0.123865604 -0.0751664 0.011616484 0.092830636 -0.13988599 -0.012436135 -0.12221241 -0.09371749
-0.029085932 -0.07769498 -0.0150091965 -0.10967131 0.00979458 -0.008500662 -0.110834666 -0.120695226
-0.058837634 0.08225134 -0.012883994 0.024492009 0.0050848457 0.043462265 0.14109524 -0.049045816
-0.13255747 -0.1037715 0.08686153 -0.13873497 0.03604027 -0.094350465 0.08836169 0.0402065
0.081993446 0.00039748874 0.1406085 -0.018923642 0.04276875 0.068804815 -0.019354748 0.05258094
0.13617505 -0.02841461 -0.19020458 0.033753242 0.1015647 -0.034824237 -0.07182527 0.032673113
0.06240667 0.02068028 0.0643263 -0.13015455 0.031749457 -0.0143997865 -0.055581603 0.1327609
-0.090168156 -0.15580754 -0.11818009 0.02057468 -0.015492428 0.13421477 -0.045363963 -0.009632026
0.09407253 0.034655232 -0.055714674 -0.022847371 -0.058636624 0.021438718 -0.06315911 0.049952745
0.03755344 -0.09130973 0.124496534 -0.006320841 0.059681423 0.007273394 0.0845682 -0.120002404
-0.119583294 -0.053771388 -0.014530874 0.024565807 -0.04604518 0.093642384 0.139483 0.108907774
0.070810005 -0.088628896 -0.07181759 -0.017819075 -0.08826374 -0.014535507 -0.015665418 -0.06678885
-0.06878761 0.061794136 -0.10892893 -0.13525282 0.003397038 -0.053404775 -0.06909082 0.0040806383
-0.07213552 0.037698347 -0.14480065 -0.10907215 -0.021971669 -0.072298326 0.04683806 -0.065298
-0.05787069 -0.037098836 0.018025085 -0.11161474 0.015680306 0.07317228 -0.031795226 -0.08302029
0.09024065 0.037017554 -0.1149094 -0.04680183 -0.10166549 -0.11975149 -0.040640894 0.021183517
-0.01152471 -0.10599681 -0.038840916 0.073974065 0.050547905 0.06749198 0.045845352 0.061220877
-0.041095115 0.03579292 -0.048549492 0.120426305 0.015707342 -0.002500756 0.024615217 0.10896654
-0.0835268 -0.10426382 -0.10320256 0.0656625 -0.07396869 0.12955819 -0.0938578 -0.092363104
0.11871062 -0.017708292 0.064260505 0.13706945 0.026322382 0.036363803 0.04105226 -0.090031385
-0.13784353 -0.022278763 0.10840752 -0.019100906 0.08740794 -0.0825819 -0.041145537 -0.010707883
0.062457383 -0.08874244 0.052309733 -0.07602376 -0.01042172 -0.07685025 0.0232729 0.11739819
0.098477826 0.051922586 0.080596924 0.051511098 0.022658674 0.13579221 0.058464646 -0.057974063
-0.032561447 -0.007295322 -0.03211498 -0.040914875 -0.0663971 -0.06454972 -0.16634667 0.12123882
0.0858846 0.0397452 -0.13053842 0.07028596 -0.017418953 -0.09365452 0.14558 0.058818292
-0.068943195 -0.08262926 -0.061466362 -0.12887579 -0.14444473 -0.12018973 -0.12074117 0.10885994
