073123/0809hoxyhoxy2.pth (torch, 569492 bytes, 34 tensors)

lstm.lstm1.weight_ih_l0 f4 [256, 12]
000000 ba 46 78 bd d0 ee b8 bd 87 6d 52 be 8f df 12 bc
       -0.060614325 -0.09029925 -0.20549594 -0.008964433
000010 16 1c 13 be 2f 90 91 be 21 19 d2 bd 9e a7 cc bd
       -0.14366183 -0.28430316 -0.10258699 -0.09992908
000020 89 2d 85 be 69 ee 59 be 54 8e 17 be 33 35 71 bf
       -0.26011303 -0.21282353 -0.14800388 -0.942218
000030 4d e2 e1 3d fa 55 24 3d c8 e7 06 be a5 e7 a5 bd
       0.110294916 0.040121056 -0.13174355 -0.08100823
000040 e5 d3 c8 3d 83 e2 70 3e 5a 47 87 3e 06 c8 03 bd
       0.09806041 0.23523907 0.26421624 -0.03217318
000050 dd 99 ad 3c 21 dd dd 3d aa 1d 3a 3e 19 a7 fc bd
       0.021191532 0.108331926 0.18175378 -0.12336559
000060 57 9a 24 3d 46 38 65 bd 39 e2 38 be 3c bc 9e bb
       0.040186252 -0.05596187 -0.18055047 -0.0048442166
000070 a7 98 0e be d9 ba b5 3c 5a 93 8a 3d 41 c9 95 bd
       -0.1392542 0.022183822 0.06766386 -0.07313777
000080 2a 13 0f bd 0c e2 ae bd a1 08 0b 3e 76 73 85 3e
       -0.034930386 -0.08539209 0.1357751 0.26064652
000090 e2 e0 2b be 23 54 a2 be f5 b0 1a be d8 35 a7 bc
       -0.16785005 -0.31704816 -0.15106566 -0.020411417
0000a0 03 3b 97 bd af ad b9 be 04 45 ec bd 91 d5 c6 be
       -0.073843025 -0.36265323 -0.11536601 -0.38834813
0000b0 aa 94 a4 be e5 f5 8d 3c 13 bd bd bd 59 6b 17 3e
       -0.32144672 0.017329166 -0.09264579 0.14787044
0000c0 34 b4 3f 3c 4e ef 50 be 09 f0 8a be b9 5d 90 bd
       0.011700679 -0.20403787 -0.27136257 -0.07049126
0000d0 2b 73 8d bd c5 91 9f be 25 a6 7c bd e5 75 6b 3c
       -0.06906732 -0.311659 -0.061681885 0.01437137
0000e0 15 ab 57 be 24 ef 5d bd 86 1d 86 be 70 3d 48 3f
       -0.21061356 -0.05418314 -0.261944 0.78218746
0000f0 94 c2 27 be b6 48 c6 be 40 6b 9e bd 4e 70 29 be
       -0.1638282 -0.3872735 -0.077353 -0.16546747
000100 14 e7 b8 bd f5 bc 09 bd 58 f5 12 be 8f 5d ae bd
       -0.0902845 -0.03362747 -0.14351404 -0.08513939
000110 7e 72 88 bd 1e 22 4c be e6 12 af be bc e2 69 bf
       -0.06662463 -0.1993489 -0.34194106 -0.91361594
000120 14 94 a1 3d 02 6f b7 3c a7 7f 40 3e cd 23 bb be
       0.07889572 0.0223918 0.18798696 -0.3655075
000130 03 ae 2b bd 2a 34 3a 3e a8 ea 92 bb 7f d9 01 3e
       -0.041913997 0.18183962 -0.0044835396 0.12680624
000140 1a b1 99 3d 46 eb 8d 3e 1c d7 e2 be 8d b7 e8 3e
       0.075044826 0.27718562 -0.4430474 0.45452538
000150 d5 3c 63 be 65 99 7c be d2 b6 9b be b7 e6 b6 bd
       -0.22191174 -0.2466789 -0.30412918 -0.08930724
000160 13 54 d2 be 29 d7 d8 be ee 87 44 be 34 fc f5 bd
       -0.4107977 -0.42351654 -0.19192478 -0.120109946
000170 11 fa ae be 0e ff 73 be c2 81 83 be 80 f7 e2 be
       -0.3417516 -0.23827764 -0.25684935 -0.44329453
000180 5e 1b cf bc 14 40 b4 bd fc 42 7f 3b ef 27 8e 3d
       -0.025281604 -0.088012844 0.0038949838 0.069412105
000190 0c 03 58 be 4d 15 0f 3d 50 12 64 3d fc ec a8 bd
       -0.21094912 0.034932423 0.055681527 -0.08248326
0001a0 60 98 88 bd 03 63 a9 bc 61 73 13 3d f9 a1 03 3d
       -0.06669688 -0.020677095 0.035998706 0.03213689
0001b0 a7 c0 7b bd 62 11 16 be ef bd b3 be 9b 6d a1 be
       -0.061463024 -0.14655069 -0.35105845 -0.31528935
0001c0 68 31 84 be 37 98 21 be 7e 43 0f be 8f 50 91 be
       -0.25818944 -0.15780722 -0.1399059 -0.28381774
0001d0 40 69 bd be ea 25 cb bd 58 b1 a9 3c 77 f4 dc 3d
       -0.36994362 -0.09919341 0.020714447 0.107888155
0001e0 4d 95 20 3d 21 e9 44 be 4c 30 3d be 20 fd ff bd
       0.039204884 -0.19229557 -0.18475455 -0.12499452
0001f0 79 c7 e7 3d 55 4c 43 bd 68 8c d6 bd 85 2a 65 bc
       0.11317343 -0.047680218 -0.10475999 -0.013987188
000200 2a 68 ab bd af 6c 36 be bb 85 a3 3c fd b1 2f bf
       -0.08369477 -0.17814897 0.019961229 -0.68630964
000210 29 8f ed 3c 10 35 76 bd 06 ac 3b be f3 9f 5b bd
       0.028998928 -0.060109198 -0.1832734 -0.053619336
000220 f5 07 4a be d0 28 38 be d3 5e 87 bc e2 eb 9f bd
       -0.19729598 -0.17984319 -0.016524708 -0.07808663
000230 86 77 27 be 0d c0 1f be 8b 3f 30 3e 87 58 01 bf
       -0.16354188 -0.15600605 0.1721174 -0.50525707
000240 d7 c6 1f be a4 a1 43 be 22 0c 9a bb 35 d1 5d be
       -0.15603195 -0.1910463 -0.0047011534 -0.21661837
000250 2a 08 9b bd 38 0a 96 bd bb 1b 89 bd 92 44 45 be
       -0.075699165 -0.07326168 -0.06694742 -0.19264439
000260 8e 37 73 bd 77 a3 2c be ca 3c 14 be cf d7 83 bf
       -0.059379153 -0.16859232 -0.14476314 -1.0300235
000270 c2 eb 13 be 1d 25 51 3c 66 be 61 be cb e9 f0 bc
       -0.14445403 0.012765196 -0.22045287 -0.029408356
000280 e0 93 d1 bd 03 3e d3 3c 40 ab 91 bd 3c d8 99 3d
       -0.10233283 0.025786405 -0.071127415 0.075119466
000290 65 4a 9e 3b 8b 84 65 be 9c c3 03 bc 4c 4c 6c 3e
       0.004830646 -0.22413842 -0.008042242 0.2307598
0002a0 61 ec 39 be f9 2b d1 be 4a 56 05 be 8c 89 51 be
       -0.18156578 -0.4085386 -0.13021198 -0.20462626
0002b0 bb 85 08 be 59 18 30 be db 7f ae be a9 e2 a9 be
       -0.13332264 -0.17196788 -0.3408192 -0.3318074
0002c0 2f dc 6e be 05 0e b6 be 0d 2f 98 be 72 20 1f bf
       -0.23326181 -0.3555757 -0.29723397 -0.6215888
0002d0 31 2c 25 bd c5 03 e3 bd 00 44 4f bd e4 a4 b0 be
       -0.040325347 -0.11084703 -0.05060196 -0.34500802
0002e0 ec ed dc bd 64 17 66 bd 5a 66 35 be fd ae 67 be
       -0.107875675 -0.05617465 -0.17714825 -0.22625346
0002f0 e0 d6 87 bd d7 68 84 be 80 9c a3 bd 0a 37 ad 3e
       -0.06632781 -0.25861236 -0.079888344 0.33831054
000300 04 ab ef bd e5 ad 2b be 1c 7f 46 be e6 b8 cc bd
       -0.117025405 -0.16765554 -0.19384426 -0.09996204
000310 1f 3a 66 be 13 3b 49 be 39 7b 09 be be a0 01 be
       -0.22483109 -0.19651441 -0.13425912 -0.12658975
000320 66 f3 16 be c2 3c 33 be d0 55 88 bd 25 51 32 bf
       -0.14741287 -0.17503646 -0.066569924 -0.69655067
000330 50 1c 27 3d b7 3f 18 bd 20 8e b4 3e 92 93 60 bc
       0.040798485 -0.03717014 0.35264683 -0.0137070585
000340 32 cb bc bd 30 44 84 bd eb 58 35 be 25 31 85 be
       -0.09218444 -0.06458318 -0.17709701 -0.26014057
000350 b5 a2 e9 bd b6 e3 15 be 7f 33 1b 3e ec 71 c8 3e
       -0.11407987 -0.14637646 0.15156363 0.39149415
000360 53 74 c2 bd 57 64 17 be e6 a1 9a be af f8 ed bd
       -0.09494843 -0.1478437 -0.30201644 -0.11619698
000370 6f e6 4e be c1 c5 24 bd 66 5e 03 3e 2a 86 b0 bd
       -0.20205091 -0.040227655 0.12828979 -0.0861934
000380 0f 09 ad bd bd 64 5c be 35 4a c5 bc 1c 86 b7 3e
       -0.084489934 -0.21522804 -0.024083236 0.35844505
000390 b8 23 63 3d 6f 02 68 be af 9a 14 3e 18 56 d2 3d
       0.055453986 -0.22657178 0.14512132 0.10270327
0003a0 f2 55 fa bd f1 19 8e 3d c6 56 b2 3c d1 a4 00 be
       -0.12223424 0.06938542 0.021769892 -0.12562872
0003b0 12 b3 6c bb 0f 61 54 be 60 0d 64 3e 79 5f 0c 3c
       -0.0036117476 -0.2074015 0.22270727 0.008567684
0003c0 c5 38 81 be ed a8 40 be 21 e1 2f be d4 63 f1 bd
       -0.25238624 -0.1881444 -0.17175724 -0.11786619
0003d0 dd de be be 9c 89 ed be 49 d2 25 be 43 59 67 be
       -0.37279406 -0.4639405 -0.16193499 -0.22592644
0003e0 2c dd d8 be 42 95 db be 9e 1a 9d be 72 d5 87 be
       -0.4235624 -0.42887312 -0.3068437 -0.26530033
0003f0 5d 26 35 bd d5 61 47 be b2 e3 34 be 68 89 59 3c
       -0.04422604 -0.19470914 -0.17664984 0.013277389

lstm.lstm1.weight_hh_l0 f4 [256, 64]
000000 f6 05 33 3e 8c f3 f4 be 76 27 2b 3e a8 c2 69 3e
       0.17482743 -0.47842062 0.16714272 0.22828162
000010 1f d1 2b 3e 12 bc 9b 3c 45 ca 48 be f9 cd 67 3e
       0.16778992 0.019010577 -0.1960841 0.22637166
000020 51 bd e9 bd 12 65 bd 3c 59 12 9a 3e 5b 49 83 bd
       -0.11413062 0.023119483 0.30092123 -0.06410476
000030 c2 49 3b 3e b6 13 f5 3e b5 dc 4e be d7 4b 3b be
       0.18289855 0.478666 -0.2020138 -0.1829065
000040 cc e1 40 3e 6d 76 86 3c 42 af fd 3c 68 32 9c 3d
       0.18836135 0.016413892 0.030967358 0.07626802
000050 65 e4 98 3d 1a ab e4 3d 68 48 d9 3d a5 72 3c 3e
       0.07465438 0.111654475 0.106095135 0.18403108
000060 93 49 74 3e 0d 32 5c be 80 84 4c 3d 6d a8 a4 3e
       0.23856191 -0.21503468 0.04993105 0.3215975
000070 e5 c3 53 3e 4c 52 81 bd 72 50 ca be ba b4 e5 3d
       0.20680197 -0.06314525 -0.395145 0.112161115
000080 91 f7 98 3e a1 57 45 3e 3c 57 54 3e de 55 2f bf
       0.29876378 0.19271709 0.20736402 -0.684904
000090 ab ec 5c 3e 7e 1a c5 be d8 5d 86 be a2 b8 c7 bc
       0.21574657 -0.38496774 -0.26243472 -0.024380032
0000a0 20 03 ea 3d 42 b3 35 be 16 cc b8 3e 13 ca a1 be
       0.11426377 -0.17744163 0.36093205 -0.31599483
0000b0 9d 75 3f be 7c f8 46 be 5f 78 cc be 6a 7d d7 3d
       -0.1869721 -0.19430727 -0.39935586 0.10521968
0000c0 7a 19 73 3e a9 ed 15 3d c4 99 59 be bb 85 fb bd
       0.23740187 0.036603604 -0.21250063 -0.122813664
0000d0 f5 80 8e be fe 78 18 3e db 6f c8 3d b9 f4 83 be
       -0.2783276 0.14889905 0.0978696 -0.25772646
0000e0 89 85 fe bd 82 d0 b9 bc e0 66 8e 3c f0 7f b9 be
       -0.124278136 -0.022682432 0.017383039 -0.3623042
0000f0 a9 96 37 bd d9 58 d3 bb 7a a8 ba 3d d0 47 75 3d
       -0.044821415 -0.0064498005 0.091141656 0.05988294
000100 9e d7 32 3e e3 28 f7 be 9e 98 76 bd 6c f5 57 3e
       0.17465064 -0.48273382 -0.06020414 0.21089715
000110 f2 e4 91 be e9 5f aa 3e 59 30 35 bf e0 37 45 3d
       -0.28494984 0.332763 -0.707769 0.04814899
000120 29 ad 14 be 04 2d db bd 2c e7 10 3f c9 bb 5f be
       -0.1451918 -0.107019454 0.5660274 -0.21848978
000130 6c d4 43 3c 81 c9 0d bd 8d cf bc 3c cb 7d 00 be
       0.011952501 -0.034615997 0.023048187 -0.12547986
000140 42 e4 ed 3e 0d 65 d3 bd 66 04 86 3e d9 42 17 3e
       0.4646321 -0.10322008 0.2617523 0.14771594
000150 5d 8d de 3e 5f ea 5b be 2d e8 9d 3d d4 ac 56 3e
       0.43467227 -0.21476124 0.077103 0.20964366
000160 f4 53 45 3e 76 fe f2 bd e0 50 e3 be b7 12 74 3e
       0.19270307 -0.11864941 -0.4439764 0.23835264
000170 32 53 30 be e4 a4 80 3e 3b f2 c2 3d 66 2a ca 3d
       -0.17219236 0.25125802 0.09518858 0.09871368
000180 65 fa a6 bd a3 82 45 be c2 8a 49 3e 58 9c 01 3e
       -0.08153228 -0.19288115 0.19681838 0.12657297
000190 2a 69 ce bd 55 a6 06 bf 0c 29 9b 3c 45 18 e2 bd
       -0.10078652 -0.5259755 0.018940471 -0.11039785
0001a0 3b d3 a9 be 20 a2 bd bc 48 21 77 bc b5 b4 af be
       -0.3316897 -0.023148596 -0.015083618 -0.34317556
0001b0 0b 9e 16 3e a4 16 24 bd 69 f0 a2 bd a8 67 01 be
       0.14708726 -0.040060654 -0.07956011 -0.12637198
0001c0 f6 d9 04 3f 37 b7 b7 be 58 11 77 3e 6a 2c ec bd
       0.5189508 -0.3588197 0.2412771 -0.11531909
0001d0 33 c9 ea bd 35 47 ff 3b 6b e6 21 3e 92 56 1e bf
       -0.11464157 0.007790471 0.15810554 -0.61850846
0001e0 1b 0c 12 3d d7 b4 18 3c 21 b0 30 bc 57 7b 5e be
       0.035656076 0.009320459 -0.01078418 -0.21726738
0001f0 b7 97 5e be 05 3a 10 bf 18 91 89 bd f4 d2 c6 3e
       -0.21737562 -0.5633853 -0.067171276 0.3883282
000200 7b ff 0d be a4 b6 ea be b2 f2 d1 bd c5 3a 97 be
       -0.1386699 -0.4584247 -0.102513686 -0.29537025
000210 2f 2b 68 bd e9 56 a9 3c d5 f6 7a 3c 47 19 9c bd
       -0.056681808 0.020671325 0.015317638 -0.07622009
000220 dd 2b c0 be 4c f9 30 3e da 01 b2 3d ee c2 bc bc
       -0.37533465 0.17282599 0.086917594 -0.023042168
000230 b2 be dd bd 0c 13 a3 bd c8 3d 9f bd 77 90 c9 3c
       -0.10827388 -0.07962617 -0.07775456 0.024605019
000240 3c 03 53 bd 85 d6 80 be da 5f d4 be 06 eb 15 be
       -0.051516756 -0.25163665 -0.4147938 -0.14640436
000250 f9 01 9d bd 9b 9c 71 be bc dc ab 3e c2 18 2d be
       -0.07666392 -0.23594896 0.33566844 -0.16903976
000260 17 b8 d6 bd 5b 78 fc 3c 94 10 8f be d1 60 d1 3d
       -0.10484331 0.030819109 -0.27942336 0.102235444
000270 8b 17 09 be dd 42 7c bd ee 1a 42 3e 64 58 9d bd
       -0.13387887 -0.061587203 0.18955585 -0.07682875
000280 b1 04 e3 bd 1e 52 41 bd b0 0a 66 bb c7 75 89 bc
       -0.11084879 -0.047197454 -0.0035101585 -0.016779793
000290 a2 c2 7e be d8 e6 14 bf f0 0b d9 3d 69 13 cb bd
       -0.24878934 -0.5816474 0.1059798 -0.099158116
0002a0 62 a3 11 be 9f 44 48 be b1 8d fe 3c 61 5e b7 be
       -0.14222482 -0.19557427 0.031073423 -0.35814193
0002b0 84 44 46 3e 15 c3 b0 be 3a 02 db 3d e0 07 6e be
       0.19362074 -0.34523836 0.10693784 -0.23245192
0002c0 84 5f 01 3d 18 cc c7 3d 7d 4f a2 3e e8 e0 61 be
       0.03158523 0.09755725 0.3170127 -0.22058451
0002d0 fa 84 d6 be 1e 5f 8a be db 5e e0 3d 34 70 89 3d
       -0.41898328 -0.27025694 0.10955592 0.06710854
0002e0 06 fb 25 3d 4f 59 80 bd 6f 09 ef bd a9 95 a2 bd
       0.040522598 -0.06267034 -0.11671721 -0.07938702
0002f0 d5 f5 74 3e ad cf de bd 1c e9 1d be d4 b4 b2 3d
       0.23921902 -0.10879455 -0.15420955 0.087258965
000300 b6 3a b1 be d3 8e 6b be ba fe f0 be c7 f1 a3 be
       -0.34615105 -0.23003702 -0.4706934 -0.320204
000310 d7 72 ab 3c 0d 5c 92 bd f6 21 88 bf 3f d7 45 be
       0.020928783 -0.071464635 -1.0635364 -0.19320391
000320 44 1e fb be bc 4a c7 3d aa e4 0f be 08 ee fc be
       -0.49046528 0.09731051 -0.14052072 -0.49400353
000330 7c 2f 73 be a7 51 69 bd d7 6f 95 be 18 8b ba bd
       -0.23748583 -0.056962635 -0.2918689 -0.09108561
000340 cb b3 39 be 3f 2d b9 be 17 c0 2f be fd b9 dc be
       -0.18134992 -0.36167333 -0.1716312 -0.43110648
000350 92 5b 78 be e6 b9 fc be dd ed 68 3e bd 9d c8 be
       -0.24253681 -0.4936058 0.22746988 -0.39182845
000360 7f 4f 8c be 30 27 9c 3c 71 de 0d bf 6c 35 88 be
       -0.274044 0.019061655 -0.55417544 -0.26603258
000370 fc 80 2e be 8f 6e 0c be 60 3f 96 3d ce 9f e7 bd
       -0.17041391 -0.1371405 0.073363066 -0.11309777
000380 ba 61 49 be 50 1a 25 3e 9a 3b 8e be 2d 8f 2e 3e
       -0.19666186 0.16123319 -0.27779847 0.17046805
000390 22 79 09 bd f7 d2 21 bf 9f 52 61 3c 1b ab 37 be
       -0.033562787 -0.6321253 0.013752609 -0.17936365
0003a0 e7 91 87 be df 90 79 be 47 ec 71 bd a8 17 83 3e
       -0.26478502 -0.2437167 -0.059063222 0.25603986
0003b0 ce 20 77 3e 2b 33 02 bf 64 e4 bc 3e c0 11 8e be
       0.24133608 -0.50859326 0.36892998 -0.27747917
0003c0 b8 48 ae bd 54 d5 12 be 6f dc db 3e ab 39 15 bf
       -0.08509964 -0.1433919 0.42941615 -0.5829112
0003d0 27 29 da be 28 1e dc be 85 b3 18 be 6d 6b e7 be
       -0.42609522 -0.42991757 -0.14912231 -0.45199147
0003e0 f5 ea 9d be 71 15 c5 be 2a 3b 28 3e 0a df eb 3d
       -0.3084332 -0.3849292 0.1642882 0.11517151
0003f0 6a 48 9d 3e 8c 92 5d bd f8 13 99 be e9 ea 6a be
       0.3071931 -0.054094836 -0.29898047 -0.22941174

lstm.lstm1.bias_ih_l0 f4 [256]
000000 75 19 0d 3d cc 60 ee 3d 31 d9 6f be 3e 46 67 be
       0.034448106 0.11639556 -0.23422696 -0.22585389
000010 60 33 45 be ac 73 0c be e2 ec 8c 3d 38 fc 56 be
       -0.1925788 -0.13716 0.06881119 -0.20994651
000020 df b7 2e be 9b 94 15 be 29 b8 c7 3d a4 17 85 bd
       -0.17062329 -0.1460747 0.09751923 -0.0649865
000030 9c 16 da bb 27 86 ac be 77 71 5d be 58 15 af bd
       -0.0066555273 -0.336961 -0.21625315 -0.08548993
000040 0d 8d 3c bc 20 15 b2 be fc 34 17 bd 19 32 0a be
       -0.0115082385 -0.34781742 -0.036915764 -0.13495673
000050 f2 cf 8c be e9 6a ba be f6 09 7d bd 2a ba 71 bd
       -0.275024 -0.3640969 -0.061777078 -0.05901543
000060 6f 4c ce bd 28 0a f1 be 2a f3 6f bc 69 e3 9f be
       -0.10073172 -0.4707806 -0.014645377 -0.31228188
000070 1f 5a 72 be af 9e 86 be 8c d2 c8 bd b7 63 cb bd
       -0.23667191 -0.2629294 -0.09805784 -0.099311285
000080 8a 88 4d be 4d 42 d1 be 7f c0 4e be 9f 7a 86 3c
       -0.20071617 -0.40870896 -0.20190619 0.016415892
000090 55 32 bb bd 5a a2 28 3e d8 1a 10 be c1 97 1a be
       -0.091404594 0.16468182 -0.1407274 -0.15096952
0000a0 3c 71 d6 be 90 19 9e be 7b e6 44 be 09 04 c4 3b
       -0.41883266 -0.30878878 -0.19228546 0.0059819263
0000b0 f5 a2 8b be 8d 78 ac bd ae a3 6b be 5c 0a d7 3a
       -0.27272764 -0.08421431 -0.23011658 0.0016406286
0000c0 c5 80 2d be 94 ae e4 bd 51 30 6a bc 88 52 15 be
       -0.16943653 -0.11166111 -0.014293746 -0.14582264
0000d0 d1 d9 98 bd be 5c 85 be 1f ec e0 be 18 db 79 be
       -0.0746342 -0.2604732 -0.43930146 -0.24399984
0000e0 4b 6f d4 bd ee d3 bd bd 1f 30 de 3b 84 c6 09 be
       -0.1037279 -0.09268938 0.006780639 -0.13454634
0000f0 f3 94 0c be 95 2a a3 be ea ce 48 be c4 28 6b be
       -0.13728695 -0.31868425 -0.19610181 -0.2296477
000100 75 08 f9 3d b6 93 d3 bd 74 b8 e7 3d 29 a8 e1 bd
       0.12159816 -0.10330908 0.113144785 -0.11018402
000110 23 c5 86 3d d2 46 32 bd 78 ac 60 3e 7f b8 6e 3e
       0.065805696 -0.04352457 0.21940792 0.23312567
000120 4e 77 42 3e 49 fa 87 3d 59 41 c2 bc 04 02 a8 be
       0.18990824 0.06639535 -0.0237128 -0.32814038
000130 8b 88 56 3d aa c6 04 3e fd 3c 4d 3e bf 28 85 3c
       0.05237631 0.1296641 0.20042796 0.01625478
000140 49 33 0a 3b 1f ea af 3d 61 4a 9e be 37 63 e8 3d
       0.0021087697 0.08589577 -0.30916122 0.11347049
000150 e1 18 a4 3d 24 ee ef bc d9 39 1e 3e 1d 1e 7f bc
       0.08012558 -0.029288359 0.15451755 -0.015571144
000160 4b d7 4b 3e 00 f8 56 bd aa 16 57 be 0f 1b 1d bd
       0.19906346 -0.052482605 -0.2100474 -0.038355883
000170 79 9d 19 be d5 a8 f0 bd 79 5c 1b 3e 0c d2 31 3e
       -0.15001477 -0.11750952 0.15171994 0.17365283
000180 a6 15 1a 3e 84 6a 2a bd 4c 90 0f be 3e ae ee 3e
       0.1504732 -0.041605487 -0.14019889 0.4661731
000190 83 51 80 3e 94 d9 fa be c0 7c 6d be dc 58 86 3e
       0.25062189 -0.48994124 -0.2319212 0.2623967
0001a0 ba f2 f2 3d e3 26 38 be 25 74 bc 3e ca d8 33 be
       0.11862703 -0.17983584 0.3680736 -0.17563167
0001b0 d3 80 3a bd 29 b1 0f be a6 a3 95 3d aa 9a f8 3e
       -0.045533013 -0.14032425 0.07306604 0.485555
0001c0 d4 81 34 3d 83 66 39 be 05 8a 81 bc 75 94 4e be
       0.044069126 -0.18105511 -0.015812883 -0.2017382
0001d0 45 8f ea be 80 20 7b bd 1d e8 65 be 4d 28 8b 3d
       -0.4581243 -0.06131029 -0.22451825 0.06794796
0001e0 3f a7 f8 3d 1e a0 ba 3e 54 b8 9f 3d fa c5 8b bd
       0.12141275 0.36450285 0.0779883 -0.068248704
0001f0 b5 5b 2c 3d 5c 95 86 bd fa 92 3a 3b 96 71 67 bd
       0.042079646 -0.06571457 0.0028468953 -0.05650481
000200 6e 9c 84 3e 21 9a 92 be 49 5e 9a 3b 4b 8e fb 3d
       0.25900596 -0.28633216 0.0047109467 0.122829996
000210 b0 d4 2b 3e d9 81 83 3e ff d8 04 3e 90 c9 5e 3d
       0.16780353 0.25685003 0.12973402 0.054391444
000220 37 ad 3b 3e 40 f7 20 bd 46 d0 4f 3e 09 44 ea 3d
       0.18327795 -0.039298296 0.20294294 0.11438758
000230 68 84 86 3e d4 33 07 3e 2d 35 b0 3c b6 86 01 bd
       0.26272893 0.13203365 0.021509731 -0.03162261
000240 9c 1e a3 3e 15 03 be 3d f3 bb 94 bd 9e 16 3d 3e
       0.3185929 0.092779316 -0.07262411 0.18465659
000250 80 ef 9d 3d 65 f2 9b 3e cd 9c 41 be ce c8 8f 3e
       0.077116966 0.3045837 -0.18907471 0.2808289
000260 80 73 2c 3e 9a 97 b0 bd 03 75 5a be 79 5d 1e 3e
       0.16840935 -0.08622666 -0.21333699 0.15465344
000270 ce 6d 0d 3e 42 9e ba bd e3 64 65 3d f8 fd 14 3e
       0.13811418 -0.091122165 0.056004416 0.14550006
000280 60 ae ab bd af 9d b0 bc 2a 03 c9 3e b9 c4 12 3d
       -0.08382869 -0.021559564 0.39260226 0.03583214
000290 47 9f c6 3d ea 45 98 bd cb ed cc bb a8 54 83 be
       0.096983485 -0.0743521 -0.006253933 -0.25650525
0002a0 a7 cb 92 3d ed 9e 43 bc 02 76 36 3d 8d 69 ff bd
       0.0716775 -0.011939746 0.044546135 -0.12471304
0002b0 9e f8 7b bd b9 14 32 3d 1f b5 b0 bc 7b 06 76 3e
       -0.061516397 0.043476794 -0.02157074 0.2402591
0002c0 ba 2c bd 3e f8 e3 f2 3d 8d 24 86 be 02 24 62 be
       0.36948186 0.11859888 -0.2619976 -0.22084048
0002d0 66 74 84 be 45 cd 3a 3e 17 b6 2f 3e 7f 4b ba bc
       -0.25870055 0.18242367 0.17159306 -0.022741077
0002e0 80 f0 0a 3e 85 51 19 3e 9e 61 0c be 05 b4 82 be
       0.13568306 0.14972503 -0.13709113 -0.2552797
0002f0 c6 1c 34 be d4 d8 91 be ea 3c 92 3e da eb f7 3d
       -0.17589101 -0.2848574 0.285621 0.12105532
000300 1e 18 ae 3d ab 89 79 bc ca f4 d7 be e1 18 da be
       0.08500694 -0.0152305765 -0.42178947 -0.42597106
000310 8b 8c 75 be e1 ae 64 bc 0c 83 07 be b0 68 b0 be
       -0.23979394 -0.01395771 -0.13233584 -0.3445487
000320 0b b8 72 bd d1 be 6d be c2 7e a8 3d e0 3a ac bd
       -0.05925755 -0.23217322 0.08227302 -0.08409667
000330 af 49 1c 3e 3e 6b a5 be 06 9a 31 bd e9 2c 6d be
       0.15262483 -0.32308382 -0.04335978 -0.23161663
000340 9f 4e 05 be 54 af 99 be 4e 1c 5c bd 38 30 6b be
       -0.13018273 -0.30016577 -0.05373793 -0.22967613
000350 17 35 fd bd df c0 76 be 78 0a ba 3c ed 09 1d bd
       -0.12363642 -0.24097012 0.02271007 -0.038339544
000360 e5 62 4e 3d aa 99 ae be 2e 2d 6e 3c 8d e1 2b be
       0.050387282 -0.3410161 0.014537139 -0.1678526
000370 97 54 d2 be ca e3 81 be ba 93 3e bd ed 98 57 be
       -0.41080162 -0.25369102 -0.0465276 -0.2105443
000380 85 b9 4a be eb ed d2 be ef 41 5b be 18 af 1f 3e
       -0.19797333 -0.41197142 -0.2141187 0.15594137
000390 a7 2e ab bd 57 b1 94 3e c2 21 fb bd d2 67 e2 bc
       -0.083585076 0.2904155 -0.12262298 -0.027637396
0003a0 64 85 b1 be 5e 6b 85 be 22 3b c4 bd 95 54 06 bd
       -0.3467208 -0.26058477 -0.09581591 -0.032795507
0003b0 a5 71 30 be 30 c4 cb bd 2b 5a 9a 3a 17 d0 14 be
       -0.17230852 -0.09949529 0.001177614 -0.14532505
0003c0 19 4d 2e bd aa 72 0e 3d 89 c9 84 bd 46 22 78 be
       -0.042553995 0.03477732 -0.06483752 -0.24231824
0003d0 16 c7 20 3e f0 96 bb be a1 9d f8 be dc a2 35 be
       0.15700945 -0.36638594 -0.4855776 -0.17737907
0003e0 08 16 52 be da 7a 73 be 17 07 a0 bd 10 24 fd bd
       -0.20516217 -0.23777333 -0.07813852 -0.12360394
0003f0 b1 f5 9f 3d f6 36 b4 be a0 c7 09 be 76 f8 9d be
       0.07810534 -0.35198182 -0.13455057 -0.30853623

lstm.lstm1.bias_hh_l0 f4 [256]
000000 14 ec 39 bc f7 e1 37 3e 1e 6f f6 bd e8 ad bc be
       -0.011347789 0.17957292 -0.12032913 -0.3685143
000010 4a 47 6f be 73 52 7f bc 9d e7 27 bc f8 00 9d be
       -0.23367038 -0.015583622 -0.010248092 -0.30664802
000020 44 c3 3a be f2 63 28 be 5d 98 b4 bc 63 f2 38 3d
       -0.1823855 -0.16444376 -0.022045309 0.045153033
000030 29 df 16 bd 68 cf 51 be 6e 84 82 bc fd e3 f7 bd
       -0.036833916 -0.20489275 -0.015932288 -0.12104032
000040 22 99 47 be 88 88 92 be 97 d7 a2 bd 89 ca b1 bd
       -0.1949201 -0.2861979 -0.07951277 -0.08681209
000050 ea 4b 46 be fc 95 bc be 03 7b 34 bb 72 a5 4f 3c
       -0.19364896 -0.3683318 -0.002753914 0.012673723
000060 89 77 14 bd 5e 03 d6 be 29 80 05 be 1b 61 6f be
       -0.03624681 -0.41799444 -0.1303717 -0.23376887
000070 b2 0e a4 be 98 d3 a8 be bb f2 f4 bd bf b5 52 3c
       -0.32042462 -0.32973933 -0.1196036 0.012860714
000080 b4 a7 33 3d 55 45 86 be 3f a4 3d be 7a 52 0d 3e
       0.043861106 -0.2622477 -0.18519686 0.13800994
000090 b1 31 7b bd a1 3e 96 3e da 7a 77 be 12 10 fe bc
       -0.061326686 0.29344657 -0.24167958 -0.031013522
0000a0 a4 27 dd be f9 3d 92 be 78 2a 3e bc ff eb 02 bd
       -0.43194306 -0.28562906 -0.011606805 -0.031963345
0000b0 0d 07 df be 16 53 4f be 41 24 6f be 65 f7 11 3d
       -0.43560067 -0.20246539 -0.23353674 0.035636324
0000c0 4c a6 b7 bd 2b 38 21 be e7 4a 1d be ba 7e 81 be
       -0.089672655 -0.15744083 -0.15360604 -0.25291997
0000d0 4b 68 4b 3d bf d8 69 be 54 6e c0 be ba 24 5a be
       0.04966001 -0.22836588 -0.37584174 -0.21303073
0000e0 7f 7d f2 bd ee 17 8d bd 6d ea 18 be 08 9e 24 3d
       -0.11840343 -0.0688933 -0.14933176 0.040189773
0000f0 84 0b 80 3d 38 a9 11 be 03 33 7d be 41 16 a9 be
       0.062521964 -0.14224708 -0.2472649 -0.3302479
000100 91 9a 06 3d 99 fc 8c be f2 50 86 3e 93 91 51 be
       0.03286225 -0.27536467 0.2623363 -0.20465688
000110 5e 2c 2d 3e 08 b6 e0 bd 34 77 9c 3e 84 da 71 3e
       0.16911456 -0.1097222 0.30559695 0.23618513
000120 31 5f ee 3d 7f 38 52 3e eb 7d 6c bd 1d d3 0d be
       0.1163925 0.20529364 -0.057737272 -0.13850065
000130 dc 9a 80 3d c3 6f ce 3d e5 f4 65 3e da 38 ea 3d
       0.06279537 0.100799106 0.22456701 0.11436625
000140 e9 0f ac 3d ae e1 7c bc 84 cd 05 bf eb 3f 8f bd
       0.08401472 -0.015434666 -0.52266717 -0.06994613
000150 22 56 3c bd eb ab 2f bd 7d 4b a2 3e ee fa d5 3d
       -0.04598058 -0.042888563 0.31698218 0.10448252
000160 32 6b 0d 3e 24 e6 84 ba b2 0a 38 be 1b 5f 85 3b
       0.13810423 -0.0010139388 -0.1797283 0.0040701753
000170 23 4a d6 bd c5 a4 ab 3c c5 b8 01 3e f9 93 87 3d
       -0.10463359 0.020952592 0.1266814 0.066200204
000180 22 d8 6e 3e fd 5c 92 bd 52 e4 3a 3d c3 1c 03 3f
       0.23324636 -0.07146642 0.0456279 0.5121576
000190 43 2c 76 3e d4 9c 8a be 36 af 85 be 5c 4e 8b 3e
       0.24040322 -0.27072775 -0.26110238 0.2720822
0001a0 4a 5a 33 3d 67 2c 24 be 50 52 d2 3e c9 87 bc bd
       0.04378728 -0.16032563 0.41078424 -0.092055865
0001b0 6f 3b 56 be 49 90 30 be c5 69 1b 3e a6 44 a0 3e
       -0.2092111 -0.1724254 0.15177067 0.31302375
0001c0 25 b7 0d bd ab 15 76 bd 80 3c 57 3e 40 bf c7 be
       -0.03459849 -0.060079258 0.21019173 -0.390131
0001d0 a7 29 99 be f9 42 97 3a 3e 04 3c be ff 3f a3 3d
       -0.2991459 0.0011540345 -0.18360993 0.07971191
0001e0 a0 d0 98 3e 3b 13 b0 3e 81 47 05 3e 38 d3 19 3d
       0.29846668 0.34389672 0.13015558 0.03755495
0001f0 49 9b e1 3d ef e0 63 be e6 b9 d7 bc c0 43 66 39
       0.110159464 -0.22253774 -0.02633376 0.00021959748
000200 fb 18 d9 3e 3e 18 be bd 50 d4 33 3b 05 cc 6a 3e
       0.4240187 -0.092819676 0.002743978 0.2292939
000210 7a 82 8a bb ba eb 60 3e a8 a4 b1 bd 43 04 f4 bc
       -0.00422698 0.21964923 -0.08673984 -0.029787188
000220 23 6a 67 3e 24 90 48 bd 02 20 d7 3d 3b 4d 29 3e
       0.22599082 -0.04896559 0.10504152 0.16533367
000230 28 da a2 3e a3 84 1b 3e f8 8e e6 bc d6 b9 b4 3c
       0.31807065 0.15187316 -0.028144345 0.02206127
000240 e0 d1 96 3e 3f 03 2a 3e 4d 43 7b be 87 35 74 3e
       0.29456997 0.16602801 -0.24537392 0.23848544
000250 bb b0 4f 3e 80 f5 a7 3d 24 10 46 bd 6f 89 c6 3e
       0.20282261 0.08201122 -0.048355237 0.3877673
000260 2e b0 34 3e 15 92 1a bd 1e af 99 3a ff 06 a3 3d
       0.17645332 -0.03773697 0.0011725163 0.07960319
000270 0a 49 53 3e 10 46 97 bd cc a5 49 3d d7 d1 e0 3d
       0.20633331 -0.0738641 0.04923038 0.10977524
000280 e8 f5 72 3c 15 d9 f9 3d 9c 4c 40 3e 59 23 c5 bd
       0.014829136 0.12199608 0.18779224 -0.09625883
000290 5e b5 c8 bd a2 bb 94 be a4 67 a8 bd f7 11 5e be
       -0.09800218 -0.29049402 -0.08222893 -0.2168654
0002a0 09 9b 8d 3d 79 a6 a5 bd 68 9c b1 3c a7 28 69 be
       0.06914336 -0.08088393 0.021681026 -0.22769414
0002b0 92 f6 2d be d3 e0 cd bc e7 24 ae 3c 43 db e7 3d
       -0.1698859 -0.025131619 0.02125783 0.11321118
0002c0 81 c7 02 3e 5b bc 0c 3e 7a 70 1f be b9 be 3c be
       0.12771417 0.13743727 -0.1557025 -0.1843213
0002d0 b8 57 63 be 25 9f 9a 3e 42 c1 4a 3e 23 11 27 3c
       -0.22201431 0.30199543 0.19800285 0.010196957
0002e0 dc 7e 44 3e 13 ae 3a 3d a2 49 60 be b0 aa d8 bd
       0.19189018 0.045576166 -0.21903089 -0.10579431
0002f0 f3 07 fa bd 17 4f 9e be 18 2b 06 3e ab 3b 3a 3e
       -0.122085474 -0.30919716 0.13102376 0.18186824
000300 2e a7 b2 bc b0 e3 51 3e e7 25 f2 be d7 44 b4 be
       -0.021808233 0.20497012 -0.47294542 -0.3520877
000310 6e 22 a9 be d3 5a fb bd bf f9 75 be 62 d0 97 be
       -0.3303408 -0.12273183 -0.24021052 -0.2965117
000320 09 2e da bd a1 c7 02 bd 80 6e 03 be 86 16 07 bd
       -0.10653312 -0.031928662 -0.12835121 -0.032980464
000330 5b b0 0e 3e b0 23 76 be c7 a6 08 be 88 87 49 be
       0.13934462 -0.24037051 -0.1334487 -0.19680607
000340 99 da c1 bd cf 2c b8 be 0a e3 54 bc 4b ca 6a bd
       -0.09465522 -0.35971686 -0.012993583 -0.057321828
000350 ab 3b 52 be d0 92 df be 5f 7d 36 bc fa 3c 72 3d
       -0.20530574 -0.43666697 -0.011138289 0.059140183
000360 0b 79 a8 bd 19 9e b9 be a6 c9 3b bc f2 18 31 be
       -0.08226212 -0.3625343 -0.011461651 -0.17294672
000370 53 f2 f2 be 54 8f c0 be d1 4b 9b bd 22 fc 55 be
       -0.47450504 -0.3760935 -0.0758282 -0.20896962
000380 d7 48 6c be 07 dc f2 be a8 8d f7 bd f3 3a 89 3e
       -0.23074661 -0.47433493 -0.12087566 0.26802787
000390 ed 94 59 3d 2f 00 89 3e b4 bd ef bd 63 64 52 be
       0.053120542 0.26757953 -0.11706105 -0.20546107
0003a0 e0 e4 c1 be af 6c 28 be cd 58 d4 bd d3 f1 05 3e
       -0.3786993 -0.1644771 -0.103685 0.1308053
0003b0 69 46 a4 be 2a bf 3f bd 54 55 03 be b6 0e 6a be
       -0.3208497 -0.046813168 -0.12825519 -0.22857174
0003c0 fb 03 d0 3c 58 71 75 3d a0 70 dc 3c a7 01 71 bd
       0.025392523 0.059922546 0.026909173 -0.058839466
0003d0 b1 a6 f4 3d f2 6c 5d be a9 32 e1 be f0 d5 c6 bd
       0.11945856 -0.2162359 -0.43983963 -0.09708774
0003e0 ef 21 09 be 82 45 0f be 6d 2c b5 bd ca 01 40 3d
       -0.13391851 -0.13991359 -0.08846364 0.046876706
0003f0 69 9b 8c bc 4d 25 97 be 7a ff b1 bd a7 14 3d be
       -0.01716395 -0.29520646 -0.086913064 -0.1846491

lstm.bn1.weight f4 [7]
000000 cc 4c 44 3f eb 9a ad 3f 2a bb 82 3f 51 32 4a 3f
       0.7667968 1.3562902 1.0213368 0.78983027
000010 87 09 28 3f bd 0e 63 3f a1 b6 a3 3f
       0.6563954 0.88694364 1.2790109

lstm.bn1.bias f4 [7]
000000 04 ef 83 3d a0 fc b6 bd 0c 04 25 bc fa 97 17 be
       0.06442073 -0.08934903 -0.010071766 -0.14804068
000010 c6 11 0c 3e ca 7d 46 3e 5b 6a 25 3e
       0.13678655 0.19383922 0.16153853

lstm.bn1.running_mean f4 [7]
000000 ae de 56 ba 8f ef 00 3c da ce 1a 3c 12 74 b6 3b
       -0.0008196634 0.007869615 0.009448731 0.005568036
000010 c9 61 74 bb 8f 28 ac bc 58 54 3c bd
       -0.003728973 -0.021015434 -0.045978874

lstm.bn1.running_var f4 [7]
000000 4a b1 45 3b 1e 70 0a 3c 13 47 93 3c a9 96 fd 3c
       0.0030165487 0.008449582 0.017978227 0.03095563
000010 c3 77 46 3d 31 21 94 3d ef 0c d2 3d
       0.048454057 0.07232893 0.10256373

lstm.lstm2.weight_ih_l0 f4 [256, 64]
000000 1e ce 4b 3c 41 ed d6 3d b8 dd 0b 3c 4b 4f dc be
       0.012439279 0.10494471 0.008536749 -0.43029246
000010 a5 de 4d be f3 98 4f be 53 c9 81 3e d6 55 0f bd
       -0.20104463 -0.20273189 0.2534891 -0.03499397
000020 4d cf 5d be d7 01 1b 3d a8 ee 03 be 7c 19 78 be
       -0.2166111 0.03784355 -0.12884009 -0.24228472
000030 41 aa 72 3d f8 b3 0d 3d 88 64 1e be 1f 91 51 3d
       0.059244398 0.03459546 -0.15468037 0.05116379
000040 a8 84 90 bd d7 8d 26 bd 88 05 9d 3d f8 a9 0d be
       -0.07056552 -0.040662613 0.076670706 -0.13834369
000050 73 a2 51 be 16 bf 96 be 27 81 14 3e ed ea c8 bd
       -0.20472126 -0.29442662 0.14502393 -0.098104335
000060 a8 67 2b bd 5f e3 2a be a0 e8 83 3e fd 9a 3e bd
       -0.0418469 -0.16688298 0.25763416 -0.046534527
000070 c7 51 97 bd a1 7e 9c 3c f1 14 1c 3e 4a fe fe bc
       -0.07388645 0.01910335 0.15242364 -0.031127114
000080 98 4e 83 bd 9f 07 e0 bd d3 1e 39 be e0 34 27 3e
       -0.06411475 -0.109389536 -0.18078165 0.16328764
000090 8d 8b 15 be 34 01 9a 3e 1e f8 44 3e 52 67 3e 3c
       -0.14604016 0.30079043 0.19235274 0.011621313
0000a0 4b f4 74 3d 34 0b d9 bd 1d 61 d4 bd a8 00 5a 3e
       0.05980329 -0.1059784 -0.103700854 0.21289313
0000b0 c4 07 77 3e 02 99 b1 3d 09 dc 9d bd 23 65 71 be
       0.24124056 0.08671762 -0.07707984 -0.23573737
0000c0 58 15 7b bd c8 61 3b be fc 0c 3a 3e 50 9c 66 3e
       -0.06129965 -0.1829902 0.18169016 0.22520566
0000d0 6f 7e 0d 3f 7a b7 06 bd 98 c2 a7 bd 5d 05 fd bd
       0.5527105 -0.03288982 -0.08191413 -0.123545386
0000e0 07 cd c0 bc 7b 9c 22 bd a7 d7 b1 bd e6 9d ee 3d
       -0.023535265 -0.039700013 -0.086837105 0.116512105
0000f0 f7 35 57 3d 4d 53 36 3d 0c 07 98 be fa d1 0d be
       0.0525417 0.044513036 -0.29692876 -0.13849631
000100 b1 ff 53 bd 68 82 c4 be f0 7d ca 3c 11 be ba 3d
       -0.05175752 -0.38380742 0.024718255 0.091182835
000110 9d 4e 18 be 9e e8 86 be e8 66 0a 3e 86 74 9c bd
       -0.14873739 -0.26349348 0.13515818 -0.076394126
000120 f5 65 e1 3d 5a 4c f4 36 fa 65 75 be d4 1f 08 bf
       0.11005775 7.280655e-06 -0.23964682 -0.53173566
000130 d2 64 b5 bd 7d a0 f7 3d 34 a4 c7 bd 11 3e 88 bb
       -0.088571206 0.120911576 -0.09748116 -0.0041577895
000140 10 ae 96 be 3a 34 5c be d4 d4 b4 be 0c 14 0a be
       -0.29429674 -0.21504298 -0.35318625 -0.1348421
000150 29 4c 63 be 25 9d 0c be b6 db 5b bc 7a 62 6e be
       -0.22197022 -0.13731821 -0.013419082 -0.23279753
000160 64 39 a8 be ca 65 bd be fe 70 65 be 8e f6 03 bf
       -0.32856286 -0.3699172 -0.22406384 -0.5154809
000170 8c 3a 94 3d 82 8e 06 bf 20 d3 4f 3e f5 f4 69 be
       0.072377294 -0.525612 0.20295382 -0.2284735
000180 70 5c 8d bd 97 16 69 bc 7d 9d 94 be 68 0c 10 3e
       -0.06902397 -0.014226577 -0.29026404 0.14067233
000190 a2 85 52 be f8 28 d8 bc ba 57 7e bd 07 c4 d2 bd
       -0.2055879 -0.026386723 -0.06209538 -0.102912955
0001a0 aa 4c 7b 3d 62 40 c0 3b b8 03 e3 3c 89 0a 91 be
       0.06135241 0.00586705 0.027711734 -0.2832835
0001b0 b4 18 15 3c 40 69 0e 3b 28 17 1c 3e 31 4f 17 be
       0.009100128 0.0021730214 0.15243208 -0.14776303
0001c0 81 11 ac be 1f 1d 9f be a0 08 df bd 66 e0 ae be
       -0.33607104 -0.31076905 -0.10890317 -0.34155577
0001d0 98 15 00 3e c2 2d a5 be cb e6 7c be 9b ec c5 be
       0.12508237 -0.32261473 -0.24697416 -0.38657078
0001e0 13 13 4e bd 5a 2a 43 be 73 30 3c bd 94 2a 01 be
       -0.05031116 -0.19059125 -0.045944642 -0.12613899
0001f0 0a 20 75 bd 44 f7 85 be 51 06 53 be 57 ee cf be
       -0.059845008 -0.2616521 -0.20607878 -0.40611526
000200 a7 dc 23 3f fc f8 c2 be 78 87 49 bc f9 a5 df bd
       0.64008564 -0.38080585 -0.012300365 -0.10920329
000210 f8 74 6f be 31 fc 07 3f 92 51 59 be dc 3b c4 be
       -0.23384464 0.5311919 -0.21222523 -0.3832692
000220 ba 56 de bc e5 fb 27 be eb 30 2d 3f 11 8e 8e bd
       -0.027140964 -0.16404684 0.6765277 -0.06960691
000230 30 04 0b 3f c3 3c 20 3e 98 89 df 3e 15 84 d7 3d
       0.54303265 0.15648179 0.43659663 0.105232395
000240 5a cb e8 3e fb a3 28 3d 9c 2a bf bc 38 04 b7 3e
       0.45467645 0.04117201 -0.023335747 0.35745406
000250 56 ff 98 3e d7 62 14 be 48 f6 35 bb b1 95 d7 3e
       0.29882306 -0.1449083 -0.0027765203 0.42106393
000260 ee 42 f5 3e 86 38 f1 bc 4c 4a 16 3d b3 75 11 3e
       0.47902626 -0.029445898 0.03669195 0.14205055
000270 39 b5 6c be c8 8b e5 3d 77 0a b3 3e 09 95 aa 3e
       -0.23116006 0.11208302 0.34968922 0.3331683
000280 6c ab 91 be 61 56 82 be 03 cf 3c 3e a7 66 c6 3d
       -0.28451097 -0.25456527 0.18438344 0.09687548
000290 a4 0d 02 be b5 51 34 be bd 80 42 bd 73 f5 61 be
       -0.12700516 -0.17609294 -0.047486056 -0.22066288
0002a0 3b 7f ea 3c e2 da 44 be c0 a2 d7 bd 9d 2f ba be
       0.028625121 -0.19224122 -0.10529089 -0.3636445
0002b0 c1 14 c2 3d 86 30 cf bc d8 6c 72 3e db 34 2a 3c
       0.09476615 -0.025291692 0.23674333 0.010388578
0002c0 6a 31 20 3f 18 e5 18 3e 3a db 08 3c 3a 08 0f be
       0.625754 0.14931142 0.008353049 -0.13967982
0002d0 66 27 37 be 36 01 58 3e 5d a0 0a be ed 13 c5 bd
       -0.17886123 0.21094212 -0.13537736 -0.09622941
0002e0 ce a1 6d 3e 6e 75 c1 3e f5 c8 5b be 4a 31 e1 be
       0.23206255 0.37784904 -0.21463378 -0.43982917
0002f0 68 f8 0a bf 83 c7 92 be 5c 37 39 3e 94 33 3e 3e
       -0.5428529 -0.2866784 0.18087524 0.18574363
000300 87 f9 40 3d 52 be 6f bc 1b 4d 84 be 8e 3d f0 bd
       0.047112968 -0.014632778 -0.25840077 -0.117304906
000310 cc b8 90 be de 7b 02 be 66 5b 87 3e c3 18 d1 bd
       -0.2826599 -0.12742564 0.2643692 -0.10209801
000320 a4 40 3b 3d aa 50 ad bd 32 b5 29 bd 29 53 0f be
       0.045715943 -0.08462651 -0.041432567 -0.13996567
000330 6b 03 aa bc 83 d2 a5 be 44 33 71 3d 1a 08 2f 3e
       -0.020753583 -0.3238717 0.05888678 0.17092934
000340 b1 74 14 bc fc 72 4f be 8e ee 7c 3c cb c0 74 be
       -0.0090610245 -0.20258707 0.015437735 -0.2390167
000350 b3 cf 32 be b8 26 b9 be d3 b6 cd 3d 51 0b e5 bd
       -0.17462043 -0.36162353 0.100446366 -0.11183799
000360 b0 65 d7 bd d1 d0 db 3a 92 88 45 be 34 1b 8e bd
       -0.10517442 0.0016770606 -0.19290379 -0.06938782
000370 e2 ca 02 be e8 cc 0a be 9f 65 e0 3d 75 88 67 bd
       -0.12772706 -0.13554728 0.10956883 -0.05652662
000380 c8 94 4d be d8 d8 59 be b7 0f 27 be 88 eb 44 3e
       -0.20076287 -0.21274126 -0.16314588 0.19230473
000390 55 c6 5c be d3 f7 e7 3d ee 3b 0e be cd a3 68 be
       -0.21560033 0.113265656 -0.13890049 -0.22718735
0003a0 24 ac 80 be 29 d1 68 be 22 e8 6d be 84 2a 9e 3e
       -0.25131333 -0.22736038 -0.23233083 0.30891812
0003b0 7f cf 73 3e f3 6f 23 bd 2b 05 ad 3e 81 38 a3 bd
       0.23809622 -0.039901685 0.33793005 -0.07969762
0003c0 85 0b 02 bd 61 5d 45 be 9a 19 a5 3d 2c ac 90 bc
       -0.031749267 -0.19273902 0.08061524 -0.017660223
0003d0 83 da 0d 3e b7 10 1d bd e2 bf c0 bd 2d 53 77 3d
       0.13852887 -0.03834602 -0.09411599 0.060382057
0003e0 91 da 8d 3c 01 62 50 bd e1 95 b8 bc 71 2c 12 bd
       0.017316135 -0.050874714 -0.022532405 -0.035686914
0003f0 84 cc 9c bd 61 7a 09 be 7d 4c d9 be 09 86 85 bd
       -0.07656196 -0.1342559 -0.42441168 -0.06519706

lstm.lstm2.weight_hh_l0 f4 [256, 64]
000000 31 2b 76 3e d1 d4 11 be c8 da 81 bd 81 2a f3 bd
       0.24039914 -0.1424134 -0.06340557 -0.11873341
000010 4c 90 82 3d 6b 7e 44 3d 67 db 94 bd d3 21 b3 3d
       0.06375179 0.047972124 -0.0726841 0.08746686
000020 04 4f 2c be 22 e7 b6 3e 40 f0 64 bd e8 19 86 be
       -0.16827017 0.35723215 -0.055893183 -0.2619164
000030 55 32 bb 3c 78 a4 63 3e 7c 2b e5 be 94 da 08 bb
       0.022851149 0.22230709 -0.44759738 -0.0020882236
000040 f4 4e 47 3e b4 46 25 bd 53 fc ed 3c 4a 2e ac bd
       0.19463712 -0.04035063 0.029050982 -0.084072664
000050 b7 71 95 bd 6e 17 06 bc 40 98 83 bd 43 13 45 3d
       -0.0729708 -0.008184297 -0.06425524 0.048114073
000060 34 1b a8 be 7a f1 0f bb d4 27 7c 3c b8 57 6a be
       -0.32833254 -0.0021964 0.015390355 -0.22885025
000070 d9 4e 77 3c 2c 81 5e 3e 44 0a 17 bd 83 13 be be
       0.015094482 0.21728963 -0.036875024 -0.3712426
000080 03 e8 bd 3e 89 cb 21 3e 61 1c 0a 3e da 41 f4 bd
       0.37091073 0.15800299 0.13487388 -0.11926623
000090 5a 74 33 3e db ae 37 bd 35 06 ed bb 27 2b fd 3d
       0.17524853 -0.04484449 -0.007233406 0.12361746
0000a0 49 f0 4d be 12 21 07 be 62 04 ad 3e d7 79 4d bd
       -0.20111193 -0.13196209 0.33792406 -0.050165024
0000b0 51 a7 25 3e 3b cd a5 bd b6 f0 40 bd 83 b4 0f 3e
       0.16177107 -0.08095785 -0.04710456 0.14033704
0000c0 80 7c 7c 3c 98 46 b2 3e 21 23 b6 3e 89 60 1c be
       0.0154105425 0.34819484 0.35573676 -0.152712
0000d0 df 42 f1 3c 6e a9 01 be 34 cf de 3c 4c 5a 2a 3d
       0.029450832 -0.12662289 0.027198412 0.04159002
0000e0 cf fb 8a bb 73 b0 91 3c e9 26 c1 3e 2b 93 97 3e
       -0.0042414437 0.017784333 0.37725 0.29604468
0000f0 36 3d da bc d5 61 4c 3e 30 f1 e5 bd 5d 81 aa be
       -0.026640516 0.19959195 -0.112276435 -0.3330182
000100 e8 f0 47 bd 34 0b d1 3d 30 2d 46 be 5b 89 51 3e
       -0.04881373 0.10207215 -0.19353175 0.20462553
000110 cb af ff 3d 61 26 26 3c 9e 52 40 bd 1c 85 3d 3e
       0.12484702 0.010140986 -0.04695379 0.18507808
000120 14 32 53 be 99 31 2b bd 3e 72 46 be 1e 3a 89 bc
       -0.20624572 -0.041795347 -0.19379517 -0.016751345
000130 ef 18 e0 bc 05 83 92 3e 84 03 15 3e c8 92 c5 bd
       -0.02735564 0.28615585 0.14552122 -0.09647137
000140 e7 d4 af 3d bb 5f 2f 3d af 5b e7 3e fc ff f2 3c
       0.0858553 0.042815905 0.45187137 0.029663078
000150 a8 9b 38 3d 41 8a 77 3e 9f 5f 98 3c f8 9e 1a 3e
       0.04507032 0.24173833 0.018600283 0.15099704
000160 7e b4 c8 bd 20 88 47 be df 69 92 3d a6 45 09 3d
       -0.09800051 -0.19485521 0.071490996 0.033513688
000170 a1 c3 19 3d 7b 0a b0 bd 95 53 50 be 60 f7 07 3d
       0.037540082 -0.08595749 -0.20344384 0.0331949
000180 69 65 65 3d 73 15 50 3e 63 36 42 3e ec ec b8 3c
       0.056004915 0.20320682 0.1896606 0.02257391
000190 16 ea 94 3e 7e f2 51 bd b7 d0 2c bc dc fa bb 3e
       0.29084843 -0.05125665 -0.010547808 0.36714828
0001a0 ec 2b f6 3d 31 9d 9b 3e 92 bb 6a 3e 73 2e 8f 3e
       0.12020096 0.30393365 0.22923115 0.27965125
0001b0 c6 d5 79 bc cc 7f 61 3e ae 07 c7 be 0d bc d7 3c
       -0.015248721 0.22021407 -0.38873047 0.026334787
0001c0 e8 0a 48 bd 90 47 91 bd 63 40 bf 3e 22 88 4d 3e
       -0.048838526 -0.070937276 0.3735381 0.20071462
0001d0 2f 5f 94 3e 1a 66 86 3d 32 88 85 be 95 ea ca be
       0.2897887 0.06562443 -0.2608047 -0.39632097
0001e0 84 a3 48 3e f2 ad 03 3e d4 d9 0d 3e 23 c9 88 3d
       0.19593626 0.12859324 0.13852626 0.06678989
0001f0 56 86 e9 bd c3 79 24 bc f8 dd 42 3d f3 aa c5 bd
       -0.11402576 -0.010038796 0.047574967 -0.096517466
000200 ab 05 28 3e b4 4c a2 3d d8 76 f0 3c 84 0d d0 be
       0.16408412 0.07924786 0.029353544 -0.40635312
000210 83 ce 8d bd da 8b 8b bd f4 89 b2 bc b6 b6 4e be
       -0.069241546 -0.06813784 -0.021794297 -0.20186886
000220 69 9d 44 3c 3e d7 7d 3e 8c cd b1 3e 9c bb 08 be
       0.01200042 0.2478914 0.34727132 -0.13352817
000230 91 ac 58 3e 3e d8 9e be 78 ea 1a be d5 ef 29 3c
       0.21159579 -0.31024355 -0.15128505 0.010372122
000240 15 63 49 3e 1c bc 6b 3c 3d 5b 4d be 88 40 aa be
       0.19666703 0.0143881105 -0.20054336 -0.33252358
000250 a1 ac 7c 3e 9f 47 96 be 41 5d b1 be 7c 12 f2 3d
       0.24675228 -0.29351518 -0.3464146 0.11819932
000260 f6 a1 d9 bc b6 67 e3 bd 86 e4 f3 bd b9 73 be bd
       -0.026566487 -0.11103766 -0.11908822 -0.09299416
000270 81 f1 88 bd e7 af d4 bd 55 91 44 3e 2b ea 87 3d
       -0.06686688 -0.10385113 0.19196065 0.06636461
000280 6d 99 9a bd 13 aa 03 be c3 d8 2b be f7 fb c0 3d
       -0.07548795 -0.12857847 -0.16781907 0.094230585
000290 f6 11 80 be ce 31 59 bd ce 81 d1 3c 04 87 cd bd
       -0.25013703 -0.053026013 0.025574591 -0.10035518
0002a0 d7 45 34 bd e5 56 95 3d b2 69 2a be 91 b4 d4 be
       -0.044011917 0.072919644 -0.16641882 -0.4154401
0002b0 78 2a 1e 3e f6 14 3f be 01 a7 a0 3d 2e f3 81 bd
       0.15445888 -0.1866034 0.078443535 -0.06345211
0002c0 07 f4 fd 3d 31 cf 80 3e b3 68 05 bd f3 e0 7c be
       0.1240006 0.25158074 -0.032570552 -0.24695186
0002d0 d5 d6 2a be 00 11 ac bd a8 4e fe 3d 7b 6d f5 3d
       -0.16683514 -0.0840168 0.12417346 0.11983772
0002e0 11 f2 19 be aa c2 ef bd b5 0a 86 bd 8c ca 11 3e
       -0.15033747 -0.11707051 -0.06545011 0.14237422
0002f0 19 52 2e bd e7 e6 55 3e 86 18 2f 3c 88 4e 87 3e
       -0.042558763 0.20888864 0.010686999 0.26427102
000300 a8 e7 cf 3d e8 b9 19 3e 35 50 5f 3c e6 94 45 3d
       0.10151607 0.15012324 0.013629963 0.048237704
000310 26 83 12 be ab 3c aa 3b c7 cf 30 bd b9 4e 3f 3d
       -0.14307842 0.0051952205 -0.043166902 0.046705935
000320 7d 80 a8 3e a7 12 5e be 3b d4 06 3e 83 7c 32 be
       0.3291053 -0.21686803 0.13166897 -0.1743031
000330 ce 82 22 3e d9 c3 88 3e 5b f1 d0 be 4b 0e 27 bf
       0.1587021 0.2671192 -0.4080914 -0.65256184
000340 76 f6 4b 3e 98 c4 ac 3d d8 56 d1 3e 5b 8c 03 3e
       0.19918236 0.08435935 0.4088657 0.1284651
000350 12 a2 f6 3d e7 6e 5c bd 1b ad 28 be 25 6c 32 3e
       0.12042631 -0.053816702 -0.16472284 0.17424066
000360 77 a7 ae be 79 6b 6c bd 0c ce 23 3c 79 aa 94 3b
       -0.3411214 -0.05771968 0.009997856 0.0045369235
000370 ea c8 0c bc 47 88 67 3e b8 1d 8e bd 16 2d 3c 3e
       -0.0085928235 0.2261058 -0.06939262 0.18376574
000380 44 fa 83 3d 52 cf e4 3d 82 de 9a 3d d1 50 44 3c
       0.06444219 0.11172356 0.07561971 0.011982159
000390 28 38 e1 3e 77 4e 68 3c 0e 99 36 be ef 3e 22 3e
       0.43988156 0.014178864 -0.17831823 0.1584432
0003a0 9c 56 2c 3e 9a 47 e2 3c 14 74 92 3e db a5 4c 3c
       0.16829914 0.027622033 0.28604186 0.012490715
0003b0 fd f8 b4 3d 14 f8 9c 3e 31 a7 e8 bd e7 73 3e 3e
       0.08836553 0.3065802 -0.11360014 0.185989
0003c0 ed 82 ba bc 18 eb 49 3e 32 56 c6 bc 5a 5a 3e bd
       -0.022767508 0.19718587 -0.024211023 -0.046472885
0003d0 07 de c3 3d 09 4c ab 3e c2 3a 53 bd 28 ed 1a 3d
       0.09563833 0.33456448 -0.051569708 0.037823826
0003e0 67 94 76 be ad 81 67 be b7 13 26 3e 05 e4 20 3e
       -0.24080049 -0.22608061 0.16218458 0.15711983
0003f0 1e 79 98 bc 12 29 46 3e c1 4c 87 3d ab 71 24 be
       -0.01861244 0.19351605 0.066064365 -0.16058986

lstm.lstm2.bias_ih_l0 f4 [256]
000000 28 13 0c 3e 4a 54 a9 bb 25 97 8a 3e f2 eb 45 3e
       0.13679183 -0.0051675187 0.2706844 0.19328287
000010 03 1c 3a 3c a8 7c d2 bd 85 04 0e 3e 48 f6 59 be
       0.011359218 -0.102776825 0.13868912 -0.21285355
000020 70 1d 57 be 8c 2e 72 bc b6 10 17 be 54 03 99 bd
       -0.21007323 -0.014781605 -0.14752468 -0.07471338
000030 49 6c 8b 3d a0 58 99 3d 86 cc 94 be 0c 3e a5 be
       0.06807763 0.07487607 -0.2906229 -0.322739
000040 cd 86 84 3e 9e 60 31 3e 67 eb 29 bd a5 d9 b6 bd
       0.25884095 0.17322013 -0.041484263 -0.08928231
000050 56 1c 3e be c3 93 e0 bd a0 a0 83 3e b0 0f 39 bd
       -0.18565497 -0.10965683 0.25708485 -0.045180976
000060 49 b8 13 3d 88 64 ee bd 47 f2 f6 bb ed 89 b8 3d
       0.03606442 -0.116402686 -0.007536206 0.09010682
000070 c0 f0 71 3e 8c 26 c6 3d 85 01 0c 3d 6d c9 b1 bd
       0.23626995 0.09675321 0.034181137 -0.08680997
000080 17 b8 ff 3d a5 8f 30 be 0a 6b 0b 3d 05 4a 5d bd
       0.12486284 -0.17242296 0.034037627 -0.05402567
000090 e6 76 46 3e 4a 80 25 be b6 b7 54 3c ed fd be be
       0.19381294 -0.1616222 0.012983253 -0.37303105
0000a0 21 ab ff bd ab cc 2b 3e 5f 04 20 3d 9c 3f b5 3d
       -0.12483812 0.16777293 0.03906667 0.08850023
0000b0 e8 e7 59 3d 78 b6 96 be 3c 48 c2 be e4 81 01 3e
       0.05319968 -0.29436088 -0.37945735 0.12647206
0000c0 59 c7 f4 bd 22 36 45 3b fa 97 de bd da 15 28 3e
       -0.11952085 0.003009208 -0.10868831 0.16414586
0000d0 4c 4a 4c 3d bf 48 2f be 66 d4 10 be 44 d9 51 be
       0.049875543 -0.17117594 -0.14143524 -0.20493037
0000e0 c4 ce 34 3e 1a ab c8 bd eb d6 90 be c2 c7 a8 3e
       0.17657 -0.0979826 -0.2828897 0.32964903
0000f0 cf b9 5d be c8 c1 20 3e a8 7c 52 3d 36 42 38 be
       -0.21652912 0.15698922 0.051388413 -0.17994007
000100 45 39 a0 3c 25 b9 43 be 68 4f 50 3e 10 be 07 3c
       0.019558558 -0.19113596 0.20342791 0.0082850605
000110 98 83 58 3e d9 b9 d7 bd 19 cf 01 3e 98 02 4c 3b
       0.21143949 -0.105334945 0.12676658 0.0031129476
000120 9b e1 8e 3d 7d f4 07 be 6c 18 54 3e f2 97 93 3e
       0.069766246 -0.13276859 0.20712441 0.28826863
000130 c5 2c 02 3e bc 18 67 be d0 e9 13 3e 54 71 24 be
       0.1271239 -0.22568029 0.14444661 -0.16058856
000140 fb 35 7c 3d 7f 1c 04 be 04 19 ba be 9a 4b c0 3b
       0.061574917 -0.12901495 -0.3634721 0.0058683874
000150 fa 0e 5f bd 6c 65 9a 3d 25 e2 0a 3e 59 0b b7 ba
       -0.054457642 0.07538876 0.1356283 -0.0013965174
000160 4f 19 e5 3d c4 b0 87 be 5f 3d ab bd de c0 53 3e
       0.11186468 -0.2650205 -0.08361315 0.20679042
000170 e6 e5 1f 3b 58 b2 7a 3e fe c2 6d be ae fc 9b bd
       0.0024398505 0.24482095 -0.23218915 -0.07616554
000180 bf 8c 29 3e c5 d7 b9 bd 16 79 bf 3d 6f 60 38 be
       0.16557597 -0.09074358 0.09349267 -0.18005536
000190 f4 b3 a2 be ae 63 0c be 82 78 62 3e fd 0d 1f 3d
       -0.31777918 -0.137099 0.22116283 0.0388317
0001a0 16 e9 39 3e 22 a1 c7 be 47 a7 6d be 59 e9 5e 3d
       0.18155321 -0.38990122 -0.23208342 0.054421756
0001b0 96 bc db 3d 20 97 5b 3d 67 a1 85 3e 77 94 41 3d
       0.10729329 0.05361092 0.26099703 0.047260728
0001c0 01 37 f0 3d 99 a4 0f 3e 7b 1a 1e 3e 05 04 22 3e
       0.11729241 0.14027633 0.15439789 0.15821846
0001d0 e2 4c e7 bc 18 ef 0f be fb 32 02 bb 71 65 ea bc
       -0.028234903 -0.14056051 -0.0019866813 -0.028612824
0001e0 ac bd 74 3d 1c 0b b7 bc 2c 4f 5b be af 74 25 3e
       0.059751198 -0.022344165 -0.2141692 0.16157793
0001f0 c2 ce 6d bc b3 31 c2 3d b9 a2 53 3e 37 0d 46 3e
       -0.014514627 0.094821356 0.20667543 0.19340979
000200 93 8f 88 3d d5 62 77 bd 65 c4 8e 3e 45 a4 9d bd
       0.066680096 -0.060396988 0.27884212 -0.076973476
000210 b1 5d 09 be 2a af 32 3e 63 e1 11 3e be fa 76 3d
       -0.13414647 0.17449632 0.14246134 0.06029772
000220 d7 a1 c1 3d 05 3f 16 3d a0 bf 25 3d 03 66 11 be
       0.094546966 0.036681194 0.04046595 -0.1419907
000230 be 47 04 3e a7 d1 94 bd ec 69 27 3e 13 7c 5c 3d
       0.12917992 -0.072665505 0.16349 0.053829264
000240 9a ad 21 3e 91 bc 80 3d f9 a4 4a bc aa 8c 6a bd
       0.1578888 0.06285966 -0.012368434 -0.057263054
000250 10 94 f9 3d e1 18 7b bb 1e 9d f9 bd ac 18 d8 3d
       0.12186444 -0.003831439 -0.12188171 0.10551581
000260 a3 65 62 be 0e be ea 3c 7f eb 59 3b dc c2 be bd
       -0.22109084 0.028655078 0.003325194 -0.0931451
000270 24 8b 83 be c9 fc e6 3d 21 b5 ca bd 6e be 14 be
       -0.25692093 0.11278684 -0.09897829 -0.14525768
000280 94 88 f6 3d ff dd 08 be 8a bb 60 3c 03 34 54 3e
       0.12037769 -0.13365935 0.013716588 0.20722966
000290 3f c1 a3 3c 79 de a3 bd c9 c0 ad 3d b9 3c ac bd
       0.019989608 -0.08001418 0.084840365 -0.084100194
0002a0 46 c6 4b 3e 4b 43 98 be 1c e9 15 bd d0 9b 26 3d
       0.19899854 -0.2973884 -0.036599264 0.040675938
0002b0 a9 4c 52 3e fa a0 97 be f4 22 de ba e7 5d 82 3d
       0.20537056 -0.29615003 -0.0016947673 0.06365567
0002c0 2b 6f 08 be 8e 3f 21 3e 38 48 93 3d 06 ec 62 3d
       -0.13323657 0.157469 0.07191509 0.05540087
0002d0 6c d8 d5 bc 7d d2 b9 3d 09 da a5 3d 91 8c c0 3d
       -0.026104175 0.090733506 0.080982275 0.09401811
0002e0 77 ca 0e be c2 8c 86 3d 68 88 0f 3e d3 2e 35 3e
       -0.13944422 0.06569816 0.14016879 0.17693643
0002f0 79 c5 9e bc 09 13 1f 3e 43 93 2f bd 7e c8 23 3e
       -0.019381272 0.15534605 -0.04286505 0.1599445
000300 78 b3 61 3e 36 f1 37 be 6f 66 89 bd 77 70 3b be
       0.22041118 -0.17963108 -0.06708991 -0.1830462
000310 74 83 92 3b ba 6e 45 3b 3f 63 3f bc 44 c9 7e 3c
       0.004471237 0.0030125813 -0.011681377 0.015550915
000320 78 43 bd 3e 8e 46 25 bd e3 b9 1c 3d c4 d1 4f 3e
       0.36965537 -0.04035049 0.038263213 0.20294863
000330 44 8f c5 3e e7 3e 88 3e de ea 5c 3e 44 b8 9b bd
       0.38585865 0.2661049 0.2157397 -0.07603505
000340 30 7f 49 3e 4d 5f 88 3e a6 96 17 be 3b 71 ac bd
       0.19677424 0.2663521 -0.14803562 -0.084200345
000350 a6 ca d2 bd 03 35 77 3d 89 52 56 be 26 c3 77 bd
       -0.10292558 0.06035329 -0.20929922 -0.060488842
000360 fd fa c0 3e d2 77 c5 bd 44 d0 5f be d6 e4 b9 be
       0.3769149 -0.096419945 -0.21856791 -0.363074
000370 80 ac 38 3e 4f 92 8f 3e 85 58 00 be 30 2c 59 be
       0.18034554 0.28041312 -0.12533768 -0.21208262
000380 09 7e fe bb 20 22 1b 3e e4 4a 5f be ab 02 86 3a
       -0.0077664894 0.15149736 -0.21805912 0.0010224184
000390 bc df 07 3e f0 4e 09 3d d7 66 85 be 28 34 d0 bb
       0.13268942 0.033522546 -0.26055023 -0.0063538738
0003a0 1f c1 8e 3e 81 be c3 bb 06 89 ae 3d c0 a2 4d 3d
       0.27881715 -0.0059736376 0.08522229 0.05020404
0003b0 20 12 a5 3e 6f c8 97 bd 79 d4 67 3d b5 37 2d 3e
       0.3224039 -0.074112765 0.056599114 0.16915782
0003c0 00 a5 fc 3d 71 03 bb bd 20 ee 4d bc 86 d4 2e 3c
       0.12336159 -0.09131516 -0.01256898 0.010670787
0003d0 d7 fd 10 be 49 1f 81 bd d9 68 bd bd e8 b0 50 3c
       -0.14159332 -0.06304795 -0.09248514 0.01273749
0003e0 fd fb d6 bd 5b b2 a5 3e 03 bb 78 be 82 8d 39 3e
       -0.10497282 0.32362637 -0.2429009 0.18120387
0003f0 55 43 5f 3e 09 f4 2d be b2 86 c7 3c f2 b2 89 3e
       0.21803029 -0.16987623 0.02435622 0.26894337
