073123/0809hoxy2.pth (torch, 603272 bytes, 41 tensors)

lstm.conv1.weight f4 [32, 3, 1]
000000 40 91 db 3e e5 97 1c bf 74 80 34 3d ec 8f 85 be
       0.42884254 -0.6116927 0.044067815 -0.26086366
000010 f3 8f f2 3e 11 63 0a bf f7 c2 90 be 66 11 02 bf
       0.4737545 -0.54057413 -0.28273746 -0.508078
000020 eb 6b 4e bd e6 3d 8d be 8a 2c e4 3e e1 f3 c1 3e
       -0.050395887 -0.27586287 0.4456523 0.37881377
000030 17 22 01 3f cd 29 dd 3e fa 92 1c bf 2c bb cc be
       0.5044264 0.43195954 -0.6116177 -0.3998655
000040 2f 24 0f 3f 8f 77 16 3e 00 58 29 be 5f e1 ee bd
       0.55914587 0.14694045 -0.16537476 -0.1166408
000050 eb f0 3a bf 59 12 0a bf 3c c2 04 be 5c d5 e9 be
       -0.7302386 -0.53934246 -0.1296472 -0.45670593
000060 97 23 96 3e 63 40 09 be d0 c8 c3 be 1c 1f 60 3d
       0.29324028 -0.13403468 -0.38239145 0.05471717
000070 a6 32 a4 3e 60 5d b9 3e 43 6d 88 3e 81 69 52 3d
       0.32069892 0.36204052 0.2664586 0.051370148
000080 02 21 7b be 02 7f 14 be 2c c4 10 3e 34 e1 5f 3e
       -0.2452431 -0.14501575 0.14137334 0.21863252
000090 b4 7b ae 3e 76 a8 9b be 93 93 c5 be 1a 88 f8 3e
       0.34078753 -0.30401963 -0.38589153 0.48541337
0000a0 76 6f 8a 3e e6 8b 00 bf c1 b4 d0 3d 37 60 fc be
       0.27038163 -0.5021347 0.10190726 -0.49292156
0000b0 9f d5 fb bd a0 16 0f 3c f0 b5 cf 3d b3 9b 2d bf
       -0.12296604 0.008733422 0.10142124 -0.67815703
0000c0 b2 9a 32 3e 97 5e 19 bf 3c 2f fe 3e b3 fa fc 3e
       0.17441824 -0.5990996 0.49645412 0.49410018
0000d0 a0 9d 78 3e f6 0f a1 3e eb 89 10 bf c2 67 a2 3e
       0.24278879 0.3145749 -0.56460446 0.31719786
0000e0 96 43 00 3f 75 fc cd 3e d3 b0 75 bd 53 ac 45 3c
       0.5010313 0.40231672 -0.059983086 0.012065011
0000f0 0b 6f 46 be 5c ed 5a 3e 42 49 66 3e 9a 15 de be
       -0.19378297 0.21379608 0.22488883 -0.43375856
000100 1c 51 e2 3e cb 18 2c 3e 27 63 0e 3e ac 22 02 bf
       0.44202507 0.16806333 0.13905011 -0.50834155
000110 a5 10 5e 3d d4 16 04 3f d4 41 a3 be e8 8f 14 be
       0.054215092 0.5159733 -0.3188616 -0.14508021
000120 bf 5f 60 3e c3 d2 73 be 1c c5 d5 be 6f 8c 06 bf
       0.21911524 -0.23810868 -0.41751945 -0.52558035
000130 2f b0 f6 be ad 74 4c 3d 12 73 e9 3e 2f f0 10 be
       -0.48181292 0.04991596 0.45595604 -0.14154123
000140 20 77 8b be 2b 82 29 3e a3 d4 3c bc df f0 bb be
       -0.27239323 0.16553561 -0.011525306 -0.36707208
000150 59 8f 27 be 9a aa 0e 3f 1f c2 d4 be c3 9b ca 3e
       -0.16363277 0.5572907 -0.41554353 0.39571962
000160 ee b3 19 bf 5b 6f 94 3e bc 2f 1a 3e 0e d0 f8 3e
       -0.60040176 0.28991207 0.15057272 0.48596233
000170 c3 fe b9 3e 03 01 cf be fc 1e c2 3d b1 8e 32 bf
       0.3632718 -0.4043046 0.09478566 -0.6974898

lstm.conv1.bias f4 [32]
000000 cf 74 25 3e 4a a7 4c 3e bd dc 5d 3e da 99 86 be
       0.1615784 0.1998569 0.21666236 -0.26289254
000010 12 1c dd be 69 2c a8 be 8e bc c2 be da e2 a0 3d
       -0.43185478 -0.32846382 -0.3803448 0.078557685
000020 4d bd fd 3c 47 bf e3 be cd e4 0d 3f ba 19 03 3f
       0.030974055 -0.4448187 0.5542725 0.5121113
000030 75 ba 25 3e bc 31 08 bf 25 81 27 3d 19 73 e9 be
       0.16184409 -0.5320089 0.040894646 -0.45595625
000040 fc 5d 09 3f 19 99 46 3e 57 65 b1 3e 43 bb ab 3e
       0.53659034 0.1939434 0.3464763 0.33541307
000050 a8 c6 9c be c3 9d 96 be 78 f6 07 bf 2d c3 a3 bd
       -0.30620313 -0.29417238 -0.53110456 -0.07996211
000060 de ff 1a 3e cd e0 a9 3e f6 0f 0d bf bd 15 73 3e
       0.15136668 0.33179322 -0.5510248 0.23738761
000070 0b b0 7e 3e 11 01 ab be 46 1a c8 bd 62 72 fc be
       0.24871843 -0.3339925 -0.09770636 -0.49306017

lstm.conv2.weight f4 [64, 32, 1]
000000 28 47 3c be 04 8a 14 3e 47 6f fe ba 77 55 5c 3c
       -0.18386519 0.14505774 -0.0019411825 0.013448111
000010 ca 02 eb 3d e6 ae 21 3e ea b0 01 3d 0f 4a 95 bc
       0.11475141 0.15789375 0.03166286 -0.01822379
000020 53 23 0f 3e 37 16 85 3d 2f 41 b2 bd 87 1b c1 3d
       0.13978319 0.06498378 -0.08703839 0.094290785
000030 e0 75 4e bd 17 78 4c 3e f3 0d 16 be 96 29 13 3e
       -0.050405383 0.19967686 -0.14653759 0.14371333
000040 93 60 9c 3d 06 6d 2d 3e 76 47 93 3d 42 f0 50 bd
       0.076356076 0.1693612 0.071913645 -0.051010378
000050 d9 79 b1 bd 24 b7 89 bd 3a cb ba 3d f2 54 3e 3e
       -0.08665819 -0.067243844 0.09120794 0.18587092
000060 73 56 13 be f6 dd 12 bd 17 38 78 bd 79 93 30 3d
       -0.14388447 -0.03585621 -0.060600366 0.04310939
000070 ff 39 52 be 19 83 1a bd 6c 51 29 3e db 39 3e 3e
       -0.20529936 -0.03772268 0.16534966 0.18576758
000080 f5 e3 51 be 2d b1 0c bd d8 8a ef 3d ee 1b bd bd
       -0.20497115 -0.034348655 0.11696404 -0.09233843
000090 af 6c 22 be 39 89 43 3d 78 9b 11 3e 87 29 e3 bc
       -0.15861772 0.047738288 0.14219463 -0.027729763
0000a0 9a 1c a0 3d 64 18 6a 3d bc 62 f9 bc 37 fd d1 3d
       0.07817955 0.057152167 -0.030442588 0.10253375
0000b0 17 3f 43 bd f3 90 ae bd 2f f0 d1 3d 60 40 25 3d
       -0.04766759 -0.085237406 0.102508895 0.040344596
0000c0 48 63 0a 3e a6 2d 84 bd 36 aa 05 be 4b 2f f1 bd
       0.13514435 -0.06454019 -0.13053212 -0.117765985
0000d0 52 36 eb 3d b5 7d c9 3d 28 14 06 be 21 b5 44 be
       0.1148497 0.0983843 -0.13093626 -0.1920972
0000e0 70 0b 22 3d f4 14 c9 3d 1a 92 e5 bd 2d 62 e0 bd
       0.03956169 0.098184496 -0.11209507 -0.109562255
0000f0 bb 71 10 be c0 b7 20 bc fe 06 35 3e b9 ca 67 3d
       -0.14105885 -0.009809434 0.17678449 0.056589816
000100 c7 26 e7 bc ae 3b 82 3e c5 c6 b5 3d 14 49 df bc
       -0.028216733 0.25436157 0.08875803 -0.027256526
000110 6a d8 d9 3c 3c 5a 01 3e 36 f5 62 bd cb be 90 bd
       0.026592452 0.12632078 -0.055409633 -0.07067641
000120 05 30 fd 3d 9f 96 c4 3d 7e b5 26 be 73 9e 82 bd
       0.123626746 0.09599041 -0.16280171 -0.06377878
000130 31 e4 db bc 6b f3 01 3e 8e 06 17 3e c0 7a 51 3a
       -0.026842209 0.12690513 0.14748594 0.00079910085
000140 42 22 da bd 4d f2 2b be be 57 3b 3c 85 ec 41 bd
       -0.106510654 -0.16791649 0.011434494 -0.047344703
000150 5c 96 75 3d 24 3b 83 3d 58 a4 05 3e 12 27 df 3d
       0.059957847 0.064077646 0.13050973 0.10896124
000160 96 07 52 bc d5 63 2a 3e 78 64 07 be b3 b3 a3 3d
       -0.012819191 0.16639645 -0.1322192 0.07993259
000170 d7 ab a5 3d be 39 41 3e 01 d1 42 bd aa 35 27 3e
       0.080894165 0.18869683 -0.047562603 0.16329065
000180 f8 37 d6 3d 54 21 4d bd 6f 4d b9 bd 15 81 8d bd
       0.10459894 -0.050080612 -0.090479724 -0.06909386
000190 ae f5 2b bd 40 33 9e 3c 30 21 40 3d 0c 5b 22 be
       -0.041982345 0.019311547 0.04690665 -0.15855044
0001a0 b5 06 06 3e 34 2a 24 3e 7c 2f 41 bc 02 2e c6 3c
       0.13088496 0.16031724 -0.011791106 0.02419186
0001b0 bd 3e 05 be bb 97 84 3e b8 83 08 3e a0 35 40 be
       -0.13012214 0.2589701 0.13331497 -0.18770456
0001c0 eb 86 a7 3d 60 35 5f 3e 42 20 51 bd b5 d5 3b bc
       0.081800304 0.21797705 -0.051056154 -0.011464526
0001d0 63 1e 26 bd 0d 17 6d 3e 12 d4 97 3a 2a a3 da 3d
       -0.040556323 0.23153324 0.0011583588 0.10675652
0001e0 aa f4 14 be ca 5e 97 bc 52 40 09 3d 6f 15 03 bd
       -0.14546457 -0.018477816 0.033508606 -0.032002863
0001f0 65 64 77 bd b0 c7 16 be 45 c0 59 bd a6 96 55 be
       -0.060398478 -0.14724612 -0.05316188 -0.20858249
000200 58 0c da 3d ef 17 5f ba 8a 75 4c 3d af 28 88 3d
       0.10646886 -0.0008510341 0.04991678 0.06648385
000210 16 14 fc bd df 8a ee bd 00 99 31 3d ac 91 64 3d
       -0.123085186 -0.11647581 0.043358803 0.055802986
000220 93 ee 7d 3a ce a6 e6 3d 88 58 94 b8 15 97 e2 3d
       0.00096867344 0.11262284 -7.07368e-05 0.11063973
000230 6c 3c 1c 3e e1 f2 18 be f6 6d 0f be 70 ea 2c 3e
       0.15257424 -0.14936401 -0.1400679 0.16886306
000240 5a e9 3a be 99 4e 21 bd bb 27 0b bc 1c db 17 3d
       -0.18253079 -0.039381597 -0.008493359 0.037074193
000250 f0 03 81 3d 29 0b 87 3d 50 fa fd 3d 12 b5 26 3e
       0.06299579 0.065939255 0.12401259 0.1628001
000260 c4 f6 64 3e 6c 20 2f bc ae 31 19 be 84 0f 4d bd
       0.22359759 -0.010688882 -0.14960358 -0.050063625
000270 38 1e 17 3c c2 3b 47 be 00 f3 0a be 77 51 d5 bd
       0.009223513 -0.1945639 -0.1356926 -0.10415929
000280 5f c8 fb 3c 7b e4 18 3e 1e 17 e3 bd e7 eb 49 3e
       0.030735193 0.14930908 -0.11088394 0.19718896
000290 c8 ca 2d 3d e9 e2 ad 3b 85 34 09 be 5f 9e 04 be
       0.042429715 0.005306591 -0.13398941 -0.12951039
0002a0 b5 0e 45 be 3e 56 39 3e cb 8f 55 3e ea 5c f8 3d
       -0.19243892 0.18099305 0.20855634 0.12127097
0002b0 f2 0d 3c be 38 0f b4 3c 6a f8 9e 3d 10 7b f9 bd
       -0.18364695 0.021979913 0.07762225 -0.121816754
0002c0 ff 43 e5 3d 2f 36 a3 bd c9 cb 8d 3d 61 d4 89 3d
       0.1119461 -0.07969319 0.069236346 0.06729961
0002d0 ca de 48 3e cd 33 c2 bd 96 ed b0 bc d0 28 2b bd
       0.19616237 -0.094825365 -0.021597665 -0.04178697
0002e0 db 15 d3 bd a3 a2 ac bc 16 28 fd 3d 54 95 ee 3c
       -0.10306903 -0.021073645 0.123611614 0.02912394
0002f0 b9 c6 f0 3d 01 be 82 bd e4 52 06 bb b8 f9 2b 3b
       0.11756653 -0.063838966 -0.0020496184 0.0026241373
000300 cb db 0a bd 4b ad c0 3d 5a 69 46 be 21 fe db bd
       -0.033901017 0.09408053 -0.19376126 -0.107418306
000310 5f 63 0b be 6b bc 06 3d ff 01 2d be a7 05 ae 3d
       -0.13612126 0.032894533 -0.16895293 0.08497172
000320 d0 fa 19 be 41 b5 4a 3d 07 08 92 bd 4b 91 54 3e
       -0.15037084 0.049489263 -0.07130437 0.2075855
000330 0b d3 81 bd 4e d2 e5 3d 4d 44 05 3c da 32 14 bd
       -0.063390814 0.11221753 0.00813396 -0.03618131
000340 8e a1 74 3d 98 b0 04 bc c3 a2 27 be f3 e3 8f bd
       0.059724383 -0.008098744 -0.16370682 -0.070259
000350 1f 02 2e 3e 11 0e 15 bc b2 6b 01 bd bd 76 82 3e
       0.16992997 -0.009097592 -0.031596847 0.25481215
000360 42 61 2e be d2 85 51 bd 2e a4 da 3d 9d 2e 2a 3e
       -0.17029288 -0.05115301 0.10675846 0.16619344
000370 57 a3 c7 3d 4e c9 9f bc b9 d2 2d 3e b1 39 d4 bd
       0.097479515 -0.01950517 0.16974916 -0.10362566
000380 a9 1c e8 bc 4d c1 b4 3d ed 7b 08 be 4f c4 30 3e
       -0.028333979 0.08825932 -0.13328524 0.17262386
000390 b0 94 49 3e fa 5b 09 be e7 de 00 3e 37 89 91 3d
       0.19685626 -0.13413993 0.1258503 0.0710625
0003a0 16 1e 0a bc 54 99 89 bd 09 7b 9d bc bf 4d 40 3e
       -0.008430025 -0.06718698 -0.019223707 0.18779658
0003b0 c6 70 cc bd ea a0 1f 3e 48 cb 2e be cd 9d 34 be
       -0.09982447 0.15588728 -0.17069733 -0.17638321
0003c0 73 96 ee 3d ce 40 b4 bd 1d 11 9f 3c 3d 78 0d 3e
       0.1164979 -0.08801423 0.01941734 0.13815399
0003d0 22 5e c2 bc d7 31 e0 3d 03 fb 14 be 2a 16 9a bd
       -0.023726527 0.10947006 -0.14548878 -0.07523759
0003e0 45 9c 35 be 57 19 b6 3d 65 cb a2 3d 1a 9f 62 bd
       -0.17735393 0.08891552 0.07948951 -0.055327512
0003f0 52 df 26 bd 40 e1 ed 3d 12 81 4a 3e 31 ee 84 bd
       -0.04074032 0.11615229 0.19775799 -0.06490744

lstm.conv2.bias f4 [64]
000000 98 6d 27 be ab 14 ec bd 7a 9e b5 3b d9 c4 85 3d
       -0.163504 -0.115273796 0.0055425735 0.06531686
000010 b5 46 07 3e 82 86 1b be 4b 43 d0 bd bf c4 d0 3d
       0.13210566 -0.1518803 -0.10169085 0.10193776
000020 4d b2 a6 bd ce 51 26 3e 75 de cf 3d 8b 68 0b be
       -0.08139477 0.16242144 0.10149852 -0.13614099
000030 0c d8 ba bd 7d 88 b7 3d f8 1d e1 3d 68 71 a4 bd
       -0.09123239 0.0896158 0.10992044 -0.08029443
000040 25 36 2f be ba 78 21 3e 12 2b 46 3d ec 31 4b 3a
       -0.17110498 0.1576871 0.04838092 0.00077512744
000050 33 14 34 be 03 6a 0f 3e 05 0b 18 be 89 66 2d be
       -0.1758583 0.14005284 -0.14847954 -0.16933645
000060 a1 7e c8 bd ac 1e 0f 3e 34 4e 82 bc fa 2a dc 3d
       -0.097897775 0.13976544 -0.01590643 0.10750385
000070 7d 77 e5 bc f9 c6 43 3d 4a 9d 22 3c d1 9c c7 3d
       -0.028011078 0.047797177 0.009925196 0.09746707
000080 2b 1c da bc f7 82 cc 3d 16 c7 00 3c 71 4b 98 bd
       -0.02662476 0.09985917 0.007859966 -0.07436264
000090 e1 ca cf bd 69 5e 2c bd 85 2a 1c 3e a1 2f 06 be
       -0.10146118 -0.042082224 0.15250595 -0.13104106
0000a0 0e fe f9 bd 57 f5 05 bd 81 46 d8 3d f7 81 92 bd
       -0.1220666 -0.032704677 0.105603226 -0.07153695
0000b0 49 d1 30 bd 48 29 84 3d e0 2a 30 be d1 21 33 3e
       -0.04316834 0.06453186 -0.17203856 0.17493369
0000c0 21 d9 79 3d 78 20 89 3d 49 0e c8 3d c8 93 19 3e
       0.060998086 0.06695646 0.0976835 0.1499778
0000d0 3e 1c 60 3d 07 d6 b5 3d 9c 83 90 3d c1 08 b0 bc
       0.054714434 0.08878713 0.070563525 -0.02148855
0000e0 7d cc 0d bd 2e f5 07 be 0b cb 19 bd cf 56 27 bd
       -0.034618843 -0.13277122 -0.037547152 -0.04085427
0000f0 15 d1 46 bd 87 fd 27 3e 4a df c1 3d 0c 4d 03 be
       -0.04853924 0.16405307 0.09466417 -0.1282236

lstm.encoder_lstm1.weight_ih_l0 f4 [128, 10]
000000 91 db 6c 3c f2 15 11 3d 18 27 d4 3d 2d 9f 22 be
       0.014456646 0.03542132 0.10359019 -0.15881033
000010 e4 09 7d bd aa 34 1a 3e d2 a2 7e 3d 49 c0 95 3d
       -0.06177701 0.15059152 0.062166996 0.07312066
000020 f3 6d 48 be 43 10 6c bd 24 5c 2b be 6c 62 03 be
       -0.19573192 -0.057632696 -0.16734368 -0.12830514
000030 cb 71 24 be ba e0 c7 3d 6e 2f 31 be ee c9 02 3e
       -0.16059034 0.0975966 -0.17303249 0.12772343
000040 1b cb 02 3d ab 83 e9 bd 4b aa 04 bd 1a 86 89 3d
       0.031931978 -0.11402067 -0.032388967 0.06715031
000050 44 0d 69 3d aa 33 9c 3d 98 c0 3a be b2 ba 23 3d
       0.056897417 0.07627042 -0.18237531 0.03997297
000060 c0 6e f0 bd 5d 8a 37 3d d8 be a0 bb 16 66 55 3e
       -0.11739874 0.044809688 -0.004905563 0.20839724
000070 bf 73 f1 bd fd bd 03 3e 64 11 b1 bd 35 b1 2e bd
       -0.11789655 0.12865444 -0.08645895 -0.042649467
000080 0a 6a 66 3d 5d 66 a1 3d 16 7c 10 be ef 34 80 3c
       0.05625347 0.07880852 -0.14109835 0.01565024
000090 20 39 2c be 01 a1 dd 3c a8 fb 51 3e 10 a4 53 3e
       -0.16818666 0.027054312 0.20506155 0.20668054
0000a0 ea 08 92 3c bc 8d 03 3e a7 84 60 3d 70 30 c7 3d
       0.017826516 0.12847036 0.054814007 0.097260356
0000b0 1e 05 7d bd 14 99 09 be 9c 46 d2 3c 5d b2 59 3e
       -0.06177246 -0.13437301 0.025668435 0.21259446
0000c0 a2 a1 32 3e cd 2d 93 3d 8e 5f 2a be 78 7b 36 be
       0.1744447 0.0718647 -0.16638014 -0.17820537
0000d0 1f 27 0a be a1 6d f1 3c 4f bf 33 be 77 68 0b 3d
       -0.13491486 0.02947122 -0.17553447 0.034035172
0000e0 b0 c1 ca bd af b0 b8 3d cc 9c 73 bd 09 f3 1c bc
       -0.09900224 0.09018075 -0.059475705 -0.0095794285
0000f0 3f df f7 3d 73 80 30 3d 4a ae 92 3d de f6 f0 3c
       0.12103128 0.04309125 0.07162149 0.02941459
000100 04 1f 52 3e 39 18 c9 bd 3f 7f 64 bd b7 06 5c 3c
       0.20519644 -0.09819073 -0.055785414 0.013429335
000110 e5 b8 0d bd 6f 9d e3 bd 6d 20 0d be fe 42 ee bd
       -0.034600157 -0.111140124 -0.137819 -0.116338715
000120 94 2b e8 bd 16 a4 34 bd da 45 5c 3d 4c fa f2 bd
       -0.11336437 -0.044101797 0.053777553 -0.118641466
000130 38 21 72 bd 2a 6f ae 3d 23 91 a7 3d 73 38 c1 3c
       -0.05911371 0.085172966 0.081819795 0.023586487
000140 ea 42 0d be 05 b6 5e be 0a dc 10 be e5 36 73 ba
       -0.13795057 -0.21749122 -0.14146438 -0.0009277894
000150 84 a3 09 bd 6b 5a 47 3d 03 1b a4 bd 1e 95 6f be
       -0.033603206 0.048670214 -0.080129646 -0.23396727
000160 d5 0d 9d be 0b b7 ba 3d a2 67 b6 bd 68 83 3c 3e
       -0.30674616 0.09116944 -0.08906485 0.18409503
000170 3d 95 0b 3e f1 d2 0c be 26 66 05 be c6 32 40 be
       0.13631149 -0.13752343 -0.13027248 -0.18769369
000180 2b a7 76 3c f6 4b cd 3d 30 df ee bd d9 34 07 be
       0.015054504 0.10024254 -0.116636634 -0.13203754
000190 39 e5 62 3d 8b a6 4d be 3a 05 df 3d df 7b c3 3d
       0.055394385 -0.20083062 0.10889669 0.09545111
0001a0 d3 24 3e be b8 e8 55 be 2b d0 e2 3d 92 1e 7d be
       -0.18568735 -0.20889556 0.11074861 -0.24718693
0001b0 de ae c2 bd d4 0e 7a be fb 83 b0 3c ef 7b 34 be
       -0.095060095 -0.24419719 0.021547308 -0.17625402
0001c0 39 18 a1 3d 2a c1 df 3b 28 18 40 bd 7e 4b 5a be
       0.07865948 0.006828447 -0.046898037 -0.2131786
0001d0 7c ec b9 3d c3 05 01 be 44 15 06 be e0 6f 4f 3e
       0.09078309 -0.12599854 -0.1309405 0.2025752
0001e0 e0 d5 80 bd 48 5c 2f 3d 13 f2 b4 3d c4 a2 6e be
       -0.062907934 0.042812616 0.088352345 -0.23304278
0001f0 4d 9d 33 3d 66 b9 9b bd 02 4b 0a 3e 5f f6 07 3e
       0.043851186 -0.07603721 0.13505176 0.13277577
000200 1e bb bc 3c ef e4 38 3d 9e b8 2a be 94 92 c5 bd
       0.023038443 0.045140203 -0.16671988 -0.09647098
000210 11 4f 86 3d 4c 16 f6 bd 4a af 2b 3e b7 12 51 bb
       0.065580495 -0.120159715 0.16766086 -0.0031902024
000220 04 f2 39 3e 9a 37 88 3b 2b 5a cf bc e2 d5 89 3d
       0.18158728 0.004157019 -0.02531155 0.06730248
000230 5c b7 b9 3c 8f 1f 38 b8 90 55 91 bd 50 0a 08 3e
       0.02267044 -4.389841e-05 -0.07096398 0.13285184
000240 4c 61 8d 3d bf ef 94 3c 9b 23 94 be c3 4d 3f be
       0.069033235 0.018180726 -0.28933415 -0.18682007
000250 70 7f 86 3e d9 21 00 be 54 15 58 be 6a 04 6d be
       0.26269102 -0.12512912 -0.21101886 -0.23146215
000260 d0 18 36 bd 14 3d fb bd 5e af 8f bc f5 df 28 be
       -0.044457257 -0.12267509 -0.017539676 -0.16491683
000270 23 ad a9 3d 19 f7 d8 bd e3 2a 6d 3d e1 da 89 bc
       0.08284976 -0.10594005 0.057902228 -0.016828002
000280 39 35 18 bd 01 24 47 be 4a 50 6a be 29 7f c7 bd
       -0.037160132 -0.19447328 -0.2288219 -0.09741051
000290 57 74 2d be 2e 30 25 be 3d c5 de 3c 68 65 9d bd
       -0.16938911 -0.1613166 0.02719366 -0.07685357
0002a0 f8 6b d1 bd 17 ed ea bd d9 02 0c 3d 43 9f 91 3e
       -0.102256715 -0.114710025 0.034182403 0.2844182
0002b0 fe d1 d8 bc ae f3 f9 3c 80 07 40 3e a1 8a b7 3d
       -0.02646732 0.030511703 0.18752861 0.08961988
0002c0 ff 0a 25 3d ae 66 29 be 08 7f 3f 3d 68 7b 5f bd
       0.04029369 -0.16543075 0.046752006 -0.05456105
0002d0 63 df 34 3e ae 33 01 be f0 6f 4c 3d d3 ac 09 be
       0.1766334 -0.1261737 0.04991144 -0.13444833
0002e0 69 2f 66 be d5 ec f6 bd 06 e9 08 be 17 e5 87 3e
       -0.22479023 -0.12056891 -0.13370141 0.2654197
0002f0 4d 88 22 3e 7a a3 50 3e 5c 0c 9c 3c 23 2f 60 3d
       0.15872307 0.20374861 0.019048862 0.054732453
000300 de ae 25 3e f7 c3 0c 3e 8f 04 ad 3d d8 24 f6 bd
       0.16179988 0.1374663 0.08448135 -0.12018746
000310 d6 81 f4 bd a8 b3 50 be 17 62 a6 bd 19 c1 ec bb
       -0.11938827 -0.20381033 -0.08124178 -0.0072251675
000320 40 2e 2b 3c b4 c2 15 3e ae 49 e6 bd c4 d3 97 3b
       0.010448039 0.14625055 -0.11244522 0.0046333987
000330 ac 12 08 3d da 7f 8b bd 43 53 61 bd 98 f8 c4 bd
       0.033220932 -0.06811495 -0.055011045 -0.09617728
000340 c4 5f 8a 3c bc ce de 3d 95 cf f9 bd d8 5d 2a be
       0.016891368 0.10879275 -0.12197796 -0.16637361
000350 bf b6 fd bd 84 fd d2 bd fe ed 52 be 52 07 75 bc
       -0.12388372 -0.103022605 -0.205986 -0.014955359
000360 e1 64 1c 3c eb a8 02 3e df b8 43 3e 9f 92 19 be
       0.009545536 0.1275975 0.19113491 -0.14997338
000370 a5 76 0f 3e 56 4a ba 3d 58 b0 40 be f6 2f 32 bd
       0.14010103 0.0909621 -0.1881727 -0.04350277
000380 33 73 77 3d b9 b8 f9 bd fe 7f d7 bd 5d eb d2 bd
       0.060412597 -0.12193436 -0.105224594 -0.10298798
000390 07 da 45 be 77 ae 1a 3e 18 6a c8 3d fb 67 4b 3c
       -0.19321452 0.15105616 0.09785861 0.012414928
0003a0 59 9b 0a bd 06 a3 5e 3c 7e b1 0b be 2d b0 11 be
       -0.033839557 0.0135886725 -0.13641927 -0.14227362
0003b0 7b 9c 30 3c 1d 26 ac bc 62 a8 56 be 7a 3a af bd
       0.010779495 -0.021014268 -0.2096267 -0.085560754
0003c0 1e 6d ca 3d 75 59 bd bd 44 81 20 be 9a ed 8d be
       0.09884094 -0.09245578 -0.15674311 -0.27720338
0003d0 34 1f 20 be f7 bb 56 3e 64 21 c8 bd e9 75 31 be
       -0.15636903 0.2097014 -0.09771994 -0.17330135
0003e0 04 9c 67 3d 69 a3 9a 3d c1 e8 86 3d 27 66 0c bc
       0.056545272 0.07550699 0.06587363 -0.008569277
0003f0 27 50 cf 3d 63 d0 1d be 34 d3 5f be 3d b6 95 bc
       0.1012271 -0.15411524 -0.21857911 -0.018275375

lstm.encoder_lstm1.weight_hh_l0 f4 [128, 32]
000000 00 31 91 bc 27 6e d0 3d 35 0c e1 bd 45 24 0a 3d
       -0.01772356 0.1017726 -0.109886564 0.033725996
000010 c0 9c 62 bd e6 84 02 be 9b a7 86 39 03 0e b3 3c
       -0.05532527 -0.12746009 0.00025683347 0.021857267
000020 e0 a9 e7 bd e1 e3 62 be 86 f4 31 be d2 9b 03 3e
       -0.11311698 -0.22157241 -0.17378435 0.1285241
000030 ea 92 e5 3d e3 34 8b 3d ca 67 be bd 57 de 56 be
       0.11209662 0.06797197 -0.0929714 -0.20983253
000040 31 ce 6b 3a 12 44 4b be e9 00 e6 bd e3 b8 2b be
       0.00089952635 -0.19850186 -0.11230642 -0.16769747
000050 85 75 7a 3d 73 b5 a3 bd ad f0 11 be 69 e9 c5 3d
       0.06114723 -0.07993593 -0.14251967 0.0966366
000060 e9 94 72 3d 00 9e de 3d 02 85 75 3d d5 c9 03 3e
       0.059224043 0.1086998 0.0599413 0.12869962
000070 32 6b b7 3d 10 21 5b bd 16 20 b4 bd 37 5a ad 3d
       0.08955993 -0.053498328 -0.087951824 0.08464473
000080 d7 31 b6 3d d3 de de 3c 20 b5 64 3c c4 3e c9 3d
       0.08896225 0.02720586 0.013959199 0.09826425
000090 27 af f6 bd 2c a0 b1 3d 86 28 c3 3c 42 77 84 3d
       -0.120451264 0.086731285 0.023823034 0.06468059
0000a0 7e 0a 83 3d 53 3c 9a 3b c7 d5 3d 3e 79 9d 21 3e
       0.063984856 0.0047068982 0.18538581 0.15782727
0000b0 46 cd 47 bd b9 5a 9c ba 29 90 26 be 42 a8 76 be
       -0.04877975 -0.0011928893 -0.1626593 -0.24087623
0000c0 98 a7 07 be 3c f6 e1 3d b5 f5 a7 3c b8 bd 0e bd
       -0.13247526 0.110332936 0.020502904 -0.0348489
0000d0 b9 a1 69 3a ec 50 c0 3c 29 f7 bf 3c 6a 20 76 bd
       0.0008912343 0.023476087 0.023433285 -0.060089506
0000e0 e4 d8 b1 3b 00 6b aa bd a8 c0 13 3e 07 f4 a0 3c
       0.0054274667 -0.0832119 0.14428961 0.019647611
0000f0 94 89 b2 bb af 30 26 be 2a ce 3c 3d 56 59 37 3e
       -0.0054485295 -0.16229509 0.04609505 0.17905173
000100 65 e5 01 3e fc 6c 9c 3d 3f 26 1c be 80 00 98 3c
       0.12685163 0.076379746 -0.15248965 0.018554926
000110 c4 f9 c3 3d 0a bd d2 bd dd ce 09 3d a2 08 b4 3b
       0.095691234 -0.102899626 0.033644546 0.005494193
000120 63 e0 40 3e 86 ac ad 3c 29 ef 04 be ef 46 a5 3d
       0.18835597 0.02120043 -0.12981857 0.0807017
000130 83 65 37 be 5e 19 42 bb 71 7c 3d be c7 52 6c 3d
       -0.17909817 -0.002961717 -0.18504502 0.05769613
000140 d5 77 37 3d 87 5b 20 be fb e9 47 be 6a 94 86 3d
       0.044792015 -0.15659915 -0.1952285 0.065712765
000150 35 7b 57 bd ea 51 47 3e 3c 8e 9d 3d 31 85 1c 3d
       -0.052607734 0.19464841 0.07693145 0.03821296
000160 23 73 28 3d 30 e8 02 3d 1c ce a3 bc 8e 54 78 3d
       0.041125428 0.031959713 -0.019995742 0.060627513
000170 2e d6 07 be 0f aa 6e bd cc 76 3a be db 99 23 3d
       -0.13265297 -0.05826765 -0.1820938 0.03994165
000180 fd 82 04 be 53 96 9e bd ba 63 a5 bd 49 b6 81 3d
       -0.12940593 -0.07743516 -0.08075662 0.06333596
000190 33 3c 2f 3e f1 43 dd 3d 62 c0 db bd 52 76 9d bd
       0.17112808 0.108039744 -0.107300535 -0.076885834
0001a0 1f 3f 83 bd bc dc 12 be 72 ab b1 bd 57 6e d0 3d
       -0.06408524 -0.14342016 -0.08675279 0.10177296
0001b0 16 c3 3d be 0a 2d bb bd 99 0e 08 bd e1 02 b8 bd
       -0.1853145 -0.0913945 -0.033217046 -0.08984924
0001c0 f6 75 fc bd ec da 04 be aa 04 02 be 3d 31 95 ba
       -0.12327187 -0.12974137 -0.12697092 -0.0011382472
0001d0 0b 1d 89 3d a2 77 2c 3e e6 2c 40 be 8e 80 0f be
       0.06694993 0.16842511 -0.18767127 -0.14013883
0001e0 db 27 09 be 26 5b bb 3d 72 a7 df bd 7e b7 3b 3e
       -0.1339411 0.091482446 -0.109206095 0.18331715
0001f0 6a 1a d4 3d 61 22 2b 3e d8 f4 24 be 9c fa 08 3e
       0.103566006 0.16712333 -0.16109025 0.1337685
000200 10 c9 6a 3e f4 0c 49 3e 28 11 8a bd 03 a0 01 be
       0.22928262 0.19633847 -0.067415535 -0.12658696
000210 e7 f0 08 bc b8 41 35 be 76 15 9e bd 4f 51 40 be
       -0.008358217 -0.17700851 -0.07718937 -0.18781017
000220 9f 30 8d 3b da f7 ea bc 4c 19 a3 bd e6 98 e5 bd
       0.0043087746 -0.028682638 -0.07963809 -0.11210804
000230 6d 9d 0e 3e 98 54 03 3e 94 77 47 be b7 49 1c be
       0.1392724 0.12825239 -0.19479209 -0.15262495
000240 68 b9 53 3d ec 25 73 be 0f fd 2b 3e b0 be 09 be
       0.05169049 -0.23744935 0.16795753 -0.13451648
000250 bf 2e 2d 3e 76 9d 2d be bc 63 b7 bd 51 a8 fb 3d
       0.16912363 -0.16954598 -0.0895457 0.12287963
000260 b4 eb a3 bd f9 0d 1d 3c 1f 6c 07 3d 27 a8 0a bd
       -0.08003941 0.009585851 0.033062097 -0.03385177
000270 cb ec c4 bd 29 e4 22 be 32 99 53 be 03 7d 16 3e
       -0.09615477 -0.15907349 -0.20663908 0.14696126
000280 b7 2a 0e be 0d bd 10 3d 60 4c fa bd 66 4c 28 3e
       -0.13883482 0.035336543 -0.122215986 0.16435394
000290 bb 02 78 bc b8 d7 26 3c b9 60 86 bc 9f f1 e3 bd
       -0.01513737 0.010183267 -0.016403543 -0.1113007
0002a0 c5 d4 c4 3d 3a f4 52 bd 1d bd cf bc c6 6b 82 bd
       0.09610895 -0.051502444 -0.02535873 -0.063682124
0002b0 74 e2 42 bc e8 2f 7e 3d 5d a2 70 3d 87 dd ce 3d
       -0.011894811 0.062057406 0.05874859 0.10100847
0002c0 b6 d6 b4 bb b7 29 3c be 3d 54 bf bd ed a1 d4 bd
       -0.0055187596 -0.18375288 -0.09342239 -0.103824474
0002d0 82 ac 96 3b f3 81 f8 bc 38 87 3b 3e 3e c1 44 3d
       0.0045982013 -0.030335402 0.183133 0.048035853
0002e0 31 7f 2f 3e 71 1a 1f bc e8 d4 03 3e 51 d1 ba bc
       0.17138363 -0.009710894 0.12874186 -0.022804888
0002f0 46 2e 17 be 1e cf 1e 3e b6 58 0c be f5 90 52 be
       -0.14763746 0.15508696 -0.13705716 -0.20563109
000300 cc b8 ba bb 59 e7 07 be 7a f8 21 3e df 5e b5 3d
       -0.005698299 -0.13271846 0.15817443 0.08855986
000310 f1 b3 c1 bd 4c f2 bc 3d d9 ec b5 bc 6d ee 68 3d
       -0.09458149 0.09225902 -0.022207664 0.056868006
000320 c9 73 ce bd 17 22 1e 3e 61 9a 42 3e 5e 6e 40 3d
       -0.10080678 0.15442692 0.19004203 0.046980254
000330 60 36 f9 3d fb 94 86 3d 0c 30 4b 3e e8 c5 9e 3d
       0.12168574 0.065713845 0.19842547 0.07752591
000340 65 68 e7 bd b5 c1 81 bd cb 66 e0 bd 05 fc ca bd
       -0.112992086 -0.06335775 -0.10957106 -0.0991135
000350 23 1e 04 be fb f9 0c 3e ed 1c 57 3e f5 3f 2a bd
       -0.12902121 0.13767235 0.21007128 -0.0415649
000360 78 cd bd bd eb 8c 86 be 3f 18 a5 3d 5e 2e c7 bd
       -0.09267706 -0.26279387 0.08061265 -0.09725641
000370 b9 52 3f 3e 4a 18 a1 3d fb eb 79 3d 7b d4 c1 bd
       0.186839 0.07865961 0.061016064 -0.094643556
000380 09 38 80 3d 9a 97 fd bd 1e 67 d0 bd 98 6c 31 3e
       0.06260688 -0.12382431 -0.10175918 0.17326581
000390 90 28 af 3d 78 14 b5 bd 5c fd ef bd db 5c c8 bd
       0.085526586 -0.08841795 -0.11718246 -0.09783336
0003a0 12 73 d4 bd 46 7b b7 3d 40 88 c9 3d 02 42 25 3e
       -0.103735104 0.089590594 0.09840441 0.16138461
0003b0 c7 49 73 3d ca 20 0f 3e 41 45 67 3d f5 9a 70 3c
       0.05939653 0.13977352 0.05646253 0.014685382
0003c0 69 b7 95 3d 89 68 00 3e cf 60 50 be 2e 83 51 bd
       0.07310373 0.12539877 -0.2034943 -0.051150493
0003d0 01 53 9b 3d 66 01 0c bd 72 4a 28 3e f7 84 1f be
       0.07584191 -0.03418102 0.16434649 -0.15578066
0003e0 c4 ab b1 3d 92 d1 1e be f0 11 b4 bd 82 62 8c 3d
       0.0867534 -0.15509632 -0.08792484 0.068547264
0003f0 23 fc 88 3d 3d 88 80 bd ae 3f c4 3d 77 33 91 3d
       0.06688716 -0.062759854 0.095824584 0.07089894

lstm.encoder_lstm1.bias_ih_l0 f4 [128]
000000 63 6b 4a 3d f8 b3 25 3e e6 54 1e be a4 d9 ce bd
       0.04941882 0.16181934 -0.15462074 -0.101001054
000010 33 fc f7 3d c9 0d e2 3b cd b4 09 3e 46 09 c3 3c
       0.1210865 0.006898616 0.13447876 0.023808133
000020 1d 97 c1 bd 7e 41 81 bc 52 45 57 3d b9 23 c5 bd
       -0.09452651 -0.0157783 0.052556343 -0.09625954
000030 4e a4 40 be 49 58 32 be f5 52 2b 3e d7 63 1a 3e
       -0.18812677 -0.1741649 0.16730864 0.15077148
000040 8a b3 bb bd 61 d3 83 bd c9 a9 72 bd cd 07 28 bd
       -0.09165104 -0.06436802 -0.05924395 -0.041023064
000050 3b 0b d8 3c 70 b8 26 be 44 85 ef bb c5 5a 16 be
       0.026372543 -0.16281295 -0.0073095877 -0.14683063
000060 dc 11 46 3d 74 d4 4b 3e ca 67 cd 3c 06 97 8c 3d
       0.048356876 0.19905263 0.025073905 0.06864743
000070 21 6c 0d be 13 a4 06 be 43 0c 08 3e 68 93 d8 3c
       -0.13810779 -0.13148527 0.13285927 0.026437476
000080 b4 d1 3f be 3a 2c 18 3e 2e 45 18 3e 8b 1b 1e be
       -0.18732339 0.14860621 0.1487014 -0.15440194
000090 cb 93 8c bc 4c 0e 55 3d 50 cc 17 bd a5 e2 1e be
       -0.017160317 0.052015588 -0.037060082 -0.15516146
0000a0 98 04 ea bc 27 fe 05 3d 9c 81 e3 3d 91 f6 b5 bd
       -0.028566644 0.03271308 0.111087054 -0.088849194
0000b0 aa 9d 80 3c 91 f4 53 3d 12 20 db 3d 79 f4 7e bd
       0.01570018 0.05174691 0.10699476 -0.062244866
0000c0 d4 af dc bd b6 f7 f1 3d fb b6 ca bc e4 e5 7c 3d
       -0.10775724 0.11814825 -0.024745455 0.06174268
0000d0 10 81 f5 bd 9b 60 5f bd 23 d2 19 3e 9d 42 14 3e
       -0.11987507 -0.05453549 0.15021567 0.14478536
0000e0 6b 08 47 bc c2 b0 20 be 03 2f de bd aa 29 ac 3d
       -0.012148003 -0.15692428 -0.108488105 0.08406384
0000f0 fb 50 80 3d fa e2 a7 bd e1 87 98 3c 7f 92 56 bc
       0.06265446 -0.08197589 0.01861948 -0.013096451
000100 3d 1a 94 3d 83 f5 2f 3e 5a 2d 5c 3d 2c c9 1a 3e
       0.07231567 0.17183499 0.053754188 0.15115803
000110 4a 83 f3 bd b5 bb e7 bd d6 39 0e be 13 c4 e2 3c
       -0.11890276 -0.11315099 -0.1388925 0.027681386
000120 8a 49 4f 3d 39 26 88 3d 3c 47 fb 3d 30 cb e4 3a
       0.05060724 0.066479154 0.12269446 0.0017455574
000130 ca aa b6 3d 1b 5c 49 3d 06 5a 05 3e 19 1e 61 bd
       0.08919294 0.049160104 0.13022622 -0.054960344
000140 47 78 20 bb 8f 8f 0f 3c 2c 6f 7f 3d 16 5d 8b 3a
       -0.0024485753 0.008762254 0.06236188 0.00106326
000150 2e 44 06 bd 18 e2 a6 3d c0 26 fb 3d dc 0a c7 3d
       -0.032779865 0.08148593 0.1226325 0.09718868
000160 bd 34 26 be 2d 23 00 3d f1 60 bd bd ec 1f 26 be
       -0.16231056 0.031283546 -0.09247006 -0.16223115
000170 f2 ef 54 3d 4f 66 aa bd 14 f9 36 3c 08 08 f2 3d
       0.051986642 -0.08320295 0.011167783 0.11817938
000180 76 fd bf 3b af 04 7c 3d 8a be 15 be 20 de 86 bc
       0.0058590723 0.061527904 -0.14623466 -0.01646334
000190 f8 fc 85 bc b2 cb 0e 3e d2 6e b9 bc b4 c9 25 be
       -0.016355976 0.13944891 -0.022635851 -0.16190225
0001a0 cb 7c 18 3d 07 9e fe 3d 73 35 74 3d d7 86 87 3d
       0.037228387 0.12432485 0.059621286 0.066175155
0001b0 56 d8 4e be de d6 d7 bd b9 b0 a6 3c 3f 0f 35 3e
       -0.20199713 -0.105390295 0.02034794 0.17681597
0001c0 77 42 f6 3c a0 34 6f bd 7b 79 6b 3d 77 6e 94 bd
       0.03006099 -0.058399796 0.0574889 -0.07247632
0001d0 46 a6 ae bc 38 21 e8 3d 2e dc 69 3c 6a cb a6 bd
       -0.02131952 0.11334461 0.014273686 -0.08144267
0001e0 65 c8 d6 bd b4 53 e7 3d 10 77 d1 3b 87 eb 29 3e
       -0.10487441 0.11295262 0.006392367 0.16593753
0001f0 11 ed 5e bd b6 f8 04 be f4 df 07 3e b1 e4 d0 bb
       -0.054425303 -0.129855 0.13269025 -0.0063749184

lstm.encoder_lstm1.bias_hh_l0 f4 [128]
000000 da 19 97 bd aa 63 42 3c e9 d4 aa 3d b6 b6 f6 bd
       -0.07377978 0.011864582 0.08341391 -0.12046568
000010 51 4f d4 bc 35 b7 d9 3d ac 43 ec bd cd 92 ed bd
       -0.025916727 0.10630647 -0.11536345 -0.11600266
000020 25 95 5f 3d d1 d7 df 3d f1 38 0f be d5 c2 ac 3d
       0.054585595 0.109298356 -0.13986565 0.08435599
000030 ef f7 f8 3d 85 2c af 3d ae 0e 10 be ab f6 d9 3d
       0.121566646 0.08553413 -0.140681 0.10642751
000040 a7 65 b5 bd dd 74 61 bd 37 6f 6c bd 47 25 69 3d
       -0.08857279 -0.05504309 -0.05772325 0.056920316
000050 7e 70 06 be 69 e1 c5 3c 4e 50 30 3e d8 c4 b4 bc
       -0.1312885 0.024155336 0.17218134 -0.022066519
000060 44 55 3b 3d ff 96 e8 3d eb 18 15 3d c6 66 e7 bc
       0.045735613 0.11356925 0.036400717 -0.028247248
000070 f6 fe 5b bc 69 d4 dc 3d a0 89 c6 bd 5e 70 b4 bd
       -0.013427487 0.107827015 -0.09694219 -0.08810495
000080 38 2b 11 3e ee 96 e8 bd 07 ed 0f be ee db e2 bc
       0.14176643 -0.113569126 -0.14055263 -0.027692761
000090 85 8b 8f 3c 70 df 34 be 04 2f ff bd 10 6f 17 3e
       0.017522583 -0.1766336 -0.124601394 0.1478846
0000a0 8d b4 94 3d 10 82 a0 3d 26 46 45 3b 40 ea 6f 3d
       0.07261 0.078373075 0.0030101626 0.058573008
0000b0 24 81 86 3c ec 73 36 be 60 3d 23 3e 8c da 36 3e
       0.016419 -0.17817658 0.15941381 0.17856807
0000c0 b4 ae 88 3d 0e e6 4f bc ee b2 2a bd 7d 13 d2 bd
       0.06673947 -0.012689127 -0.041674547 -0.10257623
0000d0 f4 c8 14 bd 07 ea e5 3d d4 27 10 bd b2 b8 f1 3d
       -0.036324456 0.11226278 -0.035194233 0.11802806
0000e0 a5 f6 28 bd 82 8e c8 bd 4f 54 2a be fa aa 97 bd
       -0.041250844 -0.09792806 -0.16633724 -0.07405658
0000f0 83 00 07 3e 41 57 db bd 3f 09 b4 3d 90 24 5e bd
       0.13183789 -0.10710002 0.08790826 -0.054234087
000100 58 6b 6c bd 98 06 69 bd 14 a4 c7 3d 1d 0f e8 3c
       -0.05771956 -0.056891054 0.09748092 0.02832752
000110 64 e6 a0 bd 5b ba 31 be ef dc 04 be 80 41 e5 bd
       -0.078564435 -0.17356245 -0.12974904 -0.11194134
000120 52 81 26 bc 40 9a e2 3d 7a f8 79 3b 57 50 54 3e
       -0.010162668 0.11064577 0.0038142488 0.20733772
000130 54 be f8 bd d4 95 22 3d 59 cb 2e bd 74 84 cf bd
       -0.12145677 0.03969367 -0.042674396 -0.10132685
000140 e8 13 7b 3b 5a d0 aa 3d 41 c5 cc bd 21 5e 4d be
       0.0038311426 0.08340521 -0.09998561 -0.20055439
000150 6d bc db 3d 6f 62 05 be 0e 3e 6a bd 87 41 f5 bd
       0.10729299 -0.1302583 -0.057188086 -0.11975389
000160 45 f1 a5 bd 8a 8b 02 be bf 02 0c be bf 58 48 3d
       -0.08102659 -0.12748542 -0.13672923 0.04891276
000170 ea 03 17 3d ec c3 15 be c1 1a 56 bd d8 d5 4d bc
       0.036868967 -0.1462552 -0.05227161 -0.012563191
000180 a8 98 5c 3d 45 76 85 3d 6f 06 de bd eb cd 89 3d
       0.05385652 0.06516699 -0.10841071 0.06728729
000190 e4 60 a0 bc a4 ae 01 3d 67 63 03 be 5c 48 e4 3d
       -0.019577451 0.03166069 -0.12830888 0.11146614
0001a0 3d f3 8e 3d c9 2c f2 3d bb 45 34 3d f2 9c 7b 3d
       0.06979988 0.11824948 0.044011813 0.06142897
0001b0 5a cb b0 bd 3c 75 00 3e cf 7e 91 bd 83 b5 08 be
       -0.08632536 0.12544721 -0.07104265 -0.13350491
0001c0 b9 70 93 bb be 71 a9 bc d6 68 bd 3d c3 19 b4 bc
       -0.0044995216 -0.02068412 0.092485115 -0.02198494
0001d0 6b 45 4b 3d 25 53 f4 bd 72 d5 de 3d ad 37 d2 bd
       0.04962675 -0.11929921 0.10880555 -0.102645256
0001e0 57 a0 03 3e 45 aa 14 be ed 3c a9 3d 8d e7 9e bd
       0.12854134 -0.14518078 0.08263574 -0.077590086
0001f0 76 fb 01 3e a0 83 69 3b e3 a7 6c bd c3 80 b9 bd
       0.12693581 0.0035631433 -0.057777297 -0.090577625

lstm.encoder_lstm2.weight_ih_l0 f4 [256, 32]
000000 1c 48 db 3d 5d 4f 9a bd bf 57 31 3a 94 de b6 3d
       0.10707113 -0.075346686 0.00067650893 0.08929172
000010 8e 6c bc bc 8d ae 84 bc 90 5d ec 3d dd d9 ee 3d
       -0.023000982 -0.016196514 0.11541283 0.11662648
000020 8a 7e f3 bd 1e c4 3e 3d 04 e8 83 bd 9b 20 3a bd
       -0.1188937 0.04657375 -0.06440738 -0.04544125
000030 4a 2c 42 3d e4 e2 c5 bd 09 4a 9e bb 48 ae a7 3c
       0.04740552 -0.096624166 -0.004830603 0.020468846
000040 19 a0 ae bc d7 a4 d5 bd 19 80 bd 3d 12 08 42 3b
       -0.021316575 -0.10431831 0.09252948 0.002960686
000050 fe ef 2c 3d de 71 c0 bd 47 1e 3e be 21 1d 53 bd
       0.042221062 -0.093967184 -0.18566237 -0.05154145
000060 9d 38 8b bd d1 6b c2 bd c3 32 89 bd 33 e8 16 3e
       -0.067979075 -0.094932206 -0.06699135 0.14737014
000070 85 0e 01 3e 04 fd ef 3d c1 23 18 be 3a 53 e1 bd
       0.12603195 0.11718181 -0.14857389 -0.11002202
000080 d4 8d e3 3d 2c 75 66 3d 8e 88 c5 3d 5b 3c 9f 3d
       0.11111036 0.056264088 0.09645186 0.07775184
000090 ba 08 dd 3b a0 6e ae bd 7c c4 2a 3c b6 d5 db bb
       0.006745425 -0.08517194 0.010422822 -0.006708826
0000a0 18 b3 a5 bd de 90 ec bd b3 dd 4c 3d 70 89 04 3e
       -0.080908 -0.11551069 0.050016116 0.12943053
0000b0 f9 c7 06 3e d3 ff 73 bd 43 f9 8e bd fb 83 b3 bb
       0.13162221 -0.059570145 -0.06981137 -0.00547838
0000c0 4e 7e 16 bc 7c 9d 04 be 39 62 f3 3d c8 68 d1 bd
       -0.009185387 -0.129507 0.11883969 -0.102250636
0000d0 9b 44 f0 3b 2a 2e 66 bd 26 c8 c8 bd e4 6b 03 3e
       0.007332397 -0.05619637 -0.098038 0.12834126
0000e0 02 ea ee bd a6 ee 1d bd 0b 5e b0 3d 72 17 28 3d
       -0.11665727 -0.03855767 0.08611687 0.041037984
0000f0 73 01 20 bd 6d c6 9a bd eb 19 ec 3c bd d3 04 3e
       -0.039063882 -0.07557378 0.028820952 0.12971397
000100 5b 3d 5d bd 7f 0d 18 3e 4e f9 97 bd ef 91 29 bc
       -0.05401359 0.14848898 -0.07420598 -0.010349735
000110 9a 38 67 bc 22 1e 9e bc b8 0b 33 3d df ad 33 3d
       -0.014112616 -0.019301478 0.043712348 0.04386699
000120 37 c6 59 bd 30 90 b4 3d e9 46 22 3d 92 47 52 3c
       -0.053167548 0.08816564 0.039618406 0.0128344465
000130 fe e6 08 3e 08 0f 28 bd 13 09 ea 3d 7f a7 ce 3d
       0.13369367 -0.04102996 0.11427512 0.10090541
000140 8a 1c ba bd d5 97 63 3d 40 e0 28 bd 5e 94 fb bd
       -0.09087475 0.05556472 -0.041229486 -0.12284158
000150 49 87 45 3d 36 2d e9 3c 81 f5 23 be a7 48 dd 3d
       0.04822472 0.028463941 -0.16011621 0.10804873
000160 84 bf c4 bd 46 f4 dd 3c a3 36 19 3d bc b7 2c 3d
       -0.09606841 0.027094018 0.03740562 0.04216741
000170 bf 0f 09 bd b5 6b 8c bc af cf 99 bd 87 ac d8 bd
       -0.033462282 -0.017141202 -0.075103156 -0.10579782
000180 59 1a 20 bd f6 c5 cd bc 90 e6 15 be 83 a4 14 be
       -0.039087627 -0.02511881 -0.14638734 -0.14515881
000190 9f 8c 2a 3c bd 35 b2 3c 31 a1 1d 3e f2 fa 24 3d
       0.010409503 0.02175414 0.15393521 0.040278383
0001a0 c3 25 2b bd d2 c8 52 bd f9 fd 69 3a 99 94 21 be
       -0.04178406 -0.05146105 0.00089260895 -0.15779342
0001b0 33 65 ec bc a5 5b f9 bd a4 7e 9b bd 8a b4 22 3d
       -0.02885685 -0.12175683 -0.07592514 0.039722957
0001c0 20 a9 28 3d ed 43 de 3d 5e 6e b8 bd 49 dc 99 3d
       0.041176915 0.108527996 -0.09005426 0.07512719
0001d0 38 d6 58 bd b6 71 a9 bd 16 88 08 3d 1c 6a 92 bd
       -0.05293867 -0.08273642 0.033332907 -0.07149145
0001e0 27 34 82 bd bf 08 df bd 7b d7 80 3d 6c 4c c7 bc
       -0.063576035 -0.1089034 0.062911 -0.024328433
0001f0 e6 bd cb bb 4d 0a 24 bd cd f9 64 3d 2d a0 a8 3c
       -0.006217706 -0.040048886 0.05590229 0.02058419
000200 12 9b 9f 3c eb 30 ae 3d 9e 61 87 bd b8 d7 be bc
       0.019483123 0.08505424 -0.06610416 -0.023296222
000210 67 65 f0 bc 96 6c df 3d f4 6d b7 3d 53 ec a9 3d
       -0.029345227 0.10909383 0.08956519 0.082970284
000220 7e a0 af 3d c3 8d 2b 3c cf 68 69 3d d8 4e 9a 3d
       0.08575533 0.01047081 0.05698472 0.075345695
000230 bb 37 8a 3d 2e 71 d5 3c 6b 0c 17 bd ed 65 93 bd
       0.06748911 0.026054945 -0.036877077 -0.07197175
000240 44 4a a6 bd 27 ac 38 3c 2e b2 83 3d d8 65 dd 3c
       -0.08119634 0.011271513 0.064304695 0.027026102
000250 9b 0d 94 3d 47 83 d3 bd 3f ee d5 bc 8c fe cb bd
       0.072291575 -0.103277735 -0.026114581 -0.0996066
000260 c7 a4 90 bd 54 65 da 3d c8 46 bb bd c2 f7 ba bc
       -0.07062679 0.10663858 -0.0914436 -0.022823218
000270 1e 92 e7 3c fd ac ce bd 85 a1 43 3d db 5a de bc
       0.028267916 -0.10091589 0.04776146 -0.027142933
000280 3a 3f 7f bc 3d e8 93 bd fc 0f e2 3c 1f 53 0f bd
       -0.015579039 -0.0722203 0.027595513 -0.03499138
000290 29 3b 9d 3c b3 63 06 3e f9 eb a5 3c 3f 96 bb 3a
       0.019193249 0.1312397 0.020254122 0.0014311745
0002a0 94 dd b3 3d e6 b5 15 be 67 65 b0 bd eb b5 ab bb
       0.08782497 -0.1462017 -0.08613091 -0.005240192
0002b0 49 8f b6 3c 7e 86 36 3d 08 b1 ce 3d 21 72 46 be
       0.02228512 0.044561855 0.1009236 -0.19379474
0002c0 3a ce 86 bd b6 4d 40 be 92 12 36 be 79 50 90 3c
       -0.06582303 -0.18779644 -0.17780522 0.017616497
0002d0 ca 62 27 3d ee a4 86 3c d3 e7 5a be 85 51 82 3d
       0.040865697 0.016436066 -0.21377496 0.06363205
0002e0 b5 bd c8 bd 22 19 59 3c 96 87 04 3d 17 18 4a bd
       -0.09801809 0.013250621 0.032355867 -0.04933938
0002f0 6f 88 3f bd c5 e4 b6 3c 6f 4e 90 bc 73 94 d5 bd
       -0.046760973 0.022325883 -0.017615525 -0.10428705
000300 17 71 35 3c 56 6e 85 3d 0e 5d 9e 3d d2 32 ae 3d
       0.011074326 0.065151855 0.077325925 0.08505787
000310 3e 65 3d bc f0 2a bc bd 4a aa ff 3c 71 1a 01 be
       -0.011559783 -0.09187877 0.03120913 -0.12607743
000320 12 f8 67 3d d5 28 a6 3d 5b 08 5e bb 93 cb a7 bb
       0.056633063 0.08113257 -0.0033879492 -0.0051207035
000330 2f 86 59 bc dd 2b 94 3d 70 d3 12 3e 42 25 84 bd
       -0.013276621 0.07234929 0.1433847 -0.06452419
000340 58 5d db 3d 98 70 ab 3b 3a f4 8c bc ac 81 ea 3c
       0.10711163 0.005231928 -0.0172063 0.028626285
000350 a9 16 24 bd ea ed c5 bd c2 bd 23 be 3b c9 9c bd
       -0.040060673 -0.09664519 -0.15990356 -0.07655569
000360 ed 65 89 bc 8a bb 69 3c 2b 54 08 bd f2 13 8d 3d
       -0.016772235 0.014265904 -0.033283394 0.0688857
000370 d8 4e fd bb 6a 17 2c 3d 48 50 d3 bd 20 48 06 3e
       -0.007730346 0.042014517 -0.10318047 0.13113451
000380 95 7a 77 3d 7f 66 d3 bb 71 df 66 3b c3 b5 77 3d
       0.060419638 -0.0064514275 0.0035228396 0.060476076
000390 96 87 13 3d d1 46 6e 3d 8c f4 90 3d 26 db d2 bb
       0.036017977 0.058173005 0.070778936 -0.006434816
0003a0 99 27 02 3d 04 d2 8a be 89 11 64 bd 20 b3 f2 bd
       0.031776045 -0.27113354 -0.055680785 -0.11850572
0003b0 e3 e2 1b bd e5 45 13 be b6 ee b8 3c b4 02 0f be
       -0.038058173 -0.14382131 0.022574764 -0.13965875
0003c0 b6 d0 4e bd 07 e8 09 be 44 04 39 be e7 47 8c bd
       -0.05049201 -0.13467418 -0.18068033 -0.06849652
0003d0 50 9d 83 bc c5 a2 0a 3e d1 39 e0 bd 13 73 c5 bd
       -0.016066223 0.13538654 -0.109485276 -0.09641089
0003e0 7a 4e a5 3d 0f 28 37 3e ad 49 26 3e 41 26 28 3e
       0.08071609 0.17886375 0.16239043 0.16420843
0003f0 2e ca e6 bc 47 d8 cb bd c5 77 94 bd f2 99 25 be
       -0.028172579 -0.09953361 -0.07249407 -0.16172007

lstm.encoder_lstm2.weight_hh_l0 f4 [256, 64]
000000 29 eb a2 bd 90 81 9d 3d 4d 16 85 3d 10 c6 81 bc
       -0.079550095 0.07690728 0.06498394 -0.015841514
000010 dc c8 7c bd d0 ec 9a 3a bc 24 fd 3c 62 48 8c bc
       -0.061714992 0.0011819843 0.030901305 -0.017124359
000020 94 83 ac bd ef 83 f7 3d 17 ed d7 3c 58 d9 d5 bd
       -0.08423534 0.12085711 0.02635817 -0.10441846
000030 56 1f 2a 3e 14 49 d0 bd b8 aa ca 3d b7 f9 81 bd
       0.16613516 -0.101701885 0.09895843 -0.063464575
000040 7f 5b 93 3d 31 11 fb bd c5 53 0b bd 32 c0 14 3e
       0.07195186 -0.122591384 -0.034015436 0.14526442
000050 3e be 75 3d f2 33 01 3e fe 96 0e 3e 5a 60 b3 bd
       0.059995882 0.12617472 0.13924786 -0.08758612
000060 3f 02 ed 3c 14 ed 60 3d 43 0b 9d 3d 13 46 48 bd
       0.028931735 0.054913595 0.076681636 -0.048894953
000070 5f 96 99 bd f5 db 67 3d e2 42 1e be ec a4 02 3e
       -0.07499384 0.05660625 -0.15455201 0.12758225
000080 f3 90 83 bc e9 40 2e bd e6 73 9d 3d 22 a9 a3 3d
       -0.016060328 -0.042542372 0.076881215 0.07991244
000090 2a 30 b6 bd 94 22 57 bd 9b 8c 71 bd 02 65 16 bc
       -0.08895905 -0.05252321 -0.058971982 -0.009179356
0000a0 f8 32 b2 bd f1 90 85 3d 5a 01 b7 3c cf 35 70 bb
       -0.08701128 0.06521786 0.022339512 -0.0036653166
0000b0 69 e3 0e 3b de db fc 3c 4b 70 c1 bd 0b b4 a6 bc
       0.0021803027 0.03086656 -0.09445246 -0.020349523
0000c0 73 f6 1f 3d 86 6c bc bc c8 a6 98 bd 22 07 65 bd
       0.03905339 -0.023000967 -0.07453686 -0.055915006
0000d0 63 2e 59 bd 8d dc 32 3e 38 22 ba bd b9 82 5e 3e
       -0.053022753 0.17466946 -0.09088558 0.21729554
0000e0 b2 7a 45 3d 65 e4 95 bc b9 34 41 3e 55 27 02 be
       0.048212714 -0.018297384 0.18867768 -0.12710316
0000f0 77 75 a4 bd 65 16 a0 bd fb ff 5a bd 43 32 1f 3c
       -0.08030217 -0.078167714 -0.05346678 0.009716573
000100 ee 74 c0 bc ac c8 83 bc 9b 47 36 3d e3 27 5f bb
       -0.023493256 -0.016086899 0.044501882 -0.0034050874
000110 93 10 8a bd 13 fd 0c 3e 16 d6 a6 3d 1e 5a c8 bd
       -0.067414425 0.13768415 0.081463024 -0.097828135
000120 21 d3 ef bd 0b 28 02 3e f4 a0 88 3d a0 fa 44 bc
       -0.117101915 0.12710588 0.06671324 -0.012022644
000130 db bf e8 3b 04 9e b4 3b 72 03 f2 3d 85 e1 06 3e
       0.007102949 0.005512001 0.118170634 0.13171966
000140 21 30 4f 3d 0b 62 a5 bc 31 06 59 bd ee 07 3c bc
       0.05058301 -0.020188352 -0.05298442 -0.0114765
000150 85 0b be bd 23 4a 83 3d 00 86 66 3d c1 fa 8d 3d
       -0.09279541 0.06410625 0.056280136 0.06932593
000160 a2 79 c2 3d 40 09 97 3d cf db bc 3d 79 c3 3e bc
       0.09495856 0.07374811 0.09221613 -0.011643284
000170 0e da 05 3e c9 41 c8 3d eb 28 93 3d 14 e8 39 bb
       0.13071463 0.097781725 0.07185539 -0.002836709
000180 ed 7c d7 bc 3e 5f 4d 3d e0 e5 b6 bc f8 0d f2 3c
       -0.026304686 0.05013966 -0.02232641 0.029547676
000190 b5 7e e4 bd 68 eb 1b bd ba 46 9e 3d fe 6f 0f 3d
       -0.1115698 -0.038066298 0.07728334 0.035018913
0001a0 3a 51 71 bd 9e 61 5a bd 62 ea af 3c e3 4d b0 3d
       -0.058915354 -0.05331575 0.021474067 0.08608606
0001b0 ed a6 4b 3c 4a 79 f4 bc b3 68 cd bb ed 22 2c bc
       0.012429935 -0.029842991 -0.0062685846 -0.010506374
0001c0 01 b3 f0 bc f4 31 c3 bd 48 d9 c6 3d 65 06 d7 bd
       -0.02938223 -0.09531012 0.09709412 -0.104992665
0001d0 10 d1 a9 3d c4 4d be 3d 58 8f 61 3d 05 39 cf bc
       0.08291829 0.09292176 0.055068344 -0.025295744
0001e0 34 91 85 3d 72 4f 85 3d db 4f e6 3d 06 02 85 bd
       0.06521836 0.065092936 0.112457 -0.064945266
0001f0 72 bb e0 bd a4 9b f1 bd 32 a3 3f 3d ce c6 8b bd
       -0.10973252 -0.11797264 0.046786495 -0.06825028
000200 0a d9 16 bc 30 be 62 bb ea a4 05 3e 49 a4 10 bd
       -0.00920702 -0.0034598224 0.13051191 -0.035312925
000210 6f 80 68 bd 17 9a 21 3e 99 b0 be 3b ce 45 84 bb
       -0.05676311 0.15781437 0.005819392 -0.0040366417
000220 fe 7a f7 bd b8 56 93 bd 44 a7 fa bc db b4 b0 bd
       -0.12084006 -0.07194275 -0.030597337 -0.086282454
000230 89 81 ed 3d 4b 5d 87 bd 3e 36 b7 3c bd 57 cd 3d
       0.115969725 -0.06609591 0.022364732 0.100265004
000240 f2 1e ba 3d ae 44 b0 3d 05 33 08 bd 18 b2 cc 3d
       0.090879336 0.086068496 -0.03325178 0.09994906
000250 d0 44 9a bd 90 9a 14 3d b3 52 85 3d c1 48 ae bd
       -0.07532656 0.036280215 0.06509914 -0.085099705
000260 1d fd 2b 3e 55 08 0d 3d 99 22 63 bd 68 78 ee 3d
       0.16795774 0.034431774 -0.055452917 0.116440594
000270 dd 77 f3 3d 56 f7 ca 3d 59 48 02 bc 06 d5 63 3d
       0.118880965 0.09910457 -0.007951819 0.055623077
000280 24 b7 aa bd b2 42 53 bd 19 30 80 3d 38 1a 7b 3d
       -0.083357126 -0.051577277 0.06259174 0.0613043
000290 2e 41 cb 3d 31 e8 f8 3d e7 43 19 3d a1 6c 11 be
       0.099245414 0.12153662 0.037418272 -0.14201595
0002a0 60 f4 f8 ba 65 70 c4 3c 14 84 ad 3d 3c 3d b5 bc
       -0.0018993728 0.023979375 0.084724575 -0.022123925
0002b0 58 aa 12 3d 17 6c 85 bd fd 40 8e bc b4 a2 51 bc
       0.035806984 -0.06514757 -0.017364973 -0.012795139
0002c0 73 49 a5 bd 7a 2c e7 3c f2 06 90 3b 8b af cc ba
       -0.0807065 0.02821945 0.004395359 -0.0015616281
0002d0 da 84 2b be 38 a1 e3 3d 32 7b ec 3d ed 94 d2 bc
       -0.16749898 0.111147344 0.11546935 -0.025705779
0002e0 a9 73 dc bb b3 ab 96 bd 98 07 2c 3d 72 63 34 3a
       -0.006727655 -0.07356968 0.04199943 0.00068812736
0002f0 cf e5 00 3d 78 0e 1f bd 29 84 84 3d d4 3f 7b bd
       0.031469163 -0.038832158 0.0647052 -0.061340168
000300 87 4b f7 3d 4f 9d 24 bd 85 fa 9a 3d 11 4a b6 3c
       0.120749526 -0.040189084 0.07567314 0.022252114
000310 6b 97 e1 3a 9d ff 7a bd 4a f5 6b 3b 2b 75 3d 3d
       0.0017211264 -0.061278928 0.0036004358 0.04625432
000320 dd 01 49 3d 75 f0 94 bc 04 12 ac bd 68 bc 38 3d
       0.049074043 -0.018181065 -0.08401874 0.045101553
000330 22 35 96 bd 32 44 a4 bc c2 51 25 3e 4c 3e 9f 3c
       -0.07334353 -0.02005205 0.1614447 0.019438885
000340 7c 9c 03 be 21 78 33 3d 84 9c a9 3d 26 87 00 bc
       -0.12852663 0.043815736 0.08281806 -0.007844722
000350 3e 62 ad bd 86 68 86 3c d1 82 de bc 4f 4b 55 bd
       -0.08466004 0.016407263 -0.027161987 -0.052073773
000360 e7 6e a5 bd 01 e8 d4 bd 44 64 22 be 1b cc 1d bd
       -0.080777936 -0.10395814 -0.15858561 -0.03852473
000370 b9 47 05 bd 8d 0f 1c be 9d 7f 1e 3d 09 6c 36 3d
       -0.032539103 -0.15240307 0.03869592 0.044536624
000380 17 75 72 3d 04 69 4b 3d dc ae 9f 3d 7a 57 b3 bd
       0.059193697 0.049660698 0.07797024 -0.08756919
000390 45 36 07 be 04 be de bd 8f 53 67 bd b8 9c 26 3d
       -0.13204296 -0.10876086 -0.056476172 0.040676802
0003a0 2c 49 83 bd 07 9a 36 bd a8 1d 91 3c 80 f7 d0 3d
       -0.06410441 -0.044580486 0.017714337 0.10203457
0003b0 97 25 8c bd 88 07 a3 bd 1f 9d da bb 3e 52 73 bc
       -0.06843107 -0.07960421 -0.0066715623 -0.014851151
0003c0 e7 2d a8 3d 6f 35 cd 3c b5 04 2c bd 5c 93 a9 3d
       0.0821188 0.025049893 -0.041996676 0.0828006
0003d0 07 6a ce 3d 9e 55 8c bd 63 8d 46 bd 33 bf b2 3d
       0.10078817 -0.06852268 -0.04847468 0.087278746
0003e0 33 ed 8d 3c b8 bf 89 3c 7d e4 82 bd 22 e8 45 3b
       0.01732502 0.016815051 -0.06391237 0.0030198176
0003f0 63 27 f8 3d 73 1c 6a 3c 80 c9 5d 3d f5 e0 e4 3d
       0.121168874 0.014289009 0.054147243 0.1117572
