073123/0810hoxyhoxy9.pth (torch, 521355 bytes, 34 tensors)

lstm.lstm1.weight_ih_l0 f4 [256, 12]
0.004345769 0.0034553064 0.0034257814 0.0058546993 0.0010636735 0.0033646831 0.009469127 0.0054616733
0.0053750407 0.005114318 0.0034346117 0.0026814875 0.00022028797 0.00019118917 -7.078403e-05 0.00016674428
0.00013596892 0.00075107155 0.0010790428 0.00094103516 0.0009491377 0.0005144433 6.5053035e-05 0.00035736107
-0.000301227 0.00049717905 -0.0006783229 -0.00075918104 -0.00018632256 -0.0004994695 -0.0011737929 -9.991665e-05
-7.495438e-05 -0.0005594706 -0.00067622744 0.000255661 -0.00021954924 0.000611749 -0.00045123542 0.00013562883
0.000114730996 0.0001511984 0.0010294601 0.0007656605 0.0007691214 0.0008193063 9.554168e-05 0.00024813853
0.00027880244 -0.00022925045 -0.00015426731 0.00032381606 1.621818e-05 0.0010945841 0.0016251901 0.0010499211
0.001076092 0.0011459911 0.0002183619 0.0012922436 3.4372875e-05 -0.00019649933 0.00048428008 0.000100049336
3.924555e-05 -9.453559e-05 -0.00044665544 -8.540651e-05 -7.388836e-05 -1.1572181e-05 5.7123193e-06 0.000374462
0.0019418284 0.0015043977 0.0006285975 0.0008122314 0.00043136926 0.0013350261 0.001866424 0.0023091456
0.0023378246 0.0017024159 0.00031672043 0.0013076336 0.00059979514 0.00084741955 0.0010488735 0.0006733146
0.0003177314 0.0008884432 0.00019906646 0.0013339756 0.0012630064 0.0005341385 0.0004448833 0.00019569111
0.00032491 0.00049248844 0.00032829551 0.00040088574 7.947369e-05 0.00023001764 0.00031044066 0.0003086134
0.00030564572 -8.254114e-05 0.00025300708 4.5262477e-05 0.00037017852 0.00198118 0.0024638637 0.00043419653
-0.00040014854 -0.00022622659 -9.543758e-05 0.0020490657 0.002045632 0.0005187602 -4.2974466e-06 -0.0007229821
-0.00070658047 0.00071983965 -0.0010369209 -0.0013298835 8.204987e-05 1.1199423e-05 -0.00023885665 -4.959723e-05
0.00012402065 -0.00021549314 -0.0005871091 -9.8222095e-05 -0.0013439797 6.360288e-05 -0.0016064266 -0.00078456337
-0.0005394971 -0.0013534764 0.0010507953 -0.00097309414 -0.0009768357 -0.0015104291 -0.00066068047 -0.000119699616
0.0047701555 0.0032656423 0.0050778636 0.0007993441 0.0016798524 0.006466252 0.001582229 0.005578742
0.0056113866 0.0050286264 0.0007567106 0.002801445 0.00029478606 0.0002951081 -3.261798e-05 0.0015447598
0.0005279197 0.0016291142 0.0016856419 0.0004293777 0.00036253434 0.0007152406 0.001162327 0.0011032433
0.008557207 0.0024341543 0.01018625 0.0042919875 -0.00028320673 0.0022621078 0.008225689 0.00784989
0.007967701 0.0045837956 0.00069871487 0.0019659472 -0.00017604629 0.00020649993 0.0010779361 0.00011069078
9.487873e-06 0.00035857668 -0.0003148213 -0.00012347917 -0.00013339493 -0.000337906 0.00010892639 0.00018045552
0.0013919829 0.00084471336 0.0010941867 0.0012766948 0.00027707737 0.0013573981 0.0012452385 0.0010779747
0.0010505199 0.0006098617 0.00076520763 0.00087624637 0.0003416972 0.0005577211 0.0009106452 0.0014520936
0.0005358855 0.0012914934 0.0014839534 0.0013949986 0.0013998285 0.0021303298 0.0010511458 0.0021416352
0.0014357495 0.0015489858 0.0010395919 0.0016763897 0.0007536041 0.0016844822 0.0020232426 0.0023147233
0.0023112944 0.0012432921 0.0010273033 0.0017845859 0.0004802498 0.00027607902 0.000750004 6.1760247e-06
0.00012380246 0.0003200757 0.0006723166 0.000731741 0.00079177215 0.00021642187 4.3827233e-05 0.00024700203
-0.0025176257 -0.00045032555 -0.00025985957 -0.0033972615 -0.00076691643 -0.002856127 -0.002237581 -0.0011169509
-0.0012074573 -0.0010673145 -0.0035749888 -0.002577174 -0.00051813864 -0.0005511197 -0.0019171333 -0.0018530466
00000000: f466 8e3b 6c72 623b 1383 603b c7d8 bf3b
00000010: f66a 8b3a 0482 5c3b 6624 1b3c d6f7 b23b
00000020: 1c21 b03b 0296 a73b 3917 613b e5bb 2f3b
00000030: 1afd 6639 f479 4839 e371 94b8 14d8 2e39
00000040: e192 0e39 8fe3 443a ab6e 8d3a cdaf 763a
00000050: 8ecf 783a b5db 063a 156d 8838 315c bb39
00000060: 01ee 9db9 1f55 023a 7bd1 31ba c703 47ba
00000070: 955f 43b9 d5ee 02ba f4d9 99ba 588a d1b8
00000080: d430 9db8 70a9 12ba db44 31ba 3d0a 8639
00000090: cd36 66b9 c85d 203a cb93 ecb9 9637 0e39
000000a0: bc9b f038 038b 1e39 f3ee 863a 9bb6 483a
000000b0: dd9e 493a b7c6 563a 8d5d c838 9718 8239
000000c0: 3b2c 9239 f362 70b9 d1c2 21b9 dbc5 a939
000000d0: 470c 8837 2678 8f3a 5504 d53a 829d 893a
000000e0: a80b 8d3a 1535 963a 14f8 6439 8060 a93a
000000f0: 982b 1038 630b 4eb9 f9e6 fd39 94d1 d138
00000100: 979b 2438 6941 c6b8 142d eab9 451c b3b8
00000110: 83f4 9ab8 2426 42b7 73ac bf36 7053 c439
00000120: f384 fe3a 362f c53a 77c8 243a edeb 543a
00000130: 6729 e239 0bfc ae3a cca2 f43a 0955 173b
00000140: 3036 193b 9923 df3a 7f0d a639 e764 ab3a
00000150: 923b 1d3a 5d25 5e3a 5b7a 893a 6181 303a
00000160: 3095 a639 6ae6 683a 7fbc 5039 cbd8 ae3a
00000170: 768b a53a 6e05 0c3a 3a3f e939 6f32 4d39
00000180: af58 aa39 571a 013a 141f ac39 f92d d239
00000190: 1dab a638 e430 7139 a4c2 a239 64cd a139
000001a0: 133f a039 f019 adb8 09a6 8439 37d8 3d38
000001b0: 8514 c239 afd6 013b c678 213b dfa4 e339
000001c0: 07cb d1b9 3d37 6db9 a925 c8b8 9e49 063b
000001d0: 0310 063b 68fd 073a c932 90b6 8286 3dba
000001e0: d039 39ba 9fb3 3c3a 4be9 87ba 7c4f aeba
000001f0: 3012 ac38 28e5 3b37 9875 7ab9 9f06 50b8
00000200: 8a0b 0239 00f6 61b9 3ae8 19ba 96fc cdb8
00000210: 7a28 b0ba 8962 8538 bb8e d2ba 28ab 4dba
00000220: 0a6d 0dba 2267 b1ba d7ba 893a 3e17 7fba
00000230: 2b09 80ba 97f9 c5ba 8431 2dba 3e07 fbb8
00000240: f74e 9c3b 6304 563b 3564 a63b 138b 513a
00000250: 7e2e dc3a dae2 d33b cc62 cf3a e1cd b63b
00000260: b9df b73b 2dc7 a43b fd5d 463a 7398 373b
00000270: 848d 9a39 bdb8 9a39 4acf 08b8 8a79 ca3a
00000280: 1764 0a3a 0088 d53a c2f0 dc3a 191e e139
00000290: 8912 be39 fc7e 3b3a 3959 983a b49a 903a
000002a0: 8733 0c3c 5586 1f3b 3be4 263c cda3 8c3b
000002b0: 5d7b 94b9 df3f 143b 0ac5 063c d39c 003c
000002c0: f68a 023c aa33 963b f629 373a 1fd7 003b
000002d0: 1199 38b9 e787 5839 8949 8d3a a922 e838
000002e0: 1b2e 1f37 59ff bb39 9a0e a5b9 307a 01b9
000002f0: eedf 0bb9 fa28 b1b9 696f e438 a938 3d39
00000300: 3273 b63a c16f 5d3a d06a 8f3a c556 a73a
00000310: b244 9139 b9ea b13a 4537 a33a d44a 8d3a
00000320: 99b1 893a 20df 1f3a 3798 483a e6b3 653a
00000330: d225 b339 0834 123a 5db8 6e3a 2d54 be3a
00000340: ab7a 0c3a 5447 a93a 3781 c23a 63d8 b63a
00000350: 737a b73a 019d 0b3b 9ac6 893a ad5a 0c3b
00000360: c22f bc3a 5707 cb3a ea42 883a 4eba db3a
00000370: 848d 453a d8c9 dc3a 6198 043b 9db2 173b
00000380: 1679 173b f6f5 a23a 94a6 863a c4e8 e93a
00000390: 09ca fb39 b3be 9039 eb9b 443a a63b cf36
000003a0: f8d0 0139 d5cf a739 673e 303a 4fd2 3f3a
000003b0: ee8e 4f3a 4eef 6239 22d3 3738 0d80 8139
000003c0: c0fe 24bb ac19 ecb9 c33d 88b9 97a4 5ebb
000003d0: e40a 49ba dc2d 3bbb 61a4 12bb a766 92ba
000003e0: 8b43 9eba 22e5 8bba 5c4a 6abb cee5 28bb
000003f0: b2d3 07ba 0479 10ba 5248 fbba ede1 f2ba

lstm.lstm1.weight_hh_l0 f4 [256, 64]
-0.0004657187 -2.895381e-05 -0.00028528186 5.0471528e-05 8.831714e-05 4.3988806e-05 -0.00022302441 5.7341393e-05
-6.228472e-05 -0.0003078906 4.019637e-05 0.0001914881 -0.00016645176 -0.00028736476 -0.00029722205 9.345171e-05
6.840457e-05 0.0002142489 9.781697e-05 -0.00014236518 -0.00026102545 -0.00021331018 0.00014847782 -7.974121e-05
0.00014515403 -7.1395756e-05 -0.00024347377 0.000227998 0.0002623811 -0.00025114146 -0.00013432019 0.00021368348
-0.00022850849 -3.869726e-05 1.2632466e-05 -0.00012339673 -0.00016692466 -0.00036141602 0.0002935632 -0.00023906401
1.2045495e-05 0.00021586445 -0.00037516587 0.00015856224 0.0002717305 -0.00016637902 4.87218e-05 -3.9797076e-05
-0.00012648602 6.7639856e-05 -0.00017828957 -3.2548873e-05 0.00030569235 0.00018321107 0.0002912843 1.34523125e-05
0.00024936345 0.00010262657 6.594994e-05 -0.00013127261 0.00045019705 -0.0001548673 0.00021853061 0.00014241693
-4.2211136e-06 8.910609e-06 -8.110078e-05 1.5468708e-05 2.9111075e-05 1.4842749e-06 -5.5058194e-05 -2.6165855e-05
-8.5162865e-06 -1.11806685e-05 -2.3499608e-05 6.207217e-05 -4.027112e-05 -8.098571e-06 -1.3305509e-05 2.977402e-05
4.8710655e-07 3.3570046e-05 2.1787762e-05 -5.9555594e-05 -7.529885e-05 -4.278996e-06 3.250912e-05 -1.4147183e-05
5.094084e-05 -1.9874047e-05 -3.599472e-05 -8.82888e-06 4.1330073e-05 3.7453408e-06 2.8665337e-07 4.744398e-05
6.968359e-06 -3.191505e-06 -5.4675593e-06 -4.3320353e-05 -2.6619487e-05 -1.1153628e-05 5.3987358e-05 -3.9676102e-05
5.9738533e-05 1.5695246e-05 2.2114047e-05 8.275095e-06 3.6342877e-05 -5.3769796e-05 -9.565989e-06 -1.790203e-05
-1.2651081e-05 1.9726947e-05 1.7937977e-05 -8.212664e-05 4.446161e-05 3.726511e-05 4.516668e-05 -4.295559e-06
-3.0809679e-06 6.744696e-06 -2.4463006e-05 2.4406827e-05 2.753562e-05 2.3336379e-05 4.6085977e-05 -1.3542539e-05
-6.927677e-05 -4.7578702e-05 0.00014309956 -7.7853045e-05 -8.7871165e-05 -5.558912e-06 0.0001059375 8.3065825e-05
2.7873095e-05 5.1994706e-05 -3.3171757e-05 -0.00016675127 0.00018587623 -6.939934e-05 0.00010904711 -4.072425e-05
3.275219e-05 -7.702904e-05 -7.540132e-05 4.142337e-05 0.00015302878 -6.548483e-05 -0.00012312472 -9.725949e-05
-0.000118454096 2.8076485e-05 5.9616e-05 5.910026e-05 5.460965e-06 -3.542857e-05 -6.813434e-05 -3.93785e-05
6.240565e-05 4.974914e-05 -2.3519906e-05 4.5060737e-05 -2.414833e-05 -4.3132677e-06 -0.000110778594 0.00018163603
-0.00026251766 -9.5787174e-05 -5.7445395e-05 -7.838223e-05 -0.00013225016 3.0982916e-05 -8.7873304e-05 9.05371e-05
5.994448e-05 -1.0689362e-05 -1.4842779e-05 0.00019708139 4.6373625e-05 -0.00019617933 -0.0003120208 4.196174e-05
3.3746397e-05 -5.9142138e-05 7.3376727e-06 -9.8010576e-05 2.7165774e-05 -0.0001517863 -0.00024332578 8.370711e-05
-2.7658893e-05 1.0462895e-06 -8.179085e-05 3.0031933e-05 3.2927837e-05 -3.1408272e-06 -9.983047e-05 -4.240287e-05
-1.0422036e-05 -5.0409485e-06 -4.8683323e-06 0.00013772008 -0.000103193044 -1.1263008e-05 -4.2667387e-05 6.901365e-05
1.2887003e-05 6.80099e-05 2.0411459e-05 -5.900515e-05 -0.00013588267 -3.347125e-05 4.5705547e-05 -1.08042e-05
8.349815e-05 -4.1963638e-05 -3.5701607e-05 -2.7181177e-05 2.1930724e-05 -6.169687e-05 -3.2716893e-05 6.0111557e-05
-3.725458e-05 -5.518535e-06 2.184022e-06 -2.5599698e-05 -2.0007333e-06 -4.905762e-05 9.006393e-05 -7.944477e-05
7.0283306e-05 5.4049742e-05 -3.915729e-05 2.2956126e-05 7.544941e-05 -8.537643e-05 2.814074e-05 -3.285397e-05
-4.46532e-05 2.9910583e-05 7.681786e-06 -0.00012395802 3.7752616e-05 9.116029e-05 0.00013536321 -2.1758318e-07
2.6820151e-05 2.3575636e-05 -3.1449865e-05 3.9068775e-05 1.9696381e-05 -2.3883666e-05 8.1659426e-05 -1.4802631e-05
00000000: b52b f4b9 d5e1 f2b7 e291 95b9 64b1 5338
00000010: e736 b938 9f80 3838 a9db 69b9 da81 7038
00000020: db9e 82b8 606c a1b9 8698 2838 32ca 4839
00000030: 8e89 2eb9 72a9 96b9 78d4 9bb9 81fb c338
00000040: 6d74 8f38 00a8 6039 1623 cd38 dd47 15b9
00000050: 3eda 88b9 04ac 5fb9 b6b0 1b39 bc3a a7b8
00000060: 7d34 1839 4eba 95b8 fe4c 7fb9 bf12 6f39
00000070: 3290 8939 a3ab 83b9 4dd8 0cb9 3910 6039
00000080: c89b 6fb9 de4e 22b8 07f0 5337 0f64 01b9
00000090: 7f08 2fb9 707c bdb9 63e9 9939 42ad 7ab9
000000a0: 0217 4a37 ac59 6239 e9b1 c4b9 ba43 2639
000000b0: 0d77 8e39 0776 2eb9 a25a 4c38 c9eb 26b8
000000c0: 55a1 04b9 dfd9 8d38 3ef3 3ab9 1685 08b8
000000d0: 5545 a039 591c 4039 84b7 9839 3eb1 6137
000000e0: ffbc 8239 3839 d738 9b4e 8a38 39a6 09b9
000000f0: 6d08 ec39 e063 22b9 5d25 6539 c155 1539
00000100: 17a3 8db6 c67e 1537 a614 aab8 ccc2 8137
00000110: 8f33 f437 4c37 c735 49ee 66b8 bf7e dbb7
00000120: 2ce1 0eb7 9b94 3bb7 0621 c5b7 be2c 8238
00000130: c9e8 28b8 19df 07b7 ba3a 5fb7 39c3 f937
00000140: b5c1 0235 90cd 0c38 ddc4 b637 55cb 79b8
00000150: c3e9 9db8 4c94 8fb6 675a 0838 b059 6db7
00000160: 4fa9 5538 31b7 a6b7 09f9 16b8 c01f 14b7
00000170: d459 2d38 7758 7b36 57e5 9934 96fe 4638
00000180: bfd1 e936 a32d 56b6 fa75 b7b6 e0b2 35b8
00000190: ea4c dfb7 7820 3bb7 7c70 6238 e469 26b8
000001a0: c38f 7a38 49a9 8337 8e81 b937 43d5 0a37
000001b0: de6e 1838 e186 61b8 9c7d 20b7 512c 96b7
000001c0: fb3f 54b7 4c7b a537 8379 9637 673b acb8
000001d0: 4a7c 3a38 1b4d 1c38 5a71 3d38 9222 90b6
000001e0: a0c2 4eb6 7f50 e236 e835 cdb7 43bd cc37
000001f0: 4bfc e637 7ec2 c337 714c 4138 c334 63b7
00000200: af48 91b8 3e8f 47b8 ff0c 1639 0945 a3b8
00000210: 7947 b8b8 b186 bab6 c32a de38 a033 ae38
00000220: 04d1 e937 e414 5a38 e721 0bb8 f4d9 2eb9
00000230: c5e7 4239 7d8a 91b8 39b0 e438 55cf 2ab8
00000240: 655f 0938 a78a a1b8 c720 9eb8 01be 2d38
00000250: 5a76 2039 e754 89b8 0a1b 01b9 cbf7 cbb8
00000260: 8f6a f8b8 cb85 eb37 310c 7a38 6ce2 7738
00000270: 553d b736 2399 14b8 58e3 8eb8 582a 25b8
00000280: c7df 8238 bba9 5038 9d4c c5b7 99ff 3c38
00000290: 2592 cab7 b0ba 90b6 ce51 e8b8 8d75 3e39
000002a0: 86a2 89b9 59e1 c8b8 86f1 70b8 2461 a4b8
000002b0: a2ac 0ab9 a7f3 0138 9f48 b8b8 bcde bd38
000002c0: e56c 7b38 7656 33b7 4005 79b7 a2a7 4e39
000002d0: 4d81 4238 7db5 4db9 b996 a3b9 1300 3038
000002e0: eb8a 0d38 630f 78b8 2136 f636 078b cdb8
000002f0: 0ee2 e337 d328 1fb9 4425 7fb9 ea8b af38
00000300: 0505 e8b7 3c6e 8c35 2187 abb8 16ed fb37
00000310: ff1b 0a38 00c7 52b6 135c d1b8 bcd9 31b8
00000320: 4eda 2eb7 6b25 a9b6 a85a a3b6 f468 1039
00000330: 5869 d8b8 40f6 3cb7 c2f5 32b8 6cbb 9038
00000340: 4235 5837 89a0 8e38 4639 ab37 4c7c 77b8
00000350: ba7b 0eb9 7b63 0cb8 f5b3 3f38 b043 35b7
00000360: ba1b af38 1d02 30b8 4fbe 15b8 2203 e4b7
00000370: dff7 b737 4163 81b8 7f39 09b8 4b20 7c38
00000380: cd41 1cb8 db2b b9b6 3691 1236 efbe d6b7
00000390: 5644 06b6 38c3 4db8 b4e0 bc38 969b a6b8
000003a0: 1065 9338 78b3 6238 d23c 24b8 e891 c037
000003b0: 983a 9e38 1f0c b3b8 c70f ec37 afcc 09b8
000003c0: 024a 3bb8 7de8 fa37 05e1 0037 bafa 01b9
000003d0: 9058 1e38 4f2d bf38 49f0 0d39 cfa0 69b4
000003e0: d6fb e037 4bc4 c537 09e9 03b8 c7dd 2338
000003f0: a839 a537 c859 c8b7 9240 ab38 d158 78b7

lstm.lstm1.bias_ih_l0 f4 [256]
0.0106133 0.0011139365 -0.0007176194 0.00093126495 0.0013700213 9.226463e-05 0.0031111313 0.0019502647
0.0005972802 0.0018505532 -0.0017965368 -0.0009135055 0.0055353898 0.0023235944 0.012262051 0.0001367109
0.0022183792 0.0022673565 0.0031172854 3.366917e-05 -0.003410149 0.0036293205 0.004440336 0.0044124625
-0.0006751871 0.00067466794 -0.0025074203 0.007535668 0.0053367084 0.0010955762 0.004035177 0.0046147536
-0.00029136086 0.0026784956 0.0003342103 -0.0026858752 0.0018588755 0.005713922 0.0037283432 0.002268957
0.0070651798 0.0023790589 0.0044098487 0.0024309913 0.003435462 0.0023569076 0.0038869695 0.0009861832
0.002810797 0.0010467841 0.0024611016 0.0045947386 0.0062136007 0.0018357503 0.014070551 0.0012892833
0.0056221033 0.0010673872 0.0011298564 0.001284929 -0.0058029387 0.007060718 0.0043714065 0.002056117
0.01580298 0.001887883 -0.0066562365 0.0022115663 0.0027304515 -0.0019888936 0.0009927722 -0.0034820265
-0.0006176964 0.0022149498 -0.00046259916 -0.0037682564 -0.03338761 -0.009714901 -0.013247479 0.00090715446
0.0013341268 0.002452273 0.0028355191 -0.0005795665 -0.012068849 -0.01734051 0.0035085776 0.005992921
-0.003462211 -0.0008992099 -0.0019455355 -0.025046298 0.0049034897 0.0060607707 0.004111533 -0.0029448888
0.0011275517 -0.00027886976 0.00045600266 -0.006172547 0.00096621097 0.006649823 0.0024373466 -0.0057606064
0.00331569 0.0017092967 -0.020145144 0.0022304999 0.0014464989 0.0018133189 0.0032802254 -0.00037242207
-0.0019744216 0.0008427024 0.005093517 -0.004420162 -0.006742043 -0.0043595308 -0.038933035 0.00030673516
-0.042487685 0.001534098 0.00014986488 -5.3582487e-05 -0.029036082 -0.006861527 -0.011624421 -0.009893635
-0.059414513 0.0033710033 -0.012512686 0.017958153 0.031716425 -0.0022403188 0.008318284 -0.006179484
-0.046679065 0.0679365 -0.055378124 0.052596048 0.09508572 -0.046159487 0.05016052 -0.01636327
0.026101606 0.006205109 0.025267277 -0.011727616 0.06164439 -0.054726213 0.026867954 -0.030529497
0.028464485 0.0137789585 -0.04136249 0.02313401 0.03325695 -0.03581956 -0.033194568 -0.05016108
0.04267427 -0.031799007 -0.03982664 -0.04543821 0.027782394 0.07456462 0.023013655 0.020400127
0.02192681 -0.044038095 -0.024921646 0.037652794 0.016574057 -0.0007912813 0.031174205 0.039213967
0.050339937 -0.010450778 -0.012355571 0.0689349 -0.05139042 -0.087341614 -0.101902805 0.004554261
0.06517379 -0.0014318295 -0.043386716 -0.027507314 -0.034911454 -0.041038644 -0.011483376 0.017849779
0.010566978 0.001083712 -0.00061228336 0.0009311508 0.0013793586 9.346242e-05 0.0031115913 0.0019520989
0.0006003429 0.0018406578 -0.0018819735 -0.0008965117 0.005703998 0.0023560382 0.012763214 0.00013823627
0.002197485 0.0022725991 0.0030964722 2.2270728e-05 -0.0032078878 0.002731415 0.004466122 0.0044153603
-0.00065951335 0.00067268 -0.0025183025 0.007528035 0.005342655 0.0010801353 0.0040437547 0.004601779
-0.00028208035 0.0026800022 0.00033460942 -0.0028876658 0.0018617557 0.0057026083 0.0037289844 0.0022796125
0.0071235183 0.0023853579 0.004547017 0.0024294332 0.0034422881 0.0023499865 0.003887414 0.0010129905
0.0028078875 0.0010223213 0.0024456494 0.0046442035 0.0062168725 0.0018650956 0.014529727 0.0012916944
0.005728823 0.001066643 0.0011311276 0.001292351 -0.0058023226 0.007074618 0.004384163 0.0020676039
00000000: 68e3 2d3c 8201 923a 9f1e 3cba 2220 743a
00000010: 4992 b33a 327e c138 1fe4 4b3b 06a0 ff3a
00000020: cc92 1c3a 438e f23a c679 ebba 5178 6fba
00000030: 3762 b53b 7247 183b c5e6 483c 0e5a 0f39
00000040: 3a62 113b ee97 143b 5f4b 4c3b ff37 0d38
00000050: ce7c 5fbb e5d9 6d3b 3d80 913b 6b96 903b
00000060: 0aff 30ba 33dc 303a 8853 24bb c4ed f63b
00000070: 8edf ae3b 7099 8f3a 8539 843b 5c37 973b
00000080: cbc1 98b9 b389 2f3b f238 af39 8205 30bb
00000090: 83a5 f33a da3b bb3b 3857 743b c8b2 143b
000000a0: 0683 e73b fce9 1b3b 7e80 903b 4451 1f3b
000000b0: 7d25 613b 5976 1a3b 87bc 7e3b d142 813a
000000c0: 5935 383b 3f34 893a 6f4a 213b 768f 963b
000000d0: 769b cb3b 8f9d f03a 2b88 663c 2bfd a83a
000000e0: 9f39 b83b 92e7 8b3a b117 943a 106b a83a
000000f0: 9426 bebb 985d e73b 043e 8f3b ebbf 063b
00000100: 4075 813c d772 f73a 8f1c dabb edef 103b
00000110: 60f1 323b 1958 02bb e81f 823a b632 64bb
00000120: e7ec 21ba b128 113b 0289 f2b9 daf4 76bb
00000130: 72c1 08bd 402b 1fbc f40b 59bc 1bce 6d3a
00000140: dedd ae3a 50b6 203b 1ed4 393b 0dee 17ba
00000150: 6cbc 45bc af0d 8ebc 2af0 653b 4460 c43b
00000160: 43e6 62bb f4b8 6bba 5701 ffba e52d cdbc
00000170: 74ad a03b 6e99 c63b 0aba 863b 09ff 40bb
00000180: 5bca 933a 4435 92b9 a413 ef39 1443 cabb
00000190: 5249 7d3a c2e6 d93b e4bb 1f3b 78c3 bcbb
000001a0: 0c4c 593b 7b0a e03a 6e07 a5bc 942d 123b
000001b0: 7398 bd3a e3ac ed3a 0df9 563b a541 c3b9
000001c0: 4c65 01bb cde8 5c3a 84e7 a63b 02d7 90bb
000001d0: 5bec dcbb 65da 8ebb 3f78 1fbd 4cd1 a039
000001e0: 9107 2ebd c913 c93a 0c25 1d39 c2bd 60b8
000001f0: 14dd edbc a9d6 e0bb 5b74 3ebc ea18 22bc
00000200: a25c 73bd 0dec 5c3b 0202 4dbc fa1c 933c
00000210: 15e9 013d 50d2 12bb 6949 083c 457d cabb
00000220: 8c32 3fbd 4b22 8b3d 2cd4 62bd f46e 573d
00000230: 4dbc c23d bb11 3dbd 1e75 4d3d 440c 86bc
00000240: 09d3 d53c 3a54 cb3b 52fd ce3c 3025 40bc
00000250: d47e 7c3d 9828 60bd 2f1a dc3c ff18 fabc
00000260: 5a2e e93c 24c1 613c b76b 29bd 8983 bd3c
00000270: 7138 083d 88b7 12bd 07f7 07bd b475 4dbd
00000280: 37cb 2e3d ad3f 02bd 4221 23bd 6b1d 3abd
00000290: e797 e33c 56b5 983d 2287 bc3c 2b1e a73c
000002a0: da9f b33c 4a61 34bd 7b28 ccbc d139 1a3d
000002b0: 51c6 873c fd6d 4fba 0c61 ff3c d39e 203d
000002c0: 4031 4e3d bd39 2bbc 056f 4abc be2d 8d3d
000002d0: c37e 52bd 29e0 b2bd 6bb2 d0bd e93b 953b
000002e0: d679 853d 3aac bbba 45b6 31bd 0557 e1bc
000002f0: 50ff 0ebd 2318 28bd c524 3cbc b339 923c
00000300: 1e21 2d3c 570b 8e3a a481 20ba 7918 743a
00000310: 98cb b43a 4101 c438 d7eb 4b3b 92dd ff3a
00000320: 5460 1d3a 3a42 f13a 8dac f6ba e203 6bba
00000330: 9ae8 ba3b c367 1a3b cd1c 513c 84f3 1039
00000340: ae03 103b e3ef 143b 2fee 4a3b 06d2 ba37
00000350: 6d3b 52bb 8a01 333b 8c58 923b baae 903b
00000360: 31e3 2cba ca56 303a 1b0a 25bb bcad f63b
00000370: 7011 af3b 5493 8d3a 7981 843b 85ca 963b
00000380: 2fe4 93b9 faa2 2f3b 846e af39 fe3e 3dbb
00000390: 2806 f43a f2dc ba3b fa61 743b 8d65 153b
000003a0: 676c e93b aa53 1c3b 25ff 943b 2037 1f3b
000003b0: 0398 613b 3b02 1a3b fcc3 7e3b 52c6 843a
000003c0: 8904 383b 69ff 853a 3047 203b 672e 983b
000003d0: e8b6 cb3b 3976 f43a 180e 6e3c 124e a93a
000003e0: dab8 bb3b 9ace 8b3a 5842 943a 1b64 a93a
000003f0: 6921 bebb 32d2 e73b 06a9 8f3b a380 073b

lstm.lstm1.bias_hh_l0 f4 [256]
0.010615291 0.0011075721 -0.0007142338 0.00093126495 0.0013742785 9.255402e-05 0.0031111313 0.0019502647
0.0005956056 0.0018505417 -0.0018015967 -0.000919342 0.0055838795 0.0023275437 0.012203511 0.00013670018
0.0022220234 0.0022673565 0.0031171609 3.361665e-05 -0.003387947 0.003283898 0.004439764 0.0044124625
-0.00063540944 0.0006746558 -0.0025063143 0.007532997 0.005361602 0.0011003694 0.0040348643 0.0046147536
-0.00029136092 0.0026805555 0.0003341671 -0.002680247 0.0018588755 0.005713922 0.0037283432 0.002268957
0.0070768953 0.002379051 0.0050548636 0.002429643 0.003435462 0.0023568964 0.0038869672 0.0009752331
0.002810797 0.0010467842 0.0024604073 0.004645956 0.0062136007 0.001835777 0.014348252 0.0012892827
0.005622535 0.0010674807 0.0011298542 0.0012840535 -0.0059620324 0.007060708 0.004345281 0.0020562194
0.01580294 0.001887172 -0.0066560684 0.0022115635 0.0027306967 -0.0019888934 0.0009927722 -0.0034820265
-0.0006198806 0.0022149489 -0.0004621693 -0.0037684902 -0.033619072 -0.0097145075 -0.013406676 0.0009071557
0.0013341503 0.002452273 0.0028355117 -0.0005795666 -0.012075321 -0.017041523 0.0035085867 0.005992921
-0.0034653747 -0.0008992067 -0.0019455001 -0.02504621 0.0048987735 0.0060602184 0.004107165 -0.0029448888
0.0011275519 -0.0002806778 0.0004559267 -0.0062823524 0.00096621097 0.006649823 0.0024373466 -0.0057606064
0.0033293865 0.0017092967 -0.020031858 0.0022320866 0.0014464989 0.0018133328 0.0032802254 -0.00036836718
-0.0019744216 0.0008427024 0.0050936467 -0.0044198446 -0.006742043 -0.00435954 -0.03923589 0.00030673516
-0.042487167 0.0015341241 0.00014986488 -5.3541135e-05 -0.029357648 -0.0068616625 -0.011614122 -0.009893345
0.002094457 -0.015504757 -0.047354296 -0.040725358 -0.023170214 -0.00068483996 -0.06299909 0.03106621
0.027637647 0.018272229 0.026584199 -0.011436396 -0.045670547 -0.07939301 0.027262446 0.04398109
0.023798341 0.07564427 0.018910965 -0.058038995 -0.042251486 -0.0819356 -0.006266723 -0.0044297273
0.04944966 0.015319538 -0.03749552 -0.00914293 0.07168637 0.06754961 -0.018936947 0.036843624
0.002973927 -0.048604075 0.039800406 -0.058319267 -0.07399225 -0.042422343 0.052090157 -0.017083215
-0.018761236 0.06794941 -0.09118253 -0.035149157 -0.021627702 -0.085326366 -0.059522856 -0.005758963
0.0056869476 -0.011947142 0.006836136 0.015779419 0.086835325 0.04633603 0.075774856 -0.05962883
-0.04128815 0.019431494 0.02794942 0.057696927 0.09512456 0.0149377845 0.043779474 -0.054799825
0.010567515 0.0010957276 -0.0006108513 0.0009311508 0.001377248 9.362093e-05 0.0031115913 0.0019520989
0.0006018595 0.0018406592 -0.0018770517 -0.0008947301 0.005541677 0.0023539877 0.012282019 0.00013824477
0.0021975064 0.0022725991 0.0030958613 2.2254433e-05 -0.0032339958 0.0028367608 0.004464369 0.0044153603
-0.0006774339 0.00067269336 -0.00251886 0.007530951 0.0053388737 0.0010871831 0.004039721 0.004601779
-0.00028208017 0.0026798937 0.00033461952 -0.0029262279 0.0018617557 0.0057026083 0.0037289844 0.0022796118
0.0071060252 0.0023853418 0.004908153 0.0024290006 0.0034422881 0.0023500004 0.003887414 0.0009954597
0.0028078875 0.0010223213 0.0024459208 0.004621854 0.0062168725 0.0018650927 0.014507622 0.0012916937
0.0057300725 0.0010641996 0.0011311376 0.0012917329 -0.005115568 0.0070745493 0.0044035665 0.0020685939
00000000: c2eb 2d3c f42b 913a 6b3b 3bba 2220 743a
00000010: 2221 b43a 9019 c238 1fe4 4b3b 06a0 ff3a
00000020: 6a22 1c3a e08d f23a 8e23 ecba ffff 70ba
00000030: faf8 b63b b489 183b 3cf1 473c 2d57 0f39
00000040: 5e9f 113b ee97 143b 4849 4c3b 9aff 0c38
00000050: 5208 5ebb ab36 573b 717b 913b 6b96 903b
00000060: 9b91 26ba 62db 303a fa40 24bb 5cd7 f63b
00000070: 61b0 af3b 453a 903a e536 843b 5c37 973b
00000080: cdc1 98b9 42ac 2f3b 2633 af39 15a7 2fbb
00000090: 83a5 f33a da3b bb3b 3857 743b c8b2 143b
000000a0: 4de5 e73b dae9 1b3b 45a3 a53b a53a 1f3b
000000b0: 7d25 613b 2976 1a3b 7dbc 7e3b c9a6 7f3a
000000c0: 5935 383b 4034 893a c93e 213b 1b3d 983b
000000d0: 769b cb3b 749e f03a ee14 6b3c 26fd a83a
000000e0: 3e3d b83b b5ea 8b3a 9e17 943a b04d a83a
000000f0: 275d c3bb 835d e73b dc62 8e3b a3c1 063b
00000100: 2b75 813c fc5a f73a 261b dabb e1ef 103b
00000110: 7df5 323b 1858 02bb e81f 823a b632 64bb
00000120: 7c7f 22ba ad28 113b 504f f2b9 c6f8 76bb
00000130: 27b4 09bd 9929 1fbc ada7 5bbc 30ce 6d3a
00000140: a8de ae3a 50b6 203b fed3 393b 0eee 17ba
00000150: 91d7 45bc aa9a 8bbc 51f0 653b 4460 c43b
00000160: 571b 63bb bdb8 6bba 2700 ffba b62d cdbc
00000170: e485 a03b cc94 c63b 6695 863b 09ff 40bb
00000180: 5dca 933a f027 93b9 7209 ef39 31dc cdbb
00000190: 5249 7d3a c2e6 d93b e4bb 1f3b 78c3 bcbb
000001a0: d631 5a3b 7b0a e03a da19 a4bc 3348 123b
000001b0: 7398 bd3a 5aad ed3a 0df9 563b 6821 c1b9
000001c0: 4c65 01bb cde8 5c3a 9be8 a63b 58d4 90bb
000001d0: 5bec dcbb 79da 8ebb d0b5 20bd 4cd1 a039
000001e0: 0607 2ebd aa14 c93a 0c25 1d39 5b91 60b8
000001f0: 737f f0bc ccd7 e0bb 2949 3ebc b217 22bc
00000200: 2843 093b aa07 7ebc 94f6 41bd a2cf 26bd
00000210: 76cf bdbc d586 33ba ab05 81bd 907e fe3c
00000220: 5968 e23c a4af 953c 1bc7 d93c b95f 3bbc
00000230: 0a11 3bbd cd98 a2bd 7e55 df3c 8425 343d
00000240: bdf4 c23c 62eb 9a3d 2beb 9a3c 4cba 6dbd
00000250: e50f 2dbd dacd a7bd 1559 cdbb 3f27 91bb
00000260: ba8b 4a3d cdfe 7a3c e794 19bd 3acc 15bc
00000270: 4ed0 923d 7357 8a3d a821 9bbc 57e9 163d
00000280: 37e6 423b 1115 47bd c005 233d 2fe0 6ebd
00000290: 4089 97bd 0dc3 2dbd 7d5c 553d 19f2 8bbc
000002a0: 2ab1 99bc 0f29 8b3d e8bd babd 90f8 0fbd
000002b0: 942c b1bc 97bf aebd 3dce 73bd afb5 bcbb
000002c0: 9359 ba3b f2bd 43bc aa01 e03b d743 813c
000002d0: b8d6 b13d d9ca 3d3d d92f 9b3d 5c3d 74bd
000002e0: c31d 29bd cc2e 9f3c 2ff6 e43c 9d53 6c3d
000002f0: aad0 c23d 9cbd 743c 1b52 333d c875 60bd
00000300: 5f23 2d3c 849e 8f3a 8921 20ba 7918 743a
00000310: c684 b43a 5b56 c438 d7eb 4b3b 92dd ff3a
00000320: 1bc6 1d3a 4642 f13a 6707 f6ba 528c 6aba
00000330: f596 b53b 5c45 1a3b 853a 493c ccf5 1039
00000340: 0a04 103b e3ef 143b efe3 4a3b 08af ba37
00000350: 72f1 53bb f3e8 393b d749 923b baae 903b
00000360: d295 31ba b057 303a 7513 25bb 32c6 f63b
00000370: b8f1 ae3b d07f 8e3a a35f 843b 85ca 963b
00000380: 29e4 93b9 28a1 2f3b df6f af39 f5c5 3fbb
00000390: 2806 f43a f2dc ba3b fa61 743b 8a65 153b
000003a0: a9d9 e83b 6553 1c3b 92d4 a03b de2f 1f3b
000003b0: 0398 613b 7702 1a3b fcc3 7e3b 167a 823a
000003c0: 8904 383b 69ff 853a be4b 203b ec72 973b
000003d0: e8b6 cb3b 2076 f43a 61b1 6d3c 0c4e a93a
000003e0: 55c3 bb3b 9d7c 8b3a ae42 943a 5d4f a93a
000003f0: 7fa0 a7bb 9fd1 e73b cb4b 903b 3f91 073b

lstm.bn1.weight f4 [7]
-0.020952728 -0.012831007 0.015733823 0.05050269 0.08253002 0.08281352 0.50420535
00000000: 0ea5 abbc 2539 52bc 38e4 803c e9db 4e3d
00000010: 8005 a93d 239a a93d 9a13 013f

lstm.bn1.bias f4 [7]
0.0013022771 0.00089201715 -0.00064321444 -0.004235412 -0.00967758 -0.009738261 -0.00037989864
00000000: 2bb1 aa3a 42d6 693a 649d 28ba 36c9 8abb
00000010: b68e 1ebc 3a8d 1fbc 222d c7b9

lstm.bn1.running_mean f4 [7]
-1.3012938e-05 1.8589882e-06 2.2770102e-05 4.1234918e-05 5.5018154e-05 6.442134e-05 7.0498485e-05
00000000: 2552 5ab7 5982 f935 6c02 bf37 a8f3 2c38
00000010: 4bc3 6638 f219 8738 96d8 9338

lstm.bn1.running_var f4 [7]
0.00014619005 0.0003099943 0.0004074064 0.00045764566 0.00048221508 0.00049396063 0.0004994836
00000000: 984a 1939 bb86 a239 2999 d539 29f0 ef39
00000010: d0d1 fc39 237d 013a c7ef 023a

lstm.lstm2.weight_ih_l0 f4 [256, 64]
0.001409835 0.00067505875 -0.00084980443 0.000690632 0.0005215139 0.00033950392 0.0009776414 0.0007083681
1.4582642e-05 -0.0006260013 -0.00077394943 0.0012303949 0.0005455772 0.00060249225 -0.0002448515 0.00025046666
-0.00044060874 -0.0005918393 0.00077460165 -0.00018271578 9.684349e-05 -0.0003538405 0.0007997308 0.0007964003
0.0011718322 0.0006727691 -0.00050915516 -1.1077247e-05 2.3731973e-05 0.0016668052 0.0010482529 0.00018999878
-0.00046442708 0.00024241327 0.00038616871 -0.0009708203 -0.0010442385 -0.00017645044 -0.00014556265 -1.1786792e-05
0.0018563652 0.0007481726 0.0016080968 0.0014244609 0.0011114796 0.0010931209 0.0005808334 -3.5644553e-05
-3.426379e-05 0.00027994925 0.00090569456 0.001183606 0.00058324356 6.159299e-05 0.00015542343 0.00014932176
0.00052418094 0.0005160082 0.0004090277 -0.00041122944 0.0016222873 0.0010762069 0.0013238415 0.00041239135
0.00013850449 1.0252923e-05 -0.00012224959 3.7671733e-05 1.5119024e-05 -0.000110638626 -5.6251647e-05 -7.473741e-05
-5.074621e-06 -3.0332412e-05 -0.00024173305 6.9792084e-05 8.943217e-05 -7.8211924e-05 0.00014161889 -5.3223288e-05
5.7396006e-05 0.00011488393 0.00017960866 -0.00014688166 -9.981996e-05 -0.00027402845 8.285186e-05 -4.464499e-05
0.00020048012 8.459804e-06 -0.00014163148 -0.00012322419 0.00015119232 0.00014183058 -1.905251e-05 7.7538374e-05
6.870428e-05 2.3194072e-05 -1.31976285e-05 -0.00024155465 2.0948206e-05 6.153226e-05 6.2589956e-05 1.2791944e-05
0.00016693442 -6.226404e-05 6.6598834e-05 -5.797279e-05 -3.5254216e-05 -0.00011071448 2.3677985e-05 4.168213e-06
-3.5631405e-05 4.601565e-05 6.657904e-05 0.00010751029 1.1806658e-05 -3.9468778e-05 2.7347345e-05 -7.610685e-07
-2.0992324e-05 -1.1050029e-05 -0.00011470469 -7.97016e-05 0.00019941745 3.9683036e-05 -9.762312e-05 -2.5394078e-05
-0.0052440213 -0.00028466491 0.0038916266 -0.0012956831 -0.00051402376 -0.00067759946 0.003949252 0.002516566
0.0003406131 -0.00020601701 0.0030863371 -0.0053619794 0.0031079953 -0.0018977264 0.001742819 -0.0020623594
0.0015650908 0.0012604252 0.0007269642 0.0032976747 0.007967753 -0.001753605 -0.0011108554 0.00021214891
-0.004003953 0.0018375817 -0.00072412606 0.004472716 0.0019132732 -0.0013222394 5.87234e-05 -0.001428044
0.0005201518 0.0018404607 0.0007498701 0.00217365 0.002062066 0.00024779383 -1.4813578e-05 0.0026421684
-0.004187774 -0.0018505786 -0.0050548897 -0.00023047751 -0.0013823565 0.0029101276 -0.0005375506 0.0025568686
0.0018554467 -0.00035775005 -0.0030642226 0.0018508863 0.0018307609 -0.003893781 -0.0011121433 0.004089811
0.0011766299 0.00010601841 0.0037565182 -0.0032054733 0.002805783 -0.00087770756 -0.0016070391 0.0041536023
6.609532e-05 1.9989104e-05 -7.712976e-05 2.900844e-05 1.9580159e-05 -3.6417045e-05 -3.651149e-05 -3.8063125e-05
-4.971973e-06 -2.6612095e-05 -0.00010825614 4.527772e-05 1.2844487e-05 -2.5810985e-05 4.1095427e-05 -1.9032217e-05
-1.1955863e-06 4.4020897e-05 9.044403e-05 -6.7973335e-05 -5.2116222e-05 -0.0001044351 6.461058e-05 -4.29312e-06
0.00010179005 1.1075833e-05 -9.33741e-05 -3.7492693e-05 7.6584314e-05 7.5383854e-05 2.8346414e-05 5.7536785e-05
3.6392456e-05 1.720661e-05 -7.4730287e-06 -0.00010487316 -1.1987302e-05 2.9011459e-05 5.293084e-05 -5.774174e-06
9.959171e-05 -2.5165618e-05 5.6040106e-05 1.5391489e-06 6.503635e-06 -2.695449e-05 8.141519e-06 -1.4795263e-06
-8.183919e-06 2.3345438e-05 3.9019735e-05 2.3026038e-05 2.3994238e-05 -2.420415e-05 2.2303253e-05 -6.207217e-06
5.247832e-06 5.350582e-06 -6.1442646e-05 -1.4842662e-05 0.00011341497 5.6727607e-05 -2.0160152e-05 -2.3700151e-05
00000000: 36ca b83a 6df6 303a 69c5 5eba 870b 353a
00000010: 35b6 083a 72ff b139 3424 803a c7b1 393a
00000020: f8a7 7437 3c1a 24ba dee2 4aba 3445 a13a
00000030: 1105 0f3a 92f0 1d3a 695f 80b9 1151 8339
00000040: 8101 e7b9 aa25 1bba a30e 4b3a 6597 3fb9
00000050: 7418 cb38 ab83 b9b9 07a5 513a 85c5 503a
00000060: 2a98 993a c55c 303a d378 05ba 6ad8 39b7
00000070: 0614 c737 b478 da3a 8865 893a 693a 4739
00000080: 597e f3b9 5130 7e39 b076 ca39 a67e 7eba
00000090: d4de 88ba 8e05 39b9 2da2 18b9 e3bf 45b7
000000a0: 4851 f33a 0321 443a c6c6 d23a fab4 ba3a
000000b0: 11af 913a 0d47 8f3a 1243 183a 0c81 15b8
000000c0: 77b6 0fb8 27c6 9239 226c 6d3a 3a23 9b3a
000000d0: d0e4 183a 7c2b 8138 29f9 2239 4193 1c39
000000e0: 3069 093a b944 073a c572 d639 489a d7b9
000000f0: eea2 d43a 830f 8d3a c084 ad3a 3b36 d839
00000100: 843b 1139 f803 2c37 2030 00b9 b701 1e38
00000110: b7a7 7d37 a906 e8b8 bfef 6bb8 57bc 9cb8
00000120: aa46 aab6 5c72 feb7 b979 7db9 575d 9238
00000130: 888d bb38 b505 a4b8 887f 1439 123c 5fb8
00000140: 7ebc 7038 d7ed f038 5555 3c39 3f04 1ab9
00000150: 6f56 d1b8 7aab 8fb9 c1c0 ad38 3141 3bb8
00000160: f937 5239 95ee 0d37 e982 14b9 be35 01b9
00000170: 6189 1e39 5bb8 1439 f4d2 9fb7 199c a238
00000180: 5415 9038 e490 c237 626b 5db7 d549 7db9
00000190: eeb9 af37 e10a 8138 ba42 8338 fb9c 5637
000001a0: 1e0b 2f39 c093 82b8 faaa 8b38 cf27 73b8
000001b0: eddd 13b8 622f e8b8 16a0 c637 addc 8b36
000001c0: ee72 15b8 ee00 4138 5aa0 8b38 2677 e138
000001d0: 3615 4637 478b 25b8 fa67 e537 3b4c 4cb5
000001e0: ac18 b0b7 8363 39b7 9d8d f0b8 7825 a7b8
000001f0: b71a 5139 5671 2638 03bb ccb8 5e05 d5b7
00000200: 0ad6 abbb 143f 95b9 a90a 7f3b e9d3 a9ba
00000210: 8dbf 06ba eea0 31ba ba68 813b f9ec 243b
00000220: 5194 b239 4506 58b9 2544 4a3b 8bb3 afbb
00000230: 82af 4b3b 22bd f8ba 4d6f e43a a628 07bb
00000240: bc23 cd3a da34 a53a be91 3e3a cd1d 583b
00000250: 2e8b 023c 38d9 e5ba 1f9a 91ba 4a74 5e39
00000260: 9833 83bb 03db f03a 47d3 3dba dc8f 923b
00000270: ccc6 fa3a fe4e adba c54d 7638 352d bbba
00000280: cc5a 083a 9d3b f13a ee92 443a cc73 0e3b
00000290: ba23 073b 53ea 8139 d587 78b7 3b28 2d3b
000002a0: 9839 89bb 1d8f f2ba 7da3 a5bb 56ac 71b9
000002b0: 3030 b5ba d7b7 3e3b 69ea 0cba 2391 273b
000002c0: 7632 f33a 6690 bbb9 20d1 48bb 7099 f23a
000002d0: 24f6 ef3a ce2e 7fbb 56c5 91ba d203 863b
000002e0: 2639 9a3a 3356 de38 eb2f 763b eb12 52bb
000002f0: 3ae1 373b f515 66ba 49a3 d2ba f11a 883b
00000300: a89c 8a38 46ae a737 b9c0 a1b8 2757 f337
00000310: 1240 a437 81be 18b8 ea23 19b8 f8a5 1fb8
00000320: ecd4 a6b6 0a3d dfb7 9307 e3b8 95e8 3d38
00000330: a77e 5737 ab84 d8b7 e15d 2c38 60a7 9fb7
00000340: 0878 a0b5 14a3 3838 c5ac bd38 e88c 8eb8
00000350: 5e97 5ab8 2b04 dbb8 8a7f 8738 9f0d 90b6
00000360: 1e78 d538 57d2 3937 d7d1 c3b8 7941 1db8
00000370: e49b a038 6617 9e38 76c9 ed37 a753 7138
00000380: 1aa4 1838 ea56 9037 d4c0 fab6 59ef dbb8
00000390: 121d 49b7 a25d f337 0f02 5e38 c7bf c1b6
000003a0: e4db d038 c11a d3b7 9b0c 6b38 c194 ce35
000003b0: cd39 da36 541c e2b7 8f97 0837 2394 c6b5
000003c0: aa4d 09b7 f2d5 c337 1fa9 2338 0a28 c137
000003d0: 3c47 c937 040a cbb7 df17 bb37 9747 d0b6
000003e0: 8916 b036 2689 b336 c5da 80b8 bf04 79b7
000003f0: 33d9 ed38 ceee 6d38 991d a9b7 b0cf c6b7

lstm.lstm2.weight_hh_l0 f4 [256, 64]
2.4692215e-05 -9.0851944e-07 -0.0001359428 1.6397574e-06 -4.1279596e-05 -1.1549323e-06 7.662692e-05 -6.503991e-06
-5.0450562e-05 5.7884983e-05 7.8845624e-05 -6.692247e-06 3.3588887e-05 0.000107453474 -4.2752847e-05 -2.29653e-06
0.00017854596 -5.683457e-06 -6.9460475e-05 -4.7843896e-05 -0.00012508781 -1.0283729e-05 0.000111618494 1.9895988e-06
9.6238045e-06 4.4014945e-05 -4.7181206e-07 5.174102e-07 -3.3985941e-06 -0.000105852974 -6.317772e-05 4.4204053e-06
-8.698785e-06 -1.4538896e-06 6.8512514e-07 0.00015577835 9.279177e-05 2.8617505e-05 -1.4060446e-05 -9.034885e-05
3.5325143e-06 -2.510449e-06 -6.2461486e-06 3.7968329e-07 1.5824638e-05 -1.3043433e-05 1.379143e-06 -7.6325097e-07
1.7555969e-05 -2.6014093e-05 2.622227e-05 2.4921617e-05 0.00013252335 -9.139023e-06 -5.067806e-06 1.1188568e-05
-0.00011159822 5.7062152e-06 1.0972187e-06 -2.1495865e-05 1.1158729e-06 3.2204598e-06 -0.00015420765 3.2730397e-05
4.4134512e-07 2.906688e-07 -2.1767182e-05 3.5668475e-07 3.498939e-08 2.258557e-07 4.962267e-06 3.9292098e-07
-1.2334636e-06 1.8870694e-06 2.4064302e-06 3.4728737e-07 1.5229914e-06 2.5741265e-06 1.459096e-06 4.6306357e-07
2.1289383e-05 4.0370549e-07 -5.8242e-06 -1.009101e-06 -1.7701713e-06 -3.2327853e-07 1.6731743e-05 2.8134798e-07
-1.0622191e-07 -2.1257863e-07 -3.038247e-07 3.2199947e-07 3.8981335e-07 -4.8695397e-06 -2.9253079e-06 3.7444397e-07
1.1955584e-06 4.7486472e-07 4.2459143e-07 1.3465341e-05 -5.958885e-06 1.2262211e-06 3.772859e-07 1.2326008e-05
3.477624e-07 -5.624593e-07 9.552376e-08 3.6622498e-07 -2.3275832e-06 -4.2462448e-06 3.844481e-07 3.8003253e-07
3.0353092e-08 -1.3285215e-05 7.4953687e-07 -4.3818213e-06 1.5125006e-05 1.6760717e-07 -2.3959362e-07 2.1036763e-07
2.1662154e-06 2.6701284e-07 2.570889e-07 1.5743737e-07 4.6612794e-07 2.9987794e-07 -9.505592e-06 1.7004477e-06
6.991263e-06 2.282186e-06 0.0010938339 -5.8685946e-06 -2.7533302e-05 9.56684e-06 -0.00019567796 -2.1682084e-05
6.122492e-05 -1.7778244e-05 2.3108145e-05 -3.804012e-05 -6.9186262e-06 7.091967e-05 5.605687e-05 -9.286192e-07
-0.00094212225 -3.1649174e-06 0.00013865152 8.071525e-05 4.3547952e-05 1.1971179e-05 -0.0008610187 6.724612e-06
-4.1102514e-05 4.1465784e-05 -2.216779e-06 3.341569e-05 -1.4148304e-05 3.6272962e-05 7.931375e-05 -6.531426e-06
-7.504726e-05 -1.2962183e-05 8.8255877e-07 -0.0005541664 0.0003698915 -7.1380826e-05 -1.5231098e-05 -0.0005386157
-4.684255e-05 5.9759615e-05 -4.1182673e-05 -4.982222e-06 7.9483674e-05 0.00022609025 9.243835e-06 4.92531e-06
3.892567e-05 0.00020569211 -1.4940681e-05 0.00049141864 -0.0005445802 -1.0363156e-05 8.106048e-05 3.1813717e-05
-0.00013904202 1.22580195e-05 2.5568073e-05 -1.7717895e-05 -5.495859e-06 -1.5843058e-05 0.0004188278 -0.00024095897
2.2337247e-07 5.4218372e-08 -1.1813399e-05 1.0466534e-07 -5.998602e-07 4.9980446e-08 2.8164966e-06 4.753382e-08
-1.2620819e-06 1.2859874e-06 2.5261502e-06 1.0020766e-08 9.3853873e-07 1.6862284e-06 3.5437682e-07 1.3416923e-07
1.1585178e-05 8.312625e-08 -3.3123233e-06 -1.1060895e-06 -2.1685798e-06 5.2459896e-08 9.013154e-06 1.13489996e-07
-3.9880028e-08 -3.013613e-08 -3.4075137e-07 1.1039092e-07 1.1368125e-07 -2.502002e-06 -2.038648e-06 1.3456926e-07
6.177415e-07 1.3098109e-07 1.3024128e-07 8.302896e-06 -1.3577295e-06 4.941897e-07 -6.147077e-08 4.3963155e-06
1.1937594e-07 -2.4619757e-07 1.1985702e-08 1.0363932e-07 -1.106849e-06 -2.2114045e-06 8.857456e-08 9.080026e-08
4.7489202e-08 -6.6962343e-06 4.4901856e-07 -4.119751e-07 7.658592e-06 -3.604586e-08 -1.05001675e-07 6.5827344e-08
1.3020093e-07 9.7045536e-08 6.8377645e-08 -1.316883e-07 2.0372407e-07 9.9682396e-08 -5.787782e-06 1.0000092e-06
00000000: 2122 cf37 fbe0 73b5 de8b 0eb9 a315 dc35
00000010: a123 2db8 2c03 9bb5 c4b2 a038 db3c dab6
00000020: e19a 53b8 87c9 7238 ec59 a538 f78d e0b6
00000030: cbe1 0c38 a558 e138 8551 33b8 161e 1ab6
00000040: 1138 3b39 86b4 beb6 4fab 91b8 feab 48b8
00000050: 012a 03b9 4888 2cb7 b914 ea38 0c85 0536
00000060: ed75 2137 b09c 3838 5b4d fdb4 28e4 0a35
00000070: 6713 64b6 62fd ddb8 487e 84b8 fe52 9436
00000080: fff0 11b7 4423 c3b5 71e9 3735 6f58 2339
00000090: 3499 c238 a00f f037 28e5 6bb7 ab79 bdb8
000000a0: 2210 6d36 2f79 28b6 0296 d1b6 46d7 cb34
000000b0: 27bf 8437 1ed5 5ab7 fe1a b935 35e2 4cb5
000000c0: 2845 9337 d738 dab7 e5f7 db37 c40e d137
000000d0: f7f5 0a39 ce53 19b7 1f0c aab6 89b6 3b37
000000e0: d709 eab8 0478 bf36 2644 9335 0552 b4b7
000000f0: 1ac5 9535 141f 5836 cdb2 21b9 ff47 0938
00000100: 03f2 ec34 370d 9c34 ab98 b6b7 617e bf34
00000110: 3e47 1633 be82 7234 8d81 a636 a6f2 d234
00000120: 7d8d a5b5 3647 fd35 287e 2136 d072 ba34
00000130: 9669 cc35 28bf 2c36 28d6 c335 f99a f834
00000140: 9a96 b237 dcbc d834 7f6d c3b6 7270 87b5
00000150: 9f96 edb5 108f adb4 255b 8c37 2c0c 9734
00000160: 1d1c e4b3 2b41 64b4 591d a3b4 45df ac34
00000170: 8a47 d134 0765 a3b6 6850 44b6 3007 c934
00000180: 1377 a035 e9f0 fe34 67f3 e334 33e9 6137
00000190: 6ff2 c7b6 a394 a435 c78d ca34 cdcb 4e37
000001a0: 1ab4 ba34 e9fb 16b5 be22 cd33 949d c434
000001b0: 9333 1cb6 f77a 8eb6 2566 ce34 4607 cc34
000001c0: 945d 0233 90e3 5eb7 c833 4935 8f07 93b6
000001d0: 68c1 7d37 82f7 3334 7fa1 80b4 6ae1 6134
000001e0: 4c5f 1136 f759 8f34 0806 8a34 0e0c 2934
000001f0: 2340 fa34 e9fe a034 357a 1fb7 f03a e435
00000200: 7e96 ea36 a827 1936 fa5e 8f3a d8ea c4b6
00000210: 51f7 e6b7 4481 2037 e72e 4db9 ece1 b5b7
00000220: e165 8038 7d22 95b7 5dd8 c137 458d 1fb8
00000230: 8c26 e8b6 b5ba 9438 9b1e 6b38 3a46 79b5
00000240: c1f8 76ba de64 54b6 fc62 1139 ab45 a938
00000250: 42a7 3638 d3d7 4837 fdb5 61ba faa3 e136
00000260: 7d65 2cb8 8ceb 2d38 f9c3 14b6 d327 0c38
00000270: 815e 6db7 cc23 1838 3f55 a638 8628 dbb6
00000280: b162 9db8 2778 59b7 fae8 6c35 7a45 11ba
00000290: ffed c139 4ab2 95b8 1189 7fb7 e331 0dba
000002a0: ce78 44b8 66a6 7a38 8fbb 2cb8 f62c a7b6
000002b0: 79b0 a638 a412 6d39 f815 1b37 1744 a536
000002c0: 1f44 2338 0eaf 5739 bca9 7ab7 8cd2 003a
000002d0: 29c2 0eba 6bdd 2db7 04ff a938 b86f 0538
000002e0: cfcb 11b9 cba7 4d37 057b d637 e4a0 94b7
000002f0: 1269 b8b6 b5e6 84b7 1e96 db39 eea9 7cb9
00000300: 28d8 6f34 bbdd 6833 2a32 46b7 61c4 e033
00000310: 1406 21b5 15aa 5633 0b03 3d36 fd27 4c33
00000320: ce64 a9b5 319a ac35 ee86 2936 cc27 2c32
00000330: e4ef 7b35 5e52 e235 2e41 be34 2810 1034
00000340: f65d 4237 2483 b233 4849 5eb6 f274 94b5
00000350: eb87 11b6 4450 6133 3437 1737 c9b7 f333
00000360: 8e48 2bb3 066f 01b3 83f0 b6b4 0d10 ed33
00000370: ee20 f433 11e8 27b6 b5cf 08b6 1e7e 1034
00000380: dfd2 2535 cfa3 0c34 73d8 0b34 ab4c 0b37
00000390: 3b3b b6b5 75a8 0435 ea01 84b3 1084 9336
000003a0: cf2d 0034 232d 84b4 ade9 4d32 5290 de33
000003b0: 0b8f 94b5 a467 14b6 6136 be33 f9fd c233
000003c0: eef6 4b33 37b0 e0b6 a410 f134 6d2d ddb4
000003d0: 677d 0037 d8d0 1ab3 487d e1b3 f75c 8d33
000003e0: 5ccd 0b34 5967 d033 02d7 9233 3466 0db4
000003f0: 3fbf 5a34 fa10 d633 ab34 c2b6 0e38 8635

lstm.lstm2.bias_ih_l0 f4 [256]
0.0007605521 0.0003741555 -0.0122654885 0.00016343026 0.00031775748 0.000120753226 -0.0020799683 4.135531e-05
-0.0018899639 0.0018159362 0.000987259 0.00013304925 0.001012482 0.005429068 0.002250172 0.00015655559
-0.003716301 0.00017981346 0.00032482436 0.00038103358 0.013726675 -0.0014098816 -0.016023288 0.00012523525
0.00021362684 0.002369635 0.000309554 0.00010881015 8.020729e-05 0.0061579444 0.0010105526 0.0001902131
0.00011714256 0.00017347909 0.00012431738 -0.00484201 0.005771842 0.0028055354 0.000109084365 -0.0053104763
0.00011540536 0.00041224662 0.00023240593 9.946469e-05 0.00089695415 0.00019020452 0.00017705203 0.00013043755
0.0008565509 0.0055671255 0.0008320144 0.012890093 -0.0013685917 0.00011779576 0.00031019258 0.00034395928
0.0034773115 0.0002267344 0.00012382549 0.00042196774 0.00017724147 0.00016454945 -0.0017784843 -0.004010798
0.00013062326 3.4195542e-05 -0.012881838 1.7702192e-05 -0.00046830968 3.6271792e-06 -0.0025940784 6.0865727e-06
-0.0015067179 2.0756033e-05 -0.0012848476 7.250707e-08 -0.00013075264 0.000612019 0.0021855251 3.142909e-05
-0.00660887 1.24599455e-05 -0.0016945277 0.00017281644 -0.008775568 -0.0007548973 -0.012293693 1.9667114e-05
3.6287667e-05 0.00049280643 -8.869889e-06 1.0327954e-05 2.9262059e-05 0.0006738478 -0.0004077703 1.7564518e-05
-3.6033543e-05 1.3096834e-05 1.5288211e-05 -0.0054478077 -0.008121537 0.0009470638 1.0945185e-05 -0.010751582
1.3498467e-06 -3.202365e-05 6.00393e-06 1.5041442e-05 9.0427646e-05 -0.00042397456 2.9687222e-05 1.9869096e-05
3.8452e-05 -0.0059196474 -5.2459858e-05 0.0013103951 -0.003603207 8.300768e-07 -0.00017423237 3.3692937e-05
-0.0062237103 2.4209638e-05 3.7178568e-06 4.6276673e-05 2.897107e-05 1.1224531e-05 -0.003268239 -0.0018001044
0.013946964 0.005638628 -0.06517832 0.001987891 -0.014113008 -0.0015126193 0.025014311 0.012965827
0.010643472 0.0059157866 -0.03679081 0.008161481 -0.013681202 0.0007288288 -0.0022310854 0.00091788004
0.032292996 -0.000307349 -0.034832064 -0.0041024503 -0.0482203 0.03727934 0.05847954 0.0012810733
0.0050643953 -0.012243272 0.0002721841 0.0014642082 0.0063430266 -0.00037571465 -0.003548938 -0.0028865293
0.014185176 0.008791155 0.00257586 0.033440307 -0.032937583 -0.0072880695 -0.00073310157 0.055844486
0.00031190636 0.012833189 -0.011382914 0.0045396704 0.005946604 -0.0024571782 0.00066813774 0.00085015193
-0.00039469174 -0.01856679 -0.009915263 0.0005336889 0.00065409974 0.0022919134 -0.0055124657 0.0016865679
-0.025115412 0.002136233 0.0016750381 0.0021190937 -0.0006868556 0.0022886763 -0.065410465 -0.04389315
0.00075840345 0.00037495795 -0.012419155 0.00016735974 0.00031038295 0.000121528035 -0.0021310702 4.0078685e-05
-0.0019196376 0.0018118109 0.0009776042 0.00012802446 0.0010227741 0.0053230627 0.0022272156 0.00015588645
-0.003941575 0.00017614373 0.00034031758 0.0003830984 0.01405682 -0.0014503789 -0.016333254 0.00012787615
0.00020527998 0.0023673717 0.0002998505 0.00010978548 7.6731456e-05 0.0059675537 0.0010050351 0.00019041605
0.00011196258 0.00017703042 0.00012682147 -0.0047608865 0.005911095 0.0027913658 0.00010989787 -0.0055112317
0.00012091241 0.00041002748 0.00022692404 0.00010023668 0.00089518476 0.00020682935 0.00017834394 0.00013367206
0.0008579338 0.0051677763 0.0008275549 0.012827777 -0.0015203995 0.00011216599 0.00030411792 0.0003425675
0.0034392788 0.00022278911 0.00011658776 0.0004243648 0.0001791464 0.0001563001 -0.001718862 -0.0040527014
00000000: ca5f 473a 4d2a c439 30f5 48bc 7a5e 2b39
00000010: b098 a639 e53c fd38 1450 08bb ed74 2d38
00000020: aab8 f7ba b504 ee3a ea66 813a 2383 0b39
00000030: 42b5 843a 53e6 b13b 9f77 133b 1229 2439
00000040: 2f8d 73bb 4f8c 3c39 304d aa39 76c5 c739
00000050: d9e5 603c c7cb b8ba 4543 83bc 9551 0339
00000060: 0501 6039 e14b 1b3b a24b a239 0131 e438
00000070: f634 a838 95c8 c93b 8574 843a f173 4739
00000080: 6faa f538 f0e7 3539 315b 0239 b9a9 9ebb
00000090: b821 bd3b 13dd 373b 39c4 e438 8103 aebb
000000a0: c805 f238 ce22 d839 feb1 7339 b397 d038
000000b0: 9321 6b3a a371 4739 0ba7 3939 10c6 0839
000000c0: 288a 603a 6f6c b63b 8b1b 5a3a f830 533c
000000d0: 5162 b3ba 1e09 f738 58a1 a239 6f55 b439
000000e0: 9be3 633b 8dbf 6d39 27d7 0139 8d3b dd39
000000f0: e5d9 3939 e88a 2c39 081c e9ba 036d 83bb
00000100: eaf7 0839 2f6d 0f38 580e 53bc 2b7f 9437
00000110: 7687 f5b9 776a 7336 6a01 2abb 433b cc36
00000120: 107d c5ba 3e1d ae37 5568 a8ba 2fb5 9b33
00000130: a51a 09b9 e66f 203a 073b 0f3b bad2 0338
00000140: 388f d8bb 0f0b 5137 ea1a deba 0f36 3539
00000150: 66c7 0fbc 4de4 45ba 7c6b 49bc cefa a437
00000160: 9633 1838 ae2f 013a e2cf 14b7 3a46 2d37
00000170: cb77 f537 29a5 303a 01ca d5b9 8457 9337
00000180: b922 17b8 79ba 5b37 2f3f 8037 8683 b2bb
00000190: 3210 05bc 6044 783a 36a1 3737 6727 30bc
000001a0: 612c b535 2251 06b8 5e75 c936 805a 7c37
000001b0: f9a3 bd38 e748 deb9 d308 f937 8fac a637
000001c0: 8547 2138 9af9 c1bb 5808 5cb8 90c1 ab3a
000001d0: c823 6cbb 71d2 5e35 25b2 36b9 8451 0d38
000001e0: 44f0 cbbb cd15 cb37 4b80 7936 3319 4238
000001f0: e606 f337 fe50 3c37 f42f 56bb 7bf1 ebba
00000200: cf81 643c 3dc4 b83b 367c 85bd 4747 023b
00000210: 3f3a 67bc 1543 c6ba d0ea cc3c 9f6e 543c
00000220: f561 2e3c 37d9 c13b f6b1 16bd bbb7 053c
00000230: 1f27 60bc df0e 3f3a 6737 12bb e39d 703a
00000240: a945 043d af23 a1b9 11ac 0ebd d96d 86bb
00000250: a682 45bd 39b2 183d 3e88 6f3d b0e9 a73a
00000260: 3af3 a53b 0198 48bc eeb3 8e39 adea bf3a
00000270: 2ad9 cf3b 91fb c4b9 4d95 68bb ed2b 3dbb
00000280: f168 683c c708 103c c2cf 283b b4f8 083d
00000290: 8fe9 06bd c2d0 eebb 9d2d 40ba 30bd 643d
000002a0: 5d87 a339 4c42 523c 677f 3abc 84c1 943b
000002b0: bbdb c23b 9c08 21bb f725 2f3a bbdc 5e3a
000002c0: a1ee ceb9 6119 98bc a173 22bc 41e7 0b3a
000002d0: e477 2b3a ed33 163b eaa1 b4bb d40f dd3a
000002e0: d6be cdbc 0b00 0c3b f48c db3a 7ee0 0a3b
000002f0: 190e 34ba 9efd 153b ecf5 85bd 4ec9 33bd
00000300: 98cf 463a 0196 c439 b679 4bbc 4a7d 2f39
00000310: e5ba a239 dedc fe38 6da9 0bbb 291a 2838
00000320: 599c fbba 497a ed3a f422 803a 4e3e 0639
00000330: 9b0e 863a 166d ae3b 7af6 113b 7375 2339
00000340: 5428 81bb 39b3 3839 a76c b239 99da c839
00000350: 944e 663c a41a beba 51cd 85bc 7e16 0639
00000360: 6d40 5739 e825 1b3b 4135 9d39 a13c e638
00000370: e3ea a038 788b c33b 62bb 833a 6baa 4739
00000380: 74cd ea38 3ea1 3939 61fb 0439 3601 9cbb
00000390: dcb1 c13b 59ef 363b f878 e638 9097 b4bb
000003a0: 5b92 fd38 f5f8 d639 75f2 6d39 2836 d238
000003b0: d5aa 6a3a 55e0 5839 d601 3b39 522a 0c39
000003c0: f6e6 603a 7356 a93b 45f0 583a 992b 523c
000003d0: 2448 c7ba a83a eb38 0472 9f39 a29a b339
000003e0: 8665 613b 7f9c 6939 9480 f438 487d de39
000003f0: 3fd9 3b39 7de4 2339 704b e1ba 86cc 84bb
