073123/0810hoxyhoxy2.pth (torch, 703255 bytes, 38 tensors)

lstm.lstm1.weight_ih_l0 f4 [256, 12]
00000000: 03d0 5dbd bfe7 3fbe 26d6 8fbe 6965 abbc
00000010: 5c08 f4bd a25f 6ebe 9d2a 4ebe 8097 9bbe
00000020: cd14 61be b826 73be 4ae0 fdbd ba63 01bf
00000030: 2e14 1fbe 7eae a5be 04d1 a2be 3063 01be
00000040: 1676 7dbe e7cc 56be 6b7e 8fbe 73ae c2be
00000050: 7fb0 74be 730a 42be a9a7 293d 8b29 30bf
00000060: b0b2 243b 170b 10be c088 09be 247a 7c3d
00000070: be9f 33be 939e 0ebe 593c 55be a81f 3cbe
00000080: 2e0c 23be 33b5 f0bd 767b 46be 2fbf 23bf
00000090: a811 19be 4241 acbe cb40 a9be ae31 7cbe
000000a0: 3633 57be cdf6 47be e5b7 80be 4435 0abf
000000b0: d160 b7be 8c97 b5bd ba60 5dbe 83c5 a23d
000000c0: 2da3 b4bd e9bd 503d b9c5 1bbe 2cbe 94be
000000d0: 0264 983d 07f8 29bd 37b8 5fbd 406a dfbd
000000e0: fa39 1fbe 7aa2 8cbd f4f9 8cbc 2e71 683e
000000f0: 2848 20bd 7633 1fbe 5c1a e7bc bc90 3ebe
00000100: 9681 17be 503e 71bd 0ca1 1f3d 60e4 8fbd
00000110: fa99 a9bd 750a 96bd 32fe b33c 2865 893e
00000120: b9a3 28bd d59a 7bbe 128b 7ebd 5c9e 2abe
00000130: 5f9c 143e 9ef7 f9bc fa52 c5bd 269b ffbd
00000140: 4f6c babd 4008 073c 7826 87be cf23 14bf
00000150: b476 e6bd 7d80 0abe 24f4 48be a31d 66bd
00000160: f548 b1bd 0ce3 393c 2216 c2bd 8313 eb3b
00000170: 3b96 03be bf5d 2e3c e160 66be 97d5 fabe
00000180: 22d5 8abe 9f28 85bd 34af f6bd 8455 1cbe
00000190: b516 c8bd 7fde 17be ebc0 573d 8717 96bd
000001a0: 443f 1cbe 4cee 80bd e0a2 de3c 0a5d c53d
000001b0: 5e82 3c3d 8d82 1fbe 684e 4dbe 41fb f2bd
000001c0: c846 4abe aeaa 7ebe 87d8 f73c 688f 2bbe
000001d0: 47c3 c4bd abe9 69be c37f d23a 338e b13e
000001e0: b7ba c73d 7356 c7bd 7a0b 1d3d a407 7c3e
000001f0: e9ed d33d ec09 99bd 03c3 ab3d 9633 cfbd
00000200: eae1 25be a148 4ebd 2870 3a3c c50e 1e3e
00000210: a819 65bd f788 0ebe 811a a0be ea3d 0cbe
00000220: 2667 fdbd 7410 4bbe dbbd 63be aaa1 79be
00000230: 79e6 9fbd df83 53be 58b0 7fbe ebf4 36bf
00000240: 76c1 ae3c 9f91 b7bd 6df2 dabd d973 40be
00000250: a563 b33c 4a39 86bd 2915 55be a066 f0bd
00000260: d3f0 94bd eecd adbc cb69 69be 628b 28bf
00000270: 5bc8 60bd 96aa abbd 4ebc 89bc 0046 f43d
00000280: 27d6 8d3d 233a bf3d d70f d6bd 791c fbbd
00000290: 7ade c8bd 90b1 653c 7525 073e 7acb 833e
000002a0: caf4 5b3e 31c2 d3bc 5101 2e3e 7631 36bd
000002b0: ec0d 423e dd39 6b3d fadd d5bb d2db 9e3d
000002c0: 1cc2 8abd 0438 003d c679 fdbc fc60 e7be
000002d0: 14fd c0bd d756 4dbd 57ea 283d 9927 e1bd
000002e0: 5386 c5bb fae1 34be 4e9c 81bd 726b 70bc
000002f0: c4ed 88bc 6625 17bd 62bb 47bd 5e9d 1cbe
00000300: 601d dabc d3ce ef3c bb44 1abe cbd8 eabc
00000310: d82a 553c 6577 0abe 1767 73be 87c6 82be
00000320: 5a75 59be 7d27 4dbd 40fd c23d 9ae4 d7bc
00000330: aa61 88bd c84b 4bbe 3279 0abc 9d80 d83d
00000340: 5e10 d5bd 641f 43be 4fdb 053d b4d2 c5bd
00000350: 86af 2dbe 0b18 e1bd 5f76 753d 8262 8b3d
00000360: 4e06 ca3d 2cfc a2be ec34 8ebe 7541 63bd
00000370: af56 9cbe e704 6fbe 6a8a b8be beeb 3abe
00000380: 73e5 59be 9dd2 f4bd ba34 10be 5584 69bd
00000390: 7473 b1bd 1c77 eebc 93a7 25be 248d 16be
000003a0: a8d7 dcbb cf77 7b3c 99a4 14be 9c07 25bd
000003b0: bd5f 26be bc49 e03c c66d fe3c 655c a33e
000003c0: 6677 823d 72c5 733d 0c3f 273e 4ff7 fd3d
000003d0: 1fd7 5c3e f3e9 ce3d dcba b93d 0f1b 793d
000003e0: 9a1e 773c e7bc 83bc 71ac aa3d 4220 c53d
000003f0: de74 e0bc f00e 8abe 2679 74be 9b2e 2dbd
-0.054153454 -0.18740748 -0.2809307 -0.02092238 -0.11915657 -0.23278669 -0.20133443 -0.30389023
-0.21980591 -0.23745239 -0.12396295 -0.50542796 -0.15535042 -0.3235969 -0.3180009 -0.12635493
-0.24752077 -0.20976602 -0.28026137 -0.3802372 -0.23895453 -0.18949299 0.04141966 -0.6881339
0.002513092 -0.1406673 -0.13431072 0.06163992 -0.17541406 -0.13927679 -0.20823802 -0.18371451
-0.15922615 -0.11753311 -0.19383034 -0.639636 -0.14948142 -0.33643538 -0.33057246 -0.24628326
-0.21015629 -0.19527741 -0.251403 -0.53987527 -0.35816053 -0.08866796 -0.2161893 0.079478286
-0.08820186 0.050962362 -0.15212144 -0.2905134 0.0744095 -0.041496303 -0.05461904 -0.109089375
-0.1554946 -0.068669274 -0.01720903 0.22699425 -0.039131314 -0.15546975 -0.028210811 -0.186099
-0.14795527 -0.058897316 0.038971946 -0.07025981 -0.08281322 -0.07326213 0.021971796 0.2683499
-0.041171763 -0.24570782 -0.062144347 -0.16661972 0.14512776 -0.03051358 -0.09634967 -0.12480764
-0.091026895 0.008241713 -0.26396537 -0.5786714 -0.112531096 -0.13525577 -0.19624382 -0.056180608
-0.086564936 0.011345636 -0.09476878 0.007173957 -0.12850277 0.010642468 -0.22497894 -0.4899108
-0.27115732 -0.065018885 -0.12045136 -0.15266997 -0.09769956 -0.1483097 0.052674215 -0.07328706
-0.15258509 -0.062954515 0.027177274 0.096368864 0.046022765 -0.15577145 -0.20049441 -0.11864329
-0.19753563 -0.24869797 0.030254615 -0.16753924 -0.09607559 -0.22843044 0.0016059804 0.34678802
0.0975241 -0.09733286 0.038341023 0.2461229 0.10348112 -0.074725956 0.08386805 -0.10117261
-0.1619946 -0.050362233 0.011379279 0.15435322 -0.05593267 -0.13919435 -0.3127022 -0.13695493
-0.1237319 -0.19830495 -0.22240393 -0.24378076 -0.07807631 -0.20655774 -0.24969614 -0.71467465
0.021332484 -0.08963322 -0.1069077 -0.18794192 0.0218981 -0.06553896 -0.20808853 -0.11738324
-0.07272496 -0.021216359 -0.22794263 -0.6583768 -0.054878574 -0.08382146 -0.016813423 0.11927414
0.06925612 0.093372606 -0.1045224 -0.1226129 -0.09808059 0.014019385 0.13197882 0.25741178
0.21480098 -0.025849434 0.1699269 -0.044480763 0.18950623 0.05742823 -0.006526706 0.07756771
-0.06775305 0.03130342 -0.030941855 -0.4519118 -0.09423271 -0.050131645 0.04123911 -0.10993881
-0.0060279756 -0.17664328 -0.06328641 -0.014674054 -0.016714938 -0.0369009 -0.048762687 -0.15294406
-0.026625335 0.029273426 -0.15065281 -0.028667828 0.013010703 -0.13522108 -0.23769794 -0.2554209
-0.21236172 -0.050086487 0.0952096 -0.026354123 -0.06659253 -0.19853127 -0.008451747 0.10571406
-0.104035124 -0.19054943 0.032679852 -0.09659329 -0.16961488 -0.10990914 0.05992734 0.06805898
0.09864484 -0.31833017 -0.2777475 -0.055482347 -0.30534884 -0.23341714 -0.36043102 -0.18253991
-0.21278934 -0.11954234 -0.14082614 -0.057010967 -0.08664599 -0.02910953 -0.16177206 -0.14702278
-0.0067395754 0.015348389 -0.14515914 -0.04029046 -0.16247459 0.02737891 0.031058203 0.3190643
0.0637043 0.05951447 0.16332644 0.12400686 0.21566437 0.10103216 0.09068844 0.06081682
0.01508298 -0.016081287 0.08333672 0.09625293 -0.027399477 -0.2696452 -0.2387434 -0.042280775

lstm.lstm1.weight_hh_l0 f4 [256, 64]
00000000: 0aaa 333c 15a6 c7bd ae83 61bd acaa dbbd
00000010: c7f7 06bc dd5e 01be d98c 883d a013 11bd
00000020: 6c7c ebbd 537a 8abd 8d69 363d 4001 8e3d
00000030: bf61 a9bd e43f a6bd 5117 74be eeea fcbd
00000040: 4e53 ca3d 60f1 81bd 360e b23d 139d a6bd
00000050: e744 333e 6184 793d 8ff3 ac3b 8f87 f838
00000060: 0b09 3a3d 8bf0 8abb 8d5d a0bd c43b e33d
00000070: a0e5 2f3d eb97 0d3e a3c9 1d3e 9dba c03d
00000080: 506f eb3d 1216 b53a e229 b8bd 8582 6f3d
00000090: d1b4 14bd d195 3b3e c69e 723d 4a4d f53d
000000a0: 00aa ed3b 8e94 c5bc 20f3 d13d fa9d 463d
000000b0: 8f2a 1bbe e69d 0f3e 191b bfbb b04a 743d
000000c0: 7ac4 7b3c d009 2e3e 74c9 9a3d 0066 febd
000000d0: 5e12 ab3d a1f3 0b3e a9df 863d 0a67 203d
000000e0: 670e 343e 46b3 18bd c115 fa3d 011b 2c3e
000000f0: fa8b 2bbd a746 c3bd 5780 03be 8e8e dc3b
00000100: f972 aabc b380 d8bc c204 263d 534d 8ebc
00000110: d604 48b9 0ded 4abe e612 8ebc d56d d33a
00000120: f698 9dbc d678 5dbd 4c3e eb3d a88a 40be
00000130: a3bc 46bb 07ce ec3d c022 59bc 1f45 a6bd
00000140: e976 273c 91a1 283e 9535 513d 99fb 853c
00000150: dcad b63d a472 233e e6de ec3d 136d 49bc
00000160: 2f5a 64bd f3c4 bfbd 58c1 f73d ba4d a7bc
00000170: bb3d 6b3d 8b31 d1bc 1c2a b4bc 04a6 a83c
00000180: 91c7 0b3e 65fc 1dbd 2bc4 01be c543 6e3d
00000190: 5ee3 c73d a634 5ebd 17eb 92bd d80d 2cbc
000001a0: b1a7 d5bd 22fe a53d ebdc 583d 6676 df3d
000001b0: 5034 063e 4790 a33d b880 a23d a509 ef3b
000001c0: 2fe0 d9ba 3d82 1e3e 1a75 04bd 0c33 753d
000001d0: 5742 a93c 8703 9abb 7a99 653d 6600 5d3e
000001e0: c936 d1bb c487 a1bd fff0 53be 509c febc
000001f0: e58c 113d d12e 0ebd 4424 a0bd 0680 8e3d
00000200: 56c4 dfbd 53ef c3ba d843 80bc 0da2 383e
00000210: 5111 7c3d 2293 103e 7f0e 87be aa9b a53b
00000220: 9ebb 133e af16 8abe a3e3 6e3e c081 a43d
00000230: 4dc5 ec3c 3195 303e 0af2 413e 8b5f 553d
00000240: 6724 65be 0631 043e cfec 40be 5ac5 453e
00000250: 3589 ebbd fc00 d33d b67e 123e c7a2 d4bd
00000260: 5f51 2bbd cbe6 5d3e 9a94 673d f12c 38be
00000270: e9a6 853e 0af1 143c 25c2 683d 66cc a63d
00000280: cb33 86be 6afc 2cbe 1321 01be 2ef7 8ebd
00000290: 60e1 b7bd 2842 d0bd 14fd 963c c6e8 d2bd
000002a0: 66a8 c53d cb4d e9bd b990 55be b1b8 a23d
000002b0: 2d20 3cbe a748 e93b 4306 783d 1505 a83e
000002c0: 60bc 3dbc 0875 c43d 4ccf 383d 4d11 903e
000002d0: 0963 12be 242e e9bd 6f53 1f3e 3af5 f83d
000002e0: 0c60 8dbc ae82 903c cfd9 e3bd 8fa8 d43d
000002f0: 2684 3c3e b0b9 6f3d 740a 0c3e 9d69 a9bb
00000300: 7263 1e3d df3b 00be 19f1 963e 53df 843b
00000310: d9c9 9dbd 13cb 1b3e 8b52 29bd 06dc 57be
00000320: 4b89 b23e 5fdc dbbd d463 943e 50fe 8abe
00000330: aa77 4bbe 34e7 a4bd 41e3 eebc 1e57 5fbe
00000340: 8898 813d f848 b6be c6ab b13c bcfa 763e
00000350: 0b90 1ebd 7250 eb3d 1ba7 983e 8305 583d
00000360: abe4 0fbd 4fd7 bb3e 8c30 d33d 0edc 05bd
00000370: 8c5c 4f3d f6fe f73d 54ab 01be c6cc 933e
00000380: 1883 d2bd 1185 13be 8afa 02be 2983 aebe
00000390: 0ed9 a53e a42a 01be 86f9 4bbd d96d 20bc
000003a0: 773c 9abd b9f0 08be f8b1 6f3e 7d7d 7cbe
000003b0: de7e e8bc 89e1 d7bd 41c2 4d3e 3da3 c53d
000003c0: e6cb 14be 0f0d 733e 11ec 6dbd a21c 1b3e
000003d0: 7234 8a3d 3370 77be 8c8e e7bd 4752 d7be
000003e0: a92b 2a3e af20 2e3e e074 33be 96b7 debb
000003f0: 20d4 203e 1406 28be 389b 3f3d faf0 703e
0.010965833 -0.097484745 -0.05505722 -0.107259125 -0.008237786 -0.12633844 0.066674896 -0.035419106
-0.11498341 -0.06761613 0.044534255 0.06933832 -0.08270597 -0.08117655 -0.2383702 -0.12349497
0.0987917 -0.06344867 0.08694117 -0.08135428 0.17506753 0.060917262 0.005278058 0.00011850811
0.04541878 -0.0042401007 -0.078303434 0.11095384 0.042943597 0.13827483 0.1540895 0.09410594
0.114958405 0.0013815782 -0.089923635 0.058474082 -0.036305252 0.18318869 0.05923345 0.11977632
0.0072529316 -0.024118688 0.102514505 0.048490502 -0.15152954 0.14025077 -0.0058320877 0.05964154
0.015366668 0.1699593 0.075579554 -0.12421799 0.08353113 0.13667156 0.065856285 0.039160766
0.17583619 -0.037280343 0.122111805 0.16807176 -0.04188154 -0.0953496 -0.12841927 0.006730861
-0.020806776 -0.026428556 0.04053188 -0.017370855 -0.00019075288 -0.1981699 -0.017342996 0.0016130755
-0.019237977 -0.054070316 0.114864916 -0.18802893 -0.0030324839 0.11562734 -0.013252914 -0.081186526
0.0102212215 0.16467883 0.05107649 0.016355323 0.0891988 0.159617 0.11565952 -0.012294072
-0.05575007 -0.09363737 0.12097424 -0.020422805 0.057431918 -0.02553632 -0.021992736 0.020586975
0.13650347 -0.03857078 -0.12672488 0.0581701 0.09760164 -0.05424943 -0.07173746 -0.0105013475
-0.10432375 0.081051126 0.05294506 0.109112546 0.13105893 0.07986503 0.079347074 0.007294851
-0.0016622598 0.1547937 -0.03233824 0.059863135 0.020661516 -0.0047001275 0.05605457 0.21582183
-0.0063847047 -0.07887223 -0.20697401 -0.031080395 0.035534758 -0.034712616 -0.07819417 0.06958012
-0.1092612 -0.0014948644 -0.01565735 0.18030567 0.06153995 0.14118627 -0.26378247 0.005053957
0.14427039 -0.2697043 0.23329024 0.0803256 0.028902674 0.17244412 0.18939987 0.05209307
-0.22377168 0.12909326 -0.18840335 0.19313565 -0.115007795 0.10302922 0.14306149 -0.1038261
-0.04182565 0.21670072 0.056538202 -0.17985894 0.26103905 0.009090671 0.056825776 0.08144455
-0.2621139 -0.16893163 -0.12610273 -0.069807395 -0.08978534 -0.10168868 0.018431224 -0.10298304
0.0965126 -0.11391791 -0.20855989 0.07945383 -0.18371649 0.0071192565 0.060552847 0.32816377
-0.011580557 0.095926344 0.04511957 0.281382 -0.14295591 -0.11385754 0.15559171 0.12156148
-0.017257713 0.017640438 -0.11125528 0.103837125 0.18409786 0.058526695 0.13675863 -0.005170061
0.038669057 -0.12522839 0.29480818 0.0040549426 -0.07704515 0.15214185 -0.041338485 -0.21080026
0.3487037 -0.10735392 0.28982413 -0.2714715 -0.19869867 -0.08051911 -0.029161097 -0.21810576
0.06327921 -0.35602546 0.021688353 0.24119085 -0.03871159 0.11489953 0.2981499 0.05273963
-0.035130184 0.36687705 0.10311994 -0.032680564 0.05062537 0.12109177 -0.12663013 0.28867167
-0.102789104 -0.1440623 -0.12790886 -0.34084442 0.32392162 -0.12613922 -0.04979851 -0.009791815
-0.07531064 -0.13373078 0.23407733 -0.24657245 -0.028380807 -0.10541064 0.20093633 0.09650276
-0.14530906 0.2373545 -0.05808646 0.15147641 0.067482844 -0.24163894 -0.113064855 -0.4205496
0.16618218 0.17004655 -0.17525053 -0.0067967875 0.1570592 -0.16408569 0.046778888 0.23529425

lstm.lstm1.bias_ih_l0 f4 [256]
00000000: 2025 8ebe 46a5 ffbd 6896 96bd 85c6 a7be
00000010: 21e4 0abe 1c98 e5bd 50a5 1c3d 37e2 2ebe
00000020: 4e2d b9bd a8fa 09be 78c6 91bc 3873 0ebe
00000030: e5b7 8cbd 7d43 f2bd 8aaa 383d 1b8d bcbd
00000040: df38 42bd a466 03be 5e87 2fbe 663c 5dbe
00000050: d155 1abd f3f2 d3bd 93c7 debd ba78 3a3d
00000060: e365 e8bd 4b15 6dbd bd6b ddbd 2424 19be
00000070: 284f 11be 4221 a4bd 7ed9 363d 7d4f b8bd
00000080: e5c3 24be afec 15be c3ee 26be f488 c8bd
00000090: d974 b83d b7a5 afbc f83a dabd e64f 13be
000000a0: 024d afbd 056e 04bb f832 05be 494c 27bd
000000b0: 094e 8f3d de1f 3a3d cfa9 c63b 951c 0cbe
000000c0: c85a 18be e4cd 10be d956 3abe 761b 8fbe
000000d0: f4b2 3bbb c2f8 11be d3df 2ebe 43a3 983e
000000e0: 03f7 a2bd 73a0 01be 2b4c 2fbe 19be f43c
000000f0: fcd4 0fbe 60dc 71bd dccb 7fbe 966e 58be
00000100: 9d50 8f3d c0a2 cebd 9c9f 873d 917f 8ebc
00000110: 0ec8 42be 6b18 b4bd 48fa e23d 3fb8 a9bd
00000120: 1c23 303d 863c a73d 7d8f 183e b8d1 c93d
00000130: f5be 71bd 754d 61bd fdfd cfbd f0e7 2e3d
00000140: 681f 923c a854 913d 02d5 e13d 453e 673d
00000150: fb82 9a3d 015a 59bd 7e64 cc3d 8216 10bd
00000160: badc 24be 94cf b53d c949 043d b49c 52bd
00000170: 0d4c 703d 52ea 85bb 8c41 3dbd 064e b2bc
00000180: d6e0 bdbd b346 2abe 6c24 ed3d 0f7b 313e
00000190: dc7f c5bd cd8c 543c 7572 363d d1a0 373d
000001a0: 2503 1dbe bcb1 d63d 334f 09be 8a42 9ebd
000001b0: 79ce 1a3e 67e5 f53d a8a3 b13d 524b c03c
000001c0: 1aa2 b3bd 04e9 27bd faa2 a5bd 8266 db3b
000001d0: 0a0f 9cbd abb2 fd3d 2f91 abbd 4aee 023f
000001e0: 697b 0d3e 34e1 3a3e 5b7e b4bd bce6 90bd
000001f0: 7c7b 973d a9ac 60bd 8cf1 873b bd95 63bd
00000200: b230 633d 349a 19be 2fd6 46be 8147 9abd
00000210: 41cd 1c3e 8572 283d d3de 3a3d 9c5a 103e
00000220: 5741 5bbd 2d03 803d 3069 05be ecdd 47bd
00000230: f56b 303e fbe9 b33d a259 463b bf2b a33d
00000240: d905 89bd 5c2d 90bc 2e39 9dbd 38e0 bbbc
00000250: 38d6 acbd 58f1 0938 c4ff 35bd ac42 edbd
00000260: 24cb 243d 5d66 2dbd f2fa 07be cc75 9dbd
00000270: 6041 613c 7474 3c3e 622b f73b 8522 d2bd
00000280: 4af6 16bd e9ca d03a 7457 d43d a05a 013e
00000290: d57b 50be 1542 d5bd c1fe f0bd 8058 5ebd
000002a0: 7365 b23c abda d0bc 0572 e4bb 0320 2b3e
000002b0: ab7f 46bd 10d4 9d3d 8043 1abe 4ff2 133b
000002c0: 2ef1 c13d 484c 30be 5897 a23d 962e 843d
000002d0: a393 df3c 8db2 013c 273e 963d f014 5a3e
000002e0: fe19 f7bd 223e 2ebe 63bd 313e 1ec5 b63d
000002f0: 125f 02be 386d a93d 4db6 093e 1f45 b1bd
00000300: 4fd7 74be f2a9 d8bd 1fc2 623d 5bba aabe
00000310: 1f47 4dbe 1de7 2c3b 0fcf 283d 20e0 48be
00000320: 3973 4bbe f5db e6bd 2015 abbd bad5 38be
00000330: 8896 8bbd 9ca1 a0bd d87d e6bd 29f4 793d
00000340: ae5a 35be 031f fabd 61e0 c3bd f17d 96bd
00000350: 9e32 553c 0cb4 1abe 8078 69bd 6ac4 a13c
00000360: 79fc 70be dc76 48be b058 adbd c2be 29be
00000370: ecb1 83be 7265 1ebd 5ce0 a53d 978c 21bd
00000380: 6549 dabd 9cdc afbe bbf5 16bd 7f8c 053e
00000390: 2777 32be 4da6 2bbe 475f 48be db0c 85bd
000003a0: 9050 bd38 1aab 43be 141e 46bd 8c85 b1bd
000003b0: 0599 8d3d 24b6 abbc 1467 65be 4d52 a2be
000003c0: 6b99 0fbe 6bc9 3bbe a2ed 19be aa08 43be
000003d0: a00f 86ba 7580 6cbd 6835 d1bd f91f b63e
000003e0: ca91 3e3d adad bd3d c35e 66be 3e22 95bd
000003f0: 31c3 9bbd 75f9 02be a805 07be 975d d9bd
-0.277627 -0.12482695 -0.073529065 -0.32768646 -0.13563587 -0.11210653 0.03824359 -0.17078482
-0.09041844 -0.13474524 -0.017794833 -0.1391114 -0.068710126 -0.118292786 0.045084514 -0.09206601
-0.047417518 -0.12832123 -0.17141482 -0.21605071 -0.037679497 -0.10349073 -0.108779095 0.04552529
-0.11347558 -0.057881635 -0.10811565 -0.14955193 -0.14190352 -0.08014156 0.04464101 -0.08999536
-0.16090353 -0.14641069 -0.16302018 -0.09791747 0.09006662 -0.021441324 -0.10655779 -0.14385948
-0.0855961 -0.0020207178 -0.13007724 -0.040844236 0.06997306 0.045440547 0.006062723 -0.13682778
-0.1487838 -0.14141041 -0.18197192 -0.2795064 -0.00286406 -0.1425505 -0.1707757 0.2981206
-0.0795727 -0.12658863 -0.171189 0.029875802 -0.14046091 -0.059048057 -0.2498011 -0.21135935
0.06997798 -0.10089636 0.0662224 -0.017394813 -0.19021627 -0.0879372 0.110828936 -0.08287095
0.043002233 0.08165841 0.14898486 0.09854454 -0.05902 -0.05500551 -0.10155866 0.04270166
0.017837241 0.07096225 0.11026956 0.05645587 0.07544514 -0.05306435 0.09980105 -0.035177715
-0.16099826 0.08877483 0.03229693 -0.051418975 0.058666278 -0.004086771 -0.04620509 -0.02176572
-0.092714 -0.16628532 0.115792125 0.173321 -0.09643528 0.012973023 0.04454275 0.0448311
-0.15333231 0.10483119 -0.13409118 -0.07727535 0.15117826 0.12006646 0.08673793 0.023473416
-0.08771153 -0.040993705 -0.08087726 0.0066955695 -0.07620056 0.12387594 -0.08377301 0.5114485
0.13816608 0.1824997 -0.08813163 -0.07075259 0.073966 -0.05485216 0.0041486677 -0.055562723
0.05546636 -0.1500023 -0.19417642 -0.075331695 0.15312673 0.04112484 0.045622658 0.14097065
-0.05352911 0.06250606 -0.13028407 -0.048795626 0.17228682 0.087848626 0.0030265828 0.07967328
-0.066905685 -0.017599754 -0.07676922 -0.022934064 -0.084392965 3.2888114e-05 -0.04443337 -0.11584982
0.040232792 -0.04233395 -0.13279322 -0.076884836 0.013748497 0.18403798 0.0075430134 -0.1026049
-0.036855973 0.0015929613 0.10368243 0.12632227 -0.20359738 -0.10412995 -0.117673405 -0.05428362
0.02177689 -0.025494894 -0.0069716 0.1671143 -0.048461597 0.07706463 -0.15064812 0.0022574847
0.094698295 -0.17216599 0.07939023 0.06454198 0.027292078 0.007916105 0.07336073 0.2129705
-0.120655045 -0.1701589 0.17357402 0.08924316 -0.12731579 0.08272785 0.13448448 -0.08655762
-0.23910259 -0.105792895 0.05536091 -0.33345303 -0.20046662 0.0026382871 0.04121309 -0.19616747
-0.19868173 -0.11272422 -0.08353639 -0.1805028 -0.06815821 -0.078433245 -0.112544715 0.061023865
-0.17710373 -0.12212946 -0.09564281 -0.0734824 0.013012556 -0.15107745 -0.056999683 0.019746978
-0.2353381 -0.19576591 -0.084641814 -0.16576675 -0.2572168 -0.038670965 0.08099434 -0.039440718
-0.1065853 -0.34348 -0.03685544 0.13041876 -0.17428266 -0.16762657 -0.19567595 -0.064965926
9.027228e-05 -0.19108239 -0.04836853 -0.0866805 0.06913952 -0.020960875 -0.22402602 -0.31703416
-0.14023368 -0.18338554 -0.15032056 -0.19046274 -0.0010228045 -0.057739694 -0.102152646 0.35571268
0.046525754 0.09261642 -0.22497086 -0.07281922 -0.07605589 -0.12790473 -0.13185751 -0.10613554

lstm.lstm1.bias_hh_l0 f4 [256]
00000000: d27e 28be c5d8 17be e473 28bd 990e 69be
00000010: 5073 57be cafd f9bd 2591 df3c 21ed c2bd
00000020: 90e3 66be 1106 babd 96c0 f5bc 6e0d 6dbc
00000030: 75aa c2bd 301a debd fc12 b43c 40e5 363d
00000040: 9b84 48be ad84 79bd 1ff0 23be 04fb dbbd
00000050: 3bb5 923d 9834 6ebe f285 c33b 071b 13be
00000060: 4556 3bbd fe16 c8bc c173 a6bd 26ed 88be
00000070: dc56 4abe 042a 42be e544 86bd afa2 25bd
00000080: f6fe 2ebe 69ac b1be a2ac 36be ff45 4dbd
00000090: 6193 b13d 96df 27bc d28f 3ebe edfc dbbd
000000a0: 093c e4bd 04a7 2bbe 4dbe 9ebd 3a1e dabd
000000b0: 38f2 bd3d 5cf9 033b d17d a5bc c23d 7abe
000000c0: 6385 27be 2e72 3bbe 351e e0bd f498 87be
000000d0: 0bc7 77bd 8fb7 34be 3af6 8bbe cb5c c83e
000000e0: 1d87 983d 5896 abbd 994a dbbd e5ea d93c
000000f0: a096 2bbe 0653 16be 491d b2bd 0987 8cbe
00000100: 462c 82bd 8d80 9c3d e5fa 7c3c 4d72 43bd
00000110: 88f9 6ebc 0ba8 0fbe ea4a 1a3e 584b 22be
00000120: 136e 0fbd 2be5 e43d 9762 443d dc40 783d
00000130: ae1e fc3d f79a 803c 6520 80bd 30b8 fa3c
00000140: d4a2 c83d 8573 a9bd 026e 503d b401 c3bd
00000150: 8527 0b3e 9023 c938 c2fa a53d d448 323d
00000160: 920a 2bbe 8417 fc3d 3452 1b3e 31cf a73d
00000170: 8022 c3bd a0a7 54be fbc1 93bd 0561 3ebd
00000180: 4deb 66bd f261 73bd bbb9 c9bc 496b 1c3e
00000190: e3f3 b1bd ba01 b23d 39e2 1cbe 9eac b5bd
000001a0: 6825 463d a22d 853d e74e 843d ac57 2ebd
000001b0: 804e f23d 6e66 643d 9933 883d a78d 483d
000001c0: e110 e33c 017f 22be 0634 05be be8d 68bb
000001d0: 0dd8 00bc f80d 8737 dd81 fd3d cb89 f93e
000001e0: e5c4 ad3d 1005 5fbb 8484 19be b762 043d
000001f0: ec77 363e fea5 a4bd fdf9 abbd 5bfd 94bd
00000200: dde7 f7bd 0d88 013d a87a 0fbe ea5e 9bbc
00000210: cb66 213e 3bb2 773d 657a f4bd ad27 1b3b
00000220: 8c55 00be 92cd debd 75cd 513d dd6f 0f3e
00000230: f4f8 ac3d a2bd 473d 7566 243d f432 1b3e
00000240: e507 ddbc 68f9 8d3c 56f4 41bd 13b9 733b
00000250: b8be 26bd 149b abbd 4fe4 ffbc 9d25 88bd
00000260: 745d 08bc 1e10 1dbe 31ce f4bd 993f 93bd
00000270: e5f7 6b3d 4e65 3a3e 9766 0c3e 9a11 ccbd
00000280: de24 cf3d dc3d 223d 388a 153e 3c68 fe3d
00000290: f0db 33bd 77a4 86bd e8c8 a4bd ee8c 23bd
000002a0: c33e 193e 227b ebbc e675 17bd 3ec6 433e
000002b0: 2abe 9c3c 2d82 2d3d 3c6a 1bbe b730 d1ba
000002c0: 6f43 d33c 186b 68bd d3c1 e13d e0e3 71bd
000002d0: 060a d83c 64a8 4dbc ddeb 5d3c e8e2 443e
000002e0: 7491 08be e73e adbd 58db 953d 13bf abbb
000002f0: bccc c3bd 82e6 48bd a5ea 0d3e e786 5ebe
00000300: 1304 6fbd 40a2 b9bd d317 1abe 9707 ebbd
00000310: dada 2dbe 32ba 9cbc 9b41 823d f4d9 01be
00000320: 7fe9 47bd e6b2 1abe c082 4b3d cac0 3fbd
00000330: dd8c 18bd a362 51bc e0a8 b03d 63b5 cb3d
00000340: f55d 9bbd d2cf a7bd 87b3 cabd fa77 cdbd
00000350: 1639 39bd 668c 56be e4a4 b5bd cfbd d0bd
00000360: 05f3 5bbe 1c89 ebbd c756 e9bd 0f3a 46be
00000370: 7e6b 0bbe 76f9 c0bd 0efe 163d 9bbd 4ebd
00000380: 04af 34be 1816 96be 67fb 51be d426 d03d
00000390: 6b19 03be 69bd 1fbe ea17 52be 3910 58be
000003a0: 079f 27be 0eb1 87bd e617 10be fefe 803d
000003b0: 9f1f a53d ca30 2bbe 7adc bbbd cb65 a8bd
000003c0: 2205 45be 83c4 ecbd 7e0b 7dbe 765d 14be
000003d0: 62a0 b5bd cc80 3ebe 1405 a0bd 4955 9e3e
000003e0: 5ce1 cb3d 57b5 c93d af18 6bbe 859b dfbd
000003f0: a7ac 00be 0061 bcbd 018c 93be f5f9 8ebe
-0.16454628 -0.14828785 -0.041126147 -0.22759475 -0.21040082 -0.122066095 0.02729089 -0.09517885
-0.22547746 -0.09083188 -0.029999059 -0.014468534 -0.09505168 -0.108448386 0.021981709 0.044652224
-0.19581835 -0.060917545 -0.16009568 -0.10741237 0.07163473 -0.2326225 0.0059668953 -0.14365779
-0.04573657 -0.024425026 -0.08127547 -0.2674343 -0.19759697 -0.1896134 -0.06556109 -0.04043835
-0.17089447 -0.3470185 -0.17839292 -0.05011558 0.086706884 -0.010246178 -0.1860955 -0.10741601
-0.11144263 -0.1676293 -0.07751141 -0.106502965 0.09274715 0.0020137643 -0.020201596 -0.24437621
-0.16359477 -0.18305275 -0.109432615 -0.2648388 -0.060492557 -0.17648147 -0.27336293 0.39133295
0.07447646 -0.08378285 -0.10707588 0.026601264 -0.16756678 -0.14680108 -0.08696992 -0.27446774
-0.06356101 0.076417066 0.015440677 -0.047716428 -0.01458586 -0.14028947 0.1506764 -0.15849054
-0.035017084 0.11176523 0.047945585 0.06060873 0.12310539 0.015698893 -0.06256179 0.030605406
0.09796682 -0.08273987 0.05088616 -0.09521809 0.13589294 9.591051e-05 0.08104469 0.043526486
-0.16703251 0.12309173 0.15168077 0.081938155 -0.09528065 -0.20767069 -0.07214733 -0.046479244
-0.056376744 -0.05941958 -0.024624696 0.15275301 -0.08689096 0.086917356 -0.15320672 -0.08870815
0.048375517 0.065028444 0.06460362 -0.04256408 0.11831379 0.055761747 0.066504665 0.048963215
0.02771801 -0.1586876 -0.13008127 -0.0035484876 -0.0078640105 1.6099759e-05 0.12378285 0.4873794
0.0848482 -0.0034030117 -0.14991957 0.032320704 0.17819184 -0.08039473 -0.08397291 -0.07274886
-0.12104771 0.03162389 -0.14011633 -0.018966157 0.15761869 0.06047271 -0.119374074 0.0023674772
-0.12532634 -0.10879053 0.05122133 0.14007516 0.084459215 0.048764832 0.040136773 0.15156156
-0.026981303 0.01733084 -0.047352158 0.003718917 -0.040709227 -0.08379188 -0.031236796 -0.06647799
-0.008323062 -0.1533818 -0.119533904 -0.07189865 0.057609458 0.18202707 0.1371101 -0.09964295
0.10114454 0.039609775 0.14603508 0.12422225 -0.04391092 -0.06574338 -0.08046132 -0.039929323
0.14965348 -0.028745238 -0.03697767 0.19118592 0.019133646 0.042360473 -0.15177244 -0.0015959953
0.02578899 -0.056742758 0.11023297 -0.05905521 0.026371967 -0.0125523545 0.013545004 0.19227183
-0.13336736 -0.08459263 0.07317227 -0.0052412837 -0.09560534 -0.049047954 0.13859041 -0.21731149
-0.058353495 -0.0906415 -0.1504815 -0.11476057 -0.16978016 -0.019131754 0.063601695 -0.12680799
-0.048806664 -0.15107307 0.04968524 -0.046814717 -0.037243713 -0.0127798645 0.0862596 0.09946706
-0.0758628 -0.081939355 -0.098975234 -0.10032649 -0.045220457 -0.20951995 -0.08869341 -0.10192453
-0.21479423 -0.11500761 -0.113935046 -0.19358085 -0.13615224 -0.09422581 0.03686338 -0.05047379
-0.17644888 -0.2931373 -0.20506059 0.10163656 -0.12802665 -0.15599598 -0.20516935 -0.21099938
-0.16369258 -0.066255674 -0.14071617 0.06298636 0.08062672 -0.1671783 -0.09172912 -0.082225405
-0.1924024 -0.11560919 -0.24711415 -0.14488778 -0.08868481 -0.1860382 -0.078134686 0.30924442
0.09955093 0.09849041 -0.22958635 -0.10918335 -0.12565862 -0.09198189 -0.28817752 -0.27925077

lstm.bn1.weight f4 [7]
00000000: 110b 8a3f bd1a 9a3f 2f40 983f 77f7 753f
00000010: 6806 583f a8ad 4c3f 49a1 533f
1.0784627 1.203941 1.1894587 0.96080726 0.84384775 0.7995248 0.82667977

lstm.bn1.bias f4 [7]
00000000: 815d 14bd 6847 5c3d 1877 d83d f91f 64bd
00000010: be5a 303e a47b bb3d d5ff e0bb
-0.036221985 0.053779036 0.1056959 -0.055694554 0.17222115 0.09154442 -0.006866435

lstm.bn1.running_mean f4 [7]
00000000: 14af 8c39 8efd 933b f6cd 0a3c 08c1 1d3c
00000010: dbef 103c 9f39 eb3b 69e8 a03b
0.00026833324 0.00451631 0.0084719565 0.009628542 0.0088462485 0.0071785 0.004910518

lstm.bn1.running_var f4 [7]
00000000: 1fba 053b 61d7 0a3c 0abd 993c 1f6c f33c
00000010: 9e37 1e3d f4d0 363d 59da 433d
0.0020405126 0.008474202 0.018766899 0.029714642 0.03862726 0.044632867 0.047815654

lstm.lstm2.weight_ih_l0 f4 [256, 64]
00000000: af62 fd3d 12ec 3dbd 9b24 913d c6ed 2a3d
00000010: 2694 0fbe 5dc4 91bd 439e 993e ea50 2dbd
00000020: e7c8 3ebd f0bc 363e 7b09 9bbe 9c6d 34be
00000030: 62a9 03be 3a45 a4be 095b 80be 6b51 2c3d
00000040: 87d7 a03d 4535 cfbd 8bb9 2b3e c0f4 80be
00000050: c6fa a13e c9ad ee3d ce32 e8bd 718b 0c3e
00000060: 3359 cebd 81db 96bb 47e1 1e3e 39a6 673e
00000070: 39bc 38be 3ec6 e0bd afcc 233d 40ff 8a3d
00000080: efaa af3d e801 6dbd d2d0 dcbd 3a05 fb3c
00000090: 2760 793e 0ed0 7a3e d3af ad3d 7421 093b
000000a0: 6a43 31bd 386d 5fbe d657 4d3e 9fa3 aebd
000000b0: 0277 883e d04b 9fbe d05b 1d3e eb91 e7bd
000000c0: bd35 38be 3640 2d3d dece ddbc ebc3 f4bc
000000d0: 2098 433c 2e9a a73e 7609 9dbe 1124 423d
000000e0: a4cf dc3d 4f4f e03c 3097 16be d683 1bbe
000000f0: 37c3 9ebe 5565 7c3d c1ac 1e3d aa14 90bd
00000100: bfdd 83bd 3104 95be a83a 403e b9f2 0dbe
00000110: 82af 32be fcac 65bd 41b8 c03e d577 e5bd
00000120: aaa2 06bd 814c dc3d ec70 3e3d 9e48 3dbe
00000130: ac08 7ebe 7c41 0abe d85b a1be e6a6 67be
00000140: b639 af3d 73ef 353e 4487 4ebd a3fc 9a3d
00000150: 9034 ee3d 8985 413c 1925 c9bd 74c7 f73d
00000160: 5166 45be 5532 283e d0c7 4f3e 4d99 583e
00000170: 776b 09be eb5c f8bc c0a4 55be a912 703e
00000180: 6354 8bbc 558b 9fbe 8114 35be e571 55be
00000190: 61a7 0f3d c7d9 9d3d f0cd 2c3d fe31 96bd
000001a0: de67 02be ec85 05be 956d 5e3e 9cd9 19be
000001b0: b2c7 29bd 8f9a ee3d 048f 10bd af20 80bd
000001c0: b899 edbd 2e6c 053e 3629 b4be 93b3 ff3d
000001d0: 3bde 413e af0a ef3d f9cb 0fbe 2ca6 12bf
000001e0: b428 2d3e ec30 813e e7b6 5b3e 258a 58be
000001f0: cab1 c73b 55c6 c8bd 6b83 e73d e840 e8bd
00000200: 4314 bbbd 9cc6 4e3d 2d39 52be 72f7 793e
00000210: 3a14 6f3d 8a79 8e3e 29a4 2cbe feb6 36bd
00000220: 5c13 533d a19f 1dbe c7f9 273e b7c9 843d
00000230: f799 663d 7a68 b3bd fe0b f03d 3cd7 253e
00000240: 296f 35bd 1f4f b8bd ba40 b23a 1c6e e93d
00000250: 74af 633c bd49 363d 8a33 473e d721 27be
00000260: be96 c8bc f2f9 083e 9916 88bd ac3e bbbd
00000270: 1260 5f3e c83d b9bd 5402 acbd e544 4ebe
00000280: 67bc dcbb 5df8 13be e591 983d 378c 563d
00000290: 3077 4ebe 86b5 01be d547 dabd 93c1 b13a
000002a0: 626c 01be 6fa8 be3c 2e34 293e d8bb a33d
000002b0: cdc7 9dbe 90c6 f5bd d7ac aabc f1df 133e
000002c0: 5d16 003e bf85 7bbd b4d1 913d b1ea 703e
000002d0: fe0b d8bd 53de babc 9c1d 333e 9384 f43c
000002e0: c772 60bd 2926 9e3b 2abf 84bb c897 cabc
000002f0: 66bd 36bc 1136 17bc 71dd 133e 36ba c83a
00000300: 4a8b 4e3e e680 473e cd1a cfbe 8f6c 50be
00000310: f0ce a73b 1e06 12bd 7095 94bd bbed 2c3e
00000320: 25b8 f6be 76d7 fc3d b842 88bd c022 dc3e
00000330: 5e4f e03e a6dd 97bd 17e8 1c3f b913 373f
00000340: 1dd5 6bbd 802f 933e 0bc6 1c3e 6eff 56bc
00000350: f4f3 893d e00d 7dbe c407 dd3c a845 d5bd
00000360: 78dd f03e ec03 cdbd 0d1d babd cab1 4b3d
00000370: a993 2dbe 3556 c5bd 8a10 643b d1cc c4be
00000380: dfb3 8a3e d86f 1ebd 860a a13e 7520 e83e
00000390: 1cfd 96be 25d7 073e 758c ac3d 282e 013e
000003a0: 1799 903d 57b9 243e 3d6e f2be 20d6 853e
000003b0: 82fd 8e3e db66 973e 16ae 58be 5fbe c2bd
000003c0: e7f9 9b3e 29fe 51be 9541 c5bc ad32 d33c
000003d0: 5e68 70be 125f 2a3e 369a 28bc b330 283e
000003e0: 0f7a 81be c14d bbbe 0d66 f73b 6b95 9d3e
000003f0: f238 263d 3c24 933c 68db c43d 570e 63be
0.12372338 -0.046367712 0.0708706 0.041730665 -0.14021358 -0.071175314 0.30003557 -0.042313494
-0.046578314 0.17845511 -0.3028067 -0.17619938 -0.12857583 -0.32084066 -0.25069454 0.042069834
0.078536086 -0.10117582 0.16769998 -0.2518673 0.31636637 0.11654241 -0.11337815 0.13725068
-0.10075607 -0.0046038036 0.15515624 0.22622003 -0.18040551 -0.10975312 0.039990123 0.06786966
0.08577525 -0.057863146 -0.10782017 0.03064214 0.24353085 0.24493429 0.084808014 0.002092448
-0.04327718 -0.21819007 0.20053038 -0.08527302 0.26653296 -0.31112528 0.15367055 -0.113071285
-0.1798925 0.042297564 -0.027076181 -0.029878577 0.011938125 0.32734817 -0.3067128 0.047397677
0.10781792 0.027381567 -0.14706111 -0.1518701 -0.31008312 0.061620075 0.03873897 -0.07035191
-0.06438779 -0.2910476 0.18772376 -0.13862123 -0.17449763 -0.056073174 0.37640575 -0.11204497
-0.032869972 0.107567795 0.04649441 -0.18484733 -0.24807996 -0.13501543 -0.31515384 -0.2262226
0.08555929 0.17767124 -0.050421968 0.07567718 0.11631119 0.011811622 -0.09821529 0.120985895
-0.19277312 0.1642545 0.20291066 0.2115223 -0.13419901 -0.030317744 -0.20863628 0.23444618
-0.017008012 -0.3116099 -0.17683603 -0.20844229 0.035071734 0.07707553 0.042188585 -0.07333754
-0.12734935 -0.13039368 0.2172149 -0.15024418 -0.04145021 0.116505735 -0.03529264 -0.06256234
-0.11601585 0.13029549 -0.3518769 0.12485423 0.1893243 0.116719596 -0.14042653 -0.5728481
0.16910058 0.25232637 0.2145649 -0.21146448 0.006094192 -0.09803454 0.11304363 -0.11340505
-0.09134724 0.050482377 -0.20529623 0.24410799 0.0583689 0.27827102 -0.16859497 -0.04460811
0.051532134 -0.15392925 0.16403876 0.064837866 0.056299176 -0.08760162 0.11721037 0.16195387
-0.044295464 -0.08999466 0.0013599612 0.11397955 0.013896812 0.044503916 0.19453254 -0.16321503
-0.024485942 0.13376597 -0.06644935 -0.09142813 0.21813992 -0.09044987 -0.083988816 -0.20143469
-0.0067363265 -0.14450212 0.07449702 0.052379813 -0.20162654 -0.12666902 -0.10658232 0.0013561718
-0.12639001 0.023273675 0.16523811 0.07994813 -0.30816498 -0.120007634 -0.02083437 0.14440896
0.12508531 -0.061406847 0.07120076 0.23527028 -0.10549162 -0.02281109 0.17491764 0.029848373
-0.05479696 0.0048263264 -0.004051109 -0.024730578 -0.011153555 -0.009229199 0.14439942 0.0015314284
0.20170322 0.19482765 -0.40450135 -0.20353912 0.0051211044 -0.035650365 -0.072550654 0.16887562
-0.48187366 0.123457834 -0.066533506 0.42995262 0.43810552 -0.07415323 0.6129164 0.7151447
-0.057576288 0.28747177 0.15309922 -0.013122423 0.067359835 -0.24712324 0.026981242 -0.104136765
0.47043967 -0.10010514 -0.09087572 0.0497301 -0.16950859 -0.09635583 0.0034799897 -0.38437513
0.27090356 -0.03868088 0.3145334 0.45337263 -0.29489982 0.13265665 0.084252276 0.12615263
0.070604496 0.16086327 -0.4734973 0.26139927 0.27927786 0.2957066 -0.21160159 -0.09508967
0.30464098 -0.2050711 -0.024079124 0.025781 -0.23477313 0.16637829 -0.010290673 0.16424827
-0.25288436 -0.3658276 0.007550007 0.3077806 0.04058165 0.017961614 0.09612161 -0.22173439

lstm.lstm2.weight_hh_l0 f4 [256, 64]
00000000: b1ca ce3d 0812 ff3c 699c d6bc b8c3 1ebd
00000010: 8ed0 00be d867 67bd 8ddd 9bbd c570 c33d
00000020: e3e2 503e b73e 8fbd c697 1d3d ef66 223d
00000030: 330c 19be 87f0 613e 16e9 b53c 6c50 b63d
00000040: a2a3 04be b130 6f3d 1460 cbbd e631 56be
00000050: 8b65 17be c4b4 26bc 3e39 193e 834e 6e3e
00000060: 0a67 3f3d 3870 863e 7869 993d 9a25 0f3e
00000070: 20bc cdbd b19b 973c 2e78 12be 4dac 0e3e
00000080: ee8a 30be 8b24 d03d f962 86bd 1dd1 43bd
00000090: c20c 80bd 5020 79bd 976e 173e 0362 0ebd
000000a0: 0130 00be bede be3d 139c f3bd b673 e93d
000000b0: a668 753d 3177 0fbd f0e7 f7bc ca14 063c
000000c0: 3ad1 e4bd 59b9 9c3d 9d81 5a3d da55 3b3e
000000d0: 1d56 eabd b9c4 853d 6287 203d 7a0b ddbd
000000e0: 9107 a63d baa5 a7bd cc9c ab3d 8095 863d
000000f0: fbc2 133d 5ca3 45be bbf5 533d c6f7 df3c
00000100: 49d1 593e a146 debc d743 913e 6a12 073e
00000110: 5fdd 7cbe 5d01 ee3d f14d 0b3d 6ee8 633e
00000120: 2558 443c 43a0 a23d 04c1 d4bd 0203 49bd
00000130: ef18 a9bd b487 563e 2b0c 0dbe 12ec 573d
00000140: add8 173d 6587 cbbd 333a 783d 7de0 c1bc
00000150: b951 a23d 45f7 56be 7c19 69bd 1dd8 503d
00000160: 7387 753d b788 553d 973f 163e 1dc8 893c
00000170: bcb0 d93d fb72 6fbc 6c0e 0b3e a3f2 d83d
00000180: cd96 0d3d 1f92 663e b06a 22be 9a74 073e
00000190: 89d5 85be da00 f63b a062 bfbd 6c5f 933d
000001a0: a86b 58be b11a 84bc 64b0 083e 198c abbc
000001b0: b2e7 e83d 0aea 363d 0b10 0ebd c4ec 11be
000001c0: 87d9 0dbe cef0 1a3d bf81 7c3e 592c 80bd
000001d0: 7ee1 38bc 02c0 9cbc c539 093d 1ec4 f2bd
000001e0: 0e51 e13c 864b 44be c641 373e 4445 19be
000001f0: 3a81 393d c57c bcbd 70ee 253e d8e0 a3bb
00000200: 9e4a 4ebc 26cc c9bd aa99 dbbd d299 a1bc
00000210: 67cc 383e 442e 18be cd45 8cbd 3a19 ce3d
00000220: d98a 52bd d10a 89bc c4bd 1bbe 4ebf c2bc
00000230: 6570 8e3d 443b eb3d 0c0c f2bc 0aa2 7dbd
00000240: ae0b 313c ad47 263d fc71 ecbd e3bb ad3d
00000250: 2535 33bd 36de 19bd 9048 01bb d0e6 343d
00000260: 2969 dfbc 8746 0cbe ea38 203d 2606 aa3d
00000270: 2b04 eebd a6f0 ccbd 6e5c bd3d 1855 dd3d
00000280: 5b86 2f3e fbaa eb3c e89d 03bc 543a fa3d
00000290: 6e6f 013d c7b6 06bc 4846 603e 0cae 5fbb
000002a0: 8af1 8e3c 2cb7 943d 3714 bdbc e85c c63b
000002b0: 33a4 cbbd 8b5a a03d 3f43 123c 0149 91bd
000002c0: 56af f23d a1fd e1bd 0506 d3bd 1610 adbb
000002d0: 17dd e9bd fc0d 90bd 294d e33c 295b 393e
000002e0: 73d1 21be 4cac 913d ec4a d1bd dff7 533d
000002f0: 2197 03be 286d 9d3d efd6 38be 7d3a 59be
00000300: 4ece 0bbd c417 4f3e 424b 7d3e 4602 d63e
00000310: 2267 c7be e701 d53e d0c6 7f3d 69fe 28be
00000320: 3850 e13d b60f b0bd 654b 273e 602a 0bbd
00000330: 1001 1e3e 72d0 5fbe 9ee0 d73d 9285 bc3e
00000340: 200f 8f3e 3ae4 153e d159 fabd 846a 263e
00000350: 422b 90be c4ac bf3e 9b7e a3be 18b3 17bf
00000360: 9a04 36bd c616 c4bd 88df c63d 8d4d b5bd
00000370: 4a5e 133f dd31 0abe a404 c43d 846b abbd
00000380: 2e72 f4bc 7ebe d3bd f67e 73bd 4384 17bd
00000390: 250d 503e dd59 23be afb5 22be fe62 95bd
000003a0: 1c4c 1abe 5d77 313e fcd1 d93e 88a1 d53c
000003b0: 1a0c 45be b55d 07be 677c 963d d471 f3bd
000003c0: 7a62 8c3d 3813 bc3e b390 cebd 37c5 58bd
000003d0: dbde cebc f824 43be 85f4 6ebd bdff 2c3d
000003e0: 6e4e a83e 23b8 fe3d 94d0 19be 0314 013d
000003f0: e14b 24be e4cb 8b3e 19ec 90be 8450 4ebe
0.10097254 0.031136528 -0.026197629 -0.03876087 -0.12579557 -0.056495517 -0.07610617 0.095429935
0.2039905 -0.06994384 0.03847482 0.039648946 -0.1494606 0.2206441 0.02220587 0.08902058
-0.12953046 0.058396045 -0.09930435 -0.20917472 -0.1478483 -0.010174934 0.14963242 0.23272137
0.046729125 0.2625749 0.0749082 0.13979188 -0.100456476 0.018506857 -0.14303657 0.13932915
-0.17240497 0.1016322 -0.06561846 -0.047806848 -0.06252433 -0.06082183 0.1478828 -0.03476144
-0.12518312 0.093198285 -0.11895003 0.11399023 0.059914254 -0.03502578 -0.030261964 0.008183667
-0.11172719 0.0765254 0.053346265 0.18294469 -0.11442206 0.065316625 0.03919161 -0.107932046
0.08106912 -0.08185907 0.08379516 0.065714836 0.03607462 -0.19300598 0.05174802 0.027339827
0.21271242 -0.027133288 0.2837207 0.13190618 -0.24693821 0.11621354 0.034009878 0.22256634
0.011983906 0.07940724 -0.10388377 -0.049075134 -0.08256709 0.20950204 -0.13774173 0.05271537
0.037071873 -0.09937934 0.060602378 -0.023666615 0.079257436 -0.20992763 -0.05690907 0.05098735
0.059943628 0.052132335 0.14672695 0.016819054 0.106294125 -0.014614816 0.1357972 0.10593154
0.034567643 0.22516678 -0.1586101 0.13228074 -0.26139477 0.0075074257 -0.09344983 0.07195935
-0.21134818 -0.016126009 0.13348538 -0.020940827 0.113723174 0.04465679 -0.03468327 -0.14250475
-0.13852511 0.037827305 0.24658869 -0.06258459 -0.01128423 -0.019134525 0.03350236 -0.11853813
0.02750447 -0.19169435 0.17896184 -0.14967829 0.045289256 -0.092034854 0.16204238 -0.0050011687
-0.012591032 -0.09853391 -0.107226685 -0.019726668 0.18046723 -0.14861399 -0.06849251 0.10063405
-0.051401947 -0.01672879 -0.15209109 -0.023772862 0.06955031 0.114859134 -0.02954676 -0.06192211
0.010806007 0.0405957 -0.11545178 0.08483102 -0.043751854 -0.037565432 -0.0019727089 0.044165432
-0.027271824 -0.13698779 0.039116777 0.08301954 -0.11621889 -0.100068375 0.09246145 0.10807246
0.17141096 0.028768053 -0.008033253 0.122181565 0.03160041 -0.008222288 0.2190181 -0.003413084
0.01744916 0.072615 -0.023080928 0.0060535558 -0.09943428 0.0782977 0.0089271655 -0.070940025
0.11849849 -0.11034704 -0.103038825 -0.0052814586 -0.11419123 -0.07033917 0.027746754 0.18101181
-0.15802555 0.07112941 -0.10219368 0.05175006 -0.1285062 0.076868355 -0.1805074 -0.21213718
-0.034132294 0.2022391 0.2473574 0.4179861 -0.38945872 0.41603014 0.06244546 -0.165033
0.11001629 -0.085967466 0.16337354 -0.03397596 0.15430093 -0.2185686 0.10540889 0.36820656
0.27941227 0.14637843 -0.12224162 0.1625157 -0.28158003 0.37436497 -0.3193253 -0.5925765
-0.044437982 -0.09574656 0.09710604 -0.08852682 0.5756575 -0.13495584 0.09571198 -0.08370116
-0.029839601 -0.10339068 -0.05944725 -0.03699137 0.20317514 -0.15952249 -0.1588962 -0.07294272
-0.15068096 0.1733069 0.42543018 0.026078 -0.19242898 -0.1321934 0.073479466 -0.11886945
0.068547204 0.36733413 -0.10086193 -0.052922454 -0.02525275 -0.19057071 -0.05833866 0.04223608
0.32872337 0.12437465 -0.15020972 0.031513225 -0.1604457 0.27303994 -0.28305128 -0.20147902

lstm.lstm2.bias_ih_l0 f4 [256]
00000000: 77c3 7fbd 8dcf cebc 56a7 203e 6d3f d13e
00000010: 4366 1cbe 13d5 423e e05e 07be 069f 173c
00000020: b823 4abe 3195 34be 2edd dfbd a8c8 5bbe
00000030: be5b 01bd eb09 29bd eb47 5a3d de82 dfbc
00000040: 09d5 c63d 6679 1c3e 1971 12be 41c2 af3d
00000050: 950e b13c 4ad6 22be 13fb cfbd a60a 363e
00000060: d60c 44be abc6 d03c 9fdb 953c caae 4dbe
00000070: 65a6 8abc ce8f 73bd 664a f5bd cacf 8abd
00000080: 79aa 25be 6970 cdbd 2de2 4ebe 62a8 bd3c
00000090: 89c3 ca3d f76e 88bc cc9e babd 8a5b 02be
000000a0: 863e b23c 7cde 31be 8ebf 0b3f 5c82 56be
000000b0: 7400 eebd e95f 0cbe f44a 8cbe 881e c0bd
000000c0: 3de8 8b3d ed70 3b3e 325b 1ebe 8851 c0bd
000000d0: 5593 07be 8cc3 413d b616 883d ecb2 4d3d
000000e0: 7c21 963d be9c 00be 4db7 febd 2373 28be
000000f0: 7688 86be cfed cbbc 2cd1 2f3d dcf5 babd
00000100: 3608 16bd 0df5 21be 7979 e43d c09e 2a3e
00000110: 7669 19be 4134 4b3e 5a4e 95bd 077f 15bb
00000120: 998a c9bd a3ad 5ebd a362 c7bd 9c26 12be
00000130: 16dd 493e 851a 233d ae05 5b3d 6e20 2b3e
00000140: 51d1 833e 919e 753e fbd6 3ebd e0b6 d63b
00000150: d94b e63d d90f 06be 7c6f 733c 08e9 1e3d
00000160: 46bf 1bbc ec6f 403d 2b52 af3e 5f2a 16be
00000170: 61a6 033e e68f 74bd 25cb e7bd 8a63 d8bd
00000180: cb2b efbd aca0 fd3d 4868 97bd dee2 153e
00000190: dbcd a23e cb6e d9bd f25a 9a3d 0621 38be
000001a0: fb7b 1f3e a2ec 16be 29ef 4a3e 2e47 153e
000001b0: 2f1b ad3d 700c 193d b59a 13be f939 a2bd
000001c0: 373a 033d 0d0f 603e d1ed 54bc 0dcd 64bb
000001d0: 387c 66be 403d 92bd 2866 493e 4052 863d
000001e0: c58b dd3d 27fb e8bd 7f58 f3bd 0af5 3abc
000001f0: 99e7 7cbd b70f 473e 03cb 033e 999b f3bd
00000200: c27d f2bd 5455 19bd 1b49 723c 18f6 e13d
00000210: 93ed 8dbd b079 403e 6b23 cf3b d25d 23be
00000220: e45a 0e3d ef59 093e 5394 3abd e7d9 923d
00000230: 194e 353e 9a3e cf3d 07a5 37bd 1f2b b0bd
00000240: 46cc dd3d c035 383e ce25 1bbd fa3a 273d
00000250: 64cf c33b 267e 903d 5581 973d ce52 24be
00000260: ffc9 01be 74cb aebd 81a3 d93d 5352 d6bc
00000270: 59c7 4f3d 6596 f63c 6df3 943d b6a0 abbc
00000280: 6212 bc3d 9b23 38be b660 143c b1ae 653d
00000290: 9fa2 6abd d569 efbd edf7 b83d e53d f9bd
000002a0: bb88 5cbd 383f e8bd 925b 1a3d 61ff 1d3c
000002b0: 2c2f b1bd 3b1c 69bd 02a4 4bbd 40e1 50bd
000002c0: 4d56 143e 7656 f63b dddf ab3c d0ec dcbd
000002d0: 5677 583d 944d 8fbb 71b2 02be 2792 9c3c
000002e0: b19c 33bd c877 113e a956 babd 58b8 033b
000002f0: 41bc 343d 2283 cb3d dec5 8bbc 58bc 85bd
00000300: 862a edbd 5a53 393c af5e a9bd 560f 8bbb
00000310: b267 61be bf26 b63d 1c1d 2fbe 4ce8 2ebd
00000320: 7b1b 583c 7a0e c83c 2448 d5bd 0047 52be
00000330: bd90 eebd b565 b9bd 8f44 73bd 4581 213e
00000340: 7efe 17be 24de 28be 21a8 9fbc 39bb 84bd
00000350: f520 c03c dee7 6abe b61e 813d a3c2 dbbb
00000360: 4e1c debd c464 203e 8e35 6f3d 5bf1 6dbe
00000370: da07 55be 5a27 04ba ccf5 5cbe b1e8 63be
00000380: 2e65 e0bd 650e 10be 9e0c 55be dca6 793e
00000390: 6ae3 dd3c cdf4 30be 0952 76bd 0554 30be
000003a0: 0992 9dbb eaab 9ebd 66b3 b63d b88b 0cbd
000003b0: f807 113d b419 2fbe 79fd 82be 7521 02be
000003c0: 9075 0ebe aa14 01bd 0cf0 8abd bfb6 c4bd
000003d0: d61d 8fbd 0c01 4dbd c5ae 79be 2cb7 c5bc
000003e0: 5076 9b3c 5ec5 103d 6ef9 e3bd af69 96be
000003f0: 9598 8cbc cd31 043c 85a5 3cbe 8a99 88bd
-0.06244227 -0.025245452 0.15688834 0.40868703 -0.15273385 0.19026594 -0.13219786 0.009254223
-0.19740188 -0.17635037 -0.109308586 -0.21463263 -0.031581633 -0.041269224 0.053291243 -0.027284082
0.09708602 0.15280685 -0.14300956 0.08581973 0.021613399 -0.15902057 -0.101553105 0.177775
-0.19145522 0.025485357 0.0182932 -0.20086208 -0.016925046 -0.059463315 -0.11977081 -0.06777914
-0.16178311 -0.10031206 -0.20203467 0.02315158 0.099005766 -0.016654475 -0.09112319 -0.12730232
0.02175833 -0.17370027 0.54589164 -0.20948166 -0.1162118 -0.13708462 -0.27400935 -0.093808234
0.06831405 0.18304797 -0.15464476 -0.09390551 -0.13239796 0.04730563 0.06644957 0.05021946
0.073306054 -0.12559792 -0.124373056 -0.16450171 -0.26275986 -0.02489367 0.04292409 -0.09128925
-0.036628924 -0.15816136 0.111559816 0.16662121 -0.14981636 0.19844152 -0.07290335 -0.002281131
-0.098408885 -0.05436481 -0.0973561 -0.14272541 0.19713244 0.039820213 0.053472213 0.1671159
0.25745633 0.2398627 -0.04659174 0.006552562 0.112449355 -0.13091983 0.014858123 0.038796455
-0.009506052 0.046981737 0.34242377 -0.14664601 0.12856437 -0.059707545 -0.113180436 -0.105658606
-0.11678275 0.12384161 -0.07392937 0.14637324 0.3179768 -0.10616835 0.07536878 -0.17981347
0.15574639 -0.14738706 0.19817795 0.14577934 0.084524505 0.037365377 -0.14414485 -0.07921214
0.03203794 0.21880741 -0.012996153 -0.003491226 -0.22508323 -0.07140589 0.19667876 0.06558657
0.108176745 -0.113760285 -0.11882114 -0.011410961 -0.061744306 0.19439588 0.12870412 -0.11894912
-0.11840393 -0.03743489 0.0147879375 0.11033267 -0.06930079 0.1879642 0.006321361 -0.15953758
0.03475465 0.13413213 -0.04555161 0.07170468 0.17705573 0.10119362 -0.044835117 -0.08601975
0.10829978 0.17989254 -0.03787785 0.04082773 0.0059756506 0.07055311 0.07397715 -0.16047212
-0.12674712 -0.08534899 0.10626889 -0.026162302 0.050727222 0.03010101 0.07272992 -0.020950656
0.09183194 -0.17982332 0.009056261 0.0560748 -0.057283994 -0.11690108 0.09031663 -0.121700086
-0.053841334 -0.11340183 0.037684985 0.009643407 -0.086515754 -0.05691169 -0.049716957 -0.050996065
0.14486046 0.007517631 0.02098077 -0.10787356 0.052848183 -0.0043732617 -0.12763382 0.01911266
-0.043850604 0.14205849 -0.0909856 0.002009889 0.044124845 0.09937121 -0.017062124 -0.06530064
-0.11580376 0.0113113765 -0.082700126 -0.0042437715 -0.22012213 0.08894109 -0.17100948 -0.042702004
0.013190146 0.024420965 -0.1041415 -0.20534897 -0.116487004 -0.09052602 -0.059391554 0.15771969
-0.14843175 -0.1649099 -0.01948935 -0.064810224 0.023453215 -0.22940013 0.06304686 -0.006706552
-0.108452424 0.15663439 0.058400683 -0.23236601 -0.20803776 -0.0005041264 -0.21578139 -0.22256733
-0.109567985 -0.14067991 -0.20805594 0.24380058 0.027085979 -0.17280884 -0.06013683 -0.17219551
-0.0048086685 -0.07747634 0.08920936 -0.034312934 0.03540799 -0.17099649 -0.2558401 -0.12708075
-0.13912034 -0.031513847 -0.067840666 -0.096051686 -0.06988113 -0.050049827 -0.24383076 -0.024135195
0.018977314 0.035344474 -0.11131559 -0.29377505 -0.0171626 0.008068514 -0.18422516 -0.0666991
