073123/0810hoxyhoxy6.pth (torch, 644637 bytes, 40 tensors)

lstm.lstm1.weight_ih_l0 f4 [256, 12]
0	0xbe53d14d	-0.2068531
1	0xbd0d0bbf	-0.03443503
2	0x3cff502f	0.031166164
3	0xbdb7360c	-0.089458555
4	0xbe09e2ce	-0.13465425
5	0xbde5fb9c	-0.11229631
6	0xbe1d8619	-0.15383185
7	0x3d3d2d68	0.04618588
8	0xbd173c71	-0.036922876
9	0xbdaa6a06	-0.083210036
10	0xbd474fd7	-0.048660126
11	0xbec7215e	-0.38892645
12	0x3dbb84e1	0.09156204
13	0x3d9622be	0.07330845
14	0xbe9834ff	-0.29727933
15	0xbe6c07e7	-0.2304989
16	0xbe28fe60	-0.16503286
17	0xbe0c68c0	-0.13711834
18	0xbd94339d	-0.07236407
19	0xbdd3189a	-0.10307427
20	0x3e08f8f7	0.13376223
21	0x3d281378	0.04103419
22	0xbd61c821	-0.0551225
23	0x3df51643	0.11967137
24	0xbb94da4f	-0.004542626
25	0xbd2c6294	-0.0420862
26	0xbe4d7864	-0.20065457
27	0x3e095ce4	0.13414341
28	0xbcb5d2cf	-0.022195248
29	0xbd8b5342	-0.068029895
30	0xbd8d9dfa	-0.06914897
31	0xbd29aa4d	-0.041422177
32	0xbdfa8432	-0.122322455
33	0xbddd3166	-0.10800438
34	0xbd697190	-0.056993067
35	0xbe62860d	-0.22121449
36	0x3e23bd65	0.15990217
37	0xbdd0a335	-0.10187379
38	0xbe11aee4	-0.14226872
39	0x3e1f93fe	0.15583798
40	0x3df001f3	0.11719122
41	0x3c8c61ee	0.01713654
42	0x3bf32514	0.0074201915
43	0x3d9eead5	0.077596344
44	0x3c5c6a61	0.013453097
45	0xbd490354	-0.04907544
46	0x3dee7bd1	0.1164471
47	0x3e6755d7	0.22591339
48	0xbe1b988e	-0.15194914
49	0xbd4b71cb	-0.04966907
50	0xbddc101f	-0.10745262
51	0xbc024b4d	-0.007952523
52	0xbdda0616	-0.10645692
53	0x3d44d33d	0.048053015
54	0x3dad7e80	0.084713936
55	0xbe199c51	-0.15001036
56	0x3d42d5c4	0.047567144
57	0xbd4d8e47	-0.050184514
58	0x3d5d1e17	0.053983774
59	0xbe080267	-0.13282166
60	0xbd063400	-0.032764435
61	0x3d4d845b	0.050175052
62	0xbe058f0f	-0.13042854
63	0xbde4e8fb	-0.1117725
64	0xbe223a4f	-0.15842555
65	0xbdc33c4e	-0.095329866
66	0xbe05b6dd	-0.13058038
67	0x3c18ae86	0.009318953
68	0xbd55b0eb	-0.052170675
69	0xbd442fba	-0.047897078
70	0xbd40a9d8	-0.047036976
71	0xbeb5f8a1	-0.3554125
72	0x3bd9f555	0.0066515603
73	0xbdb251d5	-0.087070145
74	0xbdb960f3	-0.09051695
75	0x3ded670e	0.11591922
76	0xbd95d812	-0.07316603
77	0xbe0d9ce3	-0.13829379
78	0xbd964a54	-0.07338396
79	0x3cf92c96	0.030416768
80	0xbdee3309	-0.11630828
81	0xbe399723	-0.1812406
82	0x3e37d4a2	0.17952207
83	0xbe21e0f6	-0.15808472
84	0xbdc5f2a5	-0.096654214
85	0xbd2da125	-0.042390008
86	0xbc89bb4e	-0.016812947
87	0x3c29f8b0	0.010374233
88	0x3d557b35	0.052119453
89	0x3c047ac3	0.008085909
90	0xbd4527c6	-0.048133634
91	0xbc368d63	-0.011142108
92	0xbcca8ec4	-0.02472628
93	0xbd935d16	-0.07195489
94	0xbd230ddf	-0.03980815
95	0xbe0058b9	-0.12533845
96	0xbe24bee6	-0.16088447
97	0xbd6c303c	-0.057663187
98	0xbc3dd5d3	-0.011586624
99	0x3d104cdf	0.03522956
100	0xbc392e9a	-0.011302615
101	0xbdc28c52	-0.0949942
102	0xbdc5cb63	-0.096579336
103	0xbddb46de	-0.10706876
104	0x3cc0d459	0.023538755
105	0xbdc48504	-0.09595683
106	0xbd7e256b	-0.062047403
107	0xbeac9915	-0.33710542
108	0xbd813950	-0.063097596
109	0xbd2a4da2	-0.041577943
110	0x3db62df4	0.088954836
111	0x3b0c480d	0.002140525
112	0xbcfa1844	-0.030529149
113	0xbe08cdbf	-0.13359736
114	0xbe22858c	-0.15871257
115	0x3d3e0fa4	0.046401635
116	0x3d842253	0.06451859
117	0x3e234c55	0.15947087
118	0x3d7b137e	0.061297886
119	0x3c64e538	0.013970666
120	0xbd6c28ff	-0.057656284
121	0xbe050299	-0.12989272
122	0xbe1a4fe2	-0.15069535
123	0xbde8f796	-0.11375348
124	0xbe5e39ee	-0.21701786
125	0xbe31b1af	-0.17352937
126	0xbda3e898	-0.08003348
127	0xbe75ebcf	-0.24015735
128	0xbd9ff77e	-0.07810877
129	0xbd9b5b1d	-0.07585738
130	0xbda280ff	-0.0793476
131	0xbe92bf66	-0.2866165
132	0xbe21939e	-0.15778968
133	0xbdcff071	-0.101532824
134	0xbe803887	-0.25043127
135	0xbe3d5cc7	-0.18492423
136	0xbe63fd11	-0.22264506
137	0xbd98362f	-0.0743221
138	0x3db9c376	0.09070484
139	0x3c88c72c	0.016696535
140	0xbddc7661	-0.107647665
141	0x3d3e3b1d	0.046443094
142	0xbdc4af48	-0.09603745
143	0xbcdd2eae	-0.026999798
144	0x3c926c15	0.017873803
145	0xbd613153	-0.05497868
146	0x3daa5898	0.08317679
147	0x3cc7d090	0.024391443
148	0xbcc19a37	-0.023633106
149	0x3db8e424	0.09027889
150	0xbe0449cd	-0.12918778
151	0xbe1062d7	-0.14100204
152	0xbdb64378	-0.088995874
153	0x3c329cd0	0.010901645
154	0x3c90719c	0.017632298
155	0x3c84d042	0.016212586
156	0xbd4ad0a3	-0.049515378
157	0xbd84f564	-0.06492117
158	0xbdc7c1d9	-0.097537704
159	0xbd87e2b2	-0.066350356
160	0xbe010762	-0.12600473
161	0x3c1db2e8	0.009625174
162	0x3d1f3a74	0.038874105
163	0x3db6d845	0.08927969
164	0x3e1ff9bb	0.15622608
165	0x3daa6601	0.08320237
166	0x3c4129d7	0.011789761
167	0x3dfe584a	0.124191836
168	0x3dc3b6f8	0.09556383
169	0x3e4c71d3	0.19965295
170	0xbd916b14	-0.07100502
171	0x3df11586	0.117716834
172	0x3e5dce43	0.21660714
173	0x3bfb7596	0.0076739294
174	0x3d33f0c1	0.043930773
175	0x3e4f4f9b	0.20245211
176	0x3de7faa8	0.11327106
177	0x3dfc6aaa	0.12325032
178	0x3cf5c8df	0.03000301
179	0x3ea1e0ea	0.31616908
180	0x3dfdc8eb	0.12391838
181	0xbdafc104	-0.08581737
182	0x3eb0ebf5	0.3455502
183	0x3d113268	0.03544846
184	0x3d48692e	0.048928432
185	0xbcf0c9bc	-0.02939307
186	0x3d04ab94	0.032390192
187	0xbd805d24	-0.06267765
188	0x3c671408	0.014103897
189	0xbdb4479e	-0.088027224
190	0x3d139112	0.03602702
191	0xbe06a049	-0.13147081
192	0x3d9da210	0.076969266
193	0xbdb122a9	-0.08649189
194	0x3d2d3d86	0.042295
195	0x3dc7878b	0.0974265
196	0xbe09e66b	-0.13466804
197	0x3c9b38dc	0.018948011
198	0xbdb76449	-0.08954675
199	0xbda519a3	-0.080615304
200	0x3e175b5c	0.14780945
201	0x3e089217	0.13336979
202	0x3d98c26c	0.07458958
203	0xbdd656e6	-0.10465793
204	0x3c264e3d	0.010150489
205	0xbe25aaa1	-0.16178371
206	0x3dd291f9	0.10281748
207	0xbdff87f7	-0.12477105
208	0xbe048c65	-0.12944181
209	0xbd7d8411	-0.061893526
210	0x3cd95cda	0.026533533
211	0xbc2667d2	-0.010156589
212	0x3d0cfd3b	0.034421187
213	0xbe044fab	-0.12921016
214	0xbe59998c	-0.2124998
215	0x3e4da213	0.20081358
216	0x3d95047e	0.072762474
217	0xbd7d2297	-0.061800566
218	0xbd89d4fe	-0.06730078
219	0xbb67f678	-0.003539471
220	0x3d841547	0.06449371
221	0xbbe3f517	-0.006956707
222	0xbdc9f192	-0.09860529
223	0xbcd79b32	-0.02631912
224	0xbdb7141c	-0.089393824
225	0x3b184f16	0.0023240498
226	0x3cb53b95	0.022123137
227	0x3df558b1	0.11979807
228	0x3d955373	0.07291307
229	0x3d5feff9	0.054672215
230	0x3dfbbab3	0.122914694
231	0x3e468af6	0.19388947
232	0x3e4a3531	0.19746853
233	0x3e4bfa17	0.1991962
234	0x3e19207b	0.14953797
235	0x3d212a58	0.039347023
236	0xbd9e58c2	-0.07731773
237	0x3e08812b	0.13330524
238	0x3d672861	0.056434993
239	0x3eacdf28	0.33764005
240	0xbd1ceb86	-0.03831055
241	0xbcc79590	-0.02436331
242	0xbc59099b	-0.013246919
243	0x3ded8ae3	0.11598756
244	0xbdb4f95d	-0.08836625
245	0x3d392fdb	0.045211654
246	0xbca966c5	-0.020678887
247	0xbd7e2057	-0.06204256
248	0xbdd3113c	-0.103060216
249	0x3e289e21	0.16466571
250	0x3d133c6e	0.035946302
251	0xbe89276e	-0.26787895
252	0xbe0c390b	-0.13693635
253	0xbd3fde52	-0.04684288
254	0x3b3103cf	0.0027010327
255	0x3d2ff73f	0.0429604

lstm.lstm1.weight_hh_l0 f4 [256, 64]
0	0x3b9c4abe	0.004769652
1	0xbdaf2186	-0.08551316
2	0xbe2c201a	-0.16809121
3	0x3bbc9c56	0.0057559414
4	0xbe2f956a	-0.1714684
5	0x3c332322	0.010933669
6	0xbdfe9c65	-0.12432174
7	0x3db97b79	0.09056754
8	0x3c550e8b	0.013003956
9	0xbd8f4d3e	-0.06997155
10	0x3d4c6920	0.049904943
11	0x3d045dc7	0.032315996
12	0x3cabb6dc	0.020961218
13	0x3dfcaf04	0.12338069
14	0x3db64ebf	0.089017384
15	0x3e051db0	0.12999606
16	0x3cd853d3	0.026407158
17	0xbda36ea0	-0.079800844
18	0x3e16de59	0.14733256
19	0xbc994e7e	-0.018714186
20	0x3dc1ac89	0.094567366
21	0x3cc4ad67	0.024008466
22	0x3d1bf33d	0.038073767
23	0xbe090852	-0.1338208
24	0xbe236536	-0.15956578
25	0xbc464ebd	-0.012103734
26	0x3d8971d2	0.067111626
27	0xbe0f568b	-0.13997857
28	0x3e2e9ca2	0.17051938
29	0xbd2f03dd	-0.042728294
30	0x3dd54f14	0.104154736
31	0xbde06009	-0.10955817
32	0xbdd5568d	-0.10416899
33	0x3dcd0788	0.10011202
34	0xbb67b043	-0.0035352863
35	0x3df1d7db	0.11808749
36	0xbd5d6ebc	-0.054060683
37	0x3e0bf42a	0.1366736
38	0xbdff1d60	-0.12456775
39	0xbdf962ec	-0.12177071
40	0x3de5bb4c	0.11217365
41	0x3d0d60d9	0.03451619
42	0xbdc36670	-0.09541023
43	0xbdb54787	-0.088515334
44	0x3dd2f0c5	0.102998294
45	0xbd8fed41	-0.070276745
46	0xbd4287aa	-0.04749266
47	0x3c8a2899	0.016865062
48	0x3da61fa1	0.081115015
49	0xbd50b04f	-0.05094939
50	0x3d5320ea	0.05154506
51	0xbd637ec2	-0.055540808
52	0x3d3b45f9	0.045721028
53	0x3a5d5bf1	0.00084441813
54	0x3c5121c9	0.012764403
55	0xbc90920f	-0.017647771
56	0x3df1d46e	0.11808096
57	0x39a82d79	0.00032077337
58	0x3d2c784f	0.042106923
59	0x3dd752cc	0.10513839
60	0xbd37dac4	-0.044886366
61	0xbd861d8c	-0.06548604
62	0x3c656be4	0.014002774
63	0x3d0e0a34	0.0346777
64	0xbdf598ea	-0.11992057
65	0x3e1f7eb9	0.15575685
66	0x3d1661d0	0.036714375
67	0xbcf36cbf	-0.02971494
68	0xbdc7f6dc	-0.097638816
69	0xbdf27d12	-0.118402615
70	0xbd5257a0	-0.051353097
71	0xbdcb5ff2	-0.099304095
72	0xbe17111d	-0.14752622
73	0xbd3fcbca	-0.046825208
74	0x3d1355c7	0.035970476
75	0xbd93dc1a	-0.072197154
76	0x3d58bdbd	0.052915324
77	0x3e0ead1a	0.1393322
78	0x3d236b86	0.039897464
79	0xbefa9bca	-0.48946983
80	0xbd329b2c	-0.043605015
81	0x3e126534	0.14296418
82	0xbe222389	-0.15833868
83	0xbc3d38c8	-0.011549182
84	0xbe3610cf	-0.1777985
85	0x3d059c47	0.03261974
86	0xbda37a33	-0.07982292
87	0xbe09f367	-0.13471757
88	0xbd5b8303	-0.05359174
89	0xbe889c83	-0.2668191
90	0xbd80f93a	-0.06297536
91	0x3dc45b7e	0.09587763
92	0xbe20b53b	-0.15694134
93	0x3d8ef58f	0.0698043
94	0xbd87fba5	-0.06639794
95	0x3e80d334	0.25161135
96	0xbdcd35c6	-0.10020022
97	0xbda3fc78	-0.08007139
98	0xbe1b2716	-0.15151629
99	0xbe66e7f2	-0.22549418
100	0xbbc03872	-0.005866104
101	0xbdf5fb2d	-0.120107986
102	0x3d919382	0.07108213
103	0x3c408309	0.011749991
104	0xbdad0c8d	-0.084496595
105	0x3d9a2590	0.07526696
106	0xbd57ec79	-0.052715752
107	0xbe8e0e23	-0.2774516
108	0xbe8c1736	-0.2736146
109	0x3d2443fc	0.040103897
110	0xbdb7c030	-0.08972204
111	0x3e056179	0.13025464
112	0xbe06216b	-0.13098685
113	0xbc10cf35	-0.0088384645
114	0x3bbdf7f4	0.0057973806
115	0x3dbdd363	0.092688344
116	0x3c29c7f5	0.010362615
117	0xbc779799	-0.015111827
118	0xbd111fc3	-0.03543068
119	0xbe4f0d17	-0.20219837
120	0x3da6f035	0.081512846
121	0xbd4426d8	-0.047888607
122	0x3d8295ec	0.063762516
123	0x3dc650f2	0.09683408
124	0x3d6c53b1	0.057697
125	0xbe8fe25e	-0.28102392
126	0xbd9f4181	-0.07776166
127	0xbe8dafda	-0.27673227
128	0xbd72aa72	-0.05924458
129	0x3e1415b0	0.14461398
130	0xbd9e815c	-0.07739517
131	0xbc6ed535	-0.0145772
132	0xbdc80f05	-0.0976849
133	0x3d4d18ed	0.0500726
134	0x3d03cb08	0.032176048
135	0x3b84d4f5	0.004053707
136	0x3e83f83f	0.25775334
137	0x3b2911f7	0.0025798061
138	0x3c7caae6	0.015421605
139	0x3e30984a	0.17245594
140	0xbe34df0e	-0.17663214
141	0x3e636ab8	0.22208679
142	0xbe4f9435	-0.2027138
143	0x3da36b60	0.079794645
144	0x3ca73f30	0.020415872
145	0x3cc6f172	0.024285052
146	0x3d04175d	0.032248843
147	0xbe7b82a8	-0.2456156
148	0xbaf684da	-0.0018807903
149	0x3dc42bcd	0.09578667
150	0xbc6b3c71	-0.014357672
151	0xbd8fc2d2	-0.07019581
152	0x3ded356e	0.115824565
153	0xbe0a5a3e	-0.13510987
154	0x3d3e876d	0.04651587
155	0xbbaaa881	-0.0052080755
156	0x3e1b5c8b	0.15172021
157	0x3d80fd53	0.06298318
158	0xbddaebbe	-0.106894955
159	0xbe2d08c3	-0.16897874
160	0x3d74b743	0.059745084
161	0xbda22e44	-0.07918981
162	0xbdb5f4ee	-0.08884607
163	0x3d9c6a90	0.07637513
164	0xbd218a60	-0.039438605
165	0xbd021d7a	-0.031766392
166	0xbc806050	-0.015670925
167	0xbd379fca	-0.04483012
168	0xbd005221	-0.031328324
169	0xbd510e9b	-0.05103932
170	0xbe5625b5	-0.20912822
171	0xbba6d0ec	-0.0050908234
172	0xbdd767a4	-0.10517815
173	0x3dd56fcf	0.104217164
174	0x3be3dc1b	0.006953729
175	0x3d71ee68	0.059065253
176	0x3ddc5c76	0.10759823
177	0xbd4f9fd2	-0.050689526
178	0x3ae97244	0.0017810543
179	0x3d207452	0.03917343
180	0xbcae6bd1	-0.021291645
181	0x3d8b86e9	0.068128414
182	0xbdd3f935	-0.10350267
183	0x3e886dc7	0.26646253
184	0xbe08cc19	-0.13359107
185	0x3df19131	0.11795271
186	0xbd89581a	-0.06706257
187	0x3deeeaab	0.11665853
188	0xbe528294	-0.20557624
189	0xbca9df17	-0.02073626
190	0xbd4920c8	-0.04910353
191	0xbce2026c	-0.027589045
192	0x3dd8bb42	0.105825916
193	0x3e0d7f15	0.13818009
194	0xbe1529b7	-0.14566694
195	0xbdddd5ef	-0.1083182
196	0x3ca6dba9	0.020368414
197	0x3cd52d15	0.026022473
198	0xbe3e3b60	-0.18577337
199	0xbd16fa81	-0.036859993
200	0xbe0ffef7	-0.14062105
201	0x3d41607c	0.047211155
202	0x3cadf2d5	0.021233955
203	0x3d80cc7e	0.06289004
204	0x3da994b3	0.08280315
205	0x3b0d0252	0.0021516276
206	0x3d202f75	0.03910776
207	0xbe08475f	-0.13308476
208	0xbd8d5efd	-0.06902883
209	0x3d34a1e2	0.044099696
210	0xbdb5535a	-0.08853789
211	0x3dc9eb5f	0.098593466
212	0xbd847b50	-0.064688325
213	0xba8de85e	-0.0010826697
214	0xbd72753c	-0.059193835
215	0x3e0d2561	0.1378379
216	0xbd4da80f	-0.0502091
217	0xbe1182e6	-0.1421009
218	0x3e61b603	0.22042088
219	0x3d896eb0	0.06710565
220	0xbe3f868b	-0.18703668
221	0x3dc9b2ea	0.09848578
222	0x3cc9483f	0.024570582
223	0xbd5339d8	-0.051568836
224	0xbd234477	-0.039860215
225	0xbda68bf1	-0.081321605
226	0x3dacd5c4	0.0843921
227	0x3d43abb7	0.047771182
228	0xbc5f8092	-0.013641493
229	0xbea1804e	-0.315432
230	0x3cb428a2	0.021992031
231	0x3c87d1a4	0.016579457
232	0x3e3d2973	0.18472843
233	0x3be175ac	0.0068804827
234	0xbdf0c69a	-0.1175663
235	0xbd0ac381	-0.033877853
236	0xbe60aee3	-0.21941714
237	0xbdb1c576	-0.08680241
238	0x3d4e14b6	0.05031272
239	0xbdf47db3	-0.11938038
240	0xbbbd2907	-0.005772713
241	0xbdcf8450	-0.101326585
242	0xbd6d3c86	-0.057919048
243	0xbe4e6d3b	-0.20158856
244	0x3d71ed13	0.059063982
245	0x3dd472a8	0.103734314
246	0xbdd24dde	-0.10268758
247	0x3e35ed59	0.17766322
248	0xbd92d067	-0.07168656
249	0xbd9889db	-0.07448169
250	0x3d185a08	0.037195235
251	0x3cfa2f72	0.030540202
252	0x3dbddfdd	0.09271214
253	0xbdfad22e	-0.1224712
254	0xbd1f95b4	-0.038961127
255	0xbe9753e1	-0.29556182

lstm.lstm1.bias_ih_l0 f4 [256]
0	0xbe002c19	-0.12516822
1	0xbbb64b49	-0.005563174
2	0xbd95aa99	-0.073079295
3	0xbdb67fde	-0.089111075
4	0xbdb1703c	-0.08663985
5	0xbc6e31d5	-0.014538248
6	0xbd9a6463	-0.075386785
7	0xbd99ca1f	-0.07509255
8	0xbd8a61bf	-0.06756925
9	0xbd4a5f07	-0.04940703
10	0xbe41ce2c	-0.18926305
11	0x3cad37c0	0.021144748
12	0x3dcf606b	0.10125812
13	0x3de05501	0.10953713
14	0x3d99a199	0.075015254
15	0xbcb759af	-0.022381632
16	0x3e18b497	0.1491264
17	0x3d1d0cf6	0.03834244
18	0xbb0c220f	-0.0021382605
19	0x3e2ea941	0.17056753
20	0x3be94d63	0.007119821
21	0xbb2afc3e	-0.002609029
22	0xbd7e077c	-0.062018856
23	0xbded00fe	-0.11572455
24	0x3ca8a57c	0.020586722
25	0x3d0c9181	0.03431845
26	0xbd959ce5	-0.07305316
27	0x3e17e93e	0.14835069
28	0x3e0da60f	0.13832878
29	0x3d319e7e	0.04336404
30	0xbcdf7934	-0.027279474
31	0x3d6b94c2	0.057514913
32	0xbdd232b7	-0.10263579
33	0x3d37f429	0.044910584
34	0x3db620f2	0.088930026
35	0xbd2a645d	-0.04159962
36	0x3d6fca3d	0.05854248
37	0x3d86a5cb	0.06574591
38	0x3c685ad1	0.014181809
39	0x3d00bbef	0.031429227
40	0xbce26c57	-0.027639551
41	0x3d68d9b5	0.056848247
42	0x3cda2a35	0.026631454
43	0x3e3806d9	0.17971362
44	0xbb2c6cc6	-0.0026309951
45	0x3d7d8392	0.061893053
46	0x3e938818	0.2881477
47	0xbd84286c	-0.06453022
48	0xbdac4727	-0.08412009
49	0x3d5ffcee	0.054684572
50	0xbdafe107	-0.085878424
51	0x3d156453	0.03647263
52	0xbd8070ab	-0.0627149
53	0xbd800066	-0.06250076
54	0xbdcbcf52	-0.099516526
55	0xbde20eaf	-0.11037957
56	0xbd9b8b36	-0.07594912
57	0x3ddbd54d	0.10734043
58	0xbdeec785	-0.11659149
59	0xbcc31af0	-0.023816556
60	0xbd771742	-0.060324915
61	0xbdd1f851	-0.10252441
62	0xbd69a70b	-0.05704407
63	0x3dc7eef6	0.09762375
64	0xbe06d79a	-0.13168183
65	0x3d874ed4	0.06606832
66	0xbe0b1f74	-0.13586217
67	0xbd89fd2f	-0.06737744
68	0xbdd370bc	-0.10324237
69	0xbe4dc0db	-0.200931
70	0xbe742b4f	-0.23844646
71	0x3d60d619	0.05489168
72	0xbdf557f7	-0.119796686
73	0xbda10319	-0.07861919
74	0xbe1eb372	-0.1549814
75	0x3d1dbac8	0.038508207
76	0x3dca48d4	0.09877172
77	0xbddcf82a	-0.10789521
78	0xbe86888d	-0.26276055
79	0xbe3beb77	-0.18351541
80	0xbde94f83	-0.11392119
81	0xbced89ba	-0.028996337
82	0xbe3d985d	-0.18515153
83	0xbeaf5e3f	-0.34251592
84	0x3bea03f0	0.0071415827
85	0xbe5e508f	-0.21710418
86	0xbd9914f5	-0.074747
87	0xbe2e190d	-0.17001744
88	0xbd86f6a6	-0.06590013
89	0xbdb59f5a	-0.088682845
90	0xbded1a82	-0.115773216
91	0x3c9c3c7e	0.019071814
92	0xbd72aa5e	-0.059244506
93	0x3d4bc63a	0.04974959
94	0xbe3376f4	-0.17525846
95	0x3d4e5230	0.05037135
96	0x3dd5beef	0.10436808
97	0x3d329b50	0.04360515
98	0xbde26715	-0.110548176
99	0xbe364d52	-0.17802933
100	0xbd8f6d8d	-0.07003317
101	0x3b0991f9	0.0020991547
102	0xbdabdb21	-0.08391405
103	0x3bdf393d	0.0068122433
104	0xbb479438	-0.0030453335
105	0xbda80046	-0.08203177
106	0xbe497fac	-0.19677609
107	0xbea5eef9	-0.32408884
108	0xbeb0c196	-0.34522694
109	0x3c106b98	0.008814715
110	0xbeb45b3a	-0.3522585
111	0xbe4cdae4	-0.20005375
112	0x3d706b12	0.05869586
113	0xbceb5a1e	-0.028729495
114	0x3d6a897b	0.057260018
115	0xbdbc01a2	-0.09179999
116	0xbe39147c	-0.1807422
117	0x3dbb8526	0.091562554
118	0xbcef50b5	-0.029213289
119	0xbd399d7f	-0.045316216
120	0xbe16ef1b	-0.14739649
121	0x3d0eb816	0.034843527
122	0xb9f5ba04	-0.00046868634
123	0xbd577619	-0.05260286
124	0xbe7e445a	-0.24830762
125	0xbe27c505	-0.1638375
126	0x3d71e104	0.059052482
127	0xbe18ad0d	-0.14909764
128	0x3e11e9a3	0.14249282
129	0x3dcc7060	0.09982371
130	0xbc119d8a	-0.008887658
131	0x3c926564	0.017870612
132	0xbe13e752	-0.1444371
133	0x3db14095	0.08654896
134	0xbc5b10ca	-0.013370702
135	0x3cd8b7ec	0.026454888
136	0xbb856d73	-0.0040718853
137	0xbd3c2a8f	-0.045939025
138	0xbe05dd99	-0.13072814
139	0x3cd4cbd6	0.025976103
140	0x3d659dec	0.05605881
141	0xbd0fe98b	-0.035134833
142	0xbe19993a	-0.14999858
143	0x3d243031	0.04008502
144	0xbdb163b4	-0.08661595
145	0xbd0c5b51	-0.034266774
146	0x3d4848ae	0.048897438
147	0xbc1cfae6	-0.009581303
148	0x3e02d269	0.12775578
149	0xbca85a5b	-0.020550897
150	0xbdfe3f9b	-0.124144755
151	0xbc68cf45	-0.014209573
152	0xbde04b02	-0.109518066
153	0xbd1bc16f	-0.03802627
154	0x3dba25cf	0.09089243
155	0xbdc94028	-0.0982669
156	0x3d0b289d	0.03397428
157	0x3b6a4ff6	0.0035753227
158	0xbd7872df	-0.060656425
159	0x3cb6845f	0.022279916
160	0xbe0cc8cd	-0.13748474
161	0x3e276798	0.16348112
162	0x3bd31a25	0.0064423257
163	0xbc893cdc	-0.016752653
164	0xbdb2d903	-0.08732798
165	0xbdad229c	-0.08453867
166	0xbe16c783	-0.14724545
167	0xbc70fb76	-0.01470839
168	0x3e0d9eed	0.13830157
169	0x3d4d1041	0.05006433
170	0x3daa5162	0.08316304
171	0xbe18ee93	-0.14934759
172	0x3d8ac748	0.06776291
173	0xbb8ca36e	-0.0042919433
174	0xbc91c124	-0.017792292
175	0xbb25de7d	-0.0025309615
176	0x3d17984b	0.037010472
177	0xbd0b6789	-0.034034286
178	0x3d863580	0.06553173
179	0xbd091be7	-0.033473875
180	0xbdd1da01	-0.10246659
181	0x3ab4a4c0	0.001378201
182	0xbb80a66b	-0.0039260886
183	0xbbad5226	-0.005289334
184	0xbdba4b47	-0.09096389
185	0x3c55d3fa	0.013051027
186	0xbd81ef8a	-0.063445166
187	0xbcbd7712	-0.023128066
188	0x3d62b987	0.055352714
189	0x3e25c27c	0.16187471
190	0x3e087b0b	0.13328187
191	0xbd2ad595	-0.041707594
192	0xbdf0cfb1	-0.11758364
193	0xbcf95c91	-0.030439647
194	0xbd86bf8e	-0.06579505
195	0xbb3ac3d4	-0.002849807
196	0x3cd814c1	0.026377084
197	0xbe19ed3f	-0.15031908
198	0x3cf24a27	0.029576374
199	0xbd918abd	-0.0710654
200	0xbcf01df3	-0.029311156
201	0xbd83eed4	-0.06442037
202	0xbe50a766	-0.20376357
203	0x3db82780	0.08991909
204	0x3d21cfe4	0.0395049
205	0xbdc94ec1	-0.09829474
206	0x3e11c5f9	0.14235677
207	0xbd28995b	-0.041161876
208	0x3d7fcd97	0.062451925
209	0x3d07e8bd	0.03318094
210	0xbd95323d	-0.07284973
211	0x3d62cd23	0.055371415
212	0x3d43a68c	0.047766253
213	0xbca6f2f8	-0.020379528
214	0xbe078d7b	-0.13237564
215	0x3d997eb5	0.074948706
216	0x3d6a97ab	0.057273548
217	0xbda62af7	-0.08113664
218	0xb94684ba	-0.00018932196
219	0xbd9cb451	-0.0765158
220	0x3c9f41b9	0.019440519
221	0xbc8d1887	-0.01722361
222	0x3d03dd84	0.032193676
223	0xbdbcff58	-0.092283905
224	0xbd47e91a	-0.048806287
225	0xbe177b6e	-0.14793178
226	0x3e167406	0.14692697
227	0xbd994165	-0.07483176
228	0xbd451174	-0.048112348
229	0x3d860ff1	0.06546009
230	0x3d68f3d6	0.056873165
231	0xbdd93ead	-0.106076576
232	0x3d86cba9	0.06581814
233	0x3cf3741a	0.029718447
234	0x3dc531b5	0.096286215
235	0xbb905ad3	-0.0044053583
236	0xbdc0aaae	-0.094075546
237	0xbdd00c66	-0.10158615
238	0x3e410de1	0.1885295
239	0x3e0e0950	0.1387074
240	0xbde3af51	-0.11117423
241	0xbd666a16	-0.056253515
242	0x3bcbefd4	0.006223658
243	0xbe3c6456	-0.1839765
244	0xbe0edfbf	-0.1395254
245	0x3c68a50c	0.0141995065
246	0x3c6d5b9e	0.014487175
247	0xbc082fca	-0.008312175
248	0xbe09d58c	-0.13460368
249	0x3d6feb3a	0.05857394
250	0x3d37df7b	0.044890862
251	0x3d280793	0.04102285
252	0xbe509cd9	-0.20372333
253	0xbe415ab6	-0.1888226
254	0xbd290cc7	-0.04127195
255	0xbdbc559f	-0.091960184

lstm.lstm1.bias_hh_l0 f4 [256]
0	0x3c9eba73	0.019376015
1	0x3cd5fead	0.026122415
2	0xbdb86407	-0.09003454
3	0xbdc68995	-0.096942104
4	0x3ca94a81	0.020665409
5	0x3d2d39dd	0.04229151
6	0x3b04133f	0.0020153073
7	0xbd02b324	-0.031909123
8	0xbdc34b00	-0.095357895
9	0xbdb503a3	-0.08838584
10	0xbe617e55	-0.22020848
11	0x3c01fd23	0.007933888
12	0xbd420365	-0.04736652
13	0xbcce2e58	-0.025168583
14	0x3e22e895	0.15909036
15	0xbd25895e	-0.040414207
16	0x3d255251	0.040361706
17	0xbe2be2d1	-0.16785742
18	0x3ddae7a4	0.10688713
19	0x3dde12e7	0.10843449
20	0x3d4d3d4c	0.050107285
21	0xbdd1ac44	-0.10237935
22	0xbe25ad85	-0.16179474
23	0xbe0dff24	-0.1386686
24	0x3d62a0cc	0.05532913
25	0x3dd0abfb	0.10189053
26	0xbdb99f5f	-0.09063601
27	0x3e0d040b	0.13771074
28	0x3d97fdf0	0.074214816
29	0xbc877fd7	-0.016540451
30	0xbcff3f11	-0.031158002
31	0x3cc6088f	0.024174003
32	0x3d40e342	0.04709173
33	0xbe229e50	-0.15880704
34	0xbc0f417d	-0.008743641
35	0x3d9a375d	0.07530091
36	0x3a8611cc	0.0010228693
37	0xbd59d443	-0.053180944
38	0x3c8b3e4e	0.016997483
39	0xbdf38872	-0.11891259
40	0x3cab214f	0.020889906
41	0xbd551826	-0.052024983
42	0xbce24923	-0.027622765
43	0x3e23e030	0.1600349
44	0xbc161670	-0.009160623
45	0xbd83dfd1	-0.06439174
46	0x3e84cc10	0.25936937
47	0xbbd0bc4a	-0.006370102
48	0xbd8485f2	-0.064708605
49	0xbde31437	-0.1108784
50	0xbd9233dd	-0.071387984
51	0xbddb1d39	-0.10698933
52	0x3c88acb5	0.016683916
53	0xbd6f8283	-0.058474075
54	0xbe2b7f14	-0.16747695
55	0xbcc5bf60	-0.024139106
56	0xbd840b13	-0.06447425
57	0xbdf2cad0	-0.1185509
58	0x3dceff3b	0.10107275
59	0xbcc2811e	-0.023743208
60	0xbda011cf	-0.07815897
61	0xbd287b2d	-0.041133095
62	0xbd3059ec	-0.043054506
63	0xbc0544bc	-0.008134063
64	0x3c915e46	0.017745148
65	0x3d02e090	0.03195244
66	0x3da1cc0d	0.07900248
67	0xbd1e7fa2	-0.03869594
68	0xbe1eef0a	-0.15520874
69	0xbe1f3f0c	-0.15551394
70	0xbe45cdc2	-0.19316772
71	0x3dd4101e	0.103546366
72	0xbe1017d5	-0.14071591
73	0xbe3a7b58	-0.18211114
74	0xbe70535a	-0.23469296
75	0xba896ff1	-0.0010485632
76	0x3e08a170	0.13342834
77	0xbcd01c72	-0.025404189
78	0xbe82b7b6	-0.25530785
79	0xbe87cec1	-0.26524928
80	0xbd738e94	-0.059462145
81	0x3cc4d245	0.024026046
82	0xbdb5c732	-0.08875884
83	0xbe8376ab	-0.25676474
84	0x3e15366e	0.14571545
85	0xbdc2ffc1	-0.095214374
86	0xbe489627	-0.19588529
87	0xbda5f72e	-0.081037864
88	0xbe2aab63	-0.16666941
89	0xbe4ff8ca	-0.20309749
90	0x3d6c811d	0.05774032
91	0xbdcf88c6	-0.10133509
92	0x3d9e54b3	0.07730999
93	0x3c72112c	0.014774602
94	0xbcf1cdd0	-0.029517084
95	0x3c68a403	0.01419926
96	0x3dd308d1	0.10304416
97	0xbd1bc2d8	-0.038027614
98	0xbdec74df	-0.11545729
99	0xbd2bc18a	-0.04193262
100	0xbdd02560	-0.10163379
101	0xbdb57082	-0.0885935
102	0x3d6058db	0.05477224
103	0x3dc54a09	0.09633262
104	0xbd82ce81	-0.06387044
105	0xbd9c5c88	-0.076348364
106	0xbd0af6b0	-0.033926666
107	0xbe07d112	-0.13263348
108	0xbe9a4710	-0.3013234
109	0x3cf0246a	0.029314239
110	0xbe66fdf4	-0.22557813
111	0xbe5491ca	-0.20758739
112	0xbdbbc435	-0.09168283
113	0xbe72e169	-0.237188
114	0xbdcf8dd2	-0.10134472
115	0xbd7fa8aa	-0.06241671
116	0x3b118eec	0.0022210432
117	0x3d89883f	0.0671544
118	0x3d44b3cf	0.04802304
119	0x3d323d91	0.043515746
120	0xbe0a2d81	-0.13493921
121	0xbd7a5e7a	-0.061125256
122	0x3d25a670	0.04044193
123	0xbd71283f	-0.058876272
124	0xbe18ca72	-0.14920977
125	0xbdb9a10f	-0.090639226
126	0xbe023042	-0.12713721
127	0xbde38094	-0.11108509
128	0x3ddab8a0	0.10679746
129	0xbdfa9339	-0.12235112
130	0x3d13739e	0.035998933
131	0x3c8e7431	0.017389389
132	0x3bea14fb	0.0071436143
133	0x3c6e94ed	0.014561874
134	0xbe324f8f	-0.17413162
135	0xbd01c7d6	-0.03168472
136	0x3cdbef38	0.026847467
137	0x3d3a6c42	0.0455134
138	0xbd271440	-0.040790796
139	0xbd1b20ec	-0.037873194
140	0x3df66fb9	0.12033028
141	0xbd17874c	-0.036994264
142	0xbcc620b1	-0.02418551
143	0xbdc77562	-0.09739186
144	0xbdcae41f	-0.09906792
145	0x3ddea1ca	0.108707026
146	0x3d45bbb8	0.048274726
147	0xbb995986	-0.0046798615
148	0x3ccc7f41	0.024963023
149	0x3db11baf	0.08647858
150	0xbd314bc0	-0.04328513
151	0x3c9661bf	0.018357156
152	0x3d2e2fdf	0.042526122
153	0xbbb2fdea	-0.005462398
154	0xbd97c091	-0.07409776
155	0x3ccdfe68	0.025145724
156	0x3c8e3325	0.017358372
157	0x3d94d337	0.072668485
158	0xbca9bb62	-0.020719234
159	0xbd33b5f2	-0.04387469
160	0x3ccc1189	0.024910705
161	0x3dc8d6cd	0.09806595
162	0x3d887426	0.066627786
163	0x3e014345	0.12623318
164	0xbc630e22	-0.01385835
165	0xbd1c66f0	-0.038184106
166	0xbd12c3ed	-0.03583138
167	0x3dab6e56	0.08370654
168	0xbd734459	-0.059391353
169	0x3dc073d0	0.093970895
170	0xbd9781be	-0.07397793
171	0x3afa8ec5	0.0019116035
172	0xbe1506f7	-0.14553438
173	0x3c3075c6	0.010770267
174	0x3d00465c	0.0313171
175	0xbda81040	-0.082062244
176	0x3d918f16	0.071073696
177	0x3cc83a39	0.024441825
178	0x3d1b19ff	0.03786659
179	0xbba48488	-0.005020682
180	0x3c160f4f	0.009158923
181	0xbd7e66de	-0.06210982
182	0x3cfec8be	0.03110158
183	0xbc837fd4	-0.016052164
184	0xbd0c903f	-0.03431725
185	0xbd5dd63e	-0.054159395
186	0xbdc77ee2	-0.09740998
187	0x3d16fcf8	0.036862344
188	0xbc7a5d34	-0.01528101
189	0x3c029149	0.007969209
190	0x3dc5fab8	0.096669614
191	0xbc56c420	-0.013108283
192	0xbdee659d	-0.11640475
193	0xbd31818f	-0.043336447
194	0xbd6d9062	-0.057999022
195	0x3cebe3a2	0.028795067
196	0x3d55d8b8	0.052208632
197	0xbd8b3051	-0.06796325
198	0xbd133778	-0.03594157
199	0xbddea7a1	-0.108718164
200	0xbe0e82bc	-0.13917059
201	0x3d305aaa	0.043055214
202	0xbdbae2a2	-0.09125258
203	0xbd4c2dd2	-0.049848385
204	0x3cba229d	0.022721583
205	0xbd780200	-0.060548782
206	0x3e15ce49	0.14629473
207	0xbe2c5792	-0.1683028
208	0xbdcf07af	-0.101088874
209	0x3d18fa57	0.037348118
210	0xbbb62c59	-0.005559486
211	0x3d9b8215	0.075931706
212	0xbde7785d	-0.11302254
213	0x3c9df9db	0.01928418
214	0xbe3819bd	-0.17978568
215	0x3a9eda4a	0.0012119499
216	0xbd02c222	-0.03192342
217	0xbbe078b6	-0.0068503274
218	0x3d7411e1	0.059587363
219	0x3d5e611a	0.054291822
220	0x3df029d5	0.11726729
221	0xbcef090d	-0.02917912
222	0xbc100a02	-0.008791449
223	0x3c68d2fe	0.014210461
224	0x3d488c99	0.04896221
225	0xbd2cb5f1	-0.0421657
226	0xbc9703e5	-0.018434474
227	0xbe11aeeb	-0.14226882
228	0xbd9330b2	-0.07187022
229	0x3d38a375	0.04507776
230	0x3dc9264d	0.098217584
231	0x3d267e80	0.040647984
232	0xbd3fcda6	-0.04682698
233	0xbc88f4e0	-0.016718328
234	0x3dc27e4c	0.094967455
235	0xbd5578c0	-0.05211711
236	0x3c52ad08	0.012858637
237	0xbdb62455	-0.088936485
238	0x3e559ef4	0.20861417
239	0xbdb09df8	-0.0862388
240	0xbe1d33fa	-0.15351859
241	0xbe125956	-0.14291891
242	0xbd2b0a44	-0.041757837
243	0xbdd15af9	-0.1022243
244	0xbe225f17	-0.15856586
245	0x3dc0e787	0.0941916
246	0xbcd9eff2	-0.026603673
247	0x3e064698	0.13112867
248	0xbe0ddb02	-0.13853076
249	0xbdc3fb27	-0.09569388
250	0xbdcb90c9	-0.09939725
251	0xbe1909d1	-0.14945151
252	0xbb946832	-0.0045290226
253	0xbcd8a91c	-0.026447825
254	0xbe0d727d	-0.13813205
255	0xbd85568f	-0.0651065

lstm.bn1.weight f4 [7]
0	0x3f84728a	1.0347455
1	0x3f844356	1.0333049
2	0x3f868451	1.050913
3	0x3f855607	1.0416878
4	0x3f8a474d	1.0803009
5	0x3f9110c2	1.1333239
6	0x3f9edbf0	1.241087

lstm.bn1.bias f4 [7]
0	0x3cdd91ba	0.027047027
1	0x3dac4502	0.084116
2	0x3d84e9fc	0.064899415
3	0x3ce08efe	0.027411934
4	0x3dd85d37	0.10564654
5	0xbce3b6d6	-0.027797144
6	0xbc1dd3be	-0.009633003

lstm.bn1.running_mean f4 [7]
0	0x3c24a150	0.0100482255
1	0x3c1c8dbd	0.009555277
2	0x3c1eae53	0.009685117
3	0x3c267f17	0.0101621365
4	0x3c29070a	0.01031662
5	0x3c26fa29	0.010191479
6	0x3c23663b	0.009973104

lstm.bn1.running_var f4 [7]
0	0x3b14c13b	0.0022698182
1	0x3b533d07	0.003223242
2	0x3b749bb2	0.0037324247
3	0x3b82dd87	0.0039936933
4	0x3b8a40c3	0.004219146
5	0x3b907381	0.0044083004
6	0x3b951a5c	0.0045502614

lstm.lstm2.weight_ih_l0 f4 [256, 64]
0	0x3c9f6033	0.019455051
1	0x3df32784	0.118727714
2	0x3d3a7522	0.045521863
3	0x3e017104	0.12640768
4	0x3d19cc44	0.03754832
5	0x3ce38afa	0.02777623
6	0x3e0b2f0b	0.13592164
7	0x3d81217b	0.06305214
8	0xbd02bd61	-0.031918887
9	0xbd8734db	-0.06601878
10	0x3da0b3b9	0.078467794
11	0xbe28b24c	-0.16474265
12	0x3dbaac9b	0.09114953
13	0x3d312089	0.04324392
14	0x3d9b58ba	0.075852826
15	0xbb7cf735	-0.0038599495
16	0xbda06519	-0.07831783
17	0x3db00e34	0.08596459
18	0x3d87a75a	0.06623717
19	0xbda302a2	-0.079594865
20	0xbe2e48f3	-0.17020015
21	0x3b277745	0.0025553268
22	0x3e1d7a40	0.15378666
23	0x3bb2ac56	0.005452673
24	0x3a251645	0.0006297569
25	0x3d145e50	0.036222756
26	0xbbc371f2	-0.005964511
27	0xbd9fda1d	-0.07805274
28	0x3d973c2e	0.07384525
29	0x3e186efd	0.14886089
30	0x3d59f3a1	0.05321086
31	0x3d617332	0.0550415
32	0x3dbe1663	0.09281614
33	0xbdf9c671	-0.12196053
34	0x3dd70762	0.10499455
35	0x3c1651a2	0.009174736
36	0x3dd81d39	0.10552449
37	0xbdbc7617	-0.09202211
38	0xbc8cd836	-0.017192941
39	0x3d73ead2	0.059550114
40	0xbc418faa	-0.011814037
41	0x3d3459cd	0.044030953
42	0xbc9f4e47	-0.019446505
43	0x3dc4508d	0.09585676
44	0xbc33a113	-0.010963696
45	0xbd097933	-0.03356285
46	0x3dddcefe	0.10830496
47	0xbdb6bd26	-0.08922796
48	0x3bc6eafd	0.0060704933
49	0xbc9c5eac	-0.019088112
50	0xbd94b8c0	-0.07261801
51	0x3dbb4343	0.091436885
52	0xbcff1dbb	-0.031142106
53	0x3deb6f10	0.11495793
54	0x3d93fd1b	0.072260104
55	0xbd2f53a9	-0.042804394
56	0x3da4cffa	0.08047481
57	0xbd93192a	-0.07182534
58	0x3e3a7232	0.18207625
59	0xbc723296	-0.014782568
60	0xbd38c517	-0.045109835
61	0xbde59109	-0.11209304
62	0x3c2e81d7	0.010651073
63	0x3d3a3a95	0.045466024
64	0xbde67373	-0.11252489
65	0xbda0a59d	-0.07844088
66	0xbdd27684	-0.10276511
67	0x3db8ec3d	0.09029434
68	0x3d66fd43	0.056393873
69	0xbd8e5f19	-0.06951732
70	0xbd025acb	-0.03182487
71	0x3d187d31	0.037228767
72	0x3e0177c1	0.12643339
73	0xbd761613	-0.060079645
74	0x3b4f55ed	0.003163691
75	0x3d3cb60d	0.046072055
76	0x3c5252a0	0.012837082
77	0x3d847127	0.064668946
78	0xbdc97410	-0.0983659
79	0x3dac44c3	0.08411553
80	0x3dbc68a8	0.09199649
81	0xbddfcc44	-0.109276325
82	0xbdf1b470	-0.11801994
83	0x3d933476	0.071877405
84	0x3d65a363	0.05606402
85	0x3e2d5b94	0.16929466
86	0xbd3865ac	-0.045018837
87	0x3db6a4b3	0.08918133
88	0x3dd6ff64	0.10497931
89	0xbd8fbdc9	-0.070186205
90	0xbe35dbc7	-0.1775962
91	0xbded4577	-0.11585515
92	0x3df61d58	0.120173156
93	0x3daa3f6c	0.08312878
94	0x3de4fe14	0.11181274
95	0x3d2f0b07	0.042735126
96	0xbd5ec0a1	-0.054382924
97	0x3d5c8154	0.053834274
98	0xbda70d66	-0.081568524
99	0x3e148e5e	0.14507434
100	0x3da3c454	0.07996431
101	0xbd2bf145	-0.04197814
102	0x3dacf182	0.084445015
103	0x3d97b41c	0.074074
104	0xbdc3fae1	-0.09569336
105	0xbd75b2f7	-0.059985127
106	0x3d0878bc	0.033318266
107	0xbd8004d8	-0.06250924
108	0x3e01e4ba	0.12684909
109	0x3c87469d	0.016513163
110	0x3decc1c1	0.11560393
111	0xbce56ec2	-0.028006915
112	0xba63378a	-0.0008667639
113	0x3d395e2a	0.045255817
114	0x3cf1deca	0.02952518
115	0x3dfa37c5	0.122176684
116	0xbd6b33c7	-0.057422426
117	0x3d1be101	0.038056377
118	0x3cb2c2e3	0.021821445
119	0x3be9a67b	0.0071304417
120	0x3dbb0daf	0.09133469
121	0xbca00fc7	-0.019538773
122	0x3d95b5cb	0.07310065
123	0x3cb6b1a0	0.022301495
124	0x3ebcbe23	0.36863813
125	0x3e40e8d2	0.18838814
126	0xb9d7ee00	-0.0004118532
127	0x3da05c7e	0.078301415
128	0x3d040c34	0.0322382
129	0xbd7645c6	-0.060125135
130	0xbcf6392c	-0.030056559
131	0xbdf6f9f7	-0.12059396
132	0xbdf8ffe1	-0.1215818
133	0x3d1786d1	0.036993805
134	0xbd1c3e9a	-0.03814564
135	0x3dbd57a7	0.09245234
136	0x3e0d7173	0.13812809
137	0x3dbf603f	0.09344529
138	0xba111b42	-0.0005535373
139	0x3cd9847f	0.026552437
140	0x3dde9163	0.10867574
141	0x3cc9835b	0.024598768
142	0xbda83868	-0.08213884
143	0x3d8b3abd	0.06798313
144	0x3d25e7ce	0.04050427
145	0xbc7af3a6	-0.015316879
146	0x3e3d4735	0.18484195
147	0xbe29687c	-0.16543764
148	0xbcee3c88	-0.029081598
149	0x3e12be0f	0.14330314
150	0xbd3d513d	-0.046220053
151	0x3cc8d418	0.024515197
152	0x3de522f5	0.11188308
153	0xbd0fb508	-0.035084754
154	0xbd3df787	-0.04637864
155	0xbd35fd5a	-0.044431068
156	0x3e057f9a	0.13036957
157	0x3db50025	0.08837918
158	0xbe11c34b	-0.14234655
159	0x3cfce55f	0.030871091
160	0xbddda0fb	-0.1082172
161	0xbdbae70f	-0.09126102
162	0x3d194919	0.037423227
163	0x3e189539	0.14900674
164	0xbdc73b7e	-0.09728144
165	0xbab03873	-0.0013444558
166	0xbd04c73f	-0.03241658
167	0x3d91aa78	0.071125925
168	0x3dab3c6f	0.08361136
169	0x3d1312ef	0.03590673
170	0xbe262458	-0.16224802
171	0xbd96d14a	-0.073641375
172	0xbcc7f037	-0.024406536
173	0xbe0b041d	-0.13575788
174	0xbd48e7a2	-0.049049027
175	0x3e33f309	0.1757318
176	0xbd614714	-0.054999426
177	0xbd1470d0	-0.0362404
178	0xba7485d7	-0.0009327805
179	0xbddd0e34	-0.10793725
180	0x3e15d599	0.14632262
181	0xbdb4b40f	-0.08823406
182	0xbdc25734	-0.09489289
183	0x3de93476	0.11386959
184	0x3d38c9bf	0.045114275
185	0xbe052596	-0.13002619
186	0xbde145c5	-0.109996356
187	0xbc26bd31	-0.010176943
188	0x3cacad8c	0.021078847
189	0x3d8433bc	0.0645518
190	0xbdd5e6fe	-0.10444449
191	0xbe3022f0	-0.17200828
192	0x3ddc275e	0.10749696
193	0xbe33230d	-0.1749384
194	0xbe4da01f	-0.20080613
195	0xbe0ed6a9	-0.13949074
196	0xbe52c37d	-0.20582385
197	0x3a550979	0.0008126717
198	0xbe6f9cdb	-0.2339968
199	0xbdc1366a	-0.09434207
200	0x3d192338	0.037387103
201	0xbdf4bd04	-0.11950114
202	0xbe488203	-0.19580846
203	0x3e1dc5a6	0.15407428
204	0x3d9f4668	0.07777101
205	0xbd71cb42	-0.059031732
206	0xbd5690bf	-0.052384134
207	0xbd8b2cad	-0.067956306
208	0xbdd2d0de	-0.102937445
209	0x3da8e70c	0.08247194
210	0x3e40c2ff	0.18824385
211	0xbeab2cc3	-0.33432588
212	0x3d45250f	0.048131045
213	0xbdf3fdae	-0.1191362
214	0xbdaa8d3c	-0.083277196
215	0x3d1eaf81	0.038741592
216	0xbde360b9	-0.11102433
217	0xbdceb677	-0.10093396
218	0x3d3e9d35	0.046536643
219	0xbd756ef8	-0.05992028
220	0xbd769291	-0.06019837
221	0x3c2743a4	0.010208998
222	0xbe115ce5	-0.14195593
223	0x3cf97d81	0.030455353
224	0xbdba47d2	-0.0909573
225	0x3ce02bc7	0.027364625
226	0x3ba68ccd	0.0050827027
227	0x3de8da75	0.11369792
228	0xbc7e5966	-0.015524244
229	0xbee44c9c	-0.44589698
230	0xbd823268	-0.063572705
231	0xbded99c8	-0.11601597
232	0xbb93f84d	-0.0045156837
233	0x3d54eedc	0.051985607
234	0xbe457daa	-0.19286218
235	0xbdaafc2a	-0.08348878
236	0xbe017ff5	-0.12646468
237	0xbd3eb3bc	-0.046558127
238	0xbb8bd01c	-0.004266752
239	0xbd35eebd	-0.04441713
240	0x3e5d5b6a	0.21616903
241	0x3d08844d	0.033329297
242	0x3dd7f536	0.10544817
243	0xbe3c56f8	-0.18392551
244	0x3b574f2a	0.0032853582
245	0xbb2b8635	-0.0026172523
246	0x3c204e46	0.009784287
247	0x3cadd207	0.021218313
248	0xbe34478d	-0.1760542
249	0xbda6947f	-0.08133792
250	0xbc609085	-0.013706331
251	0xbb8e4051	-0.004341163
252	0xbd5d3114	-0.054001883
253	0x3da536ef	0.080671184
254	0x3e46e2cc	0.19422454
255	0xbe30ee38	-0.17278373

lstm.lstm2.weight_hh_l0 f4 [256, 64]
0	0xbd9077e1	-0.07054115
1	0x3ce4d593	0.027933871
2	0x3d731134	0.059342578
3	0xbd087010	-0.033309996
4	0x3c4ecaf3	0.012621629
5	0xbde60030	-0.112305045
6	0xbd5c11d1	-0.05372793
7	0x3d38c2a4	0.0451075
8	0x3c440fa2	0.011966618
9	0xbd6e0066	-0.05810585
10	0xbdaeb744	-0.08531049
11	0xbda7c695	-0.081921734
12	0xbb094b0f	-0.002094928
13	0xbe0c2a0f	-0.13687919
14	0x3c7abcd2	0.015303807
15	0x3d25b142	0.04045225
16	0x3ca8a600	0.020586967
17	0x3db257e7	0.08708172
18	0xbdaaa254	-0.08331743
19	0xbd485984	-0.048913494
20	0xbd96ca14	-0.07362762
21	0x3d0022a3	0.031283032
22	0xbd8280bf	-0.063722126
23	0xbd186d25	-0.037213463
24	0x3d857dcf	0.06518137
25	0x3cab5495	0.020914355
26	0xbdd3ae0b	-0.103359304
27	0x3c6ac275	0.014328589
28	0x3dbb042e	0.091316566
29	0x3d33a482	0.04385806
30	0xbdbc5090	-0.091950536
31	0x3d9426f5	0.07233993
32	0x3e0b06c7	0.13576804
33	0x3c85b5c7	0.01632203
34	0x3ce1edff	0.027579306
35	0xbd9f7713	-0.077863835
36	0x3df6d3e2	0.12052132
37	0xbdb18560	-0.086680174
38	0x3df8a967	0.12141686
39	0x3c635bb0	0.0138768405
40	0x3d0d3332	0.03447265
41	0x3d530f5b	0.051528316
42	0xbdadf3fe	-0.084938034
43	0x3d9821c1	0.07428313
44	0xbcb50a15	-0.022099534
45	0xbd75e8ec	-0.060036585
46	0x3d1088bd	0.035286654
47	0xbc66238d	-0.014046562
48	0xbd5585f4	-0.0521297
49	0x3c263ef4	0.010146845
50	0xbdc51d92	-0.09624781
51	0x3c8db263	0.017296975
52	0x3d54bd30	0.051938236
53	0x3d7f1c8f	0.062283095
54	0xbd290ec1	-0.041273836
55	0x3e266907	0.16251002
56	0xbd489ef5	-0.04897972
57	0xbdf43bef	-0.11925494
58	0xbcbfa6fa	-0.02339505
59	0x3cea1bd0	0.028577715
60	0xbd2cf121	-0.042222146
61	0x3cb844d2	0.022493754
62	0x3d74cf17	0.05976781
63	0x3ce34ac4	0.027745612
64	0xbd083b92	-0.033259936
65	0xbdb51ea3	-0.08843734
66	0xbd249450	-0.040180504
67	0x3e073663	0.1320434
68	0x3d983fe0	0.07434058
69	0xbd32537d	-0.043536652
70	0x3df35cc1	0.11882926
71	0xbe88a01f	-0.26684663
72	0xbdfe74a1	-0.12424589
73	0xbd9c7165	-0.07638816
74	0xbcf59d86	-0.02998234
75	0xbd097921	-0.033562783
76	0xbdf9a325	-0.121893205
77	0x3c3b686b	0.011438469
78	0x3e851cc9	0.25998524
79	0xbdffde86	-0.12493615
80	0xbe33731c	-0.1752438
81	0x3dd3384d	0.10313473
82	0x3d07436a	0.033023275
83	0x3e59f334	0.21284181
84	0xbded4e3b	-0.11587187
85	0x3e3ae21d	0.18250318
86	0xbda1473c	-0.07874915
87	0xbe34bcaf	-0.17650102
88	0xbd0695b4	-0.03285761
89	0x3df64590	0.12024987
90	0x3d93bcb0	0.07213724
91	0x3d27d6f1	0.04097647
92	0xbcee792f	-0.02911052
93	0xbcdf70b8	-0.027275428
94	0x3e479b38	0.19492805
95	0xbc92e08b	-0.017929336
96	0xbc070573	-0.008241045
97	0xbe963381	-0.2933617
98	0xbe1e68ea	-0.15469709
99	0xbd4f3e71	-0.05059666
100	0xbe8a1cd8	-0.2697513
101	0xbdb3ff7b	-0.087889634
102	0xbca9723d	-0.020684356
103	0xbe89cabf	-0.26912495
104	0xbda5e2b4	-0.08099881
105	0x3db67d26	0.08910589
106	0xbe7e4075	-0.24829276
107	0x3e627475	0.22114737
108	0x3d43b21d	0.047777284
109	0x3dcdf6e1	0.10056854
110	0xbdb3aee0	-0.08773589
111	0x3e136cc7	0.14396964
112	0x3ce07867	0.027401162
113	0xbdb6a21b	-0.08917638
114	0x3e13552c	0.14387959
115	0x3e532cd9	0.20622577
116	0x3d7474ba	0.05968163
117	0x3d020889	0.03174642
118	0xbc815151	-0.015785845
119	0x3d07d0b2	0.03315801
120	0xbcb323b6	-0.021867614
121	0x3d7f758f	0.062367972
122	0xbc45cee8	-0.012073256
123	0xbe396643	-0.18105416
124	0x3e524227	0.20533048
125	0x3da85ab1	0.08220423
126	0xbc82c23d	-0.01596176
127	0x3dbea2a3	0.09308364
128	0xbc363847	-0.011121816
129	0x3c6021de	0.01367995
130	0xbc938171	-0.018006058
131	0xbdb836f9	-0.0899486
132	0x3d44291b	0.047890764
133	0x3dc80709	0.09766967
134	0xbd5d6d66	-0.05405941
135	0xbd970e48	-0.07375771
136	0xbc8c5de6	-0.017134618
137	0x3d7ec8ec	0.062203333
138	0xbdc5e329	-0.09662468
139	0xbde80bad	-0.11330352
140	0x3d892a61	0.06697536
141	0xbda717fa	-0.0815887
142	0x3cffd950	0.031231552
143	0xbe04f42b	-0.12983768
144	0xbdaad28a	-0.083409384
145	0x3c4d22de	0.01252052
146	0xbdafdeb1	-0.08587397
147	0x3c9afd44	0.018919595
148	0x3da541f3	0.080692194
149	0xbd49d220	-0.049272656
150	0x3df291e3	0.11844232
151	0x3d7ae0c9	0.061249528
152	0x3d195072	0.037430234
153	0xbda96602	-0.082714096
154	0x3d306dcf	0.04307347
155	0xbd85451a	-0.06507321
156	0x3c83950b	0.01606228
157	0xbdc14e36	-0.09438746
158	0xbe38d343	-0.1804934
159	0xbdb89e64	-0.090145856
160	0x3d11e519	0.035618875
161	0x3d5842cd	0.05279808
162	0x3d8e72a7	0.06955462
163	0xbd038d5d	-0.032117236
164	0xbcfe71de	-0.031060155
165	0xbd4512d6	-0.048113666
166	0xbdaaeca8	-0.0834592
167	0x3d2949e2	0.041330226
168	0x3e50ae57	0.20379005
169	0x3c3487f9	0.0110187465
170	0xbc165cd9	-0.00917741
171	0x3dc5aec9	0.09652478
172	0xbda10046	-0.0786138
173	0xbcb0ee1e	-0.021597918
174	0x3c15cc2b	0.009142916
175	0x3d1d4023	0.038391244
176	0xbde79cf1	-0.11309231
177	0xbd93a957	-0.072100334
178	0x3d8b37a5	0.06797723
179	0x3d8a7666	0.06760864
180	0x3e111612	0.14168575
181	0xbd8431a2	-0.06454779
182	0xbd74e070	-0.059784353
183	0xbd8ff8f8	-0.07029909
184	0x3dc8a4a1	0.097970255
185	0xbcf06af7	-0.02934788
186	0x3d5b8c0d	0.05360036
187	0x3de38766	0.111098096
188	0xbda749fd	-0.08168409
189	0xbc36a3b4	-0.011147428
190	0x3cb474f8	0.022028431
191	0xbdb061d2	-0.08612408
192	0x3cdc0693	0.026858604
193	0xbe2a5938	-0.16635597
194	0x3d7ae08e	0.06124931
195	0xbc91a53f	-0.01777899
196	0xb9a31438	-0.00031104847
197	0x3ac9143b	0.0015341112
198	0xbe61fbaa	-0.22068658
199	0xbe002fde	-0.1251826
200	0x3ca527e1	0.020160617
201	0x3dbb8d12	0.091577664
202	0x3e37dad9	0.17954578
203	0x3e520eed	0.20513506
204	0xbd4ec299	-0.05047855
205	0x3e30baf8	0.17258823
206	0xbe37c252	-0.17945221
207	0x3ddbd2c5	0.107335605
208	0xbc844449	-0.016145842
209	0x3e8f60f1	0.28003648
210	0xbd2bb922	-0.041924603
211	0x3d8a88da	0.067643836
212	0x3d9d5b91	0.076834805
213	0x3e29a461	0.16566612
214	0x3d939790	0.07206643
215	0xbdaf3c66	-0.08556442
216	0xbe13f362	-0.14448312
217	0x3d8f1bfe	0.06987761
218	0x3d9869c3	0.074420474
219	0x3cbe930f	0.023263482
220	0xbd53d460	-0.05171621
221	0xbd0fb317	-0.035082903
222	0x3e15fcd0	0.14647222
223	0xbe323294	-0.17402107
224	0xbd12df46	-0.03585746
225	0x3dfc4ec9	0.123197146
226	0xbe01c12c	-0.12671345
227	0x3ddd4d4f	0.10805761
228	0xbb6649db	-0.0035139236
229	0xbdbac4a8	-0.091195405
230	0xbc5bb824	-0.013410602
231	0xbe0986c4	-0.13430315
232	0xbd93f34e	-0.07224141
233	0xbc9ff469	-0.019525724
234	0x3cb52b0d	0.022115255
235	0xbe77525a	-0.24152508
236	0x3d37b70e	0.04485231
237	0x3d9da734	0.07697907
238	0xbd815c41	-0.06316424
239	0xbd591d54	-0.053006485
240	0x3d8a6498	0.06757468
241	0x3d1fc9cb	0.039010804
242	0x3c84f9d3	0.016232407
243	0xbe6ded71	-0.23235108
244	0x3ca06da3	0.019583529
245	0x3c35335a	0.011059606
246	0xbcba771c	-0.022761874
247	0xbe253e61	-0.16137077
248	0x3df824ff	0.121164314
249	0xbe0b77cf	-0.13619922
250	0xbd85ae6e	-0.065274104
251	0xbd351719	-0.04421148
252	0x3e0103e1	0.12599136
253	0xbdaf89bc	-0.085711926
254	0xbe7720ec	-0.24133652
255	0x3e2233fc	0.15840143

lstm.lstm2.bias_ih_l0 f4 [256]
0	0xbe00071e	-0.12502715
1	0xbcabfb7f	-0.020993946
2	0xbdc0bb9d	-0.094107844
3	0x3cdddcaf	0.02708277
4	0x3d3e1ed6	0.046416126
5	0xbe0c22da	-0.1368517
6	0xbdab5d71	-0.08367432
7	0x3cef663d	0.029223556
8	0x3db17183	0.08664229
9	0x3d025e59	0.03182826
10	0xba0123d3	-0.00049262977
11	0x3e1954a8	0.149737
12	0xbd2bbdc3	-0.041929018
13	0x3d652260	0.055940986
14	0xbda4bc52	-0.08043732
15	0xbca231b3	-0.019799089
16	0x3d42a311	0.047518793
17	0x3da213fe	0.079139695
18	0x3d9f1430	0.07767522
19	0x3e28a408	0.16468823
20	0x3c6763f8	0.0141229555
21	0xbc719576	-0.014745107
22	0xbccfb17d	-0.025353188
23	0xbd37877c	-0.044806942
24	0x3ba92697	0.005162071
25	0x3c6ca856	0.014444431
26	0xbcc7c819	-0.024387406
27	0xbdaac067	-0.08337479
28	0xbd1e6e08	-0.038679153
29	0xbe2ca1f7	-0.1685866
30	0xbdc1f7c5	-0.094710864
31	0x3c7b9af2	0.015356766
32	0xbdb6c1db	-0.08923694
33	0x3df16cc6	0.11788325
34	0x3c0e7088	0.008693822
35	0xbd1d31ff	-0.038377758
36	0x3c40db05	0.011770968
37	0x3d6e0f1e	0.058119886
38	0xbdaff5e3	-0.08591821
39	0x3d1cbf00	0.03826809
40	0xbcfb05f5	-0.030642489
41	0x3e079e66	0.13244018
42	0x3dc5ac22	0.09651972
43	0x3dadbaa5	0.08482865
44	0x3c0860a8	0.008323826
45	0x3c7e920b	0.015537749
46	0x3e195004	0.1497193
47	0x3d829429	0.063759156
48	0xbda1324a	-0.0787092
49	0x3e0b2679	0.13588895
50	0xbd9016ef	-0.07035624
51	0x3e4febfe	0.20304868
52	0xbc4fb6a0	-0.012677819
53	0xbca328e4	-0.01991696
54	0xbda01204	-0.07815936
55	0xbcdb4753	-0.026767408
56	0xbdf02175	-0.117251314
57	0xbce2b49a	-0.027674008
58	0xbe3b8b6f	-0.18314908
59	0xbc4fefca	-0.0126914475
60	0x3d45852b	0.048222702
61	0x3cae5ea9	0.021285372
62	0x3e13ae52	0.14421967
63	0x3e170e42	0.14751533
64	0x3dece10c	0.11566362
65	0xbda230eb	-0.079194866
66	0xbd8d44f9	-0.06897921
67	0x3db602fc	0.08887288
68	0x3d290908	0.04126838
69	0xbda0cf06	-0.078519866
70	0x3deded6a	0.11617549
71	0xb923d757	-0.00015625112
72	0xbd1ce48d	-0.0383039
73	0x3e4f06d8	0.20217454
74	0x3d82ccaa	0.06386693
75	0x3dc6886e	0.09693991
76	0x3d25659d	0.04038011
77	0xbe19d68c	-0.1502325
78	0xbc16f98c	-0.00921477
79	0x3e4a3cbb	0.1974973
80	0x3d5ddba7	0.054164555
81	0xbdfb64f1	-0.122751124
82	0x3dee0d90	0.116236806
83	0xbd15ec35	-0.036602218
84	0x3e34fd45	0.1767474
85	0xbda180c7	-0.078858905
86	0xbd8c68ee	-0.06855951
87	0xbd95bf06	-0.073118255
88	0x3ddfcaa8	0.109273255
89	0xbda01c0d	-0.0781785
90	0x3d7304ff	0.059330937
91	0xbba23b2b	-0.004950901
92	0x3dd3b1a6	0.10336618
93	0xbdf09136	-0.11746447
94	0xbd840eee	-0.0644816
95	0xbdabf326	-0.08395986
96	0xbe0bbdc3	-0.13646607
97	0xbd948fec	-0.072540134
98	0xbdbc663a	-0.09199186
99	0x3e282f26	0.16424236
100	0xbcc6628e	-0.024216916
101	0xbe0648ea	-0.13113752
102	0xbdcc2bf0	-0.09969318
103	0xbe048666	-0.12941894
104	0x3cca562e	0.024699297
105	0xbdb6e65b	-0.089306556
106	0xbcf34c01	-0.029699327
107	0xbd89e8b3	-0.06733837
108	0xbddde62c	-0.108349174
109	0x3d6776ed	0.0565099
110	0xbd55b10c	-0.0521708
111	0xbd030afc	-0.031992897
112	0xbd6e99fb	-0.058252316
113	0xbd9b3ed3	-0.07580342
114	0x3d6809af	0.05664986
115	0xbda8aab3	-0.08235683
116	0x3d92a2b3	0.07159939
117	0xbe22e90e	-0.15909216
118	0x3dad1743	0.084517024
119	0xbe3964be	-0.18104836
120	0xbe12f0e6	-0.14349708
121	0xbbe4d19c	-0.006982995
122	0xbc211726	-0.009832179
123	0xbe49f6df	-0.1972308
124	0xbdcbef82	-0.09957792
125	0x3e1086c8	0.14113915
126	0x3dd6b00c	0.10482797
127	0x3dd66822	0.104690805
128	0xbd78d3a0	-0.060748696
129	0xbd9c9261	-0.07645107
130	0x3d9e3058	0.077240646
131	0xbde80cdf	-0.1133058
132	0xbd254ed0	-0.040358365
133	0xbdd42b99	-0.10359878
134	0x3d16560b	0.03670315
135	0x3b12edb3	0.0022419512
136	0xbcf9e274	-0.03050349
137	0x3e56a8ea	0.20962873
138	0x3e4e60a3	0.20154051
139	0x3d97604b	0.07391413
140	0x3ca3f7ab	0.020015558
141	0xbc3e3db0	-0.011611387
142	0x3d203a6a	0.039118208
143	0x3d43f0b6	0.04783698
144	0x3e0269e8	0.12735713
145	0xbd1df9f1	-0.03856844
146	0x3e49243e	0.19642732
147	0xbcc09d26	-0.023512434
148	0xbe1a4ca0	-0.15068293
149	0xbd369521	-0.044575814
150	0xbc8be2e0	-0.017075956
151	0x3deb465b	0.114880286
152	0xbe25d834	-0.16195756
153	0xbd0c3bdc	-0.034236774
154	0xbd3a44ae	-0.045475654
155	0x3e0389dd	0.1284556
156	0x3e06ecf0	0.13176322
157	0xbc5f810d	-0.013641608
158	0x3cbf8680	0.023379564
159	0xbe2318d6	-0.15927443
160	0xbe0576ba	-0.13033572
161	0x3dc05a59	0.093922324
162	0x3de4330f	0.11142551
163	0x3e2513e1	0.16120864
164	0x3e2ec1d4	0.17066127
165	0xbd82feb4	-0.06396237
166	0x3de73931	0.11290205
167	0x3d9322ad	0.07184348
168	0x3b852855	0.004063646
169	0xbd93b90a	-0.07213028
170	0xbcd58e1f	-0.026068745
171	0x3d3d7590	0.046254694
172	0xbdbf60f6	-0.09344666
173	0x3d956d82	0.072962776
174	0xbd013675	-0.031546075
175	0xbe1a2fe9	-0.15057339
176	0x3d091003	0.033462536
177	0x3e2a5aa8	0.16636145
178	0xbe1e0a00	-0.15433502
179	0xbe0c71e0	-0.13715315
180	0x3e12b3ed	0.14326449
181	0x3d0af388	0.033923656
182	0x3e303592	0.17207935
183	0xbd4f90b3	-0.050675105
184	0xbd242050	-0.040069878
185	0x3c0b903b	0.008518274
186	0x3dd1ec24	0.102501184
187	0xbdcb5433	-0.09928169
188	0x3e0b0b06	0.13578424
189	0x3df8d25f	0.121495
190	0xbcfc3c5d	-0.030790502
191	0x3d78c1bf	0.060731646
192	0x3db8cc72	0.0902337
193	0xbc6c7de0	-0.014434308
194	0x3ca6e422	0.020372454
195	0x3ca2b5bb	0.019862046
196	0x3d5fd57b	0.05464695
197	0xbe362dee	-0.17790958
198	0x3dc9aeb3	0.09847774
199	0x3902eecd	0.00012486726
200	0x3ddd540a	0.10807045
201	0x3d9b259b	0.07575532
202	0x3d668a82	0.056284435
203	0xbd56bcec	-0.052426264
204	0xbd83fd31	-0.06444777
205	0x3d31f70a	0.043448485
206	0xbc821dc1	-0.015883328
207	0x3d53e740	0.05173421
208	0xbd54a2be	-0.051913016
209	0xbcdc2739	-0.026874172
210	0x3c2063c2	0.009789409
211	0x3b9be563	0.0047575696
212	0x3e158fe8	0.14605677
213	0xbdc0a66e	-0.09406744
214	0x3bac37e9	0.0052556884
215	0x3dad27ea	0.08454879
216	0xbdbf82dc	-0.09351131
217	0x3d9b0554	0.07569376
218	0x3cf5c930	0.03000316
219	0xbd81033b	-0.06299444
220	0xbca7055d	-0.0203883
221	0xbe5ab7d6	-0.2135919
222	0xbe21f77d	-0.15817066
223	0xbca205e8	-0.019778207
224	0x3dc4f473	0.096169375
225	0x3d024641	0.03180528
226	0xbd5fb063	-0.054611575
227	0xbdaf7917	-0.08568018
228	0x3c8ec6ca	0.017428774
229	0x3d603b99	0.054744337
230	0x3dc6b168	0.09701806
231	0x3e156c55	0.14592107
232	0xbd842199	-0.06451721
233	0x3d00546b	0.031330507
234	0x3e14d121	0.14532901
235	0x3e08cecd	0.13360138
236	0xbe3a7751	-0.18209578
237	0x3d66c247	0.05633762
238	0x3dcfac48	0.10140282
239	0x3b76f8f6	0.0037685013
240	0xbdfd5a37	-0.12370723
241	0xbcc5e306	-0.024156105
242	0xbd36fe8e	-0.044676356
243	0x3e27c9ea	0.16385618
244	0xbd8d43fa	-0.06897731
245	0xbe1b7711	-0.15182139
246	0x3d93ed8c	0.07223043
247	0xbd353f1b	-0.044249635
248	0xbe3fa261	-0.18714286
249	0xbe12fd13	-0.14354353
250	0xbe08bf60	-0.13354254
251	0xbe34c81d	-0.17654462
252	0xbe17311d	-0.14764829
253	0x3e284dfb	0.16435997
254	0x3b99cd51	0.004693665
255	0xbd8c3b1b	-0.06847211
