073123/0810hoxyhoxy7.pth (torch, 644637 bytes, 40 tensors)

lstm.lstm1.weight_ih_l0 f4 [256, 12]
000000 d4 a1 3f bd 4a 3f 22 be 08 a4 89 3d bb dc 0b be
       -0.04678519 -0.15844455 0.067207396 -0.1365842
000010 15 f1 b1 bd 34 6b 27 3d ce 7e 94 bd 59 cd ad bd
       -0.08688561 0.04087372 -0.072507486 -0.084864326
000020 72 2f 02 be 7a 4f 6a 3c 5b 16 77 be 36 e0 9f 3d
       -0.12713411 0.014301175 -0.24129622 0.07806437
000030 2b 93 a1 bc 87 a3 fd bc 88 5b be bd 5b 21 7b 3c
       -0.019723495 -0.030961765 -0.09294802 0.015327777
000040 3d 86 3a 3d 6b ae d8 bd f4 d7 c4 3d 2f cf 19 3d
       0.045538176 -0.105801426 0.09611502 0.0375511
000050 14 ad c6 3d 5f 29 5c 3c 2e 83 91 3d fe 0f 19 be
       0.09700981 0.013437598 0.07105099 -0.14947507
000060 99 a4 dc 3b 5f 8b 9b bd 9b 34 88 3d a6 8b 78 bd
       0.0067334888 -0.07594942 0.06650659 -0.060680054
000070 fe e8 c1 bc b7 bf 14 be 74 00 6c bd 24 3a 2d 3d
       -0.02367067 -0.14526258 -0.05761762 0.042291775
000080 08 d5 8b bc 7a b2 c4 3b 42 a6 0d 3e c2 26 e2 3d
       -0.017069355 0.0060027214 0.13832954 0.11042549
000090 e6 cf 2f bc 49 9c 21 3e ae b8 92 bc 61 c1 9c 3d
       -0.010730719 0.15782274 -0.017910328 0.076540716
0000a0 63 27 c7 3d bc a1 06 3e 90 8a 24 3d 92 b0 ed bb
       0.09724309 0.13147634 0.040171206 -0.007253715
0000b0 5a af fe 3d 57 79 ec 3d dd aa b0 3d f5 57 d1 3d
       0.124357894 0.11546581 0.086263396 0.102218546
0000c0 97 e5 7f 3d e8 8d 0a 3e f1 5f 3e 3e 57 8c 7a 3d
       0.062474813 0.13530695 0.18591286 0.061168995
0000d0 20 b3 97 3e 02 e1 fa 3d e5 ba 9b 3d 82 56 a7 3d
       0.2962885 0.12249948 0.07604007 0.08170797
0000e0 3e de 27 3e 9d ea b5 3d b5 13 6e 3e 9d 97 c9 3d
       0.16393372 0.088826396 0.23249705 0.09843371
0000f0 73 eb 1a be c3 59 61 be 47 a6 d2 bd d9 6d 8c 3c
       -0.15128879 -0.22006898 -0.10285621 0.017142223
000100 cb fd d9 bd 22 31 69 bd 59 74 b2 3c 63 71 20 be
       -0.1064411 -0.056931622 0.021783995 -0.15668254
000110 9a 69 78 be 70 37 46 be 5c ff 8a bd 93 17 3d be
       -0.24259034 -0.19357085 -0.06786987 -0.18466024
000120 0b 4a 1d be 39 47 e0 3c f0 0f 43 3d 5a d1 94 bd
       -0.15360276 0.027377712 0.04762262 -0.07266493
000130 7b e4 cb 3d 79 cc 64 bd 35 ad 44 be 2f ea 58 3b
       0.099556886 -0.055859063 -0.19206698 0.0033098569
000140 ba 45 69 bd 6d 90 fe bd 64 5b 21 bd 7d 3a 31 3e
       -0.056951262 -0.12429891 -0.039393798 0.17307468
000150 88 2f 06 bd 71 25 f7 bd 80 14 57 be 8b 7a 46 bd
       -0.032760173 -0.12067688 -0.21003914 -0.04845671
000160 dd 3d 0a bd 02 b0 ec bc f5 9d 10 bd f9 73 38 bc
       -0.033750404 -0.02889252 -0.03530689 -0.011258119
000170 6c 91 1c bd b9 a8 22 bb 99 9d 46 3d 8f 62 30 bd
       -0.038224623 -0.0024819805 0.04849014 -0.043062743
000180 b7 77 16 3d 87 53 34 be 89 ab 10 3e 5b b9 be bc
       0.036735263 -0.17609988 0.14127935 -0.023281744
000190 26 1f 36 bd 89 cd 3d 3d 5e 95 8a bd 48 75 8a 3c
       -0.0444633 0.04633859 -0.06766771 0.016901627
0001a0 72 4e da 3d 2d 68 67 bc ec 63 5f 3d f8 98 42 be
       0.106594935 -0.014123959 0.054538652 -0.19003665
0001b0 98 14 02 bd 63 ed b7 bd dd 08 d8 bd 5d 47 65 3c
       -0.03175792 -0.08980825 -0.105485655 0.013994065
0001c0 f0 65 cd bd ff 24 9a bd 95 d0 01 ba d5 7d 09 be
       -0.10029209 -0.07526588 -0.00049520406 -0.13426907
0001d0 cc 38 ad bc 7b a2 28 3c 64 b4 40 bc 71 35 c6 be
       -0.021145247 0.010292645 -0.0117617585 -0.38712648
0001e0 fe 83 4a 3b 16 e5 2b be 48 73 ea bd e8 a5 44 3c
       0.0030901427 -0.16786608 -0.114477694 0.012002446
0001f0 a8 fb 16 bd 76 90 33 be 4c 53 33 be 58 36 f9 bd
       -0.03686109 -0.17535576 -0.17512244 -0.121685684
000200 03 3d c8 3b 3e e6 82 3c 52 12 ff bc 66 0d 4f be
       0.006110789 0.015978929 -0.031136665 -0.20219955
000210 e3 e4 6b bd 6b d7 f9 3d 6a 05 74 bd bc d1 b4 bd
       -0.05759133 0.12199291 -0.059575476 -0.08829066
000220 74 d8 6f 3d 14 c4 e1 3d 56 3f b9 3c 08 a7 3c 3d
       0.058556035 0.11023727 0.022613209 0.04605773
000230 ca be 87 bd 88 4f 05 3e 3d b4 a6 3d 14 49 45 3e
       -0.06628187 0.1301862 0.081398465 0.19266158
000240 ff 19 f4 3d 81 b4 29 bc 3c 3a 12 bb 7d 09 0a be
       0.11919021 -0.010357977 -0.0022312542 -0.13480182
000250 16 17 90 be 98 dd a6 bd 73 e5 8e bd 20 35 50 bd
       -0.28142613 -0.081477344 -0.06977358 -0.050831914
000260 50 09 27 be 36 7d ff bd 60 32 d1 3d 16 f6 a3 be
       -0.16312146 -0.12475054 0.102146864 -0.32023686
000270 e5 e4 5a 3c 8b 1c c8 bd 89 5b 08 3d fa 72 02 3d
       0.013360237 -0.09771069 0.03329042 0.03184793
000280 4e 27 e1 bd 8d 84 28 be 6e 37 c8 bc ce 20 84 3d
       -0.10993825 -0.16456814 -0.024440493 0.064515695
000290 f1 ad 16 be a2 44 a0 3d b5 72 cf bc d1 40 60 be
       -0.14714791 0.07825591 -0.025323251 -0.21899725
0002a0 7c 72 85 bc c6 a9 b4 3c e8 c5 46 bc 65 f7 e3 bd
       -0.016289942 0.02205361 -0.012132145 -0.11131171
0002b0 ee b8 1c be 78 06 07 3d 6f aa 10 3d a2 d5 72 3d
       -0.1530492 0.032965153 0.03531879 0.059285767
0002c0 12 32 a0 bd 9a 99 a2 3d b8 0b e2 3d aa ed 8e bd
       -0.0782205 0.079394534 0.110373914 -0.069789246
0002d0 9e 8d 26 be d4 85 53 bd 33 c8 ac bd 09 97 e3 bd
       -0.1626496 -0.0516413 -0.084366225 -0.11112792
0002e0 b5 90 8e 3c 53 cd 5e 3b 6c fb cb 3c 1f b0 dd bd
       0.017402986 0.0033996894 0.02490016 -0.10824608
0002f0 8c 2d 45 3c 15 8c 39 bd 92 c2 25 be 1a ad 2b be
       0.012034785 -0.04529961 -0.16187504 -0.16765252
000300 f7 a0 da bd 45 f5 05 3d bc d6 75 3d ee 31 37 bc
       -0.10675233 0.03270461 0.06001924 -0.011181338
000310 5f 3c c5 3b 3b bc 0b be ef b8 ea 3d 90 a5 cb bc
       0.0060191597 -0.13646023 0.114610545 -0.02485922
000320 e6 1e 45 bd bb 14 d7 3d 6d 9d 21 be 83 c7 a2 3e
       -0.04812517 0.10502001 -0.1578271 0.3179284
000330 09 3d 85 bd 8d cd dd bd 5e 42 a5 bc 5b 0f 67 bd
       -0.06505782 -0.10830221 -0.020173248 -0.05641113
000340 00 07 f5 bc 55 ee d6 bc cb 5a 91 3c bd 7b 90 bd
       -0.029910564 -0.026236692 0.017743489 -0.07054851
000350 e5 0a c8 bc 5c 21 c6 bd 8e 46 c9 bd f7 2e b7 bd
       -0.024419257 -0.096743315 -0.0982791 -0.08944505
000360 4a 45 5f bd 0c 31 4c 3d 73 2b 1f be 5c 2d 69 3d
       -0.05450944 0.049851462 -0.15543918 0.056928024
000370 0e ef 21 bd 03 6a 00 be 0b 37 49 bd 69 6f d1 bd
       -0.03953462 -0.1254044 -0.04912476 -0.10226328
000380 8f 4b 67 bc 34 2a 56 bc ee ce 30 be f2 59 0f bd
       -0.014117136 -0.013071585 -0.17266437 -0.034997888
000390 fc 42 d3 3c c4 eb e6 bc e2 8a 81 bb 35 00 94 bb
       0.025788777 -0.028188594 -0.0039533237 -0.0045166262
0003a0 3a d4 95 3a 86 b7 7a bc bc b6 0c be f1 c1 ba 3c
       0.0011431046 -0.015302544 -0.13741583 0.022797557
0003b0 64 6f e8 bd ea 95 98 bb b1 97 fc bd 79 62 de bc
       -0.11349371 -0.004656543 -0.1233362 -0.027146565
0003c0 3e 80 4e bd 0b bd 1b bd 7a c8 84 3d 11 d1 d1 bc
       -0.05041527 -0.038022082 0.0648355 -0.025612386
0003d0 d6 b7 50 be 3b fb 7a 3d ce 38 4b 3a 47 a9 9d bd
       -0.20382628 0.06127475 0.00077523 -0.07698303
0003e0 a1 56 dc bd b5 bf 5b bb e7 1e 09 be ff e6 2e 3e
       -0.10758711 -0.0033531014 -0.13390695 0.17080306
0003f0 92 1e 92 bc da f0 ec bd 04 d8 0f be 12 e7 06 be
       -0.017836843 -0.11569376 -0.14047247 -0.13174084

lstm.lstm1.weight_hh_l0 f4 [256, 64]
000000 be 5f 6b 3b a7 e3 98 bd 77 c1 bd 3d 4e 8b 1e 3e
       0.003591522 -0.07465296 0.09265416 0.15482828
000010 42 b0 90 bd 1f 4f a5 3d 0a 9b f9 bd 4d 34 3f 3c
       -0.070648685 0.08071732 -0.121877745 0.011670184
000020 c2 d8 b7 bc 6c 28 ad bd e7 32 45 bd e0 a8 80 3d
       -0.022442225 -0.084549755 -0.048144247 0.0628221
000030 c0 28 0c 3e 44 b3 1a 3d c9 8b 2e 3d a8 a7 2d bd
       0.1368742 0.037768617 0.04261378 -0.042396218
000040 be 7e 58 3e 34 93 e4 bd f5 0e dc bc fb ff ae 3d
       0.21142098 -0.11160889 -0.0268626 0.08544918
000050 2a 98 12 3d 52 bb 97 3d 4a 72 5a 3d 41 2d 47 3d
       0.035789646 0.074087754 0.05333165 0.048627142
000060 05 7e 37 bc 19 14 6e bd 57 ca aa bd f1 98 97 bc
       -0.011199479 -0.058124635 -0.083393745 -0.018505545
000070 45 dc 29 3e 96 dc b1 3d bb e8 57 be ac 4a 50 be
       0.16587932 0.086846516 -0.21084873 -0.20340985
000080 51 fc 76 be 1a 42 e3 bd 66 a3 26 3e 89 3e 15 3e
       -0.24119689 -0.11096592 0.16273269 0.14574637
000090 20 50 83 bd b7 4a 6c 3e 30 23 26 3e ef 16 3e 3e
       -0.06411767 0.23075376 0.1622436 0.18563436
0000a0 96 a8 b8 bd 05 e9 44 3d 10 0f c6 3c f8 9b 82 bd
       -0.0901653 0.048073787 0.024177104 -0.06377405
0000b0 4c 50 8d 3d 2f a0 bd bc 3e 42 04 3d 88 73 68 3e
       0.06900081 -0.02314767 0.032289736 0.22700322
0000c0 0b a5 f5 3d ac 57 e0 3c f9 22 91 3a ca c3 68 3c
       0.1199437 0.027385555 0.0011073045 0.014206836
0000d0 44 34 6b 3e b3 f5 8f 3d 85 96 4e 3d 6b e1 9c 3d
       0.22969157 0.07029285 0.050436515 0.076601826
0000e0 c2 22 15 bd 07 09 1b 3c 26 8b bf 3d 2b 2c 11 be
       -0.0364101 0.0094626015 0.09352712 -0.14177005
0000f0 9f 90 14 bd c5 c0 a7 bc 63 d7 44 bc 44 4d dc 3d
       -0.036270734 -0.020477662 -0.012014243 0.10756925
000100 db 86 09 bd d6 9e f0 bd a9 6c 77 3e 04 02 4c 3e
       -0.033575874 -0.117490456 0.24162544 0.19922644
000110 a7 06 be bd 11 b4 8c 3d f2 50 4c bd 95 41 5f 3d
       -0.092786126 0.068702824 -0.049881883 0.054505903
000120 c4 35 aa 3d 39 7f c9 3d c9 c0 73 3c ef aa d2 3d
       0.08311036 0.09838719 0.0148775065 0.10286509
000130 6c 56 32 bd f8 a2 9c 3d 92 f9 8b bd 06 c2 ba 3d
       -0.04353945 0.07648271 -0.06834711 0.09119038
000140 e5 a1 1e 3e 26 d8 b9 bd 69 0e 9e bd 2a 00 e3 3d
       0.15491445 -0.0907443 -0.07717592 0.11084016
000150 23 9b 0c 3e 0a f2 b0 bd 35 b3 bf 3d 87 ac 8f 3d
       0.13731055 -0.08639915 0.09360353 0.07015329
000160 9d 23 c2 3c ae 84 2c 3d 66 c1 6d 3d 98 2b a4 bd
       0.023698622 0.04211872 0.058045767 -0.08016127
000170 09 f1 f4 3c fc f0 7a bd 17 b6 c5 bd 92 ee 04 be
       0.02990009 -0.061264977 -0.096538715 -0.12981632
000180 05 34 0e be 3e 22 09 be 9c e6 f2 bc c8 13 7f 3d
       -0.13887031 -0.13391969 -0.029650979 0.062274724
000190 75 63 b7 bd f4 84 65 bd 44 ee 50 3d 4f 3b 37 3e
       -0.08954517 -0.056034997 0.051008478 0.17893718
0001a0 ff ef 34 bc c8 aa 87 bc 46 48 d3 3c ac 0b e7 bd
       -0.011043548 -0.016560927 0.025791299 -0.11281523
0001b0 41 9c 85 3c 09 03 ac 3b 95 ed 91 3c f3 c0 42 3e
       0.01630986 0.0052493853 0.017813483 0.19018917
0001c0 f6 02 e2 3d 6c 0c 41 3d e5 72 89 bd 8b b8 36 3e
       0.11035721 0.047130987 -0.067113675 0.17843835
0001d0 10 8b 5a 3e 08 be 82 bd 5d 29 07 3d ec d1 c5 3d
       0.2134211 -0.06383902 0.03299843 0.0965918
0001e0 05 24 c7 3d a1 1f be 3d 8a 17 13 bd 35 ac b9 bc
       0.09723667 0.092833765 -0.03591112 -0.022665123
0001f0 45 4c e5 3d aa e2 83 bc ed 42 1f bd 7f 37 ec bb
       0.11196188 -0.016099293 -0.038882185 -0.007208764
000200 a8 27 7d 3c 59 3e 44 be c1 38 86 3d 97 fb 3c 3e
       0.015451349 -0.19164409 0.06553794 0.18455349
000210 4f 50 f7 bc d0 57 09 bc 75 36 88 bd 43 10 88 bd
       -0.030189661 -0.008382753 -0.06651012 -0.06643727
000220 d4 d7 ed bd 3f b0 e2 3d a2 10 cb bd fa fa 4d bd
       -0.116134316 0.110687725 -0.09915282 -0.050288178
000230 41 9e d7 3c 7d 12 24 3d 1e 99 3d be 71 cd 64 3e
       0.026320579 0.040056694 -0.18515441 0.22343995
000240 e4 a8 9d 3d 0f 88 b0 bd 14 03 12 be 61 bd 43 3d
       0.07698229 -0.08619701 -0.14258987 0.047788028
000250 70 bb 2e 3e e5 12 30 3e f7 7d 61 3e c0 d1 fd 3d
       0.17063689 0.17194708 0.22020708 0.12393522
000260 d1 b5 27 3d c2 da 23 be 5b a0 f1 bc 20 d5 05 3e
       0.040944878 -0.16001418 -0.029495409 0.13069582
000270 1e 4a 30 be 65 3e d5 bb f5 90 24 3d 05 e8 1b be
       -0.17215773 -0.006507682 0.040177304 -0.15225227
000280 59 64 ef 3d 57 1d 30 be 42 27 44 bd 15 76 ac 3c
       0.11689062 -0.17198692 -0.047889 0.0210524
000290 8c 3a 4b bd bf fe 25 3e 88 ce 15 3d 12 01 87 3d
       -0.04961638 0.16210459 0.036573917 0.06592001
0002a0 93 49 c9 3d a4 79 51 3e 3d 6e c4 3d 19 5c 36 be
       0.09828486 0.20456558 0.09591339 -0.1780857
0002b0 96 54 8f 3d 8c b4 32 3d 62 9f b7 3d 9a c2 a9 3d
       0.06998555 0.043629214 0.08965947 0.082890704
0002c0 42 0e 2f 3d 53 13 45 3d c4 57 03 bd 3d 56 a9 3d
       0.042738207 0.048114132 -0.03206612 0.08268402
0002d0 ac 1b 45 3a d0 ba c5 bd 26 ce be bd 1a dd e4 bd
       0.0007519077 -0.09654772 -0.093166634 -0.11174984
0002e0 a8 3a a5 be 36 60 19 3d 91 d9 57 3c d2 30 86 bd
       -0.32271314 0.03744527 0.0131744305 -0.065522805
0002f0 b4 15 a6 bd a9 b4 86 bb eb f9 c1 bd 69 7b 57 be
       -0.08109608 -0.004110892 -0.09471496 -0.21043171
000300 6f fd a9 bd 15 b3 3d 3d f3 d2 c7 3d 58 7d aa 3d
       -0.08300292 0.046313364 0.09757032 0.08324689
000310 9f 33 6d 3d 09 ea 08 be 7b 02 b1 bd 39 a4 00 3e
       0.057910558 -0.13370527 -0.08643051 0.12562646
000320 3b 0e 38 bd cb bd 99 bd cd 72 b9 3c a6 34 2b 3d
       -0.044935446 -0.07506903 0.02263775 0.041798256
000330 66 d6 d5 3d 0f 59 87 bd 9e 34 c1 bd 29 ac 08 3e
       0.10441284 -0.066087835 -0.09433864 0.13346924
000340 ca 1e 1f bd ce dd 71 bd 42 af 7d 3d 56 80 b4 3d
       -0.038847722 -0.05904942 0.061934717 0.08813541
000350 c3 6f bb bd 4d a9 e7 3c 8a 5b 04 3e 54 20 30 bd
       -0.09152176 0.028278971 0.12925544 -0.04299958
000360 cb 89 07 3e 4d 2e b8 bd 3e 2e 02 3e 46 4f 06 3d
       0.13236158 -0.08993206 0.12712952 0.032790445
000370 12 36 28 3e 2b 5b 9d bd dd 3c 0b 3d d6 7b af bd
       0.16426876 -0.076834045 0.03399359 -0.08568542
000380 1e 7a dc 3d 70 b9 0f be 2c ef 99 3d 1d dd 9f bd
       0.107654795 -0.14035583 0.075163215 -0.07805846
000390 9c 15 27 bd a4 d9 b1 bd 9d 70 a7 3d c9 3c 29 3d
       -0.040792093 -0.0868409 0.08175776 0.041317735
0003a0 dd 4e e0 3c c6 23 1a bd d5 e9 fc 3d f2 d3 e5 3d
       0.027381355 -0.037631772 0.123492874 0.11222066
0003b0 46 bd e1 3d 86 7d 89 bd 8d 5c 24 bd 9c 5c e1 bd
       0.11022429 -0.06713395 -0.040127326 -0.11003992
0003c0 18 49 d8 3d da 72 e1 3c 12 6f 1b be ca 9a 9b bd
       0.105608165 0.027520586 -0.15179089 -0.07597883
0003d0 01 58 b1 3d 10 92 17 3d b7 b6 7f bd b8 c6 fa 3c
       0.086593635 0.03700453 -0.06243011 0.030612335
0003e0 ed 17 fd bc 93 e6 02 be f5 94 b3 3d eb 67 84 bd
       -0.030895198 -0.1278327 0.08768646 -0.06465133
0003f0 de bf a8 bd 4e 8f ce 3d 7c cf 40 be 03 33 56 3d
       -0.08239721 0.10085927 -0.18829149 0.052294742

lstm.lstm1.bias_ih_l0 f4 [256]
000000 59 b2 c6 bd 06 db ba bd b4 55 a5 bd 44 41 17 3e
       -0.09701986 -0.09123807 -0.08072987 0.1477099
000010 c5 59 8b 3e 58 1b 68 3c dc e5 a2 3d 5a 50 a0 3d
       0.27216926 0.0141666755 0.079539984 0.07827826
000020 9d d9 a1 3d 1f 33 38 3b e7 d9 5d bd f3 79 09 3e
       0.079028346 0.0028106642 -0.054162886 0.13425426
000030 10 b4 88 bd 82 e4 23 bd 13 6b f0 3d ee f8 5c 3d
       -0.06674969 -0.040012844 0.11739173 0.053948335
000040 39 41 46 bb eb 96 f4 bd cb 56 af bd 52 a0 56 bb
       -0.0030251278 -0.11942848 -0.08561476 -0.0032749367
000050 f6 00 37 3b 4e f5 ed bd 2d 10 2d bd 95 61 d3 bb
       0.0027924157 -0.11619054 -0.042251755 -0.0064508417
000060 40 ad 97 3d 29 ac cf 3d 32 04 be 3d 85 2f 11 3e
       0.07406092 0.10140259 0.09278144 0.14178284
000070 ab 39 1e bd 19 d9 86 bd db c1 4c 3c d3 c9 f0 bd
       -0.038629215 -0.06584377 0.012497391 -0.11757245
000080 33 a6 08 3d 43 5c 7f bd e4 58 20 3e 2a 0b fb 3d
       0.033361625 -0.062343847 0.15658909 0.12257989
000090 de b1 e5 3b aa 1c 21 bd de a8 72 bc 66 1d 79 3d
       0.007009729 -0.039333977 -0.014810769 0.060819052
0000a0 5f e4 2c be 1d f0 a0 bd 4a 7a 3c be ce da 32 be
       -0.16883992 -0.07858298 -0.18406025 -0.1746628
0000b0 5b 5e cb 3d 5b a8 ce bd 33 f5 e9 bd 33 a1 51 bd
       0.09930106 -0.10090705 -0.11423721 -0.051179122
0000c0 ce 0e 5d be 0b ba 0a 3d 08 84 e3 bd 6b bd 2e 3c
       -0.21587679 0.03386883 -0.11109167 0.010665278
0000d0 b1 d0 01 3e fa 71 91 bb 89 64 8e bd a0 e5 a8 bd
       0.12677266 -0.004438636 -0.06952769 -0.082469225
0000e0 85 50 60 bc 95 4b e9 ba 17 75 80 b8 90 91 34 bd
       -0.013691072 -0.0017799014 -6.125325e-05 -0.04408413
0000f0 37 d4 04 be 00 00 ff bd 12 76 a0 3d 61 d0 9a ba
       -0.12971579 -0.12451172 0.0783502 -0.0011811369
000100 53 6c 66 be 1a 1c 11 bd 85 c7 1e be 57 be c7 bd
       -0.2250226 -0.03542719 -0.15505798 -0.09753101
000110 5a 49 3a 3e 3f 32 dc bd ad 63 2d bd e1 8e c4 bd
       0.18192044 -0.10751771 -0.042331386 -0.095975645
000120 a8 94 16 bb 79 3d af bd a6 0c 1a be 0b 68 2b be
       -0.002297679 -0.08556647 -0.15043887 -0.16738908
000130 4e 8c 10 3d 4d b3 30 3d cc 50 d2 bd 67 eb e5 bd
       0.035290055 0.043139745 -0.10269317 -0.1122654
000140 81 ca c8 bd d6 04 34 be d6 ba 26 bd 5f 2a ce bd
       -0.098042496 -0.1757997 -0.040705524 -0.100666754
000150 8f fa 06 be 1a 66 01 be d4 e8 3d 3d 6a 12 30 be
       -0.13181518 -0.12636605 0.04636462 -0.17194524
000160 d3 32 ae 3c 1d 14 89 bd bd 9b 5d bd 45 70 77 be
       0.02126447 -0.066932894 -0.0541036 -0.24163921
000170 dc 20 13 be ca 1d 02 be ee 6c 4e bc a7 09 00 be
       -0.14368004 -0.12706676 -0.012599213 -0.12503682
000180 32 38 24 be a0 c6 42 be cb 3f 68 be 63 6a 16 bd
       -0.16037062 -0.19021082 -0.22680585 -0.036722552
000190 cc 2d b6 bd 5d bb 28 bd 8f 15 50 be 57 3a 2e bd
       -0.08895454 -0.04119431 -0.20320724 -0.042536106
0001a0 e3 f0 43 be 73 b2 eb bc cd 92 55 bd d5 c5 61 bd
       -0.1913486 -0.028771615 -0.052141953 -0.055120308
0001b0 8a 9e 39 be cf 71 d8 bc 74 ec bf 3d 5d fb b3 3c
       -0.18126884 -0.026421456 0.09371272 0.021970445
0001c0 6e 45 19 be 61 68 4f be 3a 2a 30 be 76 ad 3e 3d
       -0.14967892 -0.20254661 -0.17203608 0.046552144
0001d0 df 89 c9 bd 45 5d 32 bd 92 da 06 be a8 09 4b be
       -0.0984075 -0.04354598 -0.13169315 -0.19827902
0001e0 8e f1 f3 3d 72 40 af 3d a5 9f 08 b9 de fe 44 be
       0.11911307 0.08557214 -0.00013029443 -0.19237849
0001f0 1c 80 5e bd cc f9 2c be 58 98 1d be 72 e8 c2 bd
       -0.054321393 -0.16892165 -0.15390146 -0.09516992
000200 81 5d 51 bb 7c 77 84 3c 2c f0 43 bd e9 e8 3e 3d
       -0.0031946602 0.016170256 -0.047836468 0.04660884
000210 b0 fc 16 3e 99 b7 cc bd 6f ed 6c 3d cd 17 5a 3d
       0.1474483 -0.09995956 0.05784362 0.053245354
000220 e9 83 93 bd f8 26 98 3d 27 e2 65 3d 5e 88 a4 3d
       -0.07202894 0.07429308 0.05612388 0.080338225
000230 02 07 ad 3d 4d 9d 07 bd 0f 79 32 bd 25 08 a1 3d
       0.08448602 -0.033108998 -0.04357248 0.078628816
000240 d1 f3 4c bd c9 f0 ac 3d f1 0e e1 3d 60 fb f7 3c
       -0.05003721 0.084443636 0.10989178 0.030271232
000250 72 57 0a bd a4 05 d8 bd 59 6f 85 bd 2d 12 91 bd
       -0.0337748 -0.10547951 -0.065153785 -0.07083545
000260 6c df 9a 3d bd bd d7 bd 38 e5 15 3e 14 7e 0e be
       0.075621456 -0.105342366 0.14638221 -0.13915282
000270 7e 29 0b 3e 2f 1a 5c bd bf 4f 5d bd 84 af 97 bd
       0.13590047 -0.053735908 -0.05403113 -0.07406524
000280 2f 18 f6 38 18 b1 14 be 25 6e b5 3c a2 ef d5 bd
       0.00011734699 -0.14520681 0.022147248 -0.10446097
000290 b1 62 19 bd 9a 5d a0 bc 68 6c 9d 3d 5c cb bf bc
       -0.037447635 -0.019575883 0.076866925 -0.023412399
0002a0 11 89 9b bd fd 6d 0b be dd 6b 1c 3d 73 ba cf 3d
       -0.07594503 -0.13616176 0.038188804 0.10142984
0002b0 66 dc b5 bd dc 32 ef bc b0 ea 9b bd ab 1e 48 3d
       -0.08879928 -0.029199056 -0.076131225 0.048857372
0002c0 4c 3b 69 3c 24 1b 38 bc f3 27 25 bd cb 06 0c be
       0.014235329 -0.01123694 -0.0403213 -0.13674466
0002d0 f4 1c d2 3d bb a1 90 bd 7f 74 88 bc 5d a4 f5 bc
       0.102594286 -0.07062098 -0.016657112 -0.029985601
0002e0 e5 6a 82 3d ae 97 ab bd 4c 45 57 bd dc e5 c2 bc
       0.06368045 -0.0837854 -0.05255632 -0.023791246
0002f0 0d 1f 00 3c b1 34 88 bd ec 9d 3d bd cd 2a 31 3d
       0.007819903 -0.06650675 -0.046293184 0.04325371
000300 c7 16 a8 bd 85 82 07 3d d8 ce 46 3d f5 33 28 3b
       -0.082074694 0.033083457 0.048537105 0.0025665734
000310 ad ab ca 3d 56 b8 a7 bd e4 60 84 3d 26 d0 43 bd
       0.09896026 -0.08189456 0.06463793 -0.047805928
000320 d6 eb 00 bc d6 d5 86 3d e8 4e 86 3d dc 0d be 3d
       -0.007868728 0.06583755 0.06558019 0.09279987
000330 b5 02 d2 bd 51 4a 03 bd ca 4d eb 3c 94 57 04 bd
       -0.102544226 -0.032053296 0.028723616 -0.032310084
000340 5a 64 11 be 31 bf 0e be 10 14 06 be 06 f8 d7 bd
       -0.14198437 -0.13940121 -0.1309359 -0.105453536
000350 f2 e4 e6 3b 9b 5c 58 be 2a 74 29 bd 7c 46 1d 3d
       0.0070463354 -0.21129076 -0.04137055 0.038397297
000360 b8 00 0c 3e 7c f2 f6 3c 52 8d 15 bd 2a ba a6 3a
       0.13672149 0.030144922 -0.036511727 0.0012720276
000370 29 20 63 bc 63 e4 a7 3d dd 39 12 be ae 58 2b 3c
       -0.013862648 0.08197858 -0.14279886 0.010458155
000380 ae 96 2a bd 64 6b a9 3d ea 51 79 3d 09 16 06 3e
       -0.041647606 0.08272436 0.060869135 0.13094343
000390 d0 f5 07 3e 8b 1d b0 3d 00 52 a7 3c 50 28 1d 3d
       0.13277364 0.08599385 0.020424843 0.038368523
0003a0 78 2e fc bd 2d 2c 2d bb d3 18 09 bd c6 2d 6b 3d
       -0.12313551 -0.0026424036 -0.03347094 0.0574167
0003b0 64 af 60 bc d1 75 a9 bd c0 e6 59 bc f0 c1 05 3d
       -0.013713691 -0.08274425 -0.013299644 0.032655656
0003c0 8f e2 4a be 62 b5 25 3d 52 e5 2d be a0 60 15 be
       -0.19812988 0.040456183 -0.1698201 -0.14587641
0003d0 2f 93 f4 bc 17 3b 10 3d f9 9b 90 3d 1e ae 53 be
       -0.029855339 0.035212602 0.070609994 -0.20671889
0003e0 5e 46 c1 3d b2 e4 cb bd 29 90 b9 bb 4b ea a3 bd
       0.094372496 -0.099557295 -0.005662937 -0.08003672
0003f0 43 a2 cb bc 14 2f 7e bd ad b1 03 bd fe 60 eb 3d
       -0.024857646 -0.062056616 -0.032151867 0.11493109

lstm.lstm1.bias_hh_l0 f4 [256]
000000 e0 4d ca bc 48 d0 c5 3d b1 1c 02 be 5d a1 c2 3b
       -0.024695337 0.09658867 -0.12706257 0.005939646
000010 00 0a fe 3d 29 68 e9 bd bb a8 7f bd ec ea 8e bd
       0.12404251 -0.1139682 -0.062416773 -0.069784015
000020 5e e5 43 bd 77 a9 3e bb 27 47 84 bc 99 83 64 3d
       -0.047826163 -0.0029092708 -0.01614721 0.055789564
000030 85 e5 5d 3d a4 59 c8 3c e8 04 a1 bc 53 6e 79 3d
       0.054173965 0.024456806 -0.01965566 0.06089623
000040 5b bd 70 bd 85 ba d8 bd bc c4 15 be b9 1b 43 bd
       -0.058774333 -0.10582451 -0.1462583 -0.04763386
000050 22 8b 65 3c 42 fc 05 be dd b1 08 be f9 36 b1 bd
       0.014010223 -0.1308451 -0.133491 -0.08653063
000060 c8 13 cd 3c 38 c1 b3 bc 55 d6 dd bd 97 bf 0e 3c
       0.025033846 -0.02194272 -0.10831896 0.008712671
000070 e3 f1 57 bd 15 a9 62 3d 8c 94 4a 3d 22 c1 b7 bd
       -0.052720916 0.05533703 0.04945807 -0.08972384
000080 7a f7 79 3d 05 51 a3 3c 4c 32 37 3d 9d 84 88 bc
       0.061027028 0.019936094 0.0447257 -0.016664797
000090 73 c4 10 bd 9b 5b 9c bc b2 b3 49 3d 91 cf 9c bd
       -0.0353436 -0.01908665 0.049243636 -0.07656778
0000a0 02 4c 89 bd 99 61 19 bc cf 2e 33 be 97 13 e9 3c
       -0.067039505 -0.009361648 -0.17498325 0.028451724
0000b0 7e fe e1 bd c3 e8 de 3c b4 b4 b1 bd ca 5c b1 bd
       -0.11034869 0.027210599 -0.086770445 -0.08660276
0000c0 aa 60 b7 3a c4 6c d5 bd ba 03 ae bc d0 23 b2 3c
       0.00139906 -0.10421136 -0.021242011 0.021745592
0000d0 dd 4d 1f 3e b8 d6 ca 3d 58 f9 18 be ec a6 44 be
       0.15557046 0.099042356 -0.14938867 -0.192043
0000e0 b4 1e 64 3b 42 a8 1a be 3c de ad bd 04 26 47 be
       0.003480834 -0.15103248 -0.084896535 -0.19448096
0000f0 8e c0 e6 bc 0c c8 2f bc e0 84 d0 3d 51 52 87 bd
       -0.02816799 -0.010728847 0.10181594 -0.066074975
000100 c4 73 b3 bd fa c8 51 be 7c cf fd 3b be 34 e3 3c
       -0.08762315 -0.20486823 0.0077456813 0.02773511
000110 ff 71 1c 3e f9 24 11 3d cd d4 14 bd 39 5e e9 bd
       0.15277861 0.03543565 -0.036335755 -0.11394925
000120 fb 8a 00 3e cf 7c 0c be 9c 1a a7 3d 70 79 2b 3c
       0.12553017 -0.13719486 0.08159372 0.010465965
000130 96 dd 3e be 35 19 86 3d 79 e4 22 be ac 95 4a bd
       -0.18639216 0.065477766 -0.15907468 -0.049459144
000140 27 ea 40 be 98 8a f1 3c 42 ee e9 bd c4 2c 2f 3d
       -0.18839322 0.029485032 -0.11422397 0.0427673
000150 aa 14 9b bd 79 86 1a be f2 98 18 be 3d 0f c0 bd
       -0.07572301 -0.1509036 -0.14902094 -0.093779065
000160 e1 28 b9 3c 19 c8 fb bd 02 6f a1 3d ad 37 88 be
       0.0226025 -0.12294025 0.07882501 -0.26604977
000170 04 85 d1 bd f1 6d 15 be fd 1e 64 bd 61 37 a0 bd
       -0.10230449 -0.1459272 -0.055693615 -0.07823063
000180 69 ae d3 bd 6b 4d 8f bd 3e 51 03 be e5 e0 e6 ba
       -0.103360005 -0.06997188 -0.1282396 -0.0017614631
000190 01 b0 24 be 6a 7a f8 bd 0a 61 ff bc ab fb 10 be
       -0.16082765 -0.12132724 -0.031174202 -0.14158504
0001a0 61 f0 42 be 02 a6 94 bc a3 17 02 3c e8 2b 50 bd
       -0.1903701 -0.018145565 0.007940206 -0.050823122
0001b0 fd 2f a7 bd 25 56 f3 bb 24 d7 09 3d 29 25 c8 3d
       -0.0816345 -0.0074260407 0.03365244 0.09772713
0001c0 90 75 29 bd 58 9a 8a bd 67 b3 de bb 25 04 6a bd
       -0.041371882 -0.0676772 -0.006796289 -0.05713286
0001d0 2e f9 38 be 45 2c 7f 3c 69 f0 70 3d a3 d8 db ba
       -0.18063805 0.0155745195 0.058823023 -0.0016772937
0001e0 2d ea f4 3d 44 0e ac bd e4 df fd bd c8 c7 79 be
       0.11958728 -0.084011585 -0.123962194 -0.24392617
0001f0 91 3c 8b 3d 12 cd 2b be e9 72 e9 3c 79 c2 e1 bd
       0.067986615 -0.16777447 0.028497176 -0.11023421
000200 6a 25 9f bc 16 ee 87 bc 90 6a 9e bd a1 5a a2 3c
       -0.01942702 -0.01659302 -0.07735169 0.019818606
000210 a5 92 9f bd 07 0c b6 3d a9 4a 91 3d b0 ad c0 bd
       -0.07791642 0.08889013 0.070943184 -0.09408128
000220 8d bf 21 3e 85 b1 a4 3d 08 40 9c 3d 39 45 0a bd
       0.15795727 0.08041672 0.076294005 -0.033757422
000230 56 fb 01 be fa 3e a3 bd d8 10 b2 bd 8e fc 12 3d
       -0.12693533 -0.07970996 -0.08694619 0.035885386
000240 a1 7d d3 bc d2 3b 2f bd d7 e9 04 3d 69 d9 2d be
       -0.02581674 -0.04278166 0.03244957 -0.16977467
000250 c6 dd fa 3d de 6f cd bd 9b a9 c8 bd 87 5c 37 3e
       0.12249331 -0.100311026 -0.09797975 0.1790639
000260 bc 12 29 3e 00 f7 ec bc 00 32 c0 3d 43 e0 45 3d
       0.16511053 -0.028926373 0.09384537 0.048309576
000270 2d b5 66 bd ae 41 34 3d 3f fe bc 3d c3 8a c0 3d
       -0.056325126 0.04400795 0.09228181 0.09401467
000280 6c d2 2a bd 4c 57 cd 3c f4 a6 6f bd 08 77 7d bc
       -0.04170458 0.02506604 -0.05850883 -0.015470274
000290 6d ec 40 3d 2d 46 f3 3d f7 35 85 3c 79 14 b3 3d
       0.047100473 0.11878619 0.016261084 0.08744139
0002a0 99 56 c5 3d 52 e7 8d 3c ae 62 64 bd 46 af 1f 3d
       0.09635658 0.017322216 -0.05575817 0.038985513
0002b0 c5 14 9c 3d cf 71 55 bd 45 bb c5 bd 6b ab cb 3b
       0.07621149 -0.05211049 -0.096548595 0.006215503
0002c0 78 6e 82 3c 98 aa 02 3d ad 22 1c 3d ed ab 4f 3c
       0.015921816 0.031900972 0.038119007 0.012675268
0002d0 d3 57 0f bd 3d 91 c0 3d 5f 4c 24 be da fa 2e bd
       -0.034995865 0.09402702 -0.16044758 -0.0427197
0002e0 d8 a5 91 3d e8 c2 46 bc 97 98 c8 bc a8 f0 18 3d
       0.0711171 -0.01213143 -0.024486823 0.037338883
0002f0 6b 19 83 3c ff 82 8a 3d d7 59 dd bd 03 2e 92 3d
       0.016003331 0.06763267 -0.10808151 0.07137682
000300 b4 1e 04 3c 33 47 06 be 04 62 b5 3d 21 8f 05 3e
       0.008063961 -0.13113098 0.088565856 0.1304288
000310 76 c8 d5 3d e8 19 e4 bd e9 a2 c3 bd a2 df ab 3d
       0.104386255 -0.11137754 -0.09552557 0.08392264
000320 54 9b 8f 3d 7d 45 ac 3c d5 f8 d7 bc 05 02 d9 3d
       0.07012048 0.021029228 -0.02636377 0.10596088
000330 0c fc 89 bd 45 b0 fe 3c 98 9f 6e 3d 79 0b 02 be
       -0.06737527 0.031089911 0.05825767 -0.12699689
000340 27 f8 e0 bd 5f 34 1d 3c 57 bb 13 3c f0 f1 82 bd
       -0.10984831 0.009595006 0.009016833 -0.06393802
000350 6d 47 19 bd b8 63 cb bb 77 f9 6d 3c ac 80 4b 3d
       -0.037421633 -0.0062069558 0.014524809 0.049683258
000360 57 92 a5 3d e0 ce 2c 3e 69 a1 e2 3c 73 8b ed 3c
       0.08084553 0.16875792 0.027664857 0.028997159
000370 ef ac 3c 3e 09 e3 be bd 9d ce 35 bd 41 c1 48 bc
       0.18425344 -0.09320647 -0.044386495 -0.012253107
000380 32 68 f4 bd 51 9b 90 bd e5 cc 34 bd 65 e0 09 3e
       -0.11933936 -0.07060874 -0.044140715 0.13464506
000390 f7 1f ed bc cf cb 7f bd ae 8b 9c bc f7 77 3b 3d
       -0.028945906 -0.062450226 -0.019109573 0.045768704
0003a0 af 7a 0d be 53 c8 89 3d 49 04 74 3a 30 a8 fe 3c
       -0.13816331 0.06727662 0.00093085 0.031086057
0003b0 1c ef af bc 25 e7 aa 3d 9f 0d 53 3d 98 6f c6 bd
       -0.02147632 0.083448686 0.051526662 -0.096892536
0003c0 d5 ef 67 bd 82 13 53 bd 6d 81 1e be a2 b3 0f 3d
       -0.056625206 -0.051532276 -0.1547906 0.03508342
0003d0 e8 d7 27 3d ad c3 a6 3d 34 15 9b bd 21 87 d5 bc
       0.04097739 0.08142791 -0.075724036 -0.026065411
0003e0 32 bb ad bd de b1 ae 3d 1f 67 56 bd 77 ea 4c be
       -0.0848297 0.08530019 -0.052344438 -0.20011316
0003f0 3f 0a 58 bb 7c 02 f7 bd 7d a3 4b bd 49 bb bf 3d
       -0.0032965092 -0.12061021 -0.04971646 0.09361894

lstm.bn1.weight f4 [7]
000000 ca 1d 82 3f fc 05 8b 3f f8 89 81 3f f3 2f 84 3f
       1.0165341 1.0861201 1.012023 1.0327133
000010 97 a3 85 3f 8e 17 89 3f 2f a9 8e 3f
       1.0440549 1.0710313 1.1145381

lstm.bn1.bias f4 [7]
000000 ad 56 58 3d 4c 50 c8 3c 86 a4 c8 3c 93 8c 41 3d
       0.052817035 0.024452351 0.024492513 0.047253203
000010 e0 17 0c 3c 4d 84 dd 3b b1 ed 7b 3c
       0.008550614 0.0067601562 0.015376494

lstm.bn1.running_mean f4 [7]
000000 95 1e 84 b9 18 f3 b2 3a a3 1d 57 3b 44 42 9a 3b
       -0.00025199787 0.001365277 0.0032824061 0.0047076065
000010 1a 58 b7 3b 08 0b c9 3b 0f 5d d4 3b
       0.0055952193 0.006135348 0.00648082

lstm.bn1.running_var f4 [7]
000000 06 03 e5 3a 35 d5 64 3b 76 81 97 3b 60 25 ae 3b
       0.0017472215 0.003491712 0.0046235872 0.005314514
000010 42 16 bc 3b 3c e8 c4 3b a6 96 ca 3b
       0.005739958 0.00600913 0.0061825095

lstm.lstm2.weight_ih_l0 f4 [256, 64]
000000 85 59 37 3e 6c ed 8b 3e 21 6a cf bd bf 57 96 be
       0.17905243 0.27329576 -0.10127664 -0.2936382
000010 9a 54 0e 3e 4e 16 e5 3d fb cf 13 3e f2 32 06 3e
       0.1389946 0.11185895 0.14434807 0.13105372
000020 32 55 40 3e c2 f0 b4 3c a0 2d 00 3e 71 41 5c 3c
       0.187825 0.022087459 0.12517405 0.013443337
000030 53 95 bb bd 0a bc 91 bd 35 d5 9e bd df a0 ad bd
       -0.09159341 -0.07115944 -0.0775551 -0.08477949
000040 23 16 fe bd 4b e5 6f 3e 25 11 98 3e e7 aa 61 be
       -0.12406566 0.23427312 0.2970058 -0.2203785
000050 61 f7 75 bc a6 7e 9b bd d3 f6 e8 bd 5b 05 59 be
       -0.015012593 -0.07592516 -0.11375203 -0.21193449
000060 59 36 d5 3c 19 f2 ab bd 89 f7 24 3e a1 d5 40 3e
       0.026026892 -0.08395786 0.16110052 0.18831493
000070 a8 ce 83 3d b8 e2 74 3d 09 cd 64 3e cd fd 11 bd
       0.06435901 0.05978653 0.2234384 -0.035642434
000080 97 9d 08 bd 7a 37 b2 bd 6f 6b 06 bc 8f 31 34 3e
       -0.033353414 -0.087019876 -0.008204325 0.1759703
000090 79 4e 5b 3e f6 f8 5f bd 53 f7 2f be 7b 71 31 bd
       0.21416654 -0.054680787 -0.1718419 -0.043321114
0000a0 a2 b1 0a 3d c9 1b 0e be 6c eb fa 3d 91 2c 2e 3e
       0.03386081 -0.13877787 0.122519344 0.17009188
0000b0 2d 2e a9 bd b0 6b 6d bc 4a 30 1d be 65 c2 b7 bd
       -0.082607605 -0.014491007 -0.15350452 -0.08972625
0000c0 0c 1b fc bb 97 0f f2 3c 64 03 9f 3d 8a d5 cf bd
       -0.007693654 0.02954845 0.077643186 -0.10148151
0000d0 fc 8e 08 be 58 95 31 3d 0e 85 b7 bd 9e 11 3e bd
       -0.13335794 0.043355316 -0.08960925 -0.04640352
0000e0 2b d1 5f 3e e8 45 de 3c 92 20 27 be e6 fc 01 3e
       0.21857135 0.027132943 -0.16321018 0.1269413
0000f0 85 b9 ef 3d e9 ff ca bb fe 67 7a 3d b5 53 21 3e
       0.11705307 -0.0061950576 0.06113433 0.15754588
000100 9a d2 84 bd e1 16 a5 bc 95 74 61 bc d1 8f e2 3c
       -0.064854816 -0.020152511 -0.0137607055 0.027656468
000110 ec 10 f4 bd a3 43 24 3d 7f c9 1f be d4 29 87 3d
       -0.1191729 0.040103566 -0.15604208 0.06599775
000120 39 c3 21 bd 25 68 3d 3e 5c 8d 80 bd 69 33 1e 3e
       -0.03949282 0.18496759 -0.06276962 0.15449299
000130 a6 c3 3e be 4a 1b 3f 3d 0e 95 f7 bd 8a ec d2 3c
       -0.18629321 0.046656884 -0.12088977 0.025747556
000140 59 22 17 bc cc d5 4c 3d ae 56 61 bd 7f 82 05 3e
       -0.009224498 0.05000858 -0.055014305 0.13038062
000150 6a 20 2f 3e ed 24 75 bd de 42 af 3d 9f 6c a5 3d
       0.17102209 -0.05984967 0.08557676 0.080773585
000160 e5 ef 07 3e 54 3a 8f be d6 84 2f 3d e1 08 19 be
       0.13275106 -0.27974188 0.04285129 -0.14944793
000170 aa be 9a 3d d9 67 11 be 47 d6 51 bd 61 8f 58 bd
       0.075558975 -0.14199771 -0.05122974 -0.05287111
000180 fd 83 90 3d 9c 88 a7 bc ea db 97 3d c9 f1 b4 3d
       0.07056425 -0.020450883 0.07414992 0.08835179
000190 14 64 a5 bd 10 81 9e 3d 7a 29 1a 3e d3 5a dc 3d
       -0.08075729 0.077394605 0.15054885 0.10759511
0001a0 f5 e6 c9 3d 05 d6 86 bd 6c ec c0 3d ec 49 11 bd
       0.09858505 -0.0658379 0.09420094 -0.035470888
0001b0 32 69 8d bd 2e 76 f7 bd 8d 1c 84 3c a6 5d a4 bd
       -0.0690483 -0.12083088 0.016126895 -0.080256745
0001c0 6b 03 dc 3d aa c2 69 bd 06 5f 10 be 68 0c 7d bd
       0.107428394 -0.05707041 -0.14098749 -0.06177941
0001d0 c6 3c f9 3c ef e9 b9 bc 0d 98 0e be b5 94 f0 bd
       0.030424487 -0.022694556 -0.1392519 -0.117471136
0001e0 87 49 d6 bd 30 62 21 be 5f 2f fd bd 89 97 33 3c
       -0.10463243 -0.15760112 -0.12362551 0.010961422
0001f0 e4 c2 69 bd bd f9 1e 3d 95 6d 4b be 5f fc cf bd
       -0.057070628 0.038812388 -0.19866021 -0.10155558
000200 ac 4c 76 bd 05 ea 07 3e e1 04 18 bd 70 83 b6 bc
       -0.060131714 0.13272865 -0.037114028 -0.022279471
000210 7d b0 01 3e f5 3b 94 bd 4c ba c2 3d cb df 52 3c
       0.12664981 -0.072379984 0.095081896 0.012870739
000220 d1 34 aa 3d d5 d3 b8 bd 10 9a 76 3d 25 e0 a9 bd
       0.08310855 -0.09024779 0.06020552 -0.08294705
000230 84 70 e6 ba 89 c3 01 3e a4 6b 82 3d 6e aa 2b 3e
       -0.001758114 0.12672247 0.06368187 0.16764233
000240 1c 4f 28 be 25 2c 26 3e 61 4f 0d 3d 3f 96 c5 bd
       -0.16436428 0.16227777 0.03449953 -0.09647798
000250 ce 99 0e be c6 2f b9 bd d3 00 62 bd 05 48 9f bc
       -0.1392586 -0.09042315 -0.055176567 -0.019443521
000260 87 8d af 3d 10 09 44 bd 9c 19 7e bc fe 03 7d 3d
       0.08571916 -0.047860205 -0.015509035 0.061771385
000270 bd 42 24 be d0 f0 3b be 52 33 36 3e 71 5a 07 3e
       -0.16041084 -0.18353581 0.17793015 0.13218094
000280 14 ab 2b bc 0c a3 6b 3d 74 4a 84 3c a3 df 0b 3c
       -0.0104778 0.05752854 0.016148783 0.008537206
000290 e9 17 3e 3b 56 65 56 3b 58 bc ba 3c 61 ab e8 bc
       0.002900595 0.003271421 0.022794887 -0.028402032
0002a0 67 d3 84 3d 85 bc b3 3c 72 c7 e1 3b 4b 2d d5 3d
       0.06485634 0.021940479 0.006890231 0.104090296
0002b0 62 bd b6 bc 6e 67 a9 3d a4 be 9f bd 4d 91 da bc
       -0.022307102 0.08271681 -0.07800034 -0.026680613
0002c0 c5 c8 20 bd 17 72 55 bd 4b 3a 08 3e ac 0e b3 3c
       -0.03925397 -0.052110758 0.13303487 0.021857582
0002d0 24 a7 81 3d 8f 5a a4 3d 2f b1 02 be ac 57 c9 3d
       0.06330708 0.08025085 -0.12762903 0.09831175
0002e0 f9 36 2c be da 63 d5 bd a4 52 2b bd fc ce f9 3d
       -0.16817845 -0.10419436 -0.04182686 0.12197682
0002f0 00 a5 ed 3d c5 4f 97 bd 15 80 ee bd 68 69 64 3d
       0.11603737 -0.07388262 -0.116455235 0.055764586
000300 ba 37 88 3d b2 3a 58 3d 31 41 bf bc 85 c0 80 bd
       0.06651254 0.05279035 -0.023346515 -0.0628672
000310 3c a2 e2 3d c7 fe 80 3d cf 37 2e be 5f e7 10 3d
       0.110661 0.06298595 -0.17013477 0.035376903
000320 22 5a f6 bd 86 09 49 3e fb 5e 32 bd 13 c6 4b 3e
       -0.1202891 0.19632539 -0.04354761 0.19899778
000330 58 2a 14 be 94 6e 13 3e cc 85 83 bd 0c 85 03 bc
       -0.14469278 0.14397651 -0.06422004 -0.008027326
000340 75 7f dd 3a 98 99 a1 3d 9f 76 25 3d fd 8a 7a 3c
       0.0016898947 0.07890624 0.04039633 0.015291926
000350 de b6 b7 bd 7f a3 e2 3d 54 56 c1 3c eb 88 e5 bd
       -0.08970426 0.11066341 0.023600735 -0.11207756
000360 b1 0e 2a 3e 79 9c a0 bd 7a 6b 9e bb f3 2c f4 bd
       0.16607167 -0.07842345 -0.0048345895 -0.11922636
000370 08 68 ff 3d fb 71 80 3c 2e a8 d8 3d ff c3 2a bd
       0.12471014 0.01567935 0.10578953 -0.041690823
000380 9a 79 10 3e 16 61 3a 3b f7 75 00 bd 29 99 9b bd
       0.14108887 0.0028439215 -0.0313625 -0.07597572
000390 7c 85 c1 bd c9 90 81 bd 59 b5 64 3e b3 ae 96 bd
       -0.09449288 -0.06326444 0.22334804 -0.0735754
0003a0 c1 e2 07 bd 3b 00 76 bd 4b e0 97 bd 35 73 db 3c
       -0.033175234 -0.060058814 -0.07415827 0.026788333
0003b0 9d f0 7b 3d 4b 3a c0 3c d0 ce 87 bd df 44 ed bc
       0.061508764 0.023465296 -0.06631243 -0.028963504
0003c0 00 4f 23 3e 57 d2 18 be 2c 20 a5 3d d2 1b 9d bd
       0.15948105 -0.14923988 0.08062777 -0.07671322
0003d0 b4 11 b3 bd 55 71 1b 3e e0 7d 9b bd d2 89 0f bd
       -0.08743611 0.15179951 -0.07592368 -0.035043545
0003e0 10 19 b6 bd da 16 06 be ff 80 d5 3c ce 27 47 bd
       -0.08891499 -0.13094655 0.026062487 -0.048621945
0003f0 8d 3f a8 bd a8 ee 0b be 86 ed d2 bd 0e e6 43 3d
       -0.08215246 -0.13665259 -0.1029921 0.04782682

lstm.lstm2.weight_hh_l0 f4 [256, 64]
000000 1c 6d f7 bb 10 09 8e 3d 29 ea 0b 3d d0 fb a7 3d
       -0.0075508486 0.06935322 0.03415886 0.08202326
000010 1f 50 ad bb 56 98 b2 3c a2 02 61 3c 5c c0 c1 3d
       -0.005289092 0.021801155 0.013733538 0.09460518
000020 71 75 9e bc e4 39 f6 3c 4e 67 35 3c 16 e6 11 3e
       -0.01934311 0.030056901 0.011071993 0.14247927
000030 52 83 e1 bc 6d 2e 9a 3d b4 87 3f bd 6a 66 56 3e
       -0.027528439 0.07528386 -0.046760276 0.20937505
000040 8d 01 18 be 69 7f 16 3e 9e 22 44 3b d3 b7 2a be
       -0.14844342 0.1469704 0.002992786 -0.16671686
000050 e2 31 6a 3c f1 59 3a 3e 09 55 18 be b5 b5 d0 bd
       0.01429412 0.18198372 -0.14876188 -0.10190908
000060 c4 dc cb 3c f5 a9 1d 3e 19 dc 6b 3d 02 7f 73 bb
       0.024885543 0.15396865 0.05758295 -0.003715456
000070 9f 6c fd 3d b2 88 9f bd 39 cf d2 3c c9 0b d6 3d
       0.123742335 -0.077897444 0.025733577 0.104514666
000080 f7 3f d3 bd 70 ad b1 bc 5c fc 36 be 99 45 d4 3d
       -0.10314935 -0.021689147 -0.17869705 0.10364837
000090 9e 42 d7 bb 04 22 86 bd 67 49 89 3d cd 19 29 3d
       -0.0065692207 -0.06549457 0.067034535 0.04128437
0000a0 b7 71 5d 3c 5c a8 38 bc ce a3 08 3e b6 80 a4 3d
       0.013515881 -0.011270609 0.13343737 0.08032362
0000b0 7a a5 00 3e 70 20 9b 3c f7 68 e5 bd a7 ee 5e 3d
       0.12563124 0.018936366 -0.11201661 0.054426815
0000c0 76 60 35 3e 0c 76 59 be cc f7 8f bd ea eb 03 bd
       0.17712578 -0.21236438 -0.070296854 -0.032207407
0000d0 c7 40 3f 3d 3d f1 65 3e 82 d9 bc bd 2d 24 51 3d
       0.046692636 0.22455306 -0.09221174 0.05105989
0000e0 3a 67 f6 bc a6 04 40 be ac 33 c6 3c 0d 80 a8 3d
       -0.03007852 -0.18751773 0.024194561 0.08227549
0000f0 ca e2 21 be ea f7 9c 3d da ce 2b 3d d9 86 0b be
       -0.1580917 0.07664473 0.041945316 -0.13625659
000100 b2 99 97 3d 35 ce 42 3d 40 29 09 3e 5e 2e a7 3d
       0.07402362 0.047559936 0.13394642 0.08163141
000110 82 c7 91 3d 46 be e2 3d e7 87 a7 3d b4 85 9d bd
       0.07118131 0.11071448 0.08180218 -0.076915175
000120 e0 2c ff 3b 07 81 74 bc 12 0a 62 bc d7 17 ca bd
       0.007787332 -0.014923341 -0.013796346 -0.09867828
000130 9e a2 0e bd 75 e3 ac bd 3b f8 91 3d 94 d2 82 bd
       -0.034823053 -0.084418215 0.07127424 -0.06387821
000140 eb a6 ba bd fe b8 82 bb cc 46 2c bd 82 eb 95 3d
       -0.09113868 -0.003989338 -0.042059705 0.0732031
000150 1d b1 02 3e db e1 e4 bd 0a b1 8d 3b 9d 3f c9 3a
       0.12762876 -0.11175891 0.004324083 0.0015354041
000160 db b4 6b 3c fe c5 c0 bc e1 4d 88 3c 7c fb 8b 3d
       0.014386381 -0.02353191 0.016638698 0.06835076
000170 51 fa 8b bd 1e 9f 00 3e 2a c0 f9 bd d9 3e 74 3d
       -0.068348534 0.12560698 -0.121948555 0.05963025
000180 90 9a 9c bc 28 79 b3 bd 04 50 33 be e3 ea 29 bc
       -0.01911667 -0.08763343 -0.17510992 -0.010370943
000190 55 73 af 3d b4 a3 1f 3e 1e 7b 43 ba 40 7c d7 3c
       0.0856692 0.15589792 -0.00074570056 0.026304364
0001a0 76 32 2f bd 7a 6f bf 3d 6b 07 ad 3d 2e 6e 20 bd
       -0.042772733 0.09347434 0.084486805 -0.039167576
0001b0 8c b6 73 bd 18 ce cb 3c 7a 44 fe bc 62 99 d1 bc
       -0.059500262 0.024878547 -0.031038512 -0.025585834
0001c0 e8 1c bd 3c de 6c b9 3c 40 8f d8 bc 0e a8 c7 bd
       0.023085073 0.02263492 -0.026435494 -0.09748851
0001d0 5c e0 bf bb f9 36 de 3c 07 d0 26 bd f4 ca d4 bd
       -0.005855603 0.027125822 -0.040725734 -0.10390273
0001e0 9c 2f e1 bd f9 06 e6 3d 58 77 a2 bd e8 8a eb 3c
       -0.10995409 0.11231799 -0.07932919 0.02875276
0001f0 3b b9 ea bd 91 8e ca bd 78 02 e2 bb 81 5e 0c be
       -0.11461111 -0.09890474 -0.006897267 -0.13707925
000200 ad 1d 9d 3d 7f 5e 27 3e 80 9f 95 3d 87 fe 08 3d
       0.07671676 0.16344641 0.07305813 0.03344586
000210 c6 29 a4 3c 89 f4 1d be e7 7e c6 3b 83 9d 74 bd
       0.02003945 -0.15425314 0.0060576084 -0.059720527
000220 e2 25 df 3d 93 0c 7f 3d b9 b6 21 3e 5e 0e f5 ba
       0.108958974 0.06226785 0.1579236 -0.0018696298
000230 f7 e1 ba bd 1f 31 cb 3d e7 4f 3c bd 52 00 77 3d
       -0.091251306 0.099214785 -0.04597464 0.06030304
000240 8b c4 83 3d e7 4d 95 3e 51 3c 6e 3c 0c 19 2d be
       0.06433972 0.29160997 0.014540748 -0.16904086
000250 dd 98 ed 3c 47 8d 88 3d 5f 99 82 3c d5 ad 27 be
       0.029003555 0.066675715 0.015942274 -0.16374905
000260 86 64 23 3e e3 a1 b6 3d ba 0c 9b bd 31 c1 5a be
       0.15956315 0.08917596 -0.07570787 -0.21362759
000270 3f 1a 2d bd 6a 91 17 be bf 4c 06 be f1 0e 47 3e
       -0.04226136 -0.14801565 -0.13115214 0.19439293
000280 a6 5a 96 bc 77 25 41 be dc 7d 36 be 0c 12 3e 3d
       -0.018353771 -0.18861948 -0.17821449 0.04640393
000290 90 51 99 bc d7 33 8b 3e 8d 20 3b bd 03 82 6c bc
       -0.01871565 0.27187988 -0.04568534 -0.014435294
0002a0 f3 c8 7e be 59 2e 34 3d d0 02 40 bd 8f c9 01 3e
       -0.24881344 0.043989513 -0.046877682 0.12674545
0002b0 e3 b0 4d 3e 34 3e 01 be f2 85 54 bd ec 7e 42 bd
       0.20087008 -0.12621385 -0.051885553 -0.047484323
0002c0 06 fa 8e 3e 47 73 77 bd 12 90 9c bc 82 fb a1 3e
       0.27925128 -0.06041267 -0.019111667 0.31637198
0002d0 ad 9a ee 3d b2 08 68 3e b1 79 09 3e ef 96 64 3d
       0.11650596 0.22659567 0.13425328 0.055808004
0002e0 26 af 92 3e 61 2b 73 be 77 19 12 3e 2d 6a 8d 3d
       0.28649253 -0.23747016 0.14267527 0.06905017
0002f0 37 91 1e be 24 be 19 3e 18 07 1d be 92 c9 16 be
       -0.15485083 0.15013939 -0.15334737 -0.1472533
000300 49 80 e9 3d c7 a3 68 be 9b 3f 6a 3b 07 a6 aa 3d
       0.114014216 -0.22718726 0.0035743478 0.083324485
000310 61 01 ac bb a6 45 3f bd 5a db e6 bd 1e 57 0a bd
       -0.005249188 -0.04669728 -0.11272307 -0.033774488
000320 32 c4 d7 bd 94 6d 3b be 42 ed ab bd d4 9b 83 3c
       -0.10535468 -0.1830352 -0.08394863 0.016065516
000330 50 00 2f be ac 7a ff bd a2 04 70 be f8 53 d7 3d
       -0.17089963 -0.1247457 -0.23439267 0.10514063
000340 55 ce 57 3e 13 c1 0b 3c ea 73 d8 bd 37 c5 18 3d
       0.21074803 0.008529919 -0.10568984 0.037297454
000350 ff 9b 34 3c 97 05 2c 3d 0c f9 4d 3d da b2 99 3e
       0.0110235205 0.04199752 0.050286338 0.30019265
000360 fa 85 4b bd 72 dd d9 bc a7 e1 86 be e7 e6 30 bd
       -0.049688317 -0.026594851 -0.26344034 -0.043188956
000370 e8 11 81 bb 92 67 14 be a6 28 68 be 7e 5d 29 3d
       -0.003938902 -0.14492634 -0.22671756 0.041348927
000380 a5 22 bd bd 42 0c c6 bb ac 57 f9 3b 6c 98 79 be
       -0.092351235 -0.0060439417 0.0076093283 -0.2437455
000390 83 9d 81 bd 90 8d 2e bd 06 d5 87 bd 65 35 13 3d
       -0.06328871 -0.042615473 -0.06632428 0.035939593
0003a0 a8 57 d7 3d c4 b2 fd 3c 42 7e 80 be 62 0b ed bc
       0.10514766 0.030969031 -0.25096327 -0.028936092
0003b0 61 51 00 3d 50 18 44 3e 59 a6 cc bd d9 a0 8e 3e
       0.03132761 0.191499 -0.09992666 0.27857092
0003c0 dd b0 1d 3e 8b 31 b1 bd e7 6c 83 be 07 00 38 3c
       0.15399499 -0.08652028 -0.25669023 0.011230475
0003d0 9c fa 26 3e ce 34 30 be 3a cd 26 3d 33 d8 e4 bc
       0.16306537 -0.17207643 0.040723063 -0.027935123
0003e0 da 30 15 3e 0b 8f 42 bb ad a0 1f bc 4a 88 6a 3d
       0.14569417 -0.002968731 -0.009742898 0.05725888
0003f0 b0 25 10 be b6 75 e5 bd 5c 50 76 3d 89 dc 12 bd
       -0.14076877 -0.11204092 0.06013523 -0.03585485

lstm.lstm2.bias_ih_l0 f4 [256]
000000 a1 3b 3d 3e a4 3d ff 3c a8 50 9c 3d fb 71 09 3e
       0.18479778 0.031157322 0.076325715 0.13422386
000010 0a 3c 19 bd af cc de 3d b2 6e 9e 3d a4 40 ed 3b
       -0.037410773 0.10878884 0.07735957 0.007240372
000020 73 0b 04 be 7c cf 93 bc 59 8d d1 3c 4d d3 d9 bd
       -0.12894993 -0.018043272 0.025580095 -0.106360056
000030 00 af 1a be 01 d5 06 be ce be a7 3d 18 64 01 3c
       -0.1510582 -0.13167192 0.0819069 0.007897399
000040 6e 87 ef 3d 61 2a fd 3c c9 93 f6 3d cf 17 06 3d
       0.11695753 0.030903997 0.120399065 0.03273755
000050 bb 35 fe bd 6d c5 87 3c a6 95 1b 3e b8 d4 a2 bd
       -0.12412592 0.016573632 0.15193805 -0.07950729
000060 ef 08 1f 3d 2c 91 85 3d 34 de 0e 3e 36 54 a3 3d
       0.03882688 0.0652183 0.13951951 0.07975046
000070 0b f5 df bd 3f 7c c5 3b 3a 14 0f 3d 36 26 41 3e
       -0.1093541 0.006026774 0.0349314 0.18862233
000080 27 f1 4b be 76 b1 82 bd dc 30 2e 3e 25 93 26 bd
       -0.19916211 -0.06381504 0.17010826 -0.04066767
000090 a1 81 95 3c 92 c3 9b bd a7 3f 1c 3e 2f 90 f7 3c
       0.018250288 -0.076056615 0.15258656 0.03022012
0000a0 00 12 13 bd 0e ca 13 bd 07 56 01 be a5 50 07 bd
       -0.035905838 -0.036081366 -0.12630473 -0.033035893
0000b0 e1 52 bb bd f5 42 0d 3d 56 40 2b bc 2f f6 0e 3d
       -0.09146667 0.034487683 -0.010452351 0.034902748
0000c0 48 d2 31 3e 14 56 08 3e b7 0a a3 3d 09 cb 30 bb
       0.17365372 0.13314086 0.07961028 -0.0026976487
0000d0 d5 04 3f bd 55 ae 5a 3e 5d 26 c3 bd a9 6f 85 3b
       -0.046635468 0.21355565 -0.095288016 0.004072149
0000e0 51 ec 31 3d 0f 12 d9 3c 81 8d dc 3d 75 76 bd bd
       0.04343826 0.026497869 0.10769177 -0.092511095
0000f0 33 6d 7a 3d 76 37 17 3e b8 0f 81 bb b5 7c 86 bd
       0.061139297 0.1476725 -0.0039386414 -0.06566755
000100 36 6e 86 3d 6d b6 9e bc a4 ca bc bc 5e ef 28 be
       0.0656399 -0.019374097 -0.023045845 -0.16497561
000110 02 c2 52 3c a2 0c 99 bd c0 ad f1 bc ef 6b a1 3c
       0.012863638 -0.07473113 -0.029501796 0.019704787
000120 6c 80 18 bc 5b 99 6f 3c 1a a6 03 be ae d8 ef 3d
       -0.009307962 0.014623965 -0.12856331 0.1171125
000130 fe 96 01 3c c7 67 13 be 79 3f 68 bd 1f c7 f6 3d
       0.0079095345 -0.14395057 -0.056701157 0.12049698
000140 ea 06 06 3e 17 32 fb bb 97 9c ff bd 5a c3 ac 3d
       0.13088575 -0.0076658833 -0.12481039 0.08435698
000150 65 7a de 3c 83 62 85 3d c2 eb 96 bb ce ca 0a 3e
       0.027157972 0.0651293 -0.0046057412 0.13553926
000160 af 21 03 be 83 cd b5 3d a8 6d 68 3d 5a d0 b6 bd
       -0.12805818 0.08877089 0.0567452 -0.08926459
000170 b3 e7 b6 bc 31 f6 cd bc 8d 0a 23 3d db 06 71 3c
       -0.02232728 -0.025141807 0.039804984 0.014711107
000180 5d 59 72 3c 26 18 46 bd 1c 3c 92 bd 5b d3 42 bc
       0.014791814 -0.048362873 -0.07140371 -0.011891211
000190 0a 3e 8d 3d 62 14 15 3e f1 9e 5a 3d 7b 77 6b bc
       0.06896599 0.14558557 0.053374235 -0.014371748
0001a0 e9 23 d0 3c 9b 55 ca bd b7 e5 bf bd ef 1b c5 3d
       0.025407748 -0.09879609 -0.093699865 0.096244685
0001b0 18 9f 06 be af 66 f5 3c ec 2c cc bd c0 29 06 3e
       -0.13146627 0.02995619 -0.09969506 0.13101864
0001c0 74 00 f9 3d f2 7c a5 bd 99 f1 ed bd 27 01 8d bd
       0.121582896 -0.08080472 -0.11618347 -0.068849854
0001d0 fc 25 a4 3d a3 b6 45 be d3 a1 f3 bd 7b c4 22 3d
       0.080150574 -0.19307952 -0.118961 0.03973816
0001e0 86 0a 6b bd b1 2a 5c 3b 02 84 48 bd 95 c1 5f bd
       -0.057383083 0.0033594782 -0.048954017 -0.054627974
0001f0 b3 b6 0c be 7a 54 2c 3e 49 b5 d8 bd de e7 eb bd
       -0.13741569 0.168291 -0.105814524 -0.115188345
000200 e3 1e 3f 3e 79 29 d9 bd 58 c8 eb bc a3 34 45 bc
       0.18664126 -0.106036134 -0.028782055 -0.012036475
000210 e4 25 2b be c9 75 18 bb 65 49 24 bd ed 24 b2 35
       -0.16713673 -0.0023263565 -0.040109057 1.327278e-06
000220 b6 b6 80 3b 17 67 f7 bd 67 49 20 3e f7 04 a8 bd
       0.003928031 -0.1208021 0.15653001 -0.08204072
000230 3e 90 94 3d f7 b7 cd 3d cd 08 0c bd 90 20 a9 bc
       0.072540745 0.10044854 -0.03418808 -0.02064541
000240 76 98 e1 bc f0 39 5d bd bd 94 01 3e 98 c0 cc bd
       -0.02753852 -0.05401033 0.12654395 -0.09997672
000250 fd 27 04 3e 53 e3 30 3e 13 88 17 be 3e 91 a1 bd
       0.1290588 0.17274217 -0.14798002 -0.07889031
000260 68 3f 5f bd ef 7d 1a 3e e7 c7 15 bd 28 49 ff bd
       -0.05450383 0.15087102 -0.036567595 -0.12465125
000270 a0 89 5f 3d 37 25 46 3d 19 8d ba bd b1 10 4a bc
       0.05457461 0.048375335 -0.091089435 -0.012333081
000280 93 5f 30 bd a0 19 6a 3d 6b fc c4 bd c5 2f da bc
       -0.043059897 0.057153344 -0.096184574 -0.026634106
000290 5f e6 cb bd 17 79 45 3d ba a0 16 be 4a 6b db 3c
       -0.09956049 0.048211183 -0.1470975 0.026784558
0002a0 21 39 0b 3d 78 bd 9e 3d 10 ad 65 3b b0 55 de 3d
       0.03399003 0.07750982 0.003504578 0.10856187
0002b0 08 00 3f bc 68 f1 c4 bd 43 7b a2 bd 29 b9 e6 3d
       -0.011657722 -0.09616357 -0.079336666 0.11265785
0002c0 bf 39 c1 3d 83 ca 81 bd 6b ec eb 3d 52 7a c3 3c
       0.09434842 -0.06337454 0.115197025 0.023862038
0002d0 34 41 bc bc ae 86 cb 3c fd 03 d2 bd ec 2e 22 3e
       -0.02298031 0.024844494 -0.10254667 0.15838212
0002e0 6e 39 10 3e 09 e9 3f be 03 ea c9 3d 8f 2f 02 3e
       0.14084408 -0.1874124 0.09859087 0.12713455
0002f0 39 e9 3b bc 70 21 48 bd de 84 8e 3c 3b 6b 9a bc
       -0.011469179 -0.048860013 0.01739734 -0.01884996
000300 f8 77 a5 bc 36 d6 90 bd c7 b9 84 3d 7f 7f 0c bb
       -0.020198807 -0.070721075 0.06480747 -0.0021438298
000310 71 1b f5 3d d3 c3 90 3d 46 b0 7d bd 14 b0 24 be
       0.11968125 0.070686005 -0.061935686 -0.16082793
000320 5c 5c 86 bd 04 41 a3 3d 3a a7 53 3e 17 39 a8 3d
       -0.06560585 0.07971385 0.2066926 0.08214014
000330 ae bd 95 bd ef 44 21 3b 8f 7a 2a bc 08 d7 6b bd
       -0.07311569 0.0024607738 -0.010405197 -0.057578117
000340 79 ca 1f 3c a3 6d 47 3d 34 b5 3f 3d 12 44 70 3d
       0.009752863 0.048688542 0.04680367 0.058658667
000350 ca ba 7a 3d cc 83 61 bd b8 b1 20 bc 19 08 3c 3d
       0.061213292 -0.055057332 -0.009807996 0.04590616
000360 b1 13 6a 3d ef 80 ee 3c 16 b2 81 bb 4d 57 a4 bc
       0.057147685 0.029114215 -0.003957997 -0.02006116
000370 5a 7b 0b 3d 70 ef 87 bd 22 a1 45 bd d3 a8 c9 3d
       0.034053184 -0.06637466 -0.04824937 0.09846654
000380 17 b4 44 bc f2 32 24 3c a8 34 df 3c 57 72 9e bc
       -0.012005827 0.010021912 0.027246788 -0.01934163
000390 b0 bd 50 3d d2 7a 89 3d 66 6f 1f 3e 0c 6d bd ba
       0.05096215 0.06712879 0.15569839 -0.0014452054
0003a0 1d 76 6c 3c c5 97 b6 3d c2 31 1e be 9d a6 df bd
       0.014432457 0.089156665 -0.15448669 -0.10920451
0003b0 46 30 1b 3b 84 62 e7 3d 80 d8 46 bd dd 6a e1 3d
       0.0023679896 0.11298087 -0.048546314 0.11006711
0003c0 8c 84 28 be fb 1d 05 3e 6a f9 38 bd 0d df 48 3e
       -0.16456813 0.12999718 -0.045159735 0.19616337
0003d0 1e bc 8a bd 6e 4c 13 3e 94 82 d0 bd 4a 06 d2 bd
       -0.06774162 0.14384624 -0.10181156 -0.10255106
0003e0 5d 40 87 bd e9 ba 93 3d e6 8a 11 bd 28 0e 1c bd
       -0.06604073 0.07213385 -0.035532854 -0.038099438
0003f0 08 af d4 3c c1 a6 21 3e 0a 0d fb 3d a8 06 14 3d
       0.025962368 0.15786268 0.122583464 0.03613916
