073123/0810hoxyhoxy5.pth (torch, 644637 bytes, 40 tensors)

lstm.lstm1.weight_ih_l0 f4 [256, 12]
0	0x3dc2309d	0.094819285
1	0x3cfbbcd2	0.030729685
2	0x3d261a1e	0.04055225
3	0x3dec2db2	0.11532153
4	0x3e2daeff	0.16961287
5	0x3d9acd58	0.075586975
6	0x3def5d55	0.116877235
7	0x3d4ab19b	0.049485784
8	0x3d76653a	0.06015513
9	0x3d929172	0.07156648
10	0x3d982220	0.07428384
11	0x3d9c0cf2	0.076196566
12	0x3cee611a	0.029099036
13	0x3c79849d	0.015229371
14	0xbd92d38b	-0.07169255
15	0xbe42ba78	-0.19016445
16	0x3ccd8b85	0.025090942
17	0xbc826ccd	-0.01592102
18	0x3d859d6f	0.06524169
19	0x3d3783b3	0.044803333
20	0x3c0c2380	0.008553386
21	0xbe3540b6	-0.17700467
22	0xbe3180b5	-0.17334254
23	0xbe7fa44a	-0.24965015
24	0x3ceb3ff7	0.028717024
25	0xbdcdba85	-0.100453414
26	0x3c280835	0.010255863
27	0x3d6fc940	0.058541536
28	0x3ce84544	0.02835334
29	0x3df6daf7	0.12053483
30	0x3cefa83d	0.029255027
31	0xbde9ceca	-0.11416395
32	0xbe25308e	-0.16131803
33	0x3d8c6764	0.06855658
34	0xbd8acb0d	-0.0677701
35	0xbd01b8bf	-0.03167033
36	0xbe0528d1	-0.13003851
37	0xbc5cddfb	-0.013480659
38	0x3cd255f7	0.025675757
39	0xbe83de46	-0.2575552
40	0xbe0bebf2	-0.13664225
41	0xbda5ebaa	-0.0810159
42	0xbc7a3428	-0.015271224
43	0xbd842309	-0.06451995
44	0x3d172189	0.036897216
45	0xbd51f199	-0.051255796
46	0xbdb15c4d	-0.08660183
47	0xbdb2109a	-0.08694573
48	0xbb910eaa	-0.004426797
49	0xbdab3d6f	-0.08361327
50	0xbe7c0d84	-0.24614531
51	0xbe19d4c5	-0.15022571
52	0xbe240659	-0.16018046
53	0xbdc601ef	-0.096683376
54	0xbdfc8138	-0.12329334
55	0xbd907b66	-0.070547864
56	0x381b4e36	3.702772e-05
57	0xbe4d5b17	-0.2005428
58	0x3c5530b4	0.0130121
59	0xbdb73bc5	-0.08946947
60	0x3d7d643a	0.06186316
61	0x3e330959	0.17484035
62	0x3dc74ac7	0.097310595
63	0x3d95a94b	0.07307681
64	0x3e15292a	0.14566484
65	0x3e7dc279	0.24781217
66	0x3e91ce03	0.28477487
67	0x3d26521f	0.04060566
68	0x3db72d55	0.08944193
69	0x3ec06a76	0.37581223
70	0x3cc21f30	0.023696512
71	0x3e6935db	0.2277445
72	0x3d24490c	0.040108725
73	0x3d3ef5a7	0.04662099
74	0xbd80fc94	-0.062981755
75	0xbe078e9d	-0.13237996
76	0xbd658cc4	-0.056042448
77	0xbd808f6e	-0.06277357
78	0xbd37fb33	-0.044917297
79	0xbcd4b5fa	-0.02596568
80	0x3d84d317	0.06485575
81	0x3d40a7ec	0.047035143
82	0xbe269b90	-0.1627028
83	0xbdf0089a	-0.117203906
84	0xbdbb5440	-0.09146929
85	0xbe414c8c	-0.18876857
86	0xbe6ae862	-0.2294021
87	0xbc6897e9	-0.014196374
88	0xbe06743b	-0.13130276
89	0xbd62aec4	-0.05534245
90	0x3a5af7c6	0.0008352961
91	0xbbbf9e32	-0.005847716
92	0xbe194de6	-0.14971122
93	0xbc83286f	-0.016010491
94	0x3dcd47c2	0.10023452
95	0xbec9ce7f	-0.39415357
96	0xbdad56dd	-0.084638335
97	0x3e139781	0.14413263
98	0x3e1f105e	0.15533587
99	0x3c31c92f	0.010851189
100	0x3e315fab	0.1732165
101	0x3d9ab153	0.07553353
102	0x3dae7950	0.08519232
103	0x3e05dcc9	0.13072504
104	0xbd2b468e	-0.041815333
105	0xbd246b22	-0.040141232
106	0x3c7c9e0d	0.015418542
107	0xbdc8b800	-0.0980072
108	0xbe047b43	-0.12937646
109	0xbdcee385	-0.1010199
110	0xbd10df23	-0.03536905
111	0x3ce6e245	0.028184066
112	0xbe57b95f	-0.21066807
113	0xbe10931e	-0.14118621
114	0xbd483b10	-0.04888445
115	0xbde2be8e	-0.11071502
116	0xbe053bf7	-0.13011156
117	0xbe2b222f	-0.16712259
118	0xbe0996cf	-0.13436435
119	0xbed3800a	-0.41308624
120	0xbdfee19a	-0.12445374
121	0x3bde7e2b	0.0067899427
122	0x3d215555	0.03938802
123	0xbdb3b89a	-0.08775444
124	0xbddc3f58	-0.10754269
125	0xbb228b8e	-0.002480242
126	0xbda9da46	-0.082935855
127	0x3d86a8d5	0.06575171
128	0x3d09f162	0.033677466
129	0x3b63d5f1	0.003476497
130	0xbcdc54b9	-0.026895868
131	0xbe7bbb78	-0.24583232
132	0x3d562450	0.052280724
133	0x3df693b1	0.12039889
134	0x3d1dc8fe	0.03852176
135	0x3e19a143	0.15002923
136	0x3d73ffd0	0.059570134
137	0x3c9530aa	0.018211681
138	0x3db8dcbf	0.09026479
139	0x3d71b224	0.05900778
140	0xbca074ec	-0.019587003
141	0x3e04d7bc	0.12972921
142	0xbd47bff3	-0.04876704
143	0x3e333a5a	0.17502728
144	0xbe061e88	-0.13097584
145	0xbd84f2a0	-0.064915895
146	0x3d64b483	0.055836212
147	0x3db0e0ce	0.08636628
148	0xbdcb1cc7	-0.09917598
149	0xbd67aed5	-0.056563217
150	0xbd504619	-0.0508481
151	0x3c8d7aaa	0.017270405
152	0xbc9e0a74	-0.019292094
153	0xbe1d4612	-0.15358761
154	0x3df84e31	0.12124289
155	0x3df7d9f6	0.121021196
156	0xbd90eec4	-0.07076791
157	0x3e61a60f	0.22036003
158	0x3e9d20f4	0.30689204
159	0x3cfd3742	0.030910138
160	0x3dee0ad0	0.11623156
161	0x3e102d8f	0.14079879
162	0x3d3d38df	0.046196815
163	0xbcd3687f	-0.025806664
164	0xbd420832	-0.047371097
165	0x3e2e11eb	0.16999023
166	0x3de57f26	0.11205892
167	0x3e33366b	0.17501228
168	0x3cb4dae2	0.022077028
169	0xbca96546	-0.020678174
170	0x3db9938b	0.09061345
171	0x3caa3291	0.020776065
172	0x3d12ee60	0.035871863
173	0xbd16bf34	-0.03680344
174	0x3e278483	0.16359143
175	0x3cb998c6	0.022655856
176	0x3d053baa	0.032527603
177	0x3d7c4148	0.061585695
178	0xbc2d88a9	-0.010591664
179	0xbdc73917	-0.09727686
180	0xbd04691c	-0.032326803
181	0xbdb6f897	-0.089341335
182	0xbd9e441b	-0.07727834
183	0x3c7b8349	0.015351125
184	0xbdbe0b52	-0.09279503
185	0x3c884556	0.016634624
186	0xbc9f94c7	-0.019480122
187	0x3de41df1	0.11138523
188	0x3da0fc76	0.07860653
189	0xbd472658	-0.04862055
190	0xbe17b179	-0.14813794
191	0xbc5eccb2	-0.013598608
192	0xbe1b7d2c	-0.15184468
193	0xbdac9e78	-0.08428663
194	0xbde0470f	-0.10951053
195	0x3bb64f8f	0.0055636833
196	0xbe2e6bef	-0.17033361
197	0xbe0f49cc	-0.13992995
198	0xbcff6466	-0.031175803
199	0xbe3446ad	-0.17605086
200	0xbc1b67ab	-0.009485166
201	0x3d183191	0.037156645
202	0xbd339689	-0.043844733
203	0xbeb2fc32	-0.34958035
204	0xbd9fb68b	-0.07798489
205	0x3ccdf597	0.02514152
206	0xbdaabb8a	-0.083365515
207	0x3ded6b67	0.11592751
208	0x3d4b927c	0.049700245
209	0xbcb715e7	-0.022349311
210	0xbd94333a	-0.07236333
211	0xbd74c31b	-0.05975638
212	0xbcc4e098	-0.024032876
213	0xbcc34da3	-0.023840731
214	0x3da91fbb	0.08258005
215	0xbea279ee	-0.3173365
216	0xbc8f6f8e	-0.017509248
217	0xbd85fc9b	-0.06542321
218	0x3d57a95c	0.052651748
219	0x3db1f857	0.08689945
220	0xbd545233	-0.051836204
221	0x3d610d76	0.054944478
222	0x3d9599a5	0.07304696
223	0xbe20f89d	-0.15719838
224	0xbdca79c6	-0.09886508
225	0xbdc2c221	-0.095096834
226	0x3de8b85d	0.113632895
227	0x3df27a59	0.11839742
228	0xbca2888b	-0.0198405
229	0x3d3a38a9	0.04546419
230	0xbbcec1dc	-0.006309731
231	0x3d6ab009	0.057296786
232	0xbbbb8501	-0.0057226424
233	0xbd8516d0	-0.06498492
234	0x3d9a33d1	0.075294144
235	0xbd9dcbaf	-0.07704865
236	0xbc8c2f92	-0.017112527
237	0x3ca3db32	0.020001981
238	0x3b87c286	0.004143062
239	0xbe28149d	-0.16414113
240	0x3e20e2a2	0.15711454
241	0xbc8f6433	-0.017503833
242	0x3d628789	0.055305038
243	0x3e2d9607	0.16951762
244	0x3d6c29f1	0.057657186
245	0xbda1958e	-0.078898534
246	0x3ddcd1c7	0.10782199
247	0x3d8d69d6	0.06904952
248	0x3c453926	0.012037551
249	0x3e39eb89	0.18156256
250	0x3deaf789	0.11472995
251	0x3e908a33	0.28230438
252	0xbe1ddd90	-0.1541655
253	0x3c937d4f	0.018004088
254	0xbdd87abe	-0.10570286
255	0xbdae36d7	-0.085065536

lstm.lstm1.weight_hh_l0 f4 [256, 64]
0	0xbe090b6a	-0.1338326
1	0xbde2c53e	-0.11072777
2	0xbd37c5cf	-0.04486638
3	0xbe08c32b	-0.133557
4	0xbe5cd4c7	-0.21565543
5	0xbe11c84b	-0.14236562
6	0x3d80a7af	0.06281983
7	0x3d71fdb1	0.05907983
8	0xbd5fb3bb	-0.054614764
9	0xbe22db75	-0.15904029
10	0xbd0d30d6	-0.0344704
11	0xbe22723e	-0.15863892
12	0x3e10f8b5	0.14157374
13	0xbe6cacea	-0.23112836
14	0x3de65d51	0.112482674
15	0x3db37e94	0.08764377
16	0xbe181a66	-0.1485382
17	0xbe1e3015	-0.1544803
18	0x3bde0ecc	0.0067766663
19	0xbcbb111f	-0.022835312
20	0xbd94dbc7	-0.07268482
21	0x3e2dfa65	0.16990049
22	0xbe411313	-0.18854932
23	0xbd827dae	-0.06371628
24	0x3be02016	0.0068397624
25	0x3c9cbf3f	0.019134162
26	0xbdeb1fd0	-0.11480677
27	0x3be0aedf	0.0068567838
28	0x3cf2f193	0.029656207
29	0x3dd3ccfa	0.103418306
30	0xbe2a0c81	-0.16606332
31	0xbe0d08d7	-0.13772903
32	0x3e145479	0.14485349
33	0xbe08a14e	-0.13342783
34	0x3d72c1de	0.059266917
35	0xbd5605a3	-0.05225147
36	0x3cf976a7	0.030452086
37	0x3e15eb9c	0.14640659
38	0xbd0f5d8f	-0.035001334
39	0x3d3bd3e2	0.045856364
40	0x3e0ed2ea	0.13947645
41	0xbaae5728	-0.0013301121
42	0xbdb2306f	-0.08700644
43	0xbe0fdc52	-0.1404889
44	0xbdb85bd3	-0.09001889
45	0x3e00bf33	0.12572937
46	0x3d1705aa	0.036870636
47	0x3e1995e4	0.14998585
48	0xbbe55eba	-0.0069998177
49	0xbd4a60b0	-0.049408615
50	0xbe331e6f	-0.17492078
51	0xbd67f1d9	-0.05662713
52	0xbda0be38	-0.07848781
53	0xbd2ca78b	-0.04215197
54	0xbc127be9	-0.008940675
55	0xbd2df5db	-0.042470794
56	0x3da94abc	0.082662076
57	0xbd05d2af	-0.032671627
58	0xbc1ea59e	-0.009683041
59	0x3bcf4a72	0.0063260132
60	0xbdf816c7	-0.121137194
61	0x3e30007d	0.17187686
62	0x3c9e90d2	0.019356165
63	0xbd1fe421	-0.03903592
64	0x3de08ab2	0.10963954
65	0xbcdec348	-0.027192727
66	0xbda1c811	-0.07899488
67	0x3d181874	0.037132695
68	0xbbfd68f1	-0.0077334573
69	0xbc401f8d	-0.011726272
70	0x3d9477c3	0.07249405
71	0xbcc849df	-0.024449287
72	0x3c585251	0.0132032195
73	0xbd54e8f5	-0.051979978
74	0x3df0ee5d	0.11764214
75	0x3d029983	0.03188468
76	0xbdd5f4eb	-0.10447105
77	0x3e128fbc	0.14312643
78	0xbde7d75e	-0.11320375
79	0x3d957c39	0.07299084
80	0xbddaf57b	-0.10691353
81	0xbd2338e8	-0.039849192
82	0xbd92b26a	-0.07162936
83	0x3db54c46	0.08852439
84	0x3ded1c05	0.1157761
85	0x3d73d421	0.059528474
86	0x3df649b6	0.12025778
87	0xbdcf2fc9	-0.10116536
88	0x3d1f86f8	0.038947076
89	0xbdce0449	-0.10059411
90	0x3d1c146d	0.038105417
91	0xbd44d1ed	-0.048051763
92	0x3d6dd00a	0.05805973
93	0xbcbd9e54	-0.023146786
94	0xbd2ea324	-0.04263605
95	0xbd833a35	-0.064075865
96	0xbac650ee	-0.001513032
97	0xba4563b7	-0.0007529812
98	0xbd4f21b8	-0.050569266
99	0xbd0271f8	-0.03184697
100	0x3dc52c29	0.096275635
101	0xbccbe54a	-0.024889607
102	0xbcfab280	-0.030602694
103	0xbe6b6776	-0.22988686
104	0x3d878a33	0.06618156
105	0x3c8bdc31	0.017072769
106	0xbd982dab	-0.074305855
107	0xbe06c579	-0.13161267
108	0x3c40a86f	0.011758908
109	0xbdbd9a89	-0.09257991
110	0x3d90ff2f	0.070799224
111	0xbd89de01	-0.06731797
112	0x3c8dcecd	0.017310524
113	0x3cb588cc	0.022159956
114	0x3c80cfb3	0.015724039
115	0x3dd91235	0.10599176
116	0xbd799adf	-0.060938712
117	0xbd4628e1	-0.04837883
118	0xbd8212c2	-0.06351234
119	0xbc51bd2d	-0.012801451
120	0x3d3a3f11	0.0454703
121	0x3c8b0f34	0.016975023
122	0xbe3599c5	-0.1773444
123	0xbdab44fe	-0.083627686
124	0x3c5ed289	0.0136
125	0xbdae4f08	-0.08511168
126	0x3d21ca27	0.039499428
127	0xbdf5ea6f	-0.12007605
128	0xbd799a42	-0.060938127
129	0x3bd42ce7	0.0064750793
130	0x3d124ef6	0.035719834
131	0xbd2887be	-0.04114508
132	0xbcc93c9d	-0.024565035
133	0x3dc2ceb0	0.09512079
134	0xbd5c031b	-0.0537139
135	0xbdd5fc21	-0.104484804
136	0xbd780143	-0.06054808
137	0xbe2562ac	-0.16150922
138	0x3c9cbf23	0.01913411
139	0xbd10b961	-0.03533304
140	0x3d5b0425	0.05347075
141	0xbd969643	-0.07352879
142	0x3d65cd33	0.056103896
143	0x3b95c0fc	0.0045701247
144	0xbe07fae1	-0.13279296
145	0xbdaf0f62	-0.08547856
146	0x3cd97713	0.026546037
147	0xbc95cbb1	-0.018285604
148	0x3e0deea0	0.1386056
149	0xbd1ff72d	-0.039054085
150	0x3d05afd4	0.032638386
151	0xbd2e1b27	-0.042506363
152	0x3c5dc173	0.013534891
153	0xbc405acc	-0.011740398
154	0x3dbd0b1e	0.09230636
155	0x3c936f78	0.017997488
156	0x3c6a6f94	0.014308829
157	0xbdc0435c	-0.09387848
158	0x3dd7802d	0.105224945
159	0xbe1acc7d	-0.15117069
160	0x3ac9a88e	0.0015385316
161	0x3e3806be	0.17971322
162	0xbe233be1	-0.1594081
163	0xbe086f39	-0.13323678
164	0x3ddb4d71	0.1070813
165	0x3dc46d30	0.09591138
166	0x3ce67b7f	0.02813506
167	0xbe51ebb9	-0.20500077
168	0x3cf49950	0.029858261
169	0x3d0a7a16	0.033807836
170	0xbd3b09e9	-0.045663748
171	0xbca885a3	-0.020571535
172	0x3b933eab	0.0044935546
173	0x3dd815a0	0.10551
174	0xbe0dc4ff	-0.1384468
175	0xbe1b20e7	-0.1514927
176	0x3da9f6c8	0.08299023
177	0xbe0c72e6	-0.13715705
178	0x3d07bcaf	0.033138927
179	0x3e05d300	0.13068771
180	0x3e1ae9ac	0.15128201
181	0x3ac752ea	0.0015207205
182	0xba446c7a	-0.0007492971
183	0x3d8d8f19	0.06912059
184	0xbd0bc6e5	-0.034125227
185	0xbd85d5ba	-0.06534906
186	0xbe168c8c	-0.14702052
187	0xbc3e9cb0	-0.011634037
188	0x3c34b8b8	0.0110303685
189	0x3d3f64ea	0.0467271
190	0x3cc70e0e	0.024298694
191	0xbd1a787d	-0.037712563
192	0x3d47ee2a	0.048811115
193	0x3d0a7665	0.033804316
194	0x3d7ff319	0.062487695
195	0xbd9d8656	-0.07691638
196	0x3d187a2b	0.037225883
197	0x3ded0c99	0.115746684
198	0xbdd712be	-0.10501622
199	0xbdbfd4a1	-0.093667276
200	0xbc1fdfb0	-0.009757921
201	0xbd07c978	-0.03315112
202	0xbd528b05	-0.05140211
203	0x3d9fb8de	0.077989325
204	0xbd9dd118	-0.07705897
205	0x3e54c720	0.20779085
206	0x3dcf42a9	0.10120136
207	0x3dcfb738	0.10142368
208	0x3c22d641	0.009938777
209	0x3e03af06	0.12859735
210	0xbe1e88ac	-0.15481824
211	0x3e1d91a8	0.15387595
212	0x3cd85e52	0.026412163
213	0x3c640ebc	0.013919529
214	0x3e1a9972	0.15097597
215	0xbd02ddc3	-0.03194977
216	0xbd9efc71	-0.07762993
217	0xbc2a1cc1	-0.010382832
218	0x3d8cc992	0.06874384
219	0xbd933efe	-0.07189749
220	0xbd3aa34e	-0.045565896
221	0xbdb68ef6	-0.089139864
222	0xbb4231be	-0.00296317
223	0x3d95b4b9	0.07309861
224	0xbd8807c1	-0.06642104
225	0x3df87284	0.12131217
226	0xbd9d0af7	-0.07668107
227	0xbdef2f16	-0.11678903
228	0xbdb2b465	-0.08725814
229	0xbd9468ca	-0.072465494
230	0xbc319e19	-0.010840916
231	0x3e10358c	0.14082927
232	0xbe03d401	-0.12873842
233	0xbb95be6f	-0.0045698206
234	0xbc0a59ce	-0.008444263
235	0x3d1419ec	0.036157534
236	0x3de882e3	0.1135309
237	0xbd80b200	-0.06283951
238	0xbe0dd90f	-0.13852333
239	0x3c323bf9	0.010878556
240	0x3df1e391	0.11810983
241	0x3e0f5a24	0.1399923
242	0x3db585d3	0.088634156
243	0xbd6ce841	-0.057838682
244	0xbc0c0b84	-0.008547667
245	0x3d2de905	0.042458553
246	0xbe013e40	-0.12621403
247	0xbe17de7b	-0.14830963
248	0xbe2d3582	-0.16914943
249	0x3e0f1835	0.13974078
250	0xbdee8179	-0.11645789
251	0x3d729e4e	0.059233002
252	0x3d39cf46	0.045363687
253	0xbce80671	-0.028323384
254	0x3e1839c6	0.14865789
255	0xbda65e82	-0.08123495

lstm.lstm1.bias_ih_l0 f4 [256]
0	0xbd63cef2	-0.05561728
1	0xbd672faf	-0.05644196
2	0xbe3440cf	-0.17602848
3	0xbddf6f0d	-0.10909853
4	0xbe26003a	-0.16211024
5	0x3e523136	0.20526585
6	0xbd50d73a	-0.050986506
7	0xbdb2e1ce	-0.08734475
8	0x3c6c57bf	0.014425217
9	0xbd5a724a	-0.05333165
10	0x3d94da47	0.072681956
11	0xbda6c600	-0.08143234
12	0x3d956ef7	0.072965555
13	0x3ca21ae9	0.019788222
14	0x3d1c840e	0.038211875
15	0x3d9284dc	0.07154247
16	0xbd2724a5	-0.04080643
17	0xbd746df8	-0.059675187
18	0xbe07be32	-0.13256148
19	0x3d22ad50	0.039716065
20	0x3c991964	0.018688865
21	0x3d3abb85	0.04558899
22	0xbdaffd52	-0.08593239
23	0x3b4f9b2c	0.0031678183
24	0xbcb16456	-0.02165429
25	0xbd78de01	-0.060758594
26	0xbdbe23df	-0.092841856
27	0xbd9b80d0	-0.075929284
28	0xbc8a268b	-0.016864082
29	0xbc973f42	-0.01846278
30	0xbd0e33a7	-0.03471723
31	0xbe4ac885	-0.19803055
32	0xbe516f34	-0.20452577
33	0x3bd8a287	0.0066111716
34	0xbe2518f7	-0.16122805
35	0xbe250da8	-0.1611849
36	0x3c4f6506	0.012658363
37	0xbd47aed9	-0.048750732
38	0x3d92ca46	0.07167487
39	0x3dbc0e46	0.0918241
40	0x3b3a3f66	0.0028419136
41	0xbdb9ac4d	-0.09066067
42	0xbdbaf410	-0.091285825
43	0x3d96ca05	0.07362751
44	0x3dc4368b	0.09580716
45	0xbe0480e5	-0.12939794
46	0x3cb6f79a	0.022334863
47	0xbd4339c9	-0.04766253
48	0xbd814748	-0.06312424
49	0x3e1ee914	0.155186
50	0xbd85b903	-0.06529429
51	0x3d244425	0.04010405
52	0x3bded475	0.006800229
53	0xbdbddee8	-0.092710316
54	0xbc88cab7	-0.016698224
55	0xbdf80dd7	-0.12112015
56	0x3dd190c4	0.1023269
57	0x3ced075c	0.028934173
58	0xbc9ec778	-0.019382223
59	0xbddc7a51	-0.107655175
60	0x3cdfa6db	0.027301243
61	0x3de55b57	0.11199062
62	0x3dac8b18	0.084249675
63	0x3d9330ef	0.07187068
64	0xbd2d765f	-0.042349216
65	0xbe003891	-0.12521578
66	0x3d6be119	0.057587717
67	0x3ccf6eea	0.025321443
68	0xbde36b4f	-0.11104452
69	0x3e20db84	0.15708739
70	0xbd931584	-0.07181838
71	0x3d079592	0.033101626
72	0xbd7efd4d	-0.062253285
73	0xbe07b0eb	-0.13251083
74	0xbcc0ead0	-0.023549467
75	0xbd474eb4	-0.04865904
76	0xbdef5a7e	-0.11687182
77	0x3afb0cf9	0.0019153646
78	0x3d53d1e5	0.051713843
79	0x3e0134b8	0.12617767
80	0xbdca3ab7	-0.0987448
81	0x3e337f9f	0.17529152
82	0x3d839984	0.06425765
83	0x3bd7d476	0.0065866066
84	0x3e2f9a77	0.17148767
85	0x3c9eebee	0.01939961
86	0x3d323258	0.043505043
87	0x3e03e294	0.12879401
88	0xbd22ee3e	-0.039777987
89	0xbd382c61	-0.044964198
90	0x3dd7230f	0.10504734
91	0x3d4ba2b2	0.049715705
92	0x3dd3624d	0.10321484
93	0xbdd35017	-0.1031801
94	0x3cd1ff99	0.025634574
95	0xbd399e31	-0.04531688
96	0x3d22f0cb	0.03978042
97	0xbd201deb	-0.039091032
98	0xbd3aa2e1	-0.04556549
99	0x3c03ab2b	0.008036415
100	0xbcb49d0f	-0.022047548
101	0x3c97fa1a	0.018551875
102	0xbc790f9e	-0.015201477
103	0x3d4d5fe3	0.050140273
104	0x3da143d5	0.07874266
105	0xbc889b89	-0.016675727
106	0xbd7a9bd4	-0.061183766
107	0x3d4abfab	0.049499195
108	0xbc8aa6d8	-0.01692526
109	0xbdeeea42	-0.11665775
110	0xbd09b6a1	-0.033621434
111	0xbd8953a1	-0.06705404
112	0x3c10ec8a	0.008845458
113	0xbdb25524	-0.087076455
114	0xbd551706	-0.05202391
115	0x3d521829	0.051292572
116	0x3d2e54e7	0.042561438
117	0x3da59a43	0.08086064
118	0x3e1d26db	0.15346853
119	0xbd6a2742	-0.057166345
120	0x3d7a5311	0.061114375
121	0xbdb4b096	-0.088227436
122	0x3d227117	0.039658632
123	0x3c0328cd	0.008005333
124	0xbde58e1e	-0.11208747
125	0x3c140416	0.009034177
126	0x3df58dbd	0.11989925
127	0x3d87bcc2	0.066277996
128	0x3ce0bc78	0.027433619
129	0x3deb404b	0.11486872
130	0xbce7c2e1	-0.028291168
131	0x3e15cd85	0.1462918
132	0xbd4f0520	-0.050541997
133	0xbd3190b0	-0.043350875
134	0xbc84c8be	-0.016209003
135	0x3e0dd785	0.13851745
136	0x3c4a6c94	0.012354989
137	0xbd0bf10a	-0.03416542
138	0xbe24f080	-0.16107368
139	0xbd809dd6	-0.06280105
140	0x3dc12c6f	0.09432303
141	0x3e0ac0c8	0.13550103
142	0xbe624bfe	-0.22099301
143	0xbd870f96	-0.0659477
144	0x3c167531	0.009183214
145	0x3daa12dc	0.083043784
146	0x3d95be3b	0.07311674
147	0x3cfc24a7	0.030779196
148	0xbdb685f3	-0.089122675
149	0xba2e06ca	-0.0006638585
150	0x3e1e48f9	0.15457524
151	0x3e29d053	0.16583376
152	0x3d27d2e1	0.040972594
153	0xbd3267ec	-0.04355614
154	0xbd30f070	-0.04319805
155	0x3dc7f9e8	0.09764463
156	0x3df46a28	0.1193431
157	0x3dab7a08	0.08372885
158	0x3d2c7977	0.042108025
159	0x3d9120fc	0.070863694
160	0xbbe9cb51	-0.007134833
161	0x3acd6e89	0.0015673201
162	0xbcf7ec9c	-0.030264191
163	0x3c2ee725	0.010675226
164	0xbdd32c91	-0.10311235
165	0x3d97b77e	0.07408045
166	0xbd694e27	-0.056959298
167	0x3d6048f8	0.05475709
168	0xbe79e5ba	-0.2440404
169	0xbd98ad56	-0.07454936
170	0xbdc52fac	-0.09628233
171	0xbd420889	-0.04737142
172	0xbae8e6fb	-0.0017769033
173	0xbd95b769	-0.07310373
174	0xbdcc30ce	-0.09970246
175	0xbca7633b	-0.020433059
176	0xbde41d44	-0.111383945
177	0x3decdc13	0.11565413
178	0xbd8b8c67	-0.06813889
179	0x3d531863	0.05153693
180	0x3c28365b	0.010266866
181	0xbd0574ba	-0.032582022
182	0xbcaecfc8	-0.021339312
183	0xbd6cca8c	-0.05781035
184	0x3e04266d	0.12905283
185	0xbcc0e733	-0.023547744
186	0xbdbb7bb7	-0.09154456
187	0xbde0e311	-0.109808095
188	0xbd164424	-0.036686078
189	0xbd0a16e1	-0.033713225
190	0xbd1fd06b	-0.039017122
191	0x3c4d83e6	0.012543654
192	0x3d3f152c	0.04665105
193	0x3d4d5201	0.050127033
194	0xbc343976	-0.011000028
195	0xbdc3f659	-0.095684715
196	0x3c4df433	0.012570429
197	0x3e6db76e	0.23214504
198	0x3dabf74c	0.083967775
199	0xbe2c36ee	-0.16817829
200	0xbd014fcc	-0.03157024
201	0xbdb6bec0	-0.089231014
202	0xbde0bb5f	-0.10973238
203	0x3dff5326	0.12467031
204	0xbda18a9e	-0.07887767
205	0x3da29ec5	0.07940439
206	0x3e2b02d8	0.16700304
207	0xbd825bd7	-0.06365173
208	0x3d0d201b	0.034454446
209	0xbc90e675	-0.017688015
210	0xbd2f9c6b	-0.04287378
211	0xbdd30f3c	-0.1030564
212	0xba8a8edd	-0.0010571141
213	0xbdc3af66	-0.09554939
214	0xbdc2ec1c	-0.095176905
215	0xbd25ed27	-0.04050937
216	0xbda36bfe	-0.07979582
217	0x3db81847	0.089890055
218	0xbe2c8a28	-0.16849577
219	0xbdaad899	-0.08342094
220	0x3bdf2eb5	0.006810988
221	0xbd9ad6ef	-0.075605266
222	0xbd2c0e3c	-0.042005762
223	0xbe0a3056	-0.13495001
224	0xbd848f5a	-0.06472655
225	0xbe2c536d	-0.168287
226	0xbe074675	-0.13210471
227	0xbd399cf4	-0.045315698
228	0xbdabf945	-0.08397154
229	0x3df37ded	0.11889253
230	0x3d9d50a7	0.07681399
231	0x3dc0568e	0.09391509
232	0x3d4e7f66	0.050414465
233	0xbdfe1d7a	-0.12407966
234	0xbe163879	-0.1466998
235	0x3be48ea3	0.0069750114
236	0x3e081d66	0.13292465
237	0xbd71acd0	-0.059002697
238	0x3d9ef4bf	0.07761525
239	0xbd147fdd	-0.036254752
240	0xbd77390b	-0.060357135
241	0x3e22f391	0.15913226
242	0xbdce6190	-0.10077202
243	0x3df3609e	0.11883663
244	0x3d34a21b	0.04409991
245	0x3c618923	0.013765606
246	0xbd4def28	-0.050276905
247	0x3c86a8a2	0.016437832
248	0x3d9b10e5	0.07571582
249	0x3d475e0d	0.04867368
250	0x3b953cdf	0.0045543755
251	0x3d74fd64	0.059811965
252	0xbd85eabb	-0.06538912
253	0x3e6a65e9	0.22890438
254	0x3de3a50f	0.11115467
255	0xbcd4e251	-0.025986822

lstm.lstm1.bias_hh_l0 f4 [256]
0	0x3ded77dd	0.11595128
1	0xbd98c1a2	-0.074588075
2	0xbe0a3c1c	-0.13499492
3	0x3cdea46c	0.027178012
4	0x3d85d2bb	0.06534334
5	0x3d6b99a7	0.05751958
6	0x3dbf68c4	0.09346154
7	0x3ca4ef0f	0.020133523
8	0xbc819f6a	-0.015823085
9	0xbd3ed652	-0.04659111
10	0x3bd2dbcd	0.0064348937
11	0x3dfd9810	0.12382519
12	0xbd27a208	-0.04092601
13	0x3d943aed	0.07237802
14	0x3da87ead	0.082272865
15	0xbc84b6ab	-0.016200384
16	0xbe171c5a	-0.14756909
17	0xbd1095b6	-0.035299025
18	0xbd20adbe	-0.039228193
19	0x3ccdabdc	0.025106363
20	0x3d91685c	0.07099983
21	0xbd68d9e5	-0.056848425
22	0x3d9a7584	0.075419456
23	0x3d26c97e	0.0407195
24	0xbdfaa139	-0.12237782
25	0x3e333389	0.17500128
26	0xbd936a12	-0.07197966
27	0xbd4187aa	-0.04724852
28	0x3e0dff27	0.13866864
29	0xbd789be2	-0.060695536
30	0xbddf6d7f	-0.109095566
31	0xbde45bb2	-0.11150302
32	0xbbc676ce	-0.006056643
33	0xb942381f	-0.00018522188
34	0x3d41bae3	0.04729737
35	0x3d3e9046	0.04652431
36	0xbd7f8081	-0.06237841
37	0x3e0e2f45	0.1388522
38	0xbd0b6e00	-0.03404045
39	0x3dcd8124	0.10034397
40	0xbd90d1bf	-0.07071256
41	0xbced5e22	-0.02897555
42	0xbe18baaa	-0.14914957
43	0xbd9e87e7	-0.07740765
44	0x3d3b915d	0.045792926
45	0xbd31cf5d	-0.043410648
46	0xbc823674	-0.015895106
47	0xbd3b6a31	-0.04575557
48	0xbdff2c96	-0.12459676
49	0xbc560ad6	-0.013064107
50	0xbbf9f836	-0.007628466
51	0x3dc4c525	0.09607915
52	0xbc380d4e	-0.011233641
53	0xbcccf593	-0.025019443
54	0xbd9725e4	-0.07380274
55	0xbd252e96	-0.04032763
56	0x3ce9f970	0.028561324
57	0xbd9fc1a4	-0.07800606
58	0xbd264279	-0.040590737
59	0x3a9bb0df	0.0011878273
60	0x3d0e09bb	0.03467725
61	0x3e7308e8	0.23733866
62	0xbdcd9a99	-0.10039253
63	0x3ddaa7c0	0.10676527
64	0x3e40c465	0.18824919
65	0x3d223880	0.039604664
66	0xbd69de7c	-0.057096943
67	0xbcebe2fd	-0.02879476
68	0x3d88c836	0.06678812
69	0x3e028eab	0.12749736
70	0xbd89c938	-0.067278326
71	0xbd1815a9	-0.03713003
72	0x3d2dd2d2	0.042437382
73	0xbdf0642f	-0.117378585
74	0xbddc01dd	-0.10742543
75	0xbc8b0f90	-0.016975194
76	0xbe4c358d	-0.19942303
77	0xbad0cae7	-0.001592961
78	0x3de0e30e	0.10980807
79	0x3d49e76c	0.049292967
80	0xbd97e0a9	-0.074158974
81	0x3d496983	0.04917289
82	0xbae2daf3	-0.0017307684
83	0x3dc88209	0.09790427
84	0x3ce0ee9e	0.027457532
85	0xbcdea495	-0.027178088
86	0xbdb31d27	-0.08745795
87	0xbcb2b572	-0.021815035
88	0xbb87bd45	-0.0041424357
89	0x3d0a1b68	0.033717543
90	0xbde45536	-0.11149065
91	0xbb8d8be5	-0.0043196552
92	0x3c11d75f	0.008901446
93	0xbd84ccd7	-0.064843826
94	0x3d69f651	0.05711967
95	0x3b8738ef	0.00412666
96	0xbbfac054	-0.007652322
97	0xbdb6240a	-0.08893593
98	0xbe120c57	-0.1426252
99	0x3dbc9595	0.09208218
100	0xbbb57a03	-0.0055382266
101	0x3e0873f4	0.13325483
102	0x3dce2c69	0.10067064
103	0x3d6e7813	0.05821998
104	0xbcc58013	-0.024108922
105	0xbd5d7f34	-0.05407639
106	0xbdf9663c	-0.12177703
107	0x3ca2c1e5	0.019867847
108	0x3c9d9520	0.019236147
109	0xbd639cf1	-0.055569593
110	0x3d9ca7b0	0.07649171
111	0xbcbeb1e5	-0.023278186
112	0x3d78d36b	0.0607485
113	0x3e131399	0.14362945
114	0x3dd33670	0.103131175
115	0x3dcdeb8e	0.10054694
116	0xbc1d2e8d	-0.009593618
117	0xbcaa6fcf	-0.020805268
118	0x3e413fb4	0.18871957
119	0xbe3db5c1	-0.18526365
120	0x3d85d4c5	0.06534723
121	0xbbb2bd96	-0.0054547293
122	0x3cf383e8	0.029725984
123	0x3d36bdeb	0.044614714
124	0x3d8f4945	0.06996397
125	0x3c8d85bc	0.017275684
126	0x3e1567c9	0.14590372
127	0x3ddebc09	0.108757086
128	0x3c96a0ff	0.018387316
129	0x3c0e8326	0.00869826
130	0xbdba880d	-0.09107981
131	0xbc9fafd1	-0.019493015
132	0xbe1d11bc	-0.15338796
133	0x3d82f0fc	0.0639362
134	0xbd24502f	-0.04011553
135	0xbc48544d	-0.01222713
136	0xbcf27cb1	-0.029600473
137	0xbe078d7c	-0.13237566
138	0xbcc4dbf7	-0.024030669
139	0xbd6d9ff8	-0.058013886
140	0xbe0282e0	-0.12745237
141	0xbce271aa	-0.02764209
142	0xbdfce287	-0.12347894
143	0x3e16a5a4	0.14711624
144	0xbe1caaef	-0.15299581
145	0x3e12404d	0.14282341
146	0xbdb31a2f	-0.087452285
147	0x3d07b5c6	0.033132337
148	0xbdda674a	-0.10664232
149	0x3c7f5e7f	0.0155864945
150	0x3d171b4c	0.036891267
151	0x3d8473a0	0.06467366
152	0x3ab5ccfa	0.0013870292
153	0x3d84e85b	0.06489631
154	0xbd18019b	-0.037110906
155	0x3d449787	0.04799607
156	0x3d1c7c60	0.03820455
157	0x3dced912	0.100999966
158	0x3d31933e	0.04335331
159	0x3bc2617a	0.0059320303
160	0x3ce00752	0.02734724
161	0xbe15abf0	-0.1461637
162	0x3ddc352e	0.10752331
163	0x3da161b1	0.07879961
164	0xbdcc09b8	-0.09962791
165	0x3d2ab20d	0.04167371
166	0xbaa69c17	-0.0012711313
167	0x3d80640c	0.062690824
168	0xbd0bd634	-0.034139827
169	0xbba4dbf2	-0.0050311023
170	0x3df38cb5	0.11892072
171	0xbd9b5afe	-0.07585715
172	0x3e175e65	0.14782102
173	0xbd382fa5	-0.044967312
174	0x3cf06ef5	0.029349783
175	0xbc37005a	-0.011169517
176	0xbdcd8906	-0.10035901
177	0xbc238294	-0.009979863
178	0xbd05ce93	-0.032667708
179	0x3d1aea85	0.03782131
180	0xbd8738bc	-0.06602618
181	0xbbbb56e5	-0.0057171457
182	0x3e640409	0.22267164
183	0xbb0175ca	-0.0019754046
184	0xbd700418	-0.058597654
185	0xbc6f29ea	-0.014597395
186	0x3d15a9f1	0.036539022
187	0x3ce75982	0.028240923
188	0xbd84c46c	-0.06482777
189	0xbd8d66f5	-0.06904403
190	0xbd993029	-0.07479889
191	0x3e46f1c8	0.1942817
192	0x3cb0b50e	0.021570709
193	0xbc48d9c8	-0.012258954
194	0xbdc939e4	-0.09825495
195	0xbd7a84b9	-0.06116173
196	0xbd88411c	-0.06653044
197	0x3e3113d8	0.17292726
198	0xbcade9d3	-0.02122966
199	0xbe2e2470	-0.17006087
200	0x3de9b619	0.114116855
201	0x3c3b68b2	0.0114385355
202	0xbd7ef2f3	-0.062243413
203	0x3e01ecc4	0.12687975
204	0x3d71108e	0.05885368
205	0xbd210631	-0.039312545
206	0x3e383adb	0.17991202
207	0xbdf7e02e	-0.12103306
208	0x3d7ad43f	0.06123757
209	0x3e0d718a	0.13812843
210	0xbe138a88	-0.14408314
211	0x3d9e43d7	0.07727783
212	0x3e0c77d8	0.13717592
213	0xbd98e5b8	-0.074656904
214	0xbd09b3d0	-0.03361875
215	0xbd260453	-0.040531468
216	0x3dd59f92	0.10430826
217	0x3e0422ba	0.12903872
218	0xbe1bba05	-0.1520768
219	0xbc463ccb	-0.012099455
220	0x3cbfc7f5	0.023410777
221	0xbe262f76	-0.16229042
222	0xbd549be0	-0.051906466
223	0xbe2a0731	-0.16604306
224	0xbe194f4e	-0.14971659
225	0xbe508fb6	-0.20367321
226	0xbdcfbed9	-0.10143823
227	0xbd3ecef8	-0.0465841
228	0xbd81c29e	-0.063359484
229	0x3e03b837	0.12863241
230	0xbddcca33	-0.10780754
231	0x3e166205	0.14685829
232	0xbd3f5dcf	-0.046720322
233	0xbe19a6d7	-0.1500505
234	0xbdb7ce39	-0.08974881
235	0x3b8a9bf1	0.0042300154
236	0x3e119aa2	0.14219144
237	0xbdb34579	-0.08753485
238	0x3d63d7ba	0.055625655
239	0xbdeb443f	-0.11487626
240	0x3caa4eaf	0.020789472
241	0xbcb0372f	-0.021510689
242	0xbdd6d6e5	-0.10490207
243	0x3dbd854e	0.092539415
244	0x3e08cc14	0.133591
245	0xbc96a12b	-0.018387398
246	0x3df4d431	0.11954535
247	0xbe36cf96	-0.17852625
248	0xbd70ec5d	-0.058819164
249	0x3d92f0e1	0.0717485
250	0xbdf2ca60	-0.11855006
251	0xbe14a397	-0.1451553
252	0x3c0df7d5	0.008665045
253	0x3de1f2ac	0.11032614
254	0x3d58dffb	0.05294798
255	0x3e2ce7e6	0.16885337

lstm.bn1.weight f4 [7]
0	0x3f856c9e	1.0423772
1	0x3f87178f	1.0554065
2	0x3f8c875a	1.0978806
3	0x3f810c62	1.0081904
4	0x3f6dd67f	0.9290542
5	0x3f686a74	0.90787435
6	0x3f74aaa1	0.9557286

lstm.bn1.bias f4 [7]
0	0x3c050369	0.008118489
1	0xbbf22e25	-0.0073907548
2	0x3d26537e	0.040606968
3	0x3d5212a4	0.05128731
4	0x3c926701	0.017871382
5	0x3ad03cb6	0.0015887234
6	0x3c9108d3	0.017704403

lstm.bn1.running_mean f4 [7]
0	0xbb836cb7	-0.0040107626
1	0xbb4e7c4c	-0.0031507192
2	0x3ad04fdc	0.001589294
3	0x3bec6528	0.007214207
4	0x3c4ab4c3	0.0123721985
5	0x3c8977a8	0.01678069
6	0x3ca621bb	0.020279756

lstm.bn1.running_var f4 [7]
0	0x3bb3065f	0.005463406
1	0x3c9f0bb6	0.019414764
2	0x3d276b77	0.04087397
3	0x3d885c6c	0.06658253
4	0x3dba5e5e	0.0910003
5	0x3de10575	0.10987369
6	0x3dfa48bc	0.12220904

lstm.lstm2.weight_ih_l0 f4 [256, 64]
0	0x3d43d6dd	0.04781233
1	0xbdcabf71	-0.09899796
2	0xbe58818c	-0.21143168
3	0xbd9e7ed4	-0.07739034
4	0x3d0f7f8c	0.035033748
5	0x3e709096	0.23492655
6	0xba289dd3	-0.0006432209
7	0x3de4e5e6	0.11176662
8	0x3dae6847	0.08515983
9	0x3db5b8ec	0.08873162
10	0xbd4c11d9	-0.04982171
11	0xbbb5b49b	-0.0055452115
12	0x3b5e05ed	0.0033878044
13	0xbd748457	-0.05969652
14	0x3d425cce	0.047451787
15	0xbe4b7ffc	-0.19873041
16	0xbe0c8a91	-0.13724734
17	0xbe04f65c	-0.12984604
18	0xbdd34da1	-0.10317541
19	0xbe0b626f	-0.13611768
20	0x3b92d24e	0.0044806367
21	0xbdfffc9e	-0.12499355
22	0x3a81d282	0.0009904655
23	0x3cbf4836	0.023349863
24	0xbd07bd55	-0.033139545
25	0xbe17c853	-0.14822511
26	0xbdacc7e0	-0.08436561
27	0x3e5545e5	0.20827444
28	0xbe086d33	-0.13322906
29	0x3da943af	0.08264863
30	0x3d4d1d45	0.05007674
31	0x3d3b889b	0.045784574
32	0xbc259aea	-0.010107735
33	0x3cc8bb12	0.024503265
34	0xbd7742b3	-0.060366344
35	0xbd5ccffe	-0.053909294
36	0xbcd538d1	-0.026028069
37	0xbdd5b86e	-0.10435568
38	0xbdc9f8ce	-0.09861909
39	0xbea2aa05	-0.3177034
40	0xbda9ee8f	-0.082974546
41	0xbdcbeb47	-0.09956985
42	0x3cc8b7ec	0.024501763
43	0xbd4a0d43	-0.049329054
44	0x3c892ad9	0.016744064
45	0x3dac3c1d	0.08409903
46	0xbd56de22	-0.052457936
47	0xbd8bdb92	-0.06828989
48	0xbda8d1fb	-0.082431756
49	0x3d8c9ce9	0.06865866
50	0xbc8d647a	-0.017259825
51	0x3d151e55	0.03640588
52	0x3c870a36	0.016484361
53	0x3d5e4db6	0.05427333
54	0xbc531095	-0.012882371
55	0x3d3148d1	0.043282334
56	0xbd1ba44c	-0.037998483
57	0xbe13e008	-0.1444093
58	0xbe345f90	-0.17614579
59	0xbd782a2b	-0.06058709
60	0xbd8d2ec4	-0.068936855
61	0x3d82c972	0.06386079
62	0x3b975388	0.004618112
63	0xbe30dea0	-0.17272425
64	0xbd094b03	-0.033518802
65	0x3d803d4d	0.06261692
66	0x3de5e4a1	0.11225248
67	0x3dc44c4b	0.09584864
68	0xbd893e42	-0.06701328
69	0x3c7c1119	0.015384936
70	0x3d4fcdae	0.05073326
71	0x3d0fe0e5	0.035126586
72	0xbdfb5e64	-0.12273863
73	0x3d07580c	0.033042952
74	0xbddb3fba	-0.10705514
75	0xbcf251fe	-0.029580113
76	0x3e1cdbbd	0.15318199
77	0xbdd63598	-0.10459441
78	0xbd1bd31c	-0.038043126
79	0xbd5c579d	-0.053794492
80	0x3da79f7b	0.08184715
81	0xbd834960	-0.064104795
82	0x3cfc944a	0.030832428
83	0xbd8cd0e1	-0.06875778
84	0xbe1be067	-0.15222321
85	0xbdb8a547	-0.09015899
86	0xbd3f8e41	-0.046766523
87	0xbd5e8af2	-0.054331727
88	0x3e0cdd40	0.13756275
89	0x3da8e8ea	0.0824755
90	0xbda5f061	-0.08102489
91	0x3d16c744	0.03681113
92	0x3d06d606	0.032918952
93	0xbe2eb548	-0.17061341
94	0x3ddcb4d8	0.10776681
95	0xbd96e8f3	-0.0736865
96	0xbc44e3b1	-0.0120171765
97	0x3d291aab	0.0412852
98	0xbc5f30c7	-0.013622469
99	0x3c42db4c	0.011893105
100	0xbda8d909	-0.08244521
101	0xbda42cf8	-0.080163896
102	0xbd83cee8	-0.064359486
103	0xbca41abe	-0.020032283
104	0xbdc64345	-0.096807994
105	0x3cb30fdf	0.021858154
106	0x3dcfa59a	0.10139008
107	0x3d8021db	0.062564574
108	0xbd8cb82a	-0.06871064
109	0xbd96c2ad	-0.0736135
110	0xbd2ba2e6	-0.0419034
111	0xbc90ab76	-0.017659884
112	0xbcb03a35	-0.02151213
113	0x3d5a3315	0.053271372
114	0xbe145708	-0.14486325
115	0xbae08f31	-0.0017132518
116	0x3ca205f0	0.019778222
117	0x3bcea392	0.00630612
118	0x3dae21ab	0.085025154
119	0xbdaae4fb	-0.08344456
120	0xbdc35c1b	-0.09539052
121	0x3daf45da	0.08558245
122	0x3d4df58d	0.050283004
123	0x3ce92b98	0.02846317
124	0xbd5ed767	-0.054404642
125	0x3d361b07	0.04445937
126	0xbda0058b	-0.07813557
127	0xbd3a7a50	-0.045526803
128	0xbd047865	-0.03234138
129	0xbe18f41a	-0.14936867
130	0xbdd3ff58	-0.10351437
131	0xbd9c60d3	-0.07635655
132	0xbd2e17ea	-0.042503275
133	0xbd85c6b7	-0.065320425
134	0x3d868b51	0.06569541
135	0xbc53d00b	-0.012928019
136	0x3e0440ec	0.1291539
137	0x3d8e4fc4	0.06948808
138	0xbcf4d80f	-0.029888181
139	0x3d646fac	0.05577056
140	0x3d270f0e	0.04078584
141	0x3d7f8351	0.062381092
142	0x3df76a06	0.12080769
143	0xbb977864	-0.004622506
144	0xbc234d2b	-0.009967129
145	0xbc0f0c5c	-0.008730974
146	0x3d2e75d5	0.042592842
147	0xbdba0108	-0.09082228
148	0xbc3c5538	-0.011494927
149	0xbd5ed862	-0.054405577
150	0xbe229684	-0.1587773
151	0xbc9a3a1f	-0.018826542
152	0xbde4b644	-0.11167577
153	0xbd7aa2d1	-0.06119043
154	0x3d899776	0.06718342
155	0xbdc85ac1	-0.09782935
156	0xbe203249	-0.15644182
157	0x3d39ae03	0.045331966
158	0xbe2201b2	-0.15820959
159	0x3d85cc6d	0.06533132
160	0xbd4181bb	-0.04724286
161	0xbd1d31f8	-0.038377732
162	0x3d825d67	0.06365471
163	0xbde1e436	-0.11029856
164	0xbd91f221	-0.071262605
165	0x3d860e68	0.065457165
166	0x3d958625	0.07300977
167	0xbd062e34	-0.032758906
168	0x3df0563d	0.11735199
169	0xbd5dd04a	-0.054153718
170	0xbda9a193	-0.08282771
171	0xbd9beca7	-0.07613497
172	0x3d0f8393	0.03503759
173	0x3e24c0a0	0.16089106
174	0xbd8bf498	-0.06833762
175	0xbd156a2b	-0.036478203
176	0xbe082383	-0.13294797
177	0xbcd7c947	-0.026341094
178	0x3ccd9bd6	0.025098722
179	0xbce806d4	-0.028323568
180	0xbd25f186	-0.040513538
181	0x3d0b1054	0.03395112
182	0x3c4fa8de	0.012674538
183	0xbdcf4ab3	-0.101216696
184	0xbd3f0e5e	-0.04664456
185	0x3cdd3c1c	0.027006201
186	0xbbd6307a	-0.0065365406
187	0xbdcf3d9e	-0.101191744
188	0xbd86f897	-0.065903835
189	0x3d9654e7	0.073404126
190	0x3dbfb5c7	0.09360843
191	0xbc5dde26	-0.013541734
192	0x3d814a65	0.06313018
193	0x3d7018d9	0.058617447
194	0xbd906b76	-0.070517465
195	0xbe09507a	-0.13409606
196	0xbda23ae4	-0.07921389
197	0x3e61f22c	0.22065037
198	0x3e065295	0.1311744
199	0xbdbb85f4	-0.09156409
200	0xbe06f8b0	-0.13180804
201	0x3c889e43	0.016677028
202	0x3e4c17f1	0.19931008
203	0x3e38509d	0.17999502
204	0xbd6d61fa	-0.057954766
205	0xbc58d825	-0.013235127
206	0x3de7e846	0.113235995
207	0x3d3e5f47	0.046477582
208	0xbd6f80ea	-0.05847255
209	0xbdae5ccc	-0.08513793
210	0xbdd42986	-0.103594825
211	0xbc164a61	-0.009173007
212	0x3e1f8f0a	0.15581909
213	0x3d690762	0.056891806
214	0xbe0f961c	-0.14022106
215	0x3dc06197	0.09393614
216	0xbd86cc23	-0.06581905
217	0xbe159f5e	-0.14611575
218	0xbdb40d05	-0.08791546
219	0x3c842560	0.016131103
220	0x3d3a67d3	0.04550917
221	0x3dbc1a43	0.091846965
222	0xbc4f497f	-0.0126518
223	0xbdb949fc	-0.090473145
224	0xbd4fd936	-0.050744258
225	0x3d911662	0.07084347
226	0xbd4cc545	-0.04999282
227	0xbe0b25f4	-0.13588697
228	0x3e3d0101	0.18457414
229	0xbc49963e	-0.012303887
230	0x3cc79592	0.024363313
231	0xbd11b4c9	-0.0355728
232	0xbdfbb0f8	-0.122896135
233	0xbe3ffaea	-0.1874806
234	0xbdbb9ed1	-0.09161151
235	0xbe592f60	-0.21209478
236	0x3db4c29e	0.08826183
237	0x3d5d1e12	0.053983755
238	0x3cbd1d7c	0.023085348
239	0x3c7608a2	0.015016707
240	0x3cb6b36b	0.02230235
241	0xbca4694f	-0.020069746
242	0x3dc7e271	0.09759987
243	0x3e0e7c9a	0.13914719
244	0xbd0d3943	-0.034478437
245	0x3d51c223	0.051210534
246	0xbdcde846	-0.10054068
247	0x3a98bc9b	0.0011652888
248	0x3d0772a7	0.033068325
249	0xbd9c19f2	-0.07622136
250	0x3b1520bf	0.0022755114
251	0x3b423b41	0.002963737
252	0xbc524a4e	-0.012835098
253	0x3cc3b3cf	0.02388945
254	0x3ce5d0d1	0.028053673
255	0xbd36cac9	-0.044626985

lstm.lstm2.weight_hh_l0 f4 [256, 64]
0	0x3d5d339d	0.0540043
1	0xbc0fd8c1	-0.0087797055
2	0xbc706823	-0.014673266
3	0x3d1e250f	0.03860956
4	0x3d9b9f9a	0.07598801
5	0xbda8a993	-0.08235469
6	0xbc660299	-0.014038705
7	0xbdf87a46	-0.12132697
8	0xbd5ec668	-0.054388434
9	0x3d8bf3e0	0.06833625
10	0x3bedf9ec	0.007262459
11	0xbc9c0323	-0.019044464
12	0xbdd41bec	-0.10356888
13	0xbde976bc	-0.113996
14	0xbd2fe640	-0.042944193
15	0x3a8487c3	0.0010111261
16	0x3dbdf51e	0.09275268
17	0xbd0d2106	-0.03445532
18	0x3d737b44	0.059443727
19	0xbe04fc62	-0.12986901
20	0x3e518163	0.20459513
21	0xbd2f1657	-0.042745914
22	0x3d6e8e8b	0.05824141
23	0x3c987000	0.018608093
24	0xbe1ee91c	-0.15518612
25	0xbc8ef6e1	-0.017451705
26	0xbdafcd21	-0.08584047
27	0x3d41a1f3	0.047273587
28	0xbc96b31b	-0.018395951
29	0xbc35b7da	-0.011091197
30	0xbd173741	-0.03691793
31	0xbbed8021	-0.00724794
32	0xbdd6bb11	-0.10484899
33	0xbd963ba3	-0.073355936
34	0xbd4a68ca	-0.04941634
35	0xbd74025f	-0.059572574
36	0xbda8e75a	-0.08247252
37	0x3e060465	0.13087614
38	0x3dbcac8c	0.09212598
39	0xbd6ecf6c	-0.05830328
40	0x3dddcb1a	0.10829754
41	0xbc28cd3e	-0.01030284
42	0xbc0d4304	-0.008621935
43	0xbb11f3fe	-0.0022270675
44	0xbe289df0	-0.16466498
45	0xbda9efb5	-0.082976736
46	0xbdc02494	-0.09381977
47	0x3cc721c1	0.024308087
48	0x3df280b1	0.11840952
49	0xbdef1073	-0.11673059
50	0xbdf733fc	-0.12070462
51	0xbdc0d170	-0.09414947
52	0xbaff87cd	-0.0019495428
53	0xbc970d55	-0.018438974
54	0xbd86106f	-0.06546103
55	0xbd46bb47	-0.048518445
56	0xbd80adcc	-0.06283149
57	0xbc9f7b28	-0.019467905
58	0x3d996a66	0.07490997
59	0x3d33d49b	0.04390393
60	0x3da39eec	0.07989296
61	0x3dc12364	0.09430578
62	0xbe2e0f53	-0.16998033
63	0x3cc0e964	0.02354879
64	0x3db352f0	0.087560534
65	0xbbf7e7a5	-0.007565456
66	0x3d5a537f	0.053302284
67	0x3db6a6dd	0.089185454
68	0xbd9b8052	-0.075928345
69	0xbdae1113	-0.084993504
70	0x3e453fbb	0.19262592
71	0x3daf583d	0.08561752
72	0x3d990486	0.07471566
73	0x3c9f806f	0.019470422
74	0xbdad1dfb	-0.08452984
75	0xbdaee330	-0.08539426
76	0xbde41adb	-0.11137935
77	0xbde07b2b	-0.109609924
78	0xbd04fc65	-0.032467265
79	0x3cdf507e	0.027260061
80	0x3df59299	0.11990852
81	0xbd443093	-0.047897886
82	0xbde2ff82	-0.110838905
83	0x3d26297f	0.040566918
84	0xbbf2d44c	-0.0074105617
85	0xbdb958c6	-0.09050135
86	0xbb875ed7	-0.004131179
87	0x3dc9b458	0.09848851
88	0x3deda15e	0.11603044
89	0x3dce806d	0.10083089
90	0xbcc5b040	-0.024131894
91	0x3c979f1b	0.018508485
92	0xbd77ec89	-0.060528312
93	0xbe188144	-0.14893061
94	0x3bf5869c	0.0074928533
95	0x3e2a4c20	0.16630602
96	0x3c8e8ccd	0.017401123
97	0x3b8271b5	0.00398084
98	0xbd3c694d	-0.04599886
99	0x3d98b92c	0.07457194
100	0x3d55abd0	0.052165806
101	0x3da8da0b	0.082447134
102	0xbcfa05b7	-0.030520303
103	0xbd19a40d	-0.037509967
104	0xbde332bc	-0.11093661
105	0x3c4b138a	0.012394795
106	0xbd53fe2e	-0.051756077
107	0xbd432017	-0.047638025
108	0xbddcde22	-0.10784556
109	0xbce5791e	-0.028011855
110	0xbcb2337c	-0.021753065
111	0xbe129a2a	-0.14316621
112	0xbda61bc9	-0.08110768
113	0x3e2eaa66	0.1705719
114	0x3db2191c	0.086961955
115	0x3d3048bf	0.043038126
116	0xbd796948	-0.06089142
117	0xbdc9a250	-0.09845412
118	0xbcef806a	-0.029236037
119	0x3da1e8e5	0.07905749
120	0x3ca3afce	0.019981291
121	0xbd580674	-0.05274053
122	0x3dc5f728	0.09666282
123	0x3dea1fdf	0.1143186
124	0x3d6d291e	0.05790054
125	0xbe2a70c3	-0.16644578
126	0xbca505fa	-0.020144451
127	0x3d59591e	0.053063504
128	0xbe0eda4d	-0.13950463
129	0x3c0b6135	0.008507063
130	0xbcb73dd1	-0.022368344
131	0xbdf85462	-0.1212547
132	0xbd94062f	-0.07227742
133	0xbc6a3dc3	-0.014296952
134	0xbd21a418	-0.039463133
135	0xbe48ba28	-0.19602263
136	0x3e1408b3	0.14456443
137	0x3db67e70	0.08910835
138	0x3dad5221	0.084629305
139	0x3c2bfec0	0.010497749
140	0x3d60fc1d	0.054927934
141	0xbc4b909b	-0.012424613
142	0x3d2e5839	0.042564604
143	0xbe0c5a8a	-0.13706413
144	0xbc65c028	-0.014022864
145	0xbcddb03d	-0.027061576
146	0xbdcc7341	-0.099829204
147	0x3c8398e0	0.016064107
148	0xbd84f9d4	-0.064929634
149	0x3cc64c12	0.024206195
150	0xbdbbe023	-0.0917361
151	0x3ce0f214	0.027459182
152	0xba9416b3	-0.0011298269
153	0xbdfa02f5	-0.12207595
154	0xbd2c5406	-0.04207232
155	0xbda074fb	-0.07834812
156	0x3e2cdc85	0.16880997
157	0xbd6bff30	-0.057616413
158	0x3dd67397	0.10471266
159	0xbd1a6d9e	-0.037702195
160	0xbe0596bd	-0.13045783
161	0x3d9a669e	0.07539104
162	0x3c6c0229	0.014404812
163	0xbcded002	-0.027198795
164	0x3d7b6874	0.06137891
165	0x3d82fc60	0.06395793
166	0x3deaf3ac	0.11472258
167	0xbaaf8ec9	-0.0013393994
168	0x3e06530b	0.13117616
169	0xbd9c0b96	-0.07619397
170	0xbddf2196	-0.10895078
171	0xbdf80049	-0.121094294
172	0xbd861a62	-0.06548001
173	0x3e63d0f3	0.22247677
174	0x3c65ec36	0.014033368
175	0xbe14e0d3	-0.14538889
176	0x3b277005	0.0025548947
177	0xbe0ed484	-0.13948256
178	0xbd72ea8f	-0.059305724
179	0xbd865162	-0.06558491
180	0x3d7bc192	0.0614639
181	0xbd8958e5	-0.067064084
182	0x3d8c8aa2	0.068623796
183	0x3d50a694	0.05094011
184	0x3d958c14	0.073021084
185	0xbe0b2ef3	-0.13592128
186	0x3c64b9ec	0.013960343
187	0x3e310c68	0.17289889
188	0x3d8334dd	0.06406567
189	0xbcd8ced5	-0.026465813
190	0xbe601acf	-0.21885227
191	0x3b5fe3a2	0.003416278
192	0x3e04bbff	0.1296234
193	0x3e0840c8	0.13305962
194	0x3b8a78cd	0.0042258264
195	0x3d76a46e	0.060215406
196	0xbc22deba	-0.009940797
197	0xbd65d974	-0.056115583
198	0xbe339096	-0.17535624
199	0xbe067741	-0.1313143
200	0x3da22163	0.07916524
201	0xbc849730	-0.016185373
202	0xbd4e933b	-0.05043338
203	0x3d49d876	0.0492787
204	0x3da3c6ae	0.079968795
205	0x3c591224	0.013248954
206	0x3dd8ffec	0.10595688
207	0xbd83b2bb	-0.064305745
208	0xbdb2cb43	-0.08730175
209	0xbd96718e	-0.073458776
210	0xbdc6cd2c	-0.09707102
211	0xbd3179db	-0.0433291
212	0x3dd197d6	0.102340385
213	0x3e08ed1a	0.13371697
214	0x3de9a6fe	0.11408804
215	0xbcfcc60f	-0.03085616
216	0xbdab66cb	-0.083692156
217	0xbdf28054	-0.11840883
218	0xbd996be6	-0.07491283
219	0xbe36f00a	-0.17865005
220	0xbdd298e6	-0.10283069
221	0xbbe3fafe	-0.006957411
222	0xbe0c6a89	-0.13712515
223	0xbb3696f7	-0.0027860978
224	0x3e089ff8	0.13342273
225	0xbc11094a	-0.008852312
226	0x3d5f6237	0.054537024
227	0x3ccd4c58	0.025060818
228	0xbdf9f843	-0.12205555
229	0x3d044b4e	0.03229838
230	0x3e0933a0	0.133986
231	0xbd8eb7ca	-0.06968649
232	0x3e252f3a	0.16131297
233	0x3da18c92	0.0788814
234	0x3bb1ea54	0.0054295454
235	0xbdcf3549	-0.10117585
236	0xbd71efeb	-0.059066694
237	0xbe0c5824	-0.13705498
238	0x3e153bd5	0.14573605
239	0xbcf357fb	-0.029705038
240	0x3d6f8d13	0.05848415
241	0x3d34c374	0.04413171
242	0xbe43ce56	-0.1912168
243	0xbdd1c344	-0.10242322
244	0xbcb88897	-0.022526069
245	0xbde26e0c	-0.11056146
246	0x3d6ec9c6	0.058297895
247	0xbd14d421	-0.036335114
248	0x3de5faa0	0.112294436
249	0x3db4eb27	0.08833914
250	0xbdd11ab6	-0.10210173
251	0x3cc35cc8	0.023847952
252	0xbdda2662	-0.10651852
253	0x3df7ec0d	0.1210557
254	0xbd41366c	-0.04717104
255	0x3df55d6f	0.11980712

lstm.lstm2.bias_ih_l0 f4 [256]
0	0xbe180625	-0.14846094
1	0x3cf3b5ed	0.029749835
2	0x3d84a99b	0.06477662
3	0x3d37140b	0.04469685
4	0xbc0fbf87	-0.008773691
5	0xbde50062	-0.11181714
6	0x3dd08305	0.1018124
7	0xbce6d0e3	-0.028175777
8	0x3d83d5dc	0.06437275
9	0xbd498f92	-0.049209185
10	0x3d82e9ea	0.06392272
11	0xbcffcc2e	-0.03122529
12	0xbe005654	-0.12532932
13	0xbe08958d	-0.13338299
14	0x3dc353d9	0.09537477
15	0xbd9bbdd4	-0.07604566
16	0x3dc7b1e2	0.09750725
17	0x3d781258	0.06056437
18	0xbc968418	-0.018373534
19	0x3dea3409	0.11435706
20	0xbdad490c	-0.08461198
21	0x3cf3f479	0.02977966
22	0x3c7509aa	0.014955917
23	0xbde6e0f1	-0.11273373
24	0x3d027caa	0.03185717
25	0x3d8b0848	0.06788689
26	0x3dc5f885	0.09666542
27	0xbda56d1c	-0.080774516
28	0x3dc51971	0.09623993
29	0x3df2ecf0	0.118615985
30	0x3e0bf727	0.136685
31	0x3ca5cb64	0.020238586
32	0x3db867dc	0.090041846
33	0x3d87ea87	0.066365294
34	0x3ca40c10	0.020025283
35	0x3d838c4d	0.064232446
36	0xbdb249af	-0.0870546
37	0xbcdf2cd0	-0.027243048
38	0x3d0d71bf	0.034532305
39	0xbd2af3e1	-0.041736487
40	0xbd8c0cc5	-0.06838373
41	0xbdc7d7f2	-0.09757985
42	0xbde95703	-0.11393549
43	0xbe524aee	-0.20536396
44	0xbcd7d1db	-0.026345184
45	0x3c8eedf1	0.017447444
46	0xbd4acf46	-0.049514078
47	0xbd9881b7	-0.07446616
48	0xbca81b2b	-0.020520767
49	0x3e08532f	0.13312982
50	0xbd33cb7e	-0.043895237
51	0x3dfc8951	0.123308785
52	0x3dc17c2d	0.09447513
53	0x3dc9bf40	0.09850931
54	0x3d811f20	0.06304765
55	0x3d4b8a00	0.049692154
56	0x3db415b4	0.08793202
57	0x3d2f4dcd	0.042798806
58	0xbb8d211e	-0.0043069264
59	0x3c8cf2b6	0.017205577
60	0xbe3face0	-0.1871829
61	0xbbe4d24f	-0.0069830786
62	0x3e034be1	0.12821914
63	0x3d3a1822	0.04543317
64	0xbd2db5bf	-0.042409655
65	0xbdb44590	-0.088023305
66	0x3d84f635	0.06492273
67	0x3d8840cf	0.06652986
68	0x3cf98961	0.030461015
69	0xbd252085	-0.040314216
70	0x3ddebea1	0.10876203
71	0xbdfb60ff	-0.1227436
72	0x3dce36ae	0.10069023
73	0xbcca204a	-0.0246736
74	0x3d806064	0.06268385
75	0x3e1202a9	0.14258827
76	0xbd99c3fe	-0.07508086
77	0x3d2b8504	0.0418749
78	0xbd6829a2	-0.05668033
79	0xbdab7767	-0.083723836
80	0xbdc18a03	-0.09450152
81	0xbe09336b	-0.1339852
82	0x3d87bbaf	0.06627595
83	0x3e25294c	0.16129035
84	0x3d7ddf1b	0.061980348
85	0x3e131f22	0.14367345
86	0xbd94ba3f	-0.07262086
87	0xbe3eaa56	-0.18619666
88	0x3e100654	0.14064914
89	0x3cf1f0a7	0.029533697
90	0x3c561c10	0.013068214
91	0x3d9a32f5	0.075292505
92	0x3e101bd7	0.1407312
93	0xbe13ade9	-0.1442181
94	0x3d20144e	0.039081864
95	0xbe0c8e02	-0.13726047
96	0x3d01f9d9	0.031732414
97	0x3a75751b	0.00093634584
98	0xbc4cdf25	-0.012504374
99	0x3dc1ff4e	0.09472524
100	0xbc6cb856	-0.014448246
101	0x3d53b7d0	0.05168897
102	0xbdbd0378	-0.09229177
103	0x3d16933f	0.03676152
104	0x3c284e4a	0.010272572
105	0xba5380a4	-0.000806818
106	0xbd38bcbe	-0.045101874
107	0xbd44e2a4	-0.048067704
108	0x3cc3a93d	0.02388441
109	0xbb5b58f0	-0.003346976
110	0xbd965851	-0.07341064
111	0xbde11ee3	-0.10992219
112	0xbd420426	-0.047367238
113	0x3d46d2dd	0.04854094
114	0x3dc3df26	0.095640466
115	0x3dcb26b5	0.09919492
116	0xbd0b275f	-0.033973094
117	0xbbf4763b	-0.007460383
118	0xbe30e839	-0.17276086
119	0x3e31594d	0.17319222
120	0xbda41bae	-0.08013092
121	0x3d19078a	0.037360705
122	0xbca5f850	-0.020260006
123	0x3d4830d9	0.04887471
124	0xbd714746	-0.058905862
125	0x3da6c77b	0.08143517
126	0x3c58c0df	0.013229578
127	0x3da3d686	0.079999015
128	0x3d94d855	0.072678246
129	0xbdcecfd9	-0.100982375
130	0x3dd29523	0.10282352
131	0x3d5395b3	0.051656436
132	0x3b4e8bc5	0.0031516415
133	0xbde425b4	-0.11140004
134	0x3b077e23	0.0020674549
135	0xbd987700	-0.074445724
136	0xbc47ac32	-0.012187051
137	0xbdc039de	-0.09386037
138	0x3d1702e4	0.03686799
139	0x3d9deb50	0.07710898
140	0xbdc949d5	-0.098285355
141	0xbd746725	-0.05966868
142	0xbaf361b7	-0.001856855
143	0x3dced9b8	0.1010012
144	0x3b450f4a	0.0030068927
145	0x3c822602	0.015887264
146	0xbba246f3	-0.0049523055
147	0x3e06e9b1	0.13175084
148	0x3d424b8f	0.04743534
149	0xbbacb272	-0.005270296
150	0x3dc6d64b	0.09708842
151	0x3da70857	0.081558876
152	0x3d8f2395	0.069892086
153	0x3e46e865	0.19424589
154	0x3e1bb2a0	0.15204859
155	0x3d390a41	0.045175795
156	0xbd73ef75	-0.059554536
157	0x3bba90c9	0.0056935293
158	0x3cdbd5f1	0.026835414
159	0x3d4adef6	0.04952904
160	0x3d87a680	0.06623554
161	0xbca0be35	-0.019621948
162	0x3dd93991	0.10606683
163	0xbdc26c9d	-0.094933726
164	0x3d1eb921	0.03875077
165	0x3d93d634	0.072185904
166	0x3dc0fdf5	0.094234385
167	0xbdf124c2	-0.11774589
168	0xbde62288	-0.11237055
169	0xbdc3459c	-0.09534761
170	0xbde0ec37	-0.109825544
171	0x3dc4d293	0.09610476
172	0xbd5ea370	-0.054355085
173	0x3de9c93c	0.114153355
174	0x3cc5d182	0.024147753
175	0x3dbf504a	0.09341486
176	0x3da5d54a	0.08097322
177	0x3e468de7	0.19390069
178	0x3ccab59c	0.024744801
179	0x3dbc490a	0.091936186
180	0x3c6b5184	0.014362697
181	0x3d2af6a3	0.041739117
182	0xbe12300a	-0.14276138
183	0xbdc9eb60	-0.09859347
184	0xbe197086	-0.1498433
185	0xbd686437	-0.056736197
186	0xbd65cec5	-0.056105394
187	0x3c71ebfc	0.014765736
188	0x3d8befc8	0.06832844
189	0xbb9b293b	-0.0047351397
190	0x3d6d8895	0.057991583
191	0xbe4afd2e	-0.19823143
192	0xbe3eaaeb	-0.18619888
193	0x3d6d5189	0.057939086
194	0x3db6ffe3	0.08935525
195	0x3bcdbcc8	0.006278608
196	0xbe55308b	-0.20819299
197	0x3dd8249b	0.10553857
198	0x3ddcbad1	0.1077782
199	0xbd1a46db	-0.03766523
200	0xbbe92e11	-0.0071160872
201	0xbe3d708d	-0.18499966
202	0xbd9b16b4	-0.0757269
203	0x3d93eb1e	0.072225794
204	0x3d6f2486	0.05838444
205	0x3d83939a	0.06424637
206	0xbd41f9da	-0.047357418
207	0xbd6f5f8e	-0.058440737
208	0xbd0a7e0b	-0.03381161
209	0xbdb15b75	-0.08660022
210	0xbd437485	-0.047718544
211	0x3e1dbd52	0.15404251
212	0xbdbfdb4a	-0.09367998
213	0x3cf46bb5	0.029836515
214	0x3d2da8b3	0.042397212
215	0x3d08e332	0.033419795
216	0x3d04d7aa	0.032432236
217	0x3e03dd8c	0.12877482
218	0x3e18aa49	0.14908709
219	0x3d938646	0.07203345
220	0x3d79801e	0.060913198
221	0xbdf9b573	-0.12192812
222	0x3cdba2b7	0.026810987
223	0x3c1363c2	0.008995952
224	0x3d1713e7	0.036884215
225	0x3da71782	0.08158781
226	0xbe38df70	-0.18053985
227	0xbce15794	-0.02750758
228	0xbd96ce61	-0.073635824
229	0x3d904bf2	0.070457354
230	0xbda63f90	-0.08117592
231	0xbd05ddec	-0.032682344
232	0x3d7e8f10	0.062148154
233	0xbde3c486	-0.11121468
234	0xbe011d42	-0.12608817
235	0xbcbd69a6	-0.023121666
236	0xbd3c0a0c	-0.04590802
237	0xbd8b4425	-0.06800107
238	0xbdc56714	-0.09638801
239	0xbd844179	-0.064578004
240	0x3daaa1b7	0.08331626
241	0x3a43f9df	0.00074758934
242	0x3d14e9e1	0.036355857
243	0x3daffa5d	0.08592675
244	0xbc030a8c	-0.00799812
245	0x3d6281ab	0.055299442
246	0xbe071495	-0.13191445
247	0x3d316d33	0.04331703
248	0x3d729d77	0.0592322
249	0x3df2f552	0.118631974
250	0x3e1f2721	0.1554227
251	0xbda0157e	-0.07816599
252	0xba7e2724	-0.00096951635
253	0xbdb4051d	-0.08790038
254	0x3e0b33e5	0.13594015
255	0x3e0544e1	0.13014556
