073123/0810hoxyhoxy3.pth (torch, 644637 bytes, 40 tensors)

lstm.lstm1.weight_ih_l0 f4 [256, 12]
000000 97 6e e6 3d f7 30 5b 3d 3d 27 6f 3d 92 1a 96 bd
       0.11251562 0.053513493 0.05838703 -0.07329287
000010 4a 7e d0 3d 9d 78 c2 3d e6 89 02 3e 87 bc cd bc
       0.10180338 0.094956614 0.12747917 -0.02511431
000020 e3 f8 37 3e 08 fd 4d 3c a1 ee 02 3e da f8 0f bf
       0.17966036 0.012572534 0.12786342 -0.5623909
000030 d0 41 17 be 6c 39 56 be ac b5 08 bc d1 08 00 be
       -0.14771199 -0.20920342 -0.008344095 -0.12503363
000040 86 de 1b be 40 28 9b bd 37 8f 50 be b5 e3 46 be
       -0.15221605 -0.075760365 -0.20367132 -0.19422801
000050 a0 7f 42 bc 8a 41 55 bd 64 19 71 bd e8 4f 5e bf
       -0.0118712485 -0.052064456 -0.058862105 -0.8684068
000060 e6 97 e0 bd e6 78 53 be 32 f9 ad be ed f8 4f be
       -0.10966472 -0.20651588 -0.33979183 -0.20309801
000070 31 7e f6 be 49 7e b5 bd fd a5 ac bd 08 13 49 be
       -0.4814315 -0.088619776 -0.08430097 -0.19636166
000080 af 8a 06 be 78 c4 2c bd 11 07 26 be 5e bb 34 be
       -0.13138841 -0.042179555 -0.16213633 -0.176496
000090 1f d8 2a be 3e de c6 bd 98 56 eb be 15 e0 04 be
       -0.16684006 -0.09710358 -0.45964503 -0.12976106
0000a0 30 57 96 be a2 6f 91 be 63 63 2f be 78 7f 5d be
       -0.29363394 -0.28405482 -0.17127757 -0.21630657
0000b0 f2 44 cd bd 40 b2 c7 bd c0 83 2e be 74 0c ce be
       -0.10022916 -0.09750795 -0.17042446 -0.40243876
0000c0 40 d3 07 3d c1 17 0c 3d 9a 76 3e 3d b2 88 ff 3c
       0.033160448 0.03420234 0.046499826 0.031193111
0000d0 ff d6 46 3d 90 25 67 3d f4 ac e2 bd 4e 1e a4 bd
       0.04854488 0.056432307 -0.110681444 -0.08013593
0000e0 8e c9 9e 3c bb d7 a4 bd 14 08 c3 3c 7a d0 01 3e
       0.019383218 -0.0804896 0.023807563 0.12677184
0000f0 29 05 7b bc b2 bd 20 bd eb fd 4b be 02 5b a7 bd
       -0.0153210545 -0.039243408 -0.19921081 -0.08171655
000100 74 81 8b be 66 d1 9b bd dc 68 13 bc bb bd 2a be
       -0.27247202 -0.07608299 -0.008997168 -0.16673939
000110 d6 8f f1 bc eb 74 20 3d 66 f3 35 be 44 08 6d be
       -0.029487532 0.039174 -0.1776863 -0.23147684
000120 58 34 9e 3d a8 70 7b bd d8 48 e6 bd 24 f6 de bd
       0.077248275 -0.061386734 -0.112443626 -0.10886791
000130 5d a1 e0 bd d6 df 0a 3d a6 fc 02 bd 82 98 41 bd
       -0.109682776 0.033904873 -0.031979226 -0.047264583
000140 78 c0 b8 bd 23 45 01 be e9 49 33 bd f5 f6 ba be
       -0.090210855 -0.1262403 -0.043771658 -0.36516538
000150 a1 d2 83 3d bd 60 fd bd e4 3a 3a 3d 86 d7 ab bd
       0.06436659 -0.12371967 0.04546632 -0.08390717
000160 72 44 1d be b1 55 a2 bd 79 10 38 3e e8 48 1d 3e
       -0.15358141 -0.079265006 0.17975034 0.15359843
000170 40 67 2f 3e f7 ca 44 bc 3f e8 ba bc b1 46 d0 3e
       0.1712923 -0.012011281 -0.022815822 0.40678933
000180 2e 65 1c be 89 f3 ea bd 68 f7 8c be 05 9c 1a be
       -0.15272972 -0.11472232 -0.27532506 -0.15098579
000190 4f 20 69 be 57 1e 42 bd cf 1d 79 be 45 7e 45 be
       -0.22766231 -0.047392216 -0.24327777 -0.19286449
0001a0 e4 54 de bc 0b 28 e7 bc b8 88 96 bd d0 81 01 be
       -0.027140088 -0.028217336 -0.07350296 -0.12647176
0001b0 44 3d ce bd fa 8d e0 bc ba 8f 62 bb c3 03 89 bd
       -0.10070279 -0.02741145 -0.003457053 -0.066901706
0001c0 2d ca 83 bd 9f 5c 09 bc 29 bd 26 3e b5 4d e8 3d
       -0.06435046 -0.008383899 0.16283096 0.113429464
0001d0 fc 27 cf 3d cd 04 c5 bc 28 dd d5 3c fc fc c4 3e
       0.10115048 -0.02405014 0.026106432 0.38474262
0001e0 f3 04 2b bd d4 9c f2 bd 81 cd 8b bc ac 6a 28 be
       -0.041752767 -0.11846319 -0.017065765 -0.16446942
0001f0 d3 70 63 bd f7 db 99 bd a8 6c 0a be 7e 0d b7 bc
       -0.05552752 -0.07512658 -0.13518012 -0.0223453
000200 d2 b5 98 bd 13 2c be bd a1 d6 2a be b0 ae ae be
       -0.074565545 -0.0928575 -0.16683437 -0.3411765
000210 c6 50 3e be b9 b3 10 be d6 9f 0f bf 57 c6 1d be
       -0.185855 -0.14131059 -0.56103265 -0.15407692
000220 33 6e 16 be 4d 4e 5e be 76 3b 27 be 81 b5 2e bd
       -0.14690475 -0.21709557 -0.16331276 -0.042653564
000230 f5 56 a5 bd 8a 6f b1 bd a0 1f df 3d 52 18 4a bf
       -0.08073226 -0.086638525 0.10894704 -0.7894336
000240 51 7f 90 ba e1 01 1e be 9c b2 d8 bd 44 b7 7c be
       -0.0011024271 -0.15430404 -0.10580942 -0.24679285
000250 27 bd a2 be e0 76 20 3d 43 3b c8 3c 11 8b 62 be
       -0.31784937 0.039175868 0.02444232 -0.22123362
000260 c0 82 be bd 60 12 b0 3c 86 3f 97 39 53 55 17 bd
       -0.09302282 0.021493137 0.00028848293 -0.036946606
000270 e2 9d 1b be 63 21 d6 bd 2f 42 60 be 74 e2 4e be
       -0.15196946 -0.10455587 -0.21900247 -0.20203573
000280 03 2d 8a bd 92 1b c4 bd 08 39 47 be 2e 82 43 be
       -0.067468666 -0.09575571 -0.1945535 -0.19092628
000290 74 98 53 be a6 bd 46 be 5e af ed bd ac ea a5 be
       -0.20663625 -0.19408283 -0.11605714 -0.32405603
0002a0 b9 c9 31 be 85 6d 1b bd ae 1a 93 3d ba 9c cd bd
       -0.17362107 -0.037946243 0.07182823 -0.10039659
0002b0 ec 14 6b 3e 81 63 7b bc 4f a5 73 be 33 f7 2c be
       0.229572 -0.015343548 -0.23793529 -0.16891174
0002c0 7d 73 0b be fe 14 be bd b4 f4 47 bd f9 52 92 bd
       -0.13618274 -0.09281348 -0.04881735 -0.07144732
0002d0 83 ef fd bb be 1a 63 3c 3a a3 de bc 8e 0d 14 be
       -0.0077494993 0.013861356 -0.027177442 -0.14458296
0002e0 a5 c2 a4 ba 38 64 14 be 4c 6c 18 bb 13 4f a2 3d
       -0.0012570216 -0.14491355 -0.002325791 0.079252385
0002f0 7e d9 4f bd 3a f9 28 3d a6 ef 13 3e df 79 8b 3d
       -0.050744526 0.041253306 0.14446887 0.068103544
000300 92 7d 19 3e da 8c ed bc 06 d1 b6 bd bd 4c e0 3d
       0.14989308 -0.028997827 -0.08926587 0.10952137
000310 7f d8 37 be 5f f3 1e be 2a 8b b4 3d aa fa 94 3d
       -0.1795368 -0.15522526 0.08815606 0.07274373
000320 8d ec f5 bc e9 73 f5 3d 07 e7 1c 3e f6 2f 7b 3d
       -0.030020023 0.11984999 0.15322505 0.061325036
000330 97 d7 f1 bd 22 4b 96 be 9f fc 09 be ad 86 d7 bc
       -0.118086986 -0.29354197 -0.13475274 -0.026309336
000340 d1 40 cf bd 17 be 9c 3b 22 86 13 be eb 0c d6 bd
       -0.101197846 0.0047834027 -0.14406636 -0.10451683
000350 8d 5a 97 be 33 64 fc ba ff 55 08 3e 36 d5 82 be
       -0.29561272 -0.0019255936 0.13314055 -0.25553292
000360 59 d3 0a be 06 8d 37 3d 43 46 52 be 63 48 68 be
       -0.13557185 0.044812225 -0.20534615 -0.22683863
000370 b7 f9 e9 3c d6 8a 29 bd 5d 0e ed bd 27 77 a3 3c
       0.028561456 -0.04139217 -0.11575005 0.019954277
000380 b1 83 78 bd ef bd 49 be 43 26 ad 3c db ba 09 bf
       -0.060672466 -0.1970136 0.021136409 -0.53800744
000390 a9 2c a4 3d d4 62 81 3c 24 76 9a 3d 1f 55 23 3e
       0.08016331 0.015794195 0.07542065 0.1595044
0003a0 66 b6 bc 3d 93 ce 1e 3e 2b eb be 3d de fc 62 3d
       0.09214477 0.1550849 0.093221985 0.055416934
0003b0 b6 d0 9b bd 7c a6 cc bd e2 dc bf bd 5a 13 5c 3d
       -0.07608168 -0.09992692 -0.09368302 0.053729393
0003c0 7b 24 86 3a b9 7c b9 3d 9c c4 b4 bd c1 78 ad bd
       0.0010234261 0.09056992 -0.08826563 -0.084702976
0003d0 14 a5 d8 bd 7b 2f 2e 3d 20 fe 1e 3d 60 e4 1b 3d
       -0.10578361 0.04252575 0.03881657 0.038059592
0003e0 8b 87 1c bb e3 e5 45 bc 77 b2 59 3d 00 d9 8c 3e
       -0.00238845 -0.012078735 0.053148713 0.27509308
0003f0 ae 02 05 bd 6f 06 43 be a5 ce ae be 28 4d 5e bd
       -0.03247326 -0.19045423 -0.34142032 -0.0542728

lstm.lstm1.weight_hh_l0 f4 [256, 64]
000000 09 84 53 bd de e4 40 be 41 f2 93 bd 60 e5 c2 ba
       -0.05163959 -0.18837306 -0.07223941 -0.0014869384
000010 9b b5 f4 bd fd 22 2f ba 3b 3e 00 bd 71 a2 7c 3d
       -0.11948701 -0.0006680934 -0.031309348 0.061678354
000020 cb d4 9d bd 07 f2 36 bd a9 12 d0 3b 51 98 38 3e
       -0.07706603 -0.04466441 0.0063498807 0.18026854
000030 b0 6e bc 3c f7 69 f4 bd fa 67 22 3d 9a 62 df bc
       0.023001999 -0.11934274 0.03964994 -0.027268697
000040 33 75 1f be fe 0b ce bd a4 96 9a 3e 04 a2 02 3e
       -0.15572052 -0.10060881 0.30193055 0.12757117
000050 5c 17 4b bd a4 3a c7 3c f6 02 2e 3c 90 a8 80 bc
       -0.049582824 0.024319954 0.010620823 -0.015705377
000060 f3 61 3a be 32 33 d2 bc 87 76 3d be 5b e8 ab 3d
       -0.18201427 -0.025659177 -0.18502246 0.08393928
000070 b8 f3 12 3e cb 50 05 be 8b 98 7d be ed 3a 99 bd
       0.14350784 -0.13019101 -0.24765222 -0.07481942
000080 ca 11 41 be cb b1 62 3d 72 a6 a3 3d 27 17 c0 bd
       -0.18854442 0.055345338 0.07990731 -0.09379416
000090 e2 7f 3d 3d 65 60 30 bc ca 0d 85 3d 2d 9d 11 bd
       0.046264537 -0.01076517 0.06496771 -0.035550285
0000a0 ea ec 19 3e 76 ab 42 be 13 9b 80 3d c0 d9 38 be
       0.15031782 -0.1901072 0.06279578 -0.18051815
0000b0 53 5a 3c be 6f 94 43 be 22 b8 37 be 7b d8 65 3e
       -0.18393831 -0.19099592 -0.17941335 0.22445862
0000c0 67 7d 4f 3e 23 a8 ed bc 78 04 2a 3e 27 68 08 bd
       0.20262681 -0.029010838 0.16603267 -0.033302452
0000d0 89 3c 39 bd 61 7f 25 be 02 ce 77 3e 62 5b 0f 3d
       -0.045223746 -0.16161872 0.2419968 0.03499926
0000e0 89 73 30 be 97 15 0f be b0 a3 3a 3e c1 98 6e be
       -0.17231573 -0.1397308 0.18226504 -0.23300458
0000f0 62 89 c0 bd 35 48 5d 3e 79 4f d6 3d a1 57 96 3d
       -0.09401204 0.21609576 0.10464377 0.07340933
000100 c9 4d 1f bc e5 e3 8f bd bd d1 f7 bd f6 03 06 3e
       -0.009723135 -0.07025889 -0.12100551 0.13087448
000110 cd 97 87 3c e3 d8 94 3c 24 03 6e 3e 0e c2 17 3e
       0.016551876 0.018169826 0.23243386 0.1482012
000120 22 ec 4d bd 9b 1c 69 3e 36 a5 04 bd 42 2b 9d 3d
       -0.050274022 0.22764818 -0.03238412 0.076742664
000130 f3 f5 98 3d c2 8d 03 3e 66 64 32 be 11 94 87 3d
       0.07468786 0.12847045 -0.17421111 0.06620038
000140 03 25 04 3e 18 a4 dd bd 39 09 ff 3d c5 4e a6 bd
       0.12904744 -0.10822314 0.12452931 -0.08120493
000150 a1 2e f0 bd 78 85 ab 3d 49 a8 07 be 5c 11 2c bd
       -0.11727644 0.083750665 -0.1324779 -0.042008743
000160 d9 d5 77 be 79 4b be bd 76 74 1a be d6 92 37 be
       -0.2420267 -0.09291739 -0.15083489 -0.17927107
000170 21 60 80 3d 00 a5 55 3d 4b 70 56 bc f0 c8 01 3e
       0.06268335 0.05215931 -0.013088296 0.12674308
000180 bb 00 c1 bd 03 01 19 3c b4 82 86 bc fe 1c e6 bd
       -0.094239675 0.00933862 -0.016419746 -0.112359986
000190 1b 8c 87 3d 33 64 7d 3d 22 46 e1 3c da c1 38 be
       0.0661852 0.061863136 0.027499262 -0.18042699
0001a0 67 d3 f9 3c 24 78 f8 bd 0a b2 ce bd 34 b8 b6 bd
       0.030496312 -0.1213229 -0.10092552 -0.08921853
0001b0 e6 db 8e bd 84 c3 a7 bd 16 0b 87 3a 84 d6 e0 3d
       -0.06975536 -0.081915885 0.0010302986 0.109784156
0001c0 42 6e c5 bd 02 81 ae bd 78 5f 6c bd e7 77 b3 3d
       -0.09640171 -0.085207 -0.057708234 0.08763104
0001d0 0e b7 a3 3a 81 db ec 3d 6d 54 06 3e ec 2f 5c bd
       0.0012490468 0.115653045 0.13118143 -0.05375664
0001e0 1d bc 15 be d6 75 26 3d 01 dd 82 3d 10 8c 6f bd
       -0.14622541 0.04063972 0.063898094 -0.058483183
0001f0 2d e4 37 bd d1 cd 5a 3b 1f 7f 06 3e 00 52 6c bc
       -0.04489534 0.0033386836 0.1313443 -0.014423847
000200 a4 2d 67 3d d3 b5 78 3e 94 5c 43 bc 60 5f d6 bd
       0.05644001 0.2428811 -0.011923928 -0.1046741
000210 36 15 ff 3d c5 5b 1c be 68 e0 59 bc 33 53 81 be
       0.124552175 -0.15269382 -0.0132981315 -0.25258788
000220 aa 67 0c be f6 6f 5e be 37 03 86 bc b6 5e 13 3e
       -0.1371142 -0.21722397 -0.016358955 0.14391598
000230 2d 8f 15 be 7e 38 03 3d 67 f3 1e 3d 23 4e 3a be
       -0.14605398 0.032036297 0.038806345 -0.1819387
000240 4e 4e 38 be bb 2c a7 3d 0f 1d 1f be 72 dc 9a 3d
       -0.17998621 0.081628285 -0.15538429 0.07561578
000250 f7 72 b8 3e c5 3e 27 be fb a9 0b be 53 fc 22 3e
       0.3602521 -0.16332538 -0.13639061 0.15916567
000260 0c a4 62 3e 0e d7 85 3d 5c b5 1a 3c 2e 06 41 3e
       0.22132891 0.06535159 0.0094426535 0.18850014
000270 32 24 c8 3d 37 0f 1b bd f2 d4 cb 3d cb ce 81 be
       0.09772529 -0.037856307 0.099527255 -0.25353083
000280 e4 bf c2 bc d1 73 cc bc ac ba 63 bd f7 01 33 3e
       -0.023773141 -0.02495757 -0.055597946 0.17481218
000290 89 65 36 3c de 97 a7 3d d4 f4 1e be 00 6b 59 3e
       0.011132606 0.08183263 -0.15523082 0.21232224
0002a0 7d 33 27 3e e5 d0 cf 3e fc 8d 49 3e 8f c4 32 3b
       0.16328235 0.4058906 0.19683069 0.0027277803
0002b0 70 3b 55 3e 4c ce 7a 3e 96 d0 c4 3e 42 75 4a bb
       0.20823455 0.24492759 0.38440388 -0.0030892645
0002c0 40 30 87 be fc 54 3e 3d ba c7 0e be 8c 55 df bc
       -0.26404 0.046467766 -0.13943377 -0.027262472
0002d0 ae 3b 5b 3d e9 12 22 3e d2 6b e8 bc 84 88 92 3d
       0.05352371 0.15827526 -0.028371725 0.071549445
0002e0 41 7d ae 3e 94 92 61 3d 57 e4 a7 be 6a 90 7f 3e
       0.34079936 0.05507143 -0.32791397 0.24957433
0002f0 e8 ff 47 3e 6d 32 81 3e 65 ad e4 bd 07 00 70 be
       0.19531214 0.25233784 -0.11165885 -0.2343751
000300 30 d2 db 3c ec 5d 0c 3d d1 0a a8 3e f5 55 2e 3d
       0.026833624 0.03426926 0.32820752 0.042562444
000310 1b 17 ad be 82 3f 49 be d0 a4 5e 3e 33 9d 93 3e
       -0.3380669 -0.19653133 0.21742558 0.2883087
000320 f1 17 de 3c 8b e4 74 3e 42 92 8c 3c d6 31 92 bc
       0.027111026 0.23915307 0.017159585 -0.01784603
000330 60 6a 31 3d bc 19 a9 b9 7e 8e 63 bd 64 fa d8 3d
       0.043314338 -0.00032253365 -0.055555813 0.10594633
000340 4e ee 1e 3e 82 a7 d4 bd 1c a8 98 bd 25 1b 07 be
       0.15520594 -0.10383512 -0.07453939 -0.13193949
000350 ec a1 80 be 17 7d 4b bd 66 11 6d bc f7 f2 93 3e
       -0.25123537 -0.04967984 -0.01446948 0.28896305
000360 ea 1b 9a be e5 93 aa 3d bd 0a 9d be 82 19 a3 be
       -0.30099422 0.0832899 -0.30672255 -0.31855398
000370 f4 98 98 be 43 bc da bd b2 ea d2 3d 72 4a 9a 3e
       -0.29804194 -0.10680439 0.10298671 0.30134922
000380 40 ba 66 3e 22 36 5b bd 19 09 9e be 92 e5 a4 be
       0.22531986 -0.053518422 -0.30866316 -0.32206398
000390 73 3d c7 bd af 18 4a 3e 50 bd 06 3d b9 8f 8e 3c
       -0.097285174 0.19735979 0.032895386 0.017402517
0003a0 06 e6 82 bd ce cf 82 be 57 eb b6 be e1 9e ff 3c
       -0.0639153 -0.25549167 -0.35726425 0.031203689
0003b0 10 3f 22 be 1c f1 d5 3d 02 eb 11 3e e0 1b 98 bc
       -0.15844369 0.104463786 0.14249805 -0.01856798
0003c0 c9 de 3d 3e c4 32 16 be 52 2a 37 be 48 3a df 3c
       0.18542017 -0.14667803 -0.17887238 0.02724947
0003d0 bd 76 7d be 7a a4 30 3c 31 f6 18 3e 72 18 7d be
       -0.24752326 0.010781402 0.14937665 -0.24716356
0003e0 5b 01 4e be 2a 31 15 3d be 4f 08 bd 92 83 01 3e
       -0.20117705 0.03642384 -0.033279173 0.12647846
0003f0 06 7d 87 bd 84 67 a4 be 01 44 95 3d 44 17 90 3e
       -0.06615643 -0.32110226 0.07288361 0.2814275

lstm.lstm1.bias_ih_l0 f4 [256]
000000 47 1d 3b bd 70 01 13 be d3 d6 6e be e9 f8 4c be
       -0.045682218 -0.14356017 -0.23324136 -0.20016827
000010 49 11 85 bd 6b 56 c1 bc 6d 32 74 3d a7 0b ab bc
       -0.064974375 -0.023600778 0.059618402 -0.02087958
000020 fb 54 cc bd a5 74 27 be 54 af 37 bd 90 d9 3e bd
       -0.09977146 -0.1635309 -0.04484494 -0.046594203
000030 f8 df ce bd e6 74 40 be ef 3f 55 be da 34 1b be
       -0.101013124 -0.18794593 -0.2082517 -0.1515688
000040 c8 43 33 3d 82 8d 68 be d7 4a 47 bd 41 d0 a3 bc
       0.043765813 -0.22710231 -0.048655357 -0.019996764
000050 0a 57 a9 bd db 2b b3 bd 1d c1 5b be 91 60 d3 3d
       -0.082685545 -0.08748599 -0.21460386 0.10321153
000060 e6 4a b1 bd d4 da a7 3c a6 98 56 bd b2 e4 61 bd
       -0.08656864 0.020490088 -0.05239167 -0.05514974
000070 8f ae f5 bd 26 76 ed bd 37 19 5c 3d 38 13 5a 3d
       -0.11996185 -0.11594801 0.053734984 0.053240985
000080 b2 4c 49 be 3b 56 f0 bd cc 6b 71 be a6 d0 91 bd
       -0.19658163 -0.11735197 -0.23576277 -0.07119875
000090 59 bc 6d be cd aa c7 bd e5 c5 b4 bd b8 20 08 3d
       -0.2321638 -0.097493745 -0.08826808 0.033234328
0000a0 cf f6 52 be 20 3d 2d 3e 1a ba ac bd da 95 10 be
       -0.20601963 0.16917849 -0.084339336 -0.14119664
0000b0 ab 6d 49 3b 71 2f 36 be e7 6b b0 3d 53 23 53 be
       0.0030735533 -0.17791535 0.08614331 -0.20618944
0000c0 16 0f 32 be a3 21 67 bd 0e c5 a1 3c 00 0d 07 be
       -0.17388567 -0.056428563 0.019747283 -0.13188553
0000d0 b7 88 e5 bd 16 8d 19 be 7b 1d 96 bd c6 2b 9b bd
       -0.11207717 -0.14995226 -0.07329842 -0.075767085
0000e0 34 2a a8 bd 82 36 df bd 54 d6 25 be 82 88 75 3d
       -0.082111746 -0.108990684 -0.16195041 0.059944637
0000f0 18 28 36 3d 7f a8 ae bd 18 10 ae 3c 92 b9 7d be
       0.04447183 -0.08528232 0.021247908 -0.2477782
000100 27 78 2a bc 6f 0a aa bc 1d 62 4a be b6 d7 2e be
       -0.010404623 -0.020756928 -0.1976399 -0.17074475
000110 39 76 c5 bd 8b a3 44 bd bd bf ef bd ea 63 c3 3a
       -0.0964169 -0.04800753 -0.11706493 0.0014907096
000120 b8 b6 34 3d fd 68 d8 3d 64 5f b7 3d ba 06 1f 3d
       0.044119567 0.105669 0.08953741 0.038824774
000130 21 c5 e0 3c c0 ea 9d 3c d4 90 0b be 2e b4 bc 3d
       0.027437748 0.019276977 -0.13629466 0.09214054
000140 e3 b9 60 be d5 6a 5a be 05 34 d3 3c b5 53 ed bd
       -0.2194591 -0.21329816 0.02578164 -0.115882315
000150 13 5b 11 3e d0 20 1e be 5f 0a 0f be cb 53 f7 bc
       0.14194898 -0.15442204 -0.139688 -0.030191323
000160 33 3b 09 3e 95 13 ac 3d 7c ea 63 3e 22 9d 09 3e
       0.13401489 0.084021725 0.22257417 0.13438848
000170 0b 32 4e be c2 76 2f be 59 7a b3 bd a2 f2 79 3d
       -0.20136277 -0.17135146 -0.0876357 0.06102241
000180 3e 9c 1f be 33 bb 35 3e 90 c1 99 bd 9a 7e 91 bd
       -0.15586945 0.17747192 -0.07507622 -0.071042255
000190 7e 96 55 be db 66 b4 bd cc 71 7f bd 2e b5 35 3e
       -0.2085819 -0.088086806 -0.062364385 0.17744896
0001a0 e1 0d 38 bd e7 04 85 3d 35 c9 74 3d 17 28 4f be
       -0.04493511 0.06495076 0.0597622 -0.20230137
0001b0 f2 1f b0 3d 91 1b 8b bd c4 8a 42 3e fb 91 9c bd
       0.08599843 -0.06792367 0.18998247 -0.07645031
0001c0 e1 02 32 bc e3 88 19 be 6a 95 ab 3d c4 e6 d1 3d
       -0.010864944 -0.14993624 0.08378108 0.10249093
0001d0 16 0f bf 3d 1f 58 78 bc dd 16 97 3d f8 19 47 be
       0.09329049 -0.015157728 0.07377408 -0.194435
0001e0 f9 97 ee bc 6c 62 dd bd 95 8b bc bd 56 1f b5 3d
       -0.0291252 -0.10809788 -0.09206311 0.088438675
0001f0 83 8e 0e bd 36 91 d6 be 04 83 33 bd 2c 78 89 3d
       -0.03480388 -0.41907662 -0.043826118 0.06712374
000200 af 57 ba bc d6 d1 03 be ee 03 37 bd 3a 2e e3 bd
       -0.022746889 -0.12873015 -0.044681482 -0.110928014
000210 0d 3f 27 3c 81 57 64 3e 42 48 20 bd 3b 80 ad 3d
       0.010207904 0.22299005 -0.03913141 0.08471724
000220 61 62 17 3e b6 8f 63 3d 3f bf e6 3d 52 c1 a8 3d
       0.14783622 0.055556975 0.11266946 0.08239998
000230 f1 2e 3b 3e 53 e6 4a be 36 00 39 3d 83 10 64 3d
       0.18279625 -0.19814424 0.045166217 0.05567981
000240 6a 20 39 bb 40 7e 13 be 09 22 0c 3e 7c 28 9d ba
       -0.002824808 -0.1440363 0.13684858 -0.0011990215
000250 71 09 98 bd 04 77 d4 bb 92 e6 85 bd c7 f5 14 3d
       -0.07423676 -0.0064839143 -0.065381184 0.036367204
000260 db 00 b2 3d 6c aa 67 be b9 81 1e be 9b 5d 05 3d
       0.086915694 -0.22623605 -0.15479173 0.032559972
000270 22 59 31 3c e7 24 25 bd dc 00 c4 bd ea df 53 bb
       0.010824474 -0.040318396 -0.095704764 -0.0032329508
000280 17 f8 c3 3d ae 13 ab 3d 50 33 61 bc 99 79 94 bd
       0.09568804 0.08353363 -0.013745144 -0.072497554
000290 23 05 1e 3d 36 3e 48 be c2 38 aa 3d 01 36 85 bd
       0.038579118 -0.19554982 0.08311607 -0.06504441
0002a0 3d e8 dd 3d 8e e3 e6 bd 84 8f 7c 3d b1 53 8e bd
       0.108353116 -0.11273871 0.061660305 -0.069495566
0002b0 fd 47 ba bc 65 d2 db 3d 74 40 4f be 69 f6 6d 3e
       -0.022739405 0.10733489 -0.2023943 0.2323853
0002c0 97 a8 e4 3d 0b 20 22 3c 2d 0c bf 3d 28 25 81 3e
       0.111649685 0.009895335 0.09328494 0.2522366
0002d0 37 b5 2f 3e db 5e 66 bd 8b 65 1e 3e be 99 01 be
       0.17158972 -0.056242805 0.15468423 -0.12656304
0002e0 19 13 10 bc 20 96 24 bd ed 79 14 3e c4 1d fb bd
       -0.008793616 -0.040182233 0.14499636 -0.12261537
0002f0 03 7c 58 bd ef 01 28 bd 78 cd c7 3d c3 0f 09 3c
       -0.05285264 -0.04101747 0.09755987 0.008365574
000300 b5 cc f5 3d 16 e1 05 be 8c 26 84 be 80 1e 3c bd
       0.120019354 -0.13074145 -0.2581066 -0.045927525
000310 19 48 38 3d 6c df 1c be 45 fc 35 3c be e5 e4 3c
       0.044990633 -0.15319604 0.011107509 0.02794158
000320 ba ad 5f be 16 0f 02 be c9 91 08 bd 14 9b 14 be
       -0.21843615 -0.12701067 -0.033342157 -0.14512283
000330 54 aa 18 be d0 45 ec bd ca 35 58 be 1c f7 36 bd
       -0.14908725 -0.11536753 -0.21114269 -0.044669256
000340 81 d5 e4 bb d9 bf d0 bd 2f 1d 5b 3d 7a 83 83 3d
       -0.0069834595 -0.10192842 0.05349463 0.064215615
000350 5b 35 23 bd f1 6d f4 bd ca 1b f3 bd 4f 21 5c bd
       -0.039845806 -0.11935032 -0.11870535 -0.053742703
000360 22 96 a1 3d da 7a 17 be 08 e7 05 3d 0f 3f 56 3d
       0.07889964 -0.14792958 0.03269103 0.05230623
000370 cd a9 1f 3e 66 7f 99 be 8f ae b9 bd 96 87 08 be
       0.15592118 -0.2998001 -0.090664975 -0.13332972
000380 a4 ff df bd b5 89 b7 3c 06 d6 f7 bd 45 73 0f be
       -0.109374315 0.022404531 -0.121013686 -0.14008816
000390 2f 23 51 be b5 67 bd bd ee c8 de bd e1 50 4d bd
       -0.20423578 -0.09248296 -0.10878168 -0.05012596
0003a0 4b db 56 be df 35 38 3e d3 fc 20 be b7 41 f4 bd
       -0.20982091 0.179893 -0.15721445 -0.119265966
0003b0 d1 7b 0f bd d6 5b 11 be c0 37 03 3e 63 33 d7 bd
       -0.03503019 -0.14195189 0.12814236 -0.10507848
0003c0 7e e8 11 be 4e 5c fd bc 9f fd f0 bd 89 72 1a be
       -0.14248845 -0.030927803 -0.117671244 -0.15082754
0003d0 25 2e 89 bd 21 6c 6b be 64 80 fc bd b8 16 06 3b
       -0.066982545 -0.22990467 -0.12329176 0.0020460319
0003e0 9c 45 21 3d 00 0e 32 bc 46 9c 5b 3c 99 52 14 3d
       0.039373025 -0.010867596 0.013403958 0.036211584
0003f0 55 63 54 bd 76 35 86 bd ad b9 91 bd 8d a7 1e be
       -0.051852543 -0.065531656 -0.07115493 -0.15493603

lstm.lstm1.bias_hh_l0 f4 [256]
000000 9b d6 20 3e a4 eb 99 bb 0c 53 cc bd e2 cd 11 be
       0.15706865 -0.00469728 -0.099767774 -0.14238694
000010 ff 0a 4a bb 40 97 34 be 08 00 b1 bd 8b f2 f6 3c
       -0.0030829308 -0.17635822 -0.08642584 0.03014495
000020 95 9b 7e be a3 41 f2 bd 7c e6 e4 bd 05 e4 e5 bc
       -0.24864037 -0.118289255 -0.11176774 -0.02806283
000030 f4 74 5b be 2e 33 41 be b7 51 94 bd 6e 00 14 be
       -0.21431333 -0.1886718 -0.07242148 -0.14453289
000040 ed 10 f2 bd dd 98 6a be d7 2c 8d bd 0a 9b d2 bd
       -0.118196346 -0.22909875 -0.06893318 -0.102834776
000050 cf 73 19 be 97 1c 91 be bf ed 86 be 5e 9b 36 3d
       -0.14985584 -0.28342125 -0.2635326 0.044581763
000060 6b b6 41 be 5c 12 3b be 71 7b 50 3c b6 13 68 3d
       -0.18917243 -0.18268722 0.012724743 0.056659423
000070 66 2b 00 bd e4 9d 63 be f0 f3 9a 3d 0d 0e f9 bc
       -0.031291388 -0.22228199 0.07566059 -0.030402208
000080 5e cc 98 bd 0e 84 b5 bd 30 b1 37 be 9a 6b db 3c
       -0.07460855 -0.08863078 -0.17938685 0.026784707
000090 8e be a7 be 9a 48 0e be 85 3f b8 bd a3 cd 45 3d
       -0.3276257 -0.13894883 -0.089964904 0.048291814
0000a0 40 53 8b be 6d 30 3b 3e 7d b7 ff bd 2d ff 8a be
       -0.27211952 0.18280192 -0.124861695 -0.2714781
0000b0 9e 5f 6f bd ef 50 73 be b8 d8 d2 3d 70 c9 ab bd
       -0.058440797 -0.23761342 0.10295242 -0.083880305
0000c0 a7 ca 03 be d0 c8 d2 bd 2d ae 17 be 7b 99 98 bd
       -0.12870274 -0.10292208 -0.14812537 -0.07451149
0000d0 e1 0b 09 be 42 e1 06 be 51 1d 3f be c8 53 3e be
       -0.13383438 -0.13171867 -0.18663527 -0.18586648
0000e0 44 74 1f be 77 98 5a be 7b a1 80 bd 00 78 13 3e
       -0.15571696 -0.21347223 -0.062808 0.14401245
0000f0 91 9e 10 be 35 c3 6d bd c8 19 00 bc 1f 14 06 be
       -0.14122988 -0.058047492 -0.007818647 -0.13093613
000100 95 44 fe bd cb 71 af bd ed 91 be bd 7d 34 08 bd
       -0.12415425 -0.08566626 -0.09305177 -0.03325318
000110 29 01 8b bd ff 91 ae bd ad d3 a4 3c 34 31 8b bd
       -0.06787331 -0.0852394 0.020120466 -0.06796494
000120 af df 44 3d a5 73 c4 3d de 9c 96 3d c1 00 f5 bd
       0.048064884 0.0959237 0.07354139 -0.119630344
000130 be f6 e6 3c 47 25 b9 bb a9 05 13 be f6 86 a7 bd
       0.028193828 -0.0056501958 -0.14357628 -0.08180039
000140 96 15 81 be 1f ab 48 bd 15 fb f0 3d 66 66 a9 3b
       -0.2521178 -0.04899132 0.1176664 0.0051696775
000150 f0 14 d8 3d cd 66 b9 bd 65 66 0a be 7f 14 cd bc
       0.105508685 -0.09052811 -0.13515623 -0.025034187
000160 ca f5 2e 3c 81 23 83 bd 5b 8b 93 3d ad 78 3f 3e
       0.010678718 -0.06403256 0.07204314 0.18698378
000170 11 35 96 bd d9 a5 85 bd db 47 f5 3d a5 a7 cd bd
       -0.0733434 -0.065257736 0.11976596 -0.10041741
000180 ad a3 7c bd 07 7b 6e 3d f5 0e 28 be ea ba a2 bc
       -0.06167953 0.058222797 -0.16411956 -0.019864518
000190 6f 96 bc be a7 55 92 bd 12 7f e6 bd 81 0b 00 bc
       -0.36833522 -0.07145243 -0.112547055 -0.007815243
0001a0 5b b4 3d be f3 52 82 3e 0c 7e 01 3d e3 e0 bf bc
       -0.18525831 0.2545391 0.03161435 -0.023422664
0001b0 56 9c ae bd 83 fb 47 be 02 42 55 3e b4 4f 11 be
       -0.085259125 -0.19529538 0.20825961 -0.1419056
0001c0 3b 98 7a be 3c 3d b1 bd e2 8a bb 3d 1a 33 32 bd
       -0.24472134 -0.08654258 0.09157349 -0.043505765
0001d0 75 93 d3 3b b5 64 c7 3c 4f 93 68 3b fd e9 3f bd
       0.006456787 0.024340013 0.0035488193 -0.046854008
0001e0 51 36 ae bd 41 cf ac bd 86 0b c8 3d ed 8f 07 3e
       -0.08506454 -0.08437968 0.09767823 0.13238497
0001f0 72 71 52 3c 25 8a 6f be 38 ae 07 3d 03 d7 9b 3d
       0.01284443 -0.23392542 0.033125132 0.076093696
000200 4d fa 40 bc dc e8 2a be e9 39 3a 3e 6e 2e 54 3d
       -0.011778426 -0.16690391 0.18186153 0.05180209
000210 10 06 bf bd c1 fc 97 3d 90 11 6e bd d2 52 bc 3d
       -0.09327328 0.07421256 -0.058122218 0.09195484
000220 aa 93 32 3c 72 02 c3 3d 67 ec 9a bc 76 56 72 3e
       0.010899464 0.09521951 -0.018911554 0.23665795
000230 f8 e3 24 3e 23 5f 0a be 07 14 43 bc 67 c5 24 bd
       0.16102588 -0.13512854 -0.01190663 -0.04022732
000240 be a7 84 bc e9 29 3e bd d7 d3 01 3e 77 b3 1f bd
       -0.016193267 -0.046426687 0.12678467 -0.03898951
000250 91 5f 19 be 96 60 b9 bd 31 5c 49 bd 84 00 8e bd
       -0.14977862 -0.090516254 -0.049160186 -0.06933692
000260 c6 ad ae bc 2b c8 cb bc 4a ae b1 bd a6 49 3a bd
       -0.021323096 -0.024875721 -0.08675821 -0.045480393
000270 69 c9 0c be fd 26 3d 3d 6a dd 70 be e6 63 bc bd
       -0.13748707 0.04617976 -0.23521963 -0.091987416
000280 26 aa 55 bc be 6e 5d 3e 24 f6 72 3d ab c3 41 3d
       -0.013041055 0.21624276 0.05931677 0.047305744
000290 bf 53 31 3d f8 66 0c be 38 5f 7e 3e e6 32 38 be
       0.043292757 -0.13711154 0.2484101 -0.17988166
0002a0 0e af b4 3d 16 2f 4a be 5e 5b 00 be d4 3d f0 bd
       0.088224515 -0.19744524 -0.12534854 -0.11730543
0002b0 ba d2 0e be 4c 71 da bc e3 88 00 bd fd 5d 4b 3e
       -0.13947573 -0.026665352 -0.031380545 0.19860072
0002c0 ec 7a 1e 3d 3f ad 20 bd 05 27 63 3e 2a 3b 6f 3e
       0.038691446 -0.03922772 0.22182854 0.23362413
0002d0 16 9d a0 3d 45 6e bb 3d 2e 66 c2 bc d6 f6 91 bd
       0.07842462 0.091518916 -0.023730364 -0.07127158
0002e0 8d bf c0 bd 07 08 8d bd 2b 58 f2 3d 0d eb 5a be
       -0.094115354 -0.06886297 0.11833223 -0.21378727
0002f0 f3 8b 2c be 17 c4 c2 3d 6e fd 0f 3e 3f c6 a5 3d
       -0.16850261 0.095100574 0.1406152 0.08094453
000300 6e b3 20 3c bf 0d 38 3d 69 52 82 be 17 cb 04 be
       0.009808404 0.044934984 -0.254535 -0.12968098
000310 60 57 e6 bd 6b 8c 91 be 9e c5 a4 3d 49 71 56 3d
       -0.11247134 -0.28427443 0.08045505 0.05235413
000320 7c b5 96 be d3 96 0d 3d 1d 55 d2 3c f5 04 f3 bd
       -0.29435337 0.034567665 0.02567535 -0.1186618
000330 17 5c 42 be 0d 8f 28 be e4 f9 73 be 8a ed 85 be
       -0.18980442 -0.1646082 -0.23825794 -0.2615779
000340 91 7a f9 bd 29 d5 6d be 06 a4 15 bd 27 4d 32 be
       -0.12181581 -0.23225845 -0.036533378 -0.17412244
000350 11 30 a8 bc 8f 45 6d bd f5 9e 1f be e1 5b 1e bd
       -0.020530732 -0.057927664 -0.15587981 -0.03866184
000360 4d f0 3e 3d f8 0e a9 bc 35 6a dc 3d fc 63 ef 3d
       0.046615887 -0.02063702 0.10762445 0.116889924
000370 ba 7d 49 3e fd 40 62 be 1e 62 bb bd 3c 7f c1 bc
       0.19676867 -0.22095104 -0.09149574 -0.02362024
000380 10 52 13 be 5f 23 28 3d d2 55 48 be ac 85 15 be
       -0.14386773 0.041049358 -0.19563988 -0.14601773
000390 36 2a 61 be 6d 4c 98 bc 7f 33 8d bd b1 38 f3 3d
       -0.21988758 -0.01859113 -0.06894588 0.118760474
0003a0 ad 81 6e be bc 08 28 3d 06 3a bc bd 82 90 9d bd
       -0.23291655 0.041023955 -0.091907546 -0.07693578
0003b0 a9 02 88 bd bf 44 84 be f4 a7 b2 3d e9 a2 66 bd
       -0.066411324 -0.258337 0.08723441 -0.056307707
0003c0 c4 0e 20 be f6 01 35 3d b3 8d 66 3d ff 08 f5 bd
       -0.15630633 0.044191323 0.05628748 -0.119646065
0003d0 e3 14 46 be 2f 84 4d be 2b 1f 70 bc 18 44 07 3c
       -0.19343905 -0.20069955 -0.0146558685 0.008255981
0003e0 dd e6 87 bb f6 a2 5a 3a 45 e5 03 3d 7d 96 aa bd
       -0.004147394 0.0008340323 0.03220107 -0.083294846
0003f0 f5 b2 f8 bd 16 5c 33 be 94 8b 8a 3c 91 e1 91 be
       -0.12143508 -0.17515597 0.01691226 -0.28492406

lstm.bn1.weight f4 [7]
000000 62 4b 99 3f f0 20 ac 3f 40 6b aa 3f 4f 41 91 3f
       1.197613 1.3447552 1.331398 1.1348056
000010 cf a7 74 3f 54 b6 56 3f 8d c7 5a 3f
       0.95568556 0.8387196 0.8546074

lstm.bn1.bias f4 [7]
000000 e8 7f d7 3c c0 8e cd 3d 2a 2b 1c 3e 87 53 e4 3d
       0.026306108 0.10036993 0.15250841 0.11148744
000010 f8 d1 4f 3d c8 2c 2c 3d 22 ae 47 3d
       0.05073735 0.042034894 0.04875005

lstm.bn1.running_mean f4 [7]
000000 a0 9d 70 3b e9 e4 89 3b e0 9c 52 3b 67 84 bf 3a
       0.0036715046 0.0042081964 0.0032136962 0.0014611603
000010 2b 78 49 ba 60 56 5b bb 4a fa c7 bb
       -0.0007685448 -0.0033468232 -0.006102835

lstm.bn1.running_var f4 [7]
000000 e3 3f 0a 3b d1 2c d3 3b c0 d1 62 3c 46 62 cd 3c
       0.0021095208 0.0064445515 0.013843954 0.025071274
000010 32 82 26 3d 1a 47 76 3d 8c 6d a7 3d
       0.040651508 0.0601264 0.08175191

lstm.lstm2.weight_ih_l0 f4 [256, 64]
000000 31 af e3 bc 2b 21 28 bc 65 3d b4 3d d2 84 06 be
       -0.027793499 -0.010261814 0.088007726 -0.13136604
000010 fd 0e ae be 5a 57 c7 bd 85 2c 1c 3c f0 c5 d6 3c
       -0.3399581 -0.09733458 0.009532099 0.02621743
000020 fb 82 24 be fc 05 8d 3e 57 de 75 bc 14 9d 04 be
       -0.1606559 0.27543628 -0.015006623 -0.12950546
000030 9b ec e3 bc e2 a0 de 3c 70 34 93 be e6 26 12 3e
       -0.027822783 0.027176324 -0.28750944 0.14272651
000040 53 49 20 3e e7 41 7e bc 02 31 e9 bd eb 37 9f be
       0.15652971 -0.015518642 -0.113863006 -0.3109735
000050 08 0b 1c bd 32 f7 e9 bd 72 7e 3b bd dc 83 0e 3e
       -0.038096458 -0.11424102 -0.045774885 0.13917488
000060 00 ad 49 bd ad fd b7 bd 13 ca 80 bd 2a 9d 3b be
       -0.04923725 -0.08983932 -0.062885426 -0.18321672
000070 79 82 84 be f7 21 55 be 73 15 27 bb ae 12 b8 3d
       -0.25880793 -0.20813738 -0.0025494962 0.08987938
000080 17 83 7d bb d1 e9 ed bd b0 e4 88 be 40 76 0c be
       -0.0038682872 -0.116168626 -0.26736975 -0.13716984
000090 a1 98 74 be 20 e0 92 3d 6d 45 75 bd b4 8c 37 3d
       -0.23886348 0.07171655 -0.059880663 0.04481192
0000a0 25 ef 0d bd 3d d6 f8 bd 43 f8 04 bf 7c 91 96 3d
       -0.034651894 -0.12150238 -0.5194132 0.07351968
0000b0 ac 20 10 be 3a 90 23 be 0f 2d cb 3c 06 ab e8 bd
       -0.14074963 -0.15972987 0.024801759 -0.11360745
0000c0 88 6a 37 be e8 9e 4d 3d 7a c5 9a 3c 43 9c 5e be
       -0.17911732 0.050200373 0.018892992 -0.21739297
0000d0 76 89 7e bd 12 a2 db bd 78 aa 2c bd 48 8b 84 be
       -0.06214281 -0.10724272 -0.04215476 -0.25887513
0000e0 fa da c3 3c 29 0c b3 bc 57 57 a6 bd 8a 49 8c 3d
       0.023908127 -0.021856384 -0.081221275 0.06849964
0000f0 7f 9a b2 bd f2 6f 69 be 46 1e 00 bd 27 e7 aa bc
       -0.08720874 -0.2279661 -0.03127887 -0.020862175
000100 cf 76 e0 3c fc 38 96 be 4e d7 ae bd 73 3f 86 3d
       0.027400402 -0.2934035 -0.0853716 0.06555071
000110 94 45 19 3e 5e 27 93 3d ad 93 ce bd a8 8f 4c be
       0.14967948 0.07185243 -0.10086761 -0.19976676
000120 b7 57 31 bd e9 06 63 be 69 d9 eb 3c 53 4f 32 bd
       -0.043296542 -0.22170605 0.028790193 -0.04353268
000130 72 91 89 3d f1 de 10 be 75 65 f3 3d 1e 47 09 be
       0.067171946 -0.14147545 0.11884586 -0.13406035
000140 2f 5e 57 be a2 72 af bc 8e 9e 26 3e c1 70 cf 3d
       -0.21032022 -0.021416966 0.16271421 0.10128928
000150 1b 64 37 3e c2 32 a0 3c a5 10 93 bd 0c 25 fd 3d
       0.17909281 0.019555453 -0.07180909 0.12360582
000160 46 d1 2f 3e 24 66 70 bd db bb 76 3d 65 3b 4c 3e
       0.17169675 -0.05869116 0.060237747 0.19944532
000170 5a 2e 4c 3e 73 82 00 be 01 e8 b4 bd 1e 0b df bd
       0.19939557 -0.12549762 -0.08833314 -0.10890792
000180 ff d6 de bd e8 a0 0e 3e c4 c9 2c 3d 20 5c e0 bc
       -0.10880851 0.13928568 0.042184606 -0.027387679
000190 73 0f 3c 3e c7 f9 5c 3c f0 78 46 3e 05 95 98 bd
       0.18365268 0.013487286 0.19382071 -0.07450298
0001a0 e8 50 f3 3d ba 9f 69 bd 66 85 98 3d 4e 1c 06 be
       0.11880666 -0.057037093 0.07447319 -0.13096735
0001b0 e6 15 59 3e e8 0f 18 be 33 01 e5 bc 16 76 4d 3e
       0.2119976 -0.14849818 -0.027954673 0.20064577
0001c0 2f 18 09 be ab 0e 94 3d f4 82 3e 3e 35 6b 57 3e
       -0.13388132 0.0722936 0.18604642 0.2103699
0001d0 11 f9 ef 3d 02 51 74 bd 4a 8e 82 3d 3d 23 d2 3d
       0.117174275 -0.059647568 0.06374796 0.102606274
0001e0 d5 2b ed 3e 2c 2a 52 3d 08 99 a8 bd 8c a6 9f bd
       0.46322504 0.05130975 -0.082323134 -0.07795438
0001f0 1a 9d 26 be bf 4f 03 3d f7 fb dc 3d 6c b4 c6 3d
       -0.16270867 0.032058474 0.10790246 0.097023815
000200 80 97 03 3e 34 c9 30 be 6a fb 41 3e ca b1 3a bd
       0.12850761 -0.17264253 0.18943563 -0.04557971
000210 5d 20 b6 3e 05 e0 c2 3e 99 5d c1 bd 3c 8d 7b 3c
       0.35571566 0.38061538 -0.094416805 0.015353497
000220 7e a9 b0 3d 8c 47 82 3d 86 31 28 3c e0 d0 f8 3c
       0.08626078 0.06361303 0.010265714 0.030373037
000230 d3 9d 41 3e f5 10 6c be 58 3c 2d 3d c9 11 27 3e
       0.18907861 -0.23053344 0.042293876 0.16315378
000240 26 1a da bd 62 1d 1f bd 90 6d 42 3e c6 cb 1a 3e
       -0.10649519 -0.03884638 0.18987107 0.15116796
000250 e9 54 28 bd 58 4d fb 3c bb b9 a7 3d 88 ce af 3e
       -0.0410966 0.030676529 0.08189722 0.34337258
000260 80 29 66 bd 0f 0c 1b 3d 87 7a 16 3e 4a 81 69 bd
       -0.05619192 0.037853297 0.14695178 -0.057008065
000270 22 c5 e2 3e 61 8f ad bc 06 47 85 bd ec 0b 63 3d
       0.44291025 -0.021186532 -0.06507687 0.05543129
000280 40 7d f3 3d 84 26 ef 3d ce 13 8b 3e 4f 66 04 3e
       0.11889124 0.11677268 0.27163547 0.12929653
000290 74 10 19 be 54 a5 98 3c b3 47 e0 3d e2 68 60 be
       -0.14947683 0.018633522 0.109511755 -0.2191501
0002a0 96 cf e1 3d 50 80 8d 3b 66 a6 2d be 42 e3 c3 3d
       0.11025922 0.0043182746 -0.16958007 0.0956483
0002b0 cb f5 91 bd 39 06 eb 3d 3f 85 9c be 3a e3 43 3e
       -0.071269594 0.11475796 -0.3057041 0.19129649
0002c0 6a f5 f6 3d 12 e3 2c be 01 d9 18 3e dd 21 67 3e
       0.12058528 -0.16883495 0.1492653 0.22571512
0002d0 c9 fd 12 3e 70 7b 91 bd ab 27 8a 3e 91 97 a1 bd
       0.14354624 -0.07103622 0.2698339 -0.07890237
0002e0 31 64 b0 bd e8 40 b9 3c 69 e1 81 3e e0 60 20 3e
       -0.0861286 0.022613958 0.25367287 0.15661955
0002f0 d2 9f 09 3e 5a 2b 4d 3e b7 cf 65 3e 9c 60 30 bd
       0.13439873 0.20036069 0.22442518 -0.043060884
000300 c5 f3 c1 3d 5d eb af 3d 9d ae 1c 3e 1d 8f b5 bb
       0.094703235 0.08589814 0.15300985 -0.005540742
000310 a2 95 96 3e 10 2c 12 3e dd 3d e4 3c 37 da d8 3d
       0.29411036 0.14274621 0.02786153 0.10588496
000320 f0 a4 ee bc 75 f2 79 3d 5b 82 2f be fd e8 1b bc
       -0.029131383 0.06102224 -0.1713957 -0.009515998
000330 d3 8d 03 3e 9b d0 8f be 2c 11 58 3e eb 2a d4 3c
       0.1284707 -0.2808884 0.211003 0.025899371
000340 dd 33 cf bd 62 6b 0f be 33 2a e3 bd ce 27 49 3e
       -0.10117314 -0.14005807 -0.11092033 0.1964409
000350 05 2f 50 be b5 4e 20 bd 3f 2f 7b 3c c2 e4 bf 3d
       -0.20330437 -0.03913756 0.015331089 0.09369804
000360 54 2e d6 3d bb 82 24 bb 16 dd f2 3c 50 3f 32 3d
       0.10458055 -0.0025102335 0.029646438 0.04351741
000370 39 cc c5 3e 99 cf 06 3e a9 16 cb bd 8d d4 b2 3d
       0.38632372 0.1316513 -0.099164315 0.08731947
000380 01 9c 43 bd 80 d1 c3 bd 38 71 3a 3e 83 ad cb bc
       -0.0477562 -0.09561443 0.18207252 -0.02486301
000390 46 56 e3 bd e4 dc 03 3d 34 32 b3 bb bd 37 f6 3d
       -0.1110044 0.03219308 -0.005468631 0.1202235
0003a0 09 69 85 3d 5e 8f b5 3d 58 27 d6 bd 0f 93 06 3e
       0.065141745 0.08865236 -0.10456723 0.13142036
0003b0 d4 ca 51 be e4 4e ad 3d 51 c7 1f be f7 f6 53 3c
       -0.20487529 0.08462313 -0.15603377 0.012937299
0003c0 96 bb 96 3d f3 33 9c be 3a 7a b3 3a db 1d 9d bd
       0.07359998 -0.30508384 0.0013693043 -0.0767171
0003d0 a7 2d 99 bb e3 17 f9 bc ef 05 d6 3d da c4 f3 3c
       -0.0046746316 -0.030406898 0.104503505 0.029756952
0003e0 45 93 65 3c 2b 9a 6a bd 2f c3 99 3d 1e cb 51 3d
       0.014012163 -0.057275932 0.075079314 0.0512191
0003f0 94 4e 19 3e 24 3c 25 3e 4c 8b b2 bc de 79 f9 3c
       0.14971381 0.16136223 -0.021794938 0.030453619

lstm.lstm2.weight_hh_l0 f4 [256, 64]
000000 50 47 2f 3e 51 96 15 be 62 25 2e 3c d8 3e 33 be
       0.17117047 -0.14608122 0.01062903 -0.17504442
000010 f9 78 95 bb 8f a1 cf 3d 61 ec 65 bd 01 fb 2b bd
       -0.00456154 0.10138237 -0.05613363 -0.041987423
000020 22 88 f8 3c a3 bc 31 be d9 b7 32 3e 8b 55 da 3d
       0.03033835 -0.17357115 0.17452945 0.10660847
000030 c3 b2 03 be fc 46 0f 3e 03 e5 76 3e 67 44 9a be
       -0.12861161 0.13991922 0.24110799 -0.30130312
000040 9c 45 9b 3c fe fe 9e bd 58 f9 d3 bd e3 84 19 3e
       0.01895409 -0.0776348 -0.10350293 0.14992099
000050 1c 00 f4 3d a6 7a 23 bd 9e 06 53 3e 6a 0b 70 3d
       0.11914083 -0.03991189 0.20607993 0.058604635
000060 13 ac 3b bd 37 cc 6e 3d 8f 80 03 3d 84 ef 86 3e
       -0.0458184 0.058300223 0.032105025 0.2635461
000070 b7 c8 ad bd 79 bf f5 bd a0 29 57 3e 50 93 27 be
       -0.08485549 -0.11999411 0.21011972 -0.16364789
000080 f3 22 a6 3c 07 e8 17 be 8f 79 00 3e 80 b5 09 3e
       0.020280337 -0.14834605 0.12546371 0.13448143
000090 18 0a 06 bd 2c e0 1f 3e 4e 61 a4 3d 26 e4 7a 3d
       -0.03272447 0.15612859 0.08026372 0.061252736
0000a0 a0 10 ac bd 8b 56 06 3e ad 12 8a 3e 12 a4 f0 3d
       -0.084016085 0.13118951 0.26967373 0.11750044
0000b0 9c 3c 6c bb 29 eb 31 3e ad 66 c3 3d 16 f0 21 bc
       -0.0036046868 0.17374863 0.09541068 -0.009883901
0000c0 ad 50 2b bc 32 eb b8 bd 45 68 b5 bd 88 8e 07 bd
       -0.010456246 -0.09029235 -0.088577785 -0.033094913
0000d0 51 4b 8f 3d aa cf 5e 3d 9b aa 1b 3d 66 44 dc 3d
       0.06996787 0.054397263 0.0380045 0.107552335
0000e0 1b 8f 15 bc a6 73 c6 be cc dc 42 bc ed 6d 5d be
       -0.009128357 -0.38760108 -0.011893462 -0.21623965
0000f0 3e fd a4 3c 24 4f 76 bd b2 7d 0f be e8 40 24 3d
       0.020140287 -0.060134068 -0.14012793 0.040100962
000100 e6 73 b7 3c 9c 18 15 be d3 7b be 3d d1 3c 96 3d
       0.022394132 -0.14560169 0.09300961 0.073358186
000110 c3 3a 3b 3d 31 30 07 3e cc bf 9a 3d 21 f4 a9 bd
       0.045710336 0.13201977 0.075561136 -0.08298517
000120 75 25 4a 3e 60 fa 8e 3d 86 7e 95 3d f7 49 01 ba
       0.19740851 0.06981349 0.07299523 -0.0004931981
000130 ee 27 75 3e ba f0 b5 3d 84 90 0b bd 64 6e bd 3d
       0.23941013 0.088838056 -0.034073368 0.09249571
000140 df 7b 30 3e 1f 11 80 be ef 7d 4b bc ea 42 1d bd
       0.17234753 -0.25013062 -0.012420162 -0.038393892
000150 82 76 30 3c 3e 41 56 3b 59 92 b7 3d d2 1b ea bc
       0.010770442 0.0032692696 0.089634605 -0.028577719
000160 90 e6 b6 3c 55 da 2a be 10 21 30 3e 10 95 96 3d
       0.022326738 -0.1668485 0.17200112 0.0735265
000170 e9 4f 03 be cd 9b 1b be 69 87 53 3c fc 54 73 bd
       -0.12823452 -0.15196152 0.012910702 -0.05940722
000180 1c 55 d0 bb 58 3e c2 3c 20 10 f2 3b 12 3d ef 3c
       -0.006357802 0.023711368 0.007387176 0.029203925
000190 b9 dc 73 3d d4 8f c6 3b 01 3d ea 3d 04 90 1f be
       0.05953667 0.006059626 0.11437417 -0.15582281
0001a0 e0 32 0d bc 66 f8 35 be 63 e2 39 be 56 d2 e3 bd
       -0.008618087 -0.17770538 -0.18152766 -0.11124103
0001b0 2b 36 44 3d 52 8a 1f 3e 5e b2 8b bd d6 4d 8a 3e
       0.04790322 0.15580109 -0.0682113 0.2701251
0001c0 e4 fe ee bd e4 08 ae bd e1 c2 31 3c 3a 6a 3b 3e
       -0.1166971 -0.084977895 0.010849685 0.18302241
0001d0 1e 66 bd 3d b7 83 ef 3c 84 4c 1f 3e e0 4e 70 3d
       0.09247993 0.029237611 0.15556532 0.05866897
0001e0 67 6e 07 3e 61 11 80 bd aa 67 3c 3d 2f 22 0d bd
       0.13225709 -0.06253315 0.0459973 -0.03445643
0001f0 34 4b a7 bd 20 5c 47 3d 26 7a a8 3d 0b 76 e9 bd
       -0.08168641 0.04867184 0.08226423 -0.11399468
000200 f1 04 0a be b5 98 fe bd 97 ac 8b bd 02 c9 54 bd
       -0.13478447 -0.1243147 -0.06820028 -0.05194951
000210 89 1c 8f be 92 15 52 3e 37 33 87 3d 26 fd 58 bd
       -0.27951458 0.20516041 0.06601565 -0.052975796
000220 7e c8 03 bf 97 cc 39 3e 02 60 02 be f0 31 0d be
       -0.514778 0.18144451 -0.12731937 -0.13788581
000230 94 7a 4e 3c 06 c8 92 3b 6c 75 9b 3d e0 f9 72 be
       0.012602467 0.004479411 0.07590756 -0.23728132
000240 06 07 24 3e 21 63 66 3d fb e8 00 be e6 15 39 be
       0.16018304 0.05624688 -0.12588875 -0.1807476
000250 57 00 c6 3e 57 a2 4d bd 5f ad b1 3d 77 5e 3e 3d
       0.38672134 -0.050203647 0.08675646 0.046476807
000260 fd 94 3e bd 84 99 95 3b 93 e1 a4 bd 38 18 f2 3e
       -0.046528805 0.0045654196 -0.08050837 0.47284102
000270 27 47 22 be a1 c9 34 be da 15 19 3e bb f3 02 3e
       -0.15847455 -0.1765504 0.14949742 0.12788288
000280 2f 8a c8 3d e7 7e b3 3d 73 f3 41 be e5 7a d2 3d
       0.097919814 0.08764439 -0.18940525 0.102773465
000290 1c f3 f4 3c a4 ad 27 be 5c 59 35 3a 35 16 00 bd
       0.02990108 -0.16374832 0.00069179176 -0.03127118
0002a0 56 2e 38 bd 7b 44 cd 3e 40 aa 89 3c d2 cc a5 be
       -0.044966064 0.4009131 0.016804814 -0.32382828
0002b0 6d ba 10 3e 6b 49 5b bd 4c 98 8c 3e da 00 ba be
       0.14133616 -0.053536814 0.27459943 -0.36328775
0002c0 eb 74 8c bc be 05 86 bd fe d9 c2 bc 60 99 21 be
       -0.017145595 -0.06544064 -0.023785587 -0.15781164
0002d0 13 71 b0 bd 81 3c c0 3d 1e c1 5a be 23 66 97 3d
       -0.08615317 0.0938654 -0.21362731 0.07392528
0002e0 5e 0f 60 3d a7 6b 43 bd d4 93 37 be cc ab 98 3d
       0.054702155 -0.047710087 -0.17927486 0.07454643
0002f0 fe b5 3e bd 71 3a 74 be 77 2b e7 bd ee 76 a9 3d
       -0.04656028 -0.23850419 -0.11287587 0.08274637
000300 b1 c9 b5 3d 1d 2c 6d bd 5a 20 1d 3c 80 13 c6 bd
       0.0887636 -0.057903398 0.009590233 -0.09671688
000310 78 2c c7 3d 8b d8 18 3e 12 79 ba bd aa 62 57 be
       0.097252786 0.14926355 -0.091051236 -0.21033731
000320 51 84 71 bd c8 1d e7 bd ed 7c 1f 3e 9b 58 aa 3c
       -0.058964077 -0.11284977 0.15574999 0.020794204
000330 4f fd bc bd f1 f8 84 bd 14 22 05 be 5a 5a 7d be
       -0.09228002 -0.06492794 -0.13001281 -0.24741498
000340 f8 37 38 3e ea 11 e4 bb d8 47 1c be e7 dd d7 bd
       0.179901 -0.0069601433 -0.15261781 -0.105403714
000350 0d fb 4e 3e dc a2 67 3d 8c 45 c7 bd 83 c9 94 3d
       0.20212956 0.0565518 -0.09730062 0.07264998
000360 c1 3f 1c 3d 2c aa dc 3d 82 86 57 3b 15 94 02 3f
       0.038146738 0.10774645 0.003288657 0.51007205
000370 23 38 20 3d 36 68 2e 3b 79 92 64 3e aa cf a2 bd
       0.039116036 0.0026612408 0.223215 -0.07949765
000380 38 32 07 bd 50 35 c1 3d ab 12 3d be b8 ac 5f 3b
       -0.033006877 0.09433997 -0.18464153 0.0034130048
000390 89 b4 af bd 1e 60 5b be 84 78 2f 3d 75 07 b5 3d
       -0.08579356 -0.21423385 0.042839542 0.08839313
0003a0 4a f9 6a be f1 22 38 3f 2e 34 22 3d e2 b8 bd be
       -0.22946659 0.71928316 0.039600544 -0.37055117
0003b0 c2 42 5f 3e f3 08 bb 3c cd 78 db 3c e0 3b 58 be
       0.2180281 0.022831416 0.026791 -0.2111659
0003c0 e5 ad 1f be 03 cc b1 bc f4 4a bb bd d6 b6 2d bd
       -0.15593679 -0.021703726 -0.091451555 -0.042410694
0003d0 7c e0 b5 bd 57 b5 26 3d f0 9f d8 3d aa 26 1b 3e
       -0.088807076 0.040700283 0.10577381 0.15151468
0003e0 06 42 ef bd cf 16 0f be 60 1d ee be 80 e4 1b bc
       -0.11682515 -0.13973545 -0.46506786 -0.009514928
0003f0 42 e4 70 3c 4d f8 e7 bd e5 13 e0 bd e3 62 27 3e
       0.014702858 -0.113266565 -0.109412946 0.16346316

lstm.lstm2.bias_ih_l0 f4 [256]
000000 33 b4 cf bd 22 13 06 3e a5 07 85 bd 3a 31 da bc
       -0.10141792 0.13093236 -0.06495599 -0.026634801
000010 bb 26 47 be 8c c4 19 bd eb d0 94 3b 54 f3 60 3c
       -0.19448368 -0.037540957 0.0045415065 0.013729889
000020 70 da 04 3b b3 14 11 bd 23 4c 92 3e 8f 49 da bc
       0.00202718 -0.03542013 0.28573713 -0.026646404
000030 ac 95 ab 3d 2a 79 14 be 2c bc 65 3d 17 3a 93 bc
       0.08378157 -0.14499345 0.056087658 -0.017972035
000040 67 2f 3c be 14 b9 92 3b 61 30 1e be 61 25 79 3d
       -0.18377458 0.0044776294 -0.15448143 0.060826663
000050 e0 db 08 3e e2 d0 22 be c5 c3 17 3e 09 c9 8f 3d
       0.13365126 -0.15899995 0.14820774 0.07020766
000060 aa 71 25 3e 50 3a 01 be 2a 1d 86 bd 82 2b 0c 3e
       0.1615664 -0.126199 -0.06548531 0.13688472
000070 16 c2 59 3e 9e 39 8f bd b2 59 fb 3d 7f ba 72 bd
       0.21265444 -0.069934115 0.122729674 -0.059259888
000080 be ff fe bd e0 0b 35 bd 16 50 2e bd 13 69 3a 3e
       -0.12451123 -0.044200778 -0.042556845 0.18204145
000090 5a 7d 82 be 9b a2 0a 3e 7e b2 0e 3d 4f c7 43 bd
       -0.2548626 0.13538592 0.034838192 -0.047797497
0000a0 0d 05 9d 3d 84 d4 2c bc 7b 81 1a bd 23 26 58 be
       0.07666979 -0.010548715 -0.03772114 -0.21108298
0000b0 4a 54 0e 3d fd c2 45 3c 58 99 50 3e 9f bb c9 bd
       0.034748353 0.012070415 0.20370996 -0.09850239
0000c0 10 a5 4d 3d 93 d9 ab be ab ff d8 bc a4 df a3 3d
       0.050206244 -0.33564433 -0.0264891 0.080016404
0000d0 6c 9a 41 3e 74 2b 42 be 69 ed 85 be 8c 60 fa bd
       0.18906564 -0.18961889 -0.26157692 -0.12225446
0000e0 c7 8d 3a 3e af f9 64 3e 7f c5 06 3e db b7 13 be
       0.18218146 0.22360872 0.13161276 -0.14425604
0000f0 c5 34 73 be 1e 09 af bc be 27 27 be 27 47 38 3e
       -0.23750599 -0.021366652 -0.16323754 0.17995892
000100 9c e9 30 3e 18 b2 64 3e 46 8b a1 bd 15 e0 f8 3d
       0.17276615 0.22333562 -0.078878924 0.12152115
000110 2d ff ee bd 7e 20 45 3e 98 24 63 3d a0 5d 62 bc
       -0.11669765 0.19250676 0.05545482 -0.013816267
000120 f9 8d 6f 3e 0f a7 7d be 1e 59 10 3e bb cc 61 3e
       0.23394002 -0.24770759 0.14096496 0.22050755
000130 d8 53 8d bc 93 6e 7e bd 44 93 c2 3d c0 eb 6e 3e
       -0.017251894 -0.06211717 0.09500745 0.23332119
000140 37 32 b0 3d f2 83 ea bd 93 dc 8b bc d6 4c 0e 3d
       0.08603328 -0.11450948 -0.017072951 0.034741245
000150 7f 2d 9f 3e ab 14 10 3d c6 6c 8e 3e b1 c4 ce 3d
       0.31089398 0.03517596 0.27817363 0.1009611
000160 e9 64 15 3e 4e fb 4f bd f9 73 23 3d 35 58 13 3e
       0.14589275 -0.050776772 0.039905522 0.14389117
000170 0e d2 a7 3e 44 b1 b8 ba a9 02 15 3e 73 b0 87 3d
       0.32777447 -0.0014090915 0.14551796 0.06625452
000180 d3 25 0e be 36 8e 1b 3e fb b6 4d 3e dc 96 ff 3d
       -0.13881616 0.15190968 0.20089333 0.12479946
000190 d5 c4 cf 3d 04 64 7a 3e be 87 6d 3e 39 4e a4 bd
       0.101449646 0.24452215 0.23196313 -0.08022732
0001a0 91 ac 8a 3d 88 58 7c 3e 51 50 ca 3e 40 2f c6 bd
       0.06771196 0.24643147 0.39514402 -0.09676981
0001b0 cb 92 91 bd d8 8a 44 3d 10 cb 7f 3e 10 85 79 3e
       -0.07108077 0.047983974 0.24979806 0.24367166
0001c0 86 81 40 bd b8 59 84 3d 67 14 b1 3c 52 4a 21 bd
       -0.046998523 0.06462425 0.021616174 -0.039377518
0001d0 cf 20 32 3e 38 cb 0a be 98 8c 25 be 8b 50 b4 3d
       0.17395328 -0.13554084 -0.16166914 0.08804425
0001e0 44 f4 0b 3d e5 f4 95 3e fe 8e 3b 3e 12 2c 53 3e
       0.034168497 0.29288402 0.18316266 0.2062228
0001f0 51 8c 25 be 8e ba 64 3c db 97 e1 3d 5d 60 3f 3e
       -0.16166808 0.013960494 0.11015292 0.18689103
000200 10 28 2c 3e 90 4b c9 3d e4 50 32 bc 8b 23 a8 3c
       0.16812158 0.098288655 -0.010883544 0.02052476
000210 f2 5c 20 3d ec bc 01 be aa 15 58 bd e8 b8 f8 bc
       0.03915114 -0.12669724 -0.052755035 -0.030361608
000220 c6 aa df bc 64 b7 7b 3b 34 03 c8 bd e8 d4 b4 bd
       -0.02730311 0.003840887 -0.09766236 -0.08829671
000230 5f c8 e4 3b 79 91 a5 bd 3b 54 de bd d4 aa 1e 3e
       0.006981894 -0.08084387 -0.108559094 0.15494853
000240 a6 1c 6d 3d c6 e6 2b 3e 7b 53 81 3b c9 cc a2 bd
       0.05788865 0.16787252 0.003946719 -0.07949216
000250 19 44 b9 bd 4f 60 28 bd ca ad a4 bd f9 bc 3f bc
       -0.09046192 -0.041107472 -0.0804096 -0.011702769
000260 35 0b d8 3d 87 b9 2b bc 65 99 41 bd 13 67 4f be
       0.105490126 -0.010481245 -0.04726543 -0.20254163
000270 c8 0b e0 3d dd b3 2a bd 9e 15 49 bc bf 5d 54 bd
       0.10939747 -0.041675437 -0.01227322 -0.051847216
000280 f7 db 18 bd 13 38 d6 bd 1c 23 a6 3d 53 54 ed bd
       -0.03731915 -0.10459914 0.08112165 -0.11588349
000290 1c 34 88 bb 7d 08 f5 bd e3 0b 0e bd e1 a3 dd bd
       -0.0041566025 -0.1196451 -0.034679305 -0.10822273
0002a0 be 9f df 3d 04 5c 3f bd eb 51 58 be 7e a9 54 3d
       0.1091914 -0.046718612 -0.21124999 0.051919453
0002b0 b4 63 c0 bc df 06 e5 bd f9 6f f3 bc 9b 4a cb 3c
       -0.023485042 -0.11182951 -0.029716479 0.024815848
0002c0 a9 f8 d7 3d 05 57 ba 3d 46 ed c1 3c 4d 00 85 bd
       0.10545475 0.09098629 0.023672711 -0.06494198
0002d0 b4 75 5e be 04 f1 13 3d 03 9d 11 bd a4 3e 93 bd
       -0.21724588 0.036118522 -0.03555013 -0.07189682
0002e0 81 f4 c2 3c 60 5f e4 3d 33 8b 2d 3d 74 06 cd 3c
       0.02379823 0.11151004 0.04236908 0.025027491
0002f0 1b c3 b2 3d 2f 95 7c 3e 54 f8 1e bc d5 0a f4 3b
       0.0872862 0.24666284 -0.009702761 0.0074475803
000300 98 2c 6c 3c 0c 62 49 be 37 0f e4 bd 62 db 31 bc
       0.014414929 -0.19666308 -0.111357145 -0.010855528
000310 4f fd 6a be 3c ad 50 3d 63 c1 92 3c 81 0c 81 be
       -0.22948192 0.05094646 0.01791448 -0.25204852
000320 01 b8 36 bc f0 6c aa bd f3 76 7e 3d b4 f6 1a bd
       -0.011152268 -0.083215594 0.062125158 -0.03783293
000330 ba 1d 4b bd 08 76 9a bd f9 ee df bc 5d bb d8 3c
       -0.049588896 -0.07542044 -0.02733563 0.02645653
000340 f3 12 91 bd 06 26 de bd 5f 10 31 be 6c 64 02 3d
       -0.070836924 -0.10847096 -0.17291401 0.03183405
000350 39 a8 db bc 1f d6 e9 bd 3a 28 36 bd ea 23 a0 3b
       -0.026813613 -0.114177935 -0.044471957 0.004887094
000360 38 e8 c8 3c df 2e 8f bd 68 dc 56 bd 85 ed ae 3d
       0.024524793 -0.06991362 -0.05245629 0.08541397
000370 a7 51 fb 3d c1 2d 21 3c 5c 51 22 3d e4 36 f4 bd
       0.12271433 0.009837569 0.03962837 -0.11924532
000380 18 4a 6f bd 66 ac 81 be 89 90 e8 bc 2e b2 7a 3d
       -0.05842027 -0.25326842 -0.028389232 0.06120508
000390 54 b5 e0 bc 06 75 2a 3e e3 3c 91 bd b7 82 5a be
       -0.027430214 0.16646203 -0.07091691 -0.21338926
0003a0 77 2e cb 3d d3 55 33 3d d9 2d e4 bc 15 ea 79 bd
       0.09920972 0.04378302 -0.027853893 -0.061014254
0003b0 4b 29 7e be db c8 d5 bc b3 61 2e 3d ad 38 04 3e
       -0.2482044 -0.026096752 0.042573642 0.12912245
0003c0 c1 87 ee 3b 1a 5a f8 bd a4 4b 5d 3c 5e 7b 6a be
       0.0072793667 -0.121265605 0.013506804 -0.22898623
0003d0 01 ab 9a 3b 7d 11 3e be 48 18 80 be c3 3b 0b be
       0.0047200923 -0.18561359 -0.25018525 -0.13597016
0003e0 ed 8c 71 3c 93 71 6e 3d 8a 82 18 3e 56 78 df bc
       0.014743072 0.05821378 0.14893547 -0.02727906
0003f0 fb 36 4a be e4 95 d5 bc 4b 65 60 bd b3 cd d0 3d
       -0.19747536 -0.02607245 -0.0547841 0.10195484
