073123/0810hoxyhoxy8.pth (torch, 644637 bytes, 40 tensors)

lstm.lstm1.weight_ih_l0 f4 [256, 12]
00000000: c193 46ba 1485 a3ba 6dd2 7ebb 0f5c faba
00000010: 242a e739 525c 88b8 cba8 04bb 563d 1bbb
00000020: 6936 bcba 5788 0a3b 29f9 f3b9 bdcc 0db9
00000030: 483f 0ebb e4d4 e639 c701 8a39 6792 043a
00000040: 758a 82b9 a9b6 adb9 6a9f 043a e64a 0eb9
00000050: c991 a0b8 86d1 8a3a c87b 343a 4fb5 1e3b
00000060: d94a 7dbb 5d41 e2ba 187a f9b9 dc5d 4dbb
00000070: 265c 5c3a 41e9 bdba 9bf0 1cbb cf6a b6ba
00000080: 09fc a0ba ac53 59b8 5a2e b2ba bfc7 a7ba
00000090: 8fbe da3a 8bcc 823a 505c d13a 56e0 ed3a
000000a0: 4a7e a33a 252a 2c3a f6f3 823a a8bc e53a
000000b0: 1825 dd3a e65e e83a 9b01 2c39 8bd9 b23a
000000c0: 7e42 613a 908d 10ba 26ef a0ba c7a6 cd39
000000d0: b21f 6e39 7b04 ad3a 328b 063b 1f26 173a
000000e0: 7b62 313a 83d9 d53a 21dd 3f3a 112a f13a
000000f0: 619b b9b9 03ed 243a 162f b2ba 291f fd3a
00000100: 907a 81ba bf60 21ba 7be5 033a 29a8 5b3a
00000110: 69b7 6b3a 881c 97ba 0ec5 5a3a 7f2e fd39
00000120: afa2 5b3a 00f1 0aba 3b6e b539 68b3 a4ba
00000130: c0e4 bd3a 1306 133b 2d0f 96ba 5165 663a
00000140: 1451 b13a fff5 b539 858a 64ba 2abe 6dba
00000150: a77d be3a 2436 403a 6629 283b fe4e 52b9
00000160: 0868 4aba ebdb 9eba 4b15 653b c933 583a
00000170: b729 723a 5d89 df39 1e5c d4ba 2620 fd3a
00000180: 0fd5 7e3a 7c67 ed3b ef4a 933b fc6f 2539
00000190: 2360 e1ba 5cc2 f8ba 85f2 cc3b 3325 51bb
000001a0: d443 b3bb a870 40bb 1cec 7a38 baf9 783b
000001b0: 5ffc 323b c5c5 23ba 57d0 673a 00d5 f238
000001c0: f654 8ab8 06ce 293a 9bd6 9539 5fb9 e339
000001d0: 7e77 e639 ed0d 5139 656a 61b9 42e8 64ba
000001e0: fef1 cc39 6b39 123b 6582 b039 5614 203b
000001f0: 8afb 19b8 d627 963a e17b 083b 6a62 8f3a
00000200: 75b8 3c3a 6da5 0eb9 230b eb3a e38f 0bba
00000210: ff5e c7ba 35b3 81ba 44e0 95ba 50f8 e33a
00000220: 4d38 733a e2b9 ccb9 72e8 bcb9 2b8d 22bb
00000230: 5a53 67bb c016 2439 ed99 023a d372 3f3b
00000240: 2616 f33b d177 59bb 9879 0dbb b5a3 04bb
00000250: 1b07 e8b9 287f 0bbb b49c 32bb 2b7b 873a
00000260: 3d6a 153b b7f9 58ba 6918 bcba 4447 17bb
00000270: f36a 703a 74b1 27ba e414 efb8 2dbd 5e3a
00000280: 11bf 143a a202 9d3a 3af4 b03a 215d d93a
00000290: 6e84 df3a 5c3b 003b dff6 3a3a 9377 c13a
000002a0: 6d6f 9d39 8146 e039 004a a13a ce19 9e3a
000002b0: 0476 9439 f584 de3a b862 053a 8f3d 823a
000002c0: 91ad 8f3a 1ae0 793a 1681 9a3a 6756 5e3a
000002d0: bf35 e43a cfd8 15ba 38ef e23a 6f8d a839
000002e0: 8c31 c838 c178 ae3a d9d4 b138 3910 5839
000002f0: 3ed0 4b39 cd18 19b9 8a91 5039 4900 2c39
00000300: 64b9 9b3c 7728 8c3b 97db f03b 6483 ed3b
00000310: d5b7 68ba 4cf6 623b 9031 b53c 2fce 763c
00000320: ba2b 603c de9a c83b 0f89 0c3b eaa3 b83b
00000330: d693 073a a719 0eba 1cc6 7aba 2e84 fab9
00000340: 527f 8c39 5945 8bba b177 0a3a 3e59 32ba
00000350: 5ca2 32ba 109f 8dba 32fd 38b9 f4e1 e839
00000360: 0317 a7bb c2fc a1b9 f4b1 693b 1bcc 41bb
00000370: 91bc 213a f1ef 913a 2ea2 43bb ff1c 44bb
00000380: d118 94ba 0a77 8e3b 357b 523a f293 e3b9
00000390: 1244 f93a da06 f73a 0998 e83a 8cf5 c53a
000003a0: f211 73b9 53ad f53a c649 1e3b 04c0 cf3a
000003b0: 1a12 ce3a 9638 ac3a b101 953a 9908 773a
000003c0: 2593 79ba 8da9 17ba 0d25 ec3a 1e28 9f38
000003d0: e045 a13a a2d7 1aba f6a2 a2ba 5651 c43a
000003e0: b64c d83a 2939 ca3a 22bb 413a f5c2 553b
000003f0: 9d16 ff3a d48e cf3a ff30 3e3b 5945 8b3b
-0.00075751176 -0.0012475573 -0.0038882748 -0.0019100922 0.0004409115 -6.502181e-05 -0.002024221 -0.0023687682
-0.0014359477 0.0021138394 -0.0004653421 -0.00013523079 -0.00217052 0.00044027634 0.00026322735 0.0005057216
-0.0002489869 -0.00033133224 0.0005059155 -0.00013570077 -7.656549e-05 0.0010591007 0.00068849 0.0024216955
-0.003864935 -0.0017261911 -0.00047583948 -0.0031336462 0.0008406065 -0.0014489071 -0.0023947123 -0.001391733
-0.0012282144 -5.1814757e-05 -0.0013594136 -0.0012800618 0.0016688871 0.0009979171 0.0015972946 0.0018148522
0.001247355 0.00065675593 0.0009990919 0.0017527537 0.0016872017 0.0017728477 0.00016403796 0.0013645155
0.0008592977 -0.00055142585 -0.0012278303 0.00039224906 0.00022709256 0.0013200188 0.0020529744 0.00057658734
0.0006766689 0.0016315434 0.00073190226 0.0018399378 -0.00035401716 0.0006291421 -0.0013594355 0.0019311655
-0.0009878445 -0.0006156079 0.00050314487 0.0008379245 0.0008991869 -0.0011528889 0.00083454035 0.00048290563
0.0008378429 -0.0005300194 0.00034605138 -0.0012565674 0.0014487728 0.002243404 -0.0011448615 0.0008788901
0.0013528191 0.00034706292 -0.0008718151 -0.0009069169 0.0014533297 0.00073322863 0.002565944 -0.00020056588
-0.00077211903 -0.0012119984 0.0034955319 0.00082474627 0.00092377834 0.00042636218 -0.001620177 0.0019311949
0.0009721079 0.0072450023 0.0044950168 0.00015777344 -0.0017194789 -0.0018978822 0.0062544965 -0.0031913042
-0.005470732 -0.0029364023 5.982454e-05 0.0037990646 0.002731107 -0.00062474265 0.0008842996 0.000115791336
-6.596178e-05 0.0006477538 0.00028579388 0.00043434926 0.00043958047 0.00019936981 -0.00021497307 -0.0008732119
0.0003909021 0.0022312056 0.00033666487 0.0024426184 -3.6712307e-05 0.0011455964 0.002082579 0.0010939364
0.0007199117 -0.00013603801 0.0017932396 -0.000532387 -0.0015210806 -0.0009895327 -0.0011434634 0.0017392728
0.0009278104 -0.00039048406 -0.0003603134 -0.002480338 -0.0035297484 0.00015648734 0.0004982043 0.0029212728
0.007418412 -0.0033182988 -0.0021587368 -0.0020239179 -0.00044255782 -0.0021285508 -0.0027254047 0.001033639
0.0022798919 -0.00082769565 -0.0014350537 -0.002308325 0.000917121 -0.0006396987 -0.00011400299 0.00084968173
0.0005674223 0.0011978934 0.001350052 0.0016583541 0.0017053017 0.001956663 0.00071321236 0.0014760367
0.00030028392 0.0004277714 0.0012305379 0.0012062134 0.00028316688 0.001697688 0.00050882576 0.0009936559
0.0010961761 0.000953199 0.0011787738 0.0008481503 0.0017411037 -0.0005716206 0.0017313724 0.00032148833
9.545972e-05 0.0013311134 8.479664e-05 0.00020605409 0.00019437165 -0.00014600456 0.00019890643 0.00016403304
0.0190093 0.0042772847 0.007350396 0.007248329 -0.0008877491 0.0034631668 0.02211836 0.015063806
0.0136823 0.006121977 0.0021443998 0.0056347745 0.00051718706 -0.00054206926 -0.0009566264 -0.00047782197
0.00026797742 -0.0010625526 0.00052821176 -0.0006803459 -0.00068143546 -0.0010804851 -0.0001764193 0.00044418836
-0.0050991788 -0.00030896632 0.0035659047 -0.002957112 0.0006169761 0.001113413 -0.0029851305 -0.002992451
-0.00112989 0.0043476867 0.00080292235 -0.00043407042 0.0019017479 0.0018846646 0.0017745505 0.0015103086
-0.00023180971 0.0018743671 0.002415286 0.0015850072 0.0015721947 0.0013139423 0.0011368302 0.00094235834
-0.00095205224 -0.0005785458 0.0018016413 7.589183e-05 0.001230415 -0.00059067656 -0.0012408185 0.0014977853
0.0016502354 0.0015428412 0.00073902507 0.0032617424 0.0019461695 0.0015835413 0.0029020903 0.0042502102

lstm.lstm1.weight_hh_l0 f4 [256, 64]
00000000: 4af3 afb7 31b1 2eb9 1aa6 b339 7603 3cb9
00000010: 4159 7db9 436a 9338 c32c 4538 6da0 5239
00000020: 2b2b 81b9 5dab cb38 f10c 5539 0fc3 94b7
00000030: 3efa 69b9 0b91 0fb9 4aea 8d39 95e2 01b9
00000040: f7bc eab9 f365 e038 56fb 72b9 27df 0eb9
00000050: dbc8 9eb8 8c50 5ab9 acb7 deb9 b3dc a539
00000060: 4770 2639 b97c 58b9 3f63 dfb8 e683 f9b9
00000070: 5921 e138 805a c339 6170 ffb8 b8b3 b738
00000080: be04 fab9 40a7 a6b8 887e eb37 0227 b5b9
00000090: 254c 1439 21ef b7b8 abe0 a4b7 b82f e438
000000a0: 4560 1bba c219 0839 251d 69b4 078b f439
000000b0: 9157 d339 e800 f5b9 cdb2 ecb6 76fc b339
000000c0: 1442 0eb9 d4bb d038 a515 d738 0077 d738
000000d0: 38a7 a2b9 b2d1 18b6 3e82 8db8 bbbc 1239
000000e0: f183 b6b9 9c75 8939 f257 df38 860e b939
000000f0: 5f6f 063a 4221 0d39 2ce7 4eb9 0655 1eb9
00000100: d93c dd38 5451 a6b8 4dc7 bab8 e9b7 7cb9
00000110: b099 8d37 a4d2 edb8 1018 4239 527e 7039
00000120: e734 0cb9 1e9e 9a38 a35b 2a39 f8cc 3039
00000130: a91c f4b7 e3f2 e4b8 e25a 3839 bcf7 28b9
00000140: 4714 a8b9 451f ea37 82c3 6d38 06a8 f3b8
00000150: 185a e638 c5ce 9eb9 1948 feb8 7dee 82b7
00000160: 1e1a e4b8 7752 01b8 8a33 06b9 be99 93b9
00000170: a5c7 8c38 36be 6338 d880 f1b8 bbde 40b9
00000180: e83f 83b9 217f 0e37 e360 6039 2d99 5fb9
00000190: 0309 4339 66c3 68b9 7465 1c38 eac9 a2b8
000001a0: 7052 a1b9 d99d 20b9 0e4e eb38 fc75 a139
000001b0: 6544 8b39 18dd 0eb9 6025 e5b7 3af2 9e38
000001c0: 4e7c 5538 c88b c338 2789 ce38 16ca 0db8
000001d0: adcd bfb9 ad4f 4639 e378 2c38 b651 a538
000001e0: f526 7ab9 6a36 8e39 394b 3fb6 6e8d 8839
000001f0: 3a11 2039 8677 c638 2711 f5b8 ccf8 29b9
00000200: 8fab 8cb9 92d1 96b9 434e 0737 a37e c3b8
00000210: 14e6 30b9 9841 97b8 b5b3 4d39 3332 0439
00000220: dcbd 1d39 dabd f3b7 f7c3 c232 06ab 6cb7
00000230: 1b30 cdb8 4815 1d38 9695 9937 d0a1 e6b8
00000240: 0777 9c38 b7ac 7038 0778 c6b9 a6a7 1a39
00000250: 66a7 ddb8 61d3 28b8 bc04 2f39 6c49 d1b7
00000260: 4d24 c138 2649 1ab9 5905 51b7 7b8a 74b9
00000270: c597 5437 b964 bab9 3331 e8b8 6d13 ca37
00000280: fbd2 dbb9 b4ba 13b9 8257 5238 a577 60b8
00000290: 4be4 1139 61b7 2539 42d7 8138 d623 1d39
000002a0: f23e a8b8 466a 8639 1fc3 7bb9 6fe7 9eb8
000002b0: 6b0e 5a39 0898 94b9 da8e 04b6 9e19 8839
000002c0: 768e cc39 4339 7e39 c4ff 9eb9 229c 2739
000002d0: f632 82b7 c94a bbb7 3cfe a5b8 a5e6 2cb8
000002e0: 21b7 c036 080d 8c39 5b57 0639 af48 c4b7
000002f0: 9820 57b9 0a37 2f38 4244 cbb8 db46 b938
00000300: 162f 36b9 2388 6eb8 b44d 4db7 bbf6 8639
00000310: 0968 adb8 f388 4238 533d 2938 bd46 14b8
00000320: f31c a139 a9bb 19b9 57ed 88b9 595d efb8
00000330: fda5 03b9 76e6 3139 f739 39b9 b03b d538
00000340: be9a 8f39 f879 ea38 f55c f538 7873 b038
00000350: 1690 33b9 14b2 c039 d350 8839 8385 5d36
00000360: 9826 2039 9a9a ee38 d162 c939 2b12 bc39
00000370: 07b2 83b9 56f6 b1b9 6f44 98b7 3020 8438
00000380: 0f49 9d39 535b 4bb8 6374 04b9 c0f7 9337
00000390: 5887 f9b8 98e8 a439 12aa bfb8 0f47 4639
000003a0: 2ec6 f738 b679 5138 8683 0eb9 5d26 92b9
000003b0: a434 ddb9 cb08 2439 cf98 7438 5863 c4b8
000003c0: 0887 9238 1059 34b9 5de9 9db9 84aa 8cb8
000003d0: 0083 d339 92c6 12b9 a733 42b7 d9c6 33b7
000003e0: 3fb7 7f39 0b4a 8db9 e014 6139 0b2d 0eb9
000003f0: 2d6a 23b9 7597 21b9 3b34 9db8 9d22 f238
-2.0974916e-05 -0.00016659942 0.00034265296 -0.00017930366 -0.0002416121 7.029299e-05 4.7010148e-05 0.00020086924
-0.0002463696 9.711713e-05 0.00020318084 -1.7733806e-05 -0.00022313834 -0.00013691575 0.00027068175 -0.00012386807
-0.00044772748 0.00010700142 -0.00023172548 -0.00013625306 -7.571439e-05 -0.00020820106 -0.00042479986 0.00031635686
0.0001587282 -0.00020645828 -0.00010651955 -0.00047591253 0.000107350475 0.00037260726 -0.0001218028 8.759595e-05
-0.0004768725 -7.9466496e-05 2.8073104e-05 -0.00034552073 0.00014142746 -8.770661e-05 -1.9654943e-05 0.000108807755
-0.0005927126 0.00012979566 -2.1710419e-07 0.0004664289 0.00040310298 -0.00046730717 -7.0541632e-06 0.0003432964
-0.00013566791 9.9531986e-05 0.000102560305 0.000102741644 -0.00031023636 -2.2771824e-06 -6.7476634e-05 0.00013993953
-0.0003481205 0.00026218302 0.0001064985 0.0003529677 0.000512829 0.00013459197 -0.00019731809 -0.00015099728
0.00010549435 -7.9306454e-05 -8.906294e-05 -0.00024101105 1.6880076e-05 -0.000113402755 0.00018510246 0.00022935242
-0.00013371148 7.372744e-05 0.000162466 0.00016861025 -2.9100413e-05 -0.000109171284 0.00017581464 -0.00016114017
-0.00032058565 2.7909535e-05 5.6687284e-05 -0.0001161844 0.00010984036 -0.00030290164 -0.00012125093 -1.5608262e-05
-0.00010876752 -3.0832798e-05 -0.00012798436 -0.00028152572 6.712907e-05 5.4298165e-05 -0.000115157745 -0.0001839352
-0.0002503388 8.493459e-06 0.00021398398 -0.00021324 0.00018600006 -0.00022198036 3.7287784e-05 -7.7623714e-05
-0.00030769734 -0.00015317592 0.00011220212 0.00030796218 0.00026563104 -0.00013624539 -2.7316331e-05 7.579145e-05
5.0898925e-05 9.324361e-05 9.848392e-05 -3.3805227e-05 -0.000365836 0.00018912433 4.112058e-05 7.883033e-05
-0.0002385637 0.00027124892 -2.8505003e-06 0.00026045315 0.00015265206 9.463639e-05 -0.00011685705 -0.0001620978
-0.00026830702 -0.00028766372 8.064849e-06 -9.3219125e-05 -0.00016870379 -7.212459e-05 0.0001961727 0.00012607202
0.00015043415 -2.9056264e-05 2.2673687e-08 -1.4106516e-05 -9.784122e-05 3.7451537e-05 1.8308678e-05 -0.000109973946
7.46083e-05 5.7381312e-05 -0.0003785493 0.00014749038 -0.000105692816 -4.0251183e-05 0.00016691064 -2.4948931e-05
9.209719e-05 -0.00014713834 -1.2458616e-05 -0.00023321241 1.2671521e-05 -0.0003555173 -0.00011071786 2.4089322e-05
-0.00041928128 -0.00014088565 5.01494e-05 -5.351719e-05 0.00013913323 0.0001580394 6.191294e-05 0.00014986037
-8.022589e-05 0.00025637652 -0.00024009914 -7.577135e-05 0.00020795471 -0.00028342032 -1.9752683e-06 0.00025959028
0.00039016054 0.0002424466 -0.0003032667 0.00015984525 -1.5520938e-05 -2.2326962e-05 -7.915168e-05 -4.12228e-05
5.743365e-06 0.0002671259 0.00012811778 -2.3398867e-05 -0.0002051614 4.177451e-05 -9.692508e-05 8.834685e-05
-0.00017374413 -5.687041e-05 -1.2237044e-05 0.000257423 -8.268661e-05 4.638075e-05 4.0349852e-05 -3.535183e-05
0.00030729882 -0.00014661126 -0.00026116773 -0.000114137954 -0.00012554969 0.00016965889 -0.00017664568 0.00010167749
0.00027390377 0.00011180708 0.00011699825 8.413842e-05 -0.00017124446 0.00036753772 0.0002600016 3.300928e-06
0.00015273166 0.00011377521 0.00038411331 0.0003587169 -0.00025118908 -0.00033943605 -1.8151679e-05 6.300246e-05
0.00029999806 -4.8484024e-05 -0.00012631858 1.7639133e-05 -0.00011898455 0.00031453813 -9.139268e-05 0.00018909223
0.00011814792 4.9942835e-05 -0.00013591172 -0.00027875873 -0.00042191625 0.00015643534 5.8316447e-05 -9.3645125e-05
6.986974e-05 -0.00017199316 -0.00030119243 -6.707481e-05 0.0004034266 -0.00013997618 -1.1575327e-05 -1.0715529e-05
0.0002438696 -0.00026948782 0.00021465449 -0.00013558955 -0.00015584445 -0.00015410579 -7.496072e-05 0.000115459065

lstm.lstm1.bias_ih_l0 f4 [256]
00000000: 85ed b9bb 2ea8 1cba 02af 27bb 298f 643b
00000010: 3fad 803a 18c1 a13a 08c0 363b a81a 583b
00000020: 3e17 023c c987 813a a808 943a 8a5e 623b
00000030: 457d feba 52cf cc3a 3f02 963a 1d5e d339
00000040: 5e02 823c 4909 32ba 9dc3 cd3b 67f7 303b
00000050: 9953 813a 1ce8 e33b fff0 223c 0d58 acba
00000060: 5c09 933b fa27 e83c 3a01 cb3b 155c 26bb
00000070: 4570 a53a a394 ce3b b97e 583c 62ba c7ba
00000080: ee13 a43b cfbd eabb ef6f 89b9 84a5 273a
00000090: d4e8 b03b 87c2 5bbc f475 823a ee38 11bb
000000a0: 6c72 543b edfe ab3b 39e6 25bc e3bf d43b
000000b0: df15 53bc 76a6 f43a fe99 b83a 1e4d 71bc
000000c0: 4e85 a63b 2189 35bc 3ba2 b9ba ab65 0eb9
000000d0: b01f b73b 2d11 b2b8 7c2b 033a 6f0b 0b3b
000000e0: 03e4 993b fcd9 ae3b d443 443b 0248 553c
000000f0: 93b3 7e3b bb99 933b bcfb a8bb 790b b2bc
00000100: 2e70 02ba 1bec 49bb 0ccb 35bb b83a a3ba
00000110: c306 a3bb 718b 4bbb 76ae d23a 5f6e 9bbc
00000120: c22a 1abd dfc3 84b9 b573 bcba 98e1 53bb
00000130: cd06 063a b4bb 2f38 519b dc3a 8a79 d8ba
00000140: 355d 0fbd 2784 8cba fac5 41bc ae15 2dba
00000150: 4d3a 12b8 5f7f 4dbc e43b f1bc eac2 95b9
00000160: fc75 ea3a 5cf0 f4bc 65ef babc 0f32 6dbc
00000170: b12c 7f3b ef2b 12bb 5ccd 063b b951 44ba
00000180: 1755 5fbc c0c4 98b9 e343 a2bb 888f a9bb
00000190: 274c 9e3b ff54 513c c6e4 f6ba 93df 1bbb
000001a0: 0f2f 0d3b e6c7 9f3b 344d d5bb 327a 1abc
000001b0: b899 f8bc 2f3e adb9 2236 dd3a af98 53bb
000001c0: 3b8d c83b 3790 9639 d61c 2fbc b436 d139
000001d0: fb07 47bc 37c7 efba 46cc a33a cb8b 48bc
000001e0: b376 05bc 56ec 74bb a331 243a c2ab f9bb
000001f0: f040 14bc 1925 a8bb 31ca 98ba 7cfb c0bc
00000200: 9cb5 08bd fb10 5c3d 0bd4 22bc 7d71 123d
00000210: f7d6 3f3d 7751 883d f7c6 0abd 011b a2bd
00000220: db97 ecbc af9f 973d eeba 22bd 4d7d a43a
00000230: 1458 c6ba 0b81 dd3c 8429 b3bd 5716 783c
00000240: b708 933d aa35 5e3d 660c a33d 39d5 013d
00000250: 27c3 2a3d 7bd9 6ebd 7550 fe3c e305 813d
00000260: 7cd5 96bc 3a50 a9bb 1bd7 9c3d 5c78 2fbd
00000270: bb31 ac3d eded d0bd 0c7d 143d e82b 78bd
00000280: 228a 03bb 4d80 073d fc97 193d a002 283b
00000290: 7e5f adbd 9926 8fbd 7cc1 ec3c 7b2e 633d
000002a0: b749 ebbd 3c83 16bd 0b22 cfbc 655d b3bd
000002b0: 9a1d 04bc 1f29 a43d 1436 16bd bd44 9fbd
000002c0: 43ee 9cbd f1e2 edbd fbb4 07bd 08ac 6d3d
000002d0: ddeb b7bd 3768 44bc df36 943d 4273 9a3d
000002e0: f8b5 ffbc b5e4 d4bd a378 8cbc 09d7 5b3d
000002f0: 2974 44bd 4885 c23c 8fe4 5d3d 9422 883d
00000300: 7910 e6bb 20c7 6bba 7f13 82bb 8548 683b
00000310: a7d9 943a 77b9 e13a 2c2a 42ba 0cee 4b3b
00000320: c57b a439 c837 673a d6d3 2a3a f88f b4bb
00000330: ee15 7e3b baca d13a 131e 713a d75c a4b8
00000340: 2b37 e63c f997 2fba cc37 c1bb 8e09 383b
00000350: 5117 36b9 d7d4 df3b 0d51 d63b 4840 c1ba
00000360: 564d a53b 03cb aa3c 4452 c43b d8e4 b8ba
00000370: a97f 04bc 3dfb ba3b dae5 1c3c 6ba9 c5ba
00000380: d69d b53b 861d b6ba ef9c c0bb 4c2a 3f3a
00000390: 37e3 bf3b 035d f2ba fb26 843a 3cfe 10bb
000003a0: 0586 cb3b fb51 aa3b ff48 2dbc c6f3 c73b
000003b0: 0c05 0f3a 2412 8f3a 2557 ba3a 25c3 6c3b
000003c0: b5d7 853b 5095 6dbc ca5f 3b3c 6dc4 06b9
000003d0: 0775 b93b fbc4 0639 8d76 04ba 8eb4 ccb9
000003e0: 0b53 943b e163 873b 6291 3f3b 17ac 90bc
000003f0: ee9c 6d3b f11b 493b 499d 96bb 9f2c ce3c
-0.0056740665 -0.00059759885 -0.002558649 0.003487537 0.0009817256 0.0012340872 0.0027885456 0.0032974873
0.007940112 0.0009882386 0.0011294084 0.0034541213 -0.0019415995 0.0015625751 0.0011444761 0.00040315176
0.01587027 -0.0006791545 0.0062794224 0.0027002932 0.0009866833 0.00695516 0.009945153 -0.00131488
0.0044871997 0.028339375 0.0061952146 -0.0025384475 0.001262196 0.00630434 0.013213807 -0.0015238042
0.0050072586 -0.00716374 -0.00026214073 0.0006395208 0.005398849 -0.013413078 0.0009953366 -0.0022159177
0.0032416834 0.0052488954 -0.01012569 0.0064926012 -0.012883632 0.0018665332 0.0014083979 -0.014727859
0.005081809 -0.011080057 -0.0014162728 -0.0001358005 0.0055884942 -8.490901e-05 0.0005003733 0.0021216532
0.0046963706 0.0053360444 0.0029947655 0.013017656 0.0038864359 0.00450441 -0.005156962 -0.021733986
-0.00049758225 -0.0030810896 -0.0027739434 -0.0012453413 -0.0049751713 -0.0031058455 0.0016073722 -0.018973527
-0.037638433 -0.00025322937 -0.0014377745 -0.003233051 0.0005112708 4.1898064e-05 0.0016830956 -0.0016515714
-0.035001 -0.0010720537 -0.011826986 -0.0006602657 -3.486341e-05 -0.012542575 -0.029447503 -0.00028564717
0.0017887945 -0.029899769 -0.02281923 -0.014477267 0.003893655 -0.0022304018 0.002056918 -0.0007488984
-0.013631127 -0.0002913829 -0.0049519404 -0.005174581 0.0048308554 0.012776612 -0.001883649 -0.0023784384
0.0021542942 0.0048761247 -0.0065094475 -0.009428548 -0.030346736 -0.00033043462 0.0016877095 -0.0032287051
0.0061203516 0.00028717678 -0.010688027 0.00039904343 -0.012147899 -0.0018293624 0.0012496791 -0.0122403605
-0.008145976 -0.0037372313 0.00062635 -0.007619352 -0.009048685 -0.0051313755 -0.0011656937 -0.023557417
-0.03337632 0.05372713 -0.00993825 0.035752762 0.046835866 0.06656163 -0.033881154 -0.07915307
-0.028881004 0.07403504 -0.03972905 0.001254955 -0.001513245 0.027039072 -0.08748153 0.015142045
0.071793966 0.054250397 0.07961349 0.031697486 0.041690018 -0.058312874 0.031044224 0.06299951
-0.018412344 -0.0051670345 0.076582156 -0.042839393 0.08407923 -0.10201631 0.036252066 -0.060588747
-0.0020071347 0.03308134 0.03749846 0.002563633 -0.08465479 -0.06989784 0.028900854 0.05546425
-0.11488669 -0.03674625 -0.025284788 -0.08758048 -0.008063698 0.08015656 -0.036672667 -0.07776783
-0.07662632 -0.11615551 -0.03313158 0.05802539 -0.08980534 -0.011987737 0.07237028 0.07541515
-0.0312147 -0.10395185 -0.017147368 0.05367187 -0.04796234 0.023745194 0.05417305 0.0664722
-0.0070210067 -0.00089942105 -0.0039696093 0.0035443616 0.0011356369 0.001722141 -0.0007406797 0.0031117229
0.00031372733 0.0008820263 0.00065165514 -0.0055103265 0.0038770395 0.0016005852 0.0009197902 -7.837422e-05
0.028102478 -0.0006698366 -0.005896544 0.0028081867 -0.00017365559 0.0068307924 0.0065404237 -0.0014743889
0.0050446196 0.020848757 0.005991252 -0.0014106287 -0.008087077 0.0057062195 0.009576285 -0.0015080398
0.005542497 -0.0013894297 -0.005878083 0.00072923745 0.0058559435 -0.0018490854 0.0010082418 -0.0022124192
0.0062110447 0.005197761 -0.010576486 0.006102058 0.0005455769 0.001091544 0.0014216645 0.0036127057
0.004084552 -0.014500931 0.011436412 -0.0001285241 0.0056597027 0.00012852617 -0.0005053066 -0.00039044436
0.004526501 0.0041317795 0.0029230942 -0.017660184 0.0036256867 0.003068682 -0.0045963866 0.025167761

lstm.lstm1.bias_hh_l0 f4 [256]
00000000: 8e33 a93b e7a0 5cba 7960 07bb bad1 693b
00000010: 2afa 993a a2b1 283a 0903 e43a 35a2 803b
00000020: a651 103c 7c62 853a 8ca7 523b e839 7b3b
00000030: 81bf bbbb 16e0 ca3a 7c3e 5f3a 80b2 393a
00000040: 8236 873c aa22 32ba bbd9 083b 5c5e 273b
00000050: 8acf beba 492e e13b a222 db3b 7666 87ba
00000060: fa31 c2bb 069b 3fbc f532 e73b 2388 bdba
00000070: 20cc b63b 4608 d23b a2f4 e0bb 87b1 1bb9
00000080: eb5f aa3b 2dc1 fcbb 3a15 1b3b f385 ac3a
00000090: 1556 af3b 6316 483b 8374 823a 0b99 0bbb
000000a0: 6fa3 8e3c 13b8 173b 5efc 83bb 33b5 973b
000000b0: 048f 87bb c5e3 e03a 86a3 b93a c3e3 08bc
000000c0: 3b8b 963b a1e1 16bc 0ded 08bc 1c36 ad38
000000d0: 94b6 c23b 8220 82b8 638e 7cb9 fa4f 17bb
000000e0: 8f48 973b a43b b53b 0239 4d3b e89c e7bc
000000f0: 61f0 3b3b 963b 3cbb 6264 14bb e73d 7c3c
00000100: 8db0 1039 85ba 50bb fee3 20bb 449d afba
00000110: fb96 a2bb 5c88 52bb 6cb6 e83a b8d8 91bc
00000120: c3a4 cabc 1dcf a5b9 e794 a3ba 09a9 a0bb
00000130: 87f5 4cbc a085 4a38 82d4 d93a df66 f4ba
00000140: af4c debc 0788 8cba 7bce 483c 69dd 2aba
00000150: 550e 3239 f989 4dbc f023 e1bc 7a56 ffb9
00000160: 29b0 4f3b 003e 333c 2db5 e3bc 876c 8fbc
00000170: 812e 7b3b 1507 1cbb 92ab d23b c685 f7b9
00000180: aede 54bc e985 8139 9bb1 27bb 1543 b8bb
00000190: 5334 993b 703b 36bc a9e4 f6ba f5db 21bb
000001a0: 2f8c 21bc 708d 8b3b 8153 d9bb b59a 353b
000001b0: b6f7 aebc 9fef 3dba 73f4 dc3a 92c8 b7bb
000001c0: 7c15 ce3b 183f 17ba 5f79 80bb e13e ea39
000001d0: cc2b 47bc 4810 d9ba 1fa6 173a 95f4 20bc
000001e0: 0532 04bc f199 80bb bf00 233a 47b0 97bc
000001f0: 0e0b 19bc eb0a b2bb 6ff2 84bb 057c c2bc
00000200: f9af 593d 27e3 8bbd 31e6 563c 723f b1bc
00000210: 6dcf 55bd 6b08 79bd d789 533c 428b 1f3d
00000220: 0e54 393d 9881 5bbd 1362 28bd 9113 16bd
00000230: b5e7 463d 2246 4bbd 585b 463d e6ec 5d3d
00000240: f156 cfbd a8eb ac3c aa1a 8b3c 3d84 4d3d
00000250: c1f0 adbd d90f ec3d dea5 93bd d388 d93c
00000260: 1e16 51bc 1e2a b63d 2803 a7bc 7bfe 603d
00000270: 583d d2bd 3bd4 c63d b50f b63d 226e 8fbd
00000280: 9822 0dbd c1c0 b23c 51f9 ab3c 1287 d6b9
00000290: 98b3 ca3d 04bb 373d a40c 85bd d12c f539
000002a0: 7df4 be3d 0446 a13d f795 4d3d d6e7 7d3c
000002b0: e96b b7bd 5369 4cbd c813 6dbd c831 1ebc
000002c0: c19b 36bd ff02 4fba 3672 2e3d 72d6 b73d
000002d0: 17d7 bb3d e941 993d 27c0 373d a946 af3d
000002e0: 22e8 253d 087b 033c 2918 0ebc c4c8 62bc
000002f0: 617a d03c 9118 b93c aef4 393d cd92 f13c
00000300: 8e7d 8e3b 5684 91ba b3ab 26bb f5c2 7d3b
00000310: 4d2c 853a 86c1 9d3a 5c3f f7ba e887 9a3b
00000320: d348 1a3c f53d 683a 18dd 3b3a 1f51 3539
00000330: bd6d 57bc fce9 c63a 9556 583a 0517 af38
00000340: be2a 183c 7a58 2fba 2521 483b a898 303b
00000350: 9f1b 09b9 d9a4 dd3b 403b 203c a394 a7ba
00000360: 7f71 edba 3fb2 a5bb 1aea d73b 90b4 213b
00000370: 63e1 2cbb 0079 c73b b7a9 c0bc 0c45 76bb
00000380: c034 853b ff51 4abc 4276 15bb 43b5 cbb9
00000390: 0b4d ae3b 01e5 9439 7627 843a 6472 03bb
000003a0: f451 823a 8da7 783b fa8d a2bb 9fc7 ac3b
000003b0: d5b5 5fbc 3dae 833b 97d4 b93a 94f2 913b
000003c0: cc60 8b3b 5ea4 8abb 58db 293b 825e 40b9
000003d0: 0f56 ca3b e6a1 8739 8875 1839 9350 81bb
000003e0: 873b 983b 0408 d63b 9963 403b 9903 173c
000003f0: ad0d 6c3b e9ba e03a 47c3 c1bb ed19 973b
0.0051636165 -0.00084163103 -0.0020656867 0.0035677985 0.0011747528 0.0006435161 0.0017395924 0.0039255866
0.008808529 0.0010176445 0.0032143323 0.0038334075 -0.005729616 0.001547816 0.0008516086 0.00070837885
0.016505484 -0.00067953265 0.002088173 0.002553842 -0.0014557701 0.0068719727 0.006687478 -0.0010330218
-0.005926368 -0.011694675 0.007055635 -0.0014460128 0.005578533 0.0064096777 -0.0068651 -0.00014848086
0.0051994226 -0.007713458 0.0023663775 0.0013162479 0.005350838 0.0030530922 0.0009952936 -0.0021300938
0.017411916 0.0023150488 -0.0040278872 0.004629755 -0.004136922 0.0017157724 0.0014163114 -0.008355084
0.0045942343 -0.009209068 -0.008357299 8.2593615e-05 0.005942175 -6.204938e-05 -0.00024085636 -0.0023088441
0.004616804 0.0055307914 0.0031314497 -0.02827306 0.0028677213 -0.002872204 -0.002264284 0.015395618
0.0001379868 -0.0031849456 -0.0024549956 -0.0013398309 -0.004961846 -0.0032124734 0.0017754561 -0.017803535
-0.024736768 -0.00031625564 -0.001248029 -0.004902963 -0.01250971 4.8285e-05 0.0016619118 -0.0018646381
-0.027136175 -0.0010721692 0.01225626 -0.0006517978 0.00016980742 -0.012545102 -0.027482957 -0.0004870182
0.0031690693 0.010940075 -0.027796352 -0.017507805 0.003832728 -0.0023807932 0.006429144 -0.0004721118
-0.012992544 0.00024704568 -0.002558804 -0.005623231 0.004675427 -0.011122569 -0.0018836457 -0.0024697755
-0.0098600825 0.004258804 -0.006632269 0.002771062 -0.021358352 -0.0007245484 0.001685752 -0.0056086266
0.006289182 -0.00057695946 -0.0039207186 0.00044678806 -0.012156438 -0.0016560638 0.0005784947 -0.009823938
-0.008068566 -0.0039246012 0.0006218068 -0.018516673 -0.009341015 -0.0054334304 -0.0040572206 -0.023740778
0.053146336 -0.06830435 0.013116405 -0.021636698 -0.05219977 -0.060799044 0.012911282 0.038951166
0.045246176 -0.053590387 -0.041109156 -0.036639754 0.048560817 -0.04962743 0.048426956 0.054181002
-0.10124005 0.021108463 0.016980488 0.05017494 -0.08493186 0.1152646 -0.07209371 0.0265545
-0.012761621 0.08894752 -0.020387247 0.05493019 -0.10265607 0.097084485 0.08889715 -0.07003428
-0.03445682 0.021820428 0.020992907 -0.00040917896 0.09897536 0.044856086 -0.06496552 0.00046763432
0.09323976 0.078746825 0.050191846 0.0154971685 -0.08956129 -0.049905133 -0.057880193 -0.009655423
-0.044582132 -0.000789687 0.04258939 0.08976449 0.091718845 0.074832745 0.044860985 0.08558399
0.040504582 0.008024938 -0.008672752 -0.013841812 0.02544898 0.022594722 0.04539936 0.029488945
0.0043484634 -0.0011102061 -0.002543193 0.003872094 0.0010160297 0.0012035824 -0.0018863487 0.0047159083
0.009416777 0.000885933 0.00071664294 0.00017291725 -0.013148722 0.0015175934 0.0008252648 8.348938e-05
0.009287534 -0.0006688904 0.0030537334 0.002694646 -0.00013075628 0.006764036 0.009779751 -0.0012785386
-0.001811549 -0.005056649 0.0065891864 0.0024674274 -0.0026379458 0.0060874224 -0.023518426 -0.0037577776
0.004065126 -0.012348651 -0.0022806083 -0.00038854228 0.005319243 0.0002839938 0.0010082561 -0.0020057196
0.0009942637 0.0037941665 -0.0049607726 0.00527282 -0.013654192 0.0040185736 0.0014177737 0.0044539664
0.0042534824 -0.00423102 0.0025918093 -0.00018345754 0.0061748098 0.0002586983 0.00014539633 -0.003946373
0.004645768 0.0065317173 0.002935624 0.009217166 0.0036018894 0.0017145547 -0.0059131715 0.004611245

lstm.bn1.weight f4 [7]
00000000: ff60 a03d a2de 2e3e b3c5 8c3e 60c0 b93e
00000010: cc4d d13e cb72 fa3e 53be 323f
0.078310005 0.17077115 0.27494583 0.36279583 0.40879667 0.48915705 0.6982166

lstm.bn1.bias f4 [7]
00000000: a86c 62ba 7c3b 2dbb f159 70bb b7b2 61ba
00000010: 82dc 9ab8 e3fa e03b 0663 b63c
-0.0008637407 -0.002643316 -0.0036674703 -0.00086096994 -7.384365e-05 0.0068658455 0.022264015

lstm.bn1.running_mean f4 [7]
00000000: ae29 1c3b f23d 5c3b 8fda 753b cfb7 7f3b
00000010: 7ea4 813b de36 823b 635a 823b
0.0023828554 0.0033606258 0.0037514304 0.003901947 0.0039563766 0.003973826 0.00397806

lstm.bn1.running_var f4 [7]
00000000: 10af e539 bf75 783a e232 a53a 35f4 ba3a
00000010: bde8 c53a b24d cb3a 20ed cd3a
0.00043808715 0.0009477995 0.0012603665 0.0014263453 0.0015099269 0.0015510826 0.0015710928

lstm.lstm2.weight_ih_l0 f4 [256, 64]
00000000: afbe bd39 1352 6939 24bd 3938 ea1c b137
00000010: ae39 5039 6e9f c4b8 fdd3 bfb9 b336 cbb9
00000020: cace 0fba 008a ceb9 efb6 4837 2f60 9739
00000030: 53ee e439 a72d ebb8 84c0 2439 8c81 ceb8
00000040: 5518 75b9 8027 3cb8 7293 073a 159a f8b9
00000050: 19f3 1639 547e 30b9 fe75 7db9 d72b 6438
00000060: c3d4 51b9 d54c a339 4a67 17b9 e5d2 093a
00000070: 0bf2 4739 be48 1a3a 5ab7 bf37 4a89 30b9
00000080: b464 1c3a b8a7 8139 e363 0339 80f2 88b8
00000090: 70cf f1b9 e111 bbb9 18eb ed36 84ab fcb8
000000a0: f3cd bab9 f134 ddb9 41a5 f239 1dc8 ae39
000000b0: ee08 8ab9 5e09 f239 f4e4 7339 cb9e 81b9
000000c0: c043 1fba f782 a1b9 a13f 0e3a 119c d8b9
000000d0: 2a06 0db9 b5de 3438 4fb4 7239 8ff0 b739
000000e0: 0ca1 3cb9 7d45 4bba e54a 26b9 2c9c 013a
000000f0: 436b 0d3a 4590 2a39 21f6 0d39 33f4 c5b9
00000100: 4423 3e3a 1657 39b9 55af f2ba 2510 04bb
00000110: 587f d439 2f03 9eba 71bb eb3a 5995 243b
00000120: d15c f639 7c3b 543a aba7 aeb9 e9f5 c73a
00000130: e448 6d38 2f41 2fb9 1879 0bba b4df 40ba
00000140: f752 95ba bdf8 5f3a 9add 183a 75ad d43a
00000150: f91d 803a 0341 8dba a7ce b839 754b 9dba
00000160: c655 7bba b066 a43a 29e7 38ba 620c bfba
00000170: 434a 3837 b60d 10bb 2a24 aa39 b576 ceba
00000180: 3040 feba 3336 783a 361b 0b3b 3152 9fba
00000190: c74b 1c3b 4b23 6fba edc7 50ba 486f 9c38
000001a0: 8f96 043a ec44 06ba bbe3 33b9 cc15 a4ba
000001b0: ba43 0b3b e00f 44b9 9a42 a2ba 5786 a7ba
000001c0: 35b3 f33a 5fb8 0b39 7b53 d2b9 2c8f b63a
000001d0: e284 18bb f440 ef3a a52c bf3a 4631 cd39
000001e0: e82a 56b9 628e e23a 7428 fbb9 5c5a b739
000001f0: 5d37 f1ba 9bde 85ba 6e7f 673a 41b2 8aba
00000200: b0a2 863a ab5f 71b7 8f46 68ba b36c 30ba
00000210: 9c8c bb3a 8887 0ebb 8c70 8dba 00f9 87b8
00000220: b0c9 71ba cc74 9238 08c9 99ba 7cbd 483b
00000230: aae9 1fba b408 97ba 5339 8d3a a73a 953a
00000240: e266 1fbb 1a31 c73a a71b bf3b c50a 36bb
00000250: f395 d23a 15c2 a6ba 299f 48ba 3276 8eb8
00000260: bea6 ceb9 8931 04b9 e341 953a f394 c43a
00000270: 7625 3eba 1089 553a 5745 213b dcbd 30bb
00000280: bed3 963a 367c 2b3b 5ddf 24ba 5e26 2fbb
00000290: 0374 aaba 8cce 49bb 4dc9 b239 5b10 b9b9
000002a0: c569 1fbb 2ac6 d2ba 6f61 22b9 a0d1 ef3a
000002b0: 9a29 12b8 1b0c a63a eb82 ce39 f612 91bb
000002c0: 2e70 06bb 2e78 03bb d9f9 c03a 9f8a 22ba
000002d0: a3a2 93ba 010e 003b 6607 1a3b e7e4 893b
000002e0: 800a e2ba 78e3 eeba a777 a2b9 9722 e63a
000002f0: 3fd6 a03a 5858 173b efd1 e23a f786 393a
00000300: 12cb 053a fe56 db39 a4e7 b8b9 c473 73b9
00000310: b1fc db38 4f87 aab8 76d3 b4b9 1c00 393a
00000320: 576b 5d39 b007 473a 51cc b3b9 5100 7638
00000330: 99fe 53ba a90e afb7 2ec6 69b9 3cb0 603a
00000340: 4038 10ba faa2 9a39 60bd 013a be23 c6b9
00000350: a92e 123a 0f69 5ab9 d5d6 07ba bf1f c9b7
00000360: dd61 09ba 9f2e 0a3a 739a b339 efc4 7a38
00000370: 2494 33ba 0ba3 fcb8 f899 0b3a 6b12 4fba
00000380: 7f51 acb8 3ca2 1a3a a259 a9b8 436e 52ba
00000390: 31f1 043a 4e1a 0fba 30dc c8b8 a184 eab7
000003a0: 5e26 c239 2021 8cb9 fe9d 84ba 00f7 f6b8
000003b0: 24e9 d039 3153 a6b9 d072 d6b8 5da4 04ba
000003c0: c292 03ba 02ea 2bba 60c6 f939 3ce7 2339
000003d0: e39d 9eb9 b563 26b9 4654 e139 3e45 023a
000003e0: b9de d1b9 df88 b738 0bab e2b9 eb2f 4cba
000003f0: 1c5d ef38 2cd7 89b6 e5a0 273a a9b1 b139
0.0003619096 0.00022251187 4.4283588e-05 2.1113508e-05 0.00019857913 -9.3757044e-05 -0.00036588302 -0.0003875993
-0.0005485831 -0.000393942 1.19635215e-05 0.00028872627 0.00043665114 -0.000112141766 0.00015711976 -9.8469754e-05
-0.00023374085 -4.485948e-05 0.00051718124 -0.00047417046 0.00014395676 -0.00016831729 -0.00024171916 5.4400265e-05
-0.00020011053 0.00031147027 -0.0001443896 0.0005257561 0.00019068287 0.0005885473 2.2854354e-05 -0.00016835812
0.00059659337 0.00024729758 0.00012530344 -6.5301545e-05 -0.00046121655 -0.0003568074 7.090519e-06 -0.00012048244
-0.0003563013 -0.0004219185 0.0004628096 0.00033336962 -0.00026328064 0.00046164816 0.00023259578 -0.00024723107
-0.0006075464 -0.0003080589 0.00054263516 -0.0004131501 -0.00013449104 4.3122756e-05 0.00023146089 0.0003508371
-0.00017989072 -0.000775419 -0.00015858894 0.0004944231 0.00053947064 0.00016266208 0.00013538498 -0.0003775671
0.000725318 -0.00017675417 -0.0018515388 -0.0020151224 0.0004053067 -0.0012055392 0.0017984939 0.0025113432
0.0004698993 0.0008096022 -0.0003331279 0.0015255782 5.6573088e-05 -0.00016713583 -0.00053204736 -0.0007357553
-0.0011392523 0.000854384 0.0005831361 0.0016226011 0.0009774558 -0.0010776821 0.00035249183 -0.0012000637
-0.00095876714 0.001254281 -0.00070534885 -0.0014575834 1.0984545e-05 -0.0021980829 0.0003245187 -0.001575193
-0.0019397791 0.00094685255 0.0021225936 -0.0012155232 0.0023848878 -0.00091223855 -0.00079643616 7.4593874e-05
0.00050578354 -0.00051219645 -0.00017155606 -0.0012518703 0.0021250085 -0.0001869793 -0.0012379468 -0.0012781125
0.0018592837 0.00013324757 -0.0004011652 0.0013928167 -0.0023272564 0.001825361 0.0014585449 0.00039137359
-0.00020424614 0.0017284865 -0.0004790459 0.00034971803 -0.001840334 -0.0010213436 0.0008830939 -0.0010581688
0.0010271873 -1.4386994e-05 -0.00088606117 -0.00067300646 0.0014308873 -0.0021748263 -0.0010790988 -6.4836815e-05
-0.0009223474 6.9835776e-05 -0.0011732886 0.003063052 -0.00061001873 -0.001152298 0.001077453 0.0011385278
-0.0024322798 0.0015197129 0.005832154 -0.0027777415 0.0016066417 -0.0012722636 -0.0007653111 -6.793103e-05
-0.00039415614 -0.00012606954 0.0011387434 0.0014998004 -0.0007253507 0.0008145729 0.002460798 -0.0026968634
0.0011507196 0.0026166565 -0.0006289387 -0.002672575 -0.0013004545 -0.0030793278 0.00034100786 -0.00035298135
-0.0024324518 -0.0016080786 -0.00015485821 0.0018296726 -3.4847857e-05 0.0012668403 0.00039388923 -0.004427309
-0.0020513642 -0.0020060646 0.0014722898 -0.0006200466 -0.001126368 0.0019539597 0.0023502945 0.0042081955
-0.0017245561 -0.001822575 -0.00030988196 0.0017557916 0.0012270882 0.0023093428 0.0017304997 0.0007077301
0.0005103807 0.0004183575 -0.000352678 -0.00023217412 0.00010489801 -8.131435e-05 -0.00034489826 0.0007057206
0.0002111619 0.0007592393 -0.00034293768 5.8651265e-05 -0.0008086949 -2.0868452e-05 -0.00022294439 0.0008571183
-0.0005501546 0.00029494596 0.00049491785 -0.00037792133 0.0005576411 -0.00020829237 -0.0005181854 -2.397585e-05
-0.0005240718 0.00052712293 0.00034256614 5.9788053e-05 -0.0006850383 -0.000120466655 0.00053253723 -0.0007899168
-8.216779e-05 0.00058988086 -8.0752434e-05 -0.00080272945 0.0005071341 -0.0005458937 -9.577756e-05 -2.7956734e-05
0.0003703115 -0.0002672756 -0.0010117886 -0.000117762014 0.00039846555 -0.0003172397 -0.00010225701 -0.00050598924
-0.0005019122 -0.0006558002 0.00047640782 0.00015631033 -0.00030253743 -0.00015868137 0.00042978133 0.00049694243
-0.00040029528 8.751614e-05 -0.00043233516 -0.0007789123 0.00011413751 -4.1079675e-06 0.00063945196 0.00033892438

lstm.lstm2.weight_hh_l0 f4 [256, 64]
00000000: 64f3 79b7 cf6e ceb7 a534 ab38 7357 2cb7
00000010: 4086 c736 85c0 8038 8b71 0137 f748 24b7
00000020: 1e84 4eb8 12bb f637 7c46 90b7 d11f 52b7
00000030: 02e9 1fb7 4732 d1b7 36a1 b637 9381 88b6
00000040: 4e7d eb36 410e bd37 bdc8 c0b7 e4db d637
00000050: d653 6eb7 0fdc 7c36 a7cd cf36 55a0 3337
00000060: 5a97 4937 e55b 2536 9ac9 07b9 558f 03b7
00000070: a4dd 1f38 c5a9 fd37 90d3 35b7 8fc3 a537
00000080: d016 1137 6ee5 9736 9348 71b7 6c1e a9b8
00000090: 288a 7537 b778 eb36 6353 29b7 ab59 6bb7
000000a0: a339 5bb7 9f56 f436 40e5 0138 ca72 3938
000000b0: 9243 9f36 05ce adb7 6826 6337 9d12 ddb7
000000c0: bb77 b7b7 eef1 fcb7 3590 84b7 df54 5f38
000000d0: 3455 21b7 3704 92b7 203e 8937 dc67 a636
000000e0: 0d4c 19b8 2ab8 7d37 ad8d 0938 38a2 5d37
000000f0: 644c fdb6 306b fa37 e545 2c37 fe48 2237
00000100: f431 e337 18d2 a839 68b5 b8b9 5b93 b0b7
00000110: 200a 2538 21b0 f839 6e13 0239 4746 6f39
00000120: 881b 9a39 e2ff e4b8 2e92 b936 fcbe 9239
00000130: e034 8a39 8f48 d1b8 7164 2938 e23f 2539
00000140: d405 b4b8 1db9 64b7 973f 2938 0b1a 8ab9
00000150: b5db db38 e9dd 3b38 b30e 0d38 6723 1d38
00000160: 7c13 3738 9265 a9b9 5e36 9638 2537 99b8
00000170: dd21 7438 b4ea e835 67a3 2ab8 7183 0db8
00000180: f20b 0f38 7b45 15b7 a2ac ff38 456d 1639
00000190: fcb9 9ab8 dc4a 1337 8f8e 5638 6148 64b9
000001a0: 61c9 0e38 dba6 d9b9 a6fc a6b8 70d9 80b5
000001b0: 8d12 55b9 e40b b338 a377 bd38 135b 26b8
000001c0: ee3a 2e38 c1d1 5938 d6d5 ee39 13df 6c39
000001d0: dd21 0fb6 b9a7 67b7 b5c0 83b9 ad01 6539
000001e0: b539 1539 a001 25b9 0dcf 6d39 8462 5e38
000001f0: be78 0d34 5853 abb8 7052 ca38 679a 4db5
00000200: fe67 71b8 e8a5 acb9 c741 063a 20bd 9bb8
00000210: fac3 0039 f06f 2c39 d1cd 4fb9 47a8 c8b7
00000220: bbed e935 d6e0 dc39 25cf c6b8 8b17 59b9
00000230: 84ac c737 3d63 db37 9b56 f438 ba36 a738
00000240: 7190 a537 d77e 2039 d275 03b9 0aa9 5eb8
00000250: 9270 71b8 3942 91b9 fe91 eb38 278e bab7
00000260: 51e0 ae38 5740 8038 b9e1 81b9 96cd cbb8
00000270: 93c7 1839 74f6 2439 c711 5939 958b 6e39
00000280: b38c 6538 ae6d ba38 d0ca 64b9 ca67 3eba
00000290: 8e0b 0d39 d67a bd38 1b0e 42b9 7eba 8c39
000002a0: f19a b9b9 88a9 9638 b21b d038 64e4 18b8
000002b0: 18b7 4d38 9d00 e6b7 9ca1 c238 e379 f8b8
000002c0: 4b0d 7fb9 e654 40b9 a20d c7b9 77ee d239
000002d0: 31ca 40b8 331f a9b8 9093 3f39 8057 a538
000002e0: 64d6 89b8 10fd af35 2162 75b8 5e41 20b9
000002f0: 68b4 8637 35b2 ca38 6c86 9637 6ea7 b438
00000300: 4f73 a037 d795 0bb8 c68e e8b8 3aea 04b8
00000310: 16f7 0438 3893 da38 4944 5637 5e5e c438
00000320: e9b8 1639 8a1a ebb7 bae3 e3b5 9261 8d38
00000330: d6a9 9437 8fc9 19b5 dbb2 6435 fedf c5b7
00000340: 1645 b937 0627 d4b7 ec31 0038 225a 08b9
00000350: 3f05 2538 9c7e a237 b97d 4938 c9f8 9bb6
00000360: aa0d 1237 55a6 dbb8 9930 c9b8 03e3 00b7
00000370: 6dbe b938 ab59 21b8 bebc 8538 106f a537
00000380: 1bd2 4db8 c4f8 c3b6 df4e 0938 444c 08b9
00000390: 0b00 c1b7 4226 9638 9ff5 e237 eceb 27b9
000003a0: 6ddb 7238 d0d4 e038 099d a0b8 4304 7538
000003b0: e957 ebb7 f67c ac38 0c37 4538 3df8 a6b8
000003c0: d856 e4b8 c3b6 c1b7 f0b3 0439 0dc1 f038
000003d0: f782 56b5 d343 73b8 ff93 27b8 acf8 8838
000003e0: 811a 86b7 e674 0cb8 79e3 2938 b73e 21b8
000003f0: 3d9b 5238 999d dfb7 912a 3f38 5efd 83b6
-1.4898225e-05 -2.4608713e-05 8.163721e-05 -1.027236e-05 5.946291e-06 6.139375e-05 7.7154355e-06 -9.79215e-06
-4.923727e-05 2.9412597e-05 -1.719896e-05 -1.2524383e-05 -9.53139e-06 -2.4938154e-05 2.177116e-05 -4.0682003e-06
7.018133e-06 2.2537193e-05 -2.298166e-05 2.5613183e-05 -1.4205425e-05 3.7679017e-06 6.193022e-06 1.0706562e-05
1.2015773e-05 2.4640406e-06 -0.00012949706 -7.841581e-06 3.8114973e-05 3.0239005e-05 -1.0837699e-05 1.9760597e-05
8.647985e-06 4.52686e-06 -1.4381617e-05 -8.0642145e-05 1.4635305e-05 7.017599e-06 -1.00926e-05 -1.4027969e-05
-1.3066837e-05 7.2818507e-06 3.0969502e-05 4.4214343e-05 4.7464355e-06 -2.0719142e-05 1.35391965e-05 -2.635392e-05
-2.1871054e-05 -3.0153398e-05 -1.5802778e-05 5.3246386e-05 -9.616186e-06 -1.7406519e-05 1.6360602e-05 4.9592763e-06
-3.654887e-05 1.5122854e-05 3.279529e-05 1.3210396e-05 -7.5488806e-06 2.9852235e-05 1.02682725e-05 9.672947e-06
2.708377e-05 0.0003219999 -0.00035230373 -2.1049453e-05 3.9348495e-05 0.00047433472 0.00012405004 0.00022818997
0.0002939368 -0.00010919549 5.530447e-06 0.00027989584 0.00026360806 -9.979412e-05 4.0386283e-05 0.00015759424
-8.5841544e-05 -1.3632959e-05 4.0351963e-05 -0.00026340815 0.000104836574 4.4790944e-05 3.363071e-05 3.7464688e-05
4.3648746e-05 -0.00032309868 7.162684e-05 -7.30588e-05 5.820567e-05 1.7353655e-06 -4.068334e-05 -3.3739434e-05
3.410498e-05 -8.897269e-06 0.00012191503 0.00014345821 -7.3779345e-05 8.779312e-06 5.1154344e-05 -0.00021770738
3.4042987e-05 -0.00041513782 -7.962556e-05 -9.600026e-07 -0.00020320174 8.5376e-05 9.0345064e-05 -3.9662304e-05
4.1539715e-05 5.193218e-05 0.00045554218 0.00022589815 -2.1328372e-06 -1.3807724e-05 -0.00025129845 0.00021839766
0.00014231245 -0.00015736232 0.00022679214 5.3020674e-05 1.3175574e-07 -8.1694394e-05 9.647466e-05 -7.6593136e-07
-5.7555728e-05 -0.00032930006 0.0005121496 -7.426203e-05 0.00012280038 0.00016444898 -0.00019817731 -2.3920218e-05
1.7429041e-06 0.00042129186 -9.4799594e-05 -0.00020703503 2.3802982e-05 2.6153046e-05 0.00011650958 7.973374e-05
1.9736794e-05 0.0001530604 -0.00012537025 -5.3086354e-05 -5.7563717e-05 -0.00027705895 0.000112328664 -2.2239123e-05
8.338749e-05 6.1155e-05 -0.00024772974 -9.718088e-05 0.00014570197 0.0001573207 0.00020701355 0.00022749447
5.472889e-05 8.8896006e-05 -0.00021819328 -0.00072633906 0.00013451112 9.035102e-05 -0.00018506536 0.00026841828
-0.0003540139 7.184135e-05 9.9233715e-05 -3.645233e-05 4.9046328e-05 -2.7418422e-05 9.280743e-05 -0.00011848265
-0.00024323647 -0.00018342174 -0.00037966395 0.0004023199 -4.5964673e-05 -8.064359e-05 0.00018270151 7.884111e-05
-6.5726024e-05 1.3112167e-06 -5.850394e-05 -0.0001528314 1.6058053e-05 9.665304e-05 1.7943988e-05 8.614255e-05
1.9127181e-05 -3.327973e-05 -0.00011089216 -3.1689393e-05 3.170137e-05 0.00010422472 1.2771293e-05 9.3635856e-05
0.00014373999 -2.8026541e-05 -1.6979095e-06 6.741578e-05 1.772206e-05 -5.729025e-07 8.519689e-07 -2.3588535e-05
2.208589e-05 -2.5290541e-05 3.056407e-05 -0.00013003548 3.934395e-05 1.9370862e-05 4.8039223e-05 -4.6483224e-06
8.70546e-06 -0.000104737155 -9.593479e-05 -7.68225e-06 8.856957e-05 -3.84689e-05 6.37709e-05 1.972125e-05
-4.9071485e-05 -5.840413e-06 3.27368e-05 -0.00012998382 -2.3007413e-05 7.1596834e-05 2.7055676e-05 -0.00016014249
5.7901652e-05 0.00010720792 -7.6586446e-05 5.841652e-05 -2.805512e-05 8.224875e-05 4.7019726e-05 -7.961735e-05
-0.00010888063 -2.3092498e-05 0.00012655533 0.0001148005 -7.991179e-07 -5.799888e-05 -3.9953735e-05 6.531304e-05
-1.5986387e-05 -3.348747e-05 4.050459e-05 -3.84438e-05 5.021248e-05 -2.6657059e-05 4.557759e-05 -3.9336e-06

lstm.lstm2.bias_ih_l0 f4 [256]
00000000: ce59 0a3a 979c 6d3a 19d6 d83b 6bef 133a
00000010: 1045 e83a be94 853c 29c4 703b bdd7 053c
00000020: ac8b 043a 6426 403b 155d 38ba cce0 773b
00000030: 78ba f9ba 0570 8bbb 2ca4 023b 6765 013b
00000040: dd17 073a ec81 8d3b 0577 9c3b d0a3 1e3b
00000050: fbd4 873a 71b0 4dba add0 7d3a c8d8 7db9
00000060: f4e5 ba38 a431 84ba 4682 ce3b 0718 613a
00000070: 1df1 013c 2e86 0c3b 3dcf 083a 710d 9c3a
00000080: 01dc d639 80c4 3b3a b7ab 4f3a c2ae 8e3c
00000090: 7e5d 193a fe84 b53a 9a22 163a 3883 1b3c
000000a0: bed9 0f3a 02ed 3b3b 25dd 873a 133e bf3a
000000b0: 032b c7ba d5df 283b 3c3e 903a cca2 9939
000000c0: 69b2 ad3a dd84 10ba 0dfe 503c d670 8f3a
000000d0: 61c7 c43a 81ca 93ba f259 c23a affa 023b
000000e0: e88b 923a 1422 abbc e5c2 2bbb b1d6 3c39
000000f0: b1e1 b33a ed22 623b e323 bb3a f312 1a39
00000100: 393d a539 e388 babb d18e 06bc d609 0dba
00000110: bd2b 013b 51a8 62bd 55f5 85bc 39df e9bb
00000120: 964b 4dbc eaab 013c 1820 97ba a7c8 c9ba
00000130: df58 b9ba e1f5 aabb 9cd8 43bb 9db6 a639
00000140: b3ac 50ba a930 6e3b d24c 783b 3c50 0cbc
00000150: 0233 6d39 0908 5ab9 7a8a 8f3a 7c6f 9cba
00000160: f554 3dba acdb 4abc 5c40 023c 9fdc 49b8
00000170: 634e dcbc e36d b13a be98 9f3a 8c39 14ba
00000180: d684 1839 c423 b6ba a573 48bb 8819 213c
00000190: 22f9 14ba df05 82b9 5aab cdb9 1ad1 143b
000001a0: cb98 cbbb 8470 7c3b be84 0f3a 00cf a7ba
000001b0: 74ec 55bb 6879 79bb 844d 3d3a 9e43 70bb
000001c0: fcf7 01ba 8e05 b2b9 bf89 8ebc 5d2f 2abc
000001d0: 33fc aeba dde6 03bb b9f6 c2bb 086e 9a38
000001e0: 48c0 e239 3055 83bc eadb 1bbc 4169 e5b9
000001f0: 8a83 533a 1a75 393a 653b 30bc bd48 07ba
00000200: c445 9d3c 169d 72bc 62cb 20bd 1859 02bd
00000210: d33a eebb 0d74 97bd eddd 20bd 57f5 883d
00000220: e9e1 b13d 2792 d93c 7127 803c 0b7f 953d
00000230: 27fd 313c de10 89bc d8ee 3d3d 2602 233b
00000240: 6cfb 82bd d2d3 41bc 55a4 453d 4fcf b6bd
00000250: c979 293d 1e76 55bd 2a80 ad3c ced8 d43b
00000260: c298 3f3c ffc6 a73d 9d5b 723d fd9a f93b
00000270: 9270 16bd 4d57 833b bd0a 123c 0f48 b53c
00000280: 2deb 10bd b60f 42bd 902b b73d 64a3 b2bc
00000290: 13e8 7ebd c115 7ebc 38c9 a7bc c057 e9bb
000002a0: 2c4b 8abd eb08 eabc c868 cbbc bfd5 18bd
000002b0: da1b 4cbb 9a48 6a3d 86d0 5a3c e905 883d
000002c0: ca24 86bd 0767 8ebc 12dd c53d f8ca 7b3d
000002d0: 9c6a 1dbd c220 26bd ad07 fbbc 9528 c53c
000002e0: 24cb 873d c20a 8ebd fdea adbd 5b8c 94ba
000002f0: 4ba9 f4bb 207d 343c 62c3 24bc b20e cebc
00000300: 5c60 0b3a 6e67 953a cc8f bf3b 27ec 103a
00000310: 9ed3 e93a b8da 823c 7d74 793b ad06 093c
00000320: c009 a63b 1bdc 3f3b b1e8 44ba 3582 6f3b
00000330: fc92 f8ba 0cd3 13bc df7f 0a3b 960a f13a
00000340: 0a26 fb39 40f0 893b c7d5 9b3b 79cf 5b3b
00000350: 117c 863a 9457 cf39 5c14 7f3a cd3e 9bb9
00000360: 8a36 b037 a3ff 4bbb 476d 473a fb37 663a
00000370: 7947 0c3c cb9d 0c3b f8ab 643a 069d 9b3a
00000380: 38fd c039 7d95 3a3a ace1 543a 71be 8c3c
00000390: ef02 163a 8696 993a 1a11 173a 9fc0 303c
000003a0: e1c1 18b8 56f9 ea3b d7f9 923a 150e bf3a
000003b0: 9849 d2ba d95a 2b3b a455 903a adda ca39
000003c0: 2412 943a 82c7 a4ba f64f 443c 23f2 793a
000003d0: f5c4 cc3a 8cc7 81ba 0ea6 bcba 73d2 053b
000003e0: 8968 e53a cdca 283c 6780 36bb 2527 01ba
000003f0: 72fd b03a 87a3 613b 3eb7 b03a 7d8a 0c39
0.0005277664 0.0009064166 0.0066173193 0.0005643281 0.0017720778 0.016306277 0.0036738014 0.008169112
0.0005056213 0.0029319758 -0.0007032913 0.0037823198 -0.0019052764 -0.004255297 0.001993428 0.0019744278
0.0005153397 0.0043184664 0.0047749304 0.0024206527 0.0010363156 -0.0007846421 0.0009682279 -0.00024208718
8.912003e-05 -0.0010085595 0.006302151 0.0008586649 0.007931021 0.0021442282 0.0005218869 0.0011905861
0.00040981176 0.00071627647 0.0007922011 0.017417315 0.0005850418 0.0013848839 0.0005727202 0.009491734
0.0005487463 0.0028675203 0.0010365589 0.0014590643 -0.0015195314 0.002576818 0.0011004875 0.00029303727
0.0013252023 -0.0005512962 0.012755883 0.0010943662 0.0015013033 -0.0011275561 0.0014827831 0.0019985845
0.0011180611 -0.020890273 -0.0026208695 0.00018009056 0.0013723877 0.003450568 0.0014277663 0.00014693644
0.00031516867 -0.0056925877 -0.008212761 -0.0005380189 0.0019709908 -0.0553363 -0.016352335 -0.007137206
-0.012530228 0.007914523 -0.001152995 -0.0015394882 -0.0014140866 -0.0052172993 -0.0029883748 0.00031798045
-0.00079603045 0.0036344922 0.0037887585 -0.008564051 0.00022621083 -0.00020793093 0.0010951303 -0.001193508
-0.00072224374 -0.012381475 0.007949915 -4.8127604e-05 -0.026892846 0.0013536777 0.0012176258 -0.0005654327
0.00014545335 -0.0013896157 -0.0030586508 0.009832747 -0.00056828756 -0.00024799907 -0.00039228314 0.0022707642
-0.0062132827 0.0038519213 0.0005474797 -0.001280278 -0.0032642158 -0.0038066749 0.00072213286 -0.0036661397
-0.0004957912 -0.00033954944 -0.017399667 -0.010387269 -0.0013350308 -0.002012662 -0.005949822 7.363787e-05
0.0004324934 -0.016031832 -0.009512881 -0.00043756704 0.0008068612 0.00070746394 -0.010756348 -0.000516068
0.019198306 -0.01480796 -0.03925646 -0.031823248 -0.007270196 -0.07395182 -0.039274145 0.0668742
0.08685667 0.026558949 0.015643807 0.07299622 0.010863579 -0.016731676 0.046370357 0.0024873107
-0.06395611 -0.011830287 0.048252422 -0.0892626 0.04137591 -0.0521146 0.021179277 0.0064955717
0.011694135 0.08192252 0.0591694 0.007617353 -0.03672845 0.00400821 0.008913693 0.022129087
-0.03538053 -0.047378264 0.08943856 -0.021806426 -0.062233042 -0.015508116 -0.02048169 -0.0071210563
-0.06752619 -0.028568706 -0.024830237 -0.03731322 -0.003114453 0.057198144 0.01335538 0.06641752
-0.06549986 -0.017383112 0.096613064 0.061472863 -0.03843175 -0.040558584 -0.030643309 0.024067203
0.06630543 -0.06935646 -0.08492086 -0.0011333333 -0.0074664704 0.01101616 -0.0100563485 -0.025153492
0.0005316788 0.0011398622 0.0058459993 0.00055283535 0.0017839556 0.015973434 0.0038063817 0.008363408
0.0050670803 0.002927548 -0.00075114804 0.0036546115 -0.0018964703 -0.009022485 0.0021133346 0.0018389996
0.00047902792 0.0042095482 0.004755709 0.0033540411 0.0010260363 0.00039547367 0.0009730512 -0.00029610694
2.1006232e-05 -0.0031127713 0.0007607531 0.00087821455 0.008561962 0.0021456357 0.0008723135 0.0011872358
0.00036809756 0.00071176124 0.0008120786 0.017180653 0.0005722483 0.0011717833 0.0005762741 0.010788112
-3.6420188e-05 0.0071708364 0.0011213374 0.001457634 -0.0016043661 0.0026146679 0.0011011851 0.00038691369
0.001129691 -0.0012571665 0.011981955 0.00095346774 0.0015622663 -0.0009901389 -0.001439275 0.0020419627
0.0017502467 0.010302258 -0.002784753 -0.00049267925 0.0013503267 0.0034429745 0.0013482345 0.00013403031
