073123/0810hoxyhoxy4.pth (torch, 644637 bytes, 40 tensors)

lstm.lstm1.weight_ih_l0 f4 [256, 12]
-0.06807522 -0.0548506 -0.062290695 0.12482719 -0.07590005 -0.027034134 0.067964055 -0.0921003
-0.0436091 -0.118342705 -0.09425503 -0.23796542 -0.018215204 0.10095324 0.09310661 0.029410254
0.10222897 -0.09116393 0.14095026 -0.09735381 -0.016948584 -0.028107615 0.046769653 0.1375704
-0.009624238 0.1393446 0.032317266 -0.005793566 -0.005927921 -0.080617286 -0.023433357 0.0030296932
0.11830787 -0.00062068243 0.059923694 0.16382809 -0.0046513686 0.091951445 0.1044493 0.058078144
0.068240106 0.0020982956 -0.11666301 0.055750076 -0.04488242 -0.061637495 -0.08942002 0.07544484
0.032893855 0.080813475 0.046552707 0.21548674 -0.02257243 0.0025602854 0.0732099 0.01305671
0.030236727 0.18911287 0.057683636 0.049202375 0.022257341 -0.024663778 -0.032816123 0.11682196
-0.021738173 0.06193385 -0.022482777 -0.030236406 0.034618363 -0.114699125 0.09017821 -0.034461815
0.14914976 -0.10317164 0.018630782 0.0016784576 0.0025943702 0.16574344 0.1507209 0.09619535
0.009215906 0.087911844 -0.027917711 -0.026217062 0.04796912 0.024951674 -0.022777747 -0.10705305
-0.04742775 0.0665159 0.038404137 0.10685747 0.032215953 0.05379752 0.020280588 0.020786196
0.07812069 0.096709326 -0.102088176 -0.03499576 0.04168648 0.10747998 0.075267136 -0.03400548
0.12206683 -0.0233007 -0.032429557 -0.09346184 -0.05342829 0.09129742 0.007982269 -0.03665019
-0.014814872 0.116938666 -0.011124971 0.092914686 -0.06979355 0.09865149 0.046000883 0.10166292
0.05644442 0.032138824 -0.12592107 -0.109991476 0.055092175 0.069179915 -0.011190598 0.051187064
-0.040041644 -0.030564357 0.0016223354 -0.253478 0.0770074 -0.15577723 -0.0014080177 -0.11659422
-0.11260385 -0.05476114 -0.028154565 -0.025094768 0.07624436 0.02531826 -0.080846034 -0.0163761
0.067077324 0.008729411 0.062571466 -0.060215272 -0.103042185 -0.10502518 0.05437225 0.07239332
-0.048029035 -0.11917475 0.11143135 0.15698054 -0.0051023895 -0.10407751 0.017530873 -0.10810799
-0.11896976 0.06658554 -0.04278816 -0.09424373 0.026139986 -0.10937621 -0.033957377 -0.21478182
0.019320551 -0.0068054358 0.05400052 0.0055006514 0.07015892 -0.046873514 0.071927056 0.05402654
0.06896173 -0.048458118 0.11434252 -0.111035906 0.0028084258 0.015925625 0.030640366 -0.10994122
-0.1106514 0.016462216 -0.09488255 0.0817187 -0.060937632 -0.070617996 0.02401923 0.2187442
0.0134776 -0.04530728 0.11887427 -0.04181828 0.044294886 0.009725524 -0.046223152 0.052777708
0.017034872 -0.03980363 0.011019726 -0.037818965 0.067222565 -0.031125331 0.0087861605 0.06639939
0.11319413 0.047354434 -0.03973793 0.061486784 0.10089681 0.08878069 -0.005015652 0.23432873
-0.03807912 0.028528042 -0.12864196 0.09443442 0.07391702 -0.116613135 0.022175405 -0.0523557
-0.13663991 -0.12117804 0.031040503 -0.09656092 0.15126328 0.014998115 0.113227084 -0.0077479193
0.08599112 0.045115154 0.020275932 -0.09607533 0.04558886 -0.04974477 0.15218785 -0.15924263
-0.08505581 -0.10090445 0.12758218 0.112334095 0.06281431 -0.033228096 0.14436512 0.06614964
0.064248316 0.07506814 -0.086249925 0.22899039 0.007867601 0.016424384 -0.05212589 -0.04069095
00000000: 056b 8bbd 06ab 60bd 8724 7fbd 66a5 ff3d
00000010: 7c71 9bbd b076 ddbc bd30 8b3d 159f bcbd
00000020: 759f 32bd a95d f2bd c808 c1bd 35ad 73be
00000030: 0d38 95bc 93c0 ce3d aeae be3d c6ed f03c
00000040: 6c5d d13d 28b4 babd 4455 103e 6f61 c7bd
00000050: c2d7 8abc f141 e6bc 8991 3f3d 41df 0c3e
00000060: fbae 1dbc 5ab0 0e3e 1c5f 043d f4d7 bdbb
00000070: 013f c2bb ad1a a5bd 50f7 bfbc d18d 463b
00000080: 664b f23d 4bb5 22ba 8c72 753d 8dc2 273e
00000090: 826a 98bb 0a51 bc3d 84e9 d53d 59e3 6d3d
000000a0: 78c1 8b3d 8f83 093b 04ed eebd 315a 643d
000000b0: a1d6 37bd 9977 7cbd d821 b7bd d382 9a3d
000000c0: b5bb 063d 8981 a53d 0dae 3e3d 8ea8 5c3e
000000d0: d1e9 b8bc 76ca 273b 12ef 953d d0eb 553c
000000e0: 03b3 f73c cea6 413e ad45 6c3d 6e88 493d
000000f0: 0755 b63c b10b cabc 336a 06bd 5a40 ef3d
00000100: 4114 b2bc 59ae 7d3d cd2d b8bc 57b2 f7bc
00000110: fccb 0d3d 60e7 eabd 5aaf b83d d527 0dbd
00000120: b7ba 183e a74b d3bd 959f 983c b1ff db3a
00000130: 4f06 2a3b a6b8 293e 9456 1a3e 1102 c53d
00000140: 50fe 163c 200b b43d afb3 e4bc 2ac5 d6bc
00000150: 457b 443d 7467 cc3c 6698 babc a13e dbbd
00000160: 9a43 42bd 7d39 883d a84d 1d3d 17d8 da3d
00000170: e0f4 033d ca5a 5c3d 7a23 a63c d047 aa3c
00000180: befd 9f3d 8a0f c63d 9b13 d1bd b757 0fbd
00000190: 71bf 2a3d 771e dc3d a825 9a3d 5549 0bbd
000001a0: 2dfe f93d 1ce1 bebc dbd4 04bd ec68 bfbd
000001b0: 9fd7 5abd 24fa ba3d 10c8 023c 821e 16bd
000001c0: 14ba 72bc 8a7d ef3d 8345 36bc 0e4a be3d
000001d0: ecef 8ebd cb09 ca3d 6c6b 3c3d a634 d03d
000001e0: 4432 673d 00a4 033d 74f1 00be 3643 e1bd
000001f0: 55a8 613d 33ae 8d3d c558 37bc 87a9 513d
00000200: b502 24bd 1a62 fabc 8ba4 d43a dec7 81be
00000210: 0eb6 9d3d 1184 1fbe 3c8d b8ba f3c8 eebd
00000220: d99c e6bd 384d 60bd 67a4 e6bc 8b93 cdbc
00000230: 0126 9c3d 3d68 cf3c 9b92 a5bd 2c27 86bc
00000240: d65f 893d ce05 0f3c 7825 803d 4aa4 76bd
00000250: c807 d3bd 7117 d7bd 70b5 5e3d f342 943d
00000260: 18ba 44bd e411 f4bd 1f36 e43d 82bf 203e
00000270: f231 a7bb 9726 d5bd e89c 8f3c b967 ddbd
00000280: 6ba6 f3bd 005e 883d a342 2fbd db02 c1bd
00000290: 8623 d63c a200 e0bd e416 0bbd c4ef 5bbe
000002a0: 2246 9e3c 2200 dfbb a62f 5d3d cf3e b43b
000002b0: 7baf 8f3d 71fe 3fbd 7e4e 933d ef4a 5d3d
000002c0: cf3b 8d3d 057c 46bd 692c ea3d cb66 e3bd
000002d0: 910d 383b 7576 823c 8101 fb3c dd28 e1bd
000002e0: 349d e2bd c5db 863c c851 c2bd 225c a73d
000002f0: bd99 79bd 2ba0 90bd fac3 c43c 7bfe 5f3e
00000300: 27d1 5c3c 2094 39bd 5a74 f33d a549 2bbd
00000310: 8e6e 353d ce57 1f3c 7d54 3dbd 702d 583d
00000320: b78c 8b3c 2209 23bd 158c 343c 0fe8 1abd
00000330: fcab 893d 8dfa febc d4f3 0f3c 67fc 873d
00000340: 53d2 e73d b9f6 413d 3dc4 22bd 91d9 7b3d
00000350: fda2 ce3d a7d2 b53d 575a a4bb dff3 6f3e
00000360: daf8 1bbd a4b3 e93c b8ba 03be d566 c13d
00000370: ce61 973d ded2 eebd 32a9 b53c ee72 56bd
00000380: 55eb 0bbe 312c f8bd a748 fe3c bbc1 c5bd
00000390: c3e4 1a3e a7ba 753c 9ae3 e73d 42e2 fdbb
000003a0: 1d1c b03d abca 383d b619 a63c 25c3 c4bd
000003b0: 62bb 3a3d 2cc1 4bbd 22d7 1b3e 8010 23be
000003c0: be31 aebd fea6 cebd e7a4 023e 6b0f e63d
000003d0: caa4 803d 2f1a 08bd 73d4 133e 7679 873d
000003e0: 9f94 833d 53bd 993d cda3 b0bd 757c 6a3e
000003f0: 1ce7 003c 6e8c 863c f581 55bd 8eab 26bd

lstm.lstm1.weight_hh_l0 f4 [256, 64]
-0.0014218789 0.03466002 0.13878593 0.055833742 -0.0055086454 0.014989089 0.08789071 0.14106965
-0.06687213 -0.033455655 -0.0784824 0.18870285 0.09407905 -0.07701964 -0.0021509754 0.044031173
-0.15710887 -0.13993429 -0.0025147304 0.048137955 0.11485181 -0.057513162 0.10784924 0.06946008
0.12168056 0.009969243 -0.054087237 0.048417043 -0.049254946 0.13407189 -0.10799742 0.12247346
-0.057160504 -0.035179876 -0.14095032 -0.01135558 0.024376567 -0.031314433 0.08832216 -0.10787322
-0.021055238 0.04013761 0.04420168 -0.14023228 0.0011149113 -0.031356335 -0.021365296 0.036536913
0.12606305 0.12313932 0.01431057 0.07088797 0.12458053 -0.074986055 -0.019222764 -0.008566796
-0.18391186 0.18296179 -0.03942388 -0.08009902 -0.036473587 -0.015885474 -0.058442842 -0.05056209
-0.028306376 -0.0776726 -0.040673062 0.030804502 -0.03923005 0.097336344 -0.0774938 -0.010849823
-0.029666493 -0.07435917 0.07189019 0.022831831 0.055096712 -0.024618449 0.0021236045 0.103468426
0.005380249 0.14650574 -0.07617639 0.06160015 -0.1427264 -0.20088877 -0.1748744 0.03918348
-0.019719979 -0.048379216 -0.04370744 -0.18117991 -0.052475553 -0.07591915 -0.062644154 -0.060584
0.011346379 -0.13622977 -0.0361634 -0.1349312 -0.1075017 -0.01581747 -0.07854007 0.08160768
-0.08288282 0.11091105 -0.051090345 0.18756074 -0.08178177 0.09008107 0.08976192 -0.11377056
-0.03137198 -0.14331865 0.040328603 0.14822444 0.02526006 -0.1410978 -0.0077302963 -0.004778222
-0.0486545 0.017589808 -0.052525066 -0.087142974 0.054915156 -0.14783052 0.03872249 0.018764555
-0.023407413 -0.14326939 0.060354233 -0.18278605 0.19755745 -0.03663747 -0.009537029 -0.19354858
0.06408897 0.079075254 0.19668642 0.11433703 0.092848904 0.06673582 -0.12927453 0.11227424
0.00044683597 0.013894877 -0.11284239 0.056148797 0.04002803 0.008196716 0.020349208 0.17575788
0.035458844 0.0062562497 -0.041375585 0.0022568582 0.07880322 -0.14896718 -0.019303137 0.08178007
0.10679298 -0.039275687 0.2407127 0.06709715 -0.13581184 -0.030946825 -0.041619834 -0.082466796
0.06433456 0.059002265 -0.11595402 0.18064111 -0.021604186 -0.12970456 0.09710358 -0.0028932886
-0.003179061 0.041620154 0.1668256 0.04062761 0.0045874356 -0.14929648 0.042449042 0.03368035
0.067410275 0.011609834 0.1732844 -0.120045304 -0.0390989 -0.21559817 0.009537738 -0.13625379
-0.06730068 -0.13857928 -0.001509386 -0.13401264 0.03813402 -0.12309972 -0.11273667 -0.082401045
0.011329813 0.09849096 0.00013033515 -0.03590058 -0.07717262 0.05352657 -0.11122202 -0.07942961
-0.12193116 0.043883912 0.07087103 -0.021977404 -0.13414472 0.0450387 0.073109604 0.02063433
0.09267718 -0.026912352 0.009799417 0.075759344 0.006985742 -0.13351817 0.006334348 0.027885353
-0.042992353 -0.0049678213 -0.02722757 0.07499378 -0.124407955 -0.064458445 -0.09291288 -0.09016617
0.13170601 -0.10810264 0.022524294 -0.005167868 0.056572806 -0.06868811 -0.16001955 0.11350114
-0.0882666 0.054367933 0.039525177 -0.03848829 -0.1030609 0.08070529 0.06657395 0.06943256
-0.11495771 -0.12624413 -0.013138845 -0.04162802 0.16876811 0.05912797 0.05843865 0.13628973
00000000: 575e baba aaf7 0d3d e61d 0e3e ecb1 643d
00000010: de81 b4bb cc94 753c 0b00 b43d 9074 103e
00000020: 41f4 88bd cc08 09bd 61bb a0bd 523b 413e
00000030: 84ac c03d 79bc 9dbd 61f7 0cbb 085a 343d
00000040: 26e1 20be ef4a 0fbe 2dce 24bb 4e2c 453d
00000050: 6d37 eb3d ec92 6bbd 10e0 dc3d 1641 8e3d
00000060: a833 f93d 0956 233c 948a 5dbd f350 463d
00000070: 8ebf 49bd 244a 093e c02d ddbd 5ed3 fa3d
00000080: 2221 6abd c618 10bd 4855 10be c10c 3abc
00000090: 5eb1 c73c 9043 00bd 40e2 b43d a3ec dcbd
000000a0: 097c acbc 5667 243d d20c 353d 0d99 0fbe
000000b0: 3722 923a 806f 00bd 4606 afbc bba7 153d
000000c0: ac16 013e 7830 fc3d e276 6a3c b62d 913d
000000d0: 1424 ff3d 4a92 99bd 0f79 9dbc bf5b 0cbc
000000e0: 6453 3cbe 565a 3b3e ef7a 21bd f40a a4bd
000000f0: 5465 15bd 4122 82bc c361 6fbd 321a 4fbd
00000100: c6e2 e7bc d012 9fbd cc98 26bd b959 fc3c
00000110: b0af 20bd 4758 c73d 12b5 9ebd 75c3 31bc
00000120: 2507 f3bc 9f49 98bd 2a3b 933d d209 bb3c
00000130: 17ad 613d a1ac c9bc 2c2c 0b3b 41e7 d33d
00000140: cd4c b03b 9a05 163e 5e02 9cbd 7050 7c3d
00000150: df26 12be c9b5 4dbe 4612 33be db7e 203d
00000160: cb8b a1bc 4929 46bd 9306 33bd 3a87 39be
00000170: 9bf0 56bd 807b 9bbd 944b 80bd ee26 78bd
00000180: 2ae6 393c d17f 0bbe 1320 14bd 682b 0abe
00000190: da29 dcbd a493 81bc 9ed9 a0bd ed21 a73d
000001a0: 78be a9bd 5525 e33d 1c44 51bd ec0f 403e
000001b0: 337d a7bd 6d7c b83d 19d5 b73d 8a00 e9bd
000001c0: e87f 00bd 20c2 12be 9b2f 253d 26c8 173e
000001d0: 2fee ce3c f17b 10be 6d4e fdbb a292 9cbb
000001e0: f149 47bd 8018 903c 8624 57bd 0478 b2bd
000001f0: b7ee 603d e260 17be 799b 1e3d 20b8 993c
00000200: e7c0 bfbc 36b5 12be 0036 773d 442c 3bbe
00000210: 804c 4a3e 2c11 16bd 3341 1cbc 9931 46be
00000220: 1441 833d 35f2 a13d 2a68 493e 8829 ea3d
00000230: 9127 be3d caac 883d 8b60 04be 09f0 e53d
00000240: 4f45 ea39 57a7 633c e919 e7bd 48fc 653d
00000250: 6ef4 233d 854b 063c 62b3 a63c e0f9 333e
00000260: 4b3d 113d 3a01 cd3b 7279 29bd cce7 133b
00000270: 9563 a13d da8a 18be 9d21 9ebc 4f7c a73d
00000280: 47b6 da3d 8bdf 20bd 647d 763e 3b6a 893d
00000290: 4212 0bbe 3284 fdbc 8f79 2abd 5ae4 a8bd
000002a0: d6c1 833d 5cac 713d 4d79 edbd fcf9 383e
000002b0: 43fb b0bc 46d1 04be 3ede c63d 549d 3dbb
000002c0: cb57 50bb e579 2a3d 55d4 2a3e 2369 263d
000002d0: 3352 963b 2de1 18be 0cdf 2d3d 68f4 093d
000002e0: 660e 8a3d 2c37 3e3c 7771 313e 50da f5bd
000002f0: 2b26 20bd c4c5 5cbe 2c44 1c3c 1d86 0bbe
00000300: f0d4 89bd bae7 0dbe 97d6 c5ba 9c3a 09be
00000310: 6b32 1c3d b51b fcbd 7ce2 e6bd e1c1 a8bd
00000320: aea0 393c a1b5 c93d 93aa 0839 7d0c 13bd
00000330: ae0c 9ebd ad3e 5b3d 5fc8 e3bd feab a2bd
00000340: 0bb7 f9bd 9ebf 333d d524 913d f509 b4bc
00000350: 3c5d 09be 807a 383d 7dba 953d 5409 a93c
00000360: 89cd bd3d 4b77 dcbc bc8d 203c b727 9b3d
00000370: a7e8 e43b fdb8 08be 5d90 cf3b d36f e43c
00000380: c018 30bd 1bc9 a2bb 5a0c dfbc 5796 993d
00000390: 99c9 febd ca02 84bd 1c49 bebd 0aa9 b8bd
000003a0: f1dd 063e eb64 ddbd de84 b83c 3857 a9bb
000003b0: e3b8 673d 5aac 8cbd 2adc 23be 4973 e83d
000003c0: 1fc5 b4bd e9b0 5e3d 27e5 213d e6a5 1dbd
000003d0: 9811 d3bd d148 a53d ec57 883d a832 8e3d
000003e0: f36e ebbd 2446 01be 4f44 57bc 2582 2abd
000003f0: 8cd1 2c3e 2c30 723d 5e5d 6f3d 898f 0b3e

lstm.lstm1.bias_ih_l0 f4 [256]
-0.12073555 -0.05263083 -0.007202176 0.060791396 0.025988957 -0.09677998 0.19551551 -0.065497816
-0.021676632 0.047746997 -0.066913866 -0.080742314 0.069320954 0.0073643043 -0.03955167 0.060800437
-0.0297527 0.072542675 0.009047861 0.014734671 0.0037499757 0.15006615 0.06470951 -0.13536054
0.1514775 0.106429785 -0.08597862 -0.16019994 -0.033911686 0.16115454 0.0014451698 -0.00034396304
0.01954394 0.009057454 0.11479937 -0.10635473 -0.0886123 0.08055289 0.12825836 0.15566315
-0.15435494 -0.03621231 0.0027070341 -0.13276823 0.06503228 -0.14505237 0.06798155 -0.06558592
0.11035611 -0.080898516 0.05076712 0.11298642 0.050962396 -0.029311737 -0.10512092 -0.036055297
0.03911315 -0.04015568 -0.0058739954 0.08148609 -0.1378941 0.15294413 -0.06545626 -0.09097102
0.033202495 0.10043327 0.00071444846 0.10111132 0.066438854 0.0014173038 -0.049735766 -0.046177033
0.08181342 0.0067872903 -0.07651351 0.008148148 0.0911187 -0.11266798 -0.088526 0.07631626
-0.050950624 0.008147768 -0.011248597 0.10554257 0.1497234 0.13026603 -0.031063404 -0.10284489
0.10247702 0.123278536 0.030108843 -0.17060372 -0.01961245 0.012034869 0.010417198 0.11657127
-0.09231307 -0.12174117 -0.083872475 -0.0840008 0.02160422 0.077452324 -0.008466019 0.23161538
-0.11040833 -0.029801782 0.106569566 0.06677293 -0.006410224 -0.07482711 0.103445426 0.011488285
0.14798175 0.042440604 -0.0595204 0.029725073 0.058323804 0.06922961 0.0053572496 -0.10524622
0.03845824 -0.08084854 -0.08349255 0.0045333956 0.0012685774 0.083284326 -0.13056168 -0.118224524
-0.009268108 -0.05801052 -0.044189155 -0.106463216 0.13267039 0.049796794 0.19487812 -0.043748163
-0.078547895 -0.05224795 -0.12623608 0.068763256 -0.05006606 0.038164206 0.13498493 0.12503701
-0.12661566 0.0012478972 -0.07402719 -0.04558605 0.068846986 0.035264198 -0.078401014 -0.055559717
0.026289478 0.051074207 -0.032068044 -0.044901226 -0.08734376 -0.11400689 0.0031829437 -0.08326043
-0.07372975 0.11054555 -0.16408934 -0.01502987 -0.09275794 -0.13330343 -0.16725938 -0.09858062
-0.09396251 -0.16040748 -0.16865352 -0.08340618 0.002717573 0.028835649 0.061134223 0.01737704
0.14658323 0.075990714 0.022589603 0.021694548 0.13426006 0.012781862 -0.06151189 -0.06345969
-0.08413561 0.12394329 0.100758955 0.035866376 -0.027067257 -0.081824236 -0.04285157 0.07813908
-0.08841367 0.090083115 0.0006408847 0.0039855023 0.13627502 -0.1271693 -0.0019967835 0.02784067
-0.09089436 0.021205576 -0.061788656 -0.15242209 0.038383618 -0.077273324 -0.10509363 0.015211616
-0.022089057 0.027604414 -0.07689503 -0.06864982 0.06820415 -0.029330714 0.01397096 -0.14462219
-0.08593435 0.0068932343 -0.118276395 -0.13294646 0.08147491 0.054608647 0.11090749 0.05306891
-0.12291889 -0.041371614 0.035679884 -0.06865314 -0.11705164 0.053875603 0.12739359 0.038198143
0.002671721 0.0031227353 0.0052931113 -0.02145978 -0.045616087 -0.05312348 0.024886465 0.042565543
-0.046795644 0.12168825 0.041862056 0.11350074 0.062822364 -0.11192811 -0.018792037 0.003808402
0.026865503 0.07284721 -0.09387528 0.038593873 -0.041387316 0.069768004 0.038846347 -0.046968672
00000000: 3344 f7bd 6d93 57bd 3b00 ecbb 6600 793d
00000010: cbe6 d43c 9534 c6bd 3835 483e b823 86bd
00000020: 3193 b1bc 5b92 433d 230a 89bd 3a5c a5bd
00000030: 25f8 8d3d 4350 f13b ef00 22bd e109 793d
00000040: efbb f3bc 4191 943d 7b3d 143c b169 713c
00000050: 27c2 753b f1aa 193e 6b86 843d f49b 0abe
00000060: eb1c 1b3e dcf7 d93d 8f15 b0bd 740b 24be
00000070: fbe6 0abd b205 253e da6b bd3a f055 b4b9
00000080: 9d1a a03c b765 143c ef1b eb3d 82d0 d9bd
00000090: 5e7a b5bd eaf8 a43d 2956 033e 2966 1f3e
000000a0: 390f 1ebe 5c53 14bd 7f68 313b 65f4 07be
000000b0: a52f 853d 9c88 14be e939 8b3d e951 86bd
000000c0: 6202 e23d 1fae a5bd 2ff1 4f3d 6d65 e73d
000000d0: f2bd 503d 2b1f f0bc a349 d7bd b8ae 13bd
000000e0: 1c35 203d 487a 24bd a57a c0bb 2ee2 a63d
000000f0: 1c34 0dbe 639d 1c3e ef0d 86bd 044f babd
00000100: 57ff 073d f5af cd3d d349 3b3a 7413 cf3d
00000110: 1811 883d d3c4 b93a bbb7 4bbd 2124 3dbd
00000120: cb8d a73d eb67 de3b 1db3 9cbd cf7f 053c
00000130: 719c ba3d 78be e6bd 1f4d b5bd b34b 9c3d
00000140: 9ab1 50bd 377e 053c 094c 38bc b426 d83d
00000150: 1751 193e 7564 053e ae78 febc 57a0 d2bd
00000160: 79df d13d 7579 fc3d d2a6 f63c beb2 2ebe
00000170: 4aaa a0bc e62d 453c e5ac 2a3c ebbc ee3d
00000180: a30e bdbd 6f53 f9bd 55c5 abbd 9d08 acbd
00000190: 55fb b03c 539f 9e3d 0fb5 0abc 952c 6d3e
000001a0: c31d e2bd de22 f4bc 2541 da3d 3fc0 883d
000001b0: db0c d2bb f53e 99bd 32db d33d 5c39 3c3c
000001c0: 8788 173e 33d6 2d3d aacb 73bd ff81 f33c
000001d0: f1e4 6e3d 41c8 8d3d de8b af3b 558b d7bd
000001e0: 6386 1d3d eb93 a5bd 24fe aabd e18c 943b
000001f0: 6546 a63a f990 aa3d f6b1 05be b31f f2bd
00000200: 43d9 17bc 709c 6dbd b0ff 34bd 6309 dabd
00000210: bfda 073e b9f7 4b3d 218e 473e 4631 33bd
00000220: b8dd a0bd f201 56bd 0844 01be c0d3 8c3d
00000230: 1212 4dbd 1252 1c3d 7d39 0a3e b409 003e
00000240: 89a7 01be 7b90 a33a 919b 97bd 70b8 3abd
00000250: a6ff 8c3d 3171 103d b690 a0bd 9692 63bd
00000260: 085d d73c 3033 513d c859 03bd 59ea 37bd
00000270: 49e1 b2bd 727c e9bd ef98 503b 7284 aabd
00000280: a0ff 96bd b565 e23d 0907 28be d83f 76bc
00000290: e0f7 bdbd b280 08be 0b46 2bbe a3e4 c9bd
000002a0: 6b6f c0bd dc41 24be 82b3 2cbe dcd0 aabd
000002b0: 4f19 323b bd38 ec3c e167 7a3d 4b5a 8e3c
000002c0: ea19 163e 05a1 9b3d d50d b93c c4b8 b13c
000002d0: 787b 093e 046b 513c e4f3 7bbd 27f7 81bd
000002e0: 4a4f acbd fbd5 fd3d b65a ce3d 9fe8 123d
000002f0: 27bc ddbc 7793 a7bd 2185 2fbd 6207 a03d
00000300: 3a12 b5bd 7f7d b83d 0b01 283a d198 823b
00000310: ae8b 0b3e ab38 02be 78dc 02bb 1e12 e43c
00000320: d226 babd 51b7 ad3c 1a16 7dbd 8914 1cbe
00000330: 2438 1d3d 7a41 9ebd 543b d7bd 243a 793c
00000340: 1cf4 b4bc a722 e23c 247b 9dbd 4798 8cbd
00000350: 9eae 8b3d f746 f0bc 74e6 643c d717 14be
00000360: 59fe afbd a4e0 e13b e53a f2bd 1e23 08be
00000370: 51dc a63d 51ad 5f3d 7723 e33d c95e 593d
00000380: e6bc fbbd 4875 29bd 1225 123d 049a 8cbd
00000390: c5b8 efbd aaac 5c3d 7773 023e a875 1c3d
000003a0: 0a18 2f3b cea6 4c3b d671 ad3b 6ccc afbc
000003b0: efd7 3abd 0298 59bd b3de cb3c 3559 2e3d
000003c0: caac 3fbd b037 f93d 8c77 2b3d 1373 e83d
000003d0: 03a9 803d 913a e5bd c2f1 99bc 6296 793b
000003e0: 0b15 dc3c eb30 953d af41 c0bd 9c14 1e3d
000003f0: bf85 29bd 87e2 8e3d 591d 1f3d 3962 40bd

lstm.lstm1.bias_hh_l0 f4 [256]
0.11399478 0.030129075 0.13250673 0.09490962 0.11182236 -0.028911326 0.19657989 0.034468304
-0.033532158 -0.051880468 0.026870482 -0.0025458178 -0.089183725 0.07379976 -0.045476448 0.0843593
0.017688846 0.069974646 0.02726839 0.07207349 0.13769509 0.097615235 0.121741295 0.052217666
0.15580183 -0.062510446 0.032955512 -0.11444266 0.11411067 0.15823667 0.06310111 -0.016693776
0.10040846 -0.022026923 0.103739224 -0.0124908425 -0.011233642 0.16111222 0.05660949 0.14722249
-0.12997276 0.09092913 0.15271813 -0.018919334 0.07809354 -0.11564703 -0.12901077 0.0552295
-0.03831867 -0.0958064 -0.08259859 -0.043932904 0.07947967 -0.11493772 -0.032969292 -0.109056555
0.061094485 -0.060863122 0.11149921 0.09485045 0.026498275 0.1519579 -0.15063433 0.007183391
-0.117059395 0.116918504 0.14188115 0.005476905 0.044822007 0.10846031 0.09285251 0.06287763
-0.06171669 -0.07409976 0.10150453 0.030739764 -0.05091432 0.054553542 -0.017123714 -0.11247677
-0.10314326 -0.07096016 -0.06490799 -0.019087667 -0.07071223 -0.05795416 0.07132308 -0.15069668
-0.055459633 0.08524686 -0.086249284 -0.045026407 0.09287897 0.089012 -0.07051651 0.08963485
0.06359094 0.063160256 -0.06867444 -0.058050096 0.1195407 0.029932871 -0.009852878 0.20073262
0.06961138 0.06843668 0.12029638 0.08991895 0.09469965 -0.087770745 0.06387186 0.01907336
-0.067283995 0.04061856 -0.1139098 0.045500237 -0.13616031 -0.056363687 0.023084799 -0.016525459
0.0030421175 0.1041145 -0.13255285 -0.005029626 -0.053249795 0.02399706 0.08379003 -0.03416321
0.020185515 0.06644717 0.078000106 0.029399566 -0.05583303 -0.044421576 -0.03467597 0.040077515
-0.043107357 0.04892003 0.007928612 0.03596496 0.0030539483 0.017596183 0.1058966 -0.10290524
-0.0027279044 0.060424834 0.07097983 -0.06643478 -0.13394482 0.03952933 0.09022986 0.011620461
0.030426579 0.07412165 0.01165857 0.13597454 -0.09730166 0.0229514 -0.12233135 0.11149463
-0.12207823 -0.05596112 0.024035903 -0.03246612 0.007098837 -0.066644005 -0.12217774 -0.102669954
0.050936162 -0.12959443 -0.082715385 0.0057666823 -0.014552909 -0.09633841 0.059579555 -0.04701127
-0.015839545 0.0506743 -0.018070584 -0.05405193 0.06336704 -0.078919284 -0.10293002 0.04258149
-0.14940086 0.09639796 0.060502704 0.016378226 0.021977596 -0.08364075 0.100096755 -0.039504357
-0.009620236 0.14027373 0.013186778 0.10036144 0.11006145 -0.039219283 0.089746214 0.11698698
-0.047044896 -0.05968096 -0.12237375 -0.06002584 0.041001394 -0.0014657713 0.078286946 0.010987005
0.0003281933 0.015387404 -0.15603788 0.1372244 0.11447791 -0.021905838 0.012370446 0.09462473
0.07667119 -0.14434418 -0.050842106 -0.13430324 -0.121004246 0.034908243 0.021443192 0.11020486
0.026543431 -0.12308087 0.070402004 0.10042794 0.068178385 0.09687961 -0.05538875 -0.05667181
0.016545746 0.06559912 -0.051451445 -0.02357934 -0.060938083 -0.12706076 -0.085146524 -0.10022593
0.037882816 -0.08389717 0.07025099 -0.013868413 -0.14685419 -0.12026028 -0.08502916 0.059076354
0.032584496 -0.033376843 -0.08378231 -0.032334477 0.081909984 0.043797 0.037268322 0.03651784
00000000: 1876 e93d 40d1 f63c d8af 073e fa5f c23d
00000010: 1f03 e53d 72d7 ecbc 3d4c 493e a32e 0d3d
00000020: 0459 09bd 9d80 54bd 7c1f dc3c bcd7 26bb
00000030: f5a5 b6bd 5424 973d 8345 3abd 92c4 ac3d
00000040: 33e8 903c de4e 8f3d f561 df3c 449b 933d
00000050: f1ff 0c3e 7fea c73d 8053 f93d 31e2 553d
00000060: 848a 1f3e 7a05 80bd 5cfc 063d ea60 eabd
00000070: dbb2 e93d cb08 223e 283b 813d 63c1 88bc
00000080: f3a2 cd3d ce71 b4bc 3b75 d43d 64a6 4cbc
00000090: 4f0d 38bc 9afa 243e 5adf 673d 7ec1 163e
000000a0: 9417 05be 0d39 ba3d 2462 1c3e b8fc 9abc
000000b0: 82ef 9f3d 5ad8 ecbd 661b 04be 5438 623d
000000c0: 0af4 1cbd 2536 c4bd 7329 a9bd fdf2 33bd
000000d0: 3dc6 a23d 7864 ebbd cf0a 07bd 0b59 dfbd
000000e0: 363e 7a3d 9c4b 79bd b359 e43d f440 c23d
000000f0: e912 d93c da9a 1b3e e33f 1abe a762 eb3b
00000100: d6bc efbd f872 ef3d 4b49 113e 9c77 b33b
00000110: 4897 373d 7020 de3d 7529 be3d fdc5 803d
00000120: a4ca 7cbd 9dc1 97bd 9be1 cf3d f5d1 fb3c
00000130: 898b 50bd 8973 5f3d 0847 8cbc 395a e6bd
00000140: c63c d3bd 8f53 91bd 7bee 84bd bd5d 9cbc
00000150: 93d1 90bd 5761 6dbd d611 923d 3b50 1abe
00000160: a429 63bd e895 ae3d 77a3 b0bd 9c6d 38bd
00000170: 5437 be3d ec4b b63d f66a 90bd 7a92 b73d
00000180: f73b 823d 2a5a 813d 2fa5 8cbd f0c5 6dbd
00000190: c1d1 f43d c835 f53c f76d 21bc da8c 4d3e
000001a0: 6990 8e3d 8828 8c3d f35d f63d 6d27 b83d
000001b0: e4f1 c13d 26c1 b3bd 40cf 823d bc3f 9c3c
000001c0: 31cc 89bd a65f 263d 8b49 e9bd 755e 3a3d
000001d0: 9c6d 0bbe 9cdd 66bd 551c bd3c 6660 87bc
000001e0: 435e 473b fc39 d53d efbb 07be 90cf a4bb
000001f0: 751c 5abd 7b95 c43c 1b9a ab3d b9ee 0bbd
00000200: 185c a53c 7415 883d 85be 9f3d 5cd7 f03c
00000210: 2db1 64bd 66f3 35bd 6408 0ebd 5228 243d
00000220: 5791 30bd 5f60 483d 02e7 013c fe4f 133d
00000230: c024 483b df25 903c 51e0 d83d fcbf d2bd
00000240: a4c6 32bb 0880 773d e05d 913d f50e 88bd
00000250: d528 09be 82e9 213d 6fca b83d bf63 3e3c
00000260: 2941 f93c 17cd 973d 9603 3f3c e93c 0b3e
00000270: 1846 c7bd 9304 bc3c dc88 fabd 4c57 e43d
00000280: 2704 fabd 7d37 65bd f1e6 c43c 32fb 04bd
00000290: 5c9d e83b a77c 88bd 5338 fabd a044 d2bd
000002a0: 70a2 503d 67b4 04be af66 a9bd 70f6 bc3b
000002b0: 536f 6ebc 134d c5bd b109 743d e48e 40bd
000002c0: efc1 81bc db8f 4f3d c308 94bc 8e65 5dbd
000002d0: 94c6 813d 6fa0 a1bd f9cc d2bd ee69 2e3d
000002e0: 8afc 18be 4b6c c53d afd1 773d a12b 863c
000002f0: 5c0a b43c d74b abbd 87ff cc3d 52cf 21bd
00000300: 329e 1dbc eba3 0f3e 5b0d 583c 4c8a cd3d
00000310: e667 e13d 66a4 20bd ddcc b73d df96 ef3d
00000320: 26b2 40bd 0674 74bd 179f fabd a8dd 75bd
00000330: 14f1 273d 201f c0ba e854 a03d d702 343c
00000340: 5c11 ac39 731b 7c3c 65c8 1fbe 8e84 0c3e
00000350: 6573 ea3d df73 b3bc 69ad 4a3c 9cca c13d
00000360: c905 9d3d f6ce 13be d03f 50bd ca86 09be
00000370: 13d1 f7bd f2fb 0e3d a2a9 af3c 16b3 e13d
00000380: 9c71 d93c d311 fcbd ed2e 903d 2aad cd3d
00000390: 1ca1 8b3d d168 c63d 50df 62bd b320 68bd
000003a0: f28a 873c d558 863d c0be 52bd 7629 c1bc
000003b0: 369a 79bd 371c 02be 4d61 aebd 4143 cdbd
000003c0: 032b 1b3d 48d2 abbd c0df 8f3d 5738 63bc
000003d0: f260 16be 064b f6bd c523 aebd 0cfa 713d
000003e0: 5277 053d 28b6 08bd 0f96 abbd 2871 04bd
000003f0: 6cc0 a73d 7c64 333d aba6 183d bb93 153d

lstm.bn1.weight f4 [7]
1.0253397 1.0050505 1.0373523 1.1014236 1.1123116 1.0944111 1.0624858
00000000: 553e 833f 7fa5 803f f6c7 843f 73fb 8c3f
00000010: 3a60 8e3f aa15 8c3f 89ff 873f

lstm.bn1.bias f4 [7]
0.028068122 0.029556634 0.049878504 0.063399166 0.06436235 0.06712677 0.092067264
00000000: 1eef e53c c120 f23c 674d 4c3d 6cd7 813d
00000010: 68d0 833d c379 893d c38d bc3d

lstm.bn1.running_mean f4 [7]
-0.017129695 -0.026102876 -0.027476752 -0.025515936 -0.022997005 -0.021039536 -0.01988213
00000000: 9353 8cbc b3d5 d5bc ed16 e1bc cc06 d1bc
00000010: 3764 bcbc 1b5b acbc d9df a2bc

lstm.bn1.running_var f4 [7]
0.0063303416 0.018793916 0.030285297 0.038831383 0.044898603 0.049237695 0.052431077
00000000: c16e cf3b b3f5 993c df18 f83c a80d 1f3d
00000010: 99e7 373d 77ad 493d f8c1 563d

lstm.lstm2.weight_ih_l0 f4 [256, 64]
-0.019202841 -0.12838599 0.009243311 -0.021403361 -0.16465043 0.024765108 0.12289987 0.112617336
0.0026305346 -0.09105873 -0.082079805 -0.11850971 0.10821876 -0.09296018 0.0855239 -0.009407166
0.04375342 -0.06252109 0.04745707 0.06257011 -0.056654964 0.07201541 -0.022050664 -0.056687932
0.11433789 -0.076962434 0.023402378 0.00679459 0.14523216 0.02075024 -0.0652628 -0.103370614
0.102944694 0.05293341 -0.077451184 -0.11400862 -0.011342189 0.050663687 0.09688211 -0.13466646
0.12239986 0.0076683895 0.061598487 0.004410002 -0.077603094 0.039194833 -0.08857356 -0.033896238
0.07293514 0.12311084 -0.06926752 -0.06078608 -0.056141376 0.05250501 0.017658165 -0.047141306
-0.030743357 0.009527339 -0.058552355 -0.02075929 -0.13368924 0.051811893 0.11181691 -0.14572965
0.05937481 -0.034941692 0.1316793 0.0642596 -0.30086136 -0.0881015 0.04108175 0.11744754
-0.038976055 0.16529502 -0.06504454 -0.07949092 0.025348 0.021917576 0.010701613 0.036148243
0.08053523 -0.23810542 0.05272348 -0.123802386 -0.009698534 -0.12949252 0.0016431959 -0.106027246
0.035632562 -0.084524244 0.07328594 0.13483545 -0.0002499336 0.11930931 0.050096862 -0.011364043
-0.19516905 0.01518057 -0.10325237 0.1183171 -0.07466176 0.20174551 -0.050489303 -0.055808857
-0.074648835 0.0066669066 0.13514787 -0.017614054 0.0005241741 -0.024281146 -0.029110081 0.16536412
-0.045901306 0.06111058 -0.04429675 0.046336588 0.061683413 -0.060435522 -0.05752804 -0.17743726
-0.087002315 -0.16184391 -0.18501264 0.14703804 -0.13493617 -0.01741082 0.010447456 0.08017638
-0.18278417 -0.05010481 0.061786216 -0.08095143 -0.079503305 0.06422843 0.03033679 0.061653398
0.16655393 0.12997228 0.02621298 0.022780158 -0.020956118 -0.031602982 -0.17824127 0.036486167
0.16509861 -0.056187272 0.019759964 0.08704119 0.109667204 -0.12354975 -0.1264419 -0.037833497
0.094466105 -0.1156743 0.063091874 -0.09629303 0.12790099 0.12700768 0.018396595 0.09616855
-0.091714256 0.10362579 0.052935034 -0.17990367 0.035875708 -0.020198846 0.020735875 0.11583312
-0.05312432 0.12433846 -0.058400627 0.07620186 -0.06331839 -0.11204216 -0.043480936 -0.08143927
-0.15351032 -0.0043219225 0.071829475 0.18728761 0.038031124 -0.03144012 -0.08451977 0.046689834
-0.008172647 -0.0055488283 -0.006670909 0.014066787 -0.10125728 -0.13775778 -0.032426745 0.029845899
-0.010046144 -0.11443197 0.06555513 -0.013276238 -0.005773194 -0.09335616 0.010111543 -0.06917507
0.08220235 0.04561206 0.08565249 0.020968033 -0.09970106 -0.106980614 -0.117317475 0.06165985
0.0643375 0.015006996 -0.006093048 -0.10646523 0.021772148 -0.037750557 -0.08366378 -0.099121004
0.0713253 0.019533753 -0.00871479 0.0843495 0.012482547 0.13529728 -0.09440587 0.050658535
0.07205154 -0.13296898 0.08002117 -0.15599278 0.05396369 0.016958123 0.16242099 0.1255397
-0.00959895 -0.04957932 0.12907103 0.116078116 -0.097426236 0.06757975 -0.10675558 0.11367067
0.01619669 0.063743524 -0.028844336 -0.0074631576 -0.037044495 0.059403464 -0.07286186 -0.016767722
-0.07769928 -0.06422352 0.026376667 -0.06553779 -0.016181206 0.00086940435 -0.09165052 0.04686495
00000000: 474f 9dbc 9e77 03be 4271 173c 1a56 afbc
00000010: 1f9a 28be 32e0 ca3c edb2 fb3d eba3 e63d
00000020: 0c65 2c3b 007d babd 7519 a8bd 38b5 f2bd
00000030: cca1 dd3d e861 bebd 2827 af3d 8420 1abc
00000040: c936 333d 0f0b 80bd 5862 423d c224 803d
00000050: 090f 68bd d17c 933d 98a3 b4bc 9b31 68bd
00000060: fc29 ea3d 7b9e 9dbd 58b6 bf3c 27a5 de3b
00000070: bdb7 143e 68fc a93c 81a8 85bd f9b3 d3bd
00000080: abd4 d23d b4d0 583d ba9e 9ebd 5a7d e9bd
00000090: 97d4 39bc ba84 4f3d 216a c63d 01e6 09be
000000a0: c7ac fa3d 1d47 fb3b b24e 7c3d c781 903b
000000b0: 5fee 9ebd c38a 203d 0e66 b5bd c8d6 0abd
000000c0: 055f 953d 8921 fc3d 21dc 8dbd d3fa 78bd
000000d0: 80f4 65bd 7e0f 573d dba7 903c 3e17 41bd
000000e0: 7ed9 fbbc 8e18 1c3c 98d4 6fbd 630f aabc
000000f0: d5e5 08be b538 543d 4400 e53d 273a 15be
00000100: 0033 733d 051f 0fbd f0d6 063e 8a9a 833d
00000110: 800a 9abe 8f6e b4bd 5645 283d 5688 f03d
00000120: 5ba5 1fbd 1943 293e 1236 85bd 23cc a2bd
00000130: 9ca6 cf3c 7d8c b33c d155 2f3c 2e10 143d
00000140: a8ef a43d e8d1 73be 93f4 573d 1b8c fdbd
00000150: 9ae6 1ebc b099 04be 8160 d73a d024 d9bd
00000160: 73f3 113d 0c1b adbd f016 963d 4e12 0a3e
00000170: 8509 83b9 7158 f43d 5e32 4d3d 4030 3abc
00000180: 65da 47be edb7 783c fb75 d3bd 3c50 f23d
00000190: 44e8 98bd 6096 4e3e dfcd 4ebd d497 64bd
000001a0: 7de1 98bd 1176 da3b 3464 0a3e 594b 90bc
000001b0: ba68 093a 41e9 c6bc 4478 eebc 3655 293e
000001c0: 0203 3cbd 164f 7a3d 8270 35bd 6fcb 3d3d
000001d0: bfa7 7c3d 3d8b 77bd 86a2 6bbd 1db2 35be
000001e0: 452e b2bd 69ba 25be f473 3dbe 2491 163e
000001f0: b52c 0abe 23a1 8ebc ce2b 2b3c 8433 a43d
00000200: c62b 3bbe b43a 4dbd 8b13 7d3d ddc9 a5bd
00000210: a1d2 a2bd 328a 833d dc84 f83c 4688 7c3d
00000220: 1d8d 2a3e 7417 053e 9abc d63c 749d ba3c
00000230: 2aac abbc 2172 01bd e184 36be 8572 153d
00000240: 9c0f 293e a024 66bd a6df a13c a742 b23d
00000250: 3399 e03d a707 fdbd fc79 01be 4cf7 1abd
00000260: 7277 c13d a6e6 ecbd 5036 813d 4835 c5bd
00000270: 7af8 023e 4d0e 023e 75b4 963c 04f4 c43d
00000280: afd4 bbbd c239 d43d 68d2 583d ab38 38be
00000290: 68f2 123d 0d78 a5bc 48de a93c ea39 ed3d
000002a0: e398 59bd 2aa5 fe3d 7f35 6fbd b90f 9c3d
000002b0: 12ad 81bd 5c76 e5bd 1119 32bd a2c9 a6bd
000002c0: cf31 1dbe ea9e 8dbb 551b 933d 53c8 3f3e
000002d0: 86c6 1b3d 5bc7 00bd b418 adbd d73d 3f3d
000002e0: 91e6 05bc f2d2 b5bb a497 dabb 6278 663c
000002f0: fa5f cfbd 6010 0dbe e8d1 04bd 637f f43c
00000300: 9598 24bc 4f5b eabd c541 863d 9484 59bc
00000310: 102d bdbb 8431 bfbd e3aa 253c a9ab 8dbd
00000320: b559 a83d b6d3 3a3d 936a af3d 27c5 ab3c
00000330: 1230 ccbd a718 dbbd 2544 f0bd 0a8f 7c3d
00000340: 61c3 833d e7df 753c 31a8 c7bb 710a dabd
00000350: 815b b23c 54a0 1abd ea57 abbd f4ff cabd
00000360: 0013 923d 4005 a03c 7bc8 0ebc 6ebf ac3d
00000370: 9983 4c3c 5f8b 0a3e dd57 c1bd 537f 4f3d
00000380: c28f 933d 0529 08be 24e2 a33d 92bc 1fbe
00000390: 0809 5d3d c3eb 8a3c b051 263e 7b8d 003e
000003a0: ea44 1dbc af13 4bbd 322b 043e 5dba ed3d
000003b0: 6887 c7bd 4167 8a3d aba2 dabd 2bcc e83d
000003c0: ecae 843c f78b 823d f54a ecbc 818d f4bb
000003d0: f8bb 17bd 0c51 733d 9938 95bd 765c 89bc
000003e0: cd20 9fbd 9f87 83bd e113 d83c ad38 86bd
000003f0: 738e 84bc bde8 633a 45b3 bbbd 76f5 3f3d

lstm.lstm2.weight_hh_l0 f4 [256, 64]
0.12742095 0.03649641 0.076061 -0.06329015 0.13908954 0.0496036 -0.09565015 0.068078466
0.09204604 0.022337316 -0.021747846 -0.019781139 0.11899507 0.015285175 0.012508742 0.112237595
-0.106925264 0.06958366 0.053541366 0.018121338 0.006963427 -0.065397985 0.06885743 0.0024527304
0.093996435 0.018484121 0.100444816 -0.06359282 -0.015185047 -0.034700476 -0.06571961 0.12731244
0.0566603 0.048237264 0.033222236 0.02036541 0.010316663 0.11648984 -0.13105711 -0.022241812
-0.115575336 -0.11793948 -0.1328634 -0.07016513 -0.04596611 0.118654646 0.13145815 0.04785261
0.07828461 -0.117894314 0.031774927 0.094437994 -0.04956212 0.0700021 -0.04837559 -0.06274599
0.05572015 -0.10796559 -0.0045580077 -0.066860944 0.01865539 0.10203175 0.003075931 0.07848719
-0.027525676 0.07686465 0.0009852884 0.016036214 0.10347035 -0.04210784 0.06157358 -0.05229916
0.055358056 0.077385895 -0.053038057 -0.15882413 0.07024836 -0.075922936 0.1440513 0.03570419
0.083009884 -0.058741707 0.020022338 -0.1257125 -0.0866295 -0.013364325 -0.01515061 -0.13047221
0.0089048585 0.07158948 -0.10429598 0.074561805 -0.0456787 -0.15409358 -0.049567778 0.12674299
-0.11922969 0.041748323 -0.034662314 -0.051163714 0.16062118 0.0021142696 0.0399504 -0.05441587
0.15677896 -0.0336394 -0.055557664 -0.013156903 -0.10033618 -0.14137936 -0.0383457 0.11395828
0.16165729 0.009476973 -0.17781736 -0.050112415 0.11431354 -0.021293215 -0.026479878 -0.023166591
0.21393585 -0.11351325 0.008479845 0.019139132 -0.07802484 0.12167895 -0.10330924 0.028882647
0.14181435 -0.09577074 -0.028889095 -0.095686324 -0.03780571 0.1120542 -0.12492827 -0.08875692
-0.012089209 -0.057663582 -0.062890105 -0.061678257 -0.037227187 -0.008807681 -0.002269723 0.029402722
-0.011464924 -0.029979896 0.079030946 0.085557915 0.18779837 0.032984674 0.007554698 -0.013872707
-0.009274565 -0.15366626 -0.10614283 -0.15989852 0.105469994 -0.0076374696 -0.02192728 0.033327173
0.010748037 -0.11525143 -0.034464046 -0.0037830363 0.1000444 -0.06408453 -0.025436904 -0.070587456
-0.13685495 -0.038298525 -0.02044321 0.070646636 -0.118449144 0.011003282 0.045518704 0.06089427
0.018252866 0.04828444 -0.089672595 -0.005546431 0.031228308 0.16375738 0.038263544 0.043812964
0.07218736 0.059721913 -0.020643653 0.104531415 -0.047857653 0.010680098 0.14621311 0.025928926
-0.0496577 -0.044755176 -0.049674325 0.10186049 -0.1039089 0.0013435129 -0.0073172385 -0.118583046
0.053710245 0.11769369 -0.12527785 0.04289976 0.15133666 -0.003913728 -0.06399414 0.111407325
-0.0063059945 0.005709924 0.036571708 -0.014624496 0.15005082 -0.028079964 0.049818575 0.04215034
0.051421672 0.05228561 -0.09703784 -0.14414935 -0.081948675 -0.1277654 -0.0753159 -0.042150825
-0.10634192 -0.14598368 0.104417354 -0.07715394 0.048266653 0.097503245 -0.115362324 0.0347689
-0.06759008 0.0028653971 0.011565896 -0.15258512 -0.036917772 -0.0052684788 0.07666915 0.14784065
0.04889969 -0.06798746 -0.040709745 -0.06847744 0.072940096 0.094163515 -0.0369968 -0.052196085
0.08974484 0.050774865 0.076847225 0.06822045 -0.119534604 0.034748886 -0.02219799 -0.064695515
00000000: a37a 023e 427d 153d dfc5 9b3d 449e 81bd
00000010: 7d6d 0e3e 252d 4b3d 3ae4 c3bd b96c 8b3d
00000020: a282 bc3d bffc b63c 8a28 b2bc 0e0c a2bc
00000030: b0b3 f33d ac6e 7a3c 77f1 4c3c d3dc e53d
00000040: a2fb dabd e181 8e3d 314e 5b3d 3373 943c
00000050: 762d e43b 61ef 85bd 2005 8d3d fdbd 203b
00000060: 3481 c03d 036c 973c 03b6 cd3d f43c 82bd
00000070: b4ca 78bc 1622 0ebd 0198 86bd 315e 023e
00000080: a114 683d 7094 453d 0a14 083d 5cd5 a63c
00000090: 3907 293c 3a92 ee3d d633 06be 7634 b6bc
000000a0: c3b2 ecbd 418a f1bd 580d 08be bcb2 8fbd
000000b0: f646 3cbd 3501 f33d f79c 063e 1901 443d
000000c0: ae53 a03d 9372 f1bd 6d26 023d b568 c13d
000000d0: a601 4bbd 435d 8f3d 7c25 46bd f880 80bd
000000e0: d03a 643d 101d ddbd 575b 95bb 64ee 88bd
000000f0: 30d3 983c 06f6 d03d 8f95 493b e4bd a03d
00000100: 877d e1bc 376b 9d3d cb24 813a 615e 833c
00000110: 43e8 d33d 4579 2cbd 9434 7c3d a537 56bd
00000120: 21bf 623d 7f7c 9e3d 6f3e 59bd cba2 22be
00000130: 5fde 8f3d 7c7d 9bbd 2f82 133e 8f3e 123d
00000140: 1601 aa3d 259b 70bd e305 a43c c7ba 00be
00000150: cf6a b1bd 0bf6 5abc 443a 78bc 829a 05be
00000160: afe5 113c 819d 923d 2199 d5bd dcb3 983d
00000170: 9719 3bbd b5ca 1dbe 9507 4bbd eac8 013e
00000180: b22e f4bd 4a00 2b3d 12fa 0dbd 0b91 51bd
00000190: e179 243e 8f8f 0a3b 08a3 233d 2de3 5ebd
000001a0: aa8a 203e 78c9 09bd 6f90 63bd 0d90 57bc
000001b0: 0e7d cdbd c0c5 10be 6110 1dbd f562 e93d
000001c0: 7d89 253e 4e45 1b3c c115 36be ad42 4dbd
000001d0: 381d ea3d 1c6f aebc 54ec d8bc ddc7 bdbc
000001e0: 0012 5b3e a379 e8bd 0cef 0a3c abc9 9c3c
000001f0: 7dcb 9fbd d032 f93d cb93 d3bd 4d9b ec3c
00000200: c837 113e 7323 c4bd d3a8 ecbc 31f7 c3bd
00000210: 29da 1abd ac7c e53d 65da ffbd 30c6 b5bd
00000220: d111 46bc a630 6cbd 87cc 80bd 57a2 7cbd
00000230: 897b 18bd 174e 10bc a2bf 14bb fadd f03c
00000240: 60d7 3bbc 6698 f5bc fada a13d fd38 af3d
00000250: 374e 403e f01a 073d 668d f73b 5a4a 63bc
00000260: 58f4 17bc b05a 1dbe 6961 d9bd 70bc 23be
00000270: a700 d83d bd43 fabb d7a0 b3bc 1382 083d
00000280: 8918 303c f108 ecbd 2c2a 0dbd d1ec 77bb
00000290: 14e4 cc3d c03e 83bd 0e61 d0bc 2890 90bd
000002a0: b423 0cbe eade 1cbd 8578 a7bc 2faf 903d
000002b0: 7795 f2bd 1c47 343c d271 3a3d 456c 793d
000002c0: 0987 953c e8c5 453d 44a6 b7bd d6be b5bb
000002d0: 82d2 ff3c 04b0 273e 3cba 1c3d 3975 333d
000002e0: f7d6 933d f79e 743d e11c a9bc 9114 d63d
000002f0: 6306 44bd 94fb 2e3c e4b8 153e e668 d43c
00000300: df65 4bbd 3451 37bd 4e77 4bbd 3c9c d03d
00000310: 30ce d4bd d018 b03a 72c5 efbb abdb f2bd
00000320: 46ff 5b3d 6409 f13d d648 00be a9b7 2f3d
00000330: fff7 1a3e bb3e 80bb 5c0f 83bd 8629 e43d
00000340: 84a2 cebb 501a bb3b 37cc 153d 959b 6fbc
00000350: eca6 193e f407 e6bc 900e 4c3d d6a5 2c3d
00000360: 889f 523d 7029 563d c6bb c6bd e39b 13be
00000370: b5d4 a7bd efd4 02be 393f 9abd 58a6 2cbd
00000380: cbc9 d9bd bf7c 15be c4d8 d53d e302 9ebd
00000390: 41b3 453d c8af c73d 1543 ecbd d669 0e3d
000003a0: ab6c 8abd 63c9 3b3b e27e 3d3c 463f 1cbe
000003b0: 1737 17bd 34a3 acbb b704 9d3d 8a63 173e
000003c0: 0b4b 483d 023d 8bbd 43bf 26bd e63d 8cbd
000003d0: 9e61 953d cdd8 c03d f589 17bd 90cb 55bd
000003e0: 25cc b73d 4ef9 4f3d 1462 9d3d 2ab7 8b3d
000003f0: 8fce f4bd d954 0e3d 8fd8 b5bc 157f 84bd

lstm.lstm2.bias_ih_l0 f4 [256]
0.10864727 0.010934715 -0.13136247 -0.008893392 -0.14469305 -0.05435005 -0.13036254 0.047459647
0.15063043 -0.07755302 -0.010662775 -0.07409522 0.12639357 -0.00040413972 0.0344971 0.083379395
0.015536185 -0.15374109 0.07680426 0.004492463 0.053915367 -0.040386327 -0.04550168 0.14272386
-0.093230315 -0.034474004 0.09178544 0.15206333 0.06316289 -0.12564263 0.05305774 0.036057975
-0.025876317 0.033826526 0.06349377 -0.047034185 -0.08198209 -0.08468791 -0.088224664 0.06688035
-0.023128185 -0.05486642 -0.014346777 0.13642126 0.11812808 -0.024871966 0.020310737 0.083739914
0.06146174 -0.051863756 -0.009889691 -0.0451048 -0.038613763 -0.033052787 0.08572765 0.004535087
-0.07633392 0.094522245 0.03317923 0.12532522 0.10546367 0.07219463 0.009534345 0.017509898
0.07790306 -0.011269031 -0.13774039 0.061789304 -0.15120372 0.020162955 -0.070880145 -0.011487806
-0.0038990628 -0.064086355 -0.05043457 0.024891235 0.07054372 -0.049752656 0.1335364 -0.03992882
0.038392924 -0.08134676 -0.02428907 0.072116755 0.09528883 -0.144608 0.12877078 0.11718383
0.007954204 -0.06351724 -0.11050721 -0.044952862 -0.008361128 -0.026858136 0.011031232 -0.05482324
0.060060687 -0.08640216 0.07962019 0.052837666 0.030988725 -0.06486358 0.03430587 -0.07396702
0.078525245 0.008463773 -0.07745991 -0.07468474 0.13971724 -0.15658087 0.038108025 0.15023935
0.0987524 0.040327854 -0.085918635 -0.14017925 -0.031176208 0.030176356 0.08593237 -0.004731604
0.09016843 0.14310952 0.015755259 0.04472028 -0.083376355 0.0106869675 -0.01750408 -0.074974716
0.05649636 -0.01741091 0.026844852 -0.09953695 -0.07048598 0.046935696 -0.0024518454 0.027548594
0.15639046 -0.028719354 0.078762524 0.026565911 0.060207784 -0.064094566 0.070541814 0.06936646
0.06486056 0.03235902 0.10946873 0.03101555 -0.124381654 0.09469396 0.012274488 -0.057282627
-0.11997435 -0.03961932 -0.06478011 -0.01631579 0.0909892 0.054811247 0.004600664 0.09705552
0.041347537 0.10066409 -0.05695162 0.084783144 0.014361743 -0.0653735 -0.044021506 0.02129349
-0.100836635 0.15117495 0.038444843 -0.0070257895 0.12689508 0.121210374 -0.022980846 -0.20939979
0.1272886 0.07866352 0.0066522667 -0.06577072 -0.008025493 -0.10867371 0.052498497 -0.05152841
-0.084070496 0.05576971 0.01795729 -0.0061535765 0.13751742 0.05859153 0.10188306 -0.091213785
-0.08838543 -0.0528009 -0.10608619 -0.084155075 -0.022334516 -0.06625277 -0.072474696 -0.0028537493
-0.08801641 -0.15272431 0.04019991 -0.027607523 0.0019477381 -0.019149395 -0.007845192 -0.06395869
-0.12997366 0.067637734 -0.07625711 -0.1195958 0.13892373 0.10341741 -0.077249534 -0.06681051
0.025779312 0.085978046 -0.04072429 0.051983513 0.016899768 0.041065976 -0.06869942 0.017431943
0.097067624 0.022440663 -0.11824586 -0.10284536 -0.05586873 0.010795255 -0.08410413 0.06675508
-0.05361326 -0.024205929 -0.019495673 -0.045168404 0.096260846 -0.0639836 0.066139944 0.0743311
0.12081678 -0.09203214 -0.07152753 -0.124097824 0.11027724 -0.06547914 -0.08684832 0.003984101
0.11085795 0.004846017 -0.021794556 -0.007710382 0.084996305 -0.023032859 0.11600464 0.049925055
00000000: 7682 de3d 8527 333c e283 06be 97b5 11bc
00000010: 6a2a 14be 289e 5ebd c27d 05be 0c65 423d
00000020: dd3e 1a3e 1ed4 9ebd ebb2 2ebc 3cbf 97bd
00000030: 516d 013e b7e2 d3b9 d54c 0d3d d1c2 aa3d
00000040: 7c8b 7e3c 4e6e 1dbe 8d4b 9d3d 8335 933b
00000050: 5cd6 5c3d 226c 25bd f85f 3abd 3426 123e
00000060: 89ef bebd 9d34 0dbd 01fa bb3d 7db6 1b3e
00000070: 8c5b 813d 76a8 00be 1353 593d 87b1 133d
00000080: 92fa d3bc af8d 0a3d 0609 823d eba6 40bd
00000090: 3ae6 a7bd db70 adbd 22af b4bd 91f8 883d
000000a0: 5277 bdbc 9cbb 60bd bf0e 6bbc 04b2 0b3e
000000b0: 23ed f13d 4bc0 cbbc b462 a63c d57f ab3d
000000c0: 4ebf 7b3d 176f 54bd 5f08 22bc d0bf 38bd
000000d0: 7729 1ebd 5c62 07bd fa91 af3d 119b 943b
000000e0: f554 9cbd e194 c13d f2e6 073d 4155 003e
000000f0: 56fd d73d c7da 933d f135 1c3c eb70 8f3c
00000100: a48b 9f3d bea1 38bc d10b 0dbe c816 7d3d
00000110: 26d5 1abe c82c a53c 9c29 91bd 5a37 3cbc
00000120: 6b87 7fbb b53f 83bd 7b94 4ebd b4e8 cb3c
00000130: 3a79 903d 71c9 4bbd c4bd 083e 678c 23bd
00000140: e641 1d3d 2199 a6bd dff9 c6bc f3b1 933d
00000150: ca26 c33d 1f14 14be 7ddc 033e 13fe ef3d
00000160: 5a52 023c 5415 82bd 9b51 e2bd 7e20 38bd
00000170: 1dfd 08bc 9805 dcbc 57bc 343c 558e 60bd
00000180: 3202 763d 9ef3 b0bd e90f a33d 4f6c 583d
00000190: 11dc fd3c 32d7 84bd 5084 0c3d 057c 97bd
000001a0: d8d1 a03d a3ab 0a3c 4da3 9ebd 50f4 98bd
000001b0: 0912 0f3e bc56 20be 2917 1c3d 58d8 193e
000001c0: b33e ca3d d22e 253d 1cf6 afbd 268b 0fbe
000001d0: 3f65 ffbc 6834 f73c 4ffd af3d 920b 9bbb
000001e0: 3aaa b83d 4d8b 123e 2c11 813c 9d2c 373d
000001f0: 39c1 aabd 6418 2f3c b764 8fbc 588c 99bd
00000200: ba68 673d 53a1 8ebc bce9 db3c 07da cbbd
00000210: f45a 90bd a53f 403d 24af 20bb 97ad e13c
00000220: d224 203e da44 ebbc 3f4e a13d c1a0 d93c
00000230: 709c 763d 0344 83bd 3a78 903d 0110 8e3d
00000240: 9dd5 843d e48a 043d 2431 e03d 5314 fe3c
00000250: cfbb febd e8ee c13d ef1a 493c 30a1 6abd
00000260: 1db5 f5bd de47 22bd 6fab 84bd b1a8 85bc
00000270: 8c58 ba3d c281 603d 2bc1 963b 0bc5 c63d
00000280: 095c 293d f928 ce3d 1a46 69bd c9a2 ad3d
00000290: 844d 6b3c 8be2 85bd e54f 34bd af6f ae3c
000002a0: 7083 cebd 9bcd 1a3e 5778 1d3d 9838 e6bb
000002b0: c9f0 013e 253d f83d 5442 bcbc e66c 56be
000002c0: f157 023e 571a a13d 42fb d93b cdb2 86bd
000002d0: 5b7d 03bc 5290 debd aa08 573d 740f 53bd
000002e0: 272d acbd c86e 643d 2b1b 933c f1a3 c9bb
000002f0: 5ed1 0c3e acfd 6f3d 11a8 d03d 4bce babd
00000300: 6c03 b5bd c245 58bd b743 d9bd 7f59 acbd
00000310: e0f6 b6bc 88af 87bd 9d6d 94bd f805 3bbb
00000320: f341 b4bd c363 1cbe a9a8 243d 2c29 e2bc
00000330: 3f4b ff3a 31df 9cbc 1f89 00bc c6fc 82bd
00000340: d117 05be a785 8a3d b02c 9cbd a5ee f4bd
00000350: 0642 0e3e 82cc d33d 0135 9ebd f3d3 88bd
00000360: 232f d33c 4215 b03d 83ce 26bd aaec 543d
00000370: 6271 8a3c cc34 283d 48b2 8cbd 6fcd 8e3c
00000380: 64cb c63d 7bd5 b73c e32a f2bd 97a0 d2bd
00000390: 9cd6 64bd 95de 303c c93e acbd e3b6 883d
000003a0: 9499 5bbd 834b c6bc 64b5 9fbc 8102 39bd
000003b0: 6824 c53d d509 83bd 6174 873d e73a 983d
000003c0: ca6e f73d 597b bcbd 077d 92bd 0027 febd
000003d0: 09d9 e13d ed19 86bd 88dd b1bd 108d 823b
000003e0: 7e09 e33d 56cb 9e3b 7f8a b2bc 5fa7 fcbb
000003f0: 8b12 ae3d 68af bcbc d793 ed3d 377e 4c3d
