073123/0810hoxyhoxy.pth (torch, 703219 bytes, 38 tensors)

lstm.lstm1.weight_ih_l0 f4 [256, 12]
0	0xbe0e9ff0	-0.13928199
1	0xbd80be98	-0.06286353
2	0xbe86e532	-0.26346737
3	0xbe708ce4	-0.23491246
4	0xbe745c22	-0.23863271
5	0xbe0dc75f	-0.13845585
6	0x3c80b457	0.015710993
7	0xbe04ea4a	-0.12979999
8	0xbe429c24	-0.19004875
9	0xbe906609	-0.28202847
10	0xbea009d5	-0.312575
11	0x3dbb5c3c	0.09148452
12	0x3e6574c6	0.22407827
13	0x3ee0e0fc	0.4392165
14	0x3e8be3d6	0.27322263
15	0x3de61f1b	0.11236402
16	0x3d5aa265	0.053377528
17	0x3e80a021	0.2512217
18	0x3ea7f7b7	0.3280618
19	0x3ea47697	0.32121727
20	0x3f01fe1a	0.50778353
21	0x3ea91f96	0.3303191
22	0x3e4673a3	0.1938005
23	0x3f014170	0.50490475
24	0xbc454557	-0.012040458
25	0xbda43be6	-0.08019237
26	0xbdd1db30	-0.10246885
27	0xbe10da0e	-0.14145681
28	0x3c066a7f	0.008204102
29	0xbc179a5b	-0.00925311
30	0xbe41fc4b	-0.18943898
31	0xbe2291b0	-0.15875888
32	0x3c23c514	0.009995718
33	0x3df5c99a	0.12001343
34	0xbcb5cdae	-0.022192802
35	0xbec09992	-0.37617165
36	0xbe0127aa	-0.12612787
37	0xbdead1e5	-0.114658155
38	0xbe77f149	-0.24213137
39	0xbdf88208	-0.121341765
40	0xbe404bb5	-0.1877888
41	0xbbd24096	-0.0064163906
42	0xbe802eff	-0.25035855
43	0xbe611dcc	-0.21984023
44	0xbea359f9	-0.3190458
45	0xbde29b84	-0.110648185
46	0x3d30fc6d	0.043209482
47	0xbef3bdf4	-0.4760586
48	0x3c46751b	0.012112881
49	0xbd5c7876	-0.053825818
50	0xbe1081fd	-0.14112087
51	0xbe227bc2	-0.15867522
52	0xbe997183	-0.29969415
53	0xbe2728b3	-0.1632412
54	0xbe2ed6d3	-0.17074136
55	0xbdffaf0a	-0.12484558
56	0xbe03e27b	-0.12879364
57	0xbe6d9dc7	-0.23204719
58	0xbe864bdd	-0.26229754
59	0x3ec6f560	0.3885908
60	0xbdbfc6f3	-0.093641184
61	0xbe45f737	-0.19332586
62	0xbeb38da3	-0.35068998
63	0xbe08fa25	-0.13376673
64	0xbd8fbfba	-0.07018991
65	0xbe184b72	-0.1487253
66	0xbe37d93b	-0.1795396
67	0xbe4427a6	-0.1915575
68	0xbe69678b	-0.22793405
69	0xbd7690e7	-0.060196783
70	0xbc9788c8	-0.01849784
71	0xbe9d3d5b	-0.30710873
72	0xbe24182b	-0.16024844
73	0xbe2d9387	-0.16950808
74	0xbda6f1f5	-0.081516184
75	0xbc9014dc	-0.017588072
76	0x3d53f310	0.051745474
77	0x3c3e3c33	0.011611032
78	0xbd4986a8	-0.049200684
79	0xbdcce62a	-0.10004838
80	0x3d46f682	0.048574932
81	0xbd3b0ec5	-0.045668382
82	0xbd9d15b2	-0.07670154
83	0xbeb3331e	-0.34999937
84	0xbca4a6fc	-0.020099156
85	0xbd67eaf4	-0.056620553
86	0xbc049e5e	-0.008094398
87	0xbd750099	-0.059815023
88	0x3c061f88	0.008186229
89	0xbd29dabf	-0.04146838
90	0xbe6e0693	-0.23244695
91	0xbd0c233d	-0.034213293
92	0xbe2e8138	-0.1704148
93	0xbcd15887	-0.025554908
94	0xbe0777e1	-0.13229324
95	0xbf3036dc	-0.6883371
96	0x3ddd271a	0.10798474
97	0xbddb01b2	-0.10693683
98	0x3c31bb05	0.010847812
99	0xbc8f7d8c	-0.01751592
100	0x3df75ad6	0.120778725
101	0x3dc3e9f4	0.095661074
102	0xbc832791	-0.016010078
103	0x3dcb25e4	0.099193364
104	0xbdcbee52	-0.09957565
105	0x3d05488b	0.032539885
106	0x3db807cc	0.08985862
107	0x3ea143a9	0.31496933
108	0xbda76026	-0.08172636
109	0xbe00f71c	-0.12594265
110	0xbe74ed86	-0.23918733
111	0xbe7a28e5	-0.24429663
112	0xbe23d2af	-0.15998338
113	0xbe87242c	-0.26394784
114	0xbe2b4973	-0.16727237
115	0xbde88eb1	-0.11355341
116	0xbe163169	-0.14667286
117	0xbde1fa62	-0.11034085
118	0xbe56a8df	-0.20962857
119	0xbd97e07a	-0.074158624
120	0x3cb3357c	0.02187609
121	0xbd0edddf	-0.03487956
122	0x3eb0caea	0.3452981
123	0xbe2562a6	-0.16150913
124	0x3eab817c	0.33497226
125	0x3c9f27f7	0.019428236
126	0xbd8523a8	-0.065009415
127	0x3e17775c	0.14791626
128	0x3e063574	0.13106328
129	0x39a9b676	0.00032370136
130	0xbe5a0929	-0.21292557
131	0xbd5fd820	-0.054649472
132	0x3cf02f61	0.029319467
133	0x3d8f105f	0.069855444
134	0x3d8beb49	0.068319865
135	0x3c2e76ff	0.010648488
136	0x3de2eab0	0.11079919
137	0x3e006827	0.12539731
138	0xbd77c42b	-0.060489815
139	0x3c9d754f	0.019220976
140	0x3e3f57f5	0.18685897
141	0x3d834836	0.064102575
142	0x3d90fca7	0.070794396
143	0xbe724b3c	-0.23661512
144	0x3d1b3335	0.03789063
145	0x3dec600e	0.115417585
146	0xbdce490e	-0.10072528
147	0xbdc93343	-0.098242305
148	0xbbd97798	-0.006636571
149	0x3d09d7cc	0.033653066
150	0xbe0d6150	-0.13806653
151	0x3d12e855	0.0358661
152	0xbd3d28ed	-0.046181608
153	0xbd6f7f4b	-0.058471005
154	0xbe2a4d13	-0.16630964
155	0x3f377657	0.7166495
156	0xbdd091c2	-0.10184051
157	0xbe8a9753	-0.27068576
158	0xbe1c0469	-0.15236057
159	0xbdbb7a5e	-0.09154199
160	0xbdced42b	-0.100990616
161	0xbdc5cf8b	-0.09658726
162	0xbe3bf269	-0.18354191
163	0xbe3ad2b4	-0.1824444
164	0xbdeb3ecf	-0.11486589
165	0xbe641164	-0.22272259
166	0xbe8190cd	-0.25305787
167	0xbe57c2db	-0.21070425
168	0xbdac9755	-0.08427302
169	0xbdb9557a	-0.090495065
170	0xbc76d0d0	-0.015064433
171	0xbdb18a2f	-0.086689346
172	0x3d8c4cca	0.06850584
173	0x3cd894eb	0.026438197
174	0xbe3fe6ad	-0.1874034
175	0xbdc46f72	-0.09591569
176	0xbda4b708	-0.08042723
177	0xbe0ae1b5	-0.13562663
178	0xbe8af74c	-0.27141798
179	0x3e8caf1c	0.27477348
180	0x3ca4f7c5	0.020137677
181	0xbd8c1356	-0.068396255
182	0xbe65ae97	-0.22429882
183	0xbe854875	-0.26031843
184	0xbe9a1d02	-0.30100256
185	0xbe47d5c0	-0.19515133
186	0x3cb2a5f9	0.021807658
187	0xbe2f03f5	-0.17091353
188	0xbe1ee88e	-0.155184
189	0xbe0ade7e	-0.13561437
190	0xbe264520	-0.16237307
191	0x3e6ac5ad	0.2292697
192	0xbc951e06	-0.018202793
193	0xbdec8e5e	-0.11550592
194	0x3d0817dd	0.033225883
195	0xbe936f15	-0.28795686
196	0x3d56f190	0.052476466
197	0x3e0f5e2c	0.14000767
198	0xbdb5e108	-0.08880812
199	0x3d5130ef	0.051072057
200	0x3d72e77b	0.05930279
201	0xbcf730dc	-0.030174665
202	0xbe334d5f	-0.17509983
203	0xbf15fa1d	-0.5858477
204	0x3daecbe8	0.08534986
205	0xbcd9d747	-0.02659191
206	0xbec17900	-0.37787628
207	0xbeaec081	-0.34131244
208	0xbe808dd6	-0.25108212
209	0xbe35bd52	-0.17748001
210	0xbe0f3984	-0.13986784
211	0xbe10c7e3	-0.1413875
212	0xbde473b4	-0.11154881
213	0xbdb0753b	-0.0861611
214	0xbe9951f2	-0.29945332
215	0xbe6e2f1b	-0.23260157
216	0xbc270e74	-0.010196317
217	0xbe5c4715	-0.2151149
218	0xbe64cf85	-0.22344787
219	0xbda4338b	-0.080176435
220	0x3d2d9742	0.04238058
221	0xbe1a891c	-0.15091366
222	0xbe2b65fb	-0.16738121
223	0xbd8c2afb	-0.068441354
224	0xbe2f5fe3	-0.17126422
225	0x3d2125c3	0.039342653
226	0xbda3532b	-0.079748474
227	0xbe4d2d0e	-0.20036718
228	0xbdad2bf6	-0.084556505
229	0xbda0df6c	-0.07855114
230	0x3c06651b	0.008202816
231	0xbdb69a23	-0.08916118
232	0xbdbc2a24	-0.09187725
233	0xbca29383	-0.01984573
234	0x3c2640da	0.010147298
235	0xbdd2c9ef	-0.10292422
236	0xbe0d7de0	-0.13817549
237	0xbe8400c2	-0.25781828
238	0x3db6b312	0.08920874
239	0xbc3b1922	-0.011419566
240	0xbd0d7fb9	-0.034545634
241	0xbe93b1f0	-0.28846693
242	0xbe945653	-0.2897211
243	0xbeb7b8ba	-0.35883123
244	0xbebcae5a	-0.3685177
245	0xbe38424f	-0.17994045
246	0xbdad0ba4	-0.08449486
247	0xbd23d1b1	-0.0399949
248	0xbbdaa136	-0.00667205
249	0xbd02100d	-0.03175359
250	0xbe88b24b	-0.26698527
251	0x3d2a1acb	0.041529458
252	0xbc8b35fb	-0.016993513
253	0x3e01474e	0.12624857
254	0x3c81ae43	0.015830165
255	0xbda04023	-0.07824733

lstm.lstm1.weight_hh_l0 f4 [256, 64]
0	0x3d513f40	0.05108571
1	0xbd90ba64	-0.07066801
2	0xbd978094	-0.07397571
3	0xbd253fb6	-0.040343963
4	0x3c2b25cf	0.010446026
5	0xbe54fba7	-0.20799123
6	0x3e3ff471	0.18745591
7	0x3dee8977	0.11647313
8	0x3d919ed0	0.07110369
9	0x3d9f1f37	0.07769626
10	0x3e6e76a0	0.2328744
11	0x3e22263c	0.15834898
12	0x3e2879d1	0.1645272
13	0x3e3228d0	0.17398381
14	0xbd9dca48	-0.07704598
15	0xbe688cd3	-0.2270997
16	0xbcc9660d	-0.024584794
17	0xbd0eb6ec	-0.034842417
18	0xbe33c263	-0.17554621
19	0xbdbd888d	-0.092545606
20	0xbd28c16d	-0.04120009
21	0x3e63425a	0.2219328
22	0x3d8ea1c3	0.06964447
23	0xbe068cf1	-0.13139702
24	0xbde5c055	-0.11218325
25	0x3db9a1c8	0.090640604
26	0xbdc76d84	-0.09737685
27	0xbd51bd5c	-0.051205978
28	0x3e4d348d	0.20039578
29	0xba9bfaae	-0.001190027
30	0x3d9ab86c	0.07554707
31	0xbd2d5a65	-0.042322535
32	0x3df4ba2c	0.11949572
33	0xbe48020e	-0.19532034
34	0xbe36bfc2	-0.17846587
35	0xbd814dc3	-0.0631366
36	0xbe4147e3	-0.18875079
37	0xbe32f622	-0.17476705
38	0xbdbb5032	-0.091461554
39	0x3e0a0951	0.13480116
40	0xbdbe3a5f	-0.09288477
41	0xbe44e2f9	-0.19227208
42	0x3c64e4bc	0.01397055
43	0xbe1177d0	-0.14205861
44	0xbdd6ba17	-0.104847126
45	0xbdd63c29	-0.104606934
46	0x3d2f88d5	0.042855103
47	0xbea41a31	-0.32051232
48	0x3dc95d24	0.09832218
49	0xbeb360e4	-0.3503486
50	0x3ddbd36f	0.10733687
51	0x3caee671	0.021350117
52	0x3d16e68b	0.036840957
53	0xbe6e9b00	-0.23301315
54	0x3d3da724	0.046301976
55	0xbde8aefe	-0.11361502
56	0x3d8c4e34	0.068508536
57	0xbdbea2c8	-0.09308392
58	0xbe41fcda	-0.18944111
59	0xbe632de6	-0.22185478
60	0x3c4a4146	0.012344664
61	0xbe6f6004	-0.23376471
62	0x3d9ba7bb	0.076003514
63	0x3e293ed6	0.16527876
64	0x3da3b7ee	0.07994066
65	0xbded8324	-0.11597279
66	0x3e1fd525	0.15608652
67	0x3d25db08	0.040492088
68	0xbe28fe03	-0.16503148
69	0x3ea06a2b	0.31331
70	0x3e7e4f60	0.24834967
71	0xbe87c7a6	-0.26519507
72	0x3f289a81	0.65860754
73	0xbb9d53c4	-0.0048012454
74	0x3e2c5d3a	0.16832438
75	0x3cb41940	0.021984696
76	0x3e683796	0.22677454
77	0x3d1c9fba	0.038238265
78	0xbe1b1ee7	-0.15148507
79	0xbdc30a01	-0.095233925
80	0xbd3c985d	-0.046043742
81	0x3e16c7b7	0.14724623
82	0x3e2e5957	0.17026268
83	0xbe3718be	-0.17880532
84	0x3d00d5c0	0.031453848
85	0xbdcefc53	-0.10106721
86	0x3d4ad104	0.04951574
87	0xbe537600	-0.20650482
88	0xbc679f2d	-0.014137072
89	0x3f860405	1.0469977
90	0x3e8b7e85	0.27244964
91	0x3ed062b4	0.40700305
92	0x3d347037	0.04405233
93	0xbe008adc	-0.1255297
94	0x3cdf04a4	0.027223893
95	0x3ec62c00	0.38705444
96	0x3e23e16a	0.16003957
97	0xbf2edc0a	-0.683045
98	0xbe9cb447	-0.3060629
99	0xbb04efbc	-0.0020284494
100	0x3eac9434	0.3370682
101	0x3e90f0be	0.28308672
102	0x3f0add94	0.5424435
103	0x3dfaa7b4	0.12239018
104	0x3e43622f	0.19080423
105	0xbe3184e9	-0.17335857
106	0xbe610633	-0.21975021
107	0x3eaab60b	0.33342013
108	0x3e933a10	0.28755236
109	0x3f278525	0.6543754
110	0xbe68abc8	-0.2272178
111	0x3e4d0f71	0.20025422
112	0xbdd2601b	-0.10272237
113	0x3e154ad5	0.14579327
114	0x3de332e2	0.110936895
115	0xbecae8f9	-0.3963087
116	0xbe22cdea	-0.15898862
117	0x3ebe8a6b	0.3721498
118	0x3e56d638	0.20980155
119	0x3eb8d08a	0.36096603
120	0xbe0f9b1b	-0.14024012
121	0x3d3c2391	0.045932356
122	0x3edef878	0.43548942
123	0x3edbe4ef	0.429481
124	0xbe9edaa0	-0.31026173
125	0x3f1212f4	0.5706017
126	0xbd3271fa	-0.043565728
127	0xbdf8549b	-0.12125512
128	0x3e447ee4	0.1918903
129	0x3cd9062f	0.026492206
130	0x3de98cc7	0.11403804
131	0x3d0da3f6	0.034580193
132	0x3c597fc6	0.0132750925
133	0x3bddd60d	0.0067699016
134	0x3e1c956e	0.15291378
135	0xbe14a009	-0.14514174
136	0x3d91916a	0.07107814
137	0x3e15a4a8	0.14613593
138	0x3e0f628a	0.14002433
139	0x3d6c2725	0.05765452
140	0xbd29a2a3	-0.041414868
141	0xbd7cbb27	-0.06170192
142	0xbc9d70c9	-0.01921882
143	0x3d86741e	0.06565116
144	0x3d4fd199	0.050736997
145	0xbd3923af	-0.045200046
146	0x3de9ce57	0.11416309
147	0x3e4c9980	0.1998043
148	0x3d83d043	0.06436207
149	0xbd88b398	-0.0667488
150	0xbda72e4d	-0.08163128
151	0x3ddbf25a	0.10739584
152	0xbb3947ae	-0.0028271484
153	0x3e2be445	0.16786297
154	0x3e8e5070	0.27795744
155	0xbd2d67a9	-0.042335186
156	0x3d1db030	0.038498104
157	0xbdaa96e4	-0.08329561
158	0xbd0fe5da	-0.035131313
159	0x3e2fe9f2	0.17179087
160	0x3e9091cb	0.2823623
161	0x3d82c5c0	0.06385374
162	0x3dc2cafa	0.09511371
163	0xbca4d64c	-0.020121716
164	0xbd6b6eac	-0.05747859
165	0xbd87c041	-0.066284664
166	0x3e0dcc5a	0.13847485
167	0x3c2e1a2f	0.01062636
168	0xbb94e6c8	-0.004544113
169	0xbd18666e	-0.03720706
170	0x3dacf82d	0.08445773
171	0x3e99a814	0.30011046
172	0x3d275387	0.040851142
173	0x3dbf597e	0.09343241
174	0x3d8e441d	0.06946585
175	0xbe01f39e	-0.12690589
176	0x3d688586	0.056767963
177	0xbc526f22	-0.012843879
178	0x3d6e985f	0.05825078
179	0x3e79bf86	0.24389467
180	0xbc12b530	-0.008954331
181	0x3d577463	0.05260123
182	0xbc4f93ec	-0.012669545
183	0x3d05c3ec	0.03265755
184	0x3be30688	0.006928269
185	0xbd321715	-0.043479044
186	0xbe0eefa4	-0.13958603
187	0x3e1446c7	0.14480124
188	0xbe09f72f	-0.134732
189	0x3e18b330	0.14912105
190	0x3d623931	0.055230323
191	0xbd9ef331	-0.07761229
192	0x3ce149ec	0.027501069
193	0xbdede02b	-0.11615022
194	0xbd96ac98	-0.073571384
195	0x3d48d72b	0.049033325
196	0x3d57be66	0.052671812
197	0xbd7db19e	-0.061936967
198	0x3e487dbe	0.19579217
199	0x3da9fcb2	0.08300151
200	0x3d8079b7	0.06273215
201	0x3e14bd88	0.14525425
202	0x3e75539d	0.23957677
203	0x3e04ddf9	0.12975301
204	0xbcd3688b	-0.025806686
205	0x3e9a6fd1	0.30163434
206	0x3df1cf98	0.118071735
207	0xbd8c6ba4	-0.06856468
208	0x3e3da8d3	0.18521433
209	0x3d72f89c	0.059319124
210	0xbdf7532f	-0.12076413
211	0xbcc03d6d	-0.02346679
212	0xbdf3ed1f	-0.11910462
213	0xbd4d8a7a	-0.05018089
214	0x3e27c4db	0.16383688
215	0x3d83f60d	0.06443415
216	0xbd86ee4c	-0.0658842
217	0xbd1d66c8	-0.038428098
218	0xbd9d84d7	-0.07691353
219	0x3e05b68e	0.1305792
220	0xbd98ebef	-0.07466876
221	0x3dca60f2	0.09881772
222	0x3e2ddfaf	0.1697986
223	0x3e3f30a1	0.18670894
224	0x3e115ca9	0.14195503
225	0x3d1b6542	0.037938364
226	0x3dbd4a80	0.09242725
227	0xbd855bee	-0.06511675
228	0xbdac4a93	-0.084126614
229	0xbd040ee3	-0.03224076
230	0xbdd5fc5d	-0.10448525
231	0xbd177434	-0.036976054
232	0x3ca425d5	0.020037571
233	0xbc9b48bb	-0.018955579
234	0x3e608a4d	0.21927758
235	0xbc331173	-0.010929453
236	0xbd6365cd	-0.055517007
237	0xbc32324f	-0.010876252
238	0x3dd91933	0.106005095
239	0xbd929f52	-0.07159294
240	0xbbe70b6a	-0.007050921
241	0xbd9bf2cc	-0.07614669
242	0xbda68c6f	-0.08132254
243	0x3e01af31	0.12664486
244	0x3e45428f	0.19263671
245	0xbcbfb42e	-0.023401346
246	0x3e1723d2	0.14759758
247	0x3d7f6769	0.06235448
248	0x3d21f7ac	0.03954284
249	0x3e8aefb6	0.2713601
250	0xbdfae460	-0.1225059
251	0x3d805f27	0.06268149
252	0x3de57e32	0.112057105
253	0xbdcebfbf	-0.100951664
254	0x3e3882a3	0.18018584
255	0x3d581750	0.052756608

lstm.lstm1.bias_ih_l0 f4 [256]
0	0xbcc4af08	-0.024009243
1	0x3f12ec90	0.57392216
2	0xbcf4b7b0	-0.029872745
3	0xbe67c54b	-0.22633855
4	0xbbbacd61	-0.0057007526
5	0xbcdb739a	-0.026788522
6	0xbca459e4	-0.020062394
7	0xbe4d525e	-0.20050952
8	0xbdce9f2b	-0.10088953
9	0xbe2cbd82	-0.16869166
10	0x3dd2b45f	0.10288309
11	0x3dff97ff	0.12480163
12	0xbc122ef3	-0.008922326
13	0xbe4a306f	-0.19745038
14	0xbc81a5ef	-0.015826194
15	0xbd18c7e1	-0.037299994
16	0x3e29cef3	0.16582851
17	0xbd164d66	-0.036694907
18	0xbd6a3de7	-0.05718794
19	0xbe4da617	-0.2008289
20	0xbd21c490	-0.039494097
21	0x3cfa2f1e	0.030540045
22	0xbd9f6f25	-0.07784871
23	0x3d5bc1e7	0.053651717
24	0x3db055f3	0.086101435
25	0xbdd4f450	-0.103981614
26	0xbe1658b9	-0.14682283
27	0x3a26486c	0.0006343189
28	0xbcf236ac	-0.029567085
29	0xbe11c1ae	-0.14234039
30	0xbe10836a	-0.1411263
31	0xbd7f7237	-0.062364783
32	0xbd29c773	-0.041449975
33	0xbdd52995	-0.10408322
34	0xbe481dc2	-0.19542602
35	0xbd898de9	-0.0671652
36	0xbe3a8ab8	-0.1821698
37	0xbca4e31d	-0.020127827
38	0x3d6417e8	0.05568686
39	0xbd9a3af1	-0.075307734
40	0xbd0662a2	-0.032808907
41	0xbe0971aa	-0.13422266
42	0xbc413276	-0.011791816
43	0xbe2fb4c6	-0.17158803
44	0x3d59d81a	0.053184606
45	0xbe1c7adc	-0.15281242
46	0xbe095aae	-0.13413498
47	0xbe205129	-0.1565596
48	0xbd87a00e	-0.06622325
49	0x3d4199f5	0.047265965
50	0xbd2da521	-0.042393807
51	0xbe28d80d	-0.16488667
52	0xbd27b645	-0.04094531
53	0xbdf3978d	-0.118941404
54	0xbdab31d5	-0.08359114
55	0xbdc083d5	-0.09400145
56	0xbcb907fe	-0.022586819
57	0x3e3799d6	0.17929778
58	0xbcca4d62	-0.024695102
59	0xbd9c093f	-0.07618951
60	0xbe5133f4	-0.20429975
61	0xbceba217	-0.028763814
62	0x3e1a5f6e	0.15075466
63	0x3e713f64	0.23559338
64	0xbe3daa29	-0.18521942
65	0x3e8e7901	0.27826694
66	0xbdb06ebd	-0.08614872
67	0xbe5a5ce7	-0.21324502
68	0xbbb0abce	-0.0053915745
69	0xbd80d221	-0.06290079
70	0x3db1dd5e	0.086848006
71	0x3d65c1ee	0.05609315
72	0xbdb1200e	-0.08648692
73	0x3e553b3d	0.20823379
74	0x3de06588	0.109568655
75	0xbdf79c0a	-0.12090309
76	0xbdb3ca58	-0.087788284
77	0xbe3bb51c	-0.18330806
78	0xbe293232	-0.16523054
79	0x3be83ff8	0.007087704
80	0x3dd9234c	0.106024355
81	0xbda9a31a	-0.08283062
82	0xbe0dc0cb	-0.13843076
83	0x3de64b4f	0.11244833
84	0x3e007e45	0.12548168
85	0xbcefd78e	-0.02927759
86	0xbb170eca	-0.0023049586
87	0x3bc877d8	0.006117802
88	0x3c508d18	0.012728952
89	0xbd972792	-0.07380594
90	0x3d5d73ec	0.05406563
91	0xbde67615	-0.11252991
92	0xbb055c95	-0.0020349373
93	0xbd5e6bbb	-0.05430196
94	0x3df3ba74	0.119007975
95	0xbdd79b0f	-0.10527622
96	0x3e1c803b	0.15283291
97	0xbd264bb8	-0.040599555
98	0xbbe33dae	-0.006934843
99	0xbe0c4cd2	-0.1370118
100	0x3c58cd2d	0.0132325115
101	0xbd3dbece	-0.046324544
102	0x3c99cdc2	0.01877487
103	0xbd3bfa1d	-0.045892823
104	0x3dfd957c	0.123820275
105	0xbe0ae185	-0.13562591
106	0xbe103a8d	-0.14084835
107	0x3d80116c	0.06253323
108	0x3dd447b2	0.10365237
109	0x3d006587	0.031346824
110	0xbe1f068a	-0.15529838
111	0xbe1a49e7	-0.15067254
112	0xbe03ad02	-0.12858966
113	0xbd8b09ab	-0.067889534
114	0xbc37f2c0	-0.01122731
115	0xbc48818c	-0.012237918
116	0x3e0d3cf7	0.13792787
117	0x3e0f1737	0.139737
118	0xbd213ce8	-0.039364725
119	0xbe5e6e92	-0.21721867
120	0x3de0761e	0.10960029
121	0x3e414a2d	0.18875952
122	0x3e0f1ff8	0.13977039
123	0xbd2aeae7	-0.041727927
124	0xbe11dbcd	-0.14244004
125	0xbe756f6e	-0.23968288
126	0x3e07929c	0.13239521
127	0x3ee46948	0.44611573
128	0x3d85df27	0.065367036
129	0x3d76a767	0.06021824
130	0x3d3773c6	0.044788145
131	0xbdabbd23	-0.08385684
132	0x3cc94a0d	0.024571443
133	0x3e12ca5b	0.14335005
134	0xbc15d779	-0.009145611
135	0x3d86b310	0.06577122
136	0xbd090f95	-0.033462126
137	0x3b6dca90	0.0036284067
138	0xbdb6dd00	-0.08928871
139	0xbd541051	-0.051773373
140	0xbb5cdeaf	-0.0033702066
141	0xbdbd8cdf	-0.09255385
142	0xbdffabc8	-0.124839365
143	0xbde9ff67	-0.11425667
144	0xbe8f1067	-0.27942201
145	0x3ddb84e0	0.10718703
146	0x3d958fbf	0.07302808
147	0xbcbbda2a	-0.022931177
148	0x3d08d8eb	0.033409994
149	0xbd8bb40d	-0.06821451
150	0xbd6d087e	-0.057869427
151	0x3a15ac1c	0.0005709545
152	0xbe1cf2af	-0.15326951
153	0x3d34d56e	0.044148855
154	0x3d359171	0.044328157
155	0x3d2f9dbb	0.042875033
156	0xbc8d336b	-0.017236432
157	0xbe6ae8b4	-0.22940332
158	0xbdc2a87a	-0.095047906
159	0xbe02fe03	-0.1279221
160	0xbdbff4c1	-0.09372855
161	0x3df75097	0.12075918
162	0x3d80a025	0.06280545
163	0xbd5f44e6	-0.054509066
164	0x3e1a552b	0.15071552
165	0x3dd49abc	0.10381076
166	0x3e3068e4	0.17227513
167	0xbd075eca	-0.033049382
168	0xbd918fd9	-0.07107515
169	0xbdc91dcb	-0.09820136
170	0xbe1a34c1	-0.15059187
171	0x3e23aedd	0.15984674
172	0x3d6e3761	0.058158282
173	0xbdc05ba2	-0.093924776
174	0xbe00b562	-0.12569192
175	0x3d9f1931	0.07768477
176	0x3d854dab	0.065089546
177	0xbe190cca	-0.14946285
178	0x3d812ba4	0.06307152
179	0x3c09c8e8	0.008409716
180	0xbe459d09	-0.19298185
181	0x3e1d3cc8	0.15355217
182	0xbd6e8628	-0.05823341
183	0x3db3354b	0.08750399
184	0xbe349898	-0.17636335
185	0xbd72ed9f	-0.059308644
186	0x3db5aacc	0.088704675
187	0x3cb83197	0.022484584
188	0xbda890ad	-0.0823072
189	0xbd29c313	-0.041445803
190	0xbe61496e	-0.22000667
191	0xbe9cce5f	-0.306262
192	0xbd4563ae	-0.048190765
193	0x3e36bdad	0.17845793
194	0xbde8a189	-0.113589354
195	0xbe5d1be8	-0.21592677
196	0xbdb7286a	-0.08943255
197	0xbdb1d200	-0.086826324
198	0xbdd8a5ff	-0.10578536
199	0xbe23e541	-0.16005422
200	0xbce7d690	-0.028300554
201	0xbe817de9	-0.25291374
202	0x3dd03783	0.10166838
203	0xbe172a18	-0.14762151
204	0xbd907bcb	-0.07054862
205	0xbe6b9c8c	-0.23008937
206	0x3d932a48	0.07185799
207	0x3d19012f	0.037354644
208	0xbd71d078	-0.059036702
209	0xbd8ee997	-0.069781475
210	0xbe1d1ee0	-0.15343809
211	0xbd9108a7	-0.070817284
212	0x3d8748f3	0.06605711
213	0x3d8ad87b	0.067795716
214	0x3d1a6348	0.03769234
215	0xbd99aca1	-0.075036295
216	0x3dbfdd13	0.093683384
217	0xbe335195	-0.1751159
218	0x3d9cbe57	0.07653492
219	0xbd0c96c9	-0.034323487
220	0xbd909fe4	-0.07061747
221	0xbb40cee4	-0.0029420191
222	0xbdd02f2f	-0.101652496
223	0xbe04ecfa	-0.12981024
224	0xbc88550d	-0.016642118
225	0xbdb2300a	-0.08700569
226	0xbd08c40f	-0.0333901
227	0xbd36a1b4	-0.044587806
228	0xbe551d5c	-0.20811981
229	0xbd64f65f	-0.05589902
230	0xbe2e7263	-0.17035823
231	0xbe42f993	-0.19040518
232	0xbbce787d	-0.0063009844
233	0xbc73d979	-0.0148833925
234	0xbe045cce	-0.12926027
235	0xbe25bed9	-0.16186084
236	0x3ca3f533	0.020014381
237	0xbe4c8062	-0.19970849
238	0xbd2c00ff	-0.041993137
239	0xbdf65101	-0.12027169
240	0xbe8c221d	-0.27369776
241	0x3d4b9a91	0.049707953
242	0xbc4b472f	-0.012407108
243	0xbe5ad27c	-0.21369356
244	0x3d9094b1	0.07059611
245	0x3d895215	0.06705109
246	0xbe20c02a	-0.15698305
247	0xbe85e4a7	-0.2615101
248	0xbd148a10	-0.03626448
249	0xbd2615a1	-0.04054797
250	0x3d9d2ae3	0.076741956
251	0xbe074d18	-0.13213003
252	0xbe0e0989	-0.13870825
253	0xbe268a22	-0.16263631
254	0x3e0fd347	0.1404544
255	0xbc63c7fb	-0.0139026595

lstm.lstm1.bias_hh_l0 f4 [256]
0	0xbdc080f9	-0.093995996
1	0x3ece785e	0.40326208
2	0xbe02e404	-0.12782294
3	0xbd4da0d4	-0.050202206
4	0xbb7d1fb9	-0.0038623645
5	0xbe4fd276	-0.20295128
6	0x3b462b61	0.0030238258
7	0xbe197e64	-0.1498962
8	0x3ce35fa9	0.027755575
9	0xbd8fc2e1	-0.07019592
10	0x3d12424e	0.035707764
11	0x3dd3efee	0.10348497
12	0xbe13965f	-0.14412831
13	0xbe8269fe	-0.2547149
14	0xbdb94809	-0.09046943
15	0xbd6cc8f1	-0.05780882
16	0x3bdf9cc7	0.0068241092
17	0xbe4bf20b	-0.19916551
18	0x3b18db04	0.0023323903
19	0xbe30f813	-0.17282133
20	0xbc8428d9	-0.016132759
21	0xbdf5712e	-0.11984478
22	0xbe2bda9d	-0.16782613
23	0xbd7706ee	-0.060309343
24	0x3c7f9623	0.01559976
25	0xbdd409f3	-0.1035346
26	0xbd89c26a	-0.06726535
27	0xbd1e2de7	-0.038617995
28	0x3d4901af	0.04907387
29	0xbe1ed5f7	-0.15511309
30	0xbdfd3570	-0.12363708
31	0x3d2a0f75	0.041518647
32	0xbd842565	-0.06452445
33	0xbc76fa1a	-0.015074277
34	0xbe33d7ab	-0.1756274
35	0xbe968649	-0.29399326
36	0xbd594c1c	-0.0530511
37	0xbcfd28d5	-0.03090326
38	0x3d83ceb0	0.06435907
39	0xbe6eeca0	-0.23332453
40	0x3d742d0a	0.059613265
41	0xbe5ab643	-0.2135859
42	0xbd98863e	-0.0744748
43	0xbe2d25c5	-0.16908939
44	0x3d918081	0.07104588
45	0xbd34bfb3	-0.04412813
46	0xbe4f278d	-0.20229931
47	0xbd7288b6	-0.05921241
48	0xbe200554	-0.15627033
49	0x3d1b5c71	0.037929956
50	0xbdff682c	-0.12471041
51	0xbd1829b7	-0.037149157
52	0x3df3da93	0.11906924
53	0xbdbeafcf	-0.093108766
54	0xbd9c9bfb	-0.076469384
55	0xbe321b87	-0.17393313
56	0xbe357bf3	-0.17723064
57	0xbd4ba76e	-0.04972022
58	0x3db692fd	0.089147545
59	0x3b475127	0.003041336
60	0xbd836d28	-0.06417304
61	0xbd918a05	-0.07106403
62	0x3e3d88dc	0.18509239
63	0x3de1605e	0.11004709
64	0x3c32e950	0.010919884
65	0x3e8528fb	0.26007828
66	0xbcfb01df	-0.03064054
67	0xbe012225	-0.12610681
68	0xbd98ec07	-0.07466894
69	0x3d3e350d	0.046437312
70	0x3da4907d	0.080353715
71	0xbd59d16e	-0.053178243
72	0x3d832854	0.06404176
73	0x3c754478	0.0149699375
74	0x3dd43cba	0.10363145
75	0x3d0bf349	0.03416756
76	0x3c8a43e0	0.016878068
77	0xbe1ea71e	-0.15493438
78	0xbd0a3624	-0.03374304
79	0x3db90a1d	0.09035132
80	0x3da925f9	0.08259196
81	0x3db695a4	0.089152604
82	0xbd92af76	-0.07162373
83	0x3d0eaeab	0.034834545
84	0xbd7786c4	-0.060431257
85	0xbe1d5405	-0.15364082
86	0xbe20a8f8	-0.15689456
87	0x3d61dff1	0.055145208
88	0x3df90ab9	0.12160248
89	0xbc2c2e10	-0.010509029
90	0xbd2e7796	-0.042594515
91	0xbe31990b	-0.17343538
92	0xbd64122f	-0.055681404
93	0xbc04ad51	-0.0080979625
94	0x3e9a6c7e	0.30160898
95	0xbc5bf867	-0.013425923
96	0x3e19d5e6	0.15023002
97	0xbc0691e0	-0.00821349
98	0xbced4868	-0.02896519
99	0xbcab4dba	-0.020911086
100	0x3c43d161	0.011951775
101	0xbe19c5bc	-0.15016836
102	0xbcf2e457	-0.029649897
103	0x3d388822	0.0450517
104	0xbb65009c	-0.003494299
105	0xbd3d7ce2	-0.046261676
106	0xbc2fb042	-0.0107231755
107	0xbc9aab98	-0.01888065
108	0x3e80d6a6	0.25163764
109	0xbdec7a4a	-0.11546762
110	0xbdf09890	-0.11747849
111	0xbe268f5a	-0.16265622
112	0xbd24f666	-0.040274046
113	0x3cbe3759	0.023219751
114	0xbcb3a2ab	-0.021928152
115	0xbc76c86d	-0.015062434
116	0x3e00b3dc	0.12568611
117	0x3db40096	0.08789174
118	0xbe3db046	-0.18524274
119	0xbe79847b	-0.24366944
120	0x3d152caa	0.036419548
121	0x3e75d26d	0.24006052
122	0x3d937509	0.07200057
123	0x3cda87b1	0.02667603
124	0xbe48790c	-0.19577426
125	0xbc9b69bd	-0.018971318
126	0x3e3ec4f2	0.18629816
127	0x3eadbd5c	0.33933532
128	0xbd8d9a95	-0.0691425
129	0x3e34aead	0.17644759
130	0xbd0df76b	-0.034659784
131	0x3e084620	0.13308
132	0xbe0b41d7	-0.13599335
133	0x3dd22651	0.102612145
134	0x3cfa6e68	0.030570224
135	0x3cd43a30	0.025906652
136	0xbc10bdd1	-0.008834318
137	0xbdcedc40	-0.10100603
138	0x3d2ba5e1	0.04190624
139	0xbda70f7c	-0.0815725
140	0x3d122a19	0.03568468
141	0xbd1c810b	-0.038209002
142	0x3d989d59	0.07451887
143	0xbdb7c551	-0.08973182
144	0xbe96f53e	-0.2948398
145	0x3e0b0117	0.13574634
146	0xbbd32173	-0.0064431964
147	0xbd6135b2	-0.05498285
148	0xbdf3a7df	-0.11897253
149	0xbdd5dec5	-0.104428805
150	0xbc3dc2a3	-0.01158205
151	0x3d094a39	0.03351805
152	0xbe422c1c	-0.18962139
153	0xbd186e1d	-0.037214387
154	0x3d1c9b0d	0.038233805
155	0xbc007da8	-0.007842459
156	0x3c2de830	0.01061444
157	0xbe860d00	-0.26181793
158	0xbd3f0a9e	-0.046640985
159	0x3ce40c86	0.027838003
160	0xbd73815a	-0.05944953
161	0x3d1756e3	0.036948096
162	0xbd481028	-0.048843533
163	0xbd2d403b	-0.042297583
164	0x3e39da83	0.18149762
165	0x3b3df270	0.0028983615
166	0x3e448433	0.19191055
167	0x3b349c0a	0.0027558827
168	0xbda98f9c	-0.082793444
169	0xbdc6ddfc	-0.09710309
170	0xbe1fcf8b	-0.15606515
171	0x3d305331	0.043048088
172	0xbd80793b	-0.06273123
173	0x3dec6140	0.115419865
174	0xbe0aae87	-0.1354314
175	0x3d1d3b7d	0.03838681
176	0xbd11d94d	-0.035607625
177	0xbe0a6e21	-0.13518573
178	0x3bd9375c	0.006628914
179	0xbcc0d34a	-0.02353825
180	0xbdf956a5	-0.12174729
181	0x3e0fbe57	0.14037453
182	0xbdd1d1d2	-0.10245098
183	0x3cd54b69	0.026036935
184	0xbd80617c	-0.06268594
185	0xbdf6bba2	-0.12047507
186	0x3e4687c7	0.19387732
187	0xbd03e9ac	-0.03220527
188	0x3c496f06	0.012294536
189	0x3dff9b7f	0.124808304
190	0xbe85e374	-0.26150095
191	0xbe97d05d	-0.29651156
192	0xbd29ec0a	-0.04148487
193	0x3e71079e	0.23538062
194	0xbd8016c8	-0.06254345
195	0xbd526122	-0.051362164
196	0xbe3d8906	-0.18509302
197	0xbe31de27	-0.173699
198	0x3da1b5b1	0.07895983
199	0xbe215539	-0.15755166
200	0x3c9961a2	0.018723313
201	0xbd9d5134	-0.07681504
202	0x3dd7235c	0.10504791
203	0xbd36843d	-0.044559706
204	0xbded57ab	-0.11588987
205	0xbe4cf6be	-0.20016
206	0xbc6f9d8a	-0.014624963
207	0x3d3872c6	0.04503133
208	0x3e2e36ec	0.17013139
209	0xbc942830	-0.01808557
210	0xbc92b161	-0.017906846
211	0xbe26b4d2	-0.16279915
212	0xbdff4bb8	-0.12465614
213	0xbbadf998	-0.005309295
214	0xbd1f3ab4	-0.038874343
215	0x3d9322e4	0.07184389
216	0x3d6a066a	0.057135023
217	0x3c700233	0.014648962
218	0xbcbd4ef7	-0.023108942
219	0xbe2cdca4	-0.16881043
220	0xbe15d35c	-0.14631408
221	0xbd92f586	-0.07175736
222	0x3dcb9f86	0.09942536
223	0xbe2e5f9b	-0.17028658
224	0x3d9f874b	0.07789477
225	0x3c99883b	0.018741718
226	0xbdbe3e31	-0.09289206
227	0xbe7d1eff	-0.24718855
228	0xbd8b1a5f	-0.06792139
229	0xbddd0488	-0.1079188
230	0xbe0d7ae5	-0.13816412
231	0xbe0d6aed	-0.1381032
232	0x3da2a81a	0.07942219
233	0xbc1c42a3	-0.009537372
234	0x3d1999c0	0.037500143
235	0xba00c04f	-0.0004911469
236	0xbd982588	-0.074290335
237	0xbe046007	-0.12927257
238	0xbe43e410	-0.19129968
239	0xbdc4c01f	-0.09606957
240	0xbe78c9e9	-0.24295773
241	0xbdd6061b	-0.10450383
242	0xbb12a948	-0.0022378732
243	0xbd1f155e	-0.038838737
244	0x3db131f8	0.08652109
245	0xbd842ffc	-0.06454465
246	0xbd2d8cf9	-0.04237077
247	0xbe6308af	-0.22171281
248	0x3d31ad62	0.04337824
249	0x3d05c87c	0.0326619
250	0x3d526193	0.051362585
251	0xbe2f7ce6	-0.17137489
252	0xbd83953b	-0.06424948
253	0x3c4113ef	0.011784538
254	0xbd49cf04	-0.04926969
255	0x3e162cc4	0.14665514

lstm.bn1.weight f4 [7]
0	0x3f7e062b	0.9922816
1	0x3fa53281	1.2906038
2	0x3f8ad704	1.0846868
3	0x3f7c3c4a	0.98529494
4	0x3f7e354c	0.99300075
5	0x3f7565a1	0.958582
6	0x3f81f091	1.015154

lstm.bn1.bias f4 [7]
0	0xbd0251c2	-0.03181625
1	0xbb9da768	-0.004811216
2	0x3dcf6fef	0.101287715
3	0x3dbbe21a	0.09173985
4	0x3cb81b2c	0.022473894
5	0xbc7f1458	-0.015568815
6	0x3b53dd60	0.0032327995

lstm.bn1.running_mean f4 [7]
0	0xbc722f3e	-0.014781771
1	0xbcf2657f	-0.029589413
2	0xbd4cd584	-0.050008312
3	0xbd99c9b5	-0.07509176
4	0xbdc81528	-0.0976966
5	0xbdeae648	-0.11469704
6	0xbe017a12	-0.12644222

lstm.bn1.running_var f4 [7]
0	0x3b9881f3	0.004654163
1	0x3c8f7095	0.017509738
2	0x3d19dbe5	0.037563223
3	0x3d735a19	0.059412096
4	0x3d9ea3fa	0.0774612
5	0x3dba6a33	0.09102287
6	0x3dce4161	0.10071064

lstm.lstm2.weight_ih_l0 f4 [256, 64]
0	0xbdc1bc8c	-0.094597906
1	0xbe030f13	-0.12798719
2	0xbe2d8ab9	-0.1694745
3	0xbcccbe7f	-0.02499318
4	0x3de682dc	0.11255428
5	0x3de5c631	0.11219443
6	0x3deda649	0.11603982
7	0x3ed7fc1f	0.4218454
8	0x3d317828	0.04332748
9	0x3ae23e10	0.0017260928
10	0xbca1c07c	-0.019745104
11	0x3dd6e5ec	0.10493073
12	0x3dd2e628	0.10297805
13	0xbd2f0362	-0.042727835
14	0xbe1f9e33	-0.15587692
15	0xbc113ea7	-0.008865035
16	0xbbdcb93d	-0.0067359493
17	0xbd94237d	-0.07233331
18	0xbd55726f	-0.052111086
19	0x3d04f4b7	0.03245994
20	0x3d5c083d	0.053718794
21	0x3e1bdb70	0.15220428
22	0xbd400169	-0.046876345
23	0x3e5d6e20	0.2162404
24	0x3da1f024	0.07907131
25	0x3da12f29	0.07870323
26	0x3dd2cbf9	0.10292811
27	0xbc7300f9	-0.014831775
28	0x3e9367d1	0.28790143
29	0xb9e1c0be	-0.00043058948
30	0xbe3159a4	-0.17319351
31	0xbea27833	-0.3173233
32	0x3dd7b13b	0.10531851
33	0x3de59e06	0.11211781
34	0x3d636d5b	0.05552421
35	0xbdd84065	-0.10559157
36	0xbd9e7dbf	-0.07738828
37	0xbe60b3af	-0.21943544
38	0x3e11258d	0.1417448
39	0x3e257917	0.16159473
40	0xbef3848f	-0.47562072
41	0x3c379ec4	0.011207286
42	0xbddffc9e	-0.10936855
43	0x3dc111f6	0.09427254
44	0x3e3669ef	0.17813848
45	0x3e500774	0.20315343
46	0xbcb30491	-0.021852763
47	0xbec67781	-0.3876305
48	0xbcb11544	-0.021616586
49	0xbdf97467	-0.12180405
50	0x3d9e0a7f	0.07716846
51	0x3d75fa0d	0.06005292
52	0x3d65704f	0.05601531
53	0x3da3e8e0	0.08003402
54	0x3c049ecf	0.008094504
55	0x3d413650	0.047170937
56	0x3dff10c7	0.12454372
57	0xbd80e8cf	-0.06294405
58	0xbdb994e3	-0.09061601
59	0xbd6bb10e	-0.0575419
60	0x3dc87c28	0.09789306
61	0xbe3edea5	-0.1863962
62	0x3d60d17a	0.054887272
63	0x3d06c90a	0.03290657
64	0x3df768df	0.120805494
65	0x3caed9ab	0.021344027
66	0x3db7411d	0.08947966
67	0xbdd492a5	-0.10379533
68	0x3b9a4270	0.004707627
69	0xbc5a5b01	-0.013327361
70	0xbc373e0c	-0.011184227
71	0x3d16f5a4	0.036855355
72	0xbdb2b612	-0.087261334
73	0x3e9d7f0f	0.30761
74	0xbdb42d4e	-0.08797704
75	0xbcd0f3fa	-0.025506962
76	0xbdff4343	-0.12464001
77	0xbe1f61f7	-0.15564714
78	0xbd93664d	-0.07197247
79	0xbd55ba82	-0.05217982
80	0xbb98555a	-0.0046488466
81	0x3e1c3f4f	0.15258525
82	0x3c26cda2	0.010180863
83	0xbe24d8d0	-0.16098332
84	0x3dddaeff	0.108243935
85	0xbe2ab2d9	-0.16669787
86	0xbc24792d	-0.010038656
87	0x3e3a2d62	0.18181375
88	0xbe695990	-0.22788072
89	0x3dbc38f0	0.091905475
90	0xbd4b3523	-0.049611222
91	0xbb13759b	-0.0022500518
92	0x3df95a74	0.12175456
93	0xbdce5005	-0.10073856
94	0xbdfc34e4	-0.123147756
95	0xbe813180	-0.25233078
96	0xbdb61319	-0.08890361
97	0xbddfcaa7	-0.10927325
98	0xbd7ab3c3	-0.06120659
99	0xbdcd897c	-0.10035989
100	0x3e099f08	0.13439572
101	0xbe3b5e43	-0.18297677
102	0x3debc2fb	0.11511799
103	0xbbc1acac	-0.0059104767
104	0xbdcde427	-0.10053282
105	0x3d1a5ca4	0.037686005
106	0x3c9e3255	0.01931111
107	0x3e49b285	0.19697006
108	0x3d388db5	0.045057017
109	0x3dcac3cf	0.09900629
110	0x3db7ca7a	0.08974166
111	0xbc923a1c	-0.017849974
112	0x3c32bca0	0.0109092295
113	0xbe73a391	-0.23792864
114	0xbedbcd8f	-0.42930266
115	0xbce66d00	-0.028128147
116	0xbdd4526e	-0.10367285
117	0x3e0f20c1	0.13977338
118	0xbe1942f8	-0.14966953
119	0x3e8d4a11	0.2759557
120	0x3da22918	0.07917994
121	0xbe74314d	-0.23846932
122	0x3eaafdde	0.3339681
123	0xbdfe3d28	-0.124140084
124	0x3c24b3b3	0.010052609
125	0xbe8bdb4b	-0.27315745
126	0x3df83450	0.12119353
127	0xbd7c79ee	-0.06163972
128	0x3c54bf3a	0.012985045
129	0xbdf36601	-0.1188469
130	0x3b9cee4f	0.004789151
131	0xbcc7c068	-0.024383739
132	0xbdb97ca9	-0.0905698
133	0xbd53e186	-0.051728748
134	0x3c3487d7	0.011018715
135	0xbdb5785f	-0.088608496
136	0x3e1ddd93	0.15416555
137	0xbe1fa08e	-0.1558859
138	0x3d0f170a	0.03493408
139	0xbe50e533	-0.20399933
140	0xbd82869e	-0.063733324
141	0xbd544d4d	-0.051831532
142	0x3bbd7b99	0.0057825563
143	0x3c3a180c	0.011358272
144	0x3e66d0c1	0.22540571
145	0xbd95f841	-0.07322741
146	0xbe346ca0	-0.17619562
147	0xbd435756	-0.047690712
148	0xbdeab070	-0.11459434
149	0xbe1973f3	-0.14985637
150	0xbba87961	-0.0051414226
151	0xbdb0a38b	-0.08624943
152	0x3d975ba5	0.07390527
153	0xbe18cb49	-0.14921297
154	0xbc2a3be5	-0.0103902565
155	0xbe17f0c5	-0.1483794
156	0xbe96c58d	-0.29447594
157	0x3c171faf	0.009223863
158	0x3e208d1f	0.15678833
159	0x3d45cf20	0.048293233
160	0xbd0d5789	-0.03450731
161	0xbe3385a4	-0.17531449
162	0x3d4c49a1	0.049874905
163	0xbde2a387	-0.110663466
164	0xbe6c7919	-0.2309307
165	0x3e5ffbe9	0.2187344
166	0xbd2cd3dc	-0.042194232
167	0xbc3fdce8	-0.011710383
168	0x3e45b9b0	0.19309115
169	0xbe5cb85f	-0.21554707
170	0xbd3f5d20	-0.04671967
171	0xbe3dc165	-0.18530805
172	0xbeaf7268	-0.34266973
173	0xbdec007a	-0.115235284
174	0xbddcc6c7	-0.10780101
175	0x3e25398f	0.16135238
176	0xbca75324	-0.020425387
177	0x3df3783f	0.118881695
178	0xbcf85388	-0.030313268
179	0xbdf3f8db	-0.119127
180	0x3e052978	0.130041
181	0xbdbf8765	-0.09351996
182	0xbddd6432	-0.10810126
183	0xbe0ab5ea	-0.13545957
184	0x3d237a8d	0.039911795
185	0x3ec75152	0.3892923
186	0xbe14fecc	-0.14550322
187	0x3c8d3555	0.017237345
188	0xbda0049a	-0.07813378
189	0x3e05c6bd	0.13064094
190	0x3dc3f837	0.095688276
191	0x3db62e83	0.0889559
192	0xbe88bab5	-0.26704946
193	0xbd76e5d7	-0.060277786
194	0xbdff8d51	-0.12478126
195	0xbdd2a089	-0.10284526
196	0x3e0d561b	0.13802378
197	0xbdc7ebcd	-0.09761772
198	0x3d863cac	0.06554541
199	0xbdbc3908	-0.09190565
200	0xbe01d27a	-0.12677947
201	0x3d13b935	0.0360653
202	0xbe01a263	-0.12659602
203	0x3d49de24	0.049284115
204	0xbe13a2fe	-0.14417645
205	0x3b04ea06	0.002028109
206	0xbca1dc7b	-0.019758454
207	0x3e0cd3da	0.1375269
208	0x3d3ec9c9	0.046579156
209	0xbdae2feb	-0.085052334
210	0x3ba7223c	0.0051005166
211	0xbe8223f4	-0.25418055
212	0xbd14b050	-0.036300957
213	0x3ddba98c	0.10725698
214	0xbdb9d541	-0.09073878
215	0xbd91cd59	-0.07119245
216	0xbccaab72	-0.024739955
217	0xbe522631	-0.20522381
218	0xbe1caad8	-0.15299547
219	0xbdad4a8e	-0.08461486
220	0xbd9046ac	-0.070447296
221	0x3de28848	0.1106115
222	0x3e540c7f	0.20707892
223	0xbe13d7e1	-0.1443782
224	0xbe88e22e	-0.2673506
225	0x3cc0d413	0.023538625
226	0xbe2897b8	-0.16464126
227	0x3d586241	0.052828077
228	0xbd7ea8cf	-0.062172707
229	0xbd1bb191	-0.038011137
230	0x3d1ee48e	0.038792185
231	0xbe80e327	-0.25173303
232	0xbe12857d	-0.14308734
233	0x3daebe05	0.08532337
234	0xbd606090	-0.05477959
235	0xbe265071	-0.16241623
236	0xbeb6266c	-0.3557619
237	0xbe1951db	-0.14972632
238	0xbe232cda	-0.15935078
239	0xbe2ee228	-0.1707846
240	0xbdaf8fec	-0.08572373
241	0xbb63443f	-0.003467813
242	0xbe9e5882	-0.309269
243	0x3c7a0512	0.015259998
244	0x3e0809a8	0.13284934
245	0xbd2523d5	-0.040317375
246	0xbe1578f9	-0.14596929
247	0xbe06a8b9	-0.131503
248	0xbd6803db	-0.0566443
249	0x3e15bf86	0.14623842
250	0xbd9d48e7	-0.07679921
251	0xbd5c0182	-0.053712375
252	0x3dbb03c1	0.091315754
253	0xbe0104c2	-0.12599471
254	0x3dd5804e	0.10424863
255	0x3e24f983	0.16110806

lstm.lstm2.weight_hh_l0 f4 [256, 64]
0	0x3e2319a0	0.15927744
1	0xbe10e6ec	-0.1415059
2	0xbde6f536	-0.11277239
3	0xbc25ced9	-0.010120117
4	0xbe87d095	-0.26526323
5	0x3cee5c2a	0.029096682
6	0x3e38038c	0.17970103
7	0x3db1c23c	0.086796254
8	0xbd9dc39a	-0.07703324
9	0x3dba4d1e	0.0909674
10	0xbd43d9b3	-0.047815036
11	0x3e756a11	0.23966242
12	0xbe3a04b4	-0.18165857
13	0x3e53e8cd	0.20694275
14	0xbe9f716c	-0.31141222
15	0xbe183f75	-0.14867957
16	0x3def46b5	0.11683408
17	0x3e12298b	0.1427366
18	0xbd9fe565	-0.078074254
19	0x3d9862e5	0.07440738
20	0xbdc4e1c0	-0.09613371
21	0xbda0eec3	-0.0785804
22	0x3db7072e	0.08936916
23	0x3b8df687	0.004332367
24	0xbc25bafa	-0.0101153795
25	0xbe0e7d39	-0.13914956
26	0x3c0bd845	0.008535449
27	0x3da3920d	0.07986841
28	0xbd898dd4	-0.06716505
29	0xbe13d7de	-0.14437816
30	0x3e3522fe	0.1768913
31	0x3e8219f8	0.25410438
32	0x3cf8028c	0.030274652
33	0x3d94ec47	0.07271629
34	0x3cc98671	0.02460024
35	0x3e8fe715	0.2810599
36	0xbc6e63ff	-0.014550208
37	0x3d98c5d9	0.074596114
38	0xbde03835	-0.10948221
39	0x3e3be3f2	0.18348673
40	0xbf154b7d	-0.5831831
41	0xbe9cb505	-0.30606857
42	0x3e2fb1d4	0.1715768
43	0x3e6d1292	0.23151615
44	0x3db905db	0.0903432
45	0x3df32118	0.118715465
46	0xbd0d26c0	-0.034460783
47	0x3d88188e	0.066453084
48	0x3ab7ca7e	0.0014022139
49	0x3d238262	0.039919265
50	0xbd6ce5d0	-0.057836354
51	0xbc535bc4	-0.012900297
52	0x3c364da0	0.011126906
53	0x3e9ccf56	0.30626935
54	0x3ea3345c	0.31875885
55	0x3cd6b7f9	0.026210772
56	0x3e4a30dd	0.19745202
57	0x3e191426	0.14949092
58	0x3db3e7da	0.087844566
59	0xbe134c60	-0.14384604
60	0xbd9a6534	-0.07538834
61	0xbc96d68d	-0.018412853
62	0xbdbd0ea0	-0.09231305
63	0x3e2a8f3b	0.166562
64	0xbe521316	-0.20515093
65	0x3db4fa21	0.08836771
66	0xbea783ea	-0.3271783
67	0xbde883d8	-0.11353272
68	0xbd62d6d9	-0.055380676
69	0xbe33b384	-0.17548949
70	0xbdec0d50	-0.11525977
71	0x3cf4990d	0.029858137
72	0xbe3fd930	-0.18735194
73	0x3df58ad5	0.11989371
74	0x3e13de9f	0.14440392
75	0x3e8dbcef	0.27683207
76	0x3e87858a	0.2646907
77	0x3d2a51c7	0.041581895
78	0xbe2adaec	-0.16685075
79	0x3e4a1d27	0.19737683
80	0xbd83427a	-0.06409164
81	0xbdf9bd71	-0.12194336
82	0xbda578b0	-0.0807966
83	0x3ddc90af	0.10769784
84	0x3e3b8f96	0.18316492
85	0x3c56ddfd	0.01311445
86	0xbe15bf44	-0.14623743
87	0x3e0085a7	0.12550984
88	0xbebc95fd	-0.36833182
89	0x3da29d83	0.07940199
90	0x3da90d01	0.082544334
91	0x3e075e21	0.13219501
92	0x3e73799b	0.23776858
93	0x3e5f6211	0.21814753
94	0x3ccb3b84	0.024808653
95	0x3e146d87	0.14494906
96	0x3e9a6635	0.30156103
97	0xbe8272a4	-0.2547809
98	0x3c92bfbd	0.017913694
99	0x3cd361a1	0.025803389
100	0xbeac12ab	-0.33607993
101	0x3e96a8bd	0.29425612
102	0xbd899369	-0.067175694
103	0x3dcfa496	0.10138814
104	0xbee5f23e	-0.4491138
105	0xbcb39043	-0.021919375
106	0xbceb975c	-0.028758697
107	0xbe6c4ece	-0.23076937
108	0x3d434343	0.047671568
109	0xbd8f1fbd	-0.069884755
110	0xbd5fd2d2	-0.054644413
111	0x3dae6f1b	0.085172854
112	0x3c347a6b	0.011015515
113	0x3df21d8b	0.11822041
114	0x3e302e6e	0.17205212
115	0xbda4cfea	-0.08047469
116	0x3c36cde7	0.011157489
117	0xbdd280cd	-0.10278473
118	0x3aa03de9	0.0012225482
119	0xbe0fb196	-0.14032587
120	0x3e1facda	0.15593281
121	0xbe0ad29f	-0.13556908
122	0xbdb96965	-0.090533055
123	0x3da9e939	0.08296437
124	0xbe7bd4b0	-0.24592853
125	0x3e206ac6	0.15665731
126	0x3dcf7d81	0.1013136
127	0xbca0d031	-0.019630523
128	0x3cb50708	0.02209808
129	0xbdcc4a15	-0.099750675
130	0xbd8ef8a4	-0.06981018
131	0x3e06dedb	0.1317095
132	0xbddef1c9	-0.108859606
133	0x3e0004bb	0.12501805
134	0xbdd9544d	-0.10611782
135	0xbdc9b2de	-0.09848569
136	0x3e2e2e03	0.1700974
137	0x3d2b581e	0.041832082
138	0xbd72fb11	-0.059321467
139	0x3d0576b3	0.032583904
140	0xbd94828e	-0.07251464
141	0x3d8396be	0.06425236
142	0x3e811fad	0.2521948
143	0x3e0e9f9b	0.13928072
144	0xbe3c1a02	-0.18369296
145	0xbe12c98e	-0.143347
146	0x3a052819	0.00050795224
147	0xbda932ef	-0.08261668
148	0x3d58c2ae	0.052920036
149	0xbdb3a24a	-0.087711886
150	0x3df987af	0.12184083
151	0xbe1382fe	-0.14405438
152	0x3dda654c	0.10663852
153	0x3e62e6a2	0.22158292
154	0xbe5727fa	-0.21011344
155	0x3d86ee79	0.06588454
156	0xbe1b63b9	-0.1517476
157	0x3e513942	0.20431998
158	0xbc30cef2	-0.010791527
159	0xbe3736af	-0.17891954
160	0x3e1c790b	0.15280549
161	0x3d2756b4	0.04085417
162	0xbe02e5a8	-0.1278292
163	0xbbdfa6dc	-0.006825311
164	0x3d8f022e	0.069828376
165	0xbd672503	-0.05643178
166	0x3dc1c3dc	0.09461185
167	0xbc8c1f7d	-0.017104859
168	0x3ec15fb9	0.37768343
169	0xbd923ee1	-0.071408994
170	0xbd8e4840	-0.06947374
171	0x3a236f24	0.0006234518
172	0xbe5b66d9	-0.21425952
173	0x3c412077	0.011787525
174	0xbc513052	-0.012767868
175	0xbd092e5c	-0.033491477
176	0xbdf4d1e2	-0.119540945
177	0x3d9303d4	0.071784645
178	0xbde90c69	-0.1137932
179	0x3e2dab5a	0.16959897
180	0xbe209123	-0.15680365
181	0xbdee157a	-0.1162519
182	0xbc5576e4	-0.013028834
183	0x3bed76b1	0.007246815
184	0xbd0224d6	-0.03177341
185	0xbe86b0fc	-0.26306903
186	0x3c924486	0.01785494
187	0x3d349c3b	0.044094305
188	0xbcd08255	-0.025452772
189	0xbdda0f25	-0.1064742
190	0x3dce58de	0.10075544
191	0xbdaedda9	-0.08538372
192	0xbd888e1e	-0.06667732
193	0x3e12768e	0.14303038
194	0x3e371f82	0.17883113
195	0xbe26bbac	-0.16282529
196	0x3df481a6	0.11938791
197	0xbe4b3460	-0.19844198
198	0xbd27fb93	-0.041011404
199	0xbd1af582	-0.03783179
200	0x3ddaec82	0.106896415
201	0xbd3072d1	-0.043078247
202	0x3e357a6b	0.1772248
203	0xbe0283c0	-0.12745571
204	0x3dce4071	0.10070885
205	0xbddc61fb	-0.10760876
206	0xbe0440d0	-0.12915349
207	0x3e9e8186	0.30958194
208	0x3d062892	0.032753535
209	0xbb2fd0ac	-0.002682726
210	0xbe0172b5	-0.12641414
211	0xbd3f56ed	-0.04671376
212	0xbe2bd0eb	-0.16778915
213	0xbd2f46a1	-0.042791966
214	0xbe357dd7	-0.17723785
215	0xbd67fd89	-0.056638274
216	0x3e950496	0.2910506
217	0x3c98abad	0.018636549
218	0xbd4a35c7	-0.049367692
219	0x3d42e767	0.047583964
220	0x3e1be9f1	0.1522596
221	0x3e2cbd41	0.1686907
222	0x3d74737c	0.059680447
223	0x3cb03f9b	0.021514704
224	0x3e509644	0.20369822
225	0x3c9735ec	0.01845833
226	0xbe221fc3	-0.15832429
227	0xbc8d75c8	-0.017268077
228	0xbcb6eeb9	-0.022330629
229	0xb8e726e1	-0.0001102218
230	0xbd109e3d	-0.035307158
231	0xbd39321b	-0.0452138
232	0xbe70c8aa	-0.23514047
233	0xbe04547c	-0.12922853
234	0x3c920e36	0.017829042
235	0x3d7705a1	0.060308103
236	0x3cad3dae	0.021147575
237	0xbce08eab	-0.02741178
238	0x3dbbaa9d	0.09163401
239	0xb912cc9e	-0.00013999871
240	0x3b48a7bf	0.0030617563
241	0x3e1984c6	0.14992055
242	0x3c556ba5	0.013026153
243	0x3e79e10b	0.24402253
244	0x3d8829e5	0.06648616
245	0xbe357e74	-0.1772402
246	0x3d14247c	0.036167607
247	0x3e2d334d	0.16914101
248	0x3da6d7f1	0.08146656
249	0x3dd8b6f6	0.10581772
250	0x3e25f4dc	0.16206688
251	0x3da3e6da	0.08003016
252	0xbd572faa	-0.05253569
253	0x3df95dc4	0.121760875
254	0x3cccb188	0.024986997
255	0x3e10a6e9	0.14126171

lstm.lstm2.bias_ih_l0 f4 [256]
0	0x3e308cea	0.17241254
1	0xbd0fae31	-0.03507823
2	0xbdf40bd6	-0.1191632
3	0xbde0fce9	-0.10985739
4	0xbd0160e5	-0.031586546
5	0x3d13acf1	0.0360536
6	0x3db475d7	0.08811539
7	0xbe014add	-0.12626214
8	0x3d2e3cfc	0.042538628
9	0x3d5c5934	0.05379601
10	0xbd3a7457	-0.045521107
11	0x3cc8f7f1	0.02453229
12	0xbd5bfa12	-0.053705283
13	0x3d8b809e	0.06811641
14	0x3e0e071b	0.13869898
15	0x3d08dc5e	0.033413284
16	0x3c783dad	0.015151423
17	0xbbf4c172	-0.0074693495
18	0x3e3ee625	0.1864248
19	0x3bd0576e	0.0063580787
20	0x3d8ecefc	0.06973073
21	0xbdb605eb	-0.088878475
22	0x3e3f0a9e	0.18656394
23	0xbdaf424c	-0.08557567
24	0xbd68b650	-0.05681449
25	0xbc69b5a7	-0.014264501
26	0xbe465cc8	-0.1937133
27	0xbdc592da	-0.0964715
28	0xbe3f1716	-0.1866115
29	0x3e1feb12	0.15617016
30	0xbdc10776	-0.09425251
31	0xbcded54e	-0.027201321
32	0x398e1e9c	0.00027107156
33	0xbe411f8b	-0.18859689
34	0xbe375e2b	-0.17907016
35	0xbe3bbace	-0.18332979
36	0xbe16de55	-0.1473325
37	0x3d8390b7	0.064240865
38	0x3d3312d1	0.043719117
39	0x3d851d4f	0.06499731
40	0xbd9ea068	-0.07745439
41	0xbdf36ae0	-0.11885619
42	0x3de0217d	0.109438874
43	0x3e547be2	0.20750383
44	0xbc981486	-0.018564474
45	0xbdae3e6f	-0.08508002
46	0x3bf191d5	0.007372121
47	0xbd87a408	-0.06623083
48	0xbd3c643a	-0.04599402
49	0x3e5b349c	0.21406788
50	0xbe6a2325	-0.22864969
51	0x3e10920c	0.14118212
52	0x3e33b8ff	0.17551039
53	0x3d845c5d	0.064629294
54	0xbd9eee0a	-0.07760246
55	0xbc7009b4	-0.014650751
56	0xbdb2b246	-0.08725409
57	0xbd49a62c	-0.04923074
58	0x3d9fef35	0.07809297
59	0xbcab3602	-0.020899776
60	0xbe000c11	-0.12504603
61	0x3dc72baa	0.09725125
62	0xbbb2370d	-0.0054386915
63	0xbd8909c3	-0.06691315
64	0xbe0335c5	-0.1281348
65	0xbd5f53c3	-0.05452324
66	0xbdc6821a	-0.09692784
67	0xbb11e470	-0.0022261404
68	0x3e4d88e0	0.20071745
69	0xbdea4aa6	-0.11440019
70	0x3d8d446d	0.06897817
71	0xbd62d516	-0.055378996
72	0x3dc18196	0.09448545
73	0x3d617a63	0.055048358
74	0xbd9c8470	-0.07642448
75	0xbe1c2131	-0.15247037
76	0x3d7c3178	0.061570615
77	0xbb8c5e21	-0.004283682
78	0x3d0c696e	0.034280233
79	0xbd48f634	-0.049062923
80	0xbdeb86ac	-0.11500296
81	0x3b896754	0.004193226
82	0xbce466f7	-0.027881129
83	0xbdc4517f	-0.09585857
84	0x3e3ed812	0.18637112
85	0xbda84ddd	-0.08217976
86	0x3dfff8d8	0.12498635
87	0x3e369b82	0.17832759
88	0x3d877714	0.06614509
89	0x3da2addc	0.07943317
90	0xbda74dbb	-0.08169123
91	0xbd777a71	-0.060419504
92	0xbe81d06c	-0.25354326
93	0x3dd666fd	0.10468862
94	0xbdb94b93	-0.09047618
95	0x3d58f20b	0.052965205
96	0x3d9bf98e	0.07615958
97	0x3cd592d5	0.026070992
98	0x3e60a0d2	0.21936348
99	0x3cad2fb3	0.021140909
100	0x3d42d829	0.047569428
101	0xbd1e7aca	-0.03869132
102	0x3bc94175	0.0061418363
103	0xbd8a93cd	-0.06766472
104	0x3e261b1c	0.16221279
105	0x3e2e2ebb	0.17010014
106	0x3e1f96cc	0.15584868
107	0x3dd3fa59	0.103504844
108	0x3dec91d4	0.11551252
109	0xbdf53065	-0.11972121
110	0x3dd8478e	0.10560523
111	0xbe21b090	-0.1579001
112	0xbc288ede	-0.010287968
113	0x3d7ef90d	0.062249232
114	0xbe5f3ee2	-0.21801332
115	0x3dd07899	0.10179252
116	0x3e4c9672	0.19979265
117	0x3ea2ab32	0.31771237
118	0xbd9558ed	-0.07292352
119	0xbd2fba94	-0.042902544
120	0x3d878e2f	0.06618916
121	0x3dccebb8	0.10005897
122	0x3cba0b41	0.022710444
123	0x3dc3ed48	0.09566742
124	0xbcef2370	-0.029191703
125	0x3dbe299a	0.092852786
126	0x3ca12fff	0.019676207
127	0xbdb72272	-0.08942117
128	0x3d9f92b1	0.07791651
129	0x3df0e7f5	0.11762992
130	0x3caeca5f	0.021336732
131	0x3caf9ad8	0.02143614
132	0xbe135035	-0.14386065
133	0xbe0762b4	-0.13221246
134	0x3da5da27	0.0809825
135	0x3d2d6671	0.042334024
136	0x3c892ae7	0.01674409
137	0xbb200920	-0.0024419501
138	0xbc6718e8	-0.014105059
139	0x3e13673f	0.14394854
140	0xbde16896	-0.11006276
141	0x3de7555e	0.112955794
142	0x3c847fe1	0.016174259
143	0xbd8d073c	-0.068861455
144	0x3e10f91c	0.14157528
145	0x3d8d5e28	0.069027245
146	0x3d3562eb	0.04428379
147	0x3d920c70	0.071312785
148	0xbb814079	-0.0039444533
149	0xbe10d546	-0.14143857
150	0xbc8755f5	-0.01652048
151	0xbd2c9176	-0.04213091
152	0x3d50c5b9	0.050969813
153	0xbde3451c	-0.11097166
154	0xbdf341cb	-0.118777834
155	0xbd08c3a6	-0.03338971
156	0xbe0fe31d	-0.1405148
157	0xbe150d97	-0.14555965
158	0xbc49eeaf	-0.012324973
159	0x3c931651	0.017954977
160	0xbe0a16a8	-0.13485205
161	0x3c9e1de9	0.019301372
162	0x3c97109b	0.018440535
163	0x3dc1d3db	0.09464236
164	0xbd596de0	-0.0530833
165	0xbdc28796	-0.09498517
166	0xbdbd010e	-0.09228717
167	0x3c5eec18	0.013606094
168	0xbe79e5f8	-0.24404132
169	0xbd14aba8	-0.036296517
170	0x3cc4d32d	0.024026478
171	0x3cba2e30	0.022727102
172	0x3d88e5b4	0.066844374
173	0xbd58245c	-0.05276905
174	0x3cdfcc3e	0.02731907
175	0xbd2ba04e	-0.041900925
176	0x3c3a6c47	0.011378354
177	0x3c5a5e6b	0.013328175
178	0x3dae5b8d	0.08513556
179	0xbd981b85	-0.07427124
180	0x3e797be4	0.24363667
181	0x3da9361e	0.08262275
182	0xbc735ff2	-0.014854418
183	0x3deab116	0.11459558
184	0xbd2ce4e7	-0.042210486
185	0x3e23101c	0.15924114
186	0xbe136b0c	-0.14396304
187	0xbe114da1	-0.1418977
188	0xbc8aadd1	-0.016928585
189	0xbdf899ec	-0.12138733
190	0x3d721790	0.059104502
191	0x3cb086cc	0.021548651
192	0x3d8e7259	0.06955404
193	0xbcbc09d6	-0.022953909
194	0xbe3ccd58	-0.18437707
195	0xbe470a07	-0.19437419
196	0xbd27e7e9	-0.04099265
197	0xbd090a65	-0.03345718
198	0xbe5de307	-0.21668635
199	0xbdc9a897	-0.09846609
200	0xbdad2661	-0.08454586
201	0x3e0b7813	0.13620023
202	0xbcec6d40	-0.028860688
203	0x3dd703b2	0.10498752
204	0x3ddee405	0.10883335
205	0x3d1b6b1c	0.037943944
206	0x3e46cd94	0.1941436
207	0x3e2338ec	0.15939683
208	0xbe2956de	-0.16537043
209	0x3d659839	0.056053374
210	0x3dbbac81	0.09163762
211	0x3d92e7a3	0.071730874
212	0x3c9a4246	0.01883043
213	0xbe0eb0d3	-0.1393464
214	0xbdc81f0a	-0.09771545
215	0xbc4730a1	-0.01215759
216	0xbdc59221	-0.096470125
217	0x3d1ec871	0.038765375
218	0xbea1ae4d	-0.31578293
219	0xbdb4daf3	-0.08830824
220	0xbe58de7d	-0.21178623
221	0xbde48ed7	-0.11160057
222	0xbd90f032	-0.070770636
223	0xbbf4f11e	-0.0074750325
224	0xbdb724c1	-0.08942557
225	0x3d2fe1c6	0.042939924
226	0xbd0e641e	-0.034763448
227	0xbdadeca0	-0.08492398
228	0xbdccba50	-0.09996474
229	0xba5bf1b6	-0.0008390205
230	0xbe4635cb	-0.19356458
231	0xbe153131	-0.14569546
232	0x3db3d15e	0.08780168
233	0xbd7452a6	-0.059649132
234	0xbded7c5e	-0.11595987
235	0xbdaa8499	-0.08326072
236	0xbd2b912e	-0.0418865
237	0xbd9439d6	-0.07237594
238	0x3df5748c	0.1198512
239	0xbd850931	-0.06495894
240	0xbdd62641	-0.10456515
241	0x3cb425c0	0.021990657
242	0xbdb88780	-0.090102196
243	0x3d889c76	0.066704676
244	0xbdb13007	-0.086517386
245	0x3c9dfbed	0.019285167
246	0x3e186106	0.14880762
247	0xbdc0289a	-0.09382744
248	0xbe0b5bcc	-0.13609236
249	0x3d29b5ab	0.041433018
250	0xbc9785e7	-0.018496467
251	0xbe34b0fb	-0.17645638
252	0xbe0df58f	-0.13863204
253	0xbbf585fd	-0.0074927793
254	0x3cd0f447	0.025507106
255	0xbe2e604e	-0.17028925
