073123/0811_experiment_2.pth (torch, 644853 bytes, 40 tensors)

lstm.lstm1.weight_ih_l0 f4 [256, 12]
0	0xba53dfdb	-0.00080823683
1	0x39cc7d92	0.0003900347
2	0x3b814f36	0.0039462103
3	0xb7237712	-9.74328e-06
4	0x3a3a15bd	0.0007098576
5	0x39b197ad	0.00033873078
6	0x3a5ce6a9	0.0008426705
7	0x3a5ec737	0.0008498313
8	0x3a848973	0.0010111764
9	0x39bdbff7	0.00036191914
10	0x39c47574	0.00037471543
11	0x3a803c2e	0.000978356
12	0x3aa96aa7	0.0012925462
13	0x3adc85c1	0.001682453
14	0xba83ed90	-0.0010065306
15	0x3a0a9270	0.0005286103
16	0x399fad75	0.0003045608
17	0x39659880	0.00021895953
18	0x3ae092b0	0.001713356
19	0x3a6ec0ef	0.0009107729
20	0x3a78eb16	0.000949548
21	0x3aca7880	0.0015447289
22	0x39e9d429	0.00044599295
23	0x3afefd6b	0.0019454187
24	0x3aeb4b13	0.0017951451
25	0xb950bb74	-0.00019906258
26	0x3b227953	0.0024791553
27	0x3b1f0a5c	0.002426765
28	0x3a4b7238	0.00077608554
29	0x3b4cbd9d	0.0031240948
30	0x3b11229b	0.002214587
31	0x3aed8ef7	0.0018124272
32	0x3ad647ac	0.0016348264
33	0x3b269b26	0.0025422066
34	0x3a7cc167	0.00096418563
35	0x3b9c2718	0.0047654025
36	0x3ae7b9d6	0.0017679285
37	0x3ab392e0	0.0013700388
38	0xba91e8fe	-0.0011132059
39	0x3b0f936d	0.002190794
40	0xb9d0dd6d	-0.00039837827
41	0x3a88cf4a	0.0010437754
42	0x3b27612a	0.0025540092
43	0x3a041c00	0.0005039573
44	0xb8c8c6fa	-9.5738054e-05
45	0xb97487a0	-0.00023320178
46	0x3a28143a	0.00064117054
47	0x3a9514f9	0.0011374048
48	0x3b5fc2f1	0.0034143294
49	0x3a907305	0.0011020607
50	0x3b333991	0.0027347545
51	0x3b6c2c51	0.0036037157
52	0x3ac927c6	0.0015346936
53	0x3b91fb12	0.0044549787
54	0x3b49c059	0.0030784814
55	0x3b8e617d	0.0043451176
56	0x3b8abd4b	0.0042339913
57	0x3b830aea	0.003999104
58	0x3b1a6ce7	0.0023563446
59	0x3b9714b1	0.004610621
60	0xbb9a805f	-0.00471501
61	0x3a25abdf	0.0006319861
62	0xbbc4cdb4	-0.006005967
63	0xba3a6aae	-0.00071112334
64	0x3aaa585c	0.0012996304
65	0x3b66938d	0.0035183162
66	0x3ab1649a	0.001353401
67	0x3ab9e0b8	0.0014181351
68	0x3a3a49e5	0.0007106348
69	0xba39daf7	-0.0007089818
70	0xba184ca4	-0.000580976
71	0x3ad47774	0.0016209916
72	0x38f49d8d	0.00011664173
73	0x38bddf0c	9.053768e-05
74	0x3aa5da86	0.0012653626
75	0x3a0a46a2	0.00052748073
76	0x38c6edf2	9.4856965e-05
77	0x39289bbd	0.00016079746
78	0x3a83a657	0.001004408
79	0x3a264bcf	0.0006343694
80	0x3a2cecd3	0.0006596569
81	0x3a437269	0.0007455708
82	0x39947f2c	0.0002832351
83	0x3929ce37	0.00016193917
84	0xbacf6074	-0.0015821592
85	0xb940a36f	-0.0001837143
86	0x39734a12	0.00023201879
87	0xb9fc9c92	-0.0004818184
88	0x397f36b5	0.00024339075
89	0xbaad293b	-0.001321114
90	0x376b1347	1.401158e-05
91	0x3a32f150	0.00068261195
92	0x3a3b54da	0.0007146128
93	0xb96a99f3	-0.0002237333
94	0xb9a01e9e	-0.0003054039
95	0xb89b95d1	-7.4188814e-05
96	0x3abe72bd	0.0014530044
97	0x3b16aa04	0.002298952
98	0xb7fb8203	-2.9982073e-05
99	0x3aaf9bbf	0.0013397856
100	0x3a76c34a	0.00094132556
101	0x3adac4cd	0.0016690731
102	0x3b18d947	0.0023322867
103	0x3b2cd9fa	0.0026375041
104	0x3b2c8607	0.0026325004
105	0x3b259809	0.0025267622
106	0x3a2fe765	0.00067102007
107	0x3ab6b103	0.0013938252
108	0x39c9a666	0.00038461684
109	0x3aa2911c	0.0012402865
110	0x3a517fa9	0.000799174
111	0x39b6ca26	0.00034864357
112	0xb888c83f	-6.522284e-05
113	0x3a136cff	0.00056238467
114	0x3a7c5ca4	0.00096268416
115	0x3abc8baf	0.0014384891
116	0x3abf4b60	0.0014594607
117	0x39b6ced9	0.0003486786
118	0x390113e0	0.00012309803
119	0x39e7bd3d	0.00044200747
120	0x3b3a0a1e	0.0028387378
121	0xb9355c72	-0.00017295944
122	0x3ae7ea39	0.0017693705
123	0x3a8219bd	0.0009925883
124	0x3aa83175	0.0012832122
125	0x3a907d50	0.0011023674
126	0xba80fe23	-0.0009841364
127	0x3b3c1950	0.002870161
128	0x3b3b7719	0.0028604923
129	0x3b446c21	0.0029971676
130	0x3a509b62	0.0007957724
131	0x3b6e29f2	0.003634092
132	0xb84b2612	-4.8434427e-05
133	0x3a64c5b1	0.0008726968
134	0xb9794c1c	-0.00023774843
135	0xba58241d	-0.00082451274
136	0xb9b14a3f	-0.00033815388
137	0xb97eb131	-0.00024289337
138	0x3aea006c	0.0017852909
139	0x3ad018c3	0.001587652
140	0x3ad1d442	0.0016008692
141	0x39de6cdf	0.00042424255
142	0xba84496e	-0.0010092685
143	0x3adab1ae	0.0016685033
144	0x3a90ef0a	0.0011057567
145	0x39c9fa9c	0.00038524426
146	0x3b257d99	0.0025251864
147	0x3a695c09	0.0008901959
148	0xb9cb3abd	-0.0003876294
149	0xb9e96824	-0.00044518814
150	0x3a988fd9	0.001163955
151	0x3a0fe46b	0.0005489054
152	0x3a11da39	0.0005563829
153	0x3a09f7f6	0.00052630843
154	0x3a09bf28	0.000525462
155	0x3a0fdf8c	0.0005488328
156	0x3ac1a49a	0.0014773787
157	0xb9cfb4f1	-0.0003961693
158	0xbb901cb6	-0.004397954
159	0xba047109	-0.0005052244
160	0xb7a30bb3	-1.9436562e-05
161	0x3b00007f	0.0019531546
162	0x3b187ec9	0.002326893
163	0x3a9ed373	0.001211746
164	0x3a9d8265	0.001201701
165	0x3941d8f7	0.0001848674
166	0xb914a2b6	-0.00014174994
167	0x3a693cd1	0.0008897307
168	0x3b572dfb	0.0032833803
169	0x3bb492bf	0.0055106576
170	0x3c01204c	0.007881235
171	0xbb0181f2	-0.0019761291
172	0xb9ba15fa	-0.00035493058
173	0xbb41e21a	-0.002958423
174	0x3a10f882	0.00055301946
175	0x3b21e036	0.002470029
176	0x3b297b27	0.0025860758
177	0x3adb4795	0.0016729707
178	0xbb1f5956	-0.0024314723
179	0xb9a972a3	-0.00032319603
180	0x3acb41d7	0.0015507293
181	0x38dfc349	0.00010669843
182	0x37f271aa	2.8901577e-05
183	0x3a944dad	0.0011314653
184	0x39252c15	0.00015752048
185	0x3a0f2409	0.0005460387
186	0x3ac7aa25	0.0015233202
187	0x3acea2a0	0.0015765019
188	0x3acb6310	0.0015517194
189	0x3a5ba86f	0.00083792856
190	0x3a284bf4	0.00064200093
191	0x3aa829cc	0.0012829839
192	0x3b164d66	0.0022934317
193	0x3b8413be	0.0040306738
194	0x3a710cbe	0.0009195319
195	0x3b0530fa	0.0020323382
196	0x3987e7ce	0.00025921914
197	0x3b1a1ec1	0.0023516866
198	0x3b57a7d7	0.0032906437
199	0x3b077d0f	0.0020673906
200	0x3b06ce3e	0.0020569707
201	0x3a33694c	0.00068439986
202	0x3ad339a9	0.0016115207
203	0x3b1fbccc	0.0024374006
204	0xba830629	-0.0009996343
205	0x3b12fa4c	0.002242702
206	0xbb03a362	-0.0020086397
207	0x3a26120f	0.00063350884
208	0xba1265c1	-0.00055846205
209	0xbaf72e3f	-0.0018858387
210	0x3b8707cd	0.004120803
211	0x3ad57ddc	0.0016288119
212	0x3aec2d27	0.0018018828
213	0xba4133f2	-0.0007370106
214	0x396ae579	0.00022401464
215	0x3ad96290	0.001658516
216	0x3b1b84df	0.002373032
217	0x3b716831	0.0036835785
218	0xbac7c0c1	-0.001523994
219	0x3afb91ed	0.001919327
220	0x3a006a35	0.00048986386
221	0x39d3280e	0.000402749
222	0x3b9de2e1	0.004818306
223	0x3b54adfe	0.003245234
224	0x3b5648f1	0.0032697285
225	0x3b36e327	0.002790639
226	0x3aabf01e	0.0013117825
227	0x3b425400	0.0029652119
228	0xba4e601a	-0.00078725966
229	0x3b02b15c	0.001994214
230	0xbb71277d	-0.0036797218
231	0x38b53bd6	8.641898e-05
232	0xbade770b	-0.0016972733
233	0xbb9cea97	-0.0047887075
234	0x398842be	0.00025989668
235	0xbb035676	-0.0020040548
236	0xbb13cff0	-0.002255436
237	0xbb3a7af3	-0.002845463
238	0x37ce5ae7	2.4599443e-05
239	0xb920a42d	-0.0001531995
240	0xbab1fab4	-0.0013578744
241	0xbadb56a7	-0.0016734198
242	0xba8c1fdd	-0.0010690648
243	0x38c63021	9.4503404e-05
244	0x39b90554	0.0003528992
245	0xba4a1238	-0.0007708403
246	0xba5fd676	-0.0008538732
247	0xba4b4153	-0.00077535695
248	0x3ab9c627	0.0014173434
249	0xbb2a1145	-0.0025950235
250	0xba1af9dc	-0.0005911866
251	0xbabd6eb8	-0.0014452552
252	0x3c044b71	0.008074627
253	0x3be08402	0.006851674
254	0x3b8a6f3b	0.0042246855
255	0x3c149a0e	0.009069933

lstm.lstm1.weight_hh_l0 f4 [256, 64]
0	0x39c6bede	0.0003790771
1	0x37c1c053	2.309695e-05
2	0x37ea1f44	2.7909533e-05
3	0x36f8938d	7.408153e-06
4	0xb60846bc	-2.0306752e-06
5	0x38302fc0	4.200614e-05
6	0x3771714c	1.4391098e-05
7	0xb8d8aae1	-0.00010331511
8	0xb95f9123	-0.00021321005
9	0xb9385a59	-0.00017581265
10	0x3962672c	0.00021591474
11	0xb79a2e88	-1.8379898e-05
12	0x38556f12	5.08866e-05
13	0x3976af1e	0.00023525624
14	0xb829bb8a	-4.04674e-05
15	0x38fadc8e	0.000119620105
16	0xb8adf61c	-8.295124e-05
17	0xb96922f6	-0.00022233636
18	0xb90cad58	-0.00013416016
19	0xb8ca34d2	-9.641949e-05
20	0xb8bb60c2	-8.9348774e-05
21	0xb9b4dd1f	-0.00034497023
22	0xb962520d	-0.00021583606
23	0x3862b8ca	5.4054697e-05
24	0x38681e78	5.5341487e-05
25	0xb976cf21	-0.0002353755
26	0x38e441fb	0.00010884177
27	0x391d2397	0.00014985945
28	0x388b1a62	6.632951e-05
29	0xb93909c2	-0.0001764661
30	0x3884ec38	6.33825e-05
31	0x3835a5b0	4.330807e-05
32	0x37f4c1d2	2.9177321e-05
33	0x391d5bad	0.00015006839
34	0xb7e75277	-2.7575747e-05
35	0x391f0b08	0.00015167531
36	0x371210cc	8.706189e-06
37	0xb7fbfb75	-3.0038625e-05
38	0x388b4922	6.6416585e-05
39	0x3957464d	0.00020530187
40	0xb79e4e95	-1.887166e-05
41	0x398bf962	0.0002669795
42	0xb853c69b	-5.0491286e-05
43	0xb954d77e	-0.00020298173
44	0xb8d40163	-0.00010109206
45	0xb91f6d4d	-0.0001520414
46	0xb8daa3cb	-0.00010425559
47	0x39068e7e	0.00012832318
48	0x3947fefe	0.00019073111
49	0x38d9960a	0.00010375313
50	0xb824806b	-3.9220246e-05
51	0x383a1d17	4.4372948e-05
52	0x379ace09	1.8454173e-05
53	0xb99b0b45	-0.000295723
54	0xb79c7ab3	-1.8653785e-05
55	0x38b693d5	8.705972e-05
56	0xb88dbe07	-6.758799e-05
57	0xb73507f8	-1.0790296e-05
58	0x37ffea28	3.0507406e-05
59	0xb90d58f5	-0.00013479947
60	0xb942b03d	-0.00018566936
61	0xb8cc4fa3	-9.7423115e-05
62	0x3960d4eb	0.00021441623
63	0x388cef78	6.720325e-05
64	0x391c3519	0.000148971
65	0x3621f6a9	2.4134445e-06
66	0x3877b6c7	5.9059614e-05
67	0x38cf6919	9.890105e-05
68	0xb7f1aafe	-2.8809063e-05
69	0x391b169e	0.00014790377
70	0xb6caa858	-6.039667e-06
71	0xb9583a56	-0.00020621097
72	0xb8b51c33	-8.636005e-05
73	0xb7131136	-8.76589e-06
74	0xb797da7c	-1.8102342e-05
75	0xb857eb8d	-5.147937e-05
76	0xb8065023	-3.2022723e-05
77	0x38abe7f7	8.197122e-05
78	0xb8851027	-6.344943e-05
79	0x38069e5f	3.2095584e-05
80	0x37c45371	2.3403876e-05
81	0xb954c8fc	-0.00020292768
82	0xb8b1eb10	-8.4838015e-05
83	0x38191fb1	3.6507558e-05
84	0xb914fe80	-0.00014209189
85	0xb927846d	-0.00015975694
86	0xb8375b57	-4.3715667e-05
87	0x37d249a4	2.5068242e-05
88	0x38bee6e5	9.1029135e-05
89	0xb88c27b4	-6.6831155e-05
90	0xb8351511	-4.3173382e-05
91	0x38e48ff3	0.000108987
92	0x371f07f2	9.478988e-06
93	0xb8b2b9ad	-8.522286e-05
94	0x383cb9ee	4.4995853e-05
95	0xb890f6c2	-6.912417e-05
96	0x37a1b062	1.927483e-05
97	0x38f90ac3	0.0001187525
98	0x380815fe	3.244541e-05
99	0x38988abe	7.2737676e-05
100	0x38c9cd5c	9.622678e-05
101	0xb8ae5d96	-8.314398e-05
102	0xb83fb26d	-4.570412e-05
103	0x38ec179f	0.00011257757
104	0xb80f23cd	-3.41272e-05
105	0xb65a6e39	-3.254869e-06
106	0x37aaecbe	2.037582e-05
107	0xb8f64f82	-0.000117450036
108	0x382449d7	3.9169416e-05
109	0xb8ab3db8	-8.1654114e-05
110	0xb8f9b15e	-0.000119062825
111	0x3928ce3c	0.00016098557
112	0xb8bd7edb	-9.035851e-05
113	0xb616b315	-2.2455981e-06
114	0x38ab2c10	8.162123e-05
115	0x3852b3a8	5.023522e-05
116	0xb882f9b3	-6.245393e-05
117	0xb8ca5301	-9.647571e-05
118	0xb594ef3c	-1.1096486e-06
119	0x392b7f26	0.00016355197
120	0x35f9f2b6	1.8622584e-06
121	0x372198aa	9.631893e-06
122	0x388eb159	6.804121e-05
123	0x3788c788	1.6305377e-05
124	0xb9464bf4	-0.00018911046
125	0x38ae5e17	8.314492e-05
126	0x383f64f5	4.5631972e-05
127	0xb8cfd8fa	-9.910944e-05
128	0x391462ea	0.00014151228
129	0xb9540ce7	-0.00020222702
130	0x398e4f53	0.00027143452
131	0x389590b9	7.13183e-05
132	0x39880a7e	0.0002594776
133	0xb89accdb	-7.3814495e-05
134	0x3895746f	7.126561e-05
135	0x37fede32	3.0382627e-05
136	0xb83c997e	-4.4965644e-05
137	0x37e0a1b7	2.6778185e-05
138	0xb9734d34	-0.00023203046
139	0xb945e63c	-0.00018873153
140	0x380a9c3c	3.304727e-05
141	0x388a38a5	6.590904e-05
142	0x3954170c	0.00020226481
143	0x3919ae78	0.00014656212
144	0x38d1b24e	9.9991084e-05
145	0x3786bcf4	1.6062033e-05
146	0xb8541a59	-5.0569277e-05
147	0xb9669596	-0.00021990234
148	0xb92f9df3	-0.00016748141
149	0x38526918	5.0165778e-05
150	0xb8cd4884	-9.788669e-05
151	0xb7e7909b	-2.7604683e-05
152	0x398ae4aa	0.0002649178
153	0xb8378021	-4.374993e-05
154	0xb7c09f02	-2.2962227e-05
155	0xb6ab843b	-5.111591e-06
156	0xb8047242	-3.1577663e-05
157	0x34e6bdbf	4.2978897e-07
158	0xb95570d5	-0.00020355296
159	0xb908425d	-0.00012994693
160	0x374c1aa1	1.2165548e-05
161	0xb882cd1d	-6.2370884e-05
162	0xb8a01614	-7.633507e-05
163	0xb8162f45	-3.580681e-05
164	0xb8bef03d	-9.104654e-05
165	0x38d646c0	0.000102174934
166	0xb8b54fa1	-8.6455846e-05
167	0x390f80fb	0.00013685592
168	0xb94bcc62	-0.00019435727
169	0x384cabbe	4.8797338e-05
170	0x37cf9754	2.474679e-05
171	0x38490273	4.7924415e-05
172	0x384682c8	4.732868e-05
173	0xb9087292	-0.00013012651
174	0x38ca4d6a	9.64653e-05
175	0x37e5d18e	2.7396509e-05
176	0x3875daa6	5.8616184e-05
177	0x39341674	0.00017174502
178	0x36b54167	5.401834e-06
179	0x365e6b8f	3.3143185e-06
180	0x38a52c64	7.8760815e-05
181	0x39198ba5	0.00014643239
182	0x38eb1bd2	0.00011210855
183	0x388fc0b4	6.854665e-05
184	0x38f0c1fa	0.00011480223
185	0xb8ca0730	-9.6334494e-05
186	0xb7d3eca7	-2.526336e-05
187	0x37f1a0d0	2.8804323e-05
188	0x3859606f	5.1826642e-05
189	0xb9934f13	-0.0002809694
190	0xb7847f47	-1.5794894e-05
191	0x38aa0806	8.107726e-05
192	0xb9b4b62b	-0.00034468
193	0xb9dd03b5	-0.00042155167
194	0x35cba0ce	1.5171479e-06
195	0x3796fd47	1.7999335e-05
196	0x39ae2b74	0.0003322024
197	0xb9773760	-0.00023576384
198	0x3831d9ea	4.2403037e-05
199	0x3868dcb9	5.5518674e-05
200	0xb782ffe2	-1.5616362e-05
201	0x38b5022b	8.6311564e-05
202	0xb964dcc2	-0.00021826013
203	0xb9256265	-0.00015772281
204	0xb80bc278	-3.3321296e-05
205	0x38f7ee3e	0.00011822254
206	0x3957df0c	0.00020587089
207	0xb92b9b11	-0.00016365598
208	0x39060e98	0.00012784672
209	0x39446cb7	0.00018732516
210	0x39577187	0.0002054629
211	0x35d010ea	1.550213e-06
212	0xb8cffbf7	-9.917461e-05
213	0x3923ad5f	0.00015609477
214	0xb6af2d1e	-5.2206587e-06
215	0xb942dfc5	-0.00018584642
216	0x391232c4	0.00013942557
217	0x391791c9	0.00014454791
218	0xb996832a	-0.00028707954
219	0xb96fa799	-0.00022855251
220	0x36eb312d	7.0092706e-06
221	0xb8f7f344	-0.000118231896
222	0xb921aa6b	-0.00015417642
223	0xb9369475	-0.00017412177
224	0xb9443440	-0.00018711481
225	0x393cd66f	0.0001800896
226	0xb9864963	-0.0002561315
227	0xb857ae53	-5.1422347e-05
228	0xb82a5c69	-4.0617222e-05
229	0x39f109b6	0.00045974337
230	0xb8113a44	-3.4624958e-05
231	0xb7a3ff45	-1.9549983e-05
232	0xb8f09e65	-0.00011473595
233	0xb9128200	-0.00013972074
234	0x393b84ca	0.00017883177
235	0x38823c1b	6.2100786e-05
236	0x39189cbe	0.0001455424
237	0xb89a305b	-7.352299e-05
238	0xb7495620	-1.2000586e-05
239	0xb9d03a5d	-0.00039716336
240	0xb8f18055	-0.00011515679
241	0xb73fac42	-1.1424594e-05
242	0xb983c738	-0.00025134697
243	0x37685eab	1.3850319e-05
244	0x39313af4	0.00016901997
245	0x39870947	0.0002575612
246	0x38cec70c	9.859921e-05
247	0x3862ab15	5.404193e-05
248	0x39479fec	0.00019037694
249	0xb90565ae	-0.00012721747
250	0xb9b4d5cc	-0.00034491566
251	0x394cebe0	0.00019542826
252	0x396ff48a	0.00022883914
253	0xb9620ebd	-0.0002155853
254	0xb87f556d	-6.0876297e-05
255	0x3981ab15	0.00024732263

lstm.lstm1.bias_ih_l0 f4 [256]
0	0x39b818e8	0.0003511377
1	0x3ab9e131	0.0014181492
2	0x3b2445c2	0.0025065993
3	0x3a813ed4	0.0009860643
4	0x3bb71fc7	0.005588505
5	0x397d127c	0.00024134846
6	0x3a72d4cb	0.0009263276
7	0x39f42770	0.0004656869
8	0x3b868dc0	0.0041062534
9	0x3aab385f	0.0013063065
10	0x3ae704dc	0.001762535
11	0x3ad26fa3	0.0016054999
12	0x3a5e20c0	0.0008473508
13	0x39c62922	0.0003779615
14	0x3a474af3	0.0007602416
15	0x3b13f159	0.0022574274
16	0x3b494023	0.0030708394
17	0x3b0edab0	0.0021797828
18	0x3b94c49f	0.0045400406
19	0xba86185d	-0.001023065
20	0xbaa4ac84	-0.0012563621
21	0x3c9385be	0.01800811
22	0x3b787f91	0.0037917832
23	0x3a004f10	0.0004894594
24	0xba8abe00	-0.0010585189
25	0x3acd8e5c	0.0015682685
26	0x3aca14cf	0.0015417578
27	0x3b21c928	0.002468655
28	0x39fb43e7	0.00047925042
29	0x3b96695d	0.004590197
30	0x3b1dc6c9	0.0024074784
31	0x3a200fb4	0.00061058556
32	0x3aea4bbb	0.0017875353
33	0x3b40b735	0.0029406075
34	0x3a73c04b	0.0009298368
35	0x3af4160a	0.0018622291
36	0x3adc3cb0	0.0016802754
37	0xbb9300d7	-0.004486184
38	0x3b03ac21	0.002009161
39	0x3a204db3	0.0006115094
40	0x3c09e3ed	0.008416158
41	0x3a537138	0.0008065882
42	0xbb4fa38c	-0.0031683175
43	0x3b807466	0.003920126
44	0x39afc82d	0.00033527744
45	0xbb209014	-0.002449994
46	0x3bbd0dc8	0.005769465
47	0xb7e1be72	-2.6910773e-05
48	0x3b0c112e	0.0021372545
49	0x3b5f334b	0.0034057673
50	0xbaec1e2c	-0.0018014363
51	0x3b8845ca	0.00415871
52	0x3aaef374	0.0013347701
53	0x3bba2ced	0.005681625
54	0x3a731da2	0.000927413
55	0x3b8b3d0c	0.0042492207
56	0x3b0c83ce	0.0021440866
57	0x3a30f759	0.0006750725
58	0x3a6bf72d	0.00090013706
59	0x3acb3b85	0.0015505409
60	0x3a307188	0.00067307847
61	0x3bfce714	0.0077179763
62	0xba0e7df6	-0.000543564
63	0xb98d6c9a	-0.0002697453
64	0xbc279fe4	-0.010230992
65	0xbb7e8e83	-0.0038842268
66	0x3b645313	0.0034839555
67	0x3a5c44f2	0.00084026076
68	0x3b0b1190	0.0021220185
69	0xbccc982c	-0.024974905
70	0x3a881f95	0.0010385389
71	0xbbdd5963	-0.0067550405
72	0x3af24609	0.0018484007
73	0x392264f7	0.00015487136
74	0xbc52ff7d	-0.012878296
75	0x39f6431c	0.00046970777
76	0x3b211f5f	0.002458535
77	0xba47f36e	-0.00076275214
78	0xbcf220df	-0.02955669
79	0xbaceb48f	-0.0015770363
80	0xbb739f27	-0.003717372
81	0xbcbad511	-0.022806676
82	0x3b85652e	0.0040708994
83	0xbc813f60	-0.01577729
84	0xbb7722b6	-0.0037709898
85	0xbd10e405	-0.035373706
86	0x39c20070	0.0003700289
87	0xbb5a5189	-0.003331276
88	0xbabaa84d	-0.0014240831
89	0xbb194546	-0.0023387237
90	0x3a89fa23	0.0010526817
91	0xbb7913f6	-0.0038006282
92	0xbbd4210c	-0.006473666
93	0xbc2a467e	-0.010392783
94	0x3b2210cf	0.0024729257
95	0x3a314089	0.00067616306
96	0xba236633	-0.00062331854
97	0x3b14a593	0.0022681698
98	0x3a9e59ae	0.001208117
99	0xbb59b4d4	-0.0033219354
100	0x3927305c	0.00015944376
101	0xbd172f25	-0.036910195
102	0x3b164be7	0.0022933425
103	0xba99dc62	-0.0011738653
104	0x3c1fc09a	0.00975051
105	0x384735fd	4.7495578e-05
106	0xbc8cd15b	-0.017189672
107	0xbc343b09	-0.011000403
108	0x3af60593	0.0018769972
109	0xbb66d9fd	-0.0035225146
110	0x3c06053a	0.008179957
111	0xbbc8e66a	-0.006130983
112	0x3ae5553f	0.0017496719
113	0x3b59169c	0.0033125049
114	0xbc1b5c7f	-0.009482502
115	0x3a375183	0.0006993042
116	0x3b4efdea	0.003158445
117	0xbcdb0dbb	-0.026739946
118	0x3a93b095	0.0011267836
119	0x3bcc0b92	0.006226965
120	0xb9be8069	-0.00036335297
121	0x3a261c4f	0.0006336616
122	0xbc33c182	-0.010971429
123	0xb9bad2e5	-0.00035633813
124	0xbc4c19b7	-0.012457303
125	0xbc94e586	-0.018175852
126	0xbbc16ab4	-0.0059026126
127	0xbca71c1a	-0.020399142
128	0xbd30098e	-0.042977862
129	0xbc27a999	-0.010233306
130	0x3b84fa89	0.0040581864
131	0x3d26b44b	0.040699285
132	0x3d8d0a78	0.068867624
133	0x3dc28574	0.094981104
134	0x3b823d8a	0.003974621
135	0xbd84bb3a	-0.06481023
136	0xbc857e85	-0.01629568
137	0xbc2b1ff2	-0.010444628
138	0xbc2b48bf	-0.010454356
139	0xbd4109f0	-0.047128618
140	0x3c859df6	0.016310673
141	0x3d9c7ef8	0.07641405
142	0x3d70d78c	0.05879931
143	0xbda91b7e	-0.08257197
144	0x3d79ebd1	0.061015908
145	0x3c7c6322	0.0154044945
146	0xbd828137	-0.06372302
147	0x3bca91a1	0.006181911
148	0xbcb879d5	-0.022519032
149	0xbd60bf65	-0.054870028
150	0xbd81b581	-0.06333447
151	0xbd787560	-0.060658813
152	0x3c60dcbe	0.013724504
153	0xbcc549ad	-0.024082983
154	0xbbf01e93	-0.0073278635
155	0x3d198e43	0.037489187
156	0xbd8922e4	-0.06696108
157	0xbc8b8fa5	-0.017036268
158	0xbd580959	-0.05274329
159	0xbd9e9a5b	-0.07744285
160	0x3d217d60	0.039426208
161	0x3dd4b0d1	0.103852876
162	0xbc848946	-0.016178738
163	0x3dc8f34a	0.09812029
164	0xbd914927	-0.07094031
165	0x3d821c1c	0.06353018
166	0x3c2a9fed	0.010414106
167	0xbb403289	-0.0029326996
168	0xbc98020f	-0.01855567
169	0x3cd2cab2	0.025731418
170	0xbd4ea89b	-0.050453763
171	0xbd3c716d	-0.04600661
172	0xbd747ea3	-0.059691083
173	0xbcd7b80e	-0.026332881
174	0xbd97a19d	-0.07403872
175	0x3d2ee7bc	0.042701468
176	0xbd6c8729	-0.057746086
177	0x3d984f6f	0.07437026
178	0x3d601230	0.054704845
179	0x3db375bf	0.08762693
180	0x3d7c7251	0.061632458
181	0xbc84a760	-0.016193092
182	0x3d50136e	0.05079978
183	0x3da7d5b0	0.081950545
184	0x3d1f04ce	0.03882294
185	0xbcbf98ea	-0.023388345
186	0xbd0d3c1b	-0.03448115
187	0x3cd9a0cf	0.026565937
188	0xbd47f04b	-0.048813146
189	0x3dae5d54	0.08513895
190	0x3d8ffe8c	0.07030973
191	0x3d4150c2	0.047196157
192	0x39e838b5	0.00044292738
193	0x3a551681	0.00081286585
194	0x3b2437b4	0.0025057616
195	0x3abbfb6f	0.0014341901
196	0x3bb87fc6	0.005630466
197	0x3b5077d4	0.0031809704
198	0x3a6c20c7	0.000900757
199	0xba44f423	-0.0007513186
200	0x3b86c3cb	0.004112696
201	0x3aa9efd5	0.0012965152
202	0x3ab14b33	0.001352644
203	0x3aca04b9	0.0015412784
204	0x3a5e6f9d	0.00084852596
205	0x39d93ad2	0.0004143329
206	0x3b2ae2d1	0.0026075135
207	0x3b14820a	0.0022660517
208	0x3b492709	0.0030693433
209	0x3b62dd77	0.0034616867
210	0x3b94eb65	0.004544663
211	0xba661e77	-0.00087783433
212	0xbb3b815f	-0.0028611047
213	0x3c8ef756	0.017451923
214	0x3b79051f	0.0037997437
215	0x3a005bb9	0.000489648
216	0xba66ce9a	-0.000880459
217	0x3acdfbf3	0.0015715346
218	0x3ac8b62d	0.0015313082
219	0x3b1edbc3	0.0024239875
220	0x39fb3639	0.0004791485
221	0x3b970aa5	0.004609423
222	0x3b6dc297	0.0036279315
223	0x3a51b7dc	0.00080001145
224	0x3aea21a5	0.001786281
225	0x3b49cadc	0.003079108
226	0x3a6e9e00	0.00091025233
227	0x3b0bde82	0.0021342342
228	0x3add8d30	0.0016903039
229	0xbb935a90	-0.00449688
230	0x3b0283d7	0.0019915008
231	0x3a21ca52	0.00061718107
232	0x3c12172e	0.008916659
233	0x3a537a73	0.00080672576
234	0xbb3675e1	-0.0027841257
235	0x3b8dff6c	0.004333427
236	0x39a54850	0.0003152513
237	0xbb0882aa	-0.0020829835
238	0x3bbc7565	0.005751299
239	0xb97f0410	-0.00024320208
240	0x3b0d1d23	0.002153226
241	0x3b5e1a63	0.003389024
242	0xbaea962d	-0.0017897539
243	0x3b6dbf77	0.0036277452
244	0x3ab0e0fe	0.0013494787
245	0x3bbe608b	0.0058098487
246	0x3a722940	0.0009237714
247	0x3b9e5030	0.0048313364
248	0x3b0cbcef	0.0021474918
249	0x3a303c9c	0.00067228987
250	0x3a85ac36	0.0010198418
251	0x3acc3ac2	0.0015581476
252	0xbb957e57	-0.00456218
253	0x3a5f15fd	0.00085100514
254	0xb9f9d697	-0.00047652863
255	0x3a1b5d11	0.0005926649

lstm.lstm1.bias_hh_l0 f4 [256]
0	0x39884084	0.0002598801
1	0x3ac9ab7e	0.0015386192
2	0x3b260f7e	0.0025338824
3	0x3b53e8d2	0.0032334817
4	0x3bb71f30	0.0055884346
5	0x3b8f3505	0.004370334
6	0x3a72d4cb	0.0009263276
7	0x39933aa3	0.00028081713
8	0x3b868dc0	0.0041062534
9	0x3aab385f	0.0013063065
10	0x3b37d34d	0.002804953
11	0x3ae0ab68	0.0017140927
12	0x3a5e20c0	0.0008473508
13	0x39c95403	0.000384003
14	0x3abfba44	0.0014627655
15	0x3b13f15a	0.0022574277
16	0x3b494066	0.003070855
17	0x3b66bde4	0.0035208398
18	0x3b94ae32	0.0045373673
19	0xbacf341a	-0.0015808374
20	0x3b2f9073	0.002678898
21	0x3c8e9d02	0.017408852
22	0x3b787f91	0.0037917832
23	0x3a0046ce	0.0004893363
24	0xba9754f0	-0.0011545699
25	0x3acd8e5c	0.0015682685
26	0x3aca14cf	0.0015417578
27	0x3b21c92a	0.0024686554
28	0x39faf880	0.00047868863
29	0x3b94b496	0.004538129
30	0x3b7d660a	0.0038665556
31	0x3a566c40	0.00081795827
32	0x3aea4bb5	0.0017875346
33	0x3b2d8647	0.002647774
34	0x3a73c010	0.0009298334
35	0x3ad6351a	0.001634273
36	0x3adc6ddf	0.0016817412
37	0xbb959513	-0.00456489
38	0x3b020ddb	0.0019844684
39	0x3a204cbb	0.00061149494
40	0x3c0db776	0.0086496975
41	0x3a537044	0.000806574
42	0xbb4f926a	-0.0031672963
43	0x3b8509c0	0.00406
44	0x39afb96e	0.00033516757
45	0xbb17da39	-0.0023170842
46	0x3bbd1102	0.0057698498
47	0xb9485af1	-0.00019107365
48	0x3b0c11c6	0.0021372898
49	0x3b5e9a1b	0.0033966366
50	0xbaebee4a	-0.0018000093
51	0x3b947e0f	0.004531629
52	0x3aaef376	0.0013347703
53	0x3bb5ef2e	0.005552194
54	0x3a731da2	0.000927413
55	0x3b876de6	0.004132974
56	0x3b0c83ce	0.0021440866
57	0x3a30f759	0.0006750725
58	0x3a924fd5	0.0011162708
59	0x3acb3b66	0.0015505373
60	0x3b6a136a	0.0035717138
61	0x3b2e394d	0.0026584447
62	0xba11bc81	-0.00055594003
63	0xbb62efa4	-0.00346277
64	0xbc25ca0b	-0.010118972
65	0xbb6ad883	-0.0035834617
66	0x3b642763	0.0034813515
67	0x39e304df	0.00043300443
68	0x3b0b1432	0.0021221754
69	0xbcd30c01	-0.02576256
70	0x3a881f95	0.0010385389
71	0xbbf6252c	-0.0075117555
72	0x3af24609	0.0018484007
73	0x392264f7	0.00015487136
74	0xbc5de87a	-0.013544196
75	0x3a22cc1f	0.0006210226
76	0x3b211f5f	0.002458535
77	0xba47e4e8	-0.0007625357
78	0xbcec5479	-0.028848873
79	0xbaceb48f	-0.0015770363
80	0xbb739f0a	-0.0037173652
81	0xbcbc9099	-0.023018168
82	0x3b857716	0.004073034
83	0xbc777d43	-0.015105548
84	0xbaf5a004	-0.0018739705
85	0xbd0f96de	-0.035055988
86	0x39c20070	0.0003700289
87	0xbb5a4bb3	-0.003330928
88	0xbaac0c13	-0.0013126157
89	0xbb194546	-0.0023387237
90	0x3a89fa23	0.0010526817
91	0xbb7913f6	-0.0038006282
92	0xbbd4222f	-0.0064738016
93	0xbc2b2c56	-0.010447582
94	0x3ae8c8f2	0.0017760082
95	0x3a537d34	0.0008067668
96	0xba236634	-0.0006233186
97	0x3b0d1f3d	0.0021533512
98	0x3a9e59b4	0.0012081177
99	0xbb5a2232	-0.0033284542
100	0x392702d5	0.00015927416
101	0xbd1a8354	-0.0377229
102	0x3b14fec3	0.0022734858
103	0xba99de73	-0.0011739269
104	0x3c1cbbbd	0.009566245
105	0x38473cec	4.7502035e-05
106	0xbc8d9f49	-0.017287867
107	0xbc397a40	-0.011320651
108	0x3af6055c	0.0018769908
109	0xbb72fcbe	-0.0037076916
110	0x3c0604d1	0.008179859
111	0xbbcca0e1	-0.006244764
112	0x3ae55582	0.0017496797
113	0x3b582fe2	0.0032987525
114	0xbc1b5d40	-0.009482682
115	0x39132308	0.00014032063
116	0x3b4efdea	0.003158445
117	0xbcda9954	-0.02668444
118	0x3a93b095	0.0011267836
119	0x3bb627c0	0.005558938
120	0xb9be8069	-0.00036335297
121	0x3a261c4f	0.0006336616
122	0xbc33f44c	-0.010983538
123	0xb9bad2ee	-0.0003563384
124	0xbc675bd1	-0.014121012
125	0xbcba592b	-0.022747597
126	0xbbc15cf5	-0.005900974
127	0xbc9427b0	-0.01808533
128	0x3c5a8c67	0.013339139
129	0xbd7b95e4	-0.061422244
130	0x3d862df7	0.06551736
131	0x3da6a308	0.081365645
132	0x3d808044	0.06274465
133	0xbdabff74	-0.08398333
134	0xbcc15c31	-0.02360353
135	0xbd8b1378	-0.06790823
136	0xbd8a6341	-0.067572124
137	0x3d1bcd9d	0.038037885
138	0x3c97d302	0.018533234
139	0xbd804911	-0.06263936
140	0xbd01a395	-0.031650145
141	0xbb49f5da	-0.0030816705
142	0xbb87829f	-0.0041354443
143	0x3d2e7db9	0.042600367
144	0xbd1e98e7	-0.038720038
145	0xbdb95780	-0.090498924
146	0x3d2dd0d0	0.042435467
147	0xbc177875	-0.009245028
148	0xbcd98e15	-0.026557008
149	0xbde9e671	-0.11420906
150	0x3d1afa3a	0.03783629
151	0xbad84c6a	-0.0016502265
152	0x3d0bda57	0.034143772
153	0xbd6a0ebc	-0.057142958
154	0xbd1d4152	-0.038392372
155	0x3d3bb919	0.04583082
156	0xbb20149f	-0.0024426354
157	0xbd8cbf0f	-0.06872379
158	0x3d9cada2	0.07650305
159	0x3d44d8ed	0.04805844
160	0xbd6e76ff	-0.058218952
161	0x3d413e64	0.04717864
162	0xbcdcb73b	-0.02694284
163	0xbd45f77f	-0.048331734
164	0x3da8eb95	0.08248059
165	0xbd7f4f5e	-0.06233155
166	0x3c574844	0.013139788
167	0xbc973d49	-0.01846184
168	0xbb3ff3ed	-0.0029289678
169	0xbceea756	-0.029132526
170	0x3d731a91	0.059351508
171	0xbd097fae	-0.03356903
172	0x3cd02e54	0.025412716
173	0x3cb12ce6	0.021627855
174	0x3c7564ea	0.014977673
175	0xbdbbb68f	-0.0916568
176	0x3db37a1a	0.087635234
177	0xbdb232ef	-0.08701121
178	0xbd33339d	-0.043750394
179	0xbcf89acf	-0.030347256
180	0xbd026f99	-0.03184471
181	0xbdad4558	-0.08460492
182	0xbd743205	-0.059618015
183	0x3d8798a3	0.0662091
184	0xbd2cc617	-0.0421811
185	0xbd5aba25	-0.053400178
186	0xbd9747fa	-0.07386775
187	0x3a69c35a	0.0008917354
188	0x3d1dfc88	0.03857091
189	0x3dfc7a64	0.12328032
190	0x3d9561e1	0.072940595
191	0xbd131917	-0.0359126
192	0x3a0849d0	0.0005198987
193	0x3aa1387b	0.0012300158
194	0x3b265afe	0.0025383825
195	0x3b18d504	0.0023320327
196	0x3bb87edc	0.005630357
197	0x3bd34deb	0.0064484975
198	0x3a6c20c7	0.000900757
199	0x39a153c2	0.00030770717
200	0x3b86c3c9	0.004112695
201	0x3aa9efd5	0.0012965152
202	0x3a9fd4c6	0.0012194149
203	0x3aef65ce	0.0018264593
204	0x3a5e6f9d	0.00084852596
205	0x39d4a9b4	0.0004056223
206	0x3ae831dc	0.0017715055
207	0x3b14820a	0.0022660517
208	0x3b492770	0.0030693673
209	0x3b8154b4	0.003946865
210	0x3b94dedf	0.00454317
211	0xba8d4ee2	-0.0010780955
212	0x3b5a49c8	0.0033308137
213	0x3c938d67	0.018011762
214	0x3b79051f	0.0037997437
215	0x3a0007b2	0.0004883959
216	0xbaa52e24	-0.0012602252
217	0x3acdfbf3	0.0015715346
218	0x3ac8b62d	0.0015313082
219	0x3b1edbc3	0.0024239875
220	0x39fb46db	0.00047927242
221	0x3b99a83f	0.004689246
222	0x3b3b81ac	0.0028611226
223	0xb988a189	-0.00026060294
224	0x3aea21a5	0.001786281
225	0x3b3ecf26	0.002911517
226	0x3a6e9e00	0.00091025233
227	0x3af0f1af	0.0018382574
228	0x3add691e	0.0016892289
229	0xbba63e01	-0.0050733094
230	0x3b026880	0.0019898713
231	0x3a21d1db	0.00061729335
232	0x3c0c5619	0.008565449
233	0x3a5375d1	0.0008066567
234	0xbb3441d8	-0.0027505066
235	0x3b9106c7	0.0044258568
236	0x39a55a59	0.00031538567
237	0xbb083531	-0.0020783658
238	0x3bbc63dc	0.005749209
239	0xba3991c2	-0.00070789095
240	0x3b0d23b2	0.0021536169
241	0x3b62c831	0.0034604187
242	0xbaea6983	-0.0017884228
243	0x3b731295	0.0037089933
244	0x3ab0e0fe	0.0013494787
245	0x3bb9c006	0.005668643
246	0x3a722940	0.0009237714
247	0x3be95988	0.0071212687
248	0x3b0cbcef	0.0021474918
249	0x3a303c9c	0.00067228987
250	0x3a9fae1d	0.0012182627
251	0x3acc39be	0.0015581173
252	0xbb1cf4ca	-0.0023949617
253	0xba619cb1	-0.00086064177
254	0xb9fd68e9	-0.00048334085
255	0xbb2f3196	-0.0026732436

lstm.bn1.weight f4 [7]
0	0x3d00e398	0.03146705
1	0x3da4b74a	0.08042772
2	0x3e118d11	0.14213969
3	0x3e40fd3b	0.188466
4	0x3e3284b1	0.1743343
5	0x3e29e6e3	0.16591983
6	0x3f0c0f64	0.54710984

lstm.bn1.bias f4 [7]
0	0xba864419	-0.0010243683
1	0xbaff0cb4	-0.0019458742
2	0xba15322b	-0.00056913745
3	0x3bd3571d	0.0064495937
4	0x3c618598	0.013764761
5	0x3c4dbe91	0.012557642
6	0x3b4ef9f8	0.0031582098

lstm.bn1.running_mean f4 [7]
0	0xba6e2f4e	-0.00090860284
1	0xbab27f09	-0.0013618182
2	0xbad00b8b	-0.0015872581
3	0xbadeb525	-0.0016991241
4	0xbae5f46f	-0.001754416
5	0xbae984c3	-0.0017816055
6	0xbaeb41af	-0.0017948652

lstm.bn1.running_var f4 [7]
0	0x395f057b	0.00021268979
1	0x39f10af6	0.0004597527
2	0x3a206795	0.00061189506
3	0x3a35a28d	0.0006928824
4	0x3a405511	0.00073368946
5	0x3a459892	0.00075376884
6	0x3a4829f2	0.0007635645

lstm.lstm2.weight_ih_l0 f4 [256, 64]
0	0x38df514c	0.00010648611
1	0xb8f0cc29	-0.000114821196
2	0x397e1929	0.000242327
3	0x39882bbd	0.0002597253
4	0x39445f00	0.00018727407
5	0xb861e316	-5.385567e-05
6	0x37bc109f	2.2419086e-05
7	0xb76564a0	-1.3672892e-05
8	0xb786af99	-1.6055814e-05
9	0xb79e8854	-1.889855e-05
10	0xb8e12768	-0.00010736176
11	0xb97090cb	-0.00022942123
12	0x38865d41	6.406988e-05
13	0x383af2b6	4.4571898e-05
14	0x38b7f7b1	8.772256e-05
15	0x3908947b	0.00013025284
16	0x38c7891e	9.5145995e-05
17	0xb8978f71	-7.226959e-05
18	0x378e477e	1.696101e-05
19	0xb90284e5	-0.00012447273
20	0xb97d3fb0	-0.00024151686
21	0xb89a74a8	-7.365021e-05
22	0xb8afb0f5	-8.377611e-05
23	0xb836dad6	-4.359599e-05
24	0x394c1a93	0.00019464856
25	0xb8c822d4	-9.5432304e-05
26	0x38990e77	7.298303e-05
27	0x385e8512	5.3052856e-05
28	0xb854aa0e	-5.0703115e-05
29	0x381adbd1	3.692118e-05
30	0xb917011d	-0.00014400897
31	0xb8b58823	-8.65611e-05
32	0xb8162a64	-3.5802266e-05
33	0x394e1d9d	0.00019656723
34	0xb8481749	-4.77054e-05
35	0xb8ca9c68	-9.6612435e-05
36	0xb884cd56	-6.332497e-05
37	0x36fd44ae	7.547983e-06
38	0xb9330ba5	-0.00017075108
39	0x39026b33	0.00012437701
40	0xb94e928b	-0.00019700282
41	0x38d9bab9	0.00010382146
42	0xb7e9997e	-2.784724e-05
43	0xb7bb9266	-2.236031e-05
44	0x38051622	3.1730284e-05
45	0xb92172ed	-0.0001539697
46	0x38a8be83	8.04635e-05
47	0x3903c071	0.00012564824
48	0x38dd1d1c	0.00010543523
49	0x3953c12d	0.00020194492
50	0x38b99955	8.850048e-05
51	0xb528be3c	-6.2861704e-07
52	0x387f7c41	6.0912458e-05
53	0xb8856878	-6.361393e-05
54	0x38380b9f	4.387984e-05
55	0x390fe039	0.00013721072
56	0x3867f12c	5.52993e-05
57	0xb7388960	-1.099924e-05
58	0xb89240fb	-6.973926e-05
59	0x379c855b	1.8658748e-05
60	0xb84e5a29	-4.9198195e-05
61	0xb8ef37e4	-0.000114068185
62	0x38914d88	6.92858e-05
63	0x38c8dafc	9.577532e-05
64	0xbbe91b62	-0.00711386
65	0xbbc4bcfd	-0.0060039745
66	0x3bd6fd98	0.0065609924
67	0x3be39a1d	0.006945862
68	0x3bb8e734	0.005642796
69	0xbade4efb	-0.0016960794
70	0x3a3bee90	0.00071690325
71	0x3ad779a2	0.0016439448
72	0xba25d710	-0.00063262973
73	0x3aa8d8f5	0.0012882041
74	0xbbdaacc4	-0.0066734273
75	0xbbf71f13	-0.007541546
76	0x3abc751d	0.0014378164
77	0x3a0df0c4	0.00054146
78	0x3b86ade9	0.004110087
79	0xbb544be9	-0.0032393879
80	0x3b754ec7	0.0037430988
81	0x3abb0091	0.0014267137
82	0x3b6b51fb	0.0035907018
83	0x3b30932b	0.0026943188
84	0xbbf04641	-0.0073325937
85	0x394b8ac8	0.00019411289
86	0x3981e9ae	0.00024778902
87	0xbb8986ee	-0.004196993
88	0x3bd7301d	0.006567015
89	0x3ab4234f	0.0013743433
90	0xbac384b7	-0.0014916871
91	0xbac1f034	-0.0014796318
92	0xba6f7c63	-0.00091356615
93	0xbadb8aee	-0.0016749778
94	0xbbafd1fc	-0.0053656083
95	0xbbc8a4de	-0.0061231693
96	0xbb999cb2	-0.004687869
97	0x3bc84631	0.006111883
98	0xbb7c7dff	-0.0038527248
99	0xbb8bec2d	-0.0042700977
100	0xbaeb9ca7	-0.0017975763
101	0x3ba2606d	0.0049553425
102	0xbbef8cdb	-0.0073104925
103	0xb9c9ff32	-0.00038527843
104	0xbc0a1d80	-0.008429885
105	0xbb0976b9	-0.0020975305
106	0x3b2d7d40	0.002647236
107	0xbaa5059e	-0.0012590175
108	0x3b1bf950	0.0023799725
109	0xbb9d2c0e	-0.0047965115
110	0xb90a777b	-0.00013205216
111	0xbba338c9	-0.0049811346
112	0x387a05b3	5.9609953e-05
113	0x3bb64e3c	0.0055635255
114	0x38cddfa4	9.816818e-05
115	0x3b09023c	0.0020905873
116	0x3af279f3	0.0018499478
117	0x3b6980b1	0.0035629685
118	0xb8ca0e2e	-9.634752e-05
119	0x3b8c99a2	0.0042907754
120	0x3b3b29f0	0.0028558932
121	0xba6dc623	-0.0009070357
122	0xbbad53e0	-0.0052895397
123	0x3b8edcaf	0.0043598036
124	0x3ae5a59e	0.0017520671
125	0xba3302eb	-0.0006828743
126	0xbaa61a38	-0.0012672609
127	0x3b85cb89	0.004083101
128	0x3bfdb952	0.007743039
129	0xbc3f1779	-0.011663311
130	0x3c807eb0	0.01568541
131	0x3c6e033c	0.014527138
132	0x3c34316f	0.010998114
133	0x3b057232	0.0020362255
134	0x3b80abe7	0.0039267424
135	0xbb01bb21	-0.0019795375
136	0xba8f8788	-0.0010950426
137	0xb9e7ca76	-0.000442106
138	0xbc0bdfb1	-0.008537219
139	0xbc90c4b9	-0.01767193
140	0x3be3fe9a	0.006957841
141	0xba9ee808	-0.0012123594
142	0x3c0b67d7	0.008508644
143	0x3c2266f6	0.009912243
144	0x3c1efc34	0.009703685
145	0xbc0435fa	-0.00806951
146	0x3bc9c5fa	0.006157634
147	0xbc10ad2d	-0.008830351
148	0xbc78b643	-0.015180173
149	0xbb97d812	-0.004633912
150	0xba9e915f	-0.0012097767
151	0xbb8e377b	-0.00434011
152	0x3c4552be	0.012043653
153	0xbb3f5d9c	-0.0029200083
154	0x3bb34a98	0.0054715388
155	0x3bbec5c4	0.0058219153
156	0xbbb68a0e	-0.0055706566
157	0x3bc73ffb	0.006080625
158	0xbc5df16f	-0.013546332
159	0xbc00f76a	-0.007871488
160	0xbb98ce5d	-0.0046632723
161	0x3c0904fc	0.008363005
162	0xbb913fb4	-0.004432643
163	0xbc0e224f	-0.008675172
164	0xbbac1bcc	-0.005252337
165	0xba923201	-0.0011153818
166	0xbc567520	-0.013089448
167	0x3c4c61bb	0.012474473
168	0xbc611e09	-0.013740071
169	0x3bd909de	0.0066234907
170	0xbac549ea	-0.0015051935
171	0xbb034e95	-0.0020035852
172	0x3b4775c3	0.0030435182
173	0xbc324f4b	-0.010883163
174	0x3bfc5fc2	0.007701845
175	0x3c30f61f	0.010800867
176	0x3b5d7e18	0.0033797082
177	0x3c6bd79f	0.01439467
178	0x3c109057	0.008823476
179	0xbba447f7	-0.0050134617
180	0x3b5319e0	0.0032211468
181	0xb9c204c8	-0.00037006126
182	0x3b0e8d21	0.00217516
183	0x3ba9d6cb	0.005183076
184	0x3bb3f6fa	0.0054920884
185	0x3a904e14	0.0011009597
186	0xbc32b2a3	-0.010906848
187	0x3ba62316	0.0050701005
188	0xbb22c995	-0.002483939
189	0xbc3c0d91	-0.011477844
190	0x3a845fc5	0.0010099342
191	0x3c1b4470	0.009476766
192	0xb88d3f6f	-6.735219e-05
193	0xb88366bf	-6.265705e-05
194	0x3908797f	0.00013015232
195	0x388bf6e3	6.674023e-05
196	0x395533bc	0.00020332535
197	0x385b31a1	5.225989e-05
198	0xb6bf3c06	-5.699231e-06
199	0xb88b9df1	-6.6574554e-05
200	0xb907b428	-0.00012941717
201	0x389a60de	7.361335e-05
202	0x3917dae1	0.00014482021
203	0xb8bbbec2	-8.952386e-05
204	0x380878b2	3.2537333e-05
205	0x39665705	0.00021966927
206	0x386f1565	5.7001966e-05
207	0xb8635286	-5.4197873e-05
208	0x389071ff	6.8876885e-05
209	0x3783d6ef	1.5716503e-05
210	0xb837efc2	-4.3853892e-05
211	0xb85be5ad	-5.242757e-05
212	0xb90ffb55	-0.00013731171
213	0x37eb1280	2.8022798e-05
214	0xb7a8e09a	-2.0131749e-05
215	0xb8146297	-3.537777e-05
216	0x38eff9cc	0.000114429364
217	0xb883bd93	-6.281878e-05
218	0xb8b8651b	-8.792636e-05
219	0xb7e2b06d	-2.7023454e-05
220	0xb4a585aa	-3.0830898e-07
221	0xb864e5cb	-5.4573447e-05
222	0xb8d98079	-0.00010371296
223	0xb55725be	-8.0148664e-07
224	0xb80b332a	-3.3187833e-05
225	0x3933ff17	0.00017165799
226	0xb9017e9f	-0.00012349569
227	0xb8d67361	-0.00010225806
228	0x38a6fd3a	7.962664e-05
229	0xb83e27d7	-4.5336634e-05
230	0xb853f457	-5.053388e-05
231	0x375f2bd3	1.3302039e-05
232	0xb8873c19	-6.448496e-05
233	0x392b1250	0.00016314653
234	0x3888cad1	6.522763e-05
235	0xb9939bba	-0.0002815405
236	0x390d809f	0.00013494723
237	0xb8b8d656	-8.813727e-05
238	0xb712a8ca	-8.741577e-06
239	0xb782f90f	-1.5613185e-05
240	0x381497f2	3.542746e-05
241	0x391a4a1b	0.00014714191
242	0x36a09583	4.785777e-06
243	0x38a644ed	7.928335e-05
244	0x381fd035	3.8102462e-05
245	0xb9163434	-0.00014324562
246	0xb800d826	-3.0718882e-05
247	0xb8509090	-4.97257e-05
248	0x37e10ee3	2.6829022e-05
249	0xb6a04278	-4.7761096e-06
250	0xb899ca95	-7.3333424e-05
251	0xb6f7c40b	-7.383996e-06
252	0x3882c1c3	6.234974e-05
253	0x366ede78	3.5594257e-06
254	0x3972bd10	0.0002314935
255	0x36e06a04	6.688062e-06

lstm.lstm2.weight_hh_l0 f4 [256, 64]
0	0xb54de376	-7.669945e-07
1	0xb57384f4	-9.0718027e-07
2	0xb76d07b1	-1.4128092e-05
3	0x36258ecf	2.4670042e-06
4	0xb4eb0f83	-4.3783447e-07
5	0x377e38fb	1.5152847e-05
6	0x360b1a0c	2.0727775e-06
7	0x35a95fa2	1.2619314e-06
8	0x35c7e4db	1.4893261e-06
9	0x368798b4	4.0410905e-06
10	0x350ad9ea	5.172611e-07
11	0xb6ac12e8	-5.1282004e-06
12	0xb5d1561b	-1.5596773e-06
13	0xb662e7a3	-3.3811455e-06
14	0x35918b33	1.0843854e-06
15	0x361418b2	2.2068093e-06
16	0x361dc3bb	2.3508753e-06
17	0x368806da	4.0539135e-06
18	0x378fb50f	1.713124e-05
19	0xb7783f0a	-1.4796629e-05
20	0xb60fb5e1	-2.1414528e-06
21	0xb6a807ec	-5.0077124e-06
22	0x3511ad54	5.4268935e-07
23	0x37268713	9.92582e-06
24	0xb6ac4a28	-5.1346324e-06
25	0xb6aa06d1	-5.0671883e-06
26	0xb4f76a04	-4.6084472e-07
27	0x378ef70b	1.7042757e-05
28	0xb62d7e43	-2.5852503e-06
29	0xb4183f84	-1.417921e-07
30	0xb6b1de49	-5.3008885e-06
31	0x3608ff06	2.0414022e-06
32	0xb6da5bdd	-6.5076006e-06
33	0xb408304e	-1.268356e-07
34	0xb53030c9	-6.56361e-07
35	0xb716291f	-8.950271e-06
36	0xb75f26ab	-1.3300839e-05
37	0x36bec01f	5.684807e-06
38	0x344f2784	1.9292753e-07
39	0x375f9466	1.33263875e-05
40	0xb6fd7152	-7.55318e-06
41	0x35fa7bc7	1.8662475e-06
42	0x351c478a	5.821863e-07
43	0x366c74b5	3.5234673e-06
44	0x36a38665	4.873424e-06
45	0x3749b91e	1.2023635e-05
46	0xb6c7ef0a	-5.95849e-06
47	0x35391951	6.895471e-07
48	0x370de54a	8.45764e-06
49	0xb44a6c81	-1.885219e-07
50	0x36e4067a	6.7956835e-06
51	0x3702a42a	7.786826e-06
52	0xb6468b24	-2.958529e-06
53	0xb6a64cd5	-4.95613e-06
54	0xb72d5307	-1.0330935e-05
55	0x3672b44e	3.6165761e-06
56	0x37038497	7.839079e-06
57	0xb5b670e3	-1.3592911e-06
58	0xb6f45133	-7.2812195e-06
59	0xb838672e	-4.3965112e-05
60	0x37475eb4	1.1883374e-05
61	0xb81b0d19	-3.6967078e-05
62	0xb33fb622	-4.46363e-08
63	0xb64e8d2d	-3.0778567e-06
64	0xb78755f1	-1.6133274e-05
65	0x38f01b66	0.00011449195
66	0x3a00cbee	0.00049132004
67	0xb853eba7	-5.052579e-05
68	0xb7b12ede	-2.1121868e-05
69	0x3a390dde	0.00070592563
70	0x38c993ef	9.611982e-05
71	0x39c840a2	0.00038195128
72	0x37b897fd	2.2005284e-05
73	0xb9218864	-0.00015404966
74	0x3872401f	5.7757014e-05
75	0xb9529016	-0.00020080837
76	0x37d7c099	2.5719683e-05
77	0x3895c715	7.1419556e-05
78	0xb90946b3	-0.00013091676
79	0x38dd25fe	0.00010545178
80	0x37f7c880	2.953806e-05
81	0xb80088d0	-3.0644995e-05
82	0x39357c09	0.00017307712
83	0xb9af8a64	-0.0003348171
84	0x3754fce5	1.2695066e-05
85	0xb98142d4	-0.00024654588
86	0x37832bbe	1.5636786e-05
87	0x390de6a3	0.00013532727
88	0x38fa3167	0.00011930131
89	0xb89c4734	-7.451922e-05
90	0x390e7800	0.00013586879
91	0x395cdb59	0.00021062548
92	0xb8be5aff	-9.076855e-05
93	0xb8cc3146	-9.736656e-05
94	0xb90a67a7	-0.00013199319
95	0xb88c2603	-6.6828004e-05
96	0x38ddb1e0	0.00010571233
97	0x36ba1814	5.546035e-06
98	0x398f3fd6	0.00027322647
99	0xb8cb827f	-9.704101e-05
100	0xb93db39a	-0.00018091351
101	0x38a59ad5	7.896653e-05
102	0xb7a30d5c	-1.9437335e-05
103	0x39ea71ee	0.00044716842
104	0x39010b41	0.00012306591
105	0xb868915e	-5.5448494e-05
106	0x3793cf94	1.7620427e-05
107	0x390fa76d	0.00013699914
108	0x39480203	0.00019074236
109	0x390587a9	0.00012734406
110	0xb939cfa5	-0.00017720328
111	0xb77951f7	-1.48606405e-05
112	0x3721b05f	9.637412e-06
113	0xb91cabe7	-0.00014941358
114	0x39cfb837	0.00039619367
115	0x39416870	0.0001844482
116	0xb81eab4c	-3.7829668e-05
117	0xb902e340	-0.00012482423
118	0xb957ae21	-0.00020568866
119	0x37daa996	2.6066595e-05
120	0x3932f265	0.00017065702
121	0xb93b4300	-0.00017858669
122	0xb9b7c3b6	-0.00035050296
123	0xba314c2b	-0.0006763364
124	0x3911510c	0.0001385847
125	0xba379df0	-0.00070044305
126	0x39a2af13	0.00031029488
127	0x3852abc8	5.0227885e-05
128	0x39081b7f	0.00012980214
129	0xba5b31a6	-0.0008361585
130	0xb9f6b4dd	-0.0004705553
131	0x396608a8	0.00021937734
132	0x391152d4	0.00013859133
133	0x39927cfa	0.00027940405
134	0x3a2687d6	0.00063526386
135	0xbadf789d	-0.0017049495
136	0x3983cd70	0.0002513933
137	0x3aa2498e	0.001238154
138	0xb8ae0cc6	-8.299346e-05
139	0x39921b0c	0.00027867442
140	0xb9da0e33	-0.0004159078
141	0xb9ca060c	-0.00038532948
142	0x3a19c425	0.00058657146
143	0x39f88328	0.00047399965
144	0x392b71f0	0.00016350276
145	0x39a1ee52	0.00030885875
146	0x3a9f4b2f	0.0012153144
147	0xba9729f0	-0.0011532884
148	0x3915a237	0.00014270177
149	0x3a5e5ef5	0.00084827776
150	0x388e7cf6	6.7943634e-05
151	0xb9845258	-0.00025238353
152	0x3aa06a49	0.0012238707
153	0xba9e7e1f	-0.001209203
154	0xb9cf4fdd	-0.0003954162
155	0x3a8f4115	0.001092943
156	0xb7b6f78c	-2.1811364e-05
157	0x39acf72e	0.0003299056
158	0xb84c1e03	-4.866534e-05
159	0xb94efcb2	-0.00019739827
160	0xba554143	-0.000813503
161	0xba8535eb	-0.0010163164
162	0xb92d2f59	-0.00016516204
163	0xb9028f9e	-0.00012451268
164	0xb972e1ac	-0.00023162988
165	0x38d79c1b	0.00010281076
166	0x3a899d20	0.0010499097
167	0x39a0d892	0.00030678936
168	0xb864a42c	-5.4512333e-05
169	0x3a7c117b	0.0009615642
170	0x39046a05	0.00012627996
171	0xba104267	-0.0005503059
172	0x3a84f3ec	0.0010143495
173	0x3a08c9c8	0.0005218056
174	0xb98be822	-0.00026685098
175	0x395343bc	0.00020147761
176	0x3a968a52	0.0011485314
177	0x3a25b0fd	0.0006320624
178	0xba7e0229	-0.0009689653
179	0x397d7326	0.00024170856
180	0xb902ff01	-0.00012492762
181	0x393cb801	0.00017997624
182	0xba096ae6	-0.00052420644
183	0x39f7b7e1	0.00047248512
184	0x3a55af84	0.0008151459
185	0x39fae575	0.00047854675
186	0x3816f3d8	3.5989884e-05
187	0xbaffc560	-0.0019513778
188	0x3953fb70	0.00020216196
189	0xbae22d7b	-0.0017255986
190	0x3a27b3c9	0.00063973345
191	0x3903dd42	0.00012575559
192	0xb4e8cf90	-4.336439e-07
193	0x36a24fa4	4.8372476e-06
194	0x3771cd43	1.4412511e-05
195	0x35ee12a9	1.7737813e-06
196	0x361fcef9	2.381332e-06
197	0x381bce4f	3.714702e-05
198	0x375e5006	1.3250863e-05
199	0x37ae984c	2.0813335e-05
200	0x36bebd78	5.6844983e-06
201	0x368bec18	4.1700077e-06
202	0x3671806c	3.598655e-06
203	0xb6913af8	-4.3282016e-06
204	0x35c45899	1.4628923e-06
205	0xb5d44937	-1.5816539e-06
206	0xb68d1c98	-4.205456e-06
207	0x36b07b3f	5.2595565e-06
208	0x36a50267	4.917663e-06
209	0xb3d6ce73	-1.00027044e-07
210	0x377176b1	1.4392354e-05
211	0xb7a05a0c	-1.9115418e-05
212	0xb54f07ca	-7.7124844e-07
213	0xb7974d23	-1.8036522e-05
214	0x36422691	2.8930701e-06
215	0x37832d8d	1.5637628e-05
216	0x36167b90	2.2423665e-06
217	0xb69072fd	-4.304921e-06
218	0x362bd337	2.5603929e-06
219	0x378b9dda	1.6643597e-05
220	0xb6c4d03e	-5.8654978e-06
221	0xb68e9644	-4.249423e-06
222	0xb75d601c	-1.3195004e-05
223	0xb682548f	-3.884146e-06
224	0x35f7c703	1.8460854e-06
225	0xb4fa5307	-4.662654e-07
226	0x373f99b7	1.1420277e-05
227	0xb698b3b4	-4.550873e-06
228	0xb743fb63	-1.1681436e-05
229	0x36005126	1.912072e-06
230	0xb7389f95	-1.100441e-05
231	0x37c1990f	2.3078666e-05
232	0x363a6c9d	2.777938e-06
233	0xb6e0095d	-6.6768102e-06
234	0x36057bd2	1.9890617e-06
235	0x36604f22	3.3424662e-06
236	0x3714224a	8.829471e-06
237	0x37478956	1.18933e-05
238	0xb7353f15	-1.0803128e-05
239	0x359cfa34	1.1695724e-06
240	0x36bc68ff	5.6150598e-06
241	0xb6d4cb15	-6.341734e-06
242	0x37c53e60	2.3513276e-05
243	0x372aabc3	1.0172781e-05
244	0xb4234cfa	-1.5208562e-07
245	0xb6ec0e3b	-7.0350047e-06
246	0xb71eb7f3	-9.460363e-06
247	0x36bcf042	5.6308063e-06
248	0x375bdf5e	1.3105424e-05
249	0xb715af3d	-8.921893e-06
250	0xb7c923fc	-2.3977824e-05
251	0xb8467a3b	-4.7320715e-05
252	0x37502661	1.2406702e-05
253	0xb838d7ac	-4.406988e-05
254	0x3731485a	1.0566868e-05
255	0xb665c0ca	-3.4235877e-06
