073123/0811_experiment_1_revise_by_js.pth (torch, 642707 bytes, 37 tensors)

lstm.lstm1.weight_ih_l0 f4 [256, 12]
0	0xba28051d	-0.00064094533
1	0x3d9910d6	0.07473914
2	0x3de57c4f	0.112053506
3	0x3cc94a60	0.024571598
4	0xbcfd8e9d	-0.030951792
5	0xbd010806	-0.031501792
6	0xbd832dec	-0.06405243
7	0x3ba46cf6	0.005017872
8	0x3dadc41d	0.08484671
9	0xbd9520f4	-0.07281676
10	0xbbeae37b	-0.007168231
11	0xbe6e8cf8	-0.23295963
12	0x3c3d97ec	0.0115718655
13	0xbddabe53	-0.10680833
14	0x3cd75990	0.026287824
15	0x3d4ca514	0.04996212
16	0xbd07fe24	-0.03320135
17	0xbd8d1693	-0.06889071
18	0xbdccc2d1	-0.09998096
19	0xbc0d7303	-0.008633378
20	0xbd93fa7d	-0.07225511
21	0x3dc90aeb	0.098165356
22	0xbdafd5d2	-0.08585705
23	0x3e805b09	0.25069454
24	0x3e1bbf23	0.15209632
25	0x3d6647cd	0.05622082
26	0x3e19565d	0.14974351
27	0xbc8896fe	-0.016673561
28	0x3d3c5e55	0.0459884
29	0x3d9f0fe8	0.07766706
30	0xbc4b4858	-0.012407385
31	0x3dc3902b	0.09548982
32	0x3de892dd	0.11356137
33	0x3e3274b9	0.17427339
34	0x3e31856a	0.1733605
35	0x3e1e5a4f	0.15464137
36	0x3d87a653	0.06623521
37	0xbe1ac93e	-0.1511583
38	0xbdbb04b5	-0.09131757
39	0xbcfbb56a	-0.030726153
40	0xbe0cca38	-0.13749015
41	0x3d67a5cc	0.0565546
42	0xbe199441	-0.1499796
43	0x3cbee91f	0.02330452
44	0xbe35e220	-0.17762041
45	0xbd0b6f8a	-0.03404192
46	0xbcd6a2da	-0.0262007
47	0xbcba191e	-0.022717055
48	0xbdbd5420	-0.09244561
49	0xbdaf0701	-0.08546258
50	0x3d891571	0.06693543
51	0x3d8f08c4	0.06984094
52	0x3dd465e9	0.10371
53	0xbbe5b830	-0.0070104823
54	0xbdd6339c	-0.104590625
55	0xbdbde109	-0.09271438
56	0xbdc78e69	-0.097439595
57	0x3d6d24cd	0.057896424
58	0x3d7f7863	0.06237067
59	0xbbfa87b0	-0.0076455697
60	0x3c2c915a	0.010532701
61	0xbd0afd16	-0.033932768
62	0xbe1a52e5	-0.15070684
63	0xbd93a226	-0.07208662
64	0xbd13f4ba	-0.03612206
65	0x3d45e9be	0.048318617
66	0xbe059e66	-0.13048705
67	0xbc81a8d6	-0.015827578
68	0x3d331518	0.04372129
69	0xbddd6dc5	-0.108119525
70	0xbc66c5cf	-0.014085247
71	0x3cd0c4a9	0.0254844
72	0xbd995592	-0.07487024
73	0xbdc7e956	-0.09761302
74	0x3df2b79c	0.11851427
75	0xbde718db	-0.11284038
76	0xbb922c87	-0.0044608745
77	0x3da3a859	0.07991094
78	0x3d7d1bfa	0.06179426
79	0xbc652fe9	-0.013988473
80	0xbcede8ab	-0.029041609
81	0xbdc66177	-0.09686559
82	0xbc11fd40	-0.008910477
83	0xbe5877b5	-0.21139415
84	0xbd91588b	-0.07096966
85	0x3d1c5c2f	0.03817385
86	0xbda18304	-0.07886317
87	0x3dd870b5	0.10568372
88	0xbdd26b8e	-0.10274421
89	0x3d906621	0.070507295
90	0xbda6d9f2	-0.081470385
91	0xbc95e788	-0.01829888
92	0xbd0807a0	-0.033210397
93	0x3d636f3b	0.055526
94	0xbdbf18cf	-0.09330904
95	0x3cc4a27d	0.024003262
96	0x3c702fb8	0.014659815
97	0x3cf7c97d	0.030247444
98	0xbc86e3cc	-0.016466044
99	0xbe20f321	-0.15717746
100	0xbdc166d0	-0.09443438
101	0xbd57e2ab	-0.0527064
102	0x3cbb1ebc	0.022841804
103	0xbd2d4262	-0.042299636
104	0xbd81e7e8	-0.06343061
105	0xbe0b7b31	-0.13621213
106	0xbe36f402	-0.17866519
107	0x3cb26236	0.021775346
108	0xbd1f35e9	-0.038869772
109	0xbd93cbf8	-0.07216638
110	0xbdb45fe0	-0.08807349
111	0x3d7c194d	0.061547566
112	0x3d46ef60	0.04856813
113	0xbc4bbf42	-0.012435736
114	0xbe30ea63	-0.17276911
115	0x3db366aa	0.08759816
116	0xbca4deb5	-0.020125726
117	0xbd129e51	-0.035795514
118	0xbe1a4ce1	-0.1506839
119	0x3be88bd5	0.0070967474
120	0x3cd03b4b	0.025418898
121	0xbd13a27f	-0.03604364
122	0xbb9e595f	-0.004832431
123	0x3d6ca0ed	0.05777066
124	0x3ca51efd	0.020156378
125	0xbe0266cc	-0.12734526
126	0xbd7f0249	-0.06225804
127	0x3da99a64	0.08281401
128	0x3dcc4895	0.099747814
129	0xbdb5288d	-0.08845625
130	0x3c168d04	0.009188894
131	0xbd942b9c	-0.0723488
132	0xbd2a7595	-0.04161604
133	0x3c88b6c7	0.016688718
134	0x3d69f813	0.057121348
135	0x3d20a5da	0.03922067
136	0x3ca8c0f7	0.020599825
137	0x3db2d226	0.08731489
138	0x3d4bc3b9	0.049747203
139	0x3d89364d	0.0669981
140	0xbd89537b	-0.06705376
141	0xbda1bc00	-0.07897186
142	0xbdb607bb	-0.08888193
143	0x3e3ce148	0.18445313
144	0x3dcab4f5	0.09897796
145	0x3da94ef0	0.08267009
146	0xbd7ab0fe	-0.06120395
147	0xbdee1013	-0.1162416
148	0x3cdbda6e	0.026837554
149	0x3c3eb545	0.011639898
150	0x3d88410a	0.0665303
151	0x3d39b130	0.045334995
152	0xbe13f8ac	-0.1445033
153	0x3c8a7b15	0.016904393
154	0x3d85fea2	0.06542708
155	0xbc9ffd6f	-0.019530026
156	0xbe12bae1	-0.14329101
157	0xbd6fa76a	-0.058509268
158	0x3d3596c5	0.04433324
159	0xbdb91341	-0.090368755
160	0x3cce9b90	0.025220662
161	0xbdcbac40	-0.099449635
162	0x3d9ff225	0.07809857
163	0xbda43806	-0.08018498
164	0xbe20d900	-0.15707779
165	0xbd59e87a	-0.053200223
166	0xbcd36f5c	-0.025809936
167	0xbde2bcf8	-0.11071199
168	0x3ddbe158	0.1073634
169	0x3df7662b	0.12080034
170	0xbbfe7390	-0.007765241
171	0xb99194e7	-0.00027767496
172	0x3c28441b	0.010270144
173	0x3d80d701	0.06291009
174	0xbd15077d	-0.036384095
175	0x3df89620	0.12138009
176	0xbd99e881	-0.0751505
177	0x3cfa825e	0.030579742
178	0x3df4ef50	0.11959708
179	0x3e112b6b	0.14176719
180	0xbca29a1b	-0.019848874
181	0xbd26ab99	-0.040690992
182	0x3dccc3e2	0.09998299
183	0x3dd27d36	0.10277788
184	0x3c1e7160	0.009670585
185	0x3d47efb0	0.04881257
186	0xbd849719	-0.06474132
187	0xbd5759ac	-0.052575752
188	0xbdf960fb	-0.12176701
189	0xbd0cc199	-0.034364317
190	0x3d747e17	0.05969056
191	0x3daae954	0.08345285
192	0xbdeeb98d	-0.11656485
193	0x3d43c7bf	0.047797915
194	0xbdbdb81d	-0.092636324
195	0x3e089059	0.13336314
196	0xbdccb0e2	-0.09994675
197	0xbb6c3bcf	-0.003604639
198	0xbd50b0b1	-0.050949756
199	0xbd87a6ba	-0.066235974
200	0xbbed1f84	-0.007236423
201	0xbc5891db	-0.013218368
202	0xbc76ee59	-0.015071475
203	0x3cd121a3	0.025528735
204	0xbba22400	-0.004948139
205	0x3d8f6db1	0.07003344
206	0xbd88bdde	-0.06676839
207	0x3d911948	0.070849
208	0x3cc18294	0.023621835
209	0xbde88410	-0.11353314
210	0x3dfbbcbb	0.12291857
211	0x3d5aee2d	0.0534498
212	0xbc8d6d6d	-0.017264092
213	0x3da7c6a3	0.08192184
214	0xbddf0ed8	-0.10891503
215	0xbdad2e26	-0.08456068
216	0xbd98a2dc	-0.07452938
217	0x3c821078	0.015876994
218	0xbdb362a4	-0.087590486
219	0xbd104124	-0.035218373
220	0xbdd99f74	-0.106261164
221	0xbd41a74e	-0.047278695
222	0x3b8c34ef	0.004278771
223	0x3d91d793	0.07121196
224	0x3ce1e598	0.0275753
225	0x3db98e43	0.090603374
226	0x3db9b279	0.09067244
227	0x3e2c84f7	0.16847597
228	0x3d892474	0.06696406
229	0x3bde518b	0.006784623
230	0xbcaa2a30	-0.02077207
231	0xbe0ba980	-0.13638878
232	0xbd175c69	-0.036953364
233	0xbdcc42b8	-0.09973663
234	0xbb071cd4	-0.0020616548
235	0x3da5d1e2	0.080966726
236	0xbd846198	-0.06463927
237	0xbdfe8126	-0.12426977
238	0xbd4bfd5e	-0.049802177
239	0x3daea1a4	0.08526924
240	0xbd2ff217	-0.042955484
241	0x3dd7af17	0.105314426
242	0xbc8a5ca4	-0.016889878
243	0x3c9cefa3	0.019157236
244	0xbd5a3186	-0.053269885
245	0xbac1c9ce	-0.0014784874
246	0x3d81fd7b	0.06347176
247	0xbd518eff	-0.051161762
248	0xbe060d7a	-0.13091078
249	0xbe058104	-0.13037497
250	0xbd895bf7	-0.06706994
251	0xbd2efb1a	-0.042719938
252	0xbdd1a499	-0.10236473
253	0xbd96730d	-0.07346163
254	0xbdb64550	-0.08899939
255	0x3d94cb17	0.07265299

lstm.lstm1.weight_hh_l0 f4 [256, 64]
0	0xbd995368	-0.074866116
1	0x3e154939	0.14578713
2	0x3da5be6f	0.08092963
3	0x3dd585c3	0.10425904
4	0x3db3ab76	0.08772938
5	0x3d9c5866	0.07634048
6	0xbe1fd949	-0.15610231
7	0x3e04d4f8	0.12971866
8	0x3d0f369c	0.03496419
9	0xbde34541	-0.110971935
10	0x3d266812	0.040626593
11	0x3cb7ff02	0.022460464
12	0x3c6954e0	0.014241427
13	0xbdf05c4b	-0.117363535
14	0xbd846fb5	-0.06466619
15	0xbd7595ec	-0.05995743
16	0xbdb8109e	-0.089875445
17	0xbd80653f	-0.06269311
18	0xbd88d97a	-0.06682105
19	0xbdbf7e4d	-0.09350262
20	0xbd024523	-0.031804215
21	0x3ca3fe19	0.020018624
22	0xbde270f6	-0.11056702
23	0xbd72af79	-0.059249375
24	0x3cd7285f	0.026264368
25	0x3c83b574	0.016077735
26	0xbd64d011	-0.05586249
27	0xbd823d19	-0.0635931
28	0x3b87e79c	0.004147483
29	0xbd7476b8	-0.05968353
30	0x3d1a2afa	0.037638642
31	0x3ca1289f	0.01967269
32	0x3d2910e8	0.04127589
33	0xbbec2324	-0.0072063375
34	0x3cf44986	0.029820215
35	0x3af8fbea	0.0018995975
36	0x3dd21cef	0.10259425
37	0xbdd46754	-0.10371271
38	0x3dc3044c	0.09522304
39	0xbdd164a1	-0.102242716
40	0x3d127991	0.035760466
41	0x3c1cb664	0.00956497
42	0x3daf7aa0	0.08568311
43	0x3de0c816	0.10975663
44	0xbd93ab0c	-0.07210359
45	0x3ca623df	0.020280777
46	0x3d33ead3	0.043925118
47	0x3beb89a7	0.0071880403
48	0x3c44e320	0.012017041
49	0x3cc6002c	0.024170004
50	0x3dbd7a5d	0.092518546
51	0xbd58da61	-0.052942637
52	0x3d8921b0	0.066958785
53	0xbd128d19	-0.035779092
54	0xbd6046dd	-0.05475508
55	0xbd18a119	-0.03726301
56	0x3d31e782	0.043433674
57	0x3cd3a117	0.02583365
58	0xbdd863bd	-0.105658986
59	0x3db197db	0.08671542
60	0xbe11326c	-0.1417939
61	0x3d9d7740	0.07688761
62	0xbd68c221	-0.05682576
63	0x3c77c338	0.015122227
64	0xbdce342a	-0.10068543
65	0xbd5c5fe3	-0.053802382
66	0x3d09953a	0.03358958
67	0x3df417f0	0.11918628
68	0xbdb4d176	-0.08829014
69	0xbcf3c3cf	-0.029756455
70	0xbd0d0ee3	-0.034438025
71	0x3e06c6ba	0.13161746
72	0x3d03b55f	0.03215539
73	0xbc5206f6	-0.012819042
74	0x3e072e7f	0.1320133
75	0x3ce64db8	0.028113231
76	0x3c225eaf	0.00991027
77	0x3d07b4e8	0.03313151
78	0xbdbc2068	-0.091858685
79	0xbd8f6b0c	-0.070028394
80	0x3e37513a	0.17902079
81	0x3dc047f4	0.09388724
82	0xbddd31d2	-0.10800518
83	0xbe284645	-0.16433056
84	0xbdc611a6	-0.09671335
85	0x3c3d03d9	0.011536562
86	0xbc89613e	-0.016770002
87	0xbd277e43	-0.040891897
88	0x3d8920ff	0.06695747
89	0xbd3b0cef	-0.04566663
90	0x3e5ae379	0.21375836
91	0xbdceb351	-0.10092796
92	0xbd7eba5f	-0.062189456
93	0x3d13f259	0.036119793
94	0xbd54431d	-0.051821817
95	0xbe074bb3	-0.1321247
96	0x3e0f2fe0	0.13983107
97	0x3caf7f6f	0.02142307
98	0x3d5e9613	0.05434234
99	0x3d67fead	0.056639362
100	0x3d18b864	0.037285224
101	0xbdb9af6e	-0.09066664
102	0xbd82e52a	-0.06391366
103	0x3b14932f	0.0022670736
104	0xbd974a22	-0.073871866
105	0xbd86b671	-0.06577767
106	0x3e559d46	0.20860776
107	0x3d27a16f	0.04092544
108	0x3be86e5e	0.007093235
109	0x3d2f731a	0.04283438
110	0xbe1174d0	-0.14204717
111	0xbc26f075	-0.010189165
112	0xbda0c752	-0.07850517
113	0xbcfa8551	-0.030581148
114	0x3d02a71e	0.031897657
115	0x3d749bfd	0.059719075
116	0x3e18465c	0.1487059
117	0xbded9f56	-0.116026565
118	0xbd86b670	-0.06577766
119	0xbd48ee99	-0.04905567
120	0x3d8fba09	0.07017905
121	0x3d5484b8	0.051884383
122	0x3d885484	0.06656745
123	0x3d9f0713	0.07765021
124	0xbdaeddc0	-0.08538389
125	0x3e5c11f9	0.21491231
126	0x3c8340a3	0.016022032
127	0xbda8e12b	-0.082460724
128	0xbce3d6a5	-0.027812311
129	0x3ce9d928	0.028545931
130	0x3dcb9c98	0.09941977
131	0xbda1b2cc	-0.07895431
132	0x3df6d50e	0.12052356
133	0xbdfb3932	-0.122667685
134	0xbc691248	-0.01422555
135	0x3e07c47b	0.13258545
136	0xbd4a69a3	-0.04941715
137	0xbdd27fb0	-0.10278261
138	0xbd0bed87	-0.03416207
139	0xbc09dcea	-0.008414486
140	0xbdc4b194	-0.09604183
141	0x3d69ed61	0.057111148
142	0x3db320f5	0.087465204
143	0xbd2a972d	-0.04164808
144	0x3e27b3cd	0.16377182
145	0x3e6b5645	0.22982128
146	0x3cb097e2	0.021556798
147	0x3d658113	0.056031298
148	0xbd7d7688	-0.06188062
149	0x3c76a23b	0.015053327
150	0x3d722a99	0.059122656
151	0xbe1b0cfc	-0.15141672
152	0x3d4f1c24	0.050563946
153	0x3e6a93c2	0.22907928
154	0x3e605622	0.21907857
155	0x3bd3dfd5	0.006465892
156	0xbd086af1	-0.033305112
157	0xbd28e4a3	-0.04123367
158	0xbe239681	-0.15975381
159	0x3cefd667	0.02927704
160	0x3dfd7e42	0.123775974
161	0xbd569725	-0.052390236
162	0xbdffdc22	-0.12493159
163	0xbcc4aab7	-0.024007184
164	0x3dfca60d	0.12336359
165	0xbe15282a	-0.14566103
166	0xbdfbb5f7	-0.122905664
167	0x3ca9745d	0.02068537
168	0xbcaf2340	-0.021379113
169	0xbbcfd20c	-0.006342178
170	0x3ba4506b	0.0050144694
171	0x3db4c2eb	0.0882624
172	0xb722ace6	-9.6962085e-06
173	0x3dc6b43a	0.09702344
174	0xbe18cf12	-0.14922741
175	0x3e364325	0.17799051
176	0x3e379bbf	0.17930506
177	0xbd712355	-0.058871586
178	0x3e087bbb	0.1332845
179	0xbde9cfd4	-0.11416593
180	0xbc5b6ca6	-0.013392603
181	0xbdbbf296	-0.09177129
182	0x3c97e22d	0.018540466
183	0xbd5616c7	-0.052267816
184	0x3df4bec8	0.11950451
185	0x3c1599a0	0.009130865
186	0xbe1fd29c	-0.15607685
187	0x3d53798e	0.051629595
188	0x3d7aa28f	0.061190184
189	0x3e182042	0.14856055
190	0x3d7da736	0.061927043
191	0xbd4c8c56	-0.049938522
192	0x3c0b3b7d	0.00849807
193	0x3a206dd9	0.0006119884
194	0xbcaf56b1	-0.021403642
195	0x3c3a5825	0.011373554
196	0x3e136a6a	0.14396062
197	0xbd1a7748	-0.03771141
198	0x3de037d4	0.10948148
199	0xbdd308e3	-0.103044294
200	0xbdf2138f	-0.11820137
201	0xbc74b264	-0.01493511
202	0xbd0ea07d	-0.034821022
203	0xbe31d9a3	-0.17368178
204	0x3df842ec	0.12122139
205	0xbc4d5831	-0.0125332335
206	0xbdd54be8	-0.104148686
207	0x3c94b7be	0.018154021
208	0xbd0a1e69	-0.033720408
209	0x3da12dfe	0.078701004
210	0x3c39cea8	0.011340775
211	0xbdf46aa4	-0.119344026
212	0x3d8f87c3	0.07008316
213	0xbb30aaac	-0.0026957197
214	0x3d4ddf3f	0.050261732
215	0xbdd899bc	-0.105761975
216	0xbd00369d	-0.031302083
217	0x3daa56b2	0.08317317
218	0x3b0ae4dc	0.002119354
219	0x3ced240e	0.028947856
220	0x3b656a09	0.0035005829
221	0xbe290ae2	-0.16508058
222	0x3d15318c	0.036424205
223	0xbe08c138	-0.13354957
224	0x3c837d47	0.016050948
225	0xbc2c1ed0	-0.010505393
226	0x3d8ef843	0.06980946
227	0x3d5c55b1	0.05379266
228	0xbdb2caa0	-0.08730054
229	0xbe15cf46	-0.1462985
230	0xbd87f018	-0.06637591
231	0xbcb0e340	-0.021592736
232	0x3d09b0c4	0.033615842
233	0xbdd27f97	-0.10278242
234	0x3de014aa	0.10941441
235	0x3c3b26b1	0.011422799
236	0x3cec50f2	0.028847191
237	0xbe32ff0c	-0.17480105
238	0xbce27132	-0.027641866
239	0xbdb3a2c0	-0.087712765
240	0xbe0d6398	-0.13807523
241	0x3d3860e2	0.04501427
242	0x3c8041a8	0.015656307
243	0x3e28cb50	0.16483808
244	0x3d3ae854	0.04563172
245	0xbdf48734	-0.119398504
246	0x3e138272	0.1440523
247	0x3e17a33a	0.1480836
248	0x3d13be53	0.03607018
249	0xbc7cc0b3	-0.015426802
250	0x3ac0d1de	0.0014710983
251	0x3d6e35dd	0.058156837
252	0xbdbf8e47	-0.09353309
253	0x3d3d614a	0.04623536
254	0xbd948cf4	-0.07253447
255	0xbe439701	-0.19100572

lstm.lstm1.bias_ih_l0 f4 [256]
0	0xbdc856c9	-0.09782178
1	0xbd48ad75	-0.048993547
2	0x3e367ab0	0.17820239
3	0xbdb4c11a	-0.08825894
4	0xbdb2af9e	-0.087249026
5	0xbd9d37e2	-0.076766744
6	0xbdf4fa98	-0.119618595
7	0xbc97ffb6	-0.01855455
8	0xbd5e96d3	-0.054343056
9	0xbdf4b0b5	-0.11947767
10	0xba73a077	-0.00092936255
11	0xbd7c65ec	-0.061620638
12	0xbd41bb70	-0.047297895
13	0x3d0f7b5f	0.035029765
14	0x3e0dddd7	0.13854156
15	0x3ddfd4fd	0.10929296
16	0xbd3eafdf	-0.046554442
17	0x3d1cb7ec	0.03826134
18	0xbcce3feb	-0.025176963
19	0xbd548088	-0.05188039
20	0x3d21d7dc	0.0395125
21	0xbda175b4	-0.07883778
22	0x3cf3b6c7	0.029750241
23	0x3dae6c63	0.08516767
24	0xbde3f235	-0.11130182
25	0x3dc5d5dc	0.09659931
26	0xbd963cb8	-0.073358
27	0x3dd6f93f	0.10496759
28	0x3e0096d7	0.12557541
29	0xbde22399	-0.11041946
30	0x3d9d822f	0.07690846
31	0x3dc404e4	0.09571245
32	0xbd4f5188	-0.050614864
33	0xbe0c57dd	-0.13705392
34	0x3d830d92	0.06399073
35	0xbd83e3aa	-0.06439908
36	0xbd9c587b	-0.07634064
37	0xbd82b91d	-0.06382964
38	0xbde12d54	-0.10994974
39	0x3c416932	0.011804866
40	0x3dbbfbf4	0.091789156
41	0xbd31748a	-0.04332403
42	0x3d5c0112	0.05371196
43	0xbe2e782f	-0.17038034
44	0x3d417ec0	0.04724002
45	0xbdb9782d	-0.09056125
46	0x3d33b716	0.043875776
47	0x3d4b6fac	0.049667045
48	0xbd1e77f9	-0.038688634
49	0x3dad6307	0.084661536
50	0x3d82fc44	0.06395772
51	0xbb554494	-0.0032542096
52	0x3e38e493	0.18055944
53	0xbdb8b9a7	-0.090197854
54	0xbdb86d62	-0.09005238
55	0xbbdd8204	-0.006759884
56	0xbdc22330	-0.09479368
57	0xbc9e281c	-0.019306235
58	0x3d693128	0.056931645
59	0xbd05a278	-0.032625645
60	0xbdb990c8	-0.09060818
61	0x3da6ddb5	0.08147756
62	0xbdc658e5	-0.09684924
63	0x3c01b988	0.007917769
64	0x3dcc7880	0.09983921
65	0xbdec5286	-0.115391776
66	0xbe145b1d	-0.14487882
67	0xbd4a3fc2	-0.04937721
68	0xbc3cb958	-0.011518799
69	0x3a4468c5	0.00074924185
70	0x3bc60ba9	0.0060438705
71	0x3cdd2259	0.026993917
72	0x3d53cf97	0.051711645
73	0x3b39df6f	0.0028361937
74	0x3d1a1e8e	0.037626795
75	0xbe09e81b	-0.13467447
76	0xbd2dc021	-0.042419557
77	0xbe0e676e	-0.13906643
78	0xbb6aa74d	-0.0035805285
79	0xbd3dccfa	-0.04633806
80	0xbcae68b0	-0.021290153
81	0x3c608b67	0.013705111
82	0x3db3ae34	0.08773461
83	0x3db3a8aa	0.087724045
84	0x3d7ccee7	0.061720755
85	0xbdcf4039	-0.101196714
86	0xbbf48e17	-0.0074632275
87	0xbdc0260b	-0.09382256
88	0xbdd3ae22	-0.103359476
89	0x3d8526d1	0.06501544
90	0x3d5a102e	0.053238086
91	0xbdef9ec3	-0.11700203
92	0xbd0682f5	-0.032839734
93	0xbd23fc8e	-0.040035777
94	0xbde98b6c	-0.11403546
95	0x3dba3502	0.09092142
96	0xbcc82e20	-0.024436057
97	0xbe033a8a	-0.128153
98	0x3de1aaa4	0.11018875
99	0xbd3093c7	-0.04310968
100	0x3c34ccb4	0.011035133
101	0x3d19832d	0.037478615
102	0xbcedb542	-0.029017095
103	0xbdac898d	-0.08424673
104	0xbdb9f475	-0.090798296
105	0xbc1e99b4	-0.0096802
106	0x3d384a44	0.0449927
107	0xbdb7ad47	-0.08968597
108	0xbdc0a6be	-0.094068035
109	0xbc16eb03	-0.009211305
110	0xbd2ce372	-0.042209096
111	0x3d6d2661	0.05789793
112	0x3d33ccbd	0.043896426
113	0xbe07c72b	-0.1325957
114	0x3d740186	0.059571765
115	0xbd2ac51a	-0.041691877
116	0xbe1737f7	-0.14767443
117	0xbdacc63e	-0.08436249
118	0xbda60dea	-0.08108123
119	0x3b169392	0.0022976142
120	0xbdd237f9	-0.10264582
121	0x3db1659f	0.08661961
122	0x3d916c27	0.071007065
123	0xbc5762df	-0.013146131
124	0xbdd6499d	-0.10463259
125	0x3cadb42e	0.02120408
126	0x3d4fb472	0.050709195
127	0xbe28d548	-0.1648761
128	0x3cbd0b70	0.023076743
129	0xbce72ea1	-0.028220477
130	0x3dcc7cf3	0.0998477
131	0xbb34bb5c	-0.0027577495
132	0x3dbf5630	0.09342611
133	0xbd4b82da	-0.049685337
134	0xbd95934b	-0.073034845
135	0x3bb483ba	0.005508867
136	0x3dac0930	0.0840019
137	0xbc29762a	-0.010343114
138	0x3da8c21a	0.08240147
139	0xbdd1b2bd	-0.1023917
140	0xbd8aba31	-0.067737944
141	0xbde951d4	-0.113925606
142	0xbd4b8fa4	-0.049697533
143	0x3b977850	0.0046224967
144	0x3dc1394e	0.09434758
145	0xbca8f1bd	-0.020623082
146	0x3d5136ba	0.051077582
147	0x3d60a3c0	0.054843664
148	0x3d9274e9	0.07151205
149	0xbdc94ac1	-0.09828711
150	0xbda0cf64	-0.078520566
151	0xbda9883d	-0.082779385
152	0xbdcc5930	-0.09977949
153	0x3daf0c9a	0.085473254
154	0xbd67d8c1	-0.056603197
155	0xbcbfae4e	-0.023398545
156	0x3c0d167c	0.008611318
157	0x3dbbc5a5	0.09168557
158	0x3d63a1ae	0.05557411
159	0x3baaafa5	0.0052089267
160	0xbd92cb7c	-0.07167718
161	0xbda07e8a	-0.078366354
162	0xbdb0e339	-0.08637089
163	0x3d5b74dd	0.053578246
164	0xbdf23977	-0.11827367
165	0xbcab08c7	-0.020878209
166	0x3da44099	0.080201335
167	0x3d6b7fef	0.057495054
168	0xbd327dec	-0.04357712
169	0xbbae5145	-0.0053197467
170	0x3dc66319	0.0968687
171	0xbc207ee5	-0.009795879
172	0x3d66f0f9	0.056382153
173	0xbd3c2ec3	-0.045943033
174	0xbd0c6e24	-0.034284726
175	0xbd931456	-0.07181613
176	0x3d0052eb	0.031329077
177	0x3ced09a2	0.028935257
178	0xbddb4b79	-0.10707755
179	0x3b9e8d31	0.0048386087
180	0xbdb2ee79	-0.08736891
181	0x3c9ecc43	0.019384509
182	0xbd28d8e1	-0.041222457
183	0x3d48a969	0.048989687
184	0xbd49e925	-0.04929461
185	0x3d1d4687	0.03839734
186	0xbdd1e979	-0.102496095
187	0x3c63557e	0.013875363
188	0x3d9fcc2a	0.07802613
189	0xbc7d50bc	-0.015461143
190	0x3d036660	0.032080054
191	0xbd818429	-0.06324036
192	0x3dd55292	0.1041614
193	0xbda8936b	-0.08231243
194	0x3ddfb488	0.109231055
195	0xbd67c822	-0.056587346
196	0x3cea34ca	0.028589625
197	0x3b7bc809	0.003841879
198	0xbd397840	-0.045280695
199	0x3c1d2f88	0.009593852
200	0xbcf0d232	-0.029397104
201	0xbda10bbe	-0.07863568
202	0xbd96b34a	-0.073584154
203	0x3dd23b4a	0.10265215
204	0x3d3d0d3e	0.046155207
205	0xbd8fc9ca	-0.0702091
206	0x3d4c56a4	0.049887314
207	0xbc95d5aa	-0.01829036
208	0x3dc6f280	0.09714222
209	0x3bcf5190	0.0063268617
210	0xbd110825	-0.035408158
211	0x3cf09e87	0.029372467
212	0x3d78260b	0.060583156
213	0x3de04b6a	0.10951884
214	0xbe16a82f	-0.14712594
215	0xbd4a5c01	-0.049404148
216	0xbd1801c4	-0.03711106
217	0x3ddb5116	0.10708825
218	0x3d41e7bd	0.047340143
219	0x3d59cd4f	0.053174313
220	0x3cddc72b	0.02707251
221	0x3d976b22	0.07393481
222	0x3d81c0c3	0.063355945
223	0x3d7b2d9b	0.06132279
224	0x3d36358b	0.044484656
225	0xbdcfbbb7	-0.10143226
226	0x3d8d7e92	0.06908907
227	0xbda2e7bb	-0.07954355
228	0xbd339a16	-0.04384812
229	0xbc175d1f	-0.00923851
230	0xbe45c9a1	-0.19315197
231	0xbdee9e8f	-0.116513364
232	0x3d38c105	0.045105953
233	0xbdfcc0fd	-0.12341497
234	0xbdac757b	-0.08420845
235	0xbd887491	-0.06662858
236	0xbd70c15f	-0.058778163
237	0x3dece92a	0.1156791
238	0x3dc20470	0.09473503
239	0x3d2ce6b9	0.04221222
240	0xbd2c657d	-0.042088974
241	0x3cd620d7	0.026138706
242	0xbda525b0	-0.08063829
243	0x3d75f402	0.060047157
244	0x3d91384a	0.070908144
245	0x3bc5864b	0.006027972
246	0xbc36d0a0	-0.0111581385
247	0x3d5e76bb	0.05431245
248	0xbdb8f5f8	-0.0903129
249	0x3dd9eea5	0.10641221
250	0xbda1e745	-0.07905439
251	0x3c8ba598	0.017046735
252	0x3d1217a8	0.03566709
253	0x3c7e7178	0.015529983
254	0xbd0e2053	-0.034698796
255	0x3c749bd6	0.014929732

lstm.lstm1.bias_hh_l0 f4 [256]
0	0xbd924160	-0.071413755
1	0x3d324733	0.043524932
2	0x3d25d5c4	0.040487066
3	0xbe0acc90	-0.13554597
4	0x3d8cac94	0.06868854
5	0x3c8da412	0.017290149
6	0x3dd4eeee	0.10397135
7	0xbdf42e14	-0.11922851
8	0xbbf5fd1a	-0.0075069787
9	0xbdbb9592	-0.09159388
10	0xbd935a9a	-0.07195015
11	0x3d8fd9b2	0.07023944
12	0xbcc72a84	-0.024312265
13	0xbdc94392	-0.09827341
14	0xbd135f5e	-0.03597962
15	0x3dbe47dc	0.0929105
16	0xbd56d555	-0.052449543
17	0x3c5b83bd	0.013398108
18	0x3da2fe4b	0.07958659
19	0xbdd7bb5e	-0.10533784
20	0x3dcd43d3	0.10022702
21	0xbdc88b28	-0.09792167
22	0xbe0fe7fb	-0.14053337
23	0x3d7eb9e2	0.06218899
24	0xbd98b604	-0.07456592
25	0x3d256eb9	0.040388796
26	0x3d914ab2	0.07094325
27	0x3dc9435f	0.09827303
28	0xbda7301a	-0.081634715
29	0x3d8087d5	0.06275908
30	0xbadeab8a	-0.0016988378
31	0x3ddc31b9	0.10751671
32	0xbd12bca9	-0.03582445
33	0xbdd479fa	-0.10374828
34	0xbdf3f2c0	-0.11911535
35	0x3d88861b	0.066662036
36	0xbd5852e1	-0.052813414
37	0x3d73a9e5	0.059488196
38	0xbdcd889e	-0.10035823
39	0xbd6945b1	-0.05695123
40	0x3dca49b5	0.0987734
41	0xbe06e7b5	-0.13174327
42	0x3dba0c7f	0.09084415
43	0xbb8453cd	-0.00403831
44	0x3d80b5ff	0.06284713
45	0x3dd0bc63	0.10192182
46	0xbdd1fe68	-0.10253602
47	0xbcaa6a68	-0.020802692
48	0x3bdefba0	0.0068048984
49	0x3b5c4c49	0.0033614805
50	0x3adf1d86	0.0017022348
51	0x3e1eb136	0.15497288
52	0x3db243bd	0.08704326
53	0xbd37daa3	-0.044886243
54	0x3d9f864d	0.07789288
55	0xbd4a9336	-0.049456798
56	0xbc973e36	-0.018462282
57	0x3dfcc521	0.12342287
58	0x3c28580e	0.0102749
59	0x3dace697	0.08442419
60	0x3d1157d3	0.035484146
61	0x3dbe7037	0.09298747
62	0xbdebd398	-0.11514968
63	0x3d84da12	0.06486906
64	0x3d1221ef	0.035676893
65	0x3cb64d44	0.02225364
66	0x3cf4792c	0.029842936
67	0x3d0bd684	0.034140125
68	0x3dc69983	0.09697249
69	0xbdb12fb8	-0.0865168
70	0xbd61b4fa	-0.055104233
71	0xbdf34b3e	-0.11879586
72	0xbdd27e4e	-0.10277997
73	0x3d4ef0ac	0.05052249
74	0x3bbe456c	0.0058066156
75	0xba2aa2e4	-0.0006509258
76	0xbe1911d4	-0.14948207
77	0x3db18e7d	0.086697556
78	0xbd126250	-0.03573829
79	0x3db57f5f	0.08862185
80	0x3d832c7a	0.064049676
81	0x3ca1df72	0.019759867
82	0xbdcbd4ef	-0.09952723
83	0x3d18d621	0.037313584
84	0xbe0ea59b	-0.13930361
85	0xbd90548c	-0.07047376
86	0xbdbb6ffb	-0.09152218
87	0xbe08f0c0	-0.13373089
88	0x3da78f46	0.08181624
89	0x3c4640e6	0.012100434
90	0x3ce85bcd	0.028364087
91	0xbdb29b4a	-0.08721025
92	0xbe1ff3bc	-0.15620321
93	0x3dad25ea	0.08454497
94	0xbe2a90f4	-0.16656858
95	0xbbc7e74a	-0.00610057
96	0xbcd07bce	-0.02544966
97	0xbde03364	-0.10947302
98	0xbd9da322	-0.07697131
99	0xbc4daf23	-0.012553963
100	0x3c6a27ed	0.014291746
101	0xbce218bb	-0.027599683
102	0xbb45387d	-0.0030093484
103	0xbce31b12	-0.027722869
104	0xbd6a6741	-0.057227377
105	0x3d9dad16	0.07699029
106	0xbd924e2c	-0.07143816
107	0xbe20eae9	-0.15714611
108	0xbd0c6019	-0.034271333
109	0x3c677dd1	0.014129118
110	0x3c2f4637	0.010697893
111	0xbde9af44	-0.114103824
112	0x3c9184a0	0.017763436
113	0x3db4d64a	0.08829935
114	0xbdedb20a	-0.11606224
115	0xbdce1251	-0.10062087
116	0xbe01995a	-0.12656155
117	0xbbece742	-0.0072297165
118	0xbd407d01	-0.046994213
119	0x3cbd87b3	0.023135995
120	0x3dbd65d8	0.09247941
121	0xbd245e15	-0.040128786
122	0x3c64edf5	0.013972749
123	0xbde405b5	-0.11133901
124	0xbd9dc96c	-0.07704434
125	0xbdeec133	-0.116579436
126	0x3cb7170b	0.022349855
127	0xbb0d5ff9	-0.0021572097
128	0xbd3d3c39	-0.04620001
129	0x3d936bc7	0.07198291
130	0x3cd25b6b	0.025678357
131	0x3df0483a	0.11732526
132	0x3c94d786	0.018169176
133	0x3dd8a521	0.10578371
134	0x3dde66a4	0.10859421
135	0x3a09fc39	0.00052637194
136	0x3d93b97c	0.07213113
137	0xbcab7406	-0.020929348
138	0x3d697904	0.057000175
139	0x3d18ae2a	0.03727547
140	0x3d1a43d3	0.03766234
141	0x3de3828e	0.11108886
142	0x3da2f509	0.07956893
143	0xbc399696	-0.011327406
144	0xbb86b54c	-0.0041109677
145	0xbaae89cb	-0.0013316212
146	0xbccc11d9	-0.024910854
147	0x3d8fd7fa	0.07023616
148	0x3d9d35ca	0.07676275
149	0x3d070856	0.032966934
150	0xbdcd6b89	-0.10030276
151	0x3dc27a48	0.094959795
152	0x3c9e12e8	0.019296125
153	0xbd7f0663	-0.06226195
154	0x3bbe6237	0.005810048
155	0x3d9108b6	0.070817396
156	0x3d2250f1	0.039627973
157	0x3cf6ba91	0.030118259
158	0x3dae0c7f	0.08498477
159	0x3dc44c6f	0.09584891
160	0xbd0abde9	-0.03387252
161	0xbd87646f	-0.06610953
162	0xbdfdd64e	-0.12394391
163	0x3dbacca8	0.09121066
164	0x3d49dfaf	0.049285587
165	0x3d63f61e	0.055654638
166	0x3ba1cd78	0.004937824
167	0x39327488	0.00017018814
168	0x3d8ab2f2	0.06772412
169	0x3dd04c30	0.101707816
170	0xbd67e91d	-0.0566188
171	0xbd974476	-0.07386105
172	0xbd33ce7d	-0.043898094
173	0x3cfeacf8	0.031088337
174	0xbd194001	-0.037414555
175	0x3d4906fa	0.04907892
176	0xbdb41213	-0.0879251
177	0xbd88e1f7	-0.066837244
178	0xbd11312a	-0.035447277
179	0x3df1a1c7	0.11798435
180	0x3de5372d	0.111921646
181	0x3dbdf02a	0.09274323
182	0xbd4a86f9	-0.049445126
183	0xbde02ec6	-0.10946421
184	0x3c91da7a	0.017804373
185	0x3d8173a2	0.06320883
186	0x39af1b89	0.00033399116
187	0x3d93f3b2	0.072242156
188	0xbde67587	-0.11252885
189	0x3d3ad746	0.045615457
190	0xbc475a7a	-0.012167567
191	0xbcd11ec4	-0.025527366
192	0xbda889f2	-0.08229436
193	0x3d5b32dd	0.053515304
194	0xbbc35cde	-0.0059619984
195	0xbcec5b47	-0.028852118
196	0x3cf3f799	0.02978115
197	0x3d65f0cc	0.056137845
198	0xbc861e15	-0.016371766
199	0xbd8bf714	-0.06834236
200	0x3db7cfd6	0.089751884
201	0xbe0f8726	-0.14016399
202	0xbde4c101	-0.11169625
203	0xbdfad949	-0.12248475
204	0x3c9dece8	0.019278005
205	0x3d8ad610	0.067791104
206	0xbd5c46a7	-0.053778317
207	0xbd05d587	-0.03267434
208	0x3de1a91c	0.11018583
209	0x3dd957fb	0.10612484
210	0x3ba92a21	0.005162493
211	0x3c6672a9	0.014065423
212	0x3cd89648	0.026438847
213	0x3de800cb	0.11328276
214	0xbc31bdec	-0.010848504
215	0xbb554ea4	-0.0032548094
216	0x3dd754ac	0.10514197
217	0x3df56c25	0.119835176
218	0xbcb83b82	-0.022489313
219	0x3ddcdf54	0.10784784
220	0x3d68db9e	0.05685007
221	0x3da0a3f2	0.0784377
222	0x3ca96291	0.020676883
223	0x3d619e0b	0.055082362
224	0xbdbddedf	-0.09271025
225	0x3db06336	0.08612673
226	0xbdfa43da	-0.12219973
227	0xbe15377e	-0.1457195
228	0x3bad2a43	0.005284579
229	0xbca0ce45	-0.019629607
230	0xbdc49ab2	-0.09599818
231	0x3da1972f	0.07890164
232	0xbd780af0	-0.060557306
233	0xbdd7b8cb	-0.10533293
234	0xbd187577	-0.0372214
235	0xbbbefc94	-0.0058284495
236	0xbd87db72	-0.06633653
237	0x3d8410a4	0.064484864
238	0xbdc10c86	-0.09426217
239	0x3d96a5cc	0.07355842
240	0xbd0a71b8	-0.033799857
241	0xbb49ddd8	-0.0030802395
242	0xbdc1a9f4	-0.09456244
243	0x3c8b60c9	0.017013924
244	0x3c6903a2	0.014222058
245	0x3d7dac58	0.061931938
246	0xbd021121	-0.031754617
247	0xbce52199	-0.027970122
248	0x3dab05cf	0.08350717
249	0xbd240ad1	-0.040049378
250	0xbb3b6d82	-0.0028599207
251	0x3d8b831a	0.06812115
252	0x3c2acf48	0.010425396
253	0x3d5b8efe	0.053603165
254	0xbb8c548a	-0.004282539
255	0xbd396cf6	-0.04526993

lstm.bn1.weight f4 [7]
0	0x3f8168f8	1.0110159
1	0x3f7fb035	0.99878246
2	0x3f76d4e8	0.9641862
3	0x3f6a5d1b	0.9154832
4	0x3f657333	0.89628905
5	0x3f864a8b	1.0491499
6	0x3f86364c	1.048532

lstm.bn1.bias f4 [7]
0	0x3c9e3850	0.019313961
1	0x3cee25e3	0.0290708
2	0x3d171adf	0.03689086
3	0x3d1dc5af	0.038518604
4	0x3ce1cbc1	0.027562978
5	0x3d2def30	0.042464435
6	0xbcb727e0	-0.022357881

lstm.bn1.running_mean f4 [7]
0	0x3b11f26f	0.0022269746
1	0x3aff3ca5	0.001947303
2	0x3ac0d494	0.0014711791
3	0x3a9cbc0c	0.0011957898
4	0x3a8d920e	0.0010800974
5	0x3a88ea8c	0.0010445877
6	0x3a887745	0.0010411522

lstm.bn1.running_var f4 [7]
0	0x3a2ea074	0.00066614826
1	0x3aa4c19b	0.0012569906
2	0x3acbe76e	0.0015556642
3	0x3ade6764	0.0016968069
4	0x3ae72585	0.0017635083
5	0x3aeb5b29	0.0017956245
6	0x3aed6863	0.0018112775

lstm.lstm2.weight_ih_l0 f4 [256, 64]
0	0xbd464cc7	-0.048413064
1	0x3d68861d	0.056768525
2	0x3b23ebfc	0.0025012484
3	0xbd96165b	-0.07328483
4	0x3d49ccce	0.049267583
5	0xbd86ad18	-0.06575984
6	0x3d65e0a4	0.056122437
7	0xbd847c16	-0.0646898
8	0xbd23b043	-0.03996302
9	0x3d65c0c0	0.056092024
10	0xbd0d75db	-0.034536224
11	0xbcae054a	-0.021242756
12	0xbd4c0eb3	-0.049818706
13	0x3c5994fd	0.0132801505
14	0x3d59fe73	0.053221177
15	0xbdcda872	-0.10041894
16	0x3d39aa55	0.045328457
17	0x3cd9134b	0.026498457
18	0x3cae6ad8	0.021291181
19	0x3b82b77a	0.0039891573
20	0x3d5e95d3	0.054342102
21	0xbd101f25	-0.03518595
22	0xbd4cf1a6	-0.05003514
23	0x3dab59b6	0.083667204
24	0xbd22645c	-0.03964649
25	0x3d652d32	0.055951305
26	0xbd178dea	-0.037000574
27	0x3ca4b473	0.020105576
28	0xbcdd4d7f	-0.027014492
29	0x3dff0333	0.12451782
30	0xbe03312c	-0.12811726
31	0x3d836ab7	0.064168386
32	0xbd988301	-0.07446862
33	0xbce87bed	-0.028379405
34	0xbcb85242	-0.022500161
35	0x3d41c243	0.047304403
36	0xbcfc1ac5	-0.030774483
37	0xbd27ddf2	-0.040983148
38	0xbdafe3a1	-0.08588339
39	0x3d7d7b48	0.06188515
40	0x3e221d56	0.15831503
41	0xbd090426	-0.033451222
42	0xbe0ec1c1	-0.13941099
43	0x3dec9a8a	0.115529135
44	0x3d5554c6	0.0520828
45	0x3db5f219	0.08884067
46	0x3dee82a9	0.11646015
47	0x3cfd8733	0.030948257
48	0xbc2fbebd	-0.010726628
49	0xbdd442f0	-0.1036433
50	0x3e1cc7b6	0.15310559
51	0xbdf4d066	-0.11953811
52	0xbd5df33f	-0.054187056
53	0xbccc5b14	-0.024945773
54	0x3dad8c7f	0.08474063
55	0xbcd4b54e	-0.025965359
56	0x3e1120c6	0.14172658
57	0x3def9aee	0.11699472
58	0x3b395576	0.0028279698
59	0xbdb7bfc6	-0.08972125
60	0x3dfe3767	0.12412911
61	0x3dca5cc3	0.09880974
62	0xbdac9da1	-0.08428503
63	0x3e2ca851	0.16861083
64	0xbbd922c9	-0.006626461
65	0xbd1568ce	-0.036476903
66	0x3dac3751	0.08408988
67	0x3cdc69a5	0.026905844
68	0xbcfcea01	-0.0308733
69	0xbcf97418	-0.030450866
70	0x3db86b83	0.09004881
71	0x3c3a8441	0.011384071
72	0x3da1db1c	0.0790312
73	0xbd209ba4	-0.03921093
74	0xbd863583	-0.06553175
75	0x3d857a98	0.065175235
76	0x3d8db0fe	0.06918524
77	0x3db5b997	0.08873289
78	0xbdaaa371	-0.08331955
79	0xbc0735d0	-0.008252576
80	0x3e083a0b	0.13303392
81	0x3d8fd3e2	0.07022835
82	0x3d5e1a7d	0.05422448
83	0xbdafac98	-0.085778415
84	0x3df20b1b	0.118185245
85	0xbc330e80	-0.01092875
86	0xbdff1d9e	-0.12456821
87	0x3e06ad03	0.13151936
88	0x3d9a5aac	0.075368255
89	0x3dd9db85	0.10637573
90	0xbda4b7ec	-0.08042893
91	0x3e12e5bb	0.14345448
92	0xbd1ab047	-0.037765767
93	0x3cecd42e	0.028909769
94	0xbe2c05df	-0.16799115
95	0x3e1b863e	0.15187928
96	0x3ce0e47c	0.0274527
97	0x3d4f785a	0.050651886
98	0xbc65130a	-0.01398159
99	0x3ddde971	0.10835541
100	0x3db45ac7	0.08806377
101	0xbe1e7f14	-0.15478164
102	0xbc8df876	-0.01733039
103	0xbd44e449	-0.048069272
104	0x3d6eb4cd	0.058277894
105	0xbce43c49	-0.027860777
106	0x3df664f4	0.12030974
107	0xbdc11177	-0.09427159
108	0x3d883242	0.06650211
109	0x3e2feded	0.17180605
110	0x3d767217	0.0601674
111	0x3da6c2e6	0.08142643
112	0x3e17121f	0.14753006
113	0x3e0b8020	0.13623095
114	0x3db2ac07	0.08724218
115	0x3d81f9b2	0.06346454
116	0xbcb575c0	-0.022150874
117	0x3d83f5fd	0.06443403
118	0x3a9214e5	0.0011145143
119	0xbd259879	-0.040428612
120	0xbde6fc4a	-0.11278589
121	0xbd8c4486	-0.06849007
122	0xbd3086ec	-0.04309742
123	0x3d42abc0	0.047527075
124	0xbd5d8516	-0.054082
125	0x3d663478	0.05620238
126	0x3c8f4657	0.017489595
127	0x3d052217	0.032503214
128	0xbcc653a8	-0.024209812
129	0xbc73a119	-0.014869952
130	0xbd9cc3a5	-0.07654504
131	0xbd8205ff	-0.063488
132	0x3dedc36e	0.11609541
133	0x3d7b95fc	0.061422333
134	0xbdd82dc4	-0.10555604
135	0x3ca0c340	0.019624352
136	0x3deca950	0.11555731
137	0xbd8c6ecd	-0.06857071
138	0x3ded8f9a	0.115996554
139	0x3d2c1663	0.042013537
140	0xbdb925ae	-0.0904039
141	0x3d778bff	0.060436245
142	0xbd599c9a	-0.053127863
143	0x3d1f5845	0.03890254
144	0x3d81369f	0.06309246
145	0xbd48866b	-0.048956316
146	0xbd7fbcef	-0.06243604
147	0x3d211000	0.0393219
148	0xbde759e1	-0.1129644
149	0x3d1b942f	0.037983116
150	0x3d52ee15	0.051496584
151	0xbd70f339	-0.058825705
152	0xbd5b51c0	-0.05354476
153	0x3e1d6f30	0.15374446
154	0x3e05cc33	0.13066177
155	0xbd944521	-0.07239748
156	0x3d88fba6	0.06688623
157	0x39a8e450	0.00032213563
158	0xbe07f79c	-0.13278049
159	0x3c5b2837	0.013376287
160	0x3d85f96b	0.06541713
161	0x3d05d6b1	0.03267545
162	0xbda01ff3	-0.07818594
163	0x3da32a82	0.07967092
164	0x3d67db47	0.056605604
165	0xbdca60df	-0.09881758
166	0xbe1301f6	-0.14356217
167	0x3c2ecbf0	0.01066874
168	0x3d1e8cdc	0.038708553
169	0xbdcf57e1	-0.101241834
170	0xbd07ea05	-0.033182163
171	0xbdb1f080	-0.0868845
172	0x3d858c5d	0.06520913
173	0x3d22a49e	0.039707772
174	0x3d1cdd1d	0.038296808
175	0xbdb90a36	-0.09035151
176	0xbc8925ae	-0.0167416
177	0x3be1a0b6	0.0068856133
178	0x3ccb0243	0.024781352
179	0xbe104289	-0.14087881
180	0x3e1e7cf8	0.1547736
181	0x3da62da6	0.081141755
182	0x3daeaf40	0.0852952
183	0xbd7e1ed0	-0.062041104
184	0x3ce43515	0.027857343
185	0x3d9ab0dd	0.07553265
186	0xbd1f0489	-0.038822684
187	0x3d828c07	0.06374364
188	0xbddbaf24	-0.10726765
189	0xbc1ec5dd	-0.009690729
190	0x3d7e6772	0.062110372
191	0xbc93cbad	-0.018041456
192	0x3ca54e0c	0.020178817
193	0x3dd6fb60	0.10497165
194	0xbb9ef3ba	-0.004850832
195	0xbc65878d	-0.014009369
196	0x3ba5f6ef	0.005064837
197	0xbd673729	-0.05644909
198	0x3d655f5b	0.05599914
199	0x3d9a7128	0.07541114
200	0xbdb11c2c	-0.086479515
201	0x3d4f6330	0.050631702
202	0xbd8fa7eb	-0.0701445
203	0xbd43e694	-0.04782732
204	0x3dc9e3e3	0.09857919
205	0x3c5fc2a6	0.013657248
206	0xbe3f70a9	-0.1869532
207	0x3bfc4b97	0.0076994407
208	0x3e1a9071	0.15094163
209	0x3d919624	0.07108715
210	0x3e02730c	0.127392
211	0xbde6e0f4	-0.11273375
212	0xbd6b2090	-0.0574041
213	0xbe0023ab	-0.12513606
214	0xbc95f3c1	-0.018304707
215	0xbdf0e2e8	-0.11762029
216	0x3df66ca1	0.12032438
217	0xbd94bf1e	-0.07263015
218	0xbd822ba1	-0.06355978
219	0x3c34ce78	0.011035554
220	0xbd4cba07	-0.049982097
221	0x3e164bdb	0.14677374
222	0x3d9d284b	0.07673701
223	0x3d921a7b	0.07133957
224	0xbe0fce83	-0.14043622
225	0xbdafd3e5	-0.085853375
226	0xbdc0a21d	-0.09405921
227	0x3c6db429	0.014508286
228	0x3d77badc	0.060480937
229	0xbe0f0cdc	-0.13969749
230	0x3c64d624	0.013967071
231	0xbc0ed101	-0.008716823
232	0x3dd6257a	0.10456367
233	0x3d0ce540	0.034398317
234	0x3dc5665b	0.096386634
235	0xbbced109	-0.00631154
236	0xbd942bc9	-0.07234914
237	0xbd7713c5	-0.060321588
238	0x3d594e17	0.053052988
239	0x3d283446	0.041065477
240	0x3df583f0	0.11988056
241	0xbe0d42d5	-0.13795026
242	0xbd07d2ea	-0.033160128
243	0xbc35fd69	-0.011107781
244	0xbcaced91	-0.021109374
245	0x3dd51ea7	0.10406237
246	0xbd5fefc7	-0.05467203
247	0xbd96213d	-0.073305584
248	0xbdb455e0	-0.08805442
249	0x3e122d47	0.14275084
250	0x3d85da18	0.06535739
251	0x3d0c2bcf	0.034221467
252	0x3bfd41be	0.0077287843
253	0x3ddc9abc	0.10771701
254	0x3d93fcb2	0.07225932
255	0xbdb1c249	-0.08679635

lstm.lstm2.weight_hh_l0 f4 [256, 64]
0	0xbd8aa1c0	-0.067691326
1	0x3e0b4187	0.13599215
2	0x3c86855c	0.016421013
3	0xbd85b0a7	-0.065278344
4	0x3d6d104f	0.05787688
5	0xbd51fac7	-0.05126455
6	0xbdb6cae0	-0.08925414
7	0x3cf41473	0.029794907
8	0x3cb9f707	0.0227008
9	0x3d9615ad	0.07328353
10	0xbddb9f8e	-0.10723792
11	0xbd9c69b2	-0.07637347
12	0xbdf7b0d7	-0.120942764
13	0x3df5a5ec	0.11994538
14	0x3d638d0a	0.055554427
15	0x3d275ebc	0.04086183
16	0x3dae5cef	0.085138194
17	0x3dcb1da2	0.099177614
18	0xbc87b00f	-0.016563443
19	0xbdd5e09b	-0.10443231
20	0x3c05b052	0.008159714
21	0xbd88df6d	-0.0668324
22	0x3d7f4341	0.062319998
23	0x3ce06c39	0.027395355
24	0x3dd4984b	0.1038061
25	0xbdd56885	-0.10420326
26	0xbc000032	-0.007812547
27	0xbe019757	-0.12655388
28	0xbcd79951	-0.026318224
29	0x3d93941a	0.072059825
30	0xbdd4a84b	-0.10383662
31	0xbccc0fa4	-0.024909802
32	0x3e0164f8	0.12636173
33	0xbd2e55dd	-0.042562354
34	0xbdf1b3a2	-0.1180184
35	0xbd87437e	-0.0660467
36	0xbd6020bc	-0.054718718
37	0x3db59e90	0.08868134
38	0xbe09eec8	-0.13469994
39	0xbd746d3d	-0.05967449
40	0x3c6a7834	0.014310885
41	0x3dcde1af	0.10052811
42	0xbe04eaef	-0.12980245
43	0x3de5fcd7	0.11229866
44	0xbc619b61	-0.013769955
45	0x3e119eac	0.14220685
46	0x3dc58b5b	0.096457206
47	0xbdbb05a7	-0.091319375
48	0xbd4b5cdc	-0.049649104
49	0xbc1fc925	-0.009752546
50	0xbb8213ee	-0.003969661
51	0x3e03d284	0.12873274
52	0x3be50a90	0.0069897845
53	0x3cd657ef	0.026164977
54	0xbcdbccd3	-0.026831066
55	0x3df2c0ed	0.11853204
56	0xbd2b5878	-0.041832417
57	0xbda193da	-0.078895286
58	0x3ce06040	0.027389646
59	0xbd9bb1e6	-0.07602291
60	0xbdc213db	-0.094764434
61	0xbc8f7071	-0.01750967
62	0xbdb1154e	-0.08646642
63	0x3dafea11	0.085895665
64	0x3d659466	0.056049727
65	0xbc882f8f	-0.01662424
66	0xbe18c210	-0.14917779
67	0x3e0c5ade	0.13706538
68	0x3dcf346b	0.1011742
69	0x3e0f2dd9	0.13982333
70	0x3e0915f3	0.13387279
71	0x3de8ff19	0.11376781
72	0x3d7a1d1b	0.061062913
73	0xbd10f745	-0.035392065
74	0x3c54bf8b	0.0129851205
75	0x3cef35db	0.029200485
76	0xbc70a681	-0.014688135
77	0x3d7e285d	0.062050212
78	0xbd7d6731	-0.06186599
79	0x3db8db00	0.09026146
80	0x3c6b9d3b	0.014380748
81	0xbdd8ab92	-0.105795994
82	0xbc0499bd	-0.008093295
83	0xbd268537	-0.040654387
84	0xbd89fb25	-0.06737355
85	0x3df43db4	0.119258314
86	0xbd796d0e	-0.06089502
87	0xbe0513b4	-0.12995797
88	0x3d00ed13	0.03147609
89	0xbb0ea471	-0.0021765495
90	0x3d2a3920	0.041558385
91	0xbda148f7	-0.07875245
92	0xbe32dacf	-0.17466281
93	0xbd6ff2ae	-0.058581047
94	0xbe3a0d4c	-0.18169135
95	0xbd8e6d1a	-0.06954403
96	0xbdf3bb18	-0.1190092
97	0x3c0c0fb7	0.008548669
98	0xbd8c28e2	-0.06843735
99	0xbdcbe75e	-0.09956239
100	0xbc1ab2f1	-0.009442077
101	0x3d0ec28b	0.0348535
102	0x3d1b39c1	0.037896875
103	0x3dd0a053	0.101868294
104	0xbdd2bed8	-0.10290307
105	0x3dc68735	0.096937574
106	0x3d731ecf	0.059355553
107	0xbc8f624d	-0.017502928
108	0x3c8c502a	0.017128069
109	0xbd8d1ec4	-0.06890634
110	0xbd18c91f	-0.03730118
111	0x3dc729e6	0.09724788
112	0x3e252553	0.1612752
113	0xbe24c97f	-0.1609249
114	0x3c50ddc2	0.012748184
115	0x3e0c3381	0.13691522
116	0x3db6c370	0.089239955
117	0xbe135b2b	-0.14390247
118	0xbd03585f	-0.0320667
119	0xbd0110ec	-0.03151028
120	0xbdeff0c7	-0.117158465
121	0x3da48989	0.08034045
122	0x3e15b8b2	0.14621237
123	0xbd211b47	-0.039332654
124	0xbbcf385a	-0.0063238563
125	0x3c8ecb0c	0.017430805
126	0xbe3212c0	-0.17389965
127	0xbe1206b4	-0.1426037
128	0x3db4d5b6	0.088298246
129	0xbd9c7ea8	-0.07641345
130	0x3d62dcf6	0.055386506
131	0x3db585f6	0.08863442
132	0x3d7cca12	0.061716147
133	0xbdfb8efd	-0.12283132
134	0xbc5bb7b8	-0.013410501
135	0x3d112c79	0.035442803
136	0xbcd7cdbf	-0.026343225
137	0x3c0a89e8	0.008455731
138	0xbd3bcedb	-0.04585157
139	0x3d90cef0	0.0707072
140	0xbdf8e5a8	-0.121531785
141	0xbda01ab6	-0.07817595
142	0x3ac3dcd7	0.0014943135
143	0x3d9f9d45	0.07793669
144	0x3d79ded3	0.061003517
145	0xbd968cfb	-0.07351109
146	0xbde72c8c	-0.112877935
147	0xbcb7d650	-0.02244106
148	0x3c896d3d	0.016775722
149	0xbda15923	-0.078783296
150	0xbc8c5ecd	-0.017135048
151	0xbbdd1bc9	-0.006747697
152	0x3d235464	0.039875403
153	0x3e01ce65	0.1267639
154	0xbd181489	-0.03712896
155	0x3d9109e4	0.070819646
156	0x3e0ad30d	0.13557072
157	0x3dffb418	0.12485522
158	0x3dad3ecd	0.08459244
159	0xbcef10e0	-0.029182851
160	0xbdc54505	-0.09632305
161	0x3d8c7c54	0.06859651
162	0xbd0a80c4	-0.033814207
163	0x3c395179	0.0113109285
164	0x3d95d056	0.073151276
165	0xbcd501a3	-0.026001757
166	0xbd70155e	-0.058614127
167	0xbd518413	-0.051151346
168	0x3c9980fa	0.018738259
169	0x3b91aa83	0.0044453754
170	0xbda655c9	-0.08121831
171	0x3d75eb97	0.06003913
172	0x3d29ed52	0.041486092
173	0x3d9d0952	0.07667793
174	0x3e152d98	0.14568174
175	0x3dc958ed	0.09831414
176	0xbd1038d6	-0.035210453
177	0x3e13b611	0.14424922
178	0xbccca3c8	-0.02498044
179	0xbdc5502e	-0.09634434
180	0x3e107740	0.1410799
181	0x3c0d5837	0.008626989
182	0x3d4eae3b	0.050459128
183	0xbca69ccc	-0.020338438
184	0x3ddcb393	0.107764386
185	0x3db181cd	0.08667336
186	0x3e317c47	0.17332564
187	0xbd4088ba	-0.047005393
188	0xbc1035e4	-0.008801911
189	0xbd5bd901	-0.053673748
190	0x3c69cd4c	0.014270138
191	0x3d4f1561	0.050557498
192	0xbd8671a9	-0.06564648
193	0x3dfcedea	0.12350066
194	0x3de72cc7	0.112878375
195	0xbce129b9	-0.027485715
196	0x3dcf5caa	0.10125096
197	0x3d3e3ab2	0.046442695
198	0x3d92856e	0.07154356
199	0x3d769c6d	0.060207773
200	0xbdbf6048	-0.09344536
201	0xbddb822b	-0.10718187
202	0xbe09ac3b	-0.13444607
203	0xbdc43f87	-0.095824294
204	0x3e1d6ac5	0.1537276
205	0x3da6710d	0.081270315
206	0xbd73cf55	-0.0595239
207	0x3d9e042c	0.077156395
208	0x3b9c36f3	0.0047672926
209	0xbc91b011	-0.01778415
210	0x3d05f058	0.032699913
211	0x3dde7ccb	0.10863646
212	0x3db4e9c9	0.088336535
213	0xbd90accd	-0.07064209
214	0xbd31a1a7	-0.043367054
215	0xbd1670c9	-0.036728654
216	0x3caa250f	0.020769624
217	0x3cbf36a8	0.023341492
218	0x3ddb4f35	0.10708467
219	0x3c2c65ae	0.010522289
220	0xbe1b9db9	-0.15196885
221	0x3c96b54c	0.018396996
222	0xbc32fb68	-0.010924198
223	0xbd523b29	-0.05132595
224	0x3b227b0d	0.0024792582
225	0xbd2cf241	-0.04222322
226	0x3dd7e7a2	0.10542227
227	0xbd879e54	-0.066219956
228	0x3d3bbc44	0.04583384
229	0x3dc31279	0.09525008
230	0xbc9f3da5	-0.019438574
231	0xbdcf440b	-0.101204
232	0x3d9f509c	0.07779047
233	0x3d9b46b0	0.07581842
234	0x3c9566d6	0.018237513
235	0xbd8c2f6b	-0.06844982
236	0xbd252f85	-0.04032852
237	0x3dbc80d1	0.09204257
238	0xbc5d13cf	-0.013493492
239	0xbc11684a	-0.008874962
240	0xbd941c13	-0.07231917
241	0xbdf2ea4c	-0.11861095
242	0x3d91d0fa	0.07119937
243	0xbc443303	-0.011975053
244	0xbd717198	-0.058946222
245	0x3ce94c19	0.028478669
246	0x3dcc8f8a	0.099883154
247	0x3c620eba	0.013797456
248	0xbd666459	-0.056248043
249	0xbd6d3141	-0.0579083
250	0xbd917c98	-0.071038425
251	0x3dba54e5	0.090982236
252	0xbca6afb4	-0.020347454
253	0xbe22c096	-0.15893778
254	0x3dd6fd88	0.10497576
255	0x3ccde8ef	0.025135485

lstm.lstm2.bias_ih_l0 f4 [256]
0	0x3def393b	0.11680838
1	0x3d756d91	0.059918944
2	0xbd9befaa	-0.07614072
3	0x3d078e58	0.033094734
4	0x38e699d4	0.00010995907
5	0xbc9bcd52	-0.019018803
6	0x3d02ae9d	0.031904805
7	0x3dc2fb9d	0.09520648
8	0xbdd993df	-0.10623907
9	0x3dc6673c	0.09687659
10	0xbc94b9ad	-0.018154943
11	0xbdb2733e	-0.08713387
12	0x3db43c73	0.08800592
13	0xbd7ab6cb	-0.06120948
14	0x3dfebf60	0.12438846
15	0x3cf02fc9	0.02931966
16	0xbbe1073f	-0.006867319
17	0x3debe657	0.11518543
18	0xbdad0db8	-0.08449882
19	0xbe177b8d	-0.14793225
20	0x3db197a1	0.08671499
21	0xbc22071d	-0.009889391
22	0xbde40be3	-0.1113508
23	0x3de6e6e8	0.112745106
24	0xbd49f423	-0.049305093
25	0xbdb8b6d6	-0.09019248
26	0x3df7684f	0.12080442
27	0xbdc945a0	-0.09827733
28	0x3e283015	0.16424592
29	0xbd1b1c8a	-0.037869014
30	0x3d09176b	0.0334696
31	0x3d56181a	0.05226908
32	0x3dd6331a	0.104589656
33	0xbd81c12e	-0.06335674
34	0xbcc4d1da	-0.024025846
35	0x3d6aa230	0.05728358
36	0xbd91b642	-0.07114841
37	0xbe00fef6	-0.1259726
38	0x3dcf5003	0.10122683
39	0x3c87e270	0.016587466
40	0xbdc6df1f	-0.09710526
41	0x3d206fc6	0.039169095
42	0x3db6b9ee	0.08922182
43	0xbd816bc6	-0.06319384
44	0x3cdca7a0	0.026935399
45	0xbc5a34ad	-0.013318223
46	0x3da97ad5	0.082753815
47	0x3dd8feba	0.1059546
48	0xbd0ec518	-0.034855932
49	0x3c8b78e6	0.017025422
50	0xbd959b53	-0.07305016
51	0x3d37d46e	0.044880323
52	0xbcda1664	-0.026622005
53	0xbd10ece9	-0.035382185
54	0xbbc8d112	-0.0061284387
55	0xbd25217c	-0.040315136
56	0x3de53e46	0.11193518
57	0x3d530e30	0.051527202
58	0x3a574cd0	0.0008213045
59	0xbd32ca86	-0.043650173
60	0xbce8e0dd	-0.028427536
61	0x3c226afe	0.009913204
62	0x3e2247ba	0.15847674
63	0xbd0bfc1c	-0.034175977
64	0xbdec6fb1	-0.11544741
65	0x3d926bbc	0.07149455
66	0xbcd24655	-0.025668303
67	0x3de2c236	0.11072199
68	0x3d152a4a	0.036417283
69	0x3cad00c9	0.021118538
70	0x3bfeea44	0.0077793915
71	0xbde70bd0	-0.1128155
72	0xbcb5d0e8	-0.02219434
73	0xbe2ca10c	-0.1685831
74	0x3ca3b528	0.019983843
75	0xbdd53bd9	-0.10411806
76	0x3db7988e	0.08964644
77	0xbda4a85b	-0.08039924
78	0x3d1ee0c6	0.03878858
79	0xbe13e01a	-0.14440957
80	0xbdda7409	-0.10666663
81	0xbdf15765	-0.11784247
82	0xbd8fb864	-0.070175916
83	0xbd52de8a	-0.05148176
84	0xbdaf0c04	-0.08547214
85	0xbd6a5f48	-0.057219774
86	0x3d825770	0.06364334
87	0xbdd0b1a5	-0.10190133
88	0x3cb45c66	0.022016715
89	0x3dfa7461	0.12229229
90	0x3d899efc	0.06719777
91	0x3d2bbc0c	0.041927382
92	0xbc1fd5d9	-0.009755575
93	0xbdaab0ae	-0.0833448
94	0x3d106bdc	0.035259113
95	0xbd3af681	-0.04564524
96	0x3d38688f	0.04502159
97	0xbd4449f0	-0.047922075
98	0x3d51ea0e	0.051248603
99	0xbce06d06	-0.027395736
100	0xbd051a18	-0.032495588
101	0x3d80ddab	0.0629228
102	0x3d5c9ec2	0.05386234
103	0xbd0b3081	-0.033981804
104	0xbddda0db	-0.10821696
105	0xbd40822e	-0.04699915
106	0xbdb40a88	-0.08791071
107	0x3e008b9b	0.12553255
108	0x3d5c869c	0.05383931
109	0x3c814b8c	0.015783094
110	0xbd8158db	-0.06315776
111	0x3d224088	0.039612323
112	0x3d9f74a4	0.07785919
113	0xbde8a3c6	-0.11359362
114	0xbb526742	-0.0032105003
115	0xbccc566b	-0.024943551
116	0xbdb9982d	-0.09062228
117	0x3c2188a3	0.009859237
118	0xbb5c5e36	-0.003362549
119	0xbd9953b2	-0.07486667
120	0x3d608ec1	0.05482364
121	0xbc1cdd28	-0.009574212
122	0x3db4884b	0.08815058
123	0x3e025892	0.127291
124	0xbdebb5ce	-0.11509286
125	0xbc729f65	-0.01480851
126	0xbd4da249	-0.050203595
127	0xbdd57981	-0.10423566
128	0x3dbcac7f	0.092125885
129	0xbdb628aa	-0.08894475
130	0x3d56694d	0.052346516
131	0x3dfc58ae	0.12321602
132	0x3da212e9	0.07913763
133	0xbd937af2	-0.07201184
134	0xbd9a9b98	-0.075492084
135	0xbd8094c6	-0.06278376
136	0xbd3ad90d	-0.045617152
137	0x3d8ceacd	0.06880722
138	0xbde03212	-0.1094705
139	0x3d914154	0.070925385
140	0x3dcc8322	0.09985949
141	0xbdbe01a2	-0.09277655
142	0x3d44c4bf	0.048039194
143	0xbd36200a	-0.04446415
144	0x3d1c040f	0.038089808
145	0x3dc1bf44	0.09460309
146	0x3c2ef861	0.010679335
147	0xbe0951a4	-0.1341005
148	0x3c98849f	0.018617926
149	0xbadf903f	-0.0017056538
150	0xbd8a80a0	-0.067628145
151	0xbc9191da	-0.017769743
152	0xbd430669	-0.047613535
153	0x3c7fdaa8	0.015616097
154	0x3dd374b9	0.103249975
155	0x3d4a6e29	0.049421463
156	0xbda77228	-0.081760705
157	0x3d6d2fbb	0.057906847
158	0xbcab2096	-0.020889562
159	0xbc78e253	-0.015190679
160	0xbdd7d82d	-0.10539279
161	0xbd1acc0a	-0.037792243
162	0xbc1271de	-0.008938281
163	0xbda6b906	-0.08140759
164	0xbd92b272	-0.07162942
165	0xbd220073	-0.03955121
166	0xbe0d34af	-0.13789628
167	0xbddd7bc2	-0.108146206
168	0x3d6e61be	0.058198683
169	0x3d374985	0.044747848
170	0x3ccffb49	0.025388377
171	0x3d24dae5	0.040247817
172	0xbd104b39	-0.035227988
173	0xbd9b6a43	-0.07588627
174	0x3dd3e71e	0.103468165
175	0xbc8dda94	-0.01731614
176	0xbd8cf305	-0.0688229
177	0xbbe68a61	-0.007035539
178	0xbd1e2dbf	-0.038617846
179	0xbd5799f9	-0.052637074
180	0x3cc547da	0.024082113
181	0xbd65dbed	-0.05611794
182	0x3d6c1804	0.05764009
183	0x3d7fe47b	0.062473755
184	0x3d4c2dce	0.04984837
185	0xbdcfb78a	-0.10142429
186	0xbd988f43	-0.074492
187	0x3dc8fc4d	0.098137476
188	0xbd8a81af	-0.067630164
189	0xbc10253e	-0.008797942
190	0xbdb348cc	-0.08754119
191	0xbdf856e2	-0.121259466
192	0x3d6539be	0.05596327
193	0xbd7060d9	-0.05868611
194	0x3cd0dd93	0.02549628
195	0xbdc9e60a	-0.098583296
196	0xbd10f8b3	-0.035393428
197	0x3b7348da	0.003712228
198	0xbd35ffa6	-0.04443326
199	0xbdf638af	-0.1202253
200	0xbde539d9	-0.11192674
201	0xbd6081e1	-0.054811362
202	0x39e0e192	0.00042892672
203	0xbccc6262	-0.024949256
204	0xbd556d37	-0.05210611
205	0x3d3e8b92	0.046519823
206	0x3d99e634	0.07514611
207	0xbddefdda	-0.10888262
208	0xbdded2a6	-0.10880022
209	0x3dddcce7	0.10830098
210	0x3d3ed3c0	0.04658866
211	0xbdc9a431	-0.0984577
212	0x3dd4088a	0.10353191
213	0x3d9e0670	0.077160716
214	0xbdc9cc6d	-0.09853444
215	0xbd3a009a	-0.04541073
216	0x3d55da6c	0.052210256
217	0x3ccecf72	0.025245402
218	0x3d95ec8d	0.07320509
219	0x3c82223b	0.015885463
220	0xbcb6cea8	-0.022315338
221	0x3cfdf9e3	0.031002944
222	0x3d750215	0.05981644
223	0x3b35b359	0.0027725308
224	0x3c08ae9f	0.008342414
225	0xbcf131f8	-0.029442772
226	0xbc8c0e2b	-0.0170966
227	0xbdd7d62a	-0.105388954
228	0x3d9b97fb	0.07597347
229	0x3c8062bd	0.015672082
230	0xbdf0b965	-0.11754111
231	0xbe0f4edd	-0.13994928
232	0xbe194c23	-0.1497045
233	0xbd8194b8	-0.06327194
234	0xbde5322c	-0.1119121
235	0x3d37a959	0.044839237
236	0xbcb3204f	-0.021865992
237	0xbe019b3b	-0.12656872
238	0xbdc9b552	-0.09849037
239	0x3cb3b6dc	0.02193778
240	0x3d838ecb	0.0642372
241	0x3dc874f6	0.097879335
242	0x3ded0ba0	0.11574483
243	0x3db6065b	0.08887931
244	0x3d847241	0.06467105
245	0xbc844288	-0.016145006
246	0x39a217f3	0.0003091689
247	0x3cf381ee	0.029725041
248	0x3d36597e	0.04451894
249	0xbdc97eb8	-0.09838623
250	0x3d262085	0.040558357
251	0x3d9532fa	0.07285114
252	0xbd42e78f	-0.047584113
253	0xbdb7a86e	-0.08967672
254	0x3d889f3d	0.06670997
255	0xbd141833	-0.03615589
