073123/0811_experiment_1.pth (torch, 644853 bytes, 40 tensors)

lstm.lstm1.weight_ih_l0 f4 [256, 12]
-0.004566871 0.00026828953 0.0019322436 0.0023443669 0.000253503 0.0003433831 -0.001684653 0.001905959
-0.001984243 0.0014257822 0.0009248883 -0.0033334626 -0.019841641 0.009228808 -0.0054747793 0.0052334773
-0.0004267887 0.015831469 0.013301335 0.019084983 -0.007036512 0.016223926 0.0017366103 0.003782929
0.0009271807 -0.00044316927 -0.0041274396 -0.003485019 -0.00017199514 -0.00066958496 -0.004270135 -0.0071177785
-0.007946495 0.0033302333 -0.0018197878 -0.0005256606 0.0022432269 -0.0053223916 -0.0013361536 -0.00040258592
0.0008482588 -0.0015485613 0.001581313 0.004436703 -0.003543699 0.0021071404 0.00044988494 0.001537798
0.0022974927 -0.0011044438 -1.8728066e-05 0.0034244056 -0.00027824406 -0.008997661 -0.011746158 -0.00040524907
0.0003190662 -0.0026112848 0.0017956038 -0.00035473396 0.0016934935 0.0015404314 0.0028663184 0.0010252201
0.0015235712 0.002928942 -0.0013483112 0.002073383 0.0021785882 0.0024160652 0.0006769527 0.0025512038
-0.0019601863 -0.00069281796 -0.0014290964 0.0021427737 0.0010940838 0.0017055512 0.00034596663 -0.0012044949
-0.0012809156 0.0013414711 0.00204803 0.0040415917 0.0043839007 0.0050689774 -0.008792102 -0.015850585
0.0009082111 -0.012953243 0.001306957 -0.00092127203 0.0021609718 -0.015471075 0.0013720111 0.00078719907
-0.01173868 -0.00899585 -0.011966109 0.0020837209 -0.0009847642 0.004125917 -0.021552552 0.0039477674
0.023470769 -0.017951995 -0.0023474102 -0.005902093 -0.00015931636 9.739106e-06 0.0011391895 0.00010509206
-0.00025045878 -0.0016444204 0.00022473869 0.001367214 0.0009037114 -0.0003706911 -0.00011380479 0.0002720857
-0.0004930421 -0.0012728852 -0.0011908785 -0.000600079 -0.0001793243 -0.0008775184 -0.0033808658 -0.0018804352
-0.0018937427 -0.0009828365 -0.00047868898 -0.00079088646 0.0029266016 0.001454323 0.0016884265 0.0028684796
0.00084573345 0.0025101937 0.0016857848 0.0014511556 0.0015104595 0.003515889 0.0024725639 0.0033046543
-0.0007635157 -0.0012541196 0.0018090974 0.00031410405 0.00028947476 0.00022205105 0.0014637308 0.00258351
0.0026874128 -0.0006454833 0.0005434997 -0.0018440476 0.007663081 0.0007532798 -0.0045658303 0.00058292516
-0.00043785703 -0.0025365946 0.001793606 -0.001788719 0.00063489215 -0.0007702841 -8.138646e-05 -0.0014451166
-0.0066798753 -0.0018063062 0.0028392754 -0.0022200344 -0.0001313195 0.0012343598 0.0077174637 0.007066869
-0.0036400617 0.00024912672 -0.0011022643 0.0020975005 0.00070881017 0.00078351324 0.0018087444 0.0012797142
0.00065134425 -5.0052833e-05 0.0026005995 0.0009890428 0.0009850976 0.002762178 0.0011898039 0.004402121
0.0040688873 -0.010578886 -0.0069898856 -0.0059593003 -0.0011559983 -0.003990443 -0.015446497 -0.010453638
-0.00080430036 -0.0059959423 -0.0022354042 -0.004162725 0.0013603531 -0.0006522711 -0.0016882365 -0.0012918821
-0.0006881123 -0.0012950364 -0.0005195177 -0.00033133084 -5.0299805e-05 -0.0015830448 -0.0005646499 -0.00088758173
-0.008711785 -0.0016734424 0.0033728648 0.00097083556 -0.00047797177 0.0023963295 -0.0025896633 0.0012684687
-0.0015668015 -0.0007714477 0.0005478937 -0.002688738 -0.017448554 0.011937978 -0.0049981214 -0.0023920827
0.001383975 0.021755256 -0.016275296 -0.008641247 -0.0033868512 0.0067103026 -0.0036133789 0.0004797039
0.003518042 0.00056456315 -0.002013224 0.00028817038 0.00023000671 -0.00036739805 0.0010728172 -0.0006589843
-0.0007328029 -0.00031233238 -0.0002083431 -0.00081938686 -0.0024743252 0.0010449364 0.003185976 0.00025928952
00000000: b1a5 95bb 36a9 8c39 5643 fd3a f3a3 193b
00000010: 99e8 8439 1908 b439 93cf dcba 5fd1 f93a
00000020: 130a 02bb 50e1 ba3a 3474 723a 3976 5abb
00000030: f08a a2bc 6d34 173c c765 b3bb 977d ab3b
00000040: 9cc2 dfb9 ffb0 813c d8ed 593c 1c58 9c3c
00000050: 8a92 e6bb 0ae8 843c f99e e33a 04eb 773b
00000060: 0b0e 733a 2c59 e8b9 793f 87bb eb64 64bb
00000070: 9859 34b9 1687 2fba 7dec 8bbb 413c e9bb
00000080: 0432 02bc 0b40 5a3b f285 eeba 7ccc 09ba
00000090: 1a03 133b 7567 aebb e021 afba 2b12 d3b9
000000a0: af5d 5e3a 18f9 caba 0f44 cf3a c361 913b
000000b0: 673d 68bb f317 0a3b 89de eb39 f08f c93a
000000c0: 8891 163b fcc2 90ba 371a 9db7 fe6b 603b
000000d0: 49e1 91b9 ed6a 13bc f572 40bc 9c77 d4b9
000000e0: 5748 a739 1722 2bbb 775a eb3a 96fb b9b9
000000f0: 36f8 dd3a 4de8 c93a d8d8 3b3b ae60 863a
00000100: 91b2 c73a 7ef3 3f3b d1b9 b0ba 98e1 073b
00000110: a5c6 0e3b d956 1e3b 8775 313a 1932 273b
00000120: 7876 00bb 3a9e 35ba 8550 bbba c76d 0c3b
00000130: 5c67 8f3a cd8c df3a db62 b539 24e0 9dba
00000140: 65e4 a7ba 4dd4 af3a 3e38 063b 546f 843b
00000150: d3a6 8f3b aa19 a63b c00c 10bc 16d9 81bc
00000160: 0415 6e3a d739 54bc 334e ab3a 8581 71ba
00000170: 179f 0d3b 647a 7dbc 0ed5 b33a 095c 4e3a
00000180: 9853 40bc 5463 13bc 800d 44bc 098f 083b
00000190: 3413 81ba b332 873b fa8e b0bc 465c 813b
000001a0: c545 c03c 1010 93bc 02d7 19bb 5866 c1bb
000001b0: 290e 27b9 2465 2337 db50 953a df64 dc38
000001c0: 0250 83b9 9889 d7ba d5a7 6b39 1734 b33a
000001d0: 0ce7 6c3a 5159 c2b9 7baa eeb8 b9a6 8e39
000001e0: 7f3f 01ba f1d6 a6ba 4017 9cba 9f4e 1dba
000001f0: 0009 3cb9 4309 66ba 8491 5dbb ef78 f6ba
00000200: 7637 f8ba 85d2 80ba 8cf8 fab9 7e53 4fba
00000210: 3acc 3f3b fb9e be3a 314e dd3a 1afd 3b3b
00000220: 36b4 5d3a 1082 243b 8df5 dc3a b434 be3a
00000230: 9cfa c53a d46a 663b bd0a 223b e692 583b
00000240: ac26 48ba 4561 a4ba 3c1f ed3a 55ae a439
00000250: a5c4 9739 60d6 6839 a8da bf3a 1b50 293b
00000260: 4e1f 303b a735 29ba a679 0e3a f8b3 f1ba
00000270: 951a fb3b c077 453a f69c 95bb 72cf 183a
00000280: 2d90 e5b9 ff3c 26bb 6e17 eb3a 7373 eaba
00000290: e46e 263a e4ec 49ba 06ae aab8 116a bdba
000002a0: dbe2 dabb 94c1 ecba 2313 3a3b ff7d 11bb
000002b0: cfb2 09b9 3eca a13a c7e2 fc3b 3291 e73b
000002c0: 1a8e 6ebb 399d 8239 da79 90ba 3876 093b
000002d0: 72cf 393a af64 4d3a 6413 ed3a 15bc a73a
000002e0: f9be 2a3a d2ef 51b8 d26e 2a3b c5a2 813a
000002f0: 641e 813a a805 353b 32f3 9b3a ab3f 903b
00000300: 4d54 853b 1053 2dbc 690b e5bb 3c46 c3bb
00000310: de84 97ba 43c2 82bb 4e13 7dbc bc45 2bbc
00000320: afd7 52ba 9c79 c4bb dc7f 12bb 7867 88bb
00000330: e04d b23a 2cfd 2aba d147 ddba 5f54 a9ba
00000340: 6f62 34ba 36be a9ba 3e30 08ba 79b6 adb9
00000350: 01f9 52b8 2b7e cfba 0305 14ba 9aac 68ba
00000360: e0bb 0ebc 6957 dbba 480b 5d3b ac7f 7e3a
00000370: 4998 fab9 bd0b 1d3b 57b7 29bb bf42 a63a
00000380: 225d cdba fb3a 4aba 86a0 0f3a 8a35 30bb
00000390: 45f0 8ebc 8297 433c 48c7 a3bb 7dc4 1cbb
000003a0: 7f66 b53a 1438 b23c c553 85bc 0494 0dbc
000003b0: eff5 5dbb 19e2 db3b 70ce 6cbb c480 fb39
000003c0: f38e 663b 31ff 133a 4bf0 03bb 9315 9739
000003d0: f52d 7139 559f c0b9 c69d 8c3a b0bf 2cba
000003e0: 9219 40ba 8bc0 a3b9 ad76 5ab9 1fcc 56ba
000003f0: 4a28 22bb 3ff6 883a cfcb 503b 40f1 8739

lstm.lstm1.weight_hh_l0 f4 [256, 64]
0.00030705065 -0.00017351398 0.0001191295 4.4354485e-05 -1.554622e-05 0.00011387363 -4.3717642e-05 0.0003066586
-5.0549177e-05 0.0002336496 7.773585e-05 0.00015067373 -0.00013038049 -0.00047973485 0.00011392986 2.2822673e-05
0.00010575713 4.3126438e-05 7.591446e-05 0.00016219646 0.00017593727 0.00021134732 0.00012925595 -0.00013613522
-0.00025689657 -0.0001715984 -2.1523518e-05 -0.0002359024 -0.00019477564 -0.00011150581 -0.000288567 -2.8122004e-05
1.0617599e-05 -0.00024514654 -0.0002450475 -8.3054874e-05 -2.5383793e-05 6.0318744e-06 -0.00010714215 -0.00026927912
3.623667e-06 0.00013453643 0.00010468151 9.9141704e-05 0.00023250774 0.0002637091 0.00014409014 -3.6565252e-05
-0.00028347978 -0.00015062804 -0.00027280845 -0.00025523832 0.00016563809 -5.7600246e-06 -0.00047842565 -0.00013095734
-0.00012571254 -0.00027870457 -0.00017311981 -0.0001895648 -7.981373e-05 0.000121136436 3.0142806e-05 -0.00018114665
0.00019968409 -0.0003219054 -5.4971417e-05 0.00023603305 -0.0005935858 -0.00011291666 0.0006547218 0.0007401958
1.6473643e-05 9.726396e-05 -0.000120531746 -0.00034762418 -0.0001581148 -0.00057846634 -0.0007646028 0.0005486179
-0.00027611578 -0.00028122912 0.0004810071 0.00055761903 0.00013552296 -0.0004894358 0.0006704907 0.0005728561
-0.00050813775 0.0001741196 0.00048060348 -2.7189304e-05 0.0005747695 0.00030742315 -0.00037523624 0.0005872801
-0.0001935503 0.0001070984 -0.00050045585 0.00079043355 0.0004791017 -0.0005244955 -3.3059274e-05 0.00029853373
-0.00022858613 -8.3941835e-05 -0.00016133567 0.0005046281 0.00050018646 7.166325e-05 0.0004945182 0.00039866398
0.00017237045 -0.00028570797 -3.5455017e-05 -0.00018580387 0.00032286692 -0.0004997197 -0.0007284326 -0.00042389508
-0.0007973543 -0.0004738514 -0.00020811333 -7.750223e-05 -0.00038075613 0.00031262194 -0.0004305962 -0.00017303995
-8.8195484e-05 -0.00014773346 -3.1958737e-06 0.00023102762 -7.4054784e-05 -0.00022730928 -1.4478096e-06 1.8502407e-06
-0.00011609014 0.0001364849 -0.0002501188 -0.0001371177 -3.4151362e-05 4.1383275e-05 5.9509766e-05 0.0002626797
0.00024989582 -7.6505115e-05 -0.00018169136 0.000120547586 -2.379336e-05 -0.0002979679 -0.00012589904 0.000111872025
-0.00021550515 -0.00020366305 0.00016075037 0.00012109851 3.9850667e-05 8.425061e-05 -3.921887e-05 -8.977588e-05
8.979239e-05 6.433831e-05 -0.0001588375 0.00021782605 9.211628e-05 -4.0869814e-05 -0.00023512504 5.6800207e-05
-0.00021434572 -8.825304e-06 0.00014822395 -0.000119072996 -8.1940736e-05 4.732157e-06 -6.8478366e-06 0.00032656378
0.00018521358 -0.00010598907 -7.966139e-06 -0.00025926292 0.00014403091 -0.00010355671 -0.00031760047 -5.9885257e-05
-5.381309e-05 -0.00028401826 -9.9640194e-05 -0.00033391005 -2.4000265e-05 0.00016391464 0.00013687072 -0.00013066751
0.00044394162 -0.00030142826 7.645434e-05 -0.000425212 -0.00010128505 0.0002666264 0.0003575495 0.00075222185
-3.209332e-05 0.00017446754 5.8572314e-05 0.00012034626 -0.00026221748 -0.0006638913 -0.00047474817 0.00013654213
-0.00018467105 3.0601597e-05 0.0005323813 0.00033365228 4.844638e-05 0.00038950282 0.000816993 -1.3369689e-05
-0.00018338361 3.9020044e-05 -0.00016205072 -0.00048171176 3.0953346e-05 0.000354598 -0.0006019765 0.00018473527
-0.00023081932 -0.0002944836 -0.000614382 8.270222e-05 0.00036852964 -0.000532612 0.00043506562 -0.00023881401
0.00026616195 0.00011621523 -0.0002836073 0.00055762695 0.0007095423 6.759951e-05 0.00025216024 -0.0003660253
-0.00054857216 -0.00034262013 -4.9391765e-05 -0.00025335257 5.08835e-05 5.911264e-05 -0.0005396579 -0.000105658546
-0.00044106148 -0.00019407383 -8.618465e-05 0.00015987118 -0.00048248385 0.00019956593 -0.00039537772 -0.00020414556
00000000: a4fb a039 4ef1 35b9 2ad5 f938 4409 3a38
00000010: 4169 82b7 71cf ee38 765d 37b8 05c7 a039
00000020: c404 54b8 d6ff 7439 1e06 a338 2cfe 1d39
00000030: bfb6 08b9 ec84 fbb9 a1ed ee38 5173 bf37
00000040: edc9 dd38 a9e2 3438 4434 9f38 4813 2a39
00000050: cd7b 3839 1d9d 5d39 e188 0739 85bf 0eb9
00000060: 13b0 86b9 18ef 33b9 678d b4b7 915c 77b9
00000070: b03c 4cb9 3ad8 e9b8 cf4a 97b9 8be7 ebb7
00000080: 3e22 3237 0387 80b9 b879 80b9 bf2d aeb8
00000090: 48ef d4b7 6865 ca36 81b1 e0b8 082e 8db9
000000a0: 202e 7336 5912 0d39 7588 db38 4cea cf38
000000b0: 52cd 7339 7042 8a39 e716 1739 a45d 19b8
000000c0: 03a0 94b9 e8f1 1db9 bb07 8fb9 82d1 85b9
000000d0: 23af 2d39 3c46 c1b6 34d5 fab9 9851 09b9
000000e0: b4d1 03b9 181f 92b9 7f87 35b9 eac5 46b9
000000f0: ac61 a7b8 a10a fe38 2fdb fc37 2ff2 3db9
00000100: 4a62 5139 69c5 a8b9 1c91 66b8 a47f 7739
00000110: de9a 1bba accd ecb8 a3a1 2b3a b309 423a
00000120: e130 8a37 31fa cb38 fdc5 fcb8 5441 b6b9
00000130: 9ecb 25b9 38a4 17ba a06f 48ba 20d1 0f3a
00000140: a2c3 90b9 ef71 93b9 ae2f fc39 2e2d 123a
00000150: 2b1b 0e39 7b4d 00ba dfc3 2f3a b92b 163a
00000160: 8c34 05ba e093 3639 82f9 fb39 9614 e4b7
00000170: 21ac 163a a32d a139 5bbb c4b9 b3f3 193a
00000180: c3f3 4ab9 049a e038 0631 03ba 1935 4f3a
00000190: f12f fb39 4c7e 09ba 20a9 0ab8 8584 9c39
000001a0: 9fb0 6fb9 ee09 b0b8 372c 29b9 0549 043a
000001b0: f21e 033a ea49 9638 8ea2 013a c603 d139
000001c0: 57be 3439 13cb 95b9 89b5 14b8 59d4 42b9
000001d0: 7746 a939 9fff 02ba 49f4 3eba 3c3e deb9
000001e0: 8b05 51ba 426f f8b9 ff38 5ab9 b188 a2b8
000001f0: 39a0 c7b9 68e7 a339 a5c1 e1b9 0f72 35b9
00000200: 97f5 b8b8 e6e8 1ab9 b178 56b6 0140 7239
00000210: dc4d 9bb8 df59 6eb9 5c52 c2b5 c955 f835
00000220: 6b75 f3b8 631d 0f39 6122 83b9 41c7 0fb9
00000230: bf3d 0fb8 f492 2d38 209a 7938 46b8 8939
00000240: 7304 8339 5f71 a0b8 6784 3eb9 7ece fc38
00000250: da97 c7b7 9338 9cb9 c403 04b9 d69c ea38
00000260: 39f9 61b9 628e 55b9 198f 2839 44f6 fd38
00000270: 5425 2738 b4af b038 f17e 24b8 0f46 bcb8
00000280: ec4e bc38 5eed 8638 9e8d 26b9 3c68 6439
00000290: 8d2e c138 a16b 2bb8 e68b 76b9 c23c 6e38
000002a0: fec1 60b9 6410 14b7 906c 1b39 d4b6 f9b8
000002b0: 99d7 abb8 ebc8 9e36 78c6 e5b6 a636 ab39
000002c0: e435 4239 7346 deb8 4ea6 05b7 aeed 87b9
000002d0: 0107 1739 962c d9b8 9d83 a6b9 4e2d 7bb8
000002e0: 5eb5 61b8 49e8 94b9 ecf5 d0b8 a610 afb9
000002f0: 2d54 c9b7 80e0 2b39 f484 0f39 cb03 09b9
00000300: d6c0 e839 0409 9eb9 1c56 a038 fdee deb9
00000310: ff68 d4b8 fdc9 8b39 7b75 bb39 c130 453a
00000320: f19b 06b8 46f1 3639 8bab 7538 6862 fc38
00000330: 3c7a 89b9 fe08 2eba 9fe7 f8b9 c02c 0f39
00000340: 42a4 41b9 375a 0038 818f 0b3a 0dee ae39
00000350: e832 4b38 2f36 cc39 792b 563a 614e 60b7
00000360: aa4a 40b9 74a9 2338 29ec 29b9 428e fcb9
00000370: e7d3 0138 57e9 b939 f6cd 1dba 7fb5 4139
00000380: 1708 72b9 eb64 9ab9 7a0e 21ba 6b70 ad38
00000390: 3637 c139 fc9e 0bba 8519 e439 266a 7ab9
000003a0: a78b 8b39 94b8 f338 21b1 94b9 b62d 123a
000003b0: 9400 3a3a 36c4 8d38 6034 8439 16e7 bfb9
000003c0: 0ece 0fba b2a1 b3b9 012a 4fb8 68d4 84b9
000003d0: be6b 5538 b7ef 7738 d477 0dba 0095 ddb8
000003e0: 453e e7b9 4c80 4bb9 08be b4b8 18a3 2739
000003f0: e3f5 fcb9 9242 5139 b34a cfb9 e80f 56b9

lstm.lstm1.bias_ih_l0 f4 [256]
0.0036166094 -0.008893645 -0.0140506225 -0.0011424605 -0.013379696 0.004303548 -0.004398832 -0.039372537
0.014287993 -0.00056946196 -0.0021976447 0.0038394046 0.004158504 -0.0062486967 -0.0044770758 0.003144685
0.0037167503 -0.002475718 -0.006871913 -0.021956632 0.00058181747 0.0035774645 -0.014199801 0.0015940916
-0.013943231 -0.008827615 0.0055042254 0.008148434 -0.0033993423 0.001557295 0.0068901107 -0.002398584
-0.0012460354 -0.011060531 -0.0018218379 0.014812462 -0.0046741487 0.0017731742 0.004853888 0.022692634
-0.00065832015 0.010483198 -0.013307793 0.011346875 -0.015037132 -0.0051550576 -0.00061083195 0.0017229235
0.019188555 0.00052467023 -5.6943292e-05 0.008719755 0.002262936 -0.0019118622 0.0038322916 -0.008609155
0.015753737 0.0008526189 -0.0033270167 0.015562949 0.004192096 0.003934772 -0.0006863748 0.007163268
0.00484739 -0.02286664 0.00031229501 -0.02111582 -0.01386815 -0.00861921 -4.958619e-06 0.020474201
0.008303865 -0.0057377997 -0.004283116 -0.0022330163 -0.0059535517 -0.00028809436 -0.0014575409 -0.0072668176
-0.013342527 0.000568674 -0.0033229908 0.00836783 -0.0028113096 -0.009988445 -0.004743508 0.003924436
-0.00051198713 0.0031166465 -0.0033738404 -0.0151424715 -0.006140715 -0.01051142 0.006490089 0.0039099525
-0.0018387451 -0.004233246 -0.0047503375 -0.0078036916 -0.007932531 -0.00609257 -0.009124973 -0.044737473
-0.012387879 -0.0047220746 -0.017143669 -0.004826672 0.0053789327 -0.011649949 -0.002997283 -0.033465244
-0.042167302 -0.003103309 -0.007004419 0.0073702 -0.004240439 0.00091764063 -0.009228641 -0.0020429906
-0.023294946 -0.0075708805 -0.0019754537 -0.04962137 -0.0016615184 -0.0018619772 -0.004427645 0.001100272
0.07652156 0.078197524 0.058295738 -0.10565204 -0.09017165 -0.038599454 0.07804928 0.07302799
-0.112081304 -0.03481187 0.07661668 0.010977904 0.027093617 -0.096449174 0.001624274 0.048378576
0.055995166 -0.002956432 -0.010955857 0.060984552 -0.054994706 -0.0050642984 0.074110255 0.042129233
0.035886932 -0.04052615 -0.06083674 -0.051146924 0.059762195 -0.02265748 -0.0702935 0.047071896
-0.08362198 -0.10138936 -0.0628507 0.07352794 0.06134112 0.038037892 -0.055238843 -0.045920204
-0.011490115 -0.10740973 0.08201341 0.083880834 -0.04451014 -0.013222159 0.06642294 0.03457715
-0.011704698 -0.0413205 0.051080808 -0.08021427 -0.028973548 0.009710735 -0.030175138 0.09181409
-0.07187274 -0.047528576 0.102524966 -0.07089587 0.004870143 0.070754305 -0.023208687 0.07453559
-0.009078414 -0.010922359 0.013502743 0.00069156283 0.0031950588 0.00020003662 -0.0017632372 -0.031318814
0.034515664 0.0013473044 -0.0026596074 0.0038866927 0.0013128786 0.008118785 -0.008548225 0.0015046784
0.0047102687 -0.0019929614 0.0042109964 0.007943644 0.0008702209 0.0017827478 -0.02967997 0.0019169418
-0.005100631 -0.0054713553 -0.01159902 0.004576291 -0.0021873408 0.001481451 0.0070143 0.0067356653
-0.0022994676 0.0077809007 -0.009614178 0.0054048193 -0.002930251 0.0039505414 0.0014579595 0.017553633
-0.0008593462 0.0023194982 -0.0053847386 -0.039926413 0.0022418776 0.0052697514 -0.009306077 -0.015791412
-0.0041416995 0.00047412052 0.00986087 0.008490092 0.00062309933 -0.0033250148 0.008812036 -0.0024736319
-0.00890964 0.0036571773 -0.0064081545 -0.026563266 0.0069279787 0.0039783916 -0.00071627967 0.00020708099
00000000: a304 6d3b a7b6 11bc 9534 66bc 9dbe 95ba
00000010: 8336 5bbc c704 8d3b 1424 90bb 1945 21bd
00000020: 3018 6a3c f247 15ba 5c06 10bb 859e 7b3b
00000030: 0f44 883b dec1 ccbb 6fb4 92bb 0f17 4e3b
00000040: b994 733b a83f 22bb c92d e1bb 65de b3bc
00000050: 1c85 183a e573 6a3b 48a6 68bc d7f0 d03a
00000060: 2672 64bc b3a1 10bc ca5c b43b 0281 053c
00000070: 80c7 5ebb 261e cc3a 70c6 e13b 9031 1dbb
00000080: 0352 a3ba 3b37 35bc bcca eeba f8af 723c
00000090: 9a29 99bb da69 e83a 5d0d 9f3b e7e5 b93c
000000a0: 1e93 2cba b8c1 2b3c ee08 5abc 3ee8 393c
000000b0: 4e5e 76bc c2eb a8bb 3d20 20ba b8d3 e13a
000000c0: 5131 9d3c 068a 093a 65d6 6eb8 4edd 0e3c
000000d0: c44d 143b 7397 faba 2f27 7b3b 6a0d 0dbc
000000e0: fb0d 813c 4982 5f3a 140a 5abb bdfb 7e3c
000000f0: da5d 893b 43ef 803b d5ed 33ba d9b9 ea3b
00000100: dbd6 9e3b d252 bbbc 87bb a339 16fb acbc
00000110: 3d37 63bc 9637 0dbc 3662 a6b6 83b9 a73c
00000120: ef0c 083c 2704 bcbb 6259 8cbb cc57 12bb
00000130: 0316 c3bb 5f0b 97b9 f50a bfba 7c1e eebb
00000140: 9d9a 5abc 1113 153a 89c6 59bb 3919 093c
00000150: f33d 38bb 93a6 23bc 6e6f 9bbb 8e98 803b
00000160: e036 06ba a740 4c3b a61b 5dbb 2118 78bc
00000170: 0d38 c9bb 1738 2cbc d0aa d43b 0f1f 803b
00000180: 0c02 f1ba 0bb7 8abb b8a8 9bbb 1cb6 ffbb
00000190: 72f7 01bc 2ea4 c7bb e980 15bc a43e 37bd
000001a0: 88f6 4abc a2bb 9abb e170 8cbc 0f29 9ebb
000001b0: c241 b03b 6ddf 3ebc 106e 44bb da12 09bd
000001c0: 9fb7 2cbd e360 4bbb 5385 e5bb b881 f13b
000001d0: 61f3 8abb d28d 703a ba33 17bc b2e3 05bb
000001e0: 0bd5 bebc 2615 f8bb 9d76 01bb c73f 4bbd
000001f0: 4ec7 d9ba 960d f4ba c715 91bb 0137 903a
00000200: 56b7 9c3d 0626 a03d 83c7 6e3d 1960 d8bd
00000210: eaab b8bd 761a 1ebd 4dd8 9f3d b38f 953d
00000220: e28a e5bd e496 0ebd 35e9 9c3d abdc 333c
00000230: 6ff3 dd3c 2587 c5bd 97e5 d43a 9d28 463d
00000240: 305b 653d b3c0 41bb 3280 33bc f0ca 793d
00000250: 2142 61bd 6af2 a5bb 1ec7 973d b48f 2c3d
00000260: 2dfe 123d c0fe 25bd f22f 79bd 707f 51bd
00000270: 34c9 743d 2e9c b9bc 0af6 8fbd 76ce 403d
00000280: 0042 abbd 3aa5 cfbd deb7 80bd d195 963d
00000290: d440 7b3d 9fcd 1b3d 2042 62bd d316 3cbd
000002a0: 0941 3cbc a2f9 dbbd a6f6 a73d b7c9 ab3d
000002b0: 4450 36bd c1a1 58bc c008 883d c5a0 0d3d
000002c0: 10c5 3fbc af3f 29bd 1c3a 513d 6147 a4bd
000002d0: ef59 edbc c619 1f3c da31 f7bc 0709 bc3d
000002e0: 0432 93bd 53ad 42bd 9cf8 d13d db31 91bd
000002f0: b895 9f3b a2e7 903d 2520 bebc 1ea6 983d
00000300: a1bd 14bc b2f3 32bc 9c3a 5d3c ff49 353a
00000310: 3164 513b ecc0 5139 6c1c e7ba 2848 00bd
00000320: 4c60 0d3d 0998 b03a cf4c 2ebb e2b7 7e3b
00000330: e514 ac3a a704 053c db0d 0cbc a138 c53a
00000340: 9958 9a3b 589c 02bb 66fc 893b 0f26 023c
00000350: 891f 643a 17ab e93a 6923 f3bc e541 fb3a
00000360: 3223 a7bb 0e49 b3bb d109 3ebc b6f4 953b
00000370: 7d59 0fbb 3f2d c23a 37d8 e53b dbb6 dc3b
00000380: aab2 16bb edf6 fe3b c984 1dbc e91a b13b
00000390: 7409 40bb 8b73 813b 0119 bf3a a3cc 8f3c
000003a0: bf45 61ba b902 183b 7672 b0bb e189 23bd
000003b0: 77ec 123b e1ad ac3b 8478 18bc fe5c 81bc
000003c0: 18b7 87bb 6193 f839 7d8f 213c 071a 0b3c
000003d0: 7d57 233a 7ee8 59bb 5c60 103c a81c 22bb
000003e0: bdf9 11bc 41ad 6f3b 7ffb d1bb 359b d9bc
000003f0: 1904 e33b 2b5d 823b b7c4 3bba e123 5939

lstm.lstm1.bias_hh_l0 f4 [256]
0.0079739345 -0.015982058 -0.0005284257 0.022071915 -0.02937129 0.000736049 -0.0067186486 0.03530584
0.020170202 -0.0009781651 -0.0041984953 0.0041125477 0.00239755 -0.0095898695 -0.02032077 0.00022452371
-0.016148837 -0.0026293495 0.003387727 0.0060328213 0.0010382135 0.0002026511 -0.001300557 -0.00439
-0.0073810173 0.0013013022 0.00225568 -0.002274367 -0.0041663954 0.0028802182 0.006201361 0.003524819
-0.0022151198 0.005864456 -0.00019310649 0.008257477 -0.005517032 0.0004521625 -0.00039015082 0.021363856
-0.00038260268 -0.0007136179 -0.009648831 0.011402356 0.012447895 -0.0005596808 -8.51477e-05 0.016079053
0.02765287 0.00074684387 0.0007301046 0.008607004 0.0036514732 -0.0022751254 0.00042939573 -0.0042312853
0.021727724 0.0019882454 -0.006529795 -0.019638244 0.0020004949 0.0039140806 -0.0009644847 0.008858702
0.002886278 0.002904611 -0.0020589195 -0.008415221 -0.0010972754 -0.00503641 -0.0035223053 0.012015587
-0.0075263963 -0.006799458 -0.004029292 -0.0020975515 -0.0063734436 -0.002665299 -0.00027547622 -0.012739631
-0.020242764 0.0011923444 -0.0019701335 -0.028257376 -0.0026703826 -0.010092804 0.015093612 0.0060399612
-0.0051488103 -0.009754588 -0.0042176945 -0.0228595 -0.008704308 -0.017057696 0.006286085 0.0012105413
-0.0018018067 0.005732657 -0.009015254 -0.00822182 -0.0051576057 -0.0068003153 -0.008151819 -0.029875468
-0.012274193 -0.017213976 -0.01638661 0.01698559 -0.013396991 -0.010651315 5.392699e-05 -0.0041972795
-0.0162579 -0.0031106067 -0.0056494884 0.007363053 -0.005815456 0.0002468143 -0.0024134468 -0.0020727972
-0.009603997 -0.0021662144 0.00047036327 -0.024108078 -0.002942043 -0.0018633063 -0.0045165145 -0.0015447082
-0.0356259 -0.096495695 0.05928315 -0.048270825 -0.049296327 -0.04698267 0.011266692 0.076624155
0.078178994 0.00037698663 0.019660367 -0.02413974 0.051272072 -0.014504576 -0.049170464 0.01938207
-0.08887664 0.020378996 0.016546587 0.022748075 0.05463204 -0.08493375 -0.08981129 0.010110633
-0.038126122 -0.001714769 -0.014317437 -0.09757837 0.055472694 -0.03554081 -0.05715658 0.002843518
0.111694366 0.0138385985 -0.064726055 0.030211542 -0.030429043 -0.104305215 0.11740586 -0.08924324
0.055607215 0.08538981 -0.013808209 0.0036501558 0.076510385 0.089904346 -0.036275275 0.06989394
-0.06202755 -0.065271884 -0.028126884 0.04299981 -0.013636458 -0.013203406 -0.06001009 -0.07612399
-0.022161255 -0.0469443 -0.07051261 0.042593237 -0.07427409 -0.06909815 0.068297386 -0.11028432
0.003469737 0.031049702 -0.007767235 0.0011085658 -0.016382927 -0.00037118368 -0.0077872477 -0.027909452
-0.03049611 -0.0024862392 -0.0009106224 0.0037122085 0.004636632 0.0009542722 0.008399917 0.0005696153
-0.02254176 -0.00048137284 -0.0006021106 0.017410863 0.00032672437 0.0044758916 0.02785184 -0.00036759226
-0.009331233 0.0034989663 -0.009120866 0.008133699 0.0049193953 0.0074011907 0.0067003886 -0.0027043456
-0.003865586 -0.017527571 -0.012591718 0.010322653 -0.004919933 0.0009382334 0.011038355 0.021876525
-0.0019404774 0.0065950477 -0.0015236839 -0.000885168 0.020091062 0.0074332436 -0.006730821 -0.024837866
-0.01089262 0.0003801148 -0.002503082 0.0085274875 0.0025562295 -0.0014931473 -0.010208776 -0.0014469035
0.021560924 -0.0070012896 -0.0060447655 0.011692971 0.0036464154 0.003960696 -0.00059524266 0.0061921347
00000000: 1ba5 023c ceec 82bc 0c86 0aba 29d0 b43c
00000010: 0f9c f0bc 6af3 403a 1c28 dcbb db9c 103d
00000020: fb3b a53c c635 80ba 8893 89bb 8dc2 863b
00000030: 3720 1d3b d41e 1dbc be77 a6bc 206e 6b39
00000040: 914a 84bc 2a51 2cbb a104 5e3b f9ae c53b
00000050: aa14 883a be7e 5439 7477 aaba fdd9 8fbb
00000060: 76dc f1bb 7590 aa3a 08d4 133b 8c0d 15bb
00000070: 4286 88bb 0bc2 3c3b c934 cb3b a600 673b
00000080: 8b2b 11bb 9f2a c03b a17c 4ab9 5e4a 073c
00000090: 38c8 b4bb 3910 ed39 288d ccb9 4103 af3c
000000a0: 1098 c8b9 1612 3bba 2116 1ebc f3d0 3a3c
000000b0: 41f2 4b3c 8bb7 12ba 5391 b2b8 38b8 833c
000000c0: 4688 e23c d8c7 433a 7e64 3f3a 6404 0d3c
000000d0: 8e4d 6f3b 451a 15bb 8520 e139 98a6 8abb
000000e0: 57fe b13c 394d 023b e4f7 d5bb 62e0 a0bc
000000f0: bc1a 033b b041 803b 79d5 7cba 1724 113c
00000100: b627 3d3b 495b 3e3b f0ee 06bb ffdf 09bc
00000110: 74d2 8fba 7808 a5bb 7ad6 66bb 06dd 443c
00000120: fd9f f6bb fdcd debb 2708 84bb 1377 09bb
00000130: 52d8 d0bb 4cac 2ebb cb6d 90b9 e3b9 50bc
00000140: 27d4 a5bc 7048 9c3a 5b1d 01bb 037c e7bc
00000150: 9601 2fbb 4a5c 25bc 324b 773c deea c53b
00000160: 5ab7 a8bb b5d1 1fbc 9634 8abb d943 bbbc
00000170: 849c 0ebc 95bc 8bbc 81fb cd3b 07ab 9e3a
00000180: 9a2a ecba 03d9 bb3b b7b4 13bc d0b4 06bc
00000190: 2201 a9bb 2ed5 debb 358f 05bc 66bd f4bc
000001a0: b219 49bc 5304 8dbc 363d 86bc 5d25 8b3c
000001b0: 0e7f 5bbc da82 2ebc aa2f 6238 5589 89bb
000001c0: 4a2f 85bc 52db 4bbb 581f b9bb c445 f13b
000001d0: 958f bebb db66 8139 eb2a 1ebb c4d7 07bb
000001e0: 155a 1dbc 0cf7 0dbb 179b f639 4e7e c5bc
000001f0: 4acf 40bb 2f3a f4ba 45ff 93bb ce77 caba
00000200: 77ec 11bd 899f c5bd e3d2 723d a1b7 45bd
00000210: f2ea 49bd e670 40bd ee97 383c 20ed 9c3d
00000220: 4f1c a03d 4aa6 c539 c70e a13c b4c0 c5bc
00000230: aa02 523d 9aa4 6dbc f866 49bd 26c7 9e3c
00000240: f504 b6bd daf1 a63c b58c 873c 2c5a ba3c
00000250: d9c5 5f3d bff1 adbd fbee b7bd 12a7 253c
00000260: 232a 1cbd 1ac2 e0ba af93 6abc 2bd7 c7bd
00000270: 5637 633d 3e93 11bd 051d 6abd 515a 3a3b
00000280: 04c0 e43d 4abb 623c 188f 84bd 327e f73c
00000290: 5446 f9bc f99d d5bd 7c72 f03d 29c5 b6bd
000002a0: 64c4 633d dae0 ae3d d43b 62bc 7437 6f3b
000002b0: 7ab1 9c3d c51f b83d 6295 14bd 8e24 8f3d
000002c0: 9a10 7ebd 44ad 85bd 5a6a e6bc 9220 303d
000002d0: 736b 5fbc 1953 58bc 24cd 75bd e5e6 9bbd
000002e0: 858b b5bc ab48 40bd ea68 90bd 3f76 2e3d
000002f0: 041d 98bd 5583 8dbd 80df 8b3d bfdc e1bd
00000300: 8764 633b f25b fe3c 4a84 febb 4c4d 913a
00000310: 7d35 86bc 6e9b c2b9 2b2c ffbb 5da2 e4bc
00000320: fad2 f9bc 2cf0 22bb d6b6 6eba 8648 733b
00000330: e3ee 973b 2028 7a3a ce9f 093c 3c52 153a
00000340: 7fa9 b8bc c560 fcb9 f5d6 1dba 3aa1 8e3c
00000350: 344c ab39 80aa 923b 8b29 e43c 66b9 c0b9
00000360: 07e2 18bc ea4e 653b af6f 15bc 3543 053c
00000370: e132 a13b b085 f23b ef8e db3b 643b 31bb
00000380: c555 7dbb fb95 8fbc 7e4d 4ebc 5820 293c
00000390: 6437 a1bb c7f3 753a 37da 343c 6636 b33c
000003a0: 9e57 feba 451b d83b 59b6 c7ba 9e0a 68ba
000003b0: 0396 a43c 9192 f33b 388e dcbb c878 cbbc
000003c0: f676 32bc 254a c739 bf0a 24bb e0b6 0b3c
000003d0: 6a86 273b b6b5 c3ba b642 27bc 06a6 bdba
000003e0: 89a0 b03c 136b e5bb 2b13 c6bb e093 3f3c
000003f0: b3f8 6e3b bac8 813b 0f0a 1cba 64e7 ca3b

lstm.bn1.weight f4 [7]
0.10527533 0.18808864 0.28214368 0.36226663 0.41011357 0.4884946 0.707809
00000000: 989a d73d 4f9a 403e 2375 903e 037b b93e
00000010: 68fa d13e f71b fa3e f832 353f

lstm.bn1.bias f4 [7]
0.00019270627 0.0014485753 0.0023739403 0.0011654627 -0.00028108383 -0.0007728729 -0.010464121
00000000: 3211 4a39 1fde bd3a 1c94 1b3b 70c2 983a
00000010: 6f5e 93b9 9f9a 4aba b471 2bbc

lstm.bn1.running_mean f4 [7]
0.0033618868 0.0049676835 0.0057363724 0.006105849 0.006284125 0.0063704834 0.0064119706
00000000: 1a53 5c3b f3c7 a23b 2ef8 bb3b 9313 c83b
00000010: 10eb cd3b 7dbf d03b 821b d23b

lstm.bn1.running_var f4 [7]
0.0006059618 0.00129974 0.0017181109 0.0019371266 0.0020460356 0.0020990367 0.002124516
00000000: 68d9 1e3a 0a5c aa3a 3c32 e13a 2fe7 fd3a
00000010: c816 063b fe8f 093b 773b 0b3b

lstm.lstm2.weight_ih_l0 f4 [256, 64]
0.0004988835 -0.0003922967 0.00029631727 -0.00051529665 -0.00047852084 -0.00058492384 0.00063675706 0.0006757256
-0.00018261743 5.321227e-05 0.00020110287 -0.0003802961 0.00031649685 -0.00043410106 -0.0005083038 9.95087e-05
-0.0006766859 -0.00023126967 0.00052916555 -0.00031755827 -0.00055074337 -0.0004387716 0.000663878 0.00032495137
-0.00052283646 0.0004293863 7.5623466e-05 -0.00067199435 0.000475027 0.00012214153 -0.00078040396 0.00042180714
-0.0005999666 3.1891606e-05 -0.0007242757 0.00025583152 -8.782946e-06 -0.0004898664 0.000506979 -0.00056878675
-0.00020431216 -0.0004059682 -0.00017501348 0.00034768748 0.0005352914 4.4177246e-05 0.0004107019 -6.4746737e-06
-0.0002141601 -0.00053870765 -7.4631466e-06 7.62123e-05 -2.097502e-06 -0.0004659067 -0.00026150935 -0.0002504822
-0.00054365565 -0.00031368135 -0.00041140744 0.00041887217 -0.0008040015 0.00027843492 -0.00019331161 -0.0003039755
-1.4228652e-05 -0.0004986985 0.0006546355 -0.00068536034 -0.0022517603 -0.0011684702 0.0023412793 0.002157347
0.00089990953 -0.00049219816 -0.00072355 -0.0021916935 0.00041433028 -0.0011899942 -0.0025552039 0.0021903955
-0.002459344 -0.0017005053 0.0023030431 0.0010337204 -0.0007338197 -0.00205414 0.0025420582 0.0014647895
-0.0012245632 0.0018890246 0.0012442346 0.000222823 0.002273032 0.00097285403 -0.001851238 0.0020191798
-0.0018234837 0.0011472612 -0.0020436253 0.001967575 0.00189337 -0.0026842726 0.0005086027 0.00051716994
-0.0006905809 -0.0016318115 -0.0013000612 0.0020183509 0.0023898215 -0.00026264662 0.00165504 0.00053938286
0.0004621929 -0.0008024335 0.0012431961 -0.0009221125 -0.0003483647 -0.0017959131 -0.0010776008 -0.0017552682
-0.0024170899 -0.0017626537 -0.000974696 0.0007676093 -0.0027079363 0.00046634357 -0.0020928087 6.7033034e-05
0.0002754099 0.0014013376 0.0015874295 -0.0016592564 -0.0011027033 0.0005750945 -0.003364599 0.0018546722
-0.003222442 0.0008952643 0.0015191806 0.0010112167 -0.00071783975 0.0012851222 0.0051628402 -0.00079151994
-0.0022780513 -0.0008460438 -0.0029725924 -0.002916887 -0.0014506491 0.00022115756 -0.006405003 -0.00463899
-0.00045652356 0.0041185203 -6.163813e-05 0.00097301265 0.0016289623 -0.000650964 0.00014200142 -0.00092761836
0.0012239248 -0.0021805374 0.0007540065 -0.0016233425 -2.9240447e-05 0.0018680887 0.00014883331 -0.00032283366
0.0006442823 0.00024379446 0.0006346745 -0.0046835677 -0.0011555946 7.629072e-05 -0.002156435 -0.0022249483
-0.001073049 0.0015979753 0.00114934 0.00080847536 -0.000819033 0.004122518 0.004342918 0.00079162343
0.004728411 0.0020338306 0.0008582626 -0.001402883 0.0014160215 -0.0004302604 0.0020475166 0.00042132754
-9.845499e-05 0.0015478446 0.0012861323 0.00030157188 0.0010856928 0.00044006298 -0.0010501698 -0.0010127472
-0.0003638285 0.0016570146 0.0015882457 0.00085865863 0.0003364822 0.0005699104 0.00076807325 -0.00039207513
0.00155892 -0.000322888 -0.0014446158 -0.0009988915 -0.0004660599 -2.7360544e-05 -0.000515663 -0.0014139302
-0.0005579859 3.917824e-05 0.0003504976 0.00014517785 -0.0005255664 -0.0014742387 0.0005372282 -0.0006565691
0.00041283475 3.1993393e-05 0.00032501944 -0.0010300067 -7.0480404e-05 0.0012797905 -0.0005434265 -0.00059765694
-2.7158849e-05 -0.00015081145 0.0006930093 -0.0016453366 -0.0013733614 0.0010580891 -8.450664e-05 -0.00046407082
2.3773905e-06 0.00050780893 -0.00051596086 0.0007078794 0.00076524506 0.00075834803 -0.00017946155 0.00074336596
0.0011436724 -0.0004605873 -8.21484e-05 -0.0005261999 0.00041308973 0.0007291284 0.0009938434 0.0010573821
00000000: 81c7 023a 2cad cdb9 085b 9b39 f914 07ba
00000010: fbe1 fab9 9355 19ba 0bec 263a 2d23 313a
00000020: fe7c 3fb9 3d30 5f38 24df 5239 7a62 c7b9
00000030: 7def a539 0f98 e3b9 b13f 05ba 54af d038
00000040: 9f63 31ba fb80 72b9 b3b7 0a3a f37d a6b9
00000050: c35f 10ba ed0a e6b9 1908 2e3a 3c5e aa39
00000060: f60e 09ba 411f e139 0a98 9e38 c728 30ba
00000070: 0b0d f939 1e13 0039 0694 4cba ff25 dd39
00000080: 1447 1dba 5ac3 0538 52dd 3dba 2021 8639
00000090: 775a 13b7 616a 00ba c9e6 043a a21a 15ba
000000a0: a13c 56b9 21d8 d4b9 d383 37b9 d349 b639
000000b0: cc52 0c3a f54a 3938 7a53 d739 0641 d9b6
000000c0: 2a90 60b9 0f38 0dba f16b fab6 2bd4 9f38
000000d0: cfc2 0cb6 f044 f4b9 311b 89b9 2753 83b9
000000e0: 1d84 0eba 9975 a4b9 2cb2 d7b9 129c db39
000000f0: a1c3 52ba e7fa 9139 b1b3 4ab9 e75e 9fb9
00000100: 98b7 6eb7 17bb 02ba d89b 2b3a c1a9 33ba
00000110: 4592 13bb 5b27 99ba 2670 193b 4762 0d3b
00000120: e8e7 6b3a dc06 01ba 9eac 3dba 84a2 0fbb
00000130: 783a d939 94f9 9bba 3575 27bb bd8c 0f3b
00000140: f22c 21bb 7de3 deba a7ee 163b e77d 873a
00000150: ce5d 40ba c09e 06bb a998 263b 2efe bf3a
00000160: 8681 a0ba 2699 f73a 9615 a33a 98a5 6939
00000170: 26f7 143b 2107 7f3a 3da5 f2ba 3754 043b
00000180: f601 efba b35f 963a 58ee 05bb 6ef2 003b
00000190: f42a f83a 9fea 2fbb c053 053a b092 073a
000001a0: 1a08 35ba 82e2 d5ba d166 aaba 4f46 043b
000001b0: 8d9e 1c3b d5b3 89b9 eded d83a 5f65 0d3a
000001c0: 7b52 f239 675a 52ba bdf2 a23a ecb9 71ba
000001d0: b8a4 b6b9 d864 ebba 483e 8dba 0711 e6ba
000001e0: 0a68 1ebb d808 e7ba be82 7fba 6339 493a
000001f0: a277 31bb 937f f439 8127 09bb 1694 8c38
00000200: e464 9039 16ad b73a 4c11 d03a 687b d9ba
00000210: 9588 90ba f0c1 163a 9b80 5cbb 7918 f33a
00000220: 9b2f 53bb 2cb0 6a3a 3e1f c73a cd8a 843a
00000230: 692d 3cba 8c71 a83a 0b2d a93b 017e 4fba
00000240: 5c4b 15bb 0ac9 5dba d3cf 42bb 3e29 3fbb
00000250: b523 beba 88e6 6739 0fe1 d1bb ab02 98bb
00000260: 8e59 efb9 a7f4 863b b843 81b8 c611 7f3a
00000270: e882 d53a 74a5 2aba 37e6 1439 6a2b 73ba
00000280: 1a6c a03a 59e7 0ebb 85a8 453a 56c6 d4ba
00000290: 6249 f5b7 a8da f43a 2310 1c39 0042 a9b9
000002a0: 0ee5 283a 14a3 7f39 4960 263a 9d78 99bb
000002b0: 5277 97ba 45fe 9f38 fa52 0dbb 70d0 11bb
000002c0: 8da5 8cba 2773 d13a 73a5 963a ddef 533a
000002d0: 60b4 56ba 3016 873b 094f 8e3b f384 4f3a
000002e0: c9f0 9a3b 044a 053b 07fd 603a f1e0 b7ba
000002f0: cc99 b93a 9394 e1b9 a12f 063b a0e5 dc39
00000300: 9f79 ceb8 0ce1 ca3a 7093 a83a 4b1c 9e39
00000310: ce4d 8e3a 41b8 e639 daa5 89ba 28be 84ba
00000320: 3cc0 beb9 2f30 d93a af2c d03a 9b17 613a
00000330: e069 b039 0a66 153a 8658 493a 6f8f cdb9
00000340: ad54 cc3a 4b49 a9b9 4359 bdba 3ded 82ba
00000350: 8059 f4b9 5284 e5b7 8f2d 07ba a053 b9ba
00000360: cd45 12ba 5153 2438 fec2 b739 e23a 1839
00000370: 2ac6 09ba 3e3b c1ba c6d4 0c3a 9b1d 2cba
00000380: be71 d839 a530 0638 5f67 aa39 4a01 87ba
00000390: e1ce 93b8 a5be a73a bc74 0eba 14ac 1cba
000003a0: 2fd3 e3b7 2423 1eb9 11ab 353a 56a8 d7ba
000003b0: 5d02 b4ba 94af 8a3a 2839 b1b8 884e f3b9
000003c0: 428b 1f36 7b1e 053a 8c41 07ba fb90 393a
000003d0: ba9a 483a e0cb 463a d82d 3cb9 72de 423a
000003e0: 47e7 953a fb7a f1b9 1647 acb8 adf0 09ba
000003f0: f793 d839 fb22 3f3a da43 823a db97 8a3a

lstm.lstm2.weight_hh_l0 f4 [256, 64]
7.4017235e-06 2.8476485e-05 5.2662577e-05 1.2645225e-05 0.00020908711 1.49733005e-05 3.1310003e-05 -2.9458995e-05
-0.00016014373 3.086246e-05 8.778948e-05 -4.3921827e-05 -0.00016526981 2.9744624e-05 4.4919252e-05 -0.000113683374
-4.9861683e-05 1.7129829e-05 4.6664474e-05 -3.4402343e-05 -5.741072e-05 -7.8907915e-06 -1.3945848e-05 -1.9158808e-05
2.7567094e-05 -2.8097462e-05 3.0496e-05 5.8675992e-05 9.794803e-05 6.0233633e-05 5.3709267e-05 -9.5975345e-05
1.741035e-05 1.1042423e-05 4.4449664e-07 -7.214934e-05 8.8544286e-05 -3.578228e-05 -0.000110693894 4.4306425e-06
-6.824251e-05 8.291362e-05 0.00013259193 1.0556896e-05 3.3219305e-05 5.33105e-05 -9.878988e-06 -8.8254346e-05
2.353311e-05 5.80452e-05 1.7492202e-05 -2.319478e-05 -1.8159494e-06 -1.9249512e-05 -9.776832e-06 5.2738058e-05
-3.0762967e-05 4.3049462e-05 1.5345377e-06 -4.6138593e-05 2.6314976e-05 -1.8002316e-05 6.9601854e-05 3.4044373e-05
9.079624e-06 6.791554e-05 0.0002096206 -7.629359e-05 0.0003229722 3.6264323e-06 -9.42042e-05 -4.0190258e-05
-0.000214771 -4.0560662e-05 0.00014403713 -0.00013876137 -0.00019107961 0.00012512761 0.0001842178 -0.00026979836
1.0463244e-06 0.00011531991 0.00021692383 9.686917e-05 -4.4545322e-05 -0.00015421805 -8.342414e-05 1.28614065e-05
7.806264e-05 -5.222397e-05 9.237547e-05 0.00010412751 0.000130598 0.00017256584 8.710583e-05 -0.0002859903
-5.0120143e-05 -8.513089e-07 3.7036458e-05 -9.3102564e-05 5.3513006e-05 -1.3768337e-05 -0.00062296045 -9.424665e-05
-0.00016469578 0.0001271987 0.00029526037 -1.7117246e-06 -2.939652e-05 8.4891006e-05 -2.186698e-05 -0.000114266324
8.600282e-05 7.523864e-05 8.416978e-05 2.81222e-05 1.7793269e-05 -9.011253e-05 -0.00012246423 0.00015391021
-9.0363515e-05 4.4574623e-05 5.9494996e-05 -0.00014059086 1.9537336e-05 1.717397e-05 2.7514157e-05 0.00012114577
1.0204935e-06 0.00022131424 -0.0006859154 -0.00030570372 0.00015654079 4.3834134e-05 0.00023402741 -7.899071e-05
0.00021581125 0.00025868395 0.0003760906 2.1461554e-05 0.00018548274 0.0002119901 0.0001537616 -7.836736e-05
-0.0005855079 0.00019554682 -0.0005793815 -0.00011509998 -0.00023660433 0.00021143744 -0.0001295842 -0.00021255383
-0.00024324261 4.04866e-05 -0.00011016551 -1.2902186e-06 0.00069699966 0.0005360559 -2.5706802e-05 4.3509102e-05
0.00012956494 0.00021013024 4.6450576e-05 4.2361193e-05 0.0002294426 -5.6687335e-05 0.00024906787 0.00042490955
0.00031292374 2.3404802e-05 -0.00016300227 -1.396651e-05 0.00036231417 -0.00013953405 -7.729048e-05 4.4260025e-07
-0.00039111768 0.00037413047 0.00026775815 -0.0001678134 0.00019638507 0.00025062927 0.00039591355 -0.00010349848
-8.4078725e-05 0.0002205458 0.00015147026 0.00024047562 -0.00029109194 -0.00013908293 -0.00015026548 -0.00020762028
6.212939e-05 8.160765e-05 -0.00019177046 -0.0002194875 0.0002540462 8.014641e-05 -7.0979727e-06 -0.00018498705
-8.305482e-06 3.949481e-05 0.00028808546 5.985767e-06 0.00013034066 0.00024904468 0.0003307842 -8.274746e-05
-0.00023630176 8.017205e-05 7.001255e-05 3.959018e-05 -7.5351063e-06 2.9107107e-06 -1.1872644e-05 -0.00015259614
-6.613619e-05 -6.738344e-05 -7.278241e-05 0.00011658811 -0.00026622362 0.00030338016 1.3950136e-05 -0.00022534531
6.962104e-05 8.897932e-05 1.4344373e-05 8.884185e-06 2.8533146e-05 5.401362e-06 -0.00012451611 -5.221894e-05
7.305529e-05 4.886778e-05 7.044651e-05 0.00011697671 5.1844218e-05 4.4826127e-05 0.00013275136 -0.00010580355
-0.00014214468 8.890866e-05 0.00027634526 -0.00013486097 0.00013158751 -2.3302894e-06 1.9798015e-05 -3.0123294e-05
-1.5547983e-05 0.00028430263 0.00025297396 -7.157057e-05 2.9948873e-05 -0.00015017898 -8.5854495e-05 5.8241334e-05
00000000: 525c f836 c9e0 ee37 03e2 5c38 d426 5437
00000010: 653e 5b39 d635 7b37 dc52 0338 b61e f7b7
00000020: 41ec 27b9 5072 0138 9e1b b838 b438 38b8
00000030: 474c 2db9 1884 f937 ae67 3c38 4c69 eeb8
00000040: 9322 51b8 07b2 8f37 99b9 4338 3c4b 10b8
00000050: 4bcc 70b8 b162 04b7 f6f8 69b7 3ab7 a0b7
00000060: e23f e737 d7b2 ebb7 a9d1 ff37 de1a 7638
00000070: 7369 cd38 5fa3 7c38 e345 6138 5f46 c9b8
00000080: 710c 9237 d842 3937 27a3 ee34 e24e 97b8
00000090: dab0 b938 ee14 16b8 5524 e8b8 eeaa 9436
000000a0: 6b1d 8fb8 e9e1 ad38 6008 0b39 861d 3137
000000b0: f554 0b38 b799 5f38 eebd 25b7 3115 b9b8
000000c0: f868 c537 8f75 7338 38bc 9237 6992 c2b7
000000d0: 8cbb f3b5 037a a1b7 2c07 24b7 0f33 5d38
000000e0: 7c07 01b8 0290 3438 50f6 cd35 f084 41b8
000000f0: fbbe dc37 ae03 97b7 36f7 9138 deca 0e38
00000100: b054 1837 e16d 8e38 9acd 5b39 cfff 9fb8
00000110: 9854 a939 a25d 7336 7f8f c5b8 f691 28b8
00000120: 2734 61b9 ae1f 2ab8 ac08 1739 7980 11b9
00000130: 8b5c 48b9 b034 0339 972a 4139 b973 8db9
00000140: 6f6f 8c35 e8d7 f138 0c76 6339 3d26 cb38
00000150: 2dd6 3ab8 98b5 21b9 fef3 aeb8 52c7 5737
00000160: 90b5 a338 100b 5bb8 b4b9 c138 085f da38
00000170: 22f1 0839 caf2 3439 96ac b638 f8f0 95b9
00000180: 1838 52b8 8185 64b5 9857 1b38 0f40 c3b8
00000190: 2773 6038 8ffe 66b7 2b4e 23ba 49a6 c5b8
000001a0: 30b2 2cb9 a460 0539 2dcd 9a39 69be e5b5
000001b0: 8c98 f6b7 8307 b238 fb6e b7b7 44a2 efb8
000001c0: 6a5c b438 70c9 9d38 4e84 b038 f7e7 eb37
000001d0: c142 9537 ccfa bcb8 be69 00b9 f562 2139
000001e0: 8b81 bdb8 a3f5 3a38 448a 7938 926b 13b9
000001f0: 1ce4 a337 d210 9037 34ce e637 a40f fe38
00000200: e4f7 8835 9710 6839 01cf 33ba dc46 a0b9
00000210: 1925 2439 8bda 3738 4165 7539 d1a7 a5b8
00000220: 644b 6239 f99f 8739 072e c539 5608 b437
00000230: 257e 4239 a949 5e39 113b 2139 2859 a4b8
00000240: c57c 19ba b30b 4d39 a2e1 17ba d561 f1b8
00000250: fe18 78b9 4eb5 5d39 fee0 07b9 fce0 5eb9
00000260: f10e 7fb9 28d0 2938 a808 e7b8 932b adb5
00000270: dbb6 363a 1a86 0c3a f0a4 d7b7 8b7d 3638
00000280: d3db 0739 6856 5c39 edd3 4238 fcac 3138
00000290: 8796 7039 90c3 6db8 5395 8239 65c6 de39
000002a0: ea0f a439 6e55 c437 97eb 2ab9 b451 6ab7
000002b0: fcf4 bd39 e34f 12b9 0317 a2b8 849e ed34
000002c0: ed0e cdb9 f126 c439 e461 8c39 11f7 2fb9
000002d0: b7ec 4d39 e466 8339 9e92 cf39 530d d9b8
000002e0: 6c53 b0b8 5042 6739 fdd3 1e39 2f28 7c39
000002f0: b39d 98b9 cad6 11b9 9590 1db9 a5b4 59b9
00000300: 764b 8238 c624 ab38 fe15 49b9 3a26 66b9
00000310: 8131 8539 4714 a838 1f2b eeb6 15f9 41b9
00000320: c657 0bb7 3ba7 2538 2d0a 9739 59d9 c836
00000330: 0eac 0839 3692 8239 1b6d ad39 b488 adb8
00000340: c5c7 77b9 0b22 a838 b4d3 9238 a20d 2638
00000350: 12d6 fcb6 a155 4336 9e30 47b7 3702 20b9
00000360: 99b2 8ab8 3550 8db8 c2a2 98b8 c480 f438
00000370: ee93 8bb9 ff0e 9f39 610b 6a37 ac4a 6cb9
00000380: 8301 9238 699a ba38 9da8 7037 490d 1537
00000390: 775a ef37 593d b536 8a90 02b9 a905 5bb8
000003a0: 4335 9938 61f7 4c38 afbc 9338 6551 f538
000003b0: 4e73 5938 b003 3c38 2c33 0b39 d9e2 ddb8
000003c0: ac0c 15b9 7974 ba38 6fe2 9039 7769 0db9
000003d0: c1fa 0939 1162 1cb6 ea13 a637 48b1 fcb7
000003e0: 0a6d 82b7 740e 9539 97a1 8439 2818 96b8
000003f0: b73a fb37 5d79 1db9 c80c b4b8 2848 7438

lstm.lstm2.bias_ih_l0 f4 [256]
0.00065178215 0.0023158912 0.004536819 -0.0012350833 -0.00050054805 0.00044875318 0.001327849 0.007015316
-0.00436345 0.0009143485 0.0054070717 0.0010934552 0.0008803421 0.00490924 0.009158603 0.000532119
-0.007559637 -0.002900652 -0.0029708203 -0.002600805 -0.0028388265 -0.0010077598 -0.00034525798 0.007026586
-0.0008264253 6.200036e-05 0.0014715003 0.00018121176 0.03281962 0.004330391 0.00074103125 0.001035271
0.0008346822 0.0021844562 0.0008903307 -3.385569e-05 0.012551969 0.0015905076 0.016551062 -0.0015453763
0.0017190502 -9.724207e-05 0.004640298 -0.00024925979 -0.0019757412 0.0007519547 0.0010197823 -0.00088266487
2.13062e-05 0.009349803 0.007971174 0.006629623 0.0020898646 -0.0036177707 -0.0006901123 -0.0023910902
0.0024294173 0.007308849 0.003513467 0.0045710253 0.003034148 0.0036343767 -0.002353263 -0.0012895688
-0.00068361056 -0.007828341 -0.0061861495 -0.0016753945 -0.013485246 -0.0013336202 -0.0035438805 0.008133707
-0.0066593946 -0.003187183 -0.010117401 0.00012780195 -0.0016105477 0.004129893 0.0067472183 -0.005223054
-0.032497928 -0.024748618 -0.0061932285 -0.0037545962 -0.00957662 0.0007931638 -0.005501342 0.007626368
-0.00063245336 0.00022950396 -0.007149328 -0.000841476 -0.052778132 -0.0067997808 -0.0018033365 -0.001967522
-0.0004727179 -0.0019097452 0.00060559064 -0.00028575733 0.009748694 -0.0029618863 -0.028205238 -0.0012106862
-0.005821944 -0.0053108465 0.0038468908 -0.0005240007 -0.0051143137 -0.00011596812 0.0001886999 -0.0011926212
-0.0033794863 -0.015969297 0.0113137225 -0.0016485383 3.2394375e-05 -0.001963819 -0.0020510438 -0.0011731676
-0.007259269 0.006168647 0.0020570701 -0.0015910179 -0.0041924757 0.005890467 0.0009953763 -0.0038998236
-0.034407314 -0.020922337 0.009129022 0.07337475 0.054308362 0.016309287 0.06516527 -0.025730783
-0.08923866 0.025432868 0.05279322 -0.0065965946 -0.073375165 -0.06928555 -0.05413446 -0.02181433
0.0339338 -0.074140996 -0.06771465 -0.04537739 0.04107286 0.011027145 0.07946768 0.03740494
-0.03602383 -0.053336456 0.045101512 -0.028252305 0.051630262 -0.05973711 0.025384206 -0.0031691696
0.03934337 0.044704214 -0.018248355 -0.0548275 -0.07085079 -0.05616332 0.06907691 -0.021973612
0.0094971 -0.010999523 0.029357273 0.08327168 -0.08041742 -0.00616079 0.003985905 0.053827196
-0.005307076 -0.015234194 -0.06607678 -0.06435856 -0.02568926 -0.03591033 -0.037046663 -0.010745599
0.025723314 0.023614764 -0.020796245 -0.052634053 0.034514986 0.0041948874 0.049767356 -0.010022097
0.0007695247 0.0023836046 -0.013969228 -0.0011782536 0.0032686586 0.00041193864 0.0012698633 0.0069473363
-0.0027987957 0.0010039377 0.00507755 0.0011567281 -0.0025063797 0.0049048057 0.009037067 0.00047740978
0.022614678 -0.0023970362 -0.0028931668 -0.002225029 -0.002789196 -0.000986585 0.00037128423 0.006903189
-0.00039379962 4.4731325e-05 0.0014823586 0.0002666145 0.020461807 0.003966971 0.00063096115 0.0009965659
0.0008611569 0.0021677143 0.00090559805 -0.00021051281 0.012532444 0.001599795 0.016479312 0.0032426221
0.0040782955 -0.004882087 0.0048524123 -0.00025102435 -0.0021316893 0.0006842508 0.001025034 0.0039158748
-0.0031578427 0.00954958 0.007099541 0.0068364753 0.002112273 0.0030284398 -0.0006719938 -0.0015232116
0.0027482077 0.0071241637 0.0035581451 0.0046353764 0.0031566867 0.0035062758 -0.0016398096 -0.001392502
00000000: 5cdc 2a3a 35c6 173b 99a9 943b 85e2 a1ba
00000010: 3637 03ba a246 eb39 380b ae3a bce0 e53b
00000020: 46fb 8ebb e4b0 6f3a ce2d b13b 4552 8f3a
00000030: c2c6 663a b1dd a03b f70d 163c e77d 0b3a
00000040: d5b6 f7bb dd18 3ebb 18b2 42bb 4472 2abb
00000050: 9b0b 3abb cf16 84ba be03 b5b9 473f e63b
00000060: 77a4 58ba 3106 8238 5bdf c03a a903 3e39
00000070: de6d 063d f4e5 8d3b c441 423a eeb1 873a
00000080: 93ce 5a3a 1829 0f3b 1565 693a 4500 0eb8
00000090: c6a6 4d3c 9478 d03a 1896 873c 398e caba
000000a0: c151 e13a 70ee cbb8 a40d 983b 15af 82b9
000000b0: 707b 01bb d31e 453a 37aa 853a a362 67ba
000000c0: b7ba b237 eb2f 193c 8799 023c 4f3d d93b
000000d0: 1cf6 083b 1f18 6dbb a7e8 34ba d6b3 1cbb
000000e0: dc36 1f3b 127f ef3b 3242 663b 8ac8 953b
000000f0: 8ed8 463b b92e 6e3b 3439 1abb c006 a9ba
00000100: 5434 33ba 7142 00bc 2fb5 cabb e998 dbba
00000110: 39f1 5cbc decc aeba 7340 68bb 3d43 053c
00000120: 0d37 dabb 0fe0 50bb 75c3 25bc 9302 0639
00000130: 0319 d3ba 0e54 873b c517 dd3b 2726 abbb
00000140: 8c1c 05bd 9dbd cabc 91f0 cabb ac0f 76bb
00000150: 41e7 1cbc 52ec 4f3a 9a44 b4bb 9de6 f93b
00000160: 3acb 25ba 00a7 7039 e944 eabb 8096 5cba
00000170: e22d 58bd b2d0 debb ef5d ecba 8bf1 00bb
00000180: 1fd7 f7b9 6a50 faba 80c0 1e3a b3d1 95b9
00000190: fcb8 1f3c 351c 42bb ac0e e7bc e3af 9eba
000001a0: 02c6 bebb 9c06 aebb 1e1c 7c3b 175d 09ba
000001b0: f995 a7bb e933 f3b8 bedd 4539 ba51 9cba
000001c0: 5f7a 5dbb 0bd2 82bc 315d 393c c413 d8ba
000001d0: 32df 0738 6ab3 00bb ce6a 06bb f9c4 99ba
000001e0: 29df edbb 5d22 ca3b e9cf 063b b489 d0ba
000001f0: 0961 89bb d204 c13b 4977 823a 2f94 7fbb
00000200: afee 0cbd 5265 abbc e591 153c 8045 963d
00000210: 7272 5e3d 0e9b 853c 5e75 853d 5dc9 d2bc
00000220: c2c2 b6bd 9758 d03c b43d 583d 3f28 d8bb
00000230: b845 96bd 95e5 8dbd 18bc 5dbd f7b3 b2bc
00000240: 2bfe 0a3d 3cd7 97bd faad 8abd a4dd 39bd
00000250: 043c 283d 33ab 343c f3bf a23d ec35 193d
00000260: b98d 13bd 5477 5abd 5dbc 383d 6171 e7bc
00000270: 417a 533d e6ae 74bd 8af2 cf3c d8b1 4fbb
00000280: 8326 213d c41b 373d 937d 95bc cd92 60bd
00000290: 381a 91bd 820b 66bd 3278 8d3d 0102 b4bc
000002a0: b999 1b3c 5837 34bc aa7e f03c 588a aa3d
000002b0: e3b1 a4bd 74e0 c9bb 329c 823b e879 5c3d
000002c0: fbe6 adbb d798 79bc 4353 87bd 6cce 83bd
000002d0: 4872 d2bc b616 13bd 3ebe 17bd 4f0e 30bc
000002e0: b3b9 d23c c073 c13c e35c aabc ce96 57bd
000002f0: 965f 0d3d 4475 893b dbd8 4b3d b933 24bc
00000300: eeb9 493a 4036 1c3b 30df 64bc a16f 9aba
00000310: fe36 563b 78f9 d739 8b71 a63a 7ba6 e33b
00000320: 006c 37bb 8f96 833a 9461 a63b 5b9d 973a
00000330: 1342 24bb 7eb8 a03b 3510 143c db4c fa39
00000340: 6b42 b93c 9817 1dbb 499b 3dbb cbd1 11bb
00000350: f2ca 36bb 4d50 81ba eda8 c239 2534 e23b
00000360: e476 ceb9 e59d 3b38 b34b c23a 64c8 8b39
00000370: 859f a73c 5dfd 813b 1667 253a 349f 823a
00000380: 43bf 613a 3610 0e3b a865 6d3a 1abd 5cb9
00000390: e154 4d3c 36b0 d13a 9fff 863c 2c82 543b
000003a0: 39a3 853b eaf9 9fbb fc00 9f3b eb9b 83b9
000003b0: d0b3 0bbb 4b5f 333a 6f5a 863a bd50 803b
000003c0: cff3 4ebb d775 1c3c 44a3 e83b 8304 e03b
000003d0: 0f6e 0a3b ca78 463b be28 30ba 80a6 c7ba
000003e0: 461b 343b d171 e93b c52f 693b 5be4 973b
000003f0: 6ae0 4e3b 8cc9 653b e1ee d6ba 9d84 b6ba
