073123/0811_experiment_3.pth (torch, 644853 bytes, 40 tensors)

lstm.lstm1.weight_ih_l0 f4 [256, 12]
00000000: f626 ac3a 7303 9f3a 0951 9b3b 947a 903b
00000010: 4d74 e9b9 3718 f53a 8b93 813b 2ba8 c33a
00000020: ce5e ba3a 513c 0d3b 9e0b 5b3b a047 b23a
00000030: dc54 f03a 7b53 013a 135e 363b 1576 043b
00000040: 9d51 43b8 1cde a53a 1df5 c73a 6179 a43a
00000050: 4d12 9a3a ae15 bc3a a296 7e3a 4130 fc3a
00000060: 1f75 bdba 7114 bc3a 0dd0 273a a3d6 a0b9
00000070: b0b8 d3b8 b206 ca3a 91f3 043b 16cc 003b
00000080: b5be 023b 2d29 c837 a720 e338 f061 963a
00000090: 583d 0a3a 5cbe 55ba d775 1f3b 02bf 0bbb
000000a0: 7960 b939 b355 a4ba 1f99 ce3a 5cd3 8bba
000000b0: 2383 23ba fd4f 323a 401e d1ba 9e96 113a
000000c0: ae93 e738 9874 8e3b c32e 823b f8d8 a0b9
000000d0: 18df 063a e589 033b ee46 4e3a 523c 4339
000000e0: a8ab eab8 4b10 1aba 9c4e acb8 4e36 25bb
000000f0: 2143 6d3b 2a9c 2f3b 27db 993b 31b1 823b
00000100: 6fac a23a 5018 8d3b 3b91 3f3b e55d 463b
00000110: de57 473b fffa 583b c225 4f3b c892 803b
00000120: 78b0 8f3b b5fe e7b9 60a0 c73a e3f4 123b
00000130: d62e 17b9 d6e0 1b3b e456 f63a f0f6 b43a
00000140: 7e06 b13a 26a4 5d3a b8df 5e3a ce39 f23a
00000150: 61d8 8f39 d85d b339 f290 feb9 7f68 b0b8
00000160: 4ff5 9bb9 43c8 80b9 7af7 0dba 89e8 e6b8
00000170: a2de a2b8 af7d 113a 2dd0 9ab8 92d9 4cb9
00000180: b3f1 483a 1fb5 203a 3d46 8fba b21e c3ba
00000190: 6e91 0a3a e4eb 68b8 34f7 0838 19be 173a
000001a0: f960 1a3a 7d6d 1a39 62f5 aeba be90 f5b8
000001b0: 7edf c13a d4ae 1cba 495e 403a d429 86ba
000001c0: 444d 293b 93cf 603a db94 053b 42ff f43a
000001d0: f70c ed3a 7d26 203a 95d9 ab3a fe75 aaba
000001e0: bda8 05ba 4353 efba b10b 8dba 90b0 a7b9
000001f0: bd06 3bb7 b8c0 6eba 1af0 0fba 3a5a 95ba
00000200: 5cdc 90ba c2d2 82ba 17b3 0038 5539 d539
00000210: ec16 1d3b 9a04 263b 42ef 733b f241 663b
00000220: 778b da38 7b88 453b b933 a43b 480d 753b
00000230: 770b 723b fef0 593b 63c5 4f3a 2275 e93b
00000240: 75f6 f9b8 3ebc 8b3a 610e 5e3a f870 4e3a
00000250: 8aed 773a b5d5 0ab9 cbb1 0138 543a dc39
00000260: 9143 df39 4768 923a f5b6 ae3a 06b4 a9b9
00000270: 0877 423a 1edb 6f3a 9d63 3937 9586 b33a
00000280: 1eab 5eb9 068d acb9 dbb2 c43a c329 643a
00000290: ad4e 5e3a 7250 6a3a cd1a 423a 94e8 803a
000002a0: 9bf7 013b cb04 4939 59df 4f3b c059 90ba
000002b0: 02bf aa3a 1120 aa3a be80 b13a 372e 853a
000002c0: 9514 913a cfbf 48b9 c8a2 34ba 8dab f7ba
000002d0: c5e9 a03a 2a10 4ab9 9752 cb39 6356 d63a
000002e0: 2350 f9ba 5b4a 093a 6ecb 283b 1057 0b3b
000002f0: 1b0d 103b 60e6 623a 90fe 4539 c84b 223b
00000300: ae5b 3a39 047f 7b39 b918 8d3a ccb1 a83a
00000310: ed82 1f3a 5291 c73a 26b2 993a 1ed7 9a3a
00000320: d703 a13a f336 7c3a 3987 a03a 356a c53a
00000330: 8190 163b 55e7 ef39 5d64 393b 42fa c73a
00000340: dd93 813a 31cc e43b 4b5c 363b 9580 283b
00000350: 571a 303b 0f6f 68ba 4bd9 753a ffb7 be3a
00000360: bcb4 b0ba adf5 88ba 436c 6d3b 1062 0b3a
00000370: d5f6 083a 7e7b b73a 6ea8 b3b9 b80a 1e3b
00000380: 3733 1d3b e490 613a eaf3 49ba ef05 c1ba
00000390: 833d 793b c95d 033b e82f 533b 659e 7b3b
000003a0: 58ee 1f3a 2ad6 973b ff5c b43b b639 613b
000003b0: cdce 613b 0346 7137 c86b 173b 97cb 533a
000003c0: 1023 1b39 4f3b 133b f21b b83a 1818 bab8
000003d0: dd61 3d3b f172 3b3b 9dbd cb3a bf68 053b
000003e0: 9ba5 083b a24a 7d3b ae55 733a d9da c73a
000003f0: bd12 f939 f059 233a 3f7b 943a a0ab 96b9
0.001313417 0.0012131765 0.0047398848 0.0044091437 -0.00044527874 0.0018699233 0.003954356 0.0014927437
0.0014218928 0.0021550844 0.0033423672 0.0013601668 0.0018335837 0.0004933399 0.0027827069 0.0020211984
-4.656763e-05 0.0012654695 0.0015255545 0.0012548381 0.0011754722 0.0014349723 0.0009711777 0.0019240455
-0.001445446 0.0014349354 0.00064015464 -0.00030677495 -0.00010095665 0.0015413372 0.0020286778 0.0019652895
0.0019950096 2.3861032e-05 0.000108302855 0.001147328 0.0005273423 -0.0008153671 0.0024331713 -0.0021323566
0.00035357827 -0.0012537747 0.0015762186 -0.0010667848 -0.00062374974 0.00068020803 -0.001595445 0.0005553755
0.00011042446 0.004347395 0.0039728596 -0.00030679232 0.0005144938 0.0020071205 0.0007868846 0.0001861912
-0.00011189963 -0.00058770616 -8.216241e-05 -0.002520937 0.0036203342 0.0026795962 0.0046953144 0.003988408
0.0012411008 0.004305877 0.0029230851 0.0030268368 0.0030417363 0.003310859 0.0031608199 0.0039237477
0.0043850504 -0.00044249525 0.0015230291 0.0022423796 -0.0001441793 0.0023785136 0.0018794206 0.0013806503
0.0013505963 0.0008454941 0.00085019646 0.0018480362 0.000274363 0.0003421146 -0.00048554648 -8.411798e-05
-0.00029746673 -0.0002456327 -0.00054156 -0.00011010568 -7.7662306e-05 0.00055500394 -7.382068e-05 -0.00019536007
0.00076654105 0.0006130505 -0.0010930967 -0.0014886467 0.0005285953 -5.55328e-05 3.2655153e-05 0.00057885196
0.0005889084 0.00014727372 -0.0013348276 -0.00011709471 0.0014791337 -0.0005976979 0.00073382683 -0.0010235854
0.0025833407 0.0008575853 0.0020382914 0.0018691795 0.0018085529 0.0006109251 0.0013111109 -0.0013005135
-0.00050986913 -0.0018259067 -0.0010760931 -0.00031984271 -1.1147637e-05 -0.0009107697 -0.0005490795 -0.0011394687
-0.0011052 -0.0009981024 3.068437e-05 0.00040669242 0.0023969961 0.0025332333 0.0037221466 0.0035134521
0.000104210274 0.0030141163 0.0050110486 0.003739195 0.0036933103 0.0033255215 0.0007925836 0.007124559
-0.000119191514 0.0010660959 0.00084707706 0.000787511 0.00094576983 -0.00013240318 3.092158e-05 0.00042005128
0.00042584215 0.0011169993 0.0013329672 -0.0003236832 0.000741825 0.00091497775 1.1050052e-05 0.0013696725
-0.00021235316 -0.00032911467 0.0015006916 0.0008703733 0.00084803515 0.0008938379 0.00074045063 0.0009834939
0.0019831422 0.0001917064 0.003171882 -0.0011013076 0.0013026895 0.0012979527 0.0013542396 0.0010160868
0.0011068756 -0.0001914494 -0.00068907114 -0.0018895731 0.00122767 -0.00019270243 0.00038780711 0.001635265
-0.0019021075 0.0005237215 0.002575602 0.002126161 0.0021980468 0.00086555444 0.00018882216 0.0024764407
0.00017772496 0.00023984542 0.0010764814 0.001287037 0.0006084878 0.0015225804 0.0011726066 0.0011813377
0.001228447 0.0009621225 0.0012247331 0.0015061559 0.0022974315 0.00045757988 0.002828858 0.0015257078
0.0009885986 0.0069823493 0.0027826007 0.0025711406 0.0026871169 -0.00088666467 0.00093783875 0.0014550685
-0.0013481597 -0.0010449194 0.003622786 0.00053170417 0.0005224769 0.0013998596 -0.0003426703 0.0024115276
0.0023986825 0.0008604659 -0.00077038875 -0.00147265 0.0038031049 0.0020044914 0.00322246 0.003839397
0.00061008846 0.0046336846 0.00550425 0.0034366674 0.0034455538 1.438102e-05 0.0023105014 0.00080793485
0.00014795014 0.002246577 0.0014046414 -8.873659e-05 0.0028897442 0.0028602446 0.001554418 0.0020356623
0.0020850662 0.003864922 0.00092824816 0.0015247717 0.00047506942 0.0006231358 0.0011328234 -0.000287381

lstm.lstm1.weight_hh_l0 f4 [256, 64]
00000000: bcdc 8eb8 91ab a739 989c 1fb9 b216 71b9
00000010: 69d3 b5b9 edfa 09b9 e4b3 24b9 4667 92b8
00000020: db27 6f39 a878 c438 014c 4239 55dd 8db8
00000030: 33ca b939 8015 8539 ee4d 73b9 4119 85b9
00000040: ca40 6637 a456 c1b9 7c6c b2b9 5bad a839
00000050: 507a bdb8 0dc9 a1b9 1430 2339 c12a 223a
00000060: f4ee 7fb9 a54d 4bb7 d788 3738 19b8 2639
00000070: 485f 22b9 9052 6cb9 5f50 8b38 eb39 7db9
00000080: 1fa0 f4b9 1153 afb9 15ae 9239 64c3 91b9
00000090: 4a30 bb38 9bef 69b9 6fc3 6838 7c2d 9c39
000000a0: 69e9 2037 a3cf a839 2c37 b239 5a57 d738
000000b0: 0627 d037 061c 7b39 17d8 87b7 7d3d ae39
000000c0: 520b aeb9 337b 7839 9f93 12b9 6d31 8439
000000d0: 98f2 18b9 0c01 c137 a22e 4c39 de9e 3eb9
000000e0: ff6d a0b7 340d 4cb9 7d28 e737 5956 3439
000000f0: b977 1cb9 3eca b5b8 63fb d237 def9 5439
00000100: ec2c bb38 24db aab7 3cc2 b635 d1f3 1f39
00000110: 1f80 a337 2d09 94b8 6be7 2f38 7c5c 1bb8
00000120: e529 03b7 4d22 e6b8 b1d4 f437 57ab 0d39
00000130: 821e abb6 f5ee 0b39 2c42 a238 e200 98b8
00000140: 5ee0 2a37 a4eb 6838 b58a d137 bb69 5838
00000150: 54c9 6cb8 b43c ea38 fd5c dbb8 7d42 1238
00000160: a3d2 c938 2d5e cfb8 aea3 25b7 6083 3db8
00000170: 6b0f 0638 377e b638 7851 9d38 9d9f a438
00000180: 53da ec37 1917 9037 b2f4 d9b7 7a49 a938
00000190: 3fa7 95b7 aab9 6d38 d933 6d38 b4ae 0d38
000001a0: 9c2e 76b8 c858 ccb8 166e 01b8 93ba 9337
000001b0: 8d20 a5b8 a37a 1939 acb0 0c39 302a cb38
000001c0: 1133 1038 5029 60b6 2145 9437 bdcb 7ab7
000001d0: 2aef 8038 cf59 29b7 650e 8938 f4f4 a2b7
000001e0: b802 9738 c77e 30b8 eb21 6338 0eb7 42b9
000001f0: 5b9d ed37 bcf0 8238 53ab 9a36 40e9 61b8
00000200: c698 02b9 24c7 88b7 8dfa 0239 178b dcb7
00000210: f221 a0b7 83cc 31b8 7ce3 4338 e372 2237
00000220: 41f1 9a37 f026 0b37 ccf7 9d38 4ae4 de38
00000230: 53c4 9a38 bd09 f1b7 2634 0cb8 507b 3cb8
00000240: 18c5 0537 aa98 2fb8 df95 9e36 95b8 4e37
00000250: 0c48 1039 acd5 c637 a471 48b8 a387 3539
00000260: ab05 67b7 fb0f ceb8 18b9 dbb8 4c2c 75b7
00000270: 6189 a038 e382 9cb8 c4b2 0639 29b1 67b8
00000280: c7c5 2438 d68d d038 de90 1fb8 1e1a e1b8
00000290: 174c 2938 348e ecb7 e94a 32b8 b1c5 fb38
000002a0: 2b64 46b8 1cc0 0139 350c 8438 26b3 7c38
000002b0: 0619 d238 bcce a638 cbbb d738 64db 2b39
000002c0: 47fe bb38 d602 50b8 bab0 a737 58bb 8038
000002d0: bcf6 dd38 69b1 8e38 9691 2039 4ad2 a438
000002e0: e6e6 e238 437d f838 b5fc 4e38 2df5 4c38
000002f0: 5c3b 4b37 4bbf a838 8f03 0e38 0ed5 3b37
00000300: f15c 093a c4ad afb9 3780 7339 4e56 9638
00000310: a86b 26b9 c3c1 bbb9 ad53 a039 3c27 01b5
00000320: a3e1 a838 8ee5 dbb9 bae4 25b9 85c5 9939
00000330: a92b 0fb9 2792 9138 e784 deb7 dc5f 3c36
00000340: 3936 2339 caed 4839 ef0f 87b9 c322 bcb9
00000350: 1c8b ad38 dffe 8839 4d5f 1fb9 446e 12ba
00000360: 2ab6 6537 146b cdb8 4b66 f8b7 d123 a2b9
00000370: 339c a939 5f82 cd39 1a54 0039 dc69 243a
00000380: 2083 8439 0864 d038 956e 54b9 553d b139
00000390: 72dc 42b8 dd5f 0939 53a0 c739 b857 bbb9
000003a0: d3c6 54b8 0011 01ba 6096 9cb9 df81 aab9
000003b0: 4500 c0b9 a864 6e39 778a 093a f7d7 9239
000003c0: 022e 2cb9 c70a b4b9 ac17 c239 8647 7039
000003d0: a9ea 00b9 1378 c3b8 e609 0639 4622 61b9
000003e0: 9fa2 7b38 d448 24b9 ade1 5239 260e 0bba
000003f0: 7531 a739 1792 1a39 27b5 b538 aa6f 02ba
-6.8122026e-05 0.0003198055 -0.00015221757 -0.00022992006 -0.00034680523 -0.00013158815 -0.00015707273 -6.981059e-05
0.00022807663 9.368482e-05 0.00018529595 -6.76463e-05 0.000354366 0.00025383756 -0.00023203317 -0.00025386552
1.3724153e-05 -0.0003687638 -0.00034031633 0.00032172617 -9.035005e-05 -0.00030858107 0.00015562802 0.00061861804
-0.00024407712 -1.2117821e-05 4.3758042e-05 0.00015899575 -0.00015485019 -0.00022537471 6.643007e-05 -0.00024149536
-0.00046658606 -0.0003344049 0.0002797699 -0.00027802133 8.9258494e-05 -0.00022309872 5.5495122e-05 0.00029788527
9.591088e-06 0.00032198158 0.00033991912 0.000102682694 2.4813704e-05 0.00023947665 -1.6193879e-05 0.0003323368
-0.000331963 0.00023697018 -0.00013978638 0.00025213827 -0.00014586223 2.300788e-05 0.00019472328 -0.00018178995
-1.9124707e-05 -0.00019459875 2.75562e-05 0.00017198305 -0.0001492192 -8.668423e-05 2.5151012e-05 0.00020310978
8.925222e-05 -2.0367625e-05 1.3616586e-06 0.0001525425 1.9490775e-05 -7.058899e-05 4.1938776e-05 -3.7041013e-05
-7.817963e-06 -0.00010973644 2.9186109e-05 0.00013510637 -5.0997487e-06 0.00013345091 7.7370874e-05 -7.248089e-05
1.0185029e-05 5.5532568e-05 2.4979332e-05 5.1596882e-05 -5.6454286e-05 0.00011169296 -0.00010460054 3.4871035e-05
9.623661e-05 -9.888071e-05 -9.872876e-06 -4.5183464e-05 3.196245e-05 8.7019456e-05 7.501518e-05 7.84986e-05
2.8235057e-05 1.7176893e-05 -2.5982361e-05 8.072234e-05 -1.7840064e-05 5.6678116e-05 5.655349e-05 3.3779725e-05
-5.869438e-05 -9.744015e-05 -3.0858522e-05 1.7610646e-05 -7.873876e-05 0.00014636903 0.00013417256 9.687652e-05
3.4379835e-05 -3.3402648e-06 1.7675166e-05 -1.4948598e-05 6.1480634e-05 -1.0094095e-05 6.53535e-05 -1.942597e-05
7.2007475e-05 -4.207974e-05 5.4152606e-05 -0.00018569475 2.8325876e-05 6.243723e-05 4.6095024e-06 -5.386141e-05
-0.00012454679 -1.6305195e-05 0.00012491104 -2.6290812e-05 -1.9089293e-05 -4.2390555e-05 4.6703484e-05 9.682702e-06
1.8470573e-05 8.2941115e-06 7.532499e-05 0.00010628307 7.3798605e-05 -2.8733974e-05 -3.3427168e-05 -4.4937537e-05
7.973307e-06 -4.186543e-05 4.7262142e-06 1.2321533e-05 0.0001375975 2.3702938e-05 -4.7789552e-05 0.00017312034
-1.3769993e-05 -9.825822e-05 -0.0001047721 -1.4613452e-05 7.654983e-05 -7.463039e-05 0.00012845831 -5.5239685e-05
3.928484e-05 9.944632e-05 -3.8043472e-05 -0.00010733701 4.0363604e-05 -2.819961e-05 -4.2508273e-05 0.000120054356
-4.7300167e-05 0.00012373965 6.296524e-05 6.0248327e-05 0.00010018241 7.954004e-05 0.00010286978 0.0001638956
8.964218e-05 -4.9593706e-05 1.9990246e-05 6.138411e-05 0.00010584059 6.804133e-05 0.00015313024 7.859299e-05
0.00010819528 0.00011848893 4.934958e-05 4.8865728e-05 1.2113564e-05 8.046495e-05 3.3858752e-05 1.1195674e-05
0.00052399846 -0.00033508067 0.0002322205 7.168633e-05 -0.00015871099 -0.00035811783 0.0003057992 -4.811334e-07
8.0528924e-05 -0.00041941967 -0.00015820834 0.00029329598 -0.00013653807 6.941362e-05 -2.652635e-05 2.806998e-06
0.00015565091 0.0001916207 -0.00025761078 -0.00035884054 8.275194e-05 0.00026129835 -0.00015198924 -0.0005585889
1.3691877e-05 -9.7951066e-05 -2.9611538e-05 -0.00030925733 0.0003235057 0.0003919778 0.00012238362 0.0006271878
0.00025274698 9.936845e-05 -0.0002025909 0.00033805767 -4.645851e-05 0.0001310105 0.0003807569 -0.00035732775
-5.072991e-05 -0.00049234927 -0.00029866677 -0.00032521688 -0.00036621295 0.00022734946 0.0005246768 0.00028008196
-0.00016420337 -0.00034340305 0.000370202 0.00022914828 -0.00012294449 -9.32069e-05 0.00012782923 -0.0002147044
5.9994516e-05 -0.0001566739 0.00020111231 -0.00053045375 0.0003188957 0.00014741007 8.664495e-05 -0.00049757457

lstm.lstm1.bias_ih_l0 f4 [256]
00000000: 2bb4 bc3b 9422 0c3b 517f 163b 56a0 0e3b
00000010: 7312 a8b8 bd85 ba3b f735 453b a486 d9b9
00000020: b7bc e739 56f8 d83b 721c abba 4014 bc3b
00000030: 77e7 5b3a 6c9a be3a b656 3cbb 71af ca3a
00000040: badb 053b ba00 893b 6e8f ab3a 2558 d83b
00000050: e2fa 3c3b 1d4a e439 ea29 143a 7b43 b93b
00000060: 16b6 5f3b ccbd 423b 91fb 4b3b 1e65 90ba
00000070: a0d8 2a3b 8110 15bb 67d4 8b3b 9d33 363c
00000080: 5f56 69ba 9cef ffb9 df91 813b dc01 793a
00000090: 9e26 4f3a 28f1 073a 5605 23bc 8494 a6b8
000000a0: d33a aaba 915a b8bb 6906 c93b f3c1 6f3b
000000b0: c16b 323b 214b 6a3b 9d76 683c 9628 403b
000000c0: 50fd 7939 85b3 ef3a bbe3 c63b bef0 6dba
000000d0: 8a03 a33b 4dab 0d3b d9f3 693b 8b49 d83b
000000e0: 18d8 563b 2590 7cb8 83cf 873b 0f94 213c
000000f0: 5b85 f53a a50a 493b e4dc a33a 2a4f 3c3c
00000100: 539f d5bc e1d2 db3b 0d67 e8b9 e738 2bbb
00000110: 3313 42bc a01e 9b3a f876 de3a ac0f 2fba
00000120: 1397 83bb bc04 0bbd 1d29 b5bb c00a 123b
00000130: 251c 0eba 9690 b0b9 19d0 80bb 0fc5 953b
00000140: 4a41 243b a45f e63b dfb1 7ebc 0011 a33b
00000150: aa0c b8bb e4b1 763b 9725 073a 6c68 753b
00000160: 6d97 ba3b 94b1 3e3b 9cc3 853b b554 08bd
00000170: 059d 07bc aba0 b1bb 29c4 f6bb 58fd 0a3c
00000180: 5c7e 7bbb 1b26 093c fa23 a63b fdeb 4cba
00000190: e1a6 2d3b 8bc9 4c3a b0f2 bdbc 3756 7dba
000001a0: 620c 90bb 4547 a3bc 12bc 5f3c d918 963b
000001b0: 41d7 6f3b 88f1 35bc f956 0fbd 5b79 d5bb
000001c0: bd4c 12bc 473c 4fbb 81c1 d63b 434c b3bc
000001d0: 5346 4b3b 45d3 0b3b f125 81bc f786 37bc
000001e0: dd80 5fba 1095 99bb 6155 99bb 60c1 dabc
000001f0: e2b9 0dbc b47e a9b8 bf04 033b 7ff1 1abd
00000200: 4fde 153d 3339 36bb 430d f0bc ac57 37bd
00000210: 1beb e03b 59df 0e3d 7f4e 73bd 36e0 6bbd
00000220: 6a0f 073c 4b19 aa3d 5cd8 913d f433 0c3d
00000230: c7d0 af3d 19b1 95bb 76f0 ad3d 907c 543d
00000240: fa1c 243c eaba 00bd e2bb 363d a1b1 473d
00000250: bf02 acbd a06e 183c 67ec 77bd a7af 913d
00000260: ab1f 89bd 9af9 80bd 16fc 9a3d e6d4 573d
00000270: fefb 533d 5119 5fbd 76ee 68bd 9656 0b3d
00000280: 65b4 e83c 24cf 2b3d 2c58 73bc 1316 93bd
00000290: cf04 94bc 4e00 a7bd 3840 2fbd ed37 3b3d
000002a0: 2bd1 983d 092d a83c 79af 4d3d 9665 143d
000002b0: 5b62 38bd be1d b43c a62f f1bd 6b46 5b3d
000002c0: a36a b93d 0f95 9c3c 899f 843d 85a8 04bd
000002d0: a15d 013d 3df0 eabc 91e2 bebc 1fb1 853d
000002e0: dd84 9dbd f55d e33b 5396 d73c 27a0 963d
000002f0: 9762 68bb fd28 30bd 3618 f3bc 7f8f 84bc
00000300: a55a bf3b c97d 0c3b 6c94 173b 53ad a6b9
00000310: 1f75 f63a 71dc bb3b c365 463b d832 d8b9
00000320: 2467 eb39 3402 ee3b 23a8 a4ba c57b bf3b
00000330: cebd 593a e9b0 bf3a 3ce3 3d3b 4cbf cc3a
00000340: 869d 063b 02a8 893b 9d35 a43a 5cc5 da3b
00000350: 3b79 3c3b 1b45 df39 3be6 1c3a 26b4 b73b
00000360: 4c84 5e3b c853 413b eaf9 4a3b 8f1b f3ba
00000370: 16d4 273b 942e 50bb 52c8 8b3b 139b 363c
00000380: b82d 68ba 51ec 50ba bbc9 813b f388 793a
00000390: d8ac 533a 4f97 093a 1719 2ebc 1264 feba
000003a0: dfe4 aaba f82e cbbb 21ce c83b fc8f 6d3b
000003b0: 59f0 343b 78cd 5e3b 5a26 493c fc36 403b
000003c0: 1277 bc38 b044 f53a 3251 c83b 3663 b6ba
000003d0: f153 a43b 4b2b 0d3b 2036 c53a aef7 d83b
000003e0: 59f5 553b 48c8 6bb8 f0e4 873b aec4 243c
000003f0: 8a48 f63a 663a 473b 0efb a33a c2df 3cbb
0.0057587824 0.0021382915 0.002296407 0.0021763048 -8.014301e-05 0.0056922124 0.003009198 -0.0004148978
0.00044200357 0.006621401 -0.0013054742 0.0057397187 0.0008388678 0.0014541871 -0.0028738207 0.0015463663
0.0020425157 0.004180995 0.001308901 0.0066023045 0.0028836061 0.00043542768 0.00056519976 0.0056537963
0.0034135631 0.0029715179 0.0031125287 -0.0011016463 0.002606906 -0.0022745433 0.0042672637 0.011120704
-0.0008901115 -0.00048815913 0.003954157 0.0009498873 0.0007902178 0.00051857764 -0.009950003 -7.94316e-05
-0.0012987502 -0.0056260307 0.0061347974 0.0036584109 0.002722487 0.0035750347 0.014188436 0.0029321066
0.00023840857 0.0018287754 0.006069628 -0.0009076706 0.004974787 0.0021616996 0.0035698323 0.006600564
0.003278261 -6.0215727e-05 0.0041446104 0.00986196 0.001873176 0.003067651 0.0012501744 0.011493484
-0.026076948 0.0067084883 -0.00044327267 -0.0026126446 -0.011845398 0.0011834688 0.0016972711 -0.00066780555
-0.004015812 -0.033940062 -0.0055285827 0.002228424 -0.0005421064 -0.0003367706 -0.003931057 0.0045706104
0.002506333 0.007030444 -0.015545337 0.004976392 -0.005616744 0.0037642652 0.00051554426 0.0037446273
0.005694321 0.0029097544 0.0040821563 -0.033283908 -0.0082771825 -0.0054207644 -0.0075307083 0.008483253
-0.0038374877 0.008370901 0.0050702067 -0.00078171474 0.0026497173 0.00078120147 -0.023187011 -0.0009664031
-0.0043960074 -0.019931445 0.013655679 0.004580599 0.0036596807 -0.011104949 -0.034995053 -0.006514711
-0.008929429 -0.0031621621 0.006553829 -0.02188695 0.0031017258 0.0021335643 -0.015765162 -0.011201612
-0.0008525977 -0.004686959 -0.0046793674 -0.026703537 -0.008650275 -8.082148e-05 0.0019991843 -0.037827965
0.036588963 -0.002780509 -0.029303199 -0.044761345 0.0068639643 0.03488097 -0.05940103 -0.05758687
0.008243421 0.083056055 0.071213454 0.034229234 0.08584743 -0.004568231 0.0849313 0.051876605
0.010016674 -0.031428255 0.044612773 0.048753385 -0.08398961 0.009303719 -0.060528185 0.07113581
-0.06695493 -0.06297608 0.07567613 0.05269327 0.05175399 -0.054467503 -0.05686804 0.03401812
0.028406331 0.04194559 -0.014852565 -0.07181945 -0.0180687 -0.08154355 -0.042785853 0.04570763
0.074617706 0.020529287 0.050216172 0.036229692 -0.045015674 0.021986838 -0.11776666 0.053533953
0.090535425 0.019114045 0.064757414 -0.032387275 0.031583432 -0.028679008 -0.023301395 0.06527924
-0.07691357 0.006938691 0.026316797 0.073547654 -0.0035459155 -0.04300784 -0.02967463 -0.016181706
0.005839663 0.0021437278 0.0023129238 -0.00031791124 0.0018803215 0.005733066 0.0030273057 -0.00041236612
0.0004489954 0.007263446 -0.0012562316 0.005843612 0.0008306176 0.0014624867 0.0028974554 0.0015620976
0.0020540669 0.0042009363 0.0012528185 0.006676359 0.0028758782 0.00042585362 0.0005985235 0.005606192
0.0033953367 0.00294994 0.0030971714 -0.0018547642 0.002560859 -0.0031766044 0.0042658234 0.011145371
-0.000885691 -0.0007969784 0.0039608157 0.0009519003 0.0008074767 0.0005248682 -0.010626099 -0.0019408485
-0.001303818 -0.0062006675 0.006128088 0.0036249151 0.0027609079 0.003399698 0.01227721 0.0029329648
8.986717e-05 0.0018712487 0.006113195 -0.0013915065 0.0050148894 0.0021540697 0.0015046038 0.0066213226
0.003264746 -5.6214893e-05 0.0041471645 0.010056658 0.0018789929 0.0030399798 0.0012510733 -0.0028819893

lstm.lstm1.bias_hh_l0 f4 [256]
00000000: 540c c23b 9422 0c3b 62e1 163b 3adb b83a
00000010: fc11 113a 2c86 ba3b f735 453b 8e95 d9b9
00000020: 8214 e839 3c8f 013c f413 49ba c912 bc3b
00000030: c1a4 553a de0f bf3a ca71 a83a 3634 ca3a
00000040: badb 053b eb22 893b f673 ba3a 0b4d d83b
00000050: b0a9 3c3b 1bf6 ec39 7f62 4f3a c7cf b83b
00000060: 7ab6 5f3b f090 423b defb 4b3b fd05 d3ba
00000070: 6be2 293b 78a0 2ebb 4aca 8b3b 9a3d 363c
00000080: ae56 69ba 05fc 36ba af84 813b d201 793a
00000090: 7ff0 503a 28f1 073a ac8e 35bc 067f 04bc
000000a0: b740 aaba e024 c9bb 8006 c93b ca5b 6d3b
000000b0: f072 323b c022 1b3b 9785 483c 8033 433b
000000c0: dc30 0e3a a77b e43a bf29 c73b 533b 75b9
000000d0: 591d a33b ab9f 0e3b d13f c63b 2883 d43b
000000e0: 85a4 553b a39c 7cb8 83cf 873b fdc8 233c
000000f0: 5b85 f53a 790a 493b e6dc a33a a464 183c
00000100: abbe d5bc e1d2 db3b 9edc f6b9 5b9f 54bb
00000110: 1d8f 4abc 9c1e 9b3a f876 de3a a30f 2fba
00000120: e596 83bb 0c6d 0dbd 7078 b7bb a415 123b
00000130: 3352 10ba e303 b0b9 33cc 7b38 1a33 953b
00000140: 4a41 243b 335b e63b 0676 7fbc 23ef a23b
00000150: 11fa b8bb ca8d 773b 080b 123a bac8 753b
00000160: 6e97 ba3b ac00 3f3b 9ec3 853b f6e8 05bd
00000170: 4e90 07bc 1649 c1bb e870 f7bb ba12 0b3c
00000180: 5a7e 7bbb 14b1 0a3c 1724 a63b fdeb 4cba
00000190: dcae 2d3b 8bc9 4c3a c07e 01bd 7b79 9cba
000001a0: 6d0c 90bb d3d9 a7bc 12bc 5f3c d95a 963b
000001b0: 33d6 6f3b 429d 2abc 68b5 21bd 00da d2bb
000001c0: cc33 11bc 722e 50bb 7494 d73b 7dcf babc
000001d0: 984a 4b3b bb14 0c3b 86f4 49bc 9375 37bc
000001e0: fa3e 38ba 1695 99bb 6155 99bb 67e3 dabc
000001f0: e2b9 0dbc ce88 a9b8 bf04 033b 143d 15bd
00000200: e730 11bd 12c9 ac3c d6e2 6e3d 1ce4 8b3d
00000210: 9a6c 4bba adfa 70bd 2a34 253d 102d 053d
00000220: 0bc3 4abd 9839 8abc 7748 f8b8 e88e 413d
00000230: 97cd 923d 8da2 b53d 536b 15bc 1c86 48bd
00000240: 0bd9 04bd 1ac6 90bd 23d6 c1bd 3bbf 4b3d
00000250: b00a b33c b6d4 3a3d 7394 bb3d 3b4c 203d
00000260: 3e7a 813d 1b97 adbc 518e 6ebd 29b1 9abd
00000270: a2bd 14bd 6c61 6dbd 6e2b bf3d 5c21 5e3d
00000280: 38b0 83bd 3726 233d bebd 26bc 4346 07bd
00000290: fe5f e3bc cd8e 633d 7a5a 973d 1a99 743d
000002a0: 2405 32bd a4f5 79bd 946d e8bc ef43 173d
000002b0: e1e2 4c3c 19bf dd3c 2865 dd3d 20dc cdbc
000002c0: 9daa c13d e9f8 bd3d 1c3c 5e3c 1306 5ebc
000002d0: e2cc 54bb c451 6a3d fa68 8abd b711 033d
000002e0: 4fa7 813d 63d9 4cbd 82cf 76bb 74ea 90bc
000002f0: 2abb 5abd 9355 173d 2ae8 793c b938 3f3d
00000300: 716c bd3b c97d 0c3b b37c 173b cf70 9e3b
00000310: 40fd 493a 4fdd bb3b c365 463b 0226 d8b9
00000320: f59b eb39 830f c33b 659a 9cba 2a7f bf3b
00000330: aa24 553a e695 bf3a dadd ee3a 579b c93a
00000340: 869d 063b 169c 893b 3b73 633a 4bb2 da3b
00000350: 9ea9 3b3b 0700 033a edbb 6a3a 10fa b73b
00000360: cf84 5e3b a416 413b 5dfa 4a3b ae80 d938
00000370: 7019 273b 00f0 56bb 5dc8 8b3b 7da3 363c
00000380: a12f 68ba b0b3 3fba 72c7 813b ef88 793a
00000390: 19ab 513a 4f97 093a 66ce 95bc af03 f7bb
000003a0: c3e1 aaba eb2e b9bb 20ce c83b 20dc 6e3b
000003b0: 74cd 343b e732 583b bbb4 043c db4c 393b
000003c0: 7cb4 a538 1350 f03a 78df c83b cb62 923a
000003d0: d871 a43b 007b 0e3b cb8e 0d3b 430a d63b
000003e0: 97b7 4f3b c1c2 6bb8 f0e4 873b 841c 243c
000003f0: a048 f63a 423a 473b 12fb a33a 665c 3d3b
0.00592188 0.0021382915 0.0023022522 0.001410342 0.0005533991 0.005692264 0.003009198 -0.00041500892
0.00044265768 0.007907685 -0.0007670515 0.005739544 0.00081498554 0.0014576872 0.0012851295 0.0015426937
0.0020425157 0.0041850707 0.0014225233 0.006600981 0.0028787665 0.0004519679 0.00079111004 0.0056400034
0.0034135864 0.002968844 0.0031125466 -0.0016099807 0.002592231 -0.002664594 0.004266058 0.011123085
-0.0008901161 -0.0006980303 0.0039525847 0.00094988674 0.0007970407 0.00051857764 -0.011081379 -0.008086925
-0.0012989257 -0.006138429 0.006134808 0.003621804 0.0027229153 0.0023671836 0.012238882 0.0029785335
0.0005424151 0.0017431871 0.0060779746 -0.00023387121 0.0049778637 0.002176265 0.006050088 0.0064853616
0.0032599282 -6.022736e-05 0.0041446104 0.00999665 0.001873176 0.0030676408 0.0012501746 0.009301338
-0.026091894 0.0067084883 -0.0004708515 -0.0032443616 -0.012363222 0.0011834684 0.0016972711 -0.000667805
-0.0040157908 -0.034527823 -0.005599074 0.002229073 -0.00055054127 -0.00033572232 6.003324e-05 0.004553211
0.002506333 0.0070299148 -0.015592104 0.004972355 -0.0056450446 0.0037773722 0.0005571102 0.0037503676
0.0056943214 0.0029144688 0.0040821573 -0.032692872 -0.008274151 -0.005898605 -0.0075513013 0.0084883515
-0.0038374872 0.00846507 0.00507022 -0.00078171474 0.002650193 0.00078120147 -0.03161502 -0.001193806
-0.0043960125 -0.020489609 0.013655679 0.0045884666 0.0036596179 -0.01041347 -0.039479643 -0.006434679
-0.008862447 -0.0031765965 0.0065789763 -0.022804016 0.0031019803 0.002137466 -0.012326365 -0.0111974655
-0.0007028427 -0.004686962 -0.0046793674 -0.026719762 -0.008650275 -8.08403e-05 0.0019991843 -0.0364352
-0.035447028 0.021091972 0.058321796 0.06830618 -0.00077600183 -0.058832813 0.04033295 0.032513678
-0.049502414 -0.016873166 -0.00011839059 0.047255427 0.071681194 0.08868895 -0.009119826 -0.04895602
-0.03243355 -0.07069035 -0.094646715 0.04974292 0.021855682 0.045613013 0.09159174 0.0391352
0.06322144 -0.021190217 -0.058241192 -0.07553322 -0.03631366 -0.057954237 0.093344554 0.054231033
-0.064300954 0.039831366 -0.010177074 -0.03302599 -0.027755734 0.055556107 0.07390304 0.05971632
-0.043461934 -0.061025277 -0.028372563 0.03693002 0.012505264 0.027068662 0.1081031 -0.025129378
0.0945637 0.092759915 0.013564136 -0.013551253 -0.0032470752 0.057206884 -0.06758304 0.031999316
0.0633074 -0.050012004 -0.0037660305 -0.017689921 -0.05340115 0.036946844 0.015253106 0.046684954
0.0057807495 0.0021437278 0.0023115098 0.004835225 0.00077052787 0.005733169 0.0030273057 -0.00041227048
0.0004493889 0.005952777 -0.0011947869 0.0058440166 0.00081307685 0.0014616817 0.0018224076 0.0015381378
0.0020540669 0.004199515 0.00086765335 0.006674086 0.0028635035 0.00049972575 0.0008954395 0.0056145266
0.0033953672 0.0029462958 0.0030971982 0.00010371335 0.002549734 -0.003279686 0.0042658285 0.011147377
-0.0008857195 -0.00073128473 0.0039605433 0.0009519001 0.0007998213 0.0005248682 -0.018286895 -0.007538281
-0.0013037253 -0.005651345 0.0061280876 0.0036447123 0.002758828 0.0032989325 0.00809973 0.002827457
7.901431e-05 0.0018334411 0.006130155 0.0011168359 0.005018454 0.0021740794 0.0021600004 0.006531985
0.0031695121 -5.6209745e-05 0.0041471645 0.010016564 0.0018789954 0.0030399715 0.0012510738 0.0028894185

lstm.bn1.weight f4 [7]
00000000: 3163 8e3d b655 ed3d 5e32 263e 7bb4 153e
00000010: b3f3 56bb 2949 213c bc95 133f
0.06952513 0.11588614 0.16230151 0.14619629 -0.0032799065 0.009844103 0.5765035

lstm.bn1.bias f4 [7]
00000000: 6cab a6b9 1c50 39ba a478 a6ba e124 ddb8
00000010: de9e 10ba 5edb a339 f7b3 b1bc
-0.00031789707 -0.0007069127 -0.0012700749 -0.000105449704 -0.0005516837 0.00031253224 -0.02169226

lstm.bn1.running_mean f4 [7]
00000000: 21cf ac3b b2eb 003c 8de6 153c 5b47 203c
00000010: d368 253c a9eb 273c 4222 293c
0.005273715 0.007868694 0.009149206 0.0097826375 0.010095793 0.010249057 0.010323109

lstm.bn1.running_var f4 [7]
00000000: 12c7 6039 c294 f539 71cf 243a 94ba 3b3a
00000010: cc92 473a a18c 4d3a c985 503a
0.00021436464 0.00046840875 0.00062870147 0.0007161286 0.0007613122 0.0007841085 0.0007954506

lstm.lstm2.weight_ih_l0 f4 [256, 64]
00000000: c345 90b8 185f 13b9 8b47 4eb8 435d 2239
00000010: 4009 b537 75fb 7eb9 8fe9 1bb8 2b42 43b9
00000020: 6f1b 4537 38b5 1139 8d96 fb38 943a 6839
00000030: 003a 4939 a41f df38 679b 3f38 a9f5 31b8
00000040: 918e e2b7 10d2 59b8 f05c a8b9 bedc 2139
00000050: 6592 e037 b33c 9337 7c76 12b9 5d3a 2d39
00000060: 7525 43b8 c379 85b9 4f39 c6b8 715d eeb7
00000070: f48c f138 f495 74b9 4e94 0cb8 1494 5639
00000080: e167 7ab8 70a6 23b6 222e 90b9 aabe 32b9
00000090: eb3b 6eb9 df20 adb8 2528 2439 e844 8f39
000000a0: 0d1c a9b8 e632 9338 43d6 be38 437d c938
000000b0: 6754 1ab9 300f c638 6b18 7538 4c8a ba37
000000c0: 1b9e f238 2678 8f38 dd67 8039 36da 06b9
000000d0: 8ddd d538 5aff 5f39 253f 98b7 d593 26b7
000000e0: 579d 2b39 3060 c4b8 1084 16b9 6c63 27b8
000000f0: 8da3 efb8 11c1 4a38 4f6d 99b8 14d5 2337
00000100: ad2b 003b 4e52 91bb 64e5 863a b4d2 903b
00000110: f133 773a 4b72 19bc f1a7 f1ba 637e e9bb
00000120: 61cb 05bb 6d73 d9b9 4fdb ee3a c6a0 0d3c
00000130: 057d 2c3b 3eb7 513b 9d43 2d3b 0764 62bb
00000140: 0ffb eeba 5d66 93ba 6c96 80bb 5c9f 103b
00000150: bd85 33bb 2f4f 673b 7cc4 b3bb c9f7 58b9
00000160: c57e 753b 746e 3abc 1fb2 38bb fb8e 9bbb
00000170: a425 8e3b bdf2 a8bb d3d0 93ba f700 c83b
00000180: 6f9c eaba 60a7 a73a b98a dbbb 28c6 07bb
00000190: 2451 eebb dd53 7eb9 648e 92ba 753d c33b
000001a0: d3c8 a3bb be4e 8abb 5d63 633a f046 843b
000001b0: a4ea d9bb b67c 5e3b 6cb8 893b a2e1 18ba
000001c0: 008d 703b 719e 0f3a 5fee d63b 920e 1dbb
000001d0: 1623 8a3b 9660 0a3b cb2d 0239 3b93 5ab8
000001e0: 1372 a93b 8bdc bcbb 91ae a33a 8a41 daba
000001f0: 7d8f feba e75a 053b 5197 daba d47e 2d3b
00000200: 9303 77b8 ae30 2ab9 e8b6 cbb7 d6c2 1139
00000210: dcd6 03b8 5579 30b8 8afb 5b38 a5a1 0ab9
00000220: 36e3 2cb9 42c5 e2b8 9214 c638 c115 5a39
00000230: ee8b 97b8 b73e a038 f6df 2b39 5234 6cb7
00000240: 003d 1336 1c5c d538 6b38 7a37 e8b2 80b8
00000250: 198b a2b7 fc9e 0838 58e8 08b9 6923 cfb8
00000260: 99be ce38 22ec 2ab9 f451 25b8 206f 1bb7
00000270: dd54 e838 c71c 26b9 e80c 6eb8 833a 4f39
00000280: c792 d538 096f 0839 9421 61b9 e821 0fb8
00000290: 7521 3ab9 6e20 a638 a39e 0839 223b 4439
000002a0: 4bb9 2fb9 0039 25b9 1eac 1938 f323 31b8
000002b0: c092 2ab9 188a 7e37 206b adb7 b53e 19b9
000002c0: 5006 9538 c043 af38 7a1c 6439 d1e6 b0b8
000002d0: 6375 cd38 9560 5d38 460e e2b7 e9bc 1439
000002e0: d144 d238 49f5 34b6 3554 cab8 2c95 d2b8
000002f0: 8156 bdb7 b228 3e39 32a8 beb7 72cf 79b8
00000300: a9a8 863a be9a 47bb aa7d 80bb 3503 8e3b
00000310: 2b8a 99bb 780d 2fbb 2db8 8d3a b1ec d6bb
00000320: 2c5b 983a 4f0c c0bb 63ed b43b 494a ee3b
00000330: d254 1f3b d366 733b 64ce 113a 5ff8 a0bb
00000340: e940 b9ba 7c02 cd3a 9afc 78ba 1872 243b
00000350: 89e6 0a3b 94e9 28bb c9ba 93bb e260 4c3b
00000360: 27e5 463b 0f14 e9bb 1607 98ba c150 48ba
00000370: 8bbd 173b 3162 01bc 3cbf af3b 96ad 6f3b
00000380: 4346 7cbb 710f 853a 54c3 dabb d2eb 6bbb
00000390: 2c9b fabb 74cc ab3a 5123 b73b 24d2 eb3b
000003a0: f7e5 b2bb ce78 153a fcc4 863b 187f 013b
000003b0: 8667 9dbb 4948 783b 7e5f a63b 596d 023b
000003c0: cd65 903a dcb4 293b 7560 c63b 6fca beb9
000003d0: 440e 9f3b 5039 c539 0b1c 913b a47c bfba
000003e0: 1dc8 993b f591 05bb 6774 cf39 bd91 6bbb
000003f0: 570c 8dba 2935 903b eddc 9eb8 04ab 45bb
-6.879449e-05 -0.00014054438 -4.9180857e-05 0.00015484267 2.1581189e-05 -0.00024317003 -3.7172398e-05 -0.00018621299
1.1748502e-05 0.00013895787 0.00011996655 0.00022147066 0.0001919046 0.00010639362 4.568268e-05 -4.2428877e-05
-2.7007687e-05 -5.1932468e-05 -0.000321127 0.0001543639 2.6771051e-05 1.755203e-05 -0.00013967784 0.00016520308
-4.6526508e-05 -0.00025458456 -9.45205e-05 -2.8415323e-05 0.0001151803 -0.00023325515 -3.351672e-05 0.00020463794
-5.970139e-05 -2.4385772e-06 -0.00027500192 -0.00017046431 -0.0002271977 -8.2554056e-05 0.00015655214 0.00027326425
-8.063773e-05 7.018987e-05 9.099815e-05 9.607759e-05 -0.00014718027 9.4442046e-05 5.8435293e-05 2.2237327e-05
0.00011568909 6.841151e-05 0.00024491447 -0.00012860526 0.000101978985 0.00021362063 -1.8149216e-05 -9.928791e-06
0.00016366444 -9.3639246e-05 -0.00014354312 -3.9908497e-05 -0.00011426872 4.834036e-05 -7.315969e-05 9.765168e-06
0.0019557283 -0.0044348603 0.0010291752 0.004419649 0.0009430042 -0.0093656285 -0.0018436891 -0.007125662
-0.0020415413 -0.00041475464 0.0018223318 0.008644288 0.0026319635 0.003200009 0.0026438006 -0.0034544484
-0.001823278 -0.0011245717 -0.0039241817 0.0022067642 -0.0027392947 0.0035295 -0.0054860692 -0.00020691672
0.0037459594 -0.011378873 -0.002818234 -0.004747269 0.004337983 -0.00515589 -0.0011277444 0.0061036306
-0.0017899404 0.001279097 -0.0066998866 -0.0020717476 -0.0072728563 -0.00024254569 -0.0011181352 0.005958254
-0.0049983053 -0.0042208126 0.0008674169 0.0040367767 -0.006650286 0.0033948845 0.004202893 -0.0005831962
0.0036705136 0.00054786267 0.006559178 -0.0023964983 0.0042156084 0.0021114699 0.00012414825 -5.211237e-05
0.0051710694 -0.0057635955 0.0012487938 -0.0016651612 -0.0019421425 0.0020348371 -0.0016677176 0.00264733
-5.8892718e-05 -0.00016230598 -2.4284658e-05 0.0001390086 -3.1432937e-05 -4.207467e-05 5.2447933e-05 -0.00013220923
-0.00016487841 -0.00010813262 9.445207e-05 0.00020798204 -7.226305e-05 7.641076e-05 0.00016391263 -1.4078878e-05
2.1940214e-06 0.00010173788 1.4914297e-05 -6.1368395e-05 -1.9376677e-05 3.2572992e-05 -0.00013056525 -9.877125e-05
9.858347e-05 -0.0001630043 -3.941539e-05 -9.264593e-06 0.00011078429 -0.00015841714 -5.675564e-05 0.00019762856
0.00010183971 0.00013011335 -0.00021470181 -3.4125434e-05 -0.00017750806 7.921537e-05 0.00013029067 0.00018714045
-0.00016758328 -0.0001575686 3.663834e-05 -4.223357e-05 -0.00016267132 1.5171732e-05 -2.0673091e-05 -0.00014614577
7.1060495e-05 8.35727e-05 0.00021754383 -8.435327e-05 9.797027e-05 5.2780455e-05 -2.6947946e-05 0.00014184754
0.000100263984 -2.6964865e-06 -9.6477954e-05 -0.00010041366 -2.2570837e-05 0.00018134972 -2.2728087e-05 -5.9559425e-05
0.0010273653 -0.0030457224 -0.0039212303 0.0043338784 -0.0046856604 -0.002671091 0.0010812335 -0.0065589775
0.0011623851 -0.0058608423 0.0055214628 0.007272039 0.0024312031 0.0037140145 0.00055620656 -0.0049124206
-0.0014133725 0.0015640999 -0.000949809 0.002509242 0.0021194539 -0.002577399 -0.0045083505 0.0031185676
0.0030348988 -0.007112987 -0.0011598791 -0.0007641428 0.0023153748 -0.007896946 0.005363373 0.003657197
-0.0038494028 0.0010151697 -0.006676117 -0.0035998714 -0.0076478925 0.0013107196 0.005588927 0.0071966816
-0.005459543 0.00057019 0.004112838 0.0019759592 -0.0048036007 0.0037884882 0.0050773015 0.0019901602
0.0011016667 0.0025895154 0.006053979 -0.0003639045 0.0048539955 0.0003761747 0.004428392 -0.0014609289
0.004693045 -0.0020381187 0.00039568843 -0.003594502 -0.0010761124 0.0044008684 -7.575178e-05 -0.0030161748

lstm.lstm2.weight_hh_l0 f4 [256, 64]
00000000: 378f 08b6 20a6 a337 d328 ee36 3d70 82b7
00000010: f512 9bb6 cc9a 30b7 ab22 0a37 dc31 0336
00000020: ff29 0a37 a9c9 a137 e15e 2eb5 582f ba36
00000030: 21ec 96b4 d39f 9db5 4a7d 9136 e908 0eb7
00000040: 07e1 2037 da5e 42b7 fe3b f132 88b8 41b6
00000050: 85f6 5a36 6080 0337 1d1d 8bb7 eddd 06b7
00000060: 04f4 f6b6 aa1f 8237 288d 81b6 333d 48b7
00000070: 89a3 3636 ed84 8e37 afb5 8036 4ae5 3db7
00000080: ad20 9d36 370e 4737 27cb 8c36 419e b833
00000090: b85e 0e37 36d7 28b7 09ac 9336 8a25 3837
000000a0: 8470 82b7 9313 2db7 a3fa 0e35 3b8e 8d36
000000b0: 2811 89b6 ebe6 fdb6 ce54 35b7 d0b6 9c36
000000c0: 3dbe 4cb7 87ed f2b6 f2a0 60b6 969a 3036
000000d0: 73d3 e1b6 9bc8 59b7 7b0d cab6 ecae 5137
000000e0: b726 e436 dd44 b636 c5a5 12b7 cdbb 4e37
000000f0: 76bd f5b6 d145 7ab6 1ec4 26b6 3df8 31b7
00000100: 75c5 0b38 f129 2237 42e8 b3b5 cb73 2938
00000110: 15df 7fb7 9d9a 4738 c951 97b6 62dc a837
00000120: 43c5 4e37 0e5f 6fb7 4b2a 4638 9292 5637
00000130: ef7c 23b8 c9eb cb37 8bd9 0d38 11f0 0139
00000140: 297e 8738 a3b8 6238 c3e8 38b8 759e c837
00000150: 5261 ca37 32e8 3536 3086 ecb7 bcc2 6839
00000160: fc7e 9eb7 644b fc37 19b1 13b8 c13e 63b8
00000170: d227 2436 c8c0 da37 26b3 4ab8 e7c2 9038
00000180: 3271 cd38 a9a5 1a38 0fac ceb6 1f8d efb7
00000190: 8854 0ab9 978b 6938 dc26 ea37 9388 04b9
000001a0: 00f3 8eb8 9ad3 a2b6 802f d036 5347 ceb8
000001b0: f267 34b7 0b46 9c38 8451 8d37 2fca 5a37
000001c0: d384 2339 a930 48b6 a55e 8b38 bc7b 0738
000001d0: 017f 3a38 fd2b 83b9 72b0 42b7 80ac 1639
000001e0: cad4 0b38 ef00 4038 8964 2638 b898 09b8
000001f0: 40b0 e9b6 3288 cd38 dd00 e336 bc52 b237
00000200: d263 0d34 ce86 8fb7 2c54 14b5 698b 7b37
00000210: 03c5 bc34 f31c bdb5 6a09 48b6 1698 c137
00000220: b9d7 e636 d046 be37 f341 1b36 56f9 4f36
00000230: 51c2 26b4 c553 2536 168f a735 1d61 8a36
00000240: 1bab cf36 50e2 fab5 7045 e1b6 ff78 d2b6
00000250: 4437 bfb6 0173 9136 018e 7035 ba63 2a36
00000260: 11c6 8db6 bcd9 d936 7d07 6cb6 f1c4 49b7
00000270: 7ce8 16b6 4c3d c336 c0ae 0236 7981 85b6
00000280: b438 99b6 5403 2e36 1747 bfb4 f247 8335
00000290: 7b79 6f36 7a79 eeb4 7ebb 0eb6 1aac b7b7
000002a0: cbfa 6f37 f226 4fb5 a7fc 6933 9295 7136
000002b0: 7a1d 08b3 d755 55b7 e6bc f436 8fd3 6cb6
000002c0: f5b3 ed36 8198 b0b6 76aa b335 9800 8035
000002d0: f1b4 9fb5 807c 7cb7 608d ca35 e965 9a37
000002e0: 9a02 88b6 e3d3 0736 40e4 d936 0380 2437
000002f0: 6b97 9635 7100 5236 2d76 c1b5 65d2 d135
00000300: f008 ad37 8ba2 d539 792c 5b37 7c04 f9b8
00000310: 6fe9 8db7 7c08 6db7 8b84 9636 83f6 71b9
00000320: 3670 e9b8 a6dd a7b8 b1a2 db35 a611 4e36
00000330: 713b 27b8 447b b836 3c9d b8b7 33c0 27b9
00000340: 4deb d8b8 78b0 beb8 9b90 d238 ea28 8bb8
00000350: b57c 8138 ce18 25b8 5cb9 b937 bd27 81b9
00000360: 3f60 a938 fac4 bab7 3e35 9e38 9698 ee38
00000370: 5e46 b837 3d58 78b7 a1e4 6eb7 511b 5137
00000380: 926c 4739 f60e cbb6 cea1 a137 3251 82b8
00000390: c1e2 4938 2a9b ed36 4dd9 5138 2f03 c439
000003a0: 8fc7 4bb9 f3e4 2b36 d468 d5b6 6e00 e7b7
000003b0: 0462 95b3 98ef 9938 ed32 fbb8 bffe 0439
000003c0: e0b6 aeb9 8d36 3f38 43d0 6838 0fb0 0a37
000003d0: 08c9 b1b7 9275 3039 17a7 7ab7 ec84 60b9
000003e0: 8738 3a38 7abc 49b8 668c a3b8 2eb1 30b8
000003f0: 23e2 b137 1d40 8d36 115d cc38 b455 ceb7
-2.0348941e-06 1.9508472e-05 7.0977053e-06 -1.5549473e-05 -4.621567e-06 -1.0526459e-05 8.233513e-06 1.9549543e-06
8.235219e-06 1.9286601e-05 -6.495812e-07 5.5487435e-06 -2.8111484e-07 -1.1743927e-06 4.3359223e-06 -8.465934e-06
9.589136e-06 -1.1585385e-05 2.8083374e-08 -2.8866652e-06 3.2628025e-06 7.838098e-06 -1.6583648e-05 -8.0386935e-06
-7.3597785e-06 1.5511952e-05 -3.8609323e-06 -1.1935178e-05 2.7215303e-06 1.6989618e-05 3.835848e-06 -1.1318663e-05
4.6827686e-06 1.1864634e-05 4.195975e-06 8.596954e-08 8.485913e-06 -1.0063688e-05 4.400969e-06 1.0975995e-05
-1.5549602e-05 -1.0316161e-05 5.3263847e-07 4.2186853e-06 -4.0849154e-06 -7.56687e-06 -1.0808186e-05 4.6704445e-06
-1.2203641e-05 -7.239814e-06 -3.3472284e-06 2.6316025e-06 -6.7301385e-06 -1.2980915e-05 -6.0216385e-06 1.2498098e-05
6.7994365e-06 5.4320394e-06 -8.740874e-06 1.2322283e-05 -7.323625e-06 -3.7293541e-06 -2.4850083e-06 -1.060782e-05
3.332408e-05 9.665718e-06 -1.3404135e-06 4.040058e-05 -1.5251125e-05 4.7589292e-05 -4.5096717e-06 2.0129784e-05
1.2324485e-05 -1.4267642e-05 4.7246267e-05 1.278952e-05 -3.8978582e-05 2.4309282e-05 3.3819622e-05 0.0001239183
6.460801e-05 5.4054555e-05 -4.4085795e-05 2.3915645e-05 2.4125595e-05 2.7106257e-06 -2.8195878e-05 0.00022197788
-1.88942e-05 3.0075847e-05 -3.5212466e-05 -5.417946e-05 2.4461083e-06 2.6077396e-05 -4.8327398e-05 6.9027585e-05
9.796246e-05 3.6870744e-05 -6.1593087e-06 -2.8556735e-05 -0.00013192196 5.5681532e-05 2.7913069e-05 -0.00012639379
-6.81635e-05 -4.85261e-06 6.204413e-06 -9.8361306e-05 -1.0753038e-05 7.451706e-05 1.6846468e-05 1.3040887e-05
0.00015594372 -2.9830646e-06 6.6456654e-05 3.2301745e-05 4.4464137e-05 -0.0002501904 -1.1604383e-05 0.00014369376
3.3338358e-05 4.5777237e-05 3.9671115e-05 -3.2805576e-05 -6.9644593e-06 9.80053e-05 6.7652277e-06 2.125778e-05
1.3167963e-07 -1.7109702e-05 -5.525678e-07 1.4993225e-05 3.5161074e-07 -1.4090023e-06 -2.9807802e-06 2.3078213e-05
6.8796476e-06 2.268274e-05 2.3135187e-06 3.0990536e-06 -1.5530647e-07 2.4635676e-06 1.2484113e-06 4.124026e-06
6.189e-06 -1.8692317e-06 -6.713606e-06 -6.2725735e-06 -5.6986773e-06 4.334725e-06 8.961361e-07 2.5390023e-06
-4.2251854e-06 6.4924516e-06 -3.51711e-06 -1.2026388e-05 -2.2487066e-06 5.8185888e-06 1.9473227e-06 -3.9787815e-06
-4.5663564e-06 2.5929958e-06 -3.5628247e-07 9.781199e-07 3.5684486e-06 -4.441934e-07 -2.1268784e-06 -2.1895441e-05
1.4303902e-05 -7.717018e-07 5.4479326e-08 3.599886e-06 -3.1691776e-08 -1.27157755e-05 7.2937573e-06 -3.5289884e-06
7.0841e-06 -5.2629625e-06 1.338615e-06 9.536916e-07 -1.1899084e-06 -1.5049358e-05 1.5091318e-06 1.8405686e-05
-4.0534187e-06 2.0239902e-06 6.4936758e-06 9.804967e-06 1.1219939e-06 3.1292695e-06 -1.4414014e-06 1.5632946e-06
2.0627369e-05 0.0004074763 1.3063772e-05 -0.000118740805 -1.691721e-05 -1.4128276e-05 4.4857784e-06 -0.00023075384
-0.00011131207 -8.004466e-05 1.6364121e-06 3.0706665e-06 -3.9871262e-05 5.4979773e-06 -2.2007727e-05 -0.00015997961
-0.00010343511 -9.092776e-05 0.00010040515 -6.635657e-05 6.174428e-05 -3.9362167e-05 2.2140033e-05 -0.00024634405
8.076475e-05 -2.2264652e-05 7.543944e-05 0.00011377146 2.1967277e-05 -1.48024965e-05 -1.4239137e-05 1.2463731e-05
0.00019018564 -6.051613e-06 1.9268042e-05 -6.214007e-05 4.8133315e-05 7.081214e-06 5.003186e-05 0.00037386405
-0.0001943393 2.5614252e-06 -6.3600983e-06 -2.7537546e-05 -6.956182e-08 7.340236e-05 -0.00011978098 0.00012683401
-0.0003332412 4.5588753e-05 5.550707e-05 8.266433e-06 -2.1193657e-05 0.00016828466 -1.4940065e-05 -0.00021411822
4.43985e-05 -4.8097667e-05 -7.798597e-05 -4.212668e-05 2.1205347e-05 4.209591e-06 9.744813e-05 -2.4597022e-05

lstm.lstm2.bias_ih_l0 f4 [256]
00000000: edb5 7f39 9547 733b e29d 3939 70a4 543a
00000010: c52d ca39 d0df 1239 5337 c63a dd9b 1d3b
00000020: 5345 6539 7ab8 6a3b f1fd 193a f194 5139
00000030: 9cd2 483a 8322 3439 a58a 113a 8937 3d39
00000040: ddb8 f739 d0e9 5a3a c54f 2ab9 0a64 99ba
00000050: e4e3 363a cb62 3839 fcd0 8aba b5a4 393b
00000060: 038e 00ba 7016 e0ba fb43 a839 b1bd b3b9
00000070: 0a28 5839 f778 a43a b7c1 8f3a f158 173b
00000080: 7fa5 e43a 4c60 183b cf18 8b39 b284 f639
00000090: ab68 c538 ecb0 cb39 ddbb 8e3a f2cf 803b
000000a0: c428 c139 45f5 2e3a d5de ab39 2d7d 1bba
000000b0: 064a 8939 14ad e63a 73f4 4739 2928 2cba
000000c0: 2f5e 993b f311 85ba 5147 8a39 5303 5539
000000d0: f2ed eeb9 82fb f539 bdd7 2939 7a46 b6b7
000000e0: 2cd2 44b9 97bc ab39 943a fb38 70f6 88ba
000000f0: 495f f8b8 b7e7 07b9 0490 0439 3d6e af39
00000100: ac98 09b8 7f1a 21bd 6ec4 5db9 8e60 adbc
00000110: 5e89 9538 d0af eab9 1d23 6bba aad8 233b
00000120: b951 44b9 5a44 dbbb 2cec bab8 0448 00b9
00000130: 5268 82b5 0d81 4938 1295 68b9 54ba 973b
00000140: 2dcb 4eba 69be e33a b62d 74bb 1d7f cf3a
00000150: 17d6 f538 8fb3 a8b8 32d2 45bc ad17 123c
00000160: 1037 aa3a 1bdf 26bb 5e3e 3eba 9c53 a539
00000170: 6898 6637 e101 97b9 a2bd ea38 f596 f2ba
00000180: cedd de39 aa68 44ba 93ec f736 98db 1339
00000190: e885 bf3a 37b1 58b9 1795 bfb9 b000 b03c
000001a0: bda2 31bc b073 48ba 36d7 a1b8 f55c eeb7
000001b0: 4a94 9cb8 f2bd 0ebb bbd4 85ba 4bdc 323b
000001c0: f08a 5d3c fa4b 25ba 6496 abb7 4e64 3c38
000001d0: 89cd 0b3a bd31 3c3b 53dc b8b8 950c 24bb
000001e0: b047 02ba 949e 8aba 0508 d0ba a98a 74ba
000001f0: 91fe 7db9 ddab 7eb9 4a47 2c39 622c c939
00000200: 3c26 ab39 5c43 ad3d 4529 053d 1742 503a
00000210: 54e3 733b c286 f2bc fc84 12bc 4214 64bc
00000220: cda4 8b3c 8925 903d f156 a43c 5df4 db3b
00000230: cd13 a5bc 442d 51bc df62 afb9 6660 97bd
00000240: de7d c23c 2c74 45bd f33b 4abd 7711 56bd
00000250: e90c 3e3c d630 a13c c4d6 5bbd 3643 243d
00000260: c328 f1bc a8ac 3e3d 4d96 32bd 9a57 1cbc
00000270: 13cf 213c 5650 823d 473f b33c 7ffe 4bbd
00000280: cc28 873d 7b9a 313d 315e 85bc 52a2 3abc
00000290: 91e9 94bc eff8 e9bc 5f67 5abc 0931 de3c
000002a0: 2165 11bd b003 04bd 6332 24bc a2aa c73c
000002b0: 3e04 fcbb b4c8 80bd 9137 a63c 9b1e 333b
000002c0: c7b7 5dbd 2d32 403c bfc1 adbb 1155 473b
000002d0: 4f36 adbc 5f0c f4bc 6a19 41bc eca8 2d3c
000002e0: de5d 673d 1abb 773c c2cd adbc cf76 993c
000002f0: 253f f13b 0918 67bd 1e9b 08bc 6370 15bd
00000300: 11a5 8a39 b109 b03b b1b7 3839 96ff 053b
00000310: 1b1c c939 2b89 fb38 04f0 c33a a325 203b
00000320: aad8 6839 86b0 773b 9fd2 183a ad6a 3639
00000330: f007 483a 4234 3539 06c1 113a 2714 2e39
00000340: 4b99 f839 9139 5c3a a398 8db9 fbc1 9dba
00000350: 6d00 373a 2c9b 3239 1f22 83ba 4edc 013b
00000360: 71d8 eeb9 92f6 dfba 035b b139 878d c8b9
00000370: 0a6f 5639 39ea 0ebb 4641 8e3a 996f 0d3b
00000380: 95bf e53a e337 183b 94e1 8e39 b90e f339
00000390: fe96 4b38 512b cb39 26e1 913a 3613 883b
000003a0: 4633 173a f1b9 2b3a f151 a939 fd21 16ba
000003b0: 950e 8139 5dff 0e3b 04a4 6139 ed35 1fba
000003c0: b57b 9b3b 0ec4 85ba 2d1c 8939 ed87 5a39
000003d0: 6708 feb9 638c 063a 14f0 2e39 0d32 8839
000003e0: 7867 52b9 9fd9 a539 c0b6 0439 90e0 3eba
000003f0: 0696 01b9 ce09 edb8 2dfb 0139 c64f b239
0.00024386468 0.0037121524 0.00017701791 0.00081116613 0.00038562543 0.00014007022 0.0015122689 0.00240492
0.00021864967 0.0035815523 0.0005874327 0.00019987278 0.0007660778 0.00017178994 0.00055519707 0.00018045133
0.00047249245 0.0008350881 -0.0001624218 -0.0011702788 0.00069767074 0.0001758441 -0.0010590847 0.0028326933
-0.0004903974 -0.0017096531 0.00032094106 -0.00034282872 0.00020614281 0.0012548257 0.0010967766 0.0023093785
0.0017444341 0.0023250757 0.0002653063 0.00047019642 9.413188e-05 0.00038850994 0.0010889728 0.003931039
0.000368422 0.0006674121 0.00032781684 -0.00059314334 0.00026185828 0.0017599189 0.00019069183 -0.00065672636
0.004680417 -0.0010152444 0.00026374546 0.00020314501 -0.0004557218 0.0004691743 0.00016197465 -2.1728909e-05
-0.00018770312 0.00032756172 0.00011979524 -0.0010449421 -0.0001184331 -0.00012960924 0.00012642151 0.00033460735
-3.2805532e-05 -0.03933191 -0.00021149378 -0.021164205 7.13046e-05 -0.00044762949 -0.0008969771 0.0025000968
-0.0001872246 -0.0066914978 -8.9131616e-05 -0.00012233859 -9.716116e-07 4.8042322e-05 -0.00022180777 0.0046303663
-0.0007888552 0.0017375472 -0.003725869 0.0015830729 0.00011722388 -8.04431e-05 -0.01207404 0.008916778
0.0012986381 -0.002546257 -0.0007257218 0.00031533546 1.3744553e-05 -0.00028802364 0.000111933114 -0.0018508123
0.00042508397 -0.0007492403 7.3887145e-06 0.00014100817 0.0014612051 -0.00020665383 -0.0003654144 0.021484703
-0.0108420225 -0.00076466333 -7.7171644e-05 -2.8415097e-05 -7.466281e-05 -0.0021780697 -0.0010210493 0.002729195
0.013521895 -0.0006305572 -2.045482e-05 4.491611e-05 0.00053330563 0.002871617 -8.814842e-05 -0.0025031914
-0.0004969789 -0.0010575824 -0.0015871531 -0.00093285233 -0.00024222794 -0.00024287352 0.00016429755 0.00038370775
0.00032644148 0.084601134 0.03251006 0.00079444185 0.0037214356 -0.029605273 -0.008942839 -0.013920845
0.017046357 0.07038409 0.020060988 0.00671248 -0.020151043 -0.01276714 -0.00033452266 -0.073914334
0.023741659 -0.048206493 -0.04937358 -0.05226275 0.011599758 0.019676607 -0.053671613 0.04010316
-0.029438382 0.046551377 -0.04360037 -0.00954237 0.0098760305 0.06362979 0.021880759 -0.049803253
0.06599578 0.043360215 -0.016280266 -0.011391239 -0.01817778 -0.028561084 -0.01333031 0.027122991
-0.035496835 -0.03223008 -0.010021779 0.024373356 -0.0076909354 -0.06288281 0.020290168 0.0027331475
-0.05413034 0.011730713 -0.0053026373 0.0030415694 -0.02114406 -0.029791055 -0.011785844 0.010599356
0.056486003 0.015120292 -0.021216277 0.01873341 0.0073622637 -0.056419406 -0.008337764 -0.036484133
0.00026444395 0.005372249 0.00017616038 0.002044653 0.00038358648 0.00011994162 0.001494885 0.0024436496
0.00022205958 0.0037794425 0.0005829725 0.00017396612 0.00076305773 0.00017280973 0.0005560074 0.0001660144
0.00047416458 0.0008400912 -0.0002700734 -0.001203596 0.00069809594 0.00017033209 -0.0010004676 0.001981515
-0.0004555616 -0.0017087033 0.0003382788 -0.0003825242 0.00020449996 -0.0021807088 0.0010853193 0.002158141
0.0017528409 0.002322667 0.0002725242 0.0004635954 4.8539594e-05 0.0003875145 0.0011129722 0.0041526807
0.0005767833 0.000655084 0.00032295243 -0.00057271105 0.00024615662 0.002181969 0.00021518773 -0.0006073404
0.0047449716 -0.0010205524 0.0002615167 0.00020840736 -0.00048452916 0.00051326136 0.00016683369 0.00025977232
-0.00020065706 0.00031633393 0.0001265658 -0.0007281387 -0.00012358287 -0.00011302867 0.00012395969 0.00034010242
