073123/0811_experiment_4.pth (torch, 644853 bytes, 40 tensors)

lstm.lstm1.weight_ih_l0 f4 [256, 12]
0	0x3bdf2903	0.006810309
1	0x3be60ee2	0.007020817
2	0x3c7efca3	0.015563163
3	0x3c668e58	0.014072023
4	0x3b3167ea	0.0027069994
5	0x3bfcc17b	0.0077134944
6	0x3c370604	0.011170868
7	0x3bf9fb32	0.007628822
8	0x3bf4d66b	0.0074718497
9	0x3bfd9829	0.007739086
10	0x3c1cc615	0.009568711
11	0x3c91aea4	0.01778347
12	0x3c1d9ef9	0.009620422
13	0x3be66a76	0.007031734
14	0xbb9276ee	-0.004469744
15	0x3c99f577	0.018793805
16	0xbacfb29b	-0.0015846075
17	0x3babc0db	0.005241496
18	0x3c09834d	0.008393121
19	0x3bd37487	0.0064531
20	0x3bcf5ff9	0.0063285795
21	0x3c436605	0.011926179
22	0x3c72ea85	0.014826422
23	0x3d27b87a	0.040947415
24	0x3ab5d91f	0.0013873911
25	0x3a2e55b9	0.0006650347
26	0xbc45012a	-0.012024203
27	0x3c8ee0b9	0.01744114
28	0xbb2e46c5	-0.0026592475
29	0x3ab06e4a	0.0013460603
30	0x3b62fa29	0.003463397
31	0xbb2fd747	-0.0026831196
32	0x396a6317	0.00022352893
33	0x3ba5c331	0.005058669
34	0x3c4c251c	0.012460019
35	0xbc9c256d	-0.019060815
36	0x3b5b21d4	0.0033436911
37	0x3b839aff	0.0040162797
38	0x3c22ccc7	0.009936518
39	0x3bd334a8	0.006445486
40	0x3a962a09	0.0011456619
41	0x3b452e9c	0.0030087596
42	0x3bb4f417	0.005522262
43	0x3babcd1a	0.005242956
44	0x3baac3b2	0.005211317
45	0x3b88aa1f	0.0041706706
46	0x3b7d5ef3	0.003866133
47	0x3cc5de1c	0.024153762
48	0x3cd71c96	0.026258748
49	0x3ce50869	0.027958112
50	0x3e2a9086	0.16656694
51	0xbc767b41	-0.015044034
52	0x3d1f3e53	0.038877796
53	0x3d4d301c	0.05009471
54	0xbbe913e0	-0.007112965
55	0x3d411a4a	0.04714421
56	0x3d458a2a	0.048227467
57	0x3d12fb14	0.035883978
58	0xbcfa561b	-0.030558636
59	0x3dd4a5f6	0.10383217
60	0x3c5da5b4	0.013528276
61	0x3bcf8229	0.006332655
62	0x3d087db4	0.033323005
63	0x3c594368	0.0132607
64	0x3ba18f84	0.0049304385
65	0x3b02c00b	0.0019950892
66	0x3c8b94d1	0.017038735
67	0xba9b4ee2	-0.001184907
68	0xbab4f97a	-0.001380726
69	0x3b098e32	0.0020989296
70	0x3bf5ba48	0.007499013
71	0x3d607f31	0.0548088
72	0x3c8ca90b	0.01717045
73	0x3c30fcec	0.010802489
74	0x3d3a9dfe	0.04556083
75	0x3c993572	0.018702243
76	0x3c1eef92	0.009700673
77	0x3c156355	0.009117921
78	0x3c5ab05e	0.013347713
79	0x3ba818e5	0.005129921
80	0x3b7d51d8	0.003865352
81	0x3c09892e	0.008394523
82	0x3c47e34a	0.012200186
83	0x3d92a617	0.071605854
84	0x3b64fe34	0.0034941556
85	0x3a5d5d40	0.0008444376
86	0xba8f9544	-0.0010954519
87	0x3ba9b1aa	0.00517865
88	0xbb0447c2	-0.0020184373
89	0xba12754b	-0.0005586936
90	0x3bb05eb6	0.005382384
91	0xbacc6ff8	-0.0015597334
92	0xbb09234c	-0.002092558
93	0xb9b2a069	-0.0003407032
94	0x3b81c26f	0.003959946
95	0x3cd99a06	0.026562702
96	0x3c05162a	0.00812296
97	0x3c96df9d	0.018417174
98	0xbd07db0a	-0.033167876
99	0x3ce6b3c6	0.028161895
100	0xbc0e425f	-0.008682816
101	0x3b727916	0.0036998442
102	0x3cb3e3fa	0.021959294
103	0x3c270321	0.010193617
104	0x3c66e150	0.014091805
105	0x3c8e9598	0.017405316
106	0x3d1aec31	0.037822906
107	0x3d70d3f6	0.05879589
108	0x3c8c5a75	0.017132977
109	0x3c8fd9b0	0.017559856
110	0xbd0c06b2	-0.034186073
111	0x3d617e37	0.05505201
112	0xbb238961	-0.002495371
113	0x3cd9725f	0.026543794
114	0x3cbb6298	0.022874162
115	0x3b3a39a3	0.0028415702
116	0x3cf9294b	0.030415198
117	0x3cf44e0a	0.029822368
118	0x3d71e7b4	0.05905886
119	0x3d850b3b	0.06496283
120	0x3c4e9afd	0.012610194
121	0x3c1cf4c1	0.009579838
122	0x3bf599ca	0.0074951397
123	0x3c852735	0.016254047
124	0xba941c93	-0.001130002
125	0x3bb590c4	0.005540939
126	0x3c7a4234	0.015274573
127	0x3c42aa7b	0.011881466
128	0x3c517790	0.012784854
129	0x3c4b2ca2	0.012400778
130	0x3c4aeac2	0.012385072
131	0x3d7256db	0.059164863
132	0x3c8f6bda	0.017507482
133	0x3c1ca24d	0.00956018
134	0xbcb38f19	-0.02191882
135	0x3cbc5b07	0.022992624
136	0xbbe27c14	-0.006911764
137	0x3bb16427	0.0054135504
138	0x3c88db67	0.016706182
139	0x3c11a901	0.008890391
140	0x3bb1950e	0.00541938
141	0x3c2eaafa	0.010660881
142	0x3ca333d8	0.019922182
143	0x3d88af42	0.06674053
144	0x3c4935b7	0.012280873
145	0x3c3b242b	0.011422197
146	0x3c4f2429	0.012642899
147	0x3c4e1ff5	0.012580861
148	0xba2eecb8	-0.0006672847
149	0x3befe4b4	0.0073209647
150	0x3c5fecf4	0.013667334
151	0x3c8197fe	0.015819546
152	0x3c8a5966	0.016888332
153	0x3c667876	0.014066806
154	0x3bf71ba4	0.007541137
155	0x3d8da957	0.06917065
156	0x3c1ea4cc	0.009682845
157	0x3c4c622f	0.012474581
158	0x3d079603	0.033102047
159	0x3a8d9a29	0.001080339
160	0x3b9bc85d	0.00475411
161	0x3b28d0a4	0.0025759125
162	0x3c7964a2	0.015221747
163	0x3c6cf879	0.014463537
164	0x3c7049ed	0.014666063
165	0x3c0f39e7	0.008741832
166	0xbb13f89f	-0.002257861
167	0x3db2c82f	0.08729588
168	0x3c125b7e	0.008932946
169	0x3c1dd416	0.009633085
170	0x3cb50702	0.022098068
171	0x3c239b1d	0.009985712
172	0x3b816c5e	0.003949686
173	0x3ba4031f	0.005005255
174	0x3c6071fd	0.013699052
175	0x3c1d27c2	0.0095919985
176	0x3c1bdc0b	0.009512912
177	0x3c019c55	0.007910808
178	0x3bd76c0e	0.0065741604
179	0x3d5e813f	0.054322477
180	0x3b981a88	0.0046418346
181	0x3b9d058f	0.0047919224
182	0xbc2bd0f2	-0.010486828
183	0x3cc7d458	0.024393246
184	0xbb0a5256	-0.0021106205
185	0x3bf5884f	0.007493056
186	0x3be6dc34	0.007045293
187	0x3b5a28e0	0.0033288524
188	0x3b4ba831	0.0031075592
189	0x3c4ad14a	0.012379
190	0x3ca8539f	0.020547686
191	0x3c62b355	0.013836701
192	0x3cc7c525	0.024385998
193	0x3c2c536b	0.010517935
194	0x3d810736	0.063002035
195	0x3c7ae6b6	0.015313795
196	0x3c49ed48	0.012324639
197	0x3a844bb8	0.0010093367
198	0x3ccfb921	0.025356831
199	0x3a0809ff	0.0005189478
200	0x3a713db3	0.00092026143
201	0x3b5a8858	0.0033345427
202	0x3b148613	0.0022662922
203	0x3d5f29fd	0.054483403
204	0x3c69ad92	0.014262574
205	0x3c7b26d9	0.015329086
206	0x3d2ebdca	0.042661466
207	0x3b9fba45	0.0048745
208	0x3b9b68ef	0.0047427337
209	0x3b8b63b4	0.004253829
210	0x3cbaac6b	0.022787293
211	0x3ca42094	0.020035066
212	0x3ca4a1b7	0.020096643
213	0x3c21a6ca	0.009866426
214	0x3b0baa41	0.0021311196
215	0x3d9aaa63	0.0755203
216	0x3cbe981c	0.02326589
217	0x3c8f1a9b	0.017468741
218	0x3dc573a5	0.09641198
219	0x3c75f963	0.015013072
220	0x3c8bb5b5	0.017054418
221	0x3c6cc2c9	0.014450737
222	0x3c4bcb5a	0.0124386195
223	0x3ca9959e	0.020701226
224	0x3c94b609	0.018153207
225	0x3c8660ae	0.016403522
226	0x3b3e9b2c	0.002908419
227	0x3dd4f7e1	0.10398842
228	0x3c0afd12	0.008483188
229	0x3bc41158	0.005983513
230	0xbc39031a	-0.011292243
231	0x3cb248f2	0.021763299
232	0xbb03ec9c	-0.0020130044
233	0xb6b13c77	-5.28205e-06
234	0x3c371784	0.01117504
235	0xbb740eab	-0.0037240188
236	0x3aa437e0	0.0012528859
237	0x3b79bd8a	0.003810736
238	0x3c8e2e78	0.017356142
239	0x3cea1a15	0.02857689
240	0x3c756be2	0.014979335
241	0x3c487ce0	0.012236804
242	0x3b4a36ab	0.0030855339
243	0x3d482151	0.048859898
244	0xb990abd7	-0.0002759385
245	0xbb11acb3	-0.002222818
246	0x3c8a4845	0.016880164
247	0xbb196767	-0.002340758
248	0x3b0ed816	0.0021796278
249	0x3c98df15	0.018661061
250	0x3d058eb3	0.03260679
251	0x3d130a24	0.035898343
252	0x3b3010d9	0.002686551
253	0x3b899afe	0.0041993847
254	0xbaf7ece7	-0.0018915207
255	0xbb2d8188	-0.0026474912

lstm.lstm1.weight_hh_l0 f4 [256, 64]
0	0x39997dc1	0.00029276128
1	0x39eb66f6	0.00044899405
2	0xb9de441d	-0.00042393888
3	0x393c56f6	0.00017961473
4	0xbb239403	-0.0024960048
5	0x3a4d65ba	0.0007835288
6	0x399b5324	0.00029625848
7	0x3a04920c	0.0005057163
8	0x3a368da1	0.00069638534
9	0x3b03ddd8	0.0020121243
10	0xba841688	-0.0010077516
11	0x3a5ca1e0	0.0008416455
12	0x3ab86bd5	0.0014070222
13	0xbafe475a	-0.0019399927
14	0xb9e6e64d	-0.00044040606
15	0x38e0fb1c	0.00010727925
16	0xbaf5dcd4	-0.0018757829
17	0x3a75c16b	0.000937483
18	0xbac9e77b	-0.001540407
19	0xb9c06dd0	-0.0003670291
20	0xb9ed5d8e	-0.00045273866
21	0xb9bf9afb	-0.00036545828
22	0x3a2a6a93	0.0006500866
23	0xba1acb67	-0.0005904943
24	0xb94f3637	-0.00019761255
25	0x3a1fee1e	0.0006100851
26	0x39ba8f72	0.0003558356
27	0xb9c807a8	-0.00038152677
28	0xba614c9d	-0.0008594485
29	0xba26383c	-0.0006340777
30	0xbafc27e3	-0.0019237961
31	0xb9937c15	-0.00028130473
32	0x3b4b8f2f	0.0031060686
33	0xb92e4381	-0.0001661908
34	0x3994276c	0.0002825813
35	0xb93bbafc	-0.00017903367
36	0x3acb842d	0.0015527062
37	0xba1db7f8	-0.0006016488
38	0x3a3498cf	0.00068892253
39	0x3a0ddbf6	0.00054115
40	0xb9e81b5c	-0.00044270873
41	0xbabbb32c	-0.0014320365
42	0x38ebbb6d	0.00011240584
43	0xba01fda2	-0.00049587537
44	0x3859f68b	5.1966443e-05
45	0x373b32df	1.1157913e-05
46	0xb9cb03c7	-0.00038721992
47	0xba3c0df3	-0.00071737095
48	0x3b1a1c9b	0.0023515585
49	0x3a6a36d3	0.0008934561
50	0x3b238c04	0.0024955282
51	0x3a1c166a	0.00059542677
52	0xbb134dc1	-0.0022476765
53	0x3a7c4734	0.0009623647
54	0x3aad042e	0.0013200098
55	0xba2a9ffa	-0.0006508824
56	0xbaaa8c85	-0.0013011849
57	0x396b9d02	0.00022469836
58	0xba3b1bc5	-0.0007137622
59	0xb9c16e1c	-0.00036893866
60	0xb9bd9a73	-0.00036163963
61	0x3a1190a0	0.0005552862
62	0xba1b9c5d	-0.00059360807
63	0xb7cb584b	-2.42406e-05
64	0x3a1d25be	0.0005994699
65	0x3aa2d5da	0.0012423352
66	0xb9d49156	-0.00040544075
67	0x3a0df5bd	0.0005415341
68	0xb950ce38	-0.00019913248
69	0xb8eb3913	-0.00011216304
70	0xba9312c9	-0.0011220808
71	0xb917bd3e	-0.0001447098
72	0x3b024a23	0.0019880615
73	0x3b930bc3	0.004487486
74	0xbae7515d	-0.001764815
75	0x3b022855	0.0019860466
76	0x3b555674	0.003255275
77	0xbb4af530	-0.0030968897
78	0xba12db7d	-0.00056021643
79	0xb97aa0b5	-0.00023901726
80	0xba52eb2d	-0.0008045908
81	0x3b0b4b0a	0.0021254444
82	0xba98dfd4	-0.0011663386
83	0xba5812de	-0.00082425575
84	0xba454977	-0.0007525901
85	0xbae29518	-0.0017286865
86	0x3aba025c	0.0014191377
87	0xba66ece5	-0.0008809104
88	0xb75c2f32	-1.312401e-05
89	0x3a9e5085	0.001207844
90	0xb95acb33	-0.00020865798
91	0xb9c510df	-0.00037587338
92	0xba6e85c3	-0.00090989115
93	0xba5f01b5	-0.0008507029
94	0xbb7043ee	-0.0036661583
95	0x37d0501f	2.4832842e-05
96	0x3b4fac9f	0.0031688584
97	0xb9efac59	-0.0004571404
98	0x3a9ba06f	0.0011873374
99	0xba015aaa	-0.00049344695
100	0x3b50a26d	0.0031835095
101	0xbad383b2	-0.0016137271
102	0x3abd8890	0.0014460254
103	0x3aa0b44a	0.0012260762
104	0xba614816	-0.00085938105
105	0xbaf813b5	-0.0018926772
106	0x39061501	0.0001278706
107	0xb9c7fe51	-0.00038145718
108	0x38de21aa	0.00010592055
109	0xba3a4087	-0.0007104952
110	0xba959b57	-0.0011414093
111	0xbb27ab07	-0.0025584118
112	0x3b3a83de	0.0028459947
113	0x3aa142fd	0.0012303289
114	0x3b94d55a	0.004542035
115	0x3a58746c	0.00082570943
116	0xbb6ade6b	-0.0035838138
117	0x3ae2b08d	0.0017295048
118	0x3af68b54	0.0018809834
119	0xba908c9f	-0.0011028236
120	0xbb79eb7f	-0.0038134751
121	0x3a810b75	0.0009845333
122	0xba86e23d	-0.0010290813
123	0x385b8e52	5.2346215e-05
124	0xba0b9c54	-0.0005325724
125	0x39910bec	0.00027665438
126	0xbad39ac7	-0.001614415
127	0x380fae18	3.4255994e-05
128	0x3a440086	0.00074768846
129	0xb957c8c7	-0.00020578793
130	0xba3ebee8	-0.0007276372
131	0xb9b32c66	-0.0003417462
132	0x3aa56736	0.001261926
133	0xb8316ae2	-4.229963e-05
134	0xba0143ea	-0.00049310795
135	0x391eb2fc	0.00015134731
136	0xb91a72ca	-0.00014729347
137	0x3936b073	0.00017422605
138	0x392ca46b	0.00016464449
139	0x38ef3baf	0.00011407525
140	0x39286662	0.00016059869
141	0x39f2052f	0.000461617
142	0x39ed85e4	0.0004530392
143	0x3a0f0f27	0.0005457275
144	0xb97427c2	-0.00023284464
145	0xba14ba3d	-0.00056735036
146	0x3a2bc133	0.0006551921
147	0x39b2daf3	0.00034113936
148	0x3a363e75	0.0006952056
149	0xb99af8e0	-0.00029558595
150	0xb996a486	-0.0002873281
151	0x3a8e4c72	0.0010856523
152	0xba13b65c	-0.00056347786
153	0xb9efabb8	-0.00045713573
154	0xba8ded9f	-0.0010828263
155	0xba6a8f89	-0.000894778
156	0x3a3b6e89	0.0007149955
157	0xba830275	-0.0009995239
158	0x39033c22	0.00012515535
159	0x3a93dcc5	0.0011281004
160	0xba4fbe3d	-0.0007924771
161	0xba8528ad	-0.0010159217
162	0x3963d960	0.00021729385
163	0xba6fd390	-0.0009148652
164	0xb9d38e2c	-0.00040350982
165	0x398bb346	0.00026645715
166	0xb9468a4a	-0.00018934268
167	0xba666e5f	-0.000879025
168	0xba7e36f1	-0.0009697518
169	0xbb4314c5	-0.0029767018
170	0xba3c490c	-0.00071825157
171	0xba922b76	-0.0011151868
172	0x3a88504a	0.0010399905
173	0x393af216	0.00017828526
174	0x375bf9e4	1.3111599e-05
175	0xb988409e	-0.00025988085
176	0xba3bcb71	-0.0007163799
177	0xba23be21	-0.0006246288
178	0xb9c9ece0	-0.00038514193
179	0x3a63560d	0.00086721854
180	0x39e3d619	0.0004345633
181	0xb981816b	-0.0002470122
182	0xba6ad68b	-0.0008958361
183	0x3a2e266f	0.00066433003
184	0xba246606	-0.0006271306
185	0xb982d060	-0.00024950784
186	0xba31d8ff	-0.0006784349
187	0x3a8beb99	0.0010675072
188	0xba6b1ea0	-0.0008969102
189	0x3a399eeb	0.00070808706
190	0x39351e8c	0.00017272885
191	0x3a491f20	0.00076721795
192	0x38ff3df4	0.00012170887
193	0x39d14416	0.00039914314
194	0xb93d9dc6	-0.0001808322
195	0x394edd24	0.00019728072
196	0xba632108	-0.0008664285
197	0x39b07915	0.0003365955
198	0x3633b76f	2.677985e-06
199	0x395aaf9b	0.00020855518
200	0x39f53dcb	0.0004677608
201	0x3ab90414	0.0014115595
202	0xba235ca2	-0.000623176
203	0x3a0eaea5	0.0005442894
204	0x3a84a62d	0.0010120325
205	0xba98ff48	-0.001167276
206	0xb98c3b6b	-0.0002674715
207	0xb8627e96	-5.400049e-05
208	0xba6384b7	-0.0008679139
209	0x3a28ade4	0.0006434603
210	0xba4d1c47	-0.0007824343
211	0xb993948e	-0.00028148707
212	0xb9c670b4	-0.00037849473
213	0xb9c6a73e	-0.00037890108
214	0x3a11f42a	0.00055676943
215	0xb9d9b560	-0.000415246
216	0xb83be085	-4.4793374e-05
217	0x39ddddc4	0.00042317633
218	0x397bd8e9	0.0002401803
219	0xb8ff0a52	-0.0001216127
220	0xba154d8c	-0.00056954543
221	0xb9a3aeff	-0.00031220165
222	0xbaa39ca6	-0.0012482598
223	0xb94a0b74	-0.00019268488
224	0x3ac0fd4e	0.0014723928
225	0xb85ec5f0	-5.311327e-05
226	0x3980dc8d	0.00024578386
227	0xb899f50d	-7.341253e-05
228	0x3a832e91	0.0010008385
229	0xb9e586eb	-0.00043778805
230	0x3a081761	0.0005191472
231	0x3a00769a	0.00049004855
232	0xb98c5861	-0.00026768728
233	0xba319c86	-0.0006775338
234	0x3908037f	0.00012971273
235	0xb946f0a5	-0.00018972399
236	0xb823c468	-3.9045146e-05
237	0xb9179270	-0.00014455034
238	0xb99e8b70	-0.00030239997
239	0xba21a903	-0.00061668473
240	0x3aa8891c	0.0012858245
241	0x3a13a9f2	0.0005632929
242	0x3ac3f86a	0.0014951352
243	0x399ee9df	0.00030310356
244	0xbab67994	-0.0013921731
245	0x3a1f78eb	0.0006083387
246	0x3a524a0d	0.00080218987
247	0xb9ea083e	-0.000446381
248	0xba89f9bf	-0.0010526701
249	0x3998d650	0.00029151374
250	0xb9efcace	-0.00045736734
251	0xb954edc9	-0.00020306477
252	0xb92c1f67	-0.00016414897
253	0x39847930	0.00025267294
254	0xb9f004bb	-0.00045779892
255	0xb8ece37f	-0.000112957314

lstm.lstm1.bias_ih_l0 f4 [256]
0	0x3c8c2532	0.01710758
1	0x3c64c643	0.013963285
2	0x3c222a54	0.009897787
3	0x3c22bc18	0.00993254
4	0x3d295a3b	0.041345816
5	0x3c2d284c	0.01056869
6	0x3c94eb1e	0.018178519
7	0x3ba5cf44	0.0050601084
8	0x3ce75b41	0.028241755
9	0x3d29d991	0.041467253
10	0x3caa3e18	0.020781562
11	0x3ca08284	0.019593485
12	0x3c9856ca	0.018596072
13	0x3cb3b305	0.02193595
14	0x3c9de8cc	0.019276045
15	0x3cc33e5b	0.023833444
16	0x3c957c06	0.018247616
17	0x3cd902b0	0.02649054
18	0x3cf4c1bc	0.029877536
19	0x3c4fae32	0.012675809
20	0x3c9f2400	0.019426346
21	0x3c015bad	0.007895392
22	0x3cbba0d1	0.022903832
23	0x3cc13ac7	0.023587598
24	0x3c7eef17	0.015559933
25	0x3ce2a0b8	0.027664527
26	0x3cbc9979	0.0230224
27	0x3d15bdf6	0.036558114
28	0x3c222872	0.009897338
29	0x3c303e57	0.0107570505
30	0x3cd57e6c	0.02606126
31	0x3cb31b29	0.021863537
32	0x3cadc133	0.021210289
33	0x3c36ebbf	0.011164605
34	0x3bc1f55e	0.0059191426
35	0x3c10ade1	0.008830518
36	0x3cfe404f	0.031036524
37	0x3d2a560a	0.04158596
38	0x3c829f8c	0.015945219
39	0x3bcf1c2d	0.0063204975
40	0x3c9f1ce4	0.019422956
41	0x3d4f2ad3	0.05057795
42	0x3ca45c53	0.020063555
43	0x3cb6991a	0.022289801
44	0x3cceaff9	0.025230395
45	0x3c599bcf	0.013281777
46	0x3bd1b8c4	0.0064001996
47	0x3c8a50f6	0.016884308
48	0x3ce48f22	0.027900282
49	0x3ca2fb7a	0.019895304
50	0x3d029674	0.031881765
51	0x3c56f624	0.013120208
52	0x3c458f39	0.012058073
53	0x3cc8f676	0.024531584
54	0x3cb939cf	0.022610573
55	0x3ca2ca9c	0.019872002
56	0x3c4af45b	0.01238736
57	0x3c449027	0.011997259
58	0x3c828459	0.015932249
59	0x3cc41209	0.023934381
60	0x3c90fe5f	0.017699419
61	0x3b4f1dc3	0.0031603433
62	0x3ccbf915	0.024899045
63	0x3c7c19ba	0.015386993
64	0xbb4e4d96	-0.003147935
65	0xbb27f7b2	-0.0025629816
66	0xba4db2a8	-0.0007846751
67	0xbba8580e	-0.00513745
68	0x3bf13232	0.00736072
69	0x3b703366	0.003665173
70	0xbc2ff1ad	-0.010738772
71	0xba40508f	-0.0007336223
72	0xbc34c862	-0.011034103
73	0x3c423460	0.0118533075
74	0xbc1d6551	-0.009606675
75	0xbbc66111	-0.0060540517
76	0x3ba71476	0.0050988747
77	0xbc27bb20	-0.010237485
78	0xbc1a5af1	-0.009421096
79	0xbb8bc8ca	-0.0042658793
80	0x3bfd5a62	0.0077317217
81	0xbc35a884	-0.011087541
82	0xbccb70ed	-0.02483412
83	0xbc18a5f6	-0.009316912
84	0xbc9070e6	-0.01763196
85	0x3be51f63	0.006992267
86	0xbc0b5eb5	-0.008506467
87	0xbbba5121	-0.005685941
88	0xba7dfdcb	-0.0009689002
89	0xbc44b160	-0.01200518
90	0xbc2b762d	-0.010465187
91	0x3bccc7c4	0.0062494
92	0xbc025656	-0.007955154
93	0x3c366b32	0.011133956
94	0xbc8b615b	-0.017014196
95	0xbb5710f0	-0.0032816492
96	0x3c745d81	0.014914871
97	0x3c0a3241	0.008434833
98	0x3b5a9da2	0.0033358117
99	0xbaba7783	-0.0014226291
100	0xbc727cc5	-0.014800255
101	0xbbdb9882	-0.00670153
102	0xbc35f403	-0.01110554
103	0xbc7c45e5	-0.0153975235
104	0xba19e0ae	-0.00058699667
105	0x3d59fbc6	0.053218625
106	0xbc0ee719	-0.00872209
107	0xbb9c915c	-0.0047780704
108	0x3a12a06b	0.0005593362
109	0xbbb746c4	-0.0055931527
110	0xba2cdbd7	-0.0006594038
111	0x3b1741dd	0.002308003
112	0xbb84932c	-0.0040458646
113	0xbcce9b77	-0.025220616
114	0xbbb6fe59	-0.00558452
115	0x3bbeff75	0.0058287927
116	0xbb38091e	-0.0028081606
117	0xbc257117	-0.0100977635
118	0xbc61b962	-0.013777109
119	0x3bd0f3e4	0.0063767303
120	0x3c9370e7	0.017998172
121	0x3880cba1	6.1414445e-05
122	0xbba417fa	-0.005007741
123	0xbc07bece	-0.0082852375
124	0x3bdda305	0.006763818
125	0x3bb18ff5	0.0054187723
126	0xbbedb446	-0.0072541563
127	0xbb0ea87b	-0.0021767903
128	0x3c7e579f	0.01552382
129	0x3bfd91b1	0.007738315
130	0xbc84a39f	-0.016191302
131	0xbc2133c1	-0.009838999
132	0x3ca44597	0.020052714
133	0xbc9cee8c	-0.019156717
134	0xbd0e33bd	-0.03471731
135	0x3d3a7c4c	0.045528695
136	0xbc82c930	-0.015965074
137	0xbb6cc54b	-0.0036128338
138	0x3bf21f4a	0.007388984
139	0xbcd33b7f	-0.025785206
140	0x3c4d3206	0.012524134
141	0xbc5da474	-0.013527978
142	0x3c39cca4	0.011340294
143	0x3d61116b	0.05494825
144	0xbc40e684	-0.011773709
145	0xbd015f35	-0.031584937
146	0x3ca55cc8	0.020185843
147	0x3cc572ee	0.024102654
148	0x3d0aba87	0.033869293
149	0x3c395c91	0.011313573
150	0x3c9efdd6	0.019408148
151	0x3c8ffde0	0.017577112
152	0xbcca551b	-0.024698785
153	0xbc3c8349	-0.01150591
154	0x3c1aa219	0.009438061
155	0xbd5d575e	-0.054038398
156	0xbc992804	-0.018695839
157	0xbc9f6b9b	-0.01946049
158	0x3c8492d2	0.01618329
159	0x3c92c26d	0.017914975
160	0x3c84907b	0.016182175
161	0xbd08423d	-0.033266295
162	0xbbc2e471	-0.0059476425
163	0xbc98d035	-0.018653968
164	0xbc3751c1	-0.011188925
165	0x3d716817	0.05893716
166	0xbcbabb64	-0.022794433
167	0xbcb9384b	-0.02260985
168	0xbd5ccd32	-0.053906627
169	0xbbbf7ea8	-0.005843956
170	0xb985e4be	-0.00025538163
171	0xbc96f8b1	-0.018429132
172	0x3c68a139	0.014198595
173	0xbb11ef0b	-0.0022267725
174	0x3ca65446	0.020303857
175	0x3bb3c523	0.005486147
176	0xbbdaf67b	-0.006682215
177	0xbba8aff0	-0.0051479265
178	0xbc0039d4	-0.007826287
179	0x3cad0e4b	0.02112498
180	0x3c4893c4	0.012242261
181	0xbc80c365	-0.015718171
182	0xbc69af98	-0.014263056
183	0x3c947cb7	0.018125875
184	0x3cbb2d01	0.022848608
185	0xbc7df65e	-0.015500633
186	0xbc75d48c	-0.015004288
187	0x3cf463e6	0.029832792
188	0xbd1a091f	-0.037606355
189	0x3c92d5cb	0.01792421
190	0x3c6e7226	0.014553582
191	0x3ba8a3cd	0.0051464797
192	0x3c5da37a	0.013527745
193	0x3c23eeeb	0.010005693
194	0x3bdeb4e2	0.0067964653
195	0x3bf61602	0.0075099478
196	0x3d1b8d50	0.037976563
197	0x3c3082a1	0.010773332
198	0x3c80260f	0.015643148
199	0xba383893	-0.0007027473
200	0x3ca5fc7b	0.020261994
201	0x3c622fbf	0.013805329
202	0x3c5e8572	0.0135816205
203	0x3c3ce18a	0.011528382
204	0x3c91e553	0.017809546
205	0x3ca210dc	0.01978343
206	0x3c3c10da	0.011478627
207	0x3c5e2690	0.013558999
208	0x3ca31ca8	0.019911125
209	0x3cf3387e	0.029690024
210	0x3d137c72	0.036007352
211	0x3bdf47b0	0.0068139657
212	0x3b99754d	0.004683173
213	0x3bfb31b3	0.0076658367
214	0x3c753a9e	0.014967589
215	0x3c4aa6ad	0.01236884
216	0x3c42fdb5	0.011901309
217	0x3c946497	0.018114371
218	0x3c9e97d3	0.019359505
219	0x3cb1d1fa	0.02170657
220	0x3c54ed8e	0.012996091
221	0x3c2a856e	0.010407789
222	0x3c97a88b	0.018512985
223	0x3d0588da	0.032601215
224	0x3cc75819	0.024334
225	0x3c42781e	0.0118694585
226	0x3bb50d80	0.005525291
227	0x3c3ff8ce	0.0117170345
228	0x3cb86375	0.022508362
229	0x3c872ea3	0.01650173
230	0x3c3b2d3a	0.011424357
231	0x3c84cc59	0.016210722
232	0x3c8d14ec	0.01722189
233	0x3d153a0c	0.03643231
234	0x3c7df378	0.015499942
235	0x3c610522	0.013734134
236	0x3c8b9399	0.017038153
237	0x3c058330	0.008148953
238	0x3bb2212e	0.0054360842
239	0x3c1192d0	0.0088851005
240	0x3c5b3d55	0.013381322
241	0x3c418f3c	0.011813935
242	0x3cf10def	0.02942559
243	0x3c28688c	0.010278832
244	0x3c5b0af4	0.013369311
245	0x3c85634f	0.016282706
246	0x3c87eaab	0.01659139
247	0x3c6b5806	0.014364248
248	0x3c3e7b58	0.011626087
249	0x3ca83abe	0.020535823
250	0x3c0d60d4	0.008629043
251	0x3c8b2635	0.016985992
252	0x3bd8468c	0.0066002067
253	0xbb6d8a86	-0.0036245896
254	0x3c3a7685	0.011380796
255	0x3c491596	0.012273213

lstm.lstm1.bias_hh_l0 f4 [256]
0	0x3c8c204b	0.017105242
1	0x3c8396cf	0.016063122
2	0x3c1cd04f	0.009571149
3	0x3c17b517	0.009259484
4	0x3d183a36	0.03716489
5	0x3c2d35a9	0.010571876
6	0x3ca1f731	0.01977119
7	0x3b9cfe55	0.004791061
8	0x3cd297c8	0.02570714
9	0x3c6d74de	0.014493195
10	0x3cb93285	0.022607097
11	0x3c9eaa7c	0.019368403
12	0x3cbc81bd	0.023011083
13	0x3c9f2142	0.019425038
14	0x3c9e5e97	0.019332213
15	0x3c945e28	0.018111303
16	0x3c9122b5	0.017716745
17	0x3cf573a7	0.029962374
18	0x3ce48c75	0.027899006
19	0x3bdc20bb	0.006717769
20	0x3cc294c8	0.023752585
21	0x3c00bc6f	0.007857426
22	0x3cd3a7c4	0.025836833
23	0x3cbe30f3	0.0232167
24	0x3c88fb11	0.01672128
25	0x3b9eb5f4	0.004843468
26	0x3cd633dc	0.026147775
27	0x3c85e715	0.01634554
28	0x3c6c48f2	0.014421688
29	0x3c1f5c69	0.009726622
30	0x3cde6f21	0.0271526
31	0x3d35ac21	0.044353608
32	0x3cb957b4	0.022624828
33	0x3c37c52c	0.011216443
34	0x3bc2ae36	0.0059411777
35	0x3c0d2756	0.008615335
36	0x3d03a6ad	0.032141376
37	0x3d2d4f15	0.042311747
38	0xbb582ca9	-0.0032985604
39	0x3c0d3d53	0.008620578
40	0x3cb2b2f4	0.021813847
41	0x3d05d0d7	0.03266987
42	0x3cb48bd3	0.02203933
43	0x3ca5a326	0.020219397
44	0x3cea9d7d	0.02863955
45	0x3c56baeb	0.013106088
46	0x3bcee320	0.0063136965
47	0x3c032b42	0.008005919
48	0x3ca7a450	0.020464092
49	0x3ceaca2c	0.028660856
50	0x3ce5e38a	0.0280626
51	0x3c6871a1	0.0141872475
52	0x3c386774	0.011255134
53	0x3c999f2e	0.01875266
54	0x3cbe1132	0.023201559
55	0x3babbf3c	0.005241303
56	0x3c8c2f1a	0.017112304
57	0x3ce302ee	0.027711358
58	0x3b929251	0.0044730087
59	0x3cc4afe1	0.024009647
60	0x3c8daa7e	0.017293211
61	0x3b80effc	0.0039348584
62	0x3ca89d81	0.020582916
63	0x3c80ff53	0.015746748
64	0xbb4dd4cb	-0.0031407352
65	0xba90bf8b	-0.0011043412
66	0xbb6f9f1f	-0.003656335
67	0xbb6f7181	-0.003653616
68	0x3be80a2c	0.0070812907
69	0x3b6de54c	0.0036300002
70	0xbc33a949	-0.010965654
71	0x3a9a6277	0.0011778612
72	0xba0d5cd3	-0.0005392555
73	0x3bfc92a5	0.007707911
74	0xbc2b1068	-0.010440923
75	0xbba53364	-0.0050415266
76	0xbc205d0c	-0.009787809
77	0xbc4fe5dc	-0.01268908
78	0xbc19e261	-0.009392352
79	0xbc6bbd64	-0.014388416
80	0x3c0cd61b	0.008595969
81	0xbc4f31e2	-0.01264617
82	0xbccc0904	-0.024906643
83	0xb897612b	-7.21834e-05
84	0xbcbb34b3	-0.022852277
85	0x3be541bb	0.006996361
86	0x3a546517	0.0008102222
87	0xbcd9c251	-0.026581915
88	0xbc145aba	-0.009054834
89	0xbc760c29	-0.015017548
90	0xbc7aa048	-0.015297003
91	0xbb802490	-0.0039106086
92	0x3bf24250	0.007393159
93	0x3c109135	0.008823683
94	0xbc75f671	-0.0150123695
95	0xbb90e8e1	-0.0044222926
96	0x3c5cf554	0.013486225
97	0x3c07f8ae	0.008299036
98	0x3b5a9e94	0.003335868
99	0x3a2ac8bd	0.00065148977
100	0xbc75a42c	-0.014992755
101	0xbc31063d	-0.01080471
102	0xbbf75a43	-0.007548602
103	0x3bc318f1	0.005953901
104	0xbaa29636	-0.0012404385
105	0x3d59eca9	0.053204212
106	0xbc5e75d4	-0.013577897
107	0xbbdc6f64	-0.006727146
108	0xbb081e17	-0.0020769888
109	0xbbbc6c63	-0.0057502254
110	0x3783cc70	1.5711616e-05
111	0x3b69abe2	0.0035655429
112	0xbb73dd6b	-0.0037210833
113	0x3ab388e9	0.0013697419
114	0xbb1722b3	-0.0023061454
115	0x3a4e68a8	0.00078738714
116	0xbbb13b24	-0.0054086614
117	0xbbbd60b8	-0.005779352
118	0xbc616cd4	-0.013758857
119	0xbc13aa9c	-0.009012844
120	0x3c1e3738	0.00965672
121	0xbc926591	-0.017870696
122	0xbc18ba3f	-0.009321748
123	0xbc07bfc9	-0.008285471
124	0xbc04dc61	-0.008109183
125	0xba681cc8	-0.00088543864
126	0xbb3b97a6	-0.0028624325
127	0xbb8bda2e	-0.0042679524
128	0x3c3b48d6	0.01143094
129	0xbc8647da	-0.016391683
130	0xbd39488d	-0.045235205
131	0xbc5cca8f	-0.013476028
132	0xbbb33c7f	-0.005469858
133	0xbc330843	-0.010927263
134	0xbae1bf37	-0.0017223124
135	0x3bfab8a6	0.0076514063
136	0xbc92426d	-0.01785394
137	0xbc1e7ba3	-0.009673032
138	0x3d378f8f	0.044814643
139	0xba0daa52	-0.0005404103
140	0xbbafb1c6	-0.0053617684
141	0x3c0de0db	0.008659567
142	0x3c3af157	0.011410079
143	0x3c64fa48	0.013975687
144	0xbc303e37	-0.010757021
145	0x3c3170c6	0.01083011
146	0x3ca51220	0.020150244
147	0xbc910cf4	-0.017706372
148	0xbbc2f779	-0.005949911
149	0x3c235ba8	0.009970583
150	0xbc790b3a	-0.0152004305
151	0x3c8fb532	0.017542455
152	0xbcb8f86f	-0.0225794
153	0xbca7c72d	-0.020480717
154	0x3bbe5d63	0.0058094724
155	0xbcf3abd1	-0.029745014
156	0x3b06c0b3	0.0020561635
157	0xbc96f525	-0.01842744
158	0xbcf8e79a	-0.030383874
159	0x3c912728	0.017718866
160	0xbc295e07	-0.010337359
161	0x3b80c6d7	0.0039299536
162	0x3c616e50	0.013759211
163	0xbc8f8ac8	-0.01752223
164	0xbc039f9f	-0.008033662
165	0x3c06904b	0.008213113
166	0x3ca15fc3	0.019698983
167	0x3bccfd39	0.0062557724
168	0xbc9c2682	-0.01906133
169	0xbd1f5a03	-0.0389042
170	0xbca8b13b	-0.020592323
171	0xbd4e60a6	-0.05038514
172	0x3d7f1053	0.062271427
173	0x3d4ad541	0.04951978
174	0x3b58d19b	0.003308392
175	0x3d055b0c	0.032557532
176	0xbc047eed	-0.008086902
177	0xbca4f0d4	-0.020134367
178	0xbc160287	-0.009155876
179	0x3c0f902c	0.008762401
180	0xbcb11c14	-0.021619834
181	0xbceebbbd	-0.029142255
182	0x3c6f3480	0.014599919
183	0x3ccd1c86	0.025038015
184	0xbce450d2	-0.02787057
185	0xbc8a83d0	-0.016908556
186	0xbd560005	-0.052246112
187	0x3c74b2d8	0.014935218
188	0xbd243c3c	-0.040096506
189	0x3d66cb36	0.05634614
190	0x3c7dd225	0.015491997
191	0x3c60e211	0.013725773
192	0x3c5da75f	0.013528674
193	0x3bba2849	0.005681072
194	0x3c1510e9	0.00909827
195	0x3bfd827f	0.0077365036
196	0x3d19cf4a	0.037551202
197	0x3c234f67	0.009967661
198	0x3ca380e4	0.01995892
199	0x3bab527e	0.0052283397
200	0x3caa5669	0.020793157
201	0xbbe24b57	-0.006905954
202	0x3c5dd1cb	0.013538788
203	0x3c2ef1d0	0.01067777
204	0x3c69bf47	0.0142667955
205	0x3c9a71d1	0.0188531
206	0x3c4b6c60	0.012415975
207	0x3ca42e7e	0.0200417
208	0x3c4a0514	0.012330312
209	0x3c80fc54	0.01574532
210	0x3cffb200	0.031212807
211	0x3ac4bd2e	0.0015009993
212	0x3c639b09	0.013891944
213	0x3bfb4178	0.0076677166
214	0x3c73126a	0.014835933
215	0x3cae0591	0.021242889
216	0x3c4992c0	0.012303054
217	0x3c6fda2f	0.014639421
218	0x3c8b492c	0.017002665
219	0x3cfd719c	0.030937962
220	0x3c0100c0	0.007873714
221	0x3c4181a0	0.01181069
222	0x3c918b47	0.017766608
223	0x3c953206	0.01821233
224	0x3cc8e7b4	0.024524547
225	0x3c43864f	0.011933877
226	0x3bafe868	0.005368281
227	0x3c957389	0.018243568
228	0x3ceb31c6	0.028710257
229	0x3d076520	0.033055425
230	0x3c2b9467	0.010472394
231	0xbc2d3a44	-0.010572974
232	0x3ca59fe0	0.020217836
233	0x3d156075	0.03646894
234	0x3c83e08a	0.01609828
235	0x3cdf3142	0.027245168
236	0x3c82a8fa	0.015949715
237	0x3bfde690	0.0077484325
238	0x3bc8d02e	0.0061283326
239	0x3c4c8aa3	0.012484225
240	0x3c1b105f	0.009464352
241	0x3c8ddc33	0.017316913
242	0x3cee4b4f	0.029088644
243	0x3c330c21	0.010928185
244	0x3c794ef1	0.015216575
245	0x3c78090b	0.015138875
246	0x3c851629	0.016245918
247	0x3c176bda	0.009242022
248	0x3c453c45	0.012038295
249	0x3c974d7c	0.018469565
250	0x3c0d2959	0.008615815
251	0x3c89f8b8	0.016842231
252	0x3cc3b2ff	0.023889063
253	0x3c00a4d1	0.007851795
254	0x3c3e3770	0.011609897
255	0x3c46aa16	0.012125513

lstm.bn1.weight f4 [7]
0	0x3f800000	1.0
1	0x3f800000	1.0
2	0x3f800000	1.0
3	0x3f800000	1.0
4	0x3f800000	1.0
5	0x3f800000	1.0
6	0x3f800000	1.0

lstm.bn1.bias f4 [7]
0	0x00000000	0.0
1	0x00000000	0.0
2	0x00000000	0.0
3	0x00000000	0.0
4	0x00000000	0.0
5	0x00000000	0.0
6	0x00000000	0.0

lstm.bn1.running_mean f4 [7]
0	0x00000000	0.0
1	0x00000000	0.0
2	0x00000000	0.0
3	0x00000000	0.0
4	0x00000000	0.0
5	0x00000000	0.0
6	0x00000000	0.0

lstm.bn1.running_var f4 [7]
0	0x3f800000	1.0
1	0x3f800000	1.0
2	0x3f800000	1.0
3	0x3f800000	1.0
4	0x3f800000	1.0
5	0x3f800000	1.0
6	0x3f800000	1.0

lstm.lstm2.weight_ih_l0 f4 [256, 64]
0	0x3a967f94	0.0011482113
1	0x3b3e999d	0.002908326
2	0xba6c471c	-0.00090132817
3	0x3a9f511f	0.0012154913
4	0x3b68385d	0.0035433986
5	0xbaa42a5f	-0.0012524835
6	0xbb251d8a	-0.0025194609
7	0xbaa0bd54	-0.0012263455
8	0x3ba9fcdb	0.0051876134
9	0x3bee4f78	0.007272657
10	0xbb7260fd	-0.003698408
11	0x3ba9bcc2	0.0051799724
12	0x3bc3d2c1	0.0059760516
13	0xbb97fc65	-0.004638242
14	0xbacf1fa0	-0.0015802272
15	0xba2dfc2d	-0.00066370034
16	0x3a3ce097	0.00072050974
17	0x3b7e2332	0.0038778302
18	0x37a45590	1.9590167e-05
19	0xbb110f9a	-0.0022134543
20	0xba8f6020	-0.0010938682
21	0xbb5a90b3	-0.0033350408
22	0x3b20871a	0.002449459
23	0xbad2653f	-0.0016051902
24	0x39fccfa0	0.00048219878
25	0x3b2d9cc6	0.002649115
26	0xbac2986a	-0.0014846448
27	0xba8a0c55	-0.001053224
28	0xba1c7dc0	-0.0005969666
29	0xbb0aa14b	-0.0021153267
30	0xbbd25c11	-0.0064196666
31	0x39a03b03	0.00030561545
32	0x3b15832d	0.0022813783
33	0xbac249b9	-0.0014822996
34	0x3b0cb73a	0.0021471516
35	0xbaa841ae	-0.0012836957
36	0x3b9d79ba	0.0048057707
37	0xbb6832b3	-0.003543061
38	0x3b3bfc22	0.0028684218
39	0x3ae2bb0c	0.0017298176
40	0xbafb4dd6	-0.0019172977
41	0xbbc7e37a	-0.0061001154
42	0x39240017	0.00015640292
43	0xba61c5b2	-0.0008612528
44	0x39bf5b2c	0.00036498287
45	0xbae40728	-0.0017397152
46	0xbb31a7a9	-0.002710799
47	0xbbb5481e	-0.0055322787
48	0x3b221622	0.002473243
49	0x3b156bd9	0.0022799878
50	0x3bbefd29	0.005828519
51	0x3ae98946	0.00178174
52	0xbb9e3f53	-0.004829326
53	0x3b72f6b0	0.0037073307
54	0x3b207f0d	0.002448979
55	0xbb003f1e	-0.001956887
56	0xbbf80ee6	-0.0075701354
57	0x3b233260	0.0024901852
58	0xbad4a0b8	-0.0016222214
59	0x39a590fb	0.0003157927
60	0xba904ffb	-0.0011010164
61	0x39b5963f	0.00034634952
62	0xbb6e7081	-0.0036382976
63	0x39e7502e	0.00044119492
64	0x3a5a0529	0.0008316809
65	0x3b9f87af	0.0048684697
66	0xb9cbbe45	-0.0003886094
67	0x3b2af5e1	0.0026086497
68	0xbb7668aa	-0.0037599006
69	0xba8c5f7a	-0.0010709607
70	0xbb0296d1	-0.001992632
71	0xbb0071b6	-0.0019599027
72	0x3c078c23	0.008273157
73	0x3c2ecdbd	0.010669169
74	0xbbcc3e40	-0.0062330067
75	0x3bf501d5	0.007477025
76	0x3c176ad9	0.009241783
77	0xbc08d4a2	-0.008351477
78	0xbb56490a	-0.0032697343
79	0xbae51304	-0.001747698
80	0x393b07f9	0.0001783668
81	0x3befb85d	0.007315679
82	0xbb89968f	-0.004198856
83	0xbb7cf2ed	-0.0038596943
84	0xbb3f1ac2	-0.0029160236
85	0xbb996d72	-0.0046822364
86	0x3b962c74	0.004582936
87	0xbb73d96b	-0.0037208449
88	0x3adf21b2	0.0017023592
89	0x3b973c4a	0.0046153413
90	0xb9d502f3	-0.00040628723
91	0xb9778b56	-0.00023607662
92	0xbb394522	-0.0028269966
93	0xbb2c6f86	-0.002631159
94	0xbc1b98c4	-0.009496871
95	0xba62c534	-0.00086506014
96	0x3c05e19c	0.008171465
97	0xbaa1e2fe	-0.0012350974
98	0x3b453f26	0.0030097454
99	0xba5dc2e0	-0.00084595196
100	0x3c122f29	0.008922377
101	0xbbd26e09	-0.0064218086
102	0x3b9b6e17	0.0047433483
103	0x3b7688b7	0.003761811
104	0xbaf7948a	-0.0018888873
105	0xbc086dc0	-0.008326948
106	0x3ac8061a	0.0015260607
107	0x3996ca7f	0.000287611
108	0xba28f7c8	-0.00064456137
109	0xbb43e4fd	-0.0029891126
110	0xbb878913	-0.0041362136
111	0xbc000d80	-0.007815719
112	0x3bdf8d38	0.0068222545
113	0x3ba4c426	0.0050282655
114	0x3c3e0c4a	0.01159961
115	0x3af6db74	0.0018833713
116	0xbc076c09	-0.008265504
117	0x3bd2b7bd	0.0064305947
118	0x3bba2cba	0.0056816014
119	0xbb8484b7	-0.004044141
120	0xbc230276	-0.009949317
121	0x3b9808d3	0.004639724
122	0xbadabe31	-0.0016688762
123	0xba892d99	-0.001046586
124	0xba2ca8b0	-0.00065864157
125	0xb9adc360	-0.00033142697
126	0xbbbcd33f	-0.005762487
127	0xb93d3fee	-0.0001804826
128	0x35af9644	1.3082249e-06
129	0xb8514226	-4.989109e-05
130	0xb8518eed	-4.9962593e-05
131	0xb82e915e	-4.1620217e-05
132	0xb9b8030c	-0.00035097485
133	0x3932add1	0.00017040154
134	0x38c0bdea	9.190648e-05
135	0x39170821	0.0001440351
136	0xb9349477	-0.00017221445
137	0x383cebb5	4.5042212e-05
138	0x3727dbdb	1.0005165e-05
139	0xb8887134	-6.506071e-05
140	0xb8102ddf	-3.4374996e-05
141	0xb8f15d13	-0.00011509112
142	0x37a53350	1.9693427e-05
143	0x3890228a	6.8728885e-05
144	0xb9b86ae6	-0.0003517486
145	0xb83c8c45	-4.495333e-05
146	0xb8bae290	-8.911372e-05
147	0x38246672	3.9196057e-05
148	0x370d0812	8.406134e-06
149	0x38645bc1	5.444489e-05
150	0xb74bbef5	-1.21442035e-05
151	0xb7288286	-1.004397e-05
152	0xb8b80296	-8.7742854e-05
153	0x35288c56	6.278909e-07
154	0x38b00be1	8.3945466e-05
155	0xb878f259	-5.935351e-05
156	0xb8be1b00	-9.064935e-05
157	0x37321f7a	1.06169555e-05
158	0xb8279b02	-3.9960265e-05
159	0xb86762bb	-5.516664e-05
160	0x39b37c7e	0.00034234294
161	0x38a16fef	7.6979275e-05
162	0xb80a9832	-3.3043507e-05
163	0x38093a36	3.271756e-05
164	0xb724d2c2	-9.824233e-06
165	0x38ab6e88	8.1745035e-05
166	0x36e25a99	6.745872e-06
167	0x37d07515	2.4850053e-05
168	0xb75a217b	-1.3001608e-05
169	0x390e5d08	0.00013576832
170	0xb7d507eb	-2.5395266e-05
171	0xb8a32516	-7.7793535e-05
172	0x34543c4a	1.9765972e-07
173	0x38adf524	8.294944e-05
174	0x383617ae	4.3414235e-05
175	0x38a53071	7.876836e-05
176	0x39883ef4	0.00025986845
177	0xb7c21376	-2.3135664e-05
178	0x38972c10	7.2084484e-05
179	0x378ecd73	1.7023389e-05
180	0xb93c5975	-0.00017962402
181	0xb7f5a41f	-2.92827e-05
182	0x38eae4d2	0.000112006106
183	0xb799fcfc	-1.8356826e-05
184	0x3836a69b	4.3547345e-05
185	0xb90feac5	-0.00013725001
186	0xb8f2fdd9	-0.00011586742
187	0xb88db925	-6.75789e-05
188	0xb7e033d1	-2.672701e-05
189	0x38ba8d03	8.8954366e-05
190	0x383396c7	4.2817348e-05
191	0xb814af5d	-3.544927e-05
192	0x38837ef9	6.270217e-05
193	0xb879ee36	-5.9588077e-05
194	0xb87f9b40	-6.0941326e-05
195	0xb878c8b7	-5.9314738e-05
196	0x39840ebc	0.0002518798
197	0x38d65012	0.000102192294
198	0xb6ea2859	-6.9784405e-06
199	0x3920a33a	0.00015319596
200	0xb98376bc	-0.0002507473
201	0xb8d9bc08	-0.0001038239
202	0x38883ee2	6.496698e-05
203	0xb8cf119f	-9.873811e-05
204	0xb896aeb5	-7.185099e-05
205	0xb7fcaa77	-3.012012e-05
206	0x37d7e7ff	2.5738029e-05
207	0x38c3cfcb	9.337029e-05
208	0xb98a1659	-0.0002633806
209	0xb899f2c4	-7.340827e-05
210	0x3882a3eb	6.229415e-05
211	0x3895281e	7.112346e-05
212	0x38a8437c	8.023434e-05
213	0x37e03eef	2.6732187e-05
214	0xb64113f9	-2.8770867e-06
215	0x38f52928	0.00011690176
216	0xb8d5e88b	-0.00010199946
217	0xb8c7abe7	-9.521079e-05
218	0x37ced812	2.465773e-05
219	0xb87e463a	-6.0623723e-05
220	0xb7c3f3c8	-2.3359331e-05
221	0xb81367c6	-3.5144178e-05
222	0x38893658	6.5427914e-05
223	0x3817ee53	3.6223162e-05
224	0x37440f83	1.1686122e-05
225	0x36c0c118	5.744525e-06
226	0x37384262	1.0982711e-05
227	0xb788cc19	-1.6307504e-05
228	0xb8b481d1	-8.607249e-05
229	0x390937d4	0.00013086136
230	0xb79d4726	-1.874899e-05
231	0xb89e17cf	-7.538462e-05
232	0xb8526d05	-5.0169434e-05
233	0x39672f22	0.00022047435
234	0xb860a28a	-5.3557138e-05
235	0xb8a895ee	-8.038791e-05
236	0x388c2856	6.6832334e-05
237	0x38991776	7.2999785e-05
238	0x380bd253	3.3336062e-05
239	0x38ed46db	0.000113142385
240	0x387391be	5.8071448e-05
241	0xb8fb3421	-0.000119783224
242	0xb8bfed20	-9.151758e-05
243	0x38376d60	4.3732463e-05
244	0xb8160339	-3.576579e-05
245	0xb89413c4	-7.0608716e-05
246	0x375cbe71	1.3157362e-05
247	0x38bfa785	9.138793e-05
248	0x38a59290	7.8951125e-05
249	0xb9144b40	-0.00014142413
250	0xb91b53b5	-0.00014813135
251	0x37e3d27c	2.7158523e-05
252	0xb8aa2e00	-8.1148e-05
253	0x38fd1c33	0.000120692326
254	0x38b6a19c	8.7085384e-05
255	0x382a6e4b	4.0633877e-05

lstm.lstm2.weight_hh_l0 f4 [256, 64]
0	0xbb1fcd3e	-0.0024383808
1	0x3b8a1b6f	0.004214696
2	0xb80b1094	-3.3155622e-05
3	0x3a186d6d	0.00058146456
4	0xbb450488	-0.0030062515
5	0x3addb3bd	0.0016914528
6	0x3b1fbb8a	0.0024373257
7	0xbb39bfff	-0.0028343198
8	0x3c13725d	0.008999434
9	0x3c16cb6f	0.009203776
10	0xbbc841b3	-0.0061113476
11	0x3b254ca8	0.0025222693
12	0x3bea4c47	0.0071502062
13	0xbbcc7b98	-0.0062403195
14	0xbb896b08	-0.0041936673
15	0xba309f90	-0.0006737644
16	0xbab29c51	-0.0013626908
17	0x3be2a57d	0.0069167004
18	0xbbeb7d75	-0.0071865865
19	0xba336c96	-0.00068444887
20	0xbbc7af9a	-0.0060939314
21	0x38daf182	0.000104400344
22	0x3bb87d04	0.0056301374
23	0xbbdd6cae	-0.0067573404
24	0x3a34fdd8	0.0006904281
25	0x3bd3a7f5	0.006459231
26	0x3b7fa1f0	0.0039006434
27	0x3bb7ce15	0.0056092837
28	0xbb8f8d74	-0.004380876
29	0x3a6568ad	0.00087512546
30	0xbc0578a1	-0.008146436
31	0xbbb130bf	-0.0054074223
32	0x3b802d14	0.0039116237
33	0xba329d92	-0.0006813641
34	0xbaa30706	-0.0012438006
35	0xb91c0c79	-0.00014881966
36	0x3bff4963	0.007790731
37	0xbc4cd3a5	-0.012501632
38	0x3ab714b2	0.001396796
39	0x3bae87b7	0.005326237
40	0xb9976e41	-0.0002888311
41	0xba835fad	-0.001002302
42	0x3b8e74f5	0.0043474385
43	0x3b824f40	0.0039767325
44	0xbb8a36e8	-0.004217971
45	0xbb72ef03	-0.0037068732
46	0xba9d76e5	-0.0012013583
47	0xbb2b14ba	-0.0026104883
48	0x3ba3ded6	0.0050009293
49	0x3be194e7	0.0068842056
50	0x3c1035c7	0.008801884
51	0xbae1cc81	-0.0017227085
52	0xbbac3f02	-0.0052565346
53	0x3bd8e992	0.0066196406
54	0x3b0d7cc7	0.0021589266
55	0xbbabc3c5	-0.0052418434
56	0xbb4390fe	-0.002984106
57	0x3a8ff7cd	0.0010983885
58	0x3b529533	0.0032132387
59	0xbb5078b2	-0.0031810221
60	0x399e18c1	0.00030154551
61	0x3a098292	0.0005245592
62	0xbbb1e717	-0.0054291594
63	0x389ef220	7.5791264e-05
64	0xbb5e48f3	-0.0033917993
65	0x3bb874a9	0.0056291413
66	0xb81c428c	-3.7255275e-05
67	0x3a578151	0.0008220869
68	0xbbcd8b2c	-0.006272694
69	0x3b46293d	0.0030236982
70	0x3b69f87b	0.0035701084
71	0xbb790e47	-0.0038002895
72	0x3c37dae7	0.011221624
73	0x3c35f83d	0.011106548
74	0xbc036b33	-0.008021164
75	0x3b520926	0.003204891
76	0x3c1d70ab	0.009609382
77	0xbc103ab7	-0.008803061
78	0xbbb73f6d	-0.0055922777
79	0xba354504	-0.0006914886
80	0xbb54bf5b	-0.003246269
81	0x3c11a307	0.008888966
82	0xbc212ba3	-0.009837064
83	0xba47be09	-0.0007619565
84	0xbbfe7abc	-0.007766096
85	0xb7089332	-8.140503e-06
86	0x3bed920f	0.0072500776
87	0xbc03b1b2	-0.008037971
88	0x3a38e281	0.00070527947
89	0x3c05694d	0.008142781
90	0x3ba86d78	0.005140003
91	0x3be0f869	0.0068655503
92	0xbbc9a2f9	-0.006153461
93	0x3acb9f41	0.0015535132
94	0xbc2dcc5f	-0.010607808
95	0xbbdf444a	-0.0068135606
96	0x3c074e77	0.008258454
97	0xba226138	-0.00061942963
98	0xbad721f7	-0.001641332
99	0xb9321aee	-0.00016985435
100	0x3c2aba2c	0.010420363
101	0xbc70a4a4	-0.014687691
102	0x3ad0ba90	0.0015924741
103	0x3be9c99e	0.0071346303
104	0xba2f78f6	-0.0006693745
105	0xba718887	-0.00092137646
106	0x3bbb850e	0.0057226485
107	0x3baf6542	0.005352647
108	0xbbb36646	-0.0054748384
109	0xbba1a866	-0.0049334047
110	0xbac7ac70	-0.0015233885
111	0xbb65d1e5	-0.0035067734
112	0x3bffc99d	0.0078060166
113	0x3c0d3e08	0.008620746
114	0x3c3cd4ca	0.011525342
115	0xbb20fad3	-0.0024563565
116	0xbc065768	-0.00819955
117	0x3c0d9410	0.008641258
118	0x3b504772	0.0031780866
119	0xbbe83124	-0.007085936
120	0xbb84991f	-0.004046574
121	0x3a885bcd	0.0010403335
122	0x3b8ec59f	0.0043570544
123	0xbb8f9295	-0.0043814876
124	0x39bfd21f	0.0003658691
125	0x3a392c25	0.0007063768
126	0xbbeb90b2	-0.00718888
127	0x3960b1fc	0.00021428609
128	0x37f9c7d9	2.9776174e-05
129	0xb8e2ceb3	-0.000108150205
130	0xb7206cc9	-9.562072e-06
131	0xb850ffad	-4.982918e-05
132	0x38c0afdb	9.188029e-05
133	0x376e53e6	1.420544e-05
134	0xb8fd2516	-0.00012070888
135	0x3642fcc2	2.9055377e-06
136	0xb96dced2	-0.00022679128
137	0xba17411a	-0.0005769894
138	0x392a7903	0.00016257544
139	0xb958315d	-0.00020617754
140	0xb9325346	-0.00017006425
141	0x3911bdab	0.00013898934
142	0x389f4c59	7.595932e-05
143	0x383826e1	4.3905227e-05
144	0xb711311c	-8.654108e-06
145	0xb9106af7	-0.00013772758
146	0x395c9766	0.00021037235
147	0x38d95150	0.00010362512
148	0x39418a5f	0.00018457462
149	0x36f99ec8	7.439263e-06
150	0xb95c1a4b	-0.0002099063
151	0x38d8d7ae	0.00010339856
152	0xb89886e5	-7.273051e-05
153	0xb91c70d3	-0.0001491935
154	0xb8c086ce	-9.180383e-05
155	0xb93fb11f	-0.00018281162
156	0x389c4f71	7.453457e-05
157	0x3797e9eb	1.810953e-05
158	0x39858c68	0.00025472348
159	0x39397595	0.00017686778
160	0xb834d959	-4.3117765e-05
161	0x388814ba	6.488846e-05
162	0x379cbf88	1.8685838e-05
163	0xb8092b9a	-3.2703952e-05
164	0xb97cfa5f	-0.00024125863
165	0x39c781d9	0.00038052982
166	0xb94dedab	-0.00019638862
167	0xb908562e	-0.00013002075
168	0xb89acfb1	-7.381978e-05
169	0x397f6da3	0.00024359538
170	0xb8f9da56	-0.000119139135
171	0xb8102885	-3.4370012e-05
172	0x38291e66	4.032105e-05
173	0x38ce056e	9.823857e-05
174	0xb6a069f2	-4.7807052e-06
175	0x3764c371	1.3635364e-05
176	0xb906a661	-0.00012841217
177	0xb94f791a	-0.00019786172
178	0xb987c6b0	-0.0002589724
179	0x388440c6	6.3063155e-05
180	0x38e7b923	0.00011049423
181	0xb94d8d59	-0.0001960298
182	0xb8dc628e	-0.00010508775
183	0x39028f0f	0.0001245106
184	0x38a1a333	7.7074765e-05
185	0xb979cfb2	-0.00023823863
186	0xb94a1975	-0.00019273705
187	0x380f4991	3.416237e-05
188	0xb5c1ac98	-1.4429852e-06
189	0xb87d2c6c	-6.036127e-05
190	0x38e5ae05	0.000109519846
191	0x389b3953	7.4016534e-05
192	0x371e9573	9.45233e-06
193	0xb8f35a04	-0.0001160391
194	0xb82857e8	-4.013619e-05
195	0xb8c480ba	-9.3699855e-05
196	0xb984a3ed	-0.00025299136
197	0x38c05b63	9.1722955e-05
198	0xb8b730e8	-8.7352295e-05
199	0xb6fea47f	-7.5889398e-06
200	0xb9804d57	-0.00024471685
201	0xba07f831	-0.0005186825
202	0x391c6681	0.00014915505
203	0xb948bab2	-0.00019143036
204	0xb939fab5	-0.0001773637
205	0x39048d4e	0.00012641141
206	0x38c61ef6	9.447143e-05
207	0x388d4577	6.736343e-05
208	0xb8eb70e3	-0.000112267
209	0xb91202cc	-0.00013924687
210	0x39302199	0.00016797184
211	0x3900a268	0.00012267532
212	0x3931d4a9	0.00016959257
213	0x365b8b59	3.2714654e-06
214	0xb972d7f0	-0.00023159361
215	0x38e0a5ec	0.00010712058
216	0xb898aec3	-7.280477e-05
217	0xb9068932	-0.00012830345
218	0xb8cef185	-9.867832e-05
219	0xb932ff79	-0.00017070574
220	0x3853e8b7	5.0523053e-05
221	0x3809566f	3.2743843e-05
222	0x39991ae4	0.0002920247
223	0x39539e99	0.0002018161
224	0x39160120	0.00014305534
225	0x38b63662	8.688566e-05
226	0x36282362	2.5054546e-06
227	0xb7fe83ba	-3.03405e-05
228	0xb9892758	-0.0002615999
229	0x39b3977a	0.000342544
230	0xb928d551	-0.00016101195
231	0xb8eff35a	-0.00011441736
232	0xb882de1a	-6.240253e-05
233	0x39772f2c	0.00023573329
234	0xb9065c59	-0.00012813638
235	0xb8364f48	-4.3466018e-05
236	0x381f31f6	3.7955084e-05
237	0x38cb523a	9.69511e-05
238	0x379f3f48	1.8983745e-05
239	0x379230dc	1.7427308e-05
240	0xb86792ea	-5.5211516e-05
241	0xb97929c7	-0.00023762054
242	0xb97e37aa	-0.00024244064
243	0x382d6253	4.1337986e-05
244	0x38ded56b	0.00010625537
245	0xb95ef39a	-0.00021262318
246	0xb8eeb3ac	-0.00011382191
247	0x38eff5a8	0.00011442165
248	0x38ec91e1	0.00011280529
249	0xb98188cd	-0.00024706722
250	0xb958c807	-0.00020673881
251	0x37d5cf6a	2.5488163e-05
252	0xb72b1630	-1.019756e-05
253	0xb898eb57	-7.29176e-05
254	0x38b304d2	8.536283e-05
255	0x38c14d10	9.217311e-05

lstm.lstm2.bias_ih_l0 f4 [256]
0	0x3c9a9c0e	0.01887324
1	0x3cb1a1d8	0.021683618
2	0x3ba5adde	0.005056127
3	0x3bcef948	0.0063163377
4	0x3cc7d0b6	0.024391513
5	0x3c838d1b	0.016058495
6	0x3cb40322	0.02197415
7	0x3c18aea5	0.009318982
8	0x3c9808ad	0.018558824
9	0x3d4b31ca	0.04960803
10	0x3cca8f03	0.024726396
11	0x3c5d9e75	0.013526549
12	0x3cb2596d	0.021771157
13	0x3c186732	0.009301947
14	0x3cac2777	0.021014912
15	0x3b5ef6d2	0.0034021628
16	0x3b5faac6	0.0034128889
17	0x3c91a2c8	0.017777815
18	0xbaea9f04	-0.0017900174
19	0xbbbb6cac	-0.005719742
20	0x3cea7fd5	0.028625408
21	0x3baa695e	0.005200549
22	0x3d453bd9	0.04815278
23	0x3bb25988	0.005442802
24	0x3b98bf3e	0.0046614697
25	0x3cf638c3	0.030056363
26	0x3d320e61	0.043470744
27	0x3d2e147d	0.042500008
28	0x3caefbcf	0.021360306
29	0x3cbe5ebd	0.023238534
30	0x3c329542	0.010899844
31	0x3d346c45	0.044048566
32	0x3c573ffa	0.013137812
33	0x3b6e66e5	0.0036377248
34	0x3cc46d86	0.023978006
35	0xb4e2af2e	-4.222324e-07
36	0x3bcfb693	0.006338903
37	0x3d3c344c	0.04594831
38	0x3cc9077a	0.024539698
39	0x3d13a90e	0.036049895
40	0x3c49d3dd	0.012318579
41	0x3c8b7cb7	0.017027242
42	0x3cc4611c	0.023972087
43	0x3d1c55f3	0.038167905
44	0x3ca1e0ee	0.019760575
45	0x3ca8c0aa	0.020599682
46	0x3b1ddd97	0.0024088377
47	0x3c4e1c35	0.012579967
48	0x3d0af866	0.033928297
49	0x3c5dd4dc	0.013539519
50	0x3cbd6765	0.023120591
51	0x3c8e416d	0.017365182
52	0x3c19a3c6	0.009377426
53	0x3c954359	0.01822059
54	0x3b4ec802	0.003155232
55	0x3adfcc06	0.0017074354
56	0x3acb68b5	0.0015518876
57	0x3c87fed7	0.01660101
58	0x3d504613	0.050848078
59	0x3abfdfa3	0.0014638792
60	0x3af23931	0.0018480179
61	0x3d02e9f1	0.031961385
62	0x3c92b484	0.017908342
63	0x3b9393af	0.0045036892
64	0x3cbb0faf	0.022834627
65	0x3d1c5a5f	0.038172122
66	0x3aa33421	0.0012451449
67	0x3b0c506c	0.002141024
68	0x3c8bf4cf	0.017084507
69	0xbb19e66a	-0.0023483285
70	0x3d1be88c	0.03806357
71	0xbb6128a2	-0.0034356494
72	0x3d22d7c2	0.039756544
73	0x3d8e1e18	0.06939334
74	0x3d0618a4	0.032738343
75	0x3cb882fa	0.022523392
76	0x3cebc13b	0.028778663
77	0x3cd08b75	0.025457123
78	0x3c616c4f	0.013758733
79	0x3bcd0f74	0.0062579457
80	0x3bcadc0b	0.006190782
81	0x3c448f15	0.011997004
82	0x3ca03cbf	0.019560216
83	0x3b96deac	0.0046041813
84	0x3d3e3e8e	0.046446376
85	0x3c31ee0e	0.010859979
86	0x3d2d9772	0.042380758
87	0x3d54f856	0.051994644
88	0x3bb2e0e0	0.005458936
89	0x3d28ee35	0.041242797
90	0x3d3976ab	0.045279186
91	0x3d683c38	0.056698054
92	0x3d131684	0.035910144
93	0x3c9e9e60	0.019362628
94	0x3d538c29	0.05164734
95	0x3d87c104	0.06628612
96	0x3b85ccd6	0.0040832562
97	0x3aa78894	0.0012781792
98	0x3c88d66b	0.016703805
99	0x3b157950	0.0022807904
100	0x3ca6a48f	0.02034214
101	0x3d85f4bf	0.06540822
102	0x3c82b049	0.0159532
103	0x3cf56881	0.029957058
104	0x3bae2225	0.005314129
105	0xba72bbc2	-0.00092595455
106	0x3c602966	0.013681745
107	0x3c4d190e	0.0125181805
108	0x3d2364a5	0.039890904
109	0x3c8ce3c6	0.017198455
110	0x3a96e9dd	0.0011513788
111	0x3c39bb20	0.011336118
112	0xbbb0bca6	-0.0053935824
113	0x3ce17324	0.027520724
114	0x3cb7b597	0.022425456
115	0x3ce73daf	0.028227655
116	0x3c883844	0.016628392
117	0x3d17ed9a	0.03709183
118	0x3bc838e7	0.006110299
119	0x3d095eca	0.033537664
120	0x3b879146	0.004137191
121	0x3c4fb607	0.012677676
122	0x3cd39771	0.025829049
123	0x3cae7ccc	0.021299742
124	0x3b94f2f7	0.004545565
125	0x3bacf69c	0.0052784216
126	0x3ceccd08	0.02890636
127	0x3bab6410	0.0052304342
128	0x3b9a01ac	0.0046999063
129	0xbc6fa072	-0.0146256555
130	0x3badfbad	0.005309543
131	0xbcc94b34	-0.024571992
132	0x3d3ce65f	0.046118136
133	0x39399b8a	0.00017700918
134	0xbc92a51b	-0.017900994
135	0xbce7adb4	-0.02828107
136	0xbc146a25	-0.00905851
137	0xbb431d8e	-0.0029772255
138	0x3b77fd6e	0.0037840265
139	0xbbfe3349	-0.0077575785
140	0xbbd7de3a	-0.006587771
141	0x3c860efc	0.016364567
142	0xbc27d793	-0.010244268
143	0xbcc898c9	-0.024486916
144	0x3a41ce23	0.00073930825
145	0x3c579638	0.013158374
146	0x3c9dcc7e	0.019262549
147	0xba7a82ca	-0.0009556232
148	0x3cd962a0	0.026536286
149	0xbc2e6803	-0.0106449155
150	0xbcd204f7	-0.025637133
151	0xbc7da38e	-0.015480889
152	0x3cdcc6ca	0.026950259
153	0xbcda3b1c	-0.026639514
154	0xbcf06577	-0.029345257
155	0xbcaac447	-0.020845545
156	0x3bedfb4c	0.007262623
157	0xbc17c861	-0.009264083
158	0x3d0a0a9c	0.033701524
159	0x3cee4196	0.029084008
160	0xbb7d1c90	-0.003862176
161	0x3cf543ac	0.029939495
162	0x39425e35	0.00018536377
163	0x3c8f2326	0.017472815
164	0xbbde40d9	-0.006782633
165	0x3d1bd70b	0.038046878
166	0xbab5ff5d	-0.0013885308
167	0xba8486e6	-0.0010111004
168	0x3c4fe658	0.012689196
169	0x3be2efb2	0.0069255466
170	0xbc235266	-0.009968376
171	0x3cce6291	0.025193485
172	0xbcbe55df	-0.023234306
173	0x3d0f4d8d	0.034986068
174	0x3ca61a65	0.020276258
175	0xbd467c35	-0.048458297
176	0xbc8f3027	-0.017479016
177	0xbd8f5cb5	-0.07000104
178	0xbbb70493	-0.005585262
179	0x3cc538b2	0.024074886
180	0x3b779d46	0.0037782951
181	0xbd36aa1e	-0.04459583
182	0xbc655087	-0.01399625
183	0x3c0c75a1	0.008572967
184	0xbb9cf385	-0.004789772
185	0x3b410712	0.0029453677
186	0xbd82a0e1	-0.063783415
187	0xbcdacd1c	-0.026709132
188	0xbc8496df	-0.016185222
189	0xbd8ef2b0	-0.06979883
190	0xbbe305a2	-0.0069281617
191	0x3cb67cb5	0.022276262
192	0x3d134d2b	0.035962265
193	0x3ce63d12	0.028105292
194	0x3bb92353	0.005649963
195	0x3bf9b1ab	0.0076200566
196	0x3cd7c2c6	0.026337992
197	0x3c975dc8	0.018477336
198	0x3d1d42d2	0.038393803
199	0x3c86d2c3	0.01645792
200	0x3bdf9391	0.006823011
201	0x3dbfa6ae	0.093579635
202	0x3cf51fd0	0.029922396
203	0x3c950795	0.018192092
204	0x3cd70538	0.026247606
205	0x3cdb306a	0.026756484
206	0x3ceb45df	0.02871984
207	0x3bd244e2	0.006416903
208	0x3d11f7c5	0.035636682
209	0x3ccccc5d	0.024999792
210	0x3cf73fa9	0.030181723
211	0x3b431366	0.00297662
212	0x3d374a6c	0.04474871
213	0x3c91bbe5	0.01778979
214	0x3d23a3da	0.039951183
215	0x3d76643d	0.06015419
216	0x3bf9a561	0.0076185917
217	0x3ce7f966	0.028317165
218	0x3d13613f	0.035981413
219	0x3d848f02	0.06472589
220	0x3d0c40a7	0.034241345
221	0x3d0a1cc1	0.033718828
222	0x3d77a3a6	0.0604588
223	0x3ceed91f	0.029156266
224	0x3d06da8a	0.03292326
225	0x3b198816	0.002342706
226	0x3c909625	0.01764972
227	0x3b3870d2	0.0028143418
228	0x3d055f85	0.032561798
229	0x3d8589f6	0.065204546
230	0x3d13bfcd	0.036071587
231	0x3cd4a5ad	0.025957907
232	0x3c84caaa	0.016209919
233	0x3cb6aad2	0.02229825
234	0x3cbe931e	0.02326351
235	0x3d31ccfa	0.04340837
236	0x3d484d11	0.04890162
237	0x3cddd9b3	0.027081346
238	0x3ba14b1e	0.0049222847
239	0x3c34400a	0.011001596
240	0x3bb8e210	0.005642183
241	0x3d41d6d6	0.047324024
242	0x3d0c72bb	0.034289103
243	0x3d0f46d8	0.03497967
244	0x3cbd44c4	0.023104079
245	0x3cd08edd	0.025458748
246	0x3beed2e4	0.0072883237
247	0x3d1cb9b7	0.03826305
248	0x3b5e3aba	0.0033909515
249	0x3ca2b5d2	0.01986209
250	0x3d32f343	0.043689024
251	0x3cafd593	0.021464145
252	0x3b96089f	0.0045786644
253	0x3cb7cb2a	0.022435743
254	0x3cdb1848	0.026744977
255	0x3be09173	0.0068532764
