073123/0811_experiment_2_eli_tanh.pth (torch, 645259 bytes, 40 tensors)

lstm.lstm1.weight_ih_l0 f4 [256, 12]
0.0006579965 0.0015432705 -0.0050902655 0.02556079 0.0018580322 0.03370384 0.032346 -0.013681986
0.007767787 -0.0005037226 0.0069722794 0.0022834921 0.0022404892 0.00510504 -0.007949507 0.00014718335
0.0014424167 0.0039735776 0.00028714855 0.0068610315 0.0021133847 0.0011668019 0.0013063553 -0.0010906921
0.014837182 0.009969883 0.003903909 -0.021226937 0.0031617288 0.020513993 0.0062009636 0.030592546
0.030487444 0.0042747715 0.010568593 -0.016444823 -0.0014555189 0.0022620286 -0.003216903 -0.00025463672
0.0031383964 -0.007303523 -0.00031522612 0.006705671 -0.00033512834 -0.014842046 0.00037418405 -0.0068984493
0.020528525 -0.024719486 0.01733686 0.002233981 -0.0013620304 -0.0062542106 0.007226356 0.013571661
-0.0119083235 0.0032998654 -0.010952292 0.0030397072 -0.009547966 0.006729417 0.0037620284 0.00511398
0.00046848902 -0.0022472949 0.008140168 -0.0049909065 -0.00062623597 0.0013291505 0.0029689802 -0.0021163109
-0.010403672 0.0035648702 -0.00018191156 -0.009256614 -0.0019992474 -0.00846305 -0.0063851117 -0.002902289
-0.0027685037 -0.010251442 -0.0070553226 0.0076310486 0.0025905191 -0.007825019 0.007461445 0.0072777844
0.0025193538 0.01401593 0.00013037531 -0.001351248 -0.008677475 0.00024357479 0.0016230026 0.0118542565
-0.04357564 0.03420385 -0.014893735 0.029578447 0.0004685127 -0.03083487 -0.030061522 0.01714665
-0.021868847 0.0026383237 -0.018374385 0.012098716 0.0056833816 -0.004096544 0.00019274418 -0.005414907
0.0010122098 -0.0032098917 -0.0005537406 -0.0074637346 0.0030951812 -0.0022177876 0.00035589215 -0.0044308323
-0.0003246395 0.0026488483 0.0074546025 0.012813802 0.00095930166 -0.03351149 -0.04209838 0.0030446416
-0.047991734 -0.014174051 -0.015421476 -0.00069874164 0.019586787 0.009600825 0.010559348 0.023633948
0.011009123 0.016456394 -0.014860252 0.042746685 -0.006584345 0.038539156 -0.0012756722 0.013594692
-0.012570485 -0.016406646 0.009639475 -0.014081561 -0.0015377699 6.9530965e-05 0.0032112063 -0.023707217
0.007113672 0.016364645 -0.0064290916 -0.002932684 0.011297555 0.0065385955 0.00012671607 0.0020336828
-0.004985007 0.0025504418 0.0075330404 0.0014438624 0.010933251 -0.0049820486 0.0013006397 -0.003279143
-0.02825965 0.013649655 -0.023241598 0.0007992719 0.0013583238 0.0025851356 0.0055392245 -0.0111414185
0.0064109243 -0.021538457 -0.002825392 -0.011206707 0.0069588977 0.0038679852 -0.022828821 0.0072159693
-0.0026238933 0.00013078409 0.0074631684 -0.004740947 -0.032082018 0.033854604 0.0045562177 0.00071080116
0.003066459 -0.004580073 -0.011490104 0.0024529651 0.0003505913 -0.005717159 -0.001870784 0.0054382375
-0.011557633 -0.0017222472 0.0021382982 -0.0005090593 -0.045573015 -0.021668507 0.005380157 0.007882196
-0.0006562704 -0.0039414023 0.034245785 -0.008234679 0.036139455 -0.03530052 -0.0049563823 0.009635251
0.0039635827 -0.002207549 -0.007018915 0.0027250324 0.0029906898 -0.0052665183 0.002320511 0.0063257567
0.0110565275 0.010240014 0.0030779927 0.0015927532 0.009476844 0.004503474 0.0032166778 0.0029138252
0.0002495088 0.014755958 0.008374376 -0.0046535237 0.0079704365 0.013987006 -0.016130617 -0.0065754997
-0.03141047 -0.019014927 -0.006009562 -0.016980283 -0.0012465605 0.0006281089 0.005993774 0.01091588
-0.010020545 0.008095401 -0.0078047095 -0.00022877603 0.0011784974 -0.0030186344 -0.0020911214 -0.0027132444
00000000: 667d 2c3a 9147 ca3a 3ecc a6bb dd64 d13c
00000010: 3789 f33a 0a0d 0a3d 3d7d 043d 692a 60bc
00000020: ec88 fe3b 400c 04ba b877 e43b a4a6 153b
00000030: 2cd5 123b 2e48 a73b a63e 02bc 3b55 1a39
00000040: 790f bd3a c934 823b 6d8c 9639 81d2 e03b
00000050: b680 0a3b 60ef 983a 033a ab3a 8ef5 8eba
00000060: a717 733c b858 233c b9d8 7f3b 1de4 adbc
00000070: 0235 4f3b f60c a83c 7431 cb3b 389d fa3c
00000080: cec0 f93c 6213 8c3b e427 2d3c 4bb7 86bc
00000090: 1cc7 beba 8b3e 143b add2 52bb c380 85b9
000000a0: 8ead 4d3b 6452 efbb ef44 a5b9 3fbb db3b
000000b0: 2ab4 afb9 0e2c 73bc 222e c439 630c e2bb
000000c0: 702b a83c 8580 cabc 0806 8e3c fb67 123b
000000d0: 2886 b2ba 1ff0 ccbb 11cb ec3b ac5b 5e3c
000000e0: 211b 43bc 8e42 583b 3e71 33bc d335 473b
000000f0: 126f 1cbc 7182 dc3b 5d8c 763b 2c93 a73b
00000100: 889f f539 5a47 13bb 575e 053c c28a a3bb
00000110: fc29 24ba e436 ae3a 3993 423b ceb1 0abb
00000120: 2a74 2abc 99a0 693b 83bf 3eb9 0ea9 17bc
00000130: ce05 03bb 9ba8 0abc 333a d1bb 5434 3ebb
00000140: c96f 35bb aaf5 27bc 5630 e7bb e00d fa3b
00000150: b3c5 293b 8234 00bc 237f f43b 7b7a ee3b
00000160: be1b 253b 12a3 653c 5bb5 0839 5c1c b1ba
00000170: f82b 0ebc 1c68 7f39 eeba d43a 5b38 423c
00000180: 5f7c 32bd 5619 0c3d da04 74bc 804e f23c
00000190: b6a2 f539 6999 fcbc 9543 f6bc 2277 8c3c
000001a0: 4c26 b3bc bae7 2c3b e185 96bc b139 463c
000001b0: a93b ba3b 4d3c 86bb 5f1b 4a39 886f b1bb
000001c0: 20ac 843a 0c5d 52bb e728 11ba 5892 f4bb
000001d0: 86d8 4a3b 4d58 11bb 0997 ba39 8430 91bb
000001e0: 6034 aab9 4d98 2d3b bd45 f43b fbf0 513c
000001f0: a579 7b3a 5843 09bd 5a6f 2cbd 9c88 473b
00000200: fb92 44bd 473a 68bc 5caa 7cbc c22b 37ba
00000210: 7874 a03c c74c 1d3c 1e01 2d3c fb9b c13c
00000220: 9c5f 343c 8fcf 863c 6a78 73bc 2617 2f3d
00000230: 7dc1 d7bb 3cdb 1d3d 7534 a7ba 45bc 5e3c
00000240: 6ff4 4dbc 3b67 86bc e3ee 1d3c 59b6 66bc
00000250: ff8e c9ba 27d1 9138 1a73 523b a335 c2bc
00000260: ce19 e93b 260f 863c 21ab d2bb 4632 40bb
00000270: 6119 393c b741 d63b 16df 0439 8947 053b
00000280: 4559 a3bb 5025 273b b9d7 f63b fc3f bd3a
00000290: 6121 333c 7440 a3bb 3a7a aa3a e4e6 56bb
000002a0: c880 e7bc cda2 5f3c 2a65 bebc 3b86 513a
000002b0: c909 b23a 616b 293b 6282 b53b 7f8a 36bc
000002c0: bb12 d23b 6b71 b0bc 362a 39bb 569c 37bc
000002d0: 7707 e43b 067e 7d3b 8203 bbbc f073 ec3b
000002e0: a0f5 2bbb 1623 0939 988d f43b f259 9bbb
000002f0: 6f68 03bd 20ab 0a3d 534c 953b 0f55 3a3a
00000300: a5f6 483b 7014 96bb fd40 3cbc edc1 203b
00000310: 91cf b739 0157 bbbb 1835 f5ba 3e33 b23b
00000320: 3a5c 3dbc 07bd e1ba b122 0c3b 6472 05ba
00000330: c5aa 3abd 2782 b1bc 074c b03b 5424 013c
00000340: 9009 2cba e126 81bb 4f45 0c3d bfea 06bc
00000350: f706 143d 4797 10bd 2669 a2bb 2cdd 1d3c
00000360: f1e0 813b 87ac 10bb edfe e5bb 7596 323b
00000370: 73ff 433b c292 acbb b713 183b 4b48 cf3b
00000380: 7026 353c bbc5 273c 26b8 493b eec3 d03a
00000390: c444 1b3c e191 933b e6ce 523b e0f5 3e3b
000003a0: 81d0 8239 f9c2 713c ae34 093c 967c 98bb
000003b0: 6f96 023c c129 653c 5b24 84bc 4a77 d7bb
000003c0: 44a8 00bd 31c5 9bbc dceb c4bb 3c1a 8bbc
000003d0: a163 a3ba ada7 243a 6c67 c43b 85d8 323c
000003e0: 362d 24bc 93a2 043c a6be ffbb 99e3 6fb9
000003f0: d077 9a3a 48d4 45bb 320b 09bb b0d0 31bb

lstm.lstm1.weight_hh_l0 f4 [256, 64]
0.00029111654 0.00042908077 -5.4923246e-05 -0.00017776094 0.00023882184 -1.1953668e-05 -0.0011560816 0.00032435032
0.00056174945 -0.0002131048 0.00069066003 0.00032201485 0.0019743918 0.00017967065 0.000612682 0.0008349353
0.00016252944 -0.00037428772 0.00056312827 0.001119033 -0.00043835674 0.00026202295 -0.0012567682 -1.5176343e-05
0.0003864149 -0.0005012879 -0.0002773749 -0.00037468114 -0.00013273401 0.0006654341 -0.0008309017 -0.00022909218
0.0003102845 0.00065502996 -0.00010356649 0.00062424765 -0.0009138165 -9.7256176e-05 -2.0887475e-05 -0.0003228691
0.0013190747 0.0014037895 0.00204584 0.0022370429 0.00027066946 0.0016480427 -0.00021838483 0.0009956994
0.0008099641 0.00047842078 -0.00068952836 -1.935434e-06 0.00047079555 0.00058473425 -0.00060513936 -2.1149786e-05
-0.00033936067 -0.0005449891 0.0008482284 0.00015901656 -0.00017941742 -0.00030667483 0.00042820477 -0.0005619632
-0.00024940143 -0.00011303887 0.0004690522 -0.00028334372 -0.00049306604 0.0004012388 -0.0002749143 -3.1555714e-06
-8.883256e-05 0.00016265326 0.00042804558 0.0004890424 0.00030099635 0.0003139091 -9.5655254e-05 0.00021594513
0.00011019159 -0.00030773345 0.00037625633 0.00029637583 -0.00024075503 -0.00034662866 -0.00026411167 -0.00034446086
-0.00021430534 -9.42272e-05 -0.00031633643 7.924833e-06 -1.2834665e-05 0.00024664353 -0.00012910788 0.00013559395
0.0004574945 0.00013855172 -0.00032234137 9.957678e-05 -0.0001994161 0.00024105897 -0.0005729439 -0.00025317998
0.00038876265 0.0004814242 0.0005450749 0.0003932069 5.7678182e-05 0.0003248953 7.650705e-05 0.00016627387
8.27984e-05 -0.00023940402 -7.821355e-05 -2.676793e-05 -2.4297033e-06 5.1510437e-05 -0.00010155774 0.00032278534
-0.00020290467 -0.000659118 0.000326199 0.00025161266 5.8405127e-05 0.00049317285 -0.00050544966 -0.00069627515
0.00037571622 0.0002361179 -0.00029286984 0.000281777 -0.00035820043 4.938439e-05 0.0007385581 -0.0006845828
0.00026100175 -0.00014410102 -0.00019544984 0.0005371194 -0.0002957527 0.00014435725 -0.0010527115 -0.00019549087
0.0005879744 0.0006152773 0.00084180204 -0.0007566872 0.0003970145 0.00032916633 0.00057277654 0.00047941657
0.0010121355 0.000100685254 2.2371558e-05 0.00041180468 0.0005538599 -0.00073997816 0.0004172578 -0.00048901496
0.00017109494 -0.0012105855 -0.00032404752 0.00015079761 0.00052767026 1.4507142e-05 0.0008064038 0.0012191599
-0.0006474971 -0.0005816683 -0.000109964116 -0.00095227076 -0.0009373521 0.00029117067 -0.00052401616 -0.0012212987
0.00032482893 -0.00058646133 0.00033446358 2.9939076e-05 0.00043410258 0.0007925057 0.000115513896 -8.31603e-06
-0.0001574467 -0.00051631813 -2.2844522e-05 -0.0003338985 -0.0005325676 -0.00033634753 0.000843996 -0.00047463275
0.0006915332 0.00094160903 -0.00018894911 -0.00041853276 6.424924e-05 -0.00046466084 -0.00042995543 0.00016054267
0.0008417811 -0.0009103626 0.0004597372 0.0013590511 0.00080158835 0.00034001668 0.000108278335 0.00046894024
0.00014125193 -0.00010439999 0.00093740626 2.0720786e-06 -0.00026454887 0.00013468596 -0.00066574285 0.0006317927
0.0008006218 -0.00020401155 -0.00013762157 -0.0003934745 0.00038800016 0.00046320082 -0.00044367294 -8.082573e-05
0.001049213 -0.00011611665 -0.00012316415 0.0005071852 -0.0002991304 -0.00034095033 0.0008055691 0.00068313046
0.00063637295 0.00036164952 0.0007546254 0.0003315367 -0.00032089307 0.0009127239 -0.00060926034 3.8813065e-05
0.00056316785 -6.0855746e-05 -0.00025102246 0.000466159 -0.00017498016 0.0005862292 -0.00023143651 -0.00044237458
-0.00024029441 -0.00095788174 0.0005070863 0.0005353753 3.158126e-05 -0.00030266406 0.00090027374 -0.000634984
00000000: 00a1 9839 3ff6 e039 635d 66b8 5765 3ab9
00000010: 406c 7a39 9d8c 48b7 a987 97ba 900d aa39
00000020: 5e42 133a e274 5fb9 690d 353a 1ad4 a839
00000030: cc64 013b f965 3c39 659c 203a 8fdf 5a3a
00000040: aa6c 2a39 0c3c c4b9 e69e 133a 84ac 923a
00000050: 3fd3 e5b9 2060 8939 25ba a4ba e69d 7eb7
00000060: bb97 ca39 dd68 03ba a16c 91b9 da70 c4b9
00000070: 842e 0bb9 8770 2e3a dfd0 59ba 7738 70b9
00000080: aead a239 51b6 2b3a d631 d9b8 8da4 233a
00000090: 308d 6fba 03f6 cbb8 8337 afb7 c246 a9b9
000000a0: cde4 ac3a 5cff b73a 8013 063b 5a9b 123b
000000b0: a4e8 8d39 2303 d83a 3bfe 64b9 2182 823a
000000c0: c553 543a 8dd4 fa39 77c1 34ba 81e2 01b6
000000d0: 1cd5 f639 da48 193a 37a2 1eba d26a b1b7
000000e0: 38ec b1b9 99dd 0eba a55b 5e3a afbd 2639
000000f0: ff21 3cb9 33c9 a0b9 ac80 e039 b650 13ba
00000100: 18c2 82b9 480f edb8 1feb f539 c08d 94b9
00000110: 1a41 01ba 5c5d d239 5f22 90b9 4ec4 53b6
00000120: 9e4b bab8 e78d 2a39 4e6b e039 1433 003a
00000130: 0ccf 9d39 2b94 a439 869a c8b8 546f 6239
00000140: a916 e738 4957 a1b9 4544 c539 e462 9b39
00000150: 3073 7cb9 b6bb b5b9 7878 8ab9 c198 b4b9
00000160: 27b7 60b9 d89b c5b8 f5d9 a5b9 e6f4 0437
00000170: 7754 57b7 ef4f 8139 2261 07b9 392e 0e39
00000180: dfdb ef39 3248 1139 edff a8b9 e0d3 d038
00000190: 5a1a 51b9 c6c4 7c39 9d31 16ba 3ebd 84b9
000001a0: d7d2 cb39 aa67 fc39 5be3 0e3a 5627 ce39
000001b0: 7aeb 7138 b656 aa39 6972 a038 cd59 2e39
000001c0: 0da4 ad38 8708 7bb9 9406 a4b8 b18b e0b7
000001d0: fc0d 23b6 e90c 5838 66fb d4b8 843b a939
000001e0: cfc2 54b9 a9c8 2cba b005 ab39 e1ea 8339
000001f0: 07f8 7438 4548 013a 2780 04ba 3c86 36ba
00000200: c7fb c439 6b96 7739 538c 99b9 78bb 9339
00000210: d9cc bbb9 1622 4f38 cc9b 413a 9375 33ba
00000220: 10d7 8839 d319 17b9 abf1 4cb9 79cd 0c3a
00000230: 410f 9bb9 9b5e 1739 23fb 89ba aefc 4cb9
00000240: 4b22 1a3a 904a 213a 61ac 5c3a 6b5c 46ba
00000250: 6226 d039 f593 ac39 6226 163a 345a fb39
00000260: a2a9 843a fc26 d338 8eaa bb37 7de7 d739
00000270: e930 113a 18fb 41ba 65c3 da39 3d31 00ba
00000280: f367 3339 82ac 9eba ece4 a9b9 6d1f 1e39
00000290: 5a53 0a3a b363 7337 d864 533a 38cc 9f3a
000002a0: cbbc 29ba 197b 18ba 899c e6b8 cfa1 79ba
000002b0: a2b8 75ba 44a8 9839 215e 09ba fc13 a0ba
000002c0: cd4d aa39 c1bc 19ba f15a af39 ad25 fb37
000002d0: 4398 e339 28c0 4f3a 0d40 f238 1485 0bb7
000002e0: 4718 25b9 8659 07ba 3da2 bfb7 190f afb9
000002f0: 029c 0bba cd57 b0b9 9d3f 5d3a 21d8 f8b9
00000300: 0248 353a 50d6 763a a420 46b9 846e dbb9
00000310: 8cbd 8638 b99d f3b9 a46b e1b9 5857 2839
00000320: f9aa 5c3a 66a5 6eba e208 f139 3022 b23a
00000330: af21 523a 4444 b239 7d13 e338 18dc f539
00000340: 071d 1439 51f1 dab8 45bc 753a 0a0e 0b36
00000350: 26b3 8ab9 7d3a 0d39 3f85 2eba e49e 253a
00000360: d2e0 513a efeb 55b9 824e 10b9 414b ceb9
00000370: 806c cb39 c3d9 f239 c69c e8b9 fc80 a9b8
00000380: bf85 893a a783 f3b8 a025 01b9 9ff4 043a
00000390: 9ad4 9cb9 94c1 b2b9 d42c 533a 1c14 333a
000003a0: 44d2 263a c79b bd39 0ed2 453a 1ad2 ad39
000003b0: 8a3d a8b9 dd43 6f3a c5b6 1fba 36cb 2238
000003c0: 8ea1 133a 5c3f 7fb8 aa9b 83b9 cd66 f439
000003d0: e17a 37b9 2dad 193a c4ad 72b9 83ee e7b9
000003e0: 8af7 7bb9 5b1a 7bba fced 043a 6e58 0c3a
000003f0: 1f76 0438 e2ae 9eb9 5900 6c3a 0e75 26ba

lstm.lstm1.bias_ih_l0 f4 [256]
-0.03158481 0.014926602 0.003155081 -0.0044104992 0.009810266 0.023804793 0.01536251 -0.019863473
-0.014943466 0.0075829537 -0.008570426 0.022737464 0.015020373 0.0034729284 0.03801398 0.033777814
-0.018279042 -0.029092979 -0.01172732 0.027019108 0.0012042435 -0.0048895814 -0.03230389 0.02082238
0.0121408785 -0.00028171946 -0.008514498 -0.0058098915 -0.004074961 -0.037666924 0.030809209 0.011006328
-0.0045166276 -0.045169055 0.0039787386 0.0035802766 -0.0011468523 0.018309835 0.013572543 0.00937819
-0.014254595 0.01820312 0.0072865156 -0.026891436 -0.079576105 0.033359278 0.0033891827 -0.024266636
-0.0030804453 -0.05193124 -0.03030609 -0.026683813 0.012274267 -0.00726943 0.0014294388 0.0006705212
0.010950669 0.025328863 -0.0032776298 -0.033628818 0.029474746 0.0029167952 0.02034167 0.028146511
-0.0137170665 -0.0039177374 -0.015601556 -0.018057778 -0.017972289 -0.010670529 -0.006477587 -0.01356908
0.001323984 -0.0046316455 0.01105226 -0.018923886 -0.02733233 -0.01597699 -0.0030773 -0.024092196
-0.013242918 -0.023498675 -0.00806643 0.003439765 -0.023914834 -0.00715202 -0.022981387 -0.029682169
0.004363731 -0.024870822 -0.003986093 -0.005919422 0.00388568 0.053927086 0.03733068 -0.015856007
-0.0061392714 -0.022307182 -0.0069731106 0.0044734124 -0.018707097 0.018315667 -0.0047692424 0.005335239
-0.0038104006 -0.029508406 0.005611315 -0.016581317 0.05993116 0.009557841 0.0037132525 -0.0023351416
-0.038834024 0.037819706 -0.0139185 -0.012794865 0.016075097 0.0071265823 -0.0072054374 -0.027254095
-0.019263025 -0.008928757 0.01890707 -0.03742464 0.023660088 -0.0005448521 -0.0026298205 -0.029060815
-0.092823446 0.058713567 0.037237633 0.008172998 0.11349721 0.008381674 -0.054570444 0.07379658
0.055512667 -0.045144867 0.069635175 0.044920985 0.09474085 0.047463477 -0.046107426 0.046169806
0.06435074 -0.09709816 -0.004429491 0.11381371 -0.115215264 0.025818871 -0.05287719 0.0162992
-0.095450304 -0.08756274 -0.038306635 -0.028355174 -0.07819178 0.049140424 0.075396635 -0.059931863
0.09499203 0.04662853 -0.035567515 0.10102043 -0.042871013 -0.088920474 0.009848519 0.051079046
0.045394957 0.012596144 0.09165885 0.058592938 -0.079927854 -0.045443445 0.07368533 0.09236628
0.03282019 0.0028251875 0.026650827 -0.0016157414 -0.07236975 -0.1163498 -0.07507625 0.038796466
-0.05902912 -0.04694467 -0.013526104 0.069688626 0.045095593 -0.09609699 0.05720841 -0.034072164
-0.018769033 -0.0075524077 0.0073597142 0.0030499934 0.025755864 -0.022008887 0.003515101 0.009495872
0.014653526 0.015109856 -0.009500542 0.043285534 -0.0050625736 0.018159572 -0.04466256 0.022199364
-0.008549519 0.02411936 -0.005373244 -0.0035925494 -0.019721018 -0.008560432 0.005058029 -0.0050908085
0.012335194 0.011259415 -0.0026594088 -0.008134411 0.0033793433 -0.032199405 0.054870617 -0.010916536
-0.007535216 -0.0017982918 0.0031906753 -0.008174293 0.009353052 0.007881737 -0.014790222 0.0053102113
0.015306385 -0.04043096 -0.0052652485 0.027076691 -0.029418956 0.00021825115 0.00399419 -0.029595882
0.014202713 0.04067922 -0.03448866 -0.025203533 -0.0038494857 0.0018154725 -0.006602345 -0.041252214
-0.030387089 -0.014624444 -0.056688033 0.0040280726 0.02536951 0.0044966666 0.023254337 0.0032519286
00000000: 135f 01bd b58e 743c 7ac5 4e3b f385 90bb
00000010: 3dbb 203c 4502 c33c 0ab3 7b3c b9b8 a2bc
00000020: 70d5 74bc 6d7a f83b f96a 0cbc eb43 ba3c
00000030: 0318 763c 129a 633b 8cb4 1b3d 9b5a 0a3d
00000040: eebd 95bc 6654 eebc f223 40bc 2d57 dd3c
00000050: b5d7 9d3a c838 a0bb 1551 04bd b293 aa3c
00000060: 89ea 463c bfb3 93b9 6580 0bbc e760 bebb
00000070: 4087 85bb a248 1abd 9863 fc3c e353 343c
00000080: 3800 94bb 3003 39bd 1460 823b 13a3 6a3b
00000090: fa51 96ba 82fe 953c 5f5f 5e3c fba6 193c
000000a0: 1b8c 69bc b61e 953c b9c3 ee3b 6e4b dcbc
000000b0: ccf8 a2bd bda3 083d 0d1d 5e3b d3ca c6bc
000000c0: 4ce1 49bb dab5 54bd 7a44 f8bc 0398 dabc
000000d0: 021a 493c 6634 eebb 025c bb3a ebc5 2f3a
000000e0: 6f6a 333c 7a7e cf3c 81cd 56bb 5fbe 09bd
000000f0: 0675 f13c b427 3f3b 93a3 a63c 8393 e63c
00000100: 8cbd 60bc 5d60 80bb ab9d 7fbc e8ed 93bc
00000110: 9f3a 93bc 71d3 2ebc f041 d4bb d950 5ebc
00000120: 8889 ad3a 0fc5 97bb 8a14 353c 4406 9bbc
00000130: 0de8 dfbc 2de2 82bc 87ac 49bb ff5c c5bc
00000140: d3f8 58bc 4b80 c0bc 0f29 04bc ae6d 613b
00000150: 0be9 c3bc 7e5b eabb 7643 bcbc 0528 f3bc
00000160: a1fd 8e3b e5bd cbbc c69d 82bb b6f7 c1bb
00000170: e5a6 7e3b a6e2 5c3d 0ee8 183d 75e4 81bc
00000180: f12b c9bb 8dbd b6bc b17e e4bb b495 923b
00000190: a03f 99bc bd0a 963c 4e47 9cbb 3bd3 ae3b
000001a0: eab7 79bb 9dbb f1bc 1fdf b73b 8bd5 87bc
000001b0: 607a 753d 7e98 1c3c 0a5a 733b 2d09 19bb
000001c0: 6d10 1fbd d6e8 1a3d 6c0a 64bc 8ea1 51bc
000001d0: ecaf 833c 1b86 e93b 971b ecbb fb43 dfbc
000001e0: 7ecd 9dbc ec49 12bc 00e3 9a3c 944a 19bd
000001f0: cdd2 c13c 68d4 0eba 1159 2cbb f210 eebc
00000200: 381a bebd a37d 703d 7d86 183d 0ae8 053c
00000210: 3a71 e83d 4a53 093c 4285 5fbd a922 973d
00000220: 4061 633d d3e9 38bd e39c 8e3d 11ff 373d
00000230: 7e07 c23d 1069 423d 24db 3cbd 8d1c 3d3d
00000240: 52ca 833d 66db c6bd 4325 91bb 2a17 e93d
00000250: fbf5 ebbd 1982 d33c c195 58bd e685 853c
00000260: 737b c3bd 1854 b3bd 6be7 1cbd 1c49 e8bc
00000270: 0323 a0bd 7847 493d 8d69 9a3d 1d7b 75bd
00000280: 2e8b c23d 8ffd 3e3d 3eaf 11bd cde3 ce3d
00000290: 8499 2fbd f01b b6bd af5b 213c 4338 513d
000002a0: 10f0 393d 0f60 4e3c a3b7 bb3d 26ff 6f3d
000002b0: 37b1 a3bd e822 3abd 56e8 963d 882a bd3d
000002c0: 776e 063d c826 393b d652 da3c 49c7 d3ba
000002d0: 9736 94bd ce48 eebd 94c1 99bd 0be9 1e3d
000002e0: 85c8 71bd 0e49 40bd 989c 5dbc e9b8 8e3d
000002f0: 28b6 383d 80ce c4bd 5e53 6a3d 418f 0bbd
00000300: 84c1 99bc 307a f7bb c229 f13b 66e2 473b
00000310: f6fd d23c fb4b b4bc 9c5d 663b 9394 1b3c
00000320: 5815 703c 548f 773c 29a8 1bbc 2c4c 313d
00000330: f2e3 a5bb 62c3 943c 17f0 36bd 71db b53c
00000340: 4813 0cbc f795 c53c 0a12 b0bb fa70 6bbb
00000350: f98d a1bc 0e41 0cbc d3bd a53b ccd0 a6bb
00000360: 8e19 4a3c 6979 383c 7a49 2ebb 3146 05bc
00000370: f977 5d3b 86e3 03bd 03c0 603d 45db 32bc
00000380: f9e9 f6bb a9b4 ebba a61a 513b 78ed 05bc
00000390: 8b3d 193c 6722 013c b052 72bc 4801 ae3b
000003a0: a2c7 7a3c ef9a 25bd 1b88 acbb f0cf dd3c
000003b0: 0600 f1bc 59da 6439 b2e1 823b 1073 f2bc
000003c0: 7fb2 683c 419f 263d fb43 0dbd a477 cebc
000003d0: a747 7cbb 26f5 ed3a 7c58 d8bb 15f8 28bd
000003e0: 58ee f8bc 5d9b 6fbc b631 68bd ecfd 833b
000003f0: b8d3 cf3c c658 933b e17f be3c 4f1e 553b

lstm.lstm1.bias_hh_l0 f4 [256]
0.020259269 -0.00073682657 0.0055169626 -0.009547699 -0.025435079 0.025530713 -0.012358524 -0.017023545
-0.029535262 -0.023484195 -0.00203327 0.0046706754 0.010309916 0.006828415 -0.045323946 -0.023514435
0.013491815 -0.0022102178 0.011375859 0.025810182 0.0063866437 -0.013595169 -0.03921401 0.01095244
0.010958424 -0.0004651812 0.0014434969 -0.01765788 -0.01763769 0.02031285 -0.030164035 -0.020144373
-0.00706622 -0.039479215 0.002746439 0.018639555 0.020825954 -0.019863823 0.013839386 0.008411875
-0.008458385 0.012566079 0.0033935036 -0.015944326 -0.056923695 -0.031254783 -0.0005995043 -0.043351833
-0.024605772 0.010244695 -0.006783984 -0.011175216 0.0066209016 -0.0023418819 0.009416455 -0.029267196
-0.010193351 -0.013873706 0.001545355 -0.048458796 -0.030828672 0.0006616141 0.02499072 -0.007055522
-0.034698248 -0.014611633 -0.006245942 0.00519339 -0.0012113482 -0.010836515 -0.0048293234 -0.025504075
-0.0040031844 -0.010357303 -0.025047328 -0.064209625 0.013856003 0.0090202065 -0.025097156 -0.0025711758
0.0029383611 0.006004852 -0.0057981927 -0.006044373 -0.010644145 -0.0066994084 0.015934167 -0.016269276
0.0041250437 -0.0212614 -0.0074282195 0.0025701637 -0.024286611 -0.05079786 -0.06700996 -0.004259307
-0.017492523 0.0014213901 -0.0055793393 -0.00043049277 -0.0018966522 -0.0057343594 -0.01713212 0.0064328196
0.009128128 0.014678513 0.0021485116 0.009565254 0.06571401 -0.0012575525 -2.041565e-05 -0.034455355
0.013314571 0.024831336 -0.016679907 -0.01573498 -0.00478098 -0.0023089377 0.0021173004 -0.018297184
-0.019052694 0.0332765 0.021215731 -0.016110048 -0.02148461 -0.00010399123 0.0118947765 -0.037621956
0.08163207 0.008249309 -0.07056419 -0.06883952 -0.11873971 -0.0061531523 -0.07725164 -0.023662265
0.028372757 -0.083854266 0.09697545 0.102306806 0.08766884 0.064406514 0.09293008 -0.04926148
0.004063403 0.08151675 0.050537366 0.06034491 0.008357602 0.09979471 -0.06850655 -0.030982856
0.0313211 0.038257305 -0.02943088 -0.0721997 -0.051879898 0.080524445 -0.07134423 0.10340799
0.039995 0.0794863 0.09632286 0.0003288362 -0.06856997 -0.09021085 0.0054040463 0.09210423
0.024294162 0.056199584 0.07037063 0.029004859 0.0025435914 0.10048467 -0.09552182 0.0496885
-0.043128397 -0.029441033 0.028310828 0.06172949 -0.05316221 0.09522857 0.05045032 0.013429902
0.095741704 -0.064810276 -0.0017788648 0.025654811 -0.06881173 0.026189977 0.019844726 -0.033314843
0.04739559 -0.003648716 -0.04362023 0.01591731 -0.021861589 -0.026054157 0.008187878 -0.0041718516
-0.032537375 0.013523079 -0.028439984 -0.005466744 -0.006868351 -0.00416928 0.03769788 0.034849778
-0.0037046622 0.041765414 0.0070684412 -0.029973192 -0.017035216 -0.013488697 0.017221259 0.021884853
0.013337 -0.0076133986 0.013761444 -0.0016575127 -0.00094560283 0.0043335557 -0.0679789 0.00072347827
-0.015560278 0.04709292 0.0012165897 0.007443388 0.0075800717 -0.021598507 -2.7354099e-05 0.004550061
0.014239396 0.005243155 0.0047671855 0.036667194 -0.003693792 -0.0101918 0.00563372 -0.001216415
0.02463002 0.007819307 0.0142668625 -0.031074377 -0.016648173 0.0034533162 -0.0013142228 0.023908608
0.0068519185 0.0045756525 0.03811885 -0.026802747 -0.0001454637 0.005250897 -0.0008222025 0.022113841
00000000: c4f6 a53c 9827 41ba a3c7 b43b f46d 1cbc
00000010: 3a5d d0bc c925 d13c 687b 4abc f674 8bbc
00000020: eff3 f1bc ed61 c0bc 9c40 05bb 770c 993b
00000030: ecea 283c e6c0 df3b 9aa5 39bd 58a1 c0bc
00000040: c60c 5d3c 4dd9 10bb d061 3a3c e06f d33c
00000050: 0d47 d13b 46be 5ebc df9e 20bd dd71 333c
00000060: f68a 333c 90e3 f3b9 b833 bd3a 42a7 90bc
00000070: eb7c 90bc 2267 a63c 911a f7bc d005 a5bc
00000080: c08b e7bb f5b4 21bd 9afd 333b fbb1 983c
00000090: 319b aa3c 75b9 a2bc 98be 623c f6d1 093c
000000a0: 0a95 0abc f5e1 4d3c 8b65 5e3b ad9d 82bc
000000b0: d228 69bd 0405 00bd 0d28 1dba b191 31bd
000000c0: 0b92 c9bc 5dd9 273c 2f4c debb 4118 37bc
000000d0: 26f4 d83b 427a 19bb 7a47 1a3c c2c1 efbc
000000e0: 0302 27bc 8a4e 63bc 828d ca3a bb7c 46bd
000000f0: 698c fcbc 2c70 2d3a 57b9 cc3c 0232 e7bb
00000100: c01f 0ebd a165 6fbc c2aa ccbb 502d aa3b
00000110: 1ac6 9eba a38b 31bc 4d3f 9ebb eced d0bc
00000120: 252d 83bb adb1 29bc 0e30 cdbc 5680 83bd
00000130: 4a04 633c 7dc9 133c 8d98 cdbc 2c81 28bb
00000140: 8591 403b 59c4 c43b c4fe bdbb e00f c6bb
00000150: c864 2ebc b686 dbbb 5f88 823c 2547 85bc
00000160: 602b 873b 632c aebc 6c68 f3bb 3170 283b
00000170: b7f4 c6bc 6b11 50bd 853c 89bd a891 8bbb
00000180: 7b4c 8fbc f04d ba3a e4d2 b6bb c3b3 e1b9
00000190: 1699 f8ba 4be7 bbbb a958 8cbc 67ca d23b
000001a0: 258e 153c 257e 703c 0bce 0c3b 95b7 1c3c
000001b0: 1195 863d 76d4 a4ba 4642 abb7 0f21 0dbd
000001c0: 5c25 5a3c 166b cb3c 4da4 88bc a5e6 80bc
000001d0: c4a9 9cbb 8c51 17bb 68c2 0a3b fae3 95bc
000001e0: 6514 9cbc f04c 083d 9dcc ad3c 38f9 83bc
000001f0: 7e00 b0bc de15 dab8 4fe2 423c 7b19 1abd
00000200: b72e a73d 1c28 073c f583 90bd bcfb 8cbd
00000210: ce2d f3bd 62a0 c9bb 1c36 9ebd 5ed7 c1bc
00000220: fc6d e83c c9bb abbd 119b c63d 3b86 d13d
00000230: b98b b33d 90e7 833d 2052 be3d 68c6 49bd
00000240: 4b26 853b 41f2 a63d 4500 4f3d 392c 773d
00000250: 53ee 083c 2b61 cc3d 294d 8cbd c2cf fdbc
00000260: 8e4a 003d b1b3 1c3d 0719 f1bc 70dd 93bd
00000270: 0480 54bd 00ea a43d ec1c 92bd 91c7 d33d
00000280: ccd1 233d b7c9 a23d eb44 c53d a667 ac39
00000290: 6a6e 8cbd 77c0 b8bd 6d14 b13b 24a1 bc3d
000002a0: 8d04 c73c 8931 663d 7a1e 903d 999b ed3c
000002b0: 62b2 263b e8ca cd3d f2a0 c3bd 2b86 4b3d
000002c0: 67a7 30bd 522e f1bc 1cec e73c 10d8 7c3d
000002d0: 9ec0 59bd 3207 c33d ffa4 4e3d 1709 5c3c
000002e0: 3a14 c43d 40bb 84bd cc28 e9ba 0a2a d23c
000002f0: 2aed 8cbd 5d8c d63c 6891 a23c 2575 08bd
00000300: e121 423d 4c1f 6fbb 20ab 32bd 0565 823c
00000310: 1317 b3bc 876f d5bc 7326 063c 07b4 88bb
00000320: e945 05bd e88f 5d3c f8fa e8bc 5f22 b3bb
00000330: e70f e1bb 759e 88bb 1869 1a3d a4be 0e3d
00000340: ebc9 72bb 3612 2b3d 629e e73b 578a f5bc
00000350: 708d 8bbc b2ff 5cbc 9913 8d3c dd47 b33c
00000360: 6f83 5a3c d179 f9bb ae77 613c e640 d9ba
00000370: 55e2 77ba 8000 8e3b 8638 8bbd cea7 3d3a
00000380: 89f0 7ebc 81e4 403d fa75 9f3a aae7 f33b
00000390: 4062 f83b 5aef b0bc 7b76 e5b7 ae18 953b
000003a0: 5b4c 693c c6ce ab3b 0d36 9c3b 5730 163d
000003b0: 8c13 72bb 82fb 26bc 129b b83b 1d70 9fba
000003c0: e5c4 c93c 8d1c 003c 8fbf 693c b18f febc
000003d0: c061 88bc 0851 623b 0042 acba fcdb c33c
000003e0: 0f86 e03b 5bef 953b 8322 1c3d 6f91 dbbc
000003f0: 9d87 18b9 b70f ac3b 1389 57ba 1628 b53c

lstm.bn1.weight f4 [7]
0.38360262 0.4607495 0.534357 0.60327363 0.67055416 0.748163 0.85115093
00000000: 9067 c43e 5ce7 eb3e 9fcb 083f 2470 1a3f
00000010: 70a9 2b3f 9c87 3f3f 07e5 593f

lstm.bn1.bias f4 [7]
0.00022258279 0.00019284003 -0.0002971735 -0.0014058417 -0.0016767477 5.1847346e-05 0.0038970255
00000000: 1d65 6939 1a35 4a39 f4cd 9bb9 3844 b8ba
00000010: 51c6 dbba aa76 5938 3d65 7f3b

lstm.bn1.running_mean f4 [7]
0.0059035365 0.009133592 0.010876816 0.011810439 0.012306439 0.012567668 0.012703886
00000000: 7472 c13b 10a5 153c ac34 323c 9280 413c
00000010: f2a0 493c 9fe8 4d3c f623 503c

lstm.bn1.running_var f4 [7]
0.0011543559 0.002505385 0.0033430387 0.0037965837 0.0040304507 0.0041484856 0.0042074956
00000000: c24d 973a 6331 243b e216 5b3b 1bd0 783b
00000010: df11 843b 05f0 873b 08df 893b

lstm.lstm2.weight_ih_l0 f4 [256, 64]
0.0066208593 0.0027923035 -0.0070587546 -0.0035953233 0.0040116627 -0.004164305 -0.008905682 0.0011523118
-0.00080070505 -0.013089195 0.008536069 0.007857733 0.007319691 -0.00078249787 0.00038563288 -0.008249719
-0.005778306 -0.0028443872 0.002003969 0.005300051 0.0009454368 -0.0027066546 0.002875652 0.0021501854
0.004113848 -0.011240709 -0.0025127428 -0.005157043 0.00038499176 -0.003549765 0.00090428244 -0.0009923946
0.0032508455 0.015588427 -0.0014075051 -0.003098854 0.010172478 -0.009467892 -0.0012201879 0.0055506215
-0.00019568413 0.019825954 0.011813055 -0.006964768 -0.006260617 0.005625125 0.0013997981 -0.009722776
-0.005571398 -0.003963876 0.0078017414 0.0021178366 -0.0072267195 0.001919946 -0.004654259 -0.004380019
0.00017764328 -0.0066639353 -0.006883629 0.005096631 -0.00022784692 -0.0038335759 0.00038810278 -0.0037522172
0.0011492196 -0.001712709 0.0012176855 -0.0062066545 -0.0007330489 0.0002891449 0.00067737594 -0.0016095389
0.0073089777 -0.011345247 0.006249235 -0.0008083577 0.008183645 0.0011525861 0.0016476582 0.014660161
0.0007357972 0.013212149 0.0010240438 -0.008955944 0.00473971 0.00067162805 -0.007232417 0.0020976516
-0.0014401263 -0.005460851 0.001504993 0.0042336653 0.00056227355 -0.00069243094 0.0007752032 0.0008547321
-0.0010262127 0.008619618 -0.0008403268 -0.002072911 0.015712075 0.0012672915 6.613668e-05 -0.0023520598
-0.010169164 -0.011346109 -0.0012927477 0.0095150275 -0.0012376568 0.017195862 0.00010988379 -0.0097250305
-9.399688e-05 -0.0015569392 0.008511868 -0.0007243523 0.005690314 0.0014865238 -0.0022951888 -0.003196063
0.0025420312 -0.0022696888 0.0039247 -0.0028395485 0.0036044403 -0.00079101423 -0.0011460884 0.011241026
0.007654337 0.0003001344 -0.013124382 -0.013855012 0.006983169 -0.0138919065 -0.012668933 0.012494078
0.012422811 -0.022685546 0.0053193383 0.0010734603 0.029634358 0.00069647876 0.012845979 0.02562557
-0.011706721 -0.032793097 0.0028715485 -0.006945193 0.015422541 -0.0012716395 -0.01865832 0.002834571
-0.0035100698 -0.0003839091 -0.013757078 -0.0012209137 -0.0075744553 0.023709416 -0.027473021 -0.0028361494
-0.00396058 0.036861002 -0.0023321789 -0.0029506271 -0.011279152 -0.011428871 -0.006534718 -0.007299844
-0.012769097 0.037831567 0.014864785 -0.001934061 0.0047559426 0.03936478 -0.0027872326 -0.017083889
0.0028344013 -0.00015741556 -0.022051169 -0.0034913367 -0.0033582286 0.005026487 -0.01301276 -0.011381938
0.0012993289 -0.0068511902 0.010954048 0.011639141 0.010970675 -0.010777789 -0.002094413 -0.010116635
5.441817e-06 -0.0112647815 -0.0016934267 -0.00026772305 -0.003889499 0.009128368 0.010281232 -0.011928365
-0.001873337 -0.0068618944 -0.010359779 0.008198787 0.0038536673 0.0014891379 -0.014388 0.016477529
-0.008452623 0.020415543 0.012598765 0.006813654 0.01838724 0.0074234135 -0.006169235 0.017353225
0.008709065 -0.00052788726 -0.0075875614 0.009718263 0.025324622 -0.010342081 0.024497861 -0.00902011
-0.0012897586 -0.011164332 -0.004025343 0.0033668445 0.026157454 0.005206182 0.0061093797 0.0006895448
-0.0211093 0.01899646 0.010649568 -0.017529273 -0.009272969 -0.01806866 0.0093300445 -0.005584538
-0.0023802915 -0.018699726 0.0018431941 0.004347583 0.0020336441 -0.007799268 0.008515339 -0.0024333254
0.0052369563 0.011897973 -0.01520633 -0.005985934 0.0016240862 -0.0015410514 0.014099266 0.0048092315
00000000: cbf3 d83b 14ff 363b 204d e7bb 849f 6bbb
00000010: 4474 833b b974 88bb 23e9 11bc 2b09 973a
00000020: 68e6 51ba 1074 56bc deda 0b3c b9bd 003c
00000030: 05da ef3b 8b20 4dba c52e ca39 d429 07bc
00000040: f257 bdbb e668 3abb 0555 033b 0dac ad3b
00000050: 31d7 773a 2162 31bb 6f75 3c3b 20ea 0c3b
00000060: 75cd 863b f32a 38bc d4ac 24bb 6afc a8bb
00000070: b8d8 c939 2da3 68bb 5e0d 6d3a 3d13 82ba
00000080: 230c 553b 9a66 7f3c 097c b8ba 2516 4bbb
00000090: 77aa 263c 381f 1bbc b6ee 9fba fde1 b53b
000000a0: 8f30 4db9 0a6a a23c 8b8b 413c b538 e4bb
000000b0: dd25 cdbb f852 b83b 6e79 b73a 474c 1fbc
000000c0: 4690 b6bb 67e3 81bb c0a5 ff3b 67cb 0a3b
000000d0: 1ece ecbb b3a6 fb3a c182 98bb 4386 8fbb
000000e0: c145 3a39 245d dabb 1190 e1bb a401 a73b
000000f0: 31ea 6eb9 bb3c 7bbb 467a cb39 c2e7 75bb
00000100: 69a1 963a fa7c e0ba bf9a 9f3a 3161 cbbb
00000110: 142a 40ba 5f98 9739 ee91 313a 2af7 d2ba
00000120: 2680 ef3b 6ae1 39bc 62c6 cc3b f8e7 53ba
00000130: b214 063c 5f12 973a 3cf6 d73a 2c31 703c
00000140: 84e2 403a c577 583c 3539 863a f4bb 12bc
00000150: 924f 9b3b 3210 303a e9fd ecbb c178 093b
00000160: 9fc2 bcba f0f0 b2bb 2f43 c53a 8fba 8a3b
00000170: 8a65 133a 4184 35ba 0237 4b3a 1a10 603a
00000180: fc81 86ba 4c39 0d3c 6049 5cba add9 07bb
00000190: 9cb6 803c 3f1b a63a dcb2 8a38 0425 1abb
000001a0: 919c 26bc 08e5 39bc 6a71 a9ba ebe4 1b3c
000001b0: df38 a2ba 56de 8c3c 6971 e638 bc55 1fbc
000001c0: 3120 c5b8 3612 ccba 5d75 0b3c 76e2 3dba
000001d0: d075 ba3b 76d7 c23a e16a 16bb 0a75 51bb
000001e0: 3598 263b 0fbf 14bb c59a 803b b817 3abb
000001f0: 7938 6c3b 115c 4fba 5838 96ba 482c 383c
00000200: 3cd1 fa3b 5b5b 9d39 a607 57bc 2200 63bc
00000210: 11d3 e43b e19a 63bc 5b91 4fbc f6b3 4c3c
00000220: 0c89 4b3c 0ad7 b9bc d84d ae3b 5ab3 8c3a
00000230: c1c3 f23c e693 363a f177 523c b7ec d13c
00000240: 8ccd 3fbc 0e52 06bd 9730 3c3b 8094 e3bb
00000250: d3ae 7c3c 24ad a6ba 55d9 98bc 36c4 393b
00000260: 3309 66bb 6847 c9b9 5e65 61bc 1107 a0ba
00000270: 2333 f8bb 403a c23c 1a0f e1bc b1de 39bb
00000280: c1c7 81bb 90fb 163d 78d7 18bb 4f5f 41bb
00000290: 31cc 38bc 2940 3bbc 3021 d6bb 8833 efbb
000002a0: 7a35 51bc 46f5 1a3d 6d8b 733c 5180 fdba
000002b0: bdd7 9b3b f73c 213d 01aa 36bb 83f3 8bbc
000002c0: 5dc1 393b eb0f 25b9 a7a4 b4bc e9ce 64bb
000002d0: ba15 5cbb 3bb5 a43b 7933 55bc 4f7b 3abc
000002e0: 3e4e aa3a f37f e0bb 9b78 333c 18b2 3e3c
000002f0: 59be 333c 5395 30bc 6b42 09bb 3ec0 25bc
00000300: da98 b636 eb8f 38bc f9f5 ddba 2e5d 8cb9
00000310: f7e6 7ebb 278f 153c 9d72 283c 306f 43bc
00000320: c28a f5ba bed9 e0bb 10bc 29bc 3554 063c
00000330: cf8d 7c3b 2d2f c33a a5bb 6bbc e2fb 863c
00000340: df7c 0abc 7f3e a73c 0d6b 4e3c 1345 df3b
00000350: d6a0 963c 1b40 f33b 4b27 cabb 5a28 8e3c
00000360: 77b0 0e3c ea61 0aba 14a1 f8bb 5939 1f3c
00000370: 9575 cf3c d571 29bc bdaf c83c 15c9 13bc
00000380: 1e0d a9ba 9aea 36bc 06e7 83bb 47a6 5c3b
00000390: 2848 d63c 9f98 aa3b 3131 c83b 91c2 343a
000003a0: 69ed acbc 779e 9b3c 877b 2e3c 8d99 8fbc
000003b0: a7ed 17bc ba04 94bc 0bdd 183c 80fe b6bb
000003c0: aafe 1bbb 2b30 99bc 5597 f13a 2b76 8e3b
000003d0: e346 053b 0091 ffbb ec83 0b3c 6d78 1fbb
000003e0: c69a ab3b b7ef 423c f923 79bc a725 c4bb
000003f0: 4adf d43a 1bfd c9ba 9c00 673c c296 9d3b

lstm.lstm2.weight_hh_l0 f4 [256, 64]
-0.0011443656 -6.647627e-05 -0.0013080662 -0.00018521557 -0.0008935958 5.6099023e-05 -0.0009976979 -0.0010142692
-0.0010344407 0.00042154282 0.0006351953 -0.00040529386 0.00024963732 0.00075399515 0.00058108335 0.00056710356
-0.00030303554 -0.0003923992 0.00043160157 8.850872e-05 -0.00040949168 -0.00044529972 -0.0008454717 -0.00017340983
0.00038405732 -0.0009806565 -0.00096918346 -1.9458997e-05 -0.0005098776 -0.00016493487 -0.0010902677 0.0005388285
-0.0005829802 -6.830424e-05 0.0011055524 0.0005642147 -0.0013486083 -0.0010483885 -0.0011044139 -0.0012371517
0.00021747198 0.0007854011 0.00029454098 0.0012159523 -0.0009242833 0.00016383859 0.00012645352 0.0007778659
-0.00070630055 -2.4933603e-05 -0.00048637576 0.00031112132 -0.0009829343 -0.00086318044 -0.0010248924 0.0004457475
0.00039003335 9.9299796e-05 5.1725037e-05 -0.00082089374 -0.0006660628 -0.001096754 -0.00073987595 0.00023616599
3.7176012e-06 -0.00018067543 -0.00023102602 -0.00083014916 -0.00012827117 -0.00017311421 0.00012848982 -0.00013397653
-0.00021962021 -0.0001387565 -0.00012784818 -8.2572755e-05 -0.00027291462 0.00050143263 -0.00024384627 -9.452412e-05
0.00015598952 -0.000109624016 0.00044745966 0.00019189988 3.2031363e-05 -0.00016071604 -0.0006709769 0.00013927817
-5.2274856e-05 0.00010004404 -0.0002330423 8.469349e-05 0.00015502314 2.8788307e-05 8.6354485e-06 0.0001820559
6.3140156e-05 0.00028196676 0.0002443165 -0.0003824794 -0.00023285853 7.0652786e-05 -0.00021199087 -0.00011000946
-4.5143406e-05 -6.9453316e-05 0.00021003296 2.806918e-05 -0.0003060831 -0.000323011 0.00023247408 -0.00017623747
-0.00024983604 -5.239868e-05 0.00041208885 0.00026650567 5.0048086e-05 -0.00013389373 0.0001493956 -0.00014701964
-0.0005580444 -0.00031764153 0.00018215056 -0.00017860327 -0.00012687463 -0.00047812233 -0.00022266584 6.991722e-05
-0.0013264894 -0.00043102473 0.00051204365 -0.0017839497 -0.0013360097 0.00019282944 -0.00096022245 -0.0010252182
-0.0018352737 -8.189846e-05 0.00065882795 -0.0010705735 -0.00043376978 0.0008941022 0.0001861854 0.0005233148
-2.1301088e-05 -0.00023839725 0.0014852964 -0.000116751624 0.00013459961 0.0002806102 -0.00016027222 -0.0001457792
-0.00047671376 -0.00020380314 0.00022078899 -3.491025e-05 -0.00029939623 0.00049457955 -0.0013490188 -0.00036326717
-0.00071582396 0.0007937385 0.0017082068 0.00040413957 -0.0003778115 -0.0010885672 -0.0014846856 -0.001247393
0.0004200326 0.0010505654 -0.00036631472 0.00024210312 -0.0012039891 1.936836e-05 0.000110191126 0.00051824015
-0.0010663836 5.2434312e-05 7.340024e-05 0.00026927 -0.00036351624 -0.00066723657 -0.00042685276 0.00090957514
-9.972125e-05 0.000921324 -0.0008349828 -0.00041786226 -0.0007814232 -0.00217862 -0.00067187264 -0.00019932247
0.0019788262 -0.0006159581 -0.0031539234 0.00071731146 -0.00042017057 -0.0013696748 0.0013672254 0.001777713
0.0021924325 -0.0017671299 -0.0015029395 -0.0010574387 -0.0020730267 0.0013795956 -0.00054520887 -0.0015003186
0.00053886505 -0.0028332835 -0.0007802444 -0.001214076 -0.0008996182 -0.0014557657 -0.004013134 -2.0306506e-05
-0.0020135986 0.0016318263 -0.0029514448 0.000225115 0.0025136631 -0.0003603734 0.0025201985 -0.00062770717
0.0014793028 0.0005360101 -0.0004259154 0.0024030781 -0.005029584 0.0022671262 0.0018651709 0.0015452505
-0.0010321082 -0.0020487674 0.0014223424 2.6416505e-05 0.0002748175 -0.00144856 0.0015165583 -0.00029147955
0.00075932563 0.000590452 0.0027508663 0.0013182384 0.0007457935 0.0006962167 -6.840861e-05 -0.0018341994
-0.00018505503 -0.0030793382 0.0026051512 -0.0025395788 -0.0024811288 -0.0008985906 5.8824877e-05 -0.00013794392
00000000: 8afe 95ba 2d69 8bb8 6b73 abba 6d36 42b9
00000010: 3340 6aba de4b 6b38 30c5 82ba 3af1 84ba
00000020: 1296 87ba 8502 dd39 3c83 263a 9f7d d4b9
00000030: c1e1 8239 c2a7 453a d853 183a ada9 143a
00000040: bee0 9eb9 eeba cdb9 9548 e239 c29d b938
00000050: 0bb1 d6b9 1e77 e9b9 a5a2 5dba 59d5 35b9
00000060: 4d5b c939 5f89 80ba cd10 7eba e13b a3b7
00000070: 4ea9 05ba 5ef2 2cb9 50e7 8eba 2b40 0d3a
00000080: 24d3 18ba 8f3e 8fb8 2fe8 903a cfe7 133a
00000090: c9c3 b0ba 156a 89ba fbc1 90ba ec27 a2ba
000000a0: 3109 6439 60e3 4d3a 9f6c 9a39 9760 9f3a
000000b0: 9a4b 72ba 16cc 2b39 9c98 0439 b2e9 4b3a
000000c0: 0727 39ba 8128 d1b7 4000 ffb9 ff1d a339
000000d0: cdd5 80ba 0f47 62ba af55 86ba 37b3 e939
000000e0: 647d cc39 2c3f d038 56f3 5838 3f31 57ba
000000f0: b89a 2eba f5c0 8fba 3cf4 41ba 53a3 7739
00000100: e77b 7936 b173 3db9 933f 72b9 5e9e 59ba
00000110: 8880 06b9 fe85 35b9 39bb 0639 0d7c 0cb9
00000120: da49 66b9 2a7f 11b9 fc0e 06b9 e92a adb8
00000130: fb15 8fb9 9372 033a fcb0 7fb9 403b c6b8
00000140: 1e91 2339 f2e5 e5b8 0599 ea39 bb38 4939
00000150: 6a59 0638 e285 28b9 7fe4 2fba 330b 1239
00000160: b341 5bb8 bcce d138 d15c 74b9 799d b138
00000170: b58d 2239 6b7e f137 f8e0 1037 42e6 3e39
00000180: 1d6a 8438 f0d4 9339 9b17 8039 8487 c8b9
00000190: 7c2b 74b9 6d2b 9438 de49 5eb9 e1b4 e6b8
000001a0: 5d58 3db8 77a7 91b8 4b3c 5c39 1b76 eb37
000001b0: c779 a0b9 cd59 a9b9 49c4 7339 63cc 38b9
000001c0: 6dfc 82b9 a7c6 5bb8 a10d d839 c9b9 8b39
000001d0: b9ea 5138 d365 0cb9 13a7 1c39 4929 1ab9
000001e0: ba49 12ba 2089 a6b9 abff 3e39 7347 3bb9
000001f0: a609 05b9 7eac fab9 687b 69b9 86a0 9238
00000200: 99dd adba 29fb e1b9 ab3a 063a 6bd3 e9ba
00000210: 0c1d afba 4232 4a39 70b7 7bba 9d60 86ba
00000220: 918d f0ba e7c0 abb8 32b5 2c3a 7c52 8cba
00000230: 986b e3b9 2f62 6a3a c33a 4339 102f 093a
00000240: bdaf b2b7 46fa 79b9 47ae c23a 8dd8 f4b8
00000250: 4f23 0d39 dd1e 9339 bf0e 28b9 4edc 18b9
00000260: 70ef f9b9 fdb3 55b9 9883 6739 986c 12b8
00000270: 48f8 9cb9 aca6 013a 8fd1 b0ba e574 beb9
00000280: 22a6 3bba e412 503a e9e5 df3a b2e2 d339
00000290: 0015 c6b9 41ae 8eba c899 c2ba 907f a3ba
000002a0: d237 dc39 20b3 893a ee0d c0b9 10dd 7d39
000002b0: 2ccf 9dba 3d79 a237 6916 e738 82da 073a
000002c0: e5c5 8bba eaec 5b38 74ee 9938 cf2c 8d39
000002d0: 5396 beb9 7de9 2eba 35cb dfb9 8e70 6e3a
000002e0: 7021 d1b8 0285 713a bfe2 5aba 8614 dbb9
000002f0: 6cd8 4cba 2ec7 0ebb 9c20 30ba 3801 51b9
00000300: 32af 013b 4078 21ba 0eb2 4ebb f509 3c3a
00000310: 574a dcb9 a986 b3ba 7934 b33a 2602 e93a
00000320: eaae 0f3b 0a9f e7ba 48fe c4ba c199 8aba
00000330: 9edb 07bb 8cd3 b43a 59ec 0eba 57a6 c4ba
00000340: 9f42 0d3a 9cae 39bb 5189 4cba a121 9fba
00000350: 5bd4 6bba 64cf beba 9c80 83bb e457 aab7
00000360: 94f6 03bb 01e3 d53a 076d 41bb d90c 6c39
00000370: 45bc 243b 80f0 bcb9 ea29 253b b78c 24ba
00000380: 2ae5 c13a 0783 0c3a 664d dfb9 f67c 1d3b
00000390: 35cf a4bb 1194 143b c078 f43a 018a ca3a
000003a0: ce47 87ba 9d44 06bb e46d ba3a 0399 dd37
000003b0: 6115 9039 9cdd bdba 41c7 c63a b9d1 98b9
000003c0: 7b0d 473a 90c8 1a3a e147 343b bec8 ac3a
000003d0: 5b81 433a 5082 363a 9876 8fb8 8569 f0ba
000003e0: 550b 42b9 b9ce 49bb 2fbb 2a3b 106f 26bb
000003f0: 6f9a 22bb 658f 6bba bbba 7638 0aa5 10b9

lstm.lstm2.bias_ih_l0 f4 [256]
0.00045502314 0.021487672 0.012379539 0.023491524 -0.00020040908 0.008907418 0.0004363381 -0.014954654
0.002741448 0.0014454585 0.0018963378 0.006595897 -0.0042707524 0.01103222 -0.0023265472 0.013893669
-0.004942006 -0.007260047 -0.005747559 0.004859031 -0.002275096 0.0069664735 0.033918317 -0.00038260422
-0.0062181735 0.021952484 0.012829655 0.001453785 0.0070763347 0.0053162407 0.0030526256 -0.0026153133
-0.016657207 -0.018089356 -0.031052085 0.0019782493 0.029566 -0.0028933052 -0.018189643 -0.004483679
-0.007942814 -0.001576969 -0.006215195 -0.015436977 -0.017772991 0.00055179815 -0.0036040333 -0.008758844
-0.0023011125 0.015003473 0.021175994 -0.004715164 0.0031240017 0.00070042047 0.0055392734 0.004903433
0.00577893 -0.01697264 0.0069011194 0.0066457354 0.016391605 0.016458752 -0.0010532645 0.003654045
0.0065598963 -0.0031695333 0.002184278 -0.021337448 -0.005859526 -0.007373741 0.013437426 -0.016021486
-0.0047283694 0.0011219826 -0.007950561 -0.0027527814 -0.0015637929 -0.00078878 -7.374404e-05 -0.0029091341
-0.0046158982 -0.0011633497 -0.0024837027 0.00014588353 0.00055900775 -0.004490755 -0.011521937 -0.003531847
-0.014146968 -0.030558074 0.009178745 0.004030264 -0.011997409 -0.010760615 -0.0056669293 -0.0005533726
-0.006609744 0.002101726 -0.014373641 0.010953329 0.0047945958 0.0028755865 -0.0076806527 0.0032881272
-0.006002497 -0.0030701987 -0.015064069 -0.029231843 -0.027397996 -0.0016504282 -0.0191637 -0.014299929
-0.0011967276 0.009283833 -0.01933215 -0.0020904124 0.004668254 -0.0013386013 -0.008538236 -0.0032501183
-0.002836383 -0.0047564325 -0.00028116486 0.00064330344 -0.014609236 -0.01413654 -0.010752047 -0.0049553383
-0.047510616 0.086050294 -0.0137942415 0.017445212 -0.026260855 0.014263115 -0.05132623 -0.014789478
-0.0010005403 -0.0022389905 0.041655786 -0.07370462 -0.014412742 -0.07962 -0.027127696 -0.014124323
-0.002422815 0.06593932 -0.036067493 0.06350158 -0.026030088 0.023586014 0.09895704 -0.03557681
-0.03505625 -0.10641946 0.07151602 -0.01318519 -0.10590495 -0.007057774 -0.05567139 -0.008616713
-0.034761045 -0.017791701 -0.072332956 -0.02191117 -0.03151104 -0.031489734 0.0026173047 0.019760916
-0.045742955 -0.032524694 -0.09562417 0.106352955 0.034158874 0.04950649 0.017383855 -0.0132256225
0.0506269 0.06360719 0.051310517 0.03308285 -0.07760004 0.022949094 -0.0023424595 -0.023584284
0.076786116 0.09586777 -0.049003784 -0.052473087 0.016351447 0.041057378 0.037110113 -0.06656578
0.009956864 0.0104158865 -0.01747683 0.0073584267 -0.0052061495 0.0022159868 -0.008595597 0.009330607
0.0070253666 0.00065636483 0.003754313 -0.001091857 0.010783899 -0.0026313432 -3.9535025e-05 -0.010881038
0.0028819179 0.005201614 -0.01304592 -0.005929729 0.00014171582 0.011893575 0.010144835 -0.0004382487
0.006695065 -0.019489694 0.0138295805 0.0024400575 0.0047123535 0.0054194834 0.020618105 -0.018936684
-0.010357952 -0.024877349 -0.025243202 0.008605461 0.021446781 -0.005335986 -0.024469776 0.018969616
-0.0021795868 0.0019345788 -0.0040567326 -0.018070824 -0.018397003 0.00033295146 -0.025310729 0.013953191
0.0010428984 0.007501218 0.0023942098 0.0100689875 0.0021527526 0.0014733358 0.0053856964 -0.0063671563
0.005369465 0.0048604147 0.0016841429 0.0058030803 0.010099831 0.014527223 0.008777098 -0.01233099
00000000: 2c90 ee39 ea06 b03c 8dd3 4a3c 4c71 c03c
00000010: e724 52b9 6bf0 113c 4fc4 e439 5d04 75bc
00000020: dea9 333b 8a75 bd3a 8a8e f83a 6522 d83b
00000030: abf1 8bbb 7cc0 343c fc78 18bb 45a2 633c
00000040: 8df0 a1bb b0e5 edbb 0556 bcbb 8238 9f3b
00000050: c719 15bb 0447 e43b efed 0a3d 4598 c8b9
00000060: d2c1 cbbb b2d5 b33c 7933 523c ee8c be3a
00000070: 99e0 e73b dc33 ae3b 8f0e 483b ad65 2bbb
00000080: b274 88bc 2130 94bc f160 febc 84a5 013b
00000090: 6534 f23c 9b9d 3dbb 7202 95bc d3eb 92bb
000000a0: 9422 02bc 4db2 ceba d6a8 cbbb 60eb 7cbc
000000b0: aa98 91bc 8ca6 103a a531 6cbb 4181 0fbc
000000c0: 43ce 16bb 20d1 753c 4779 ad3c aa81 9abb
000000d0: 0dbc 4c3b 6c9c 373a cb82 b53b faac a03b
000000e0: 2e5d bd3b 350a 8bbc c922 e23b 78c4 d93b
000000f0: b047 863c 81d4 863c b10d 8aba b478 6f3b
00000100: 66f4 d63b f2b7 4fbb 1b26 0f3b dfcb aebc
00000110: 4401 c0bb 6c9f f1bb a628 5c3c 7e3f 83bc
00000120: 70f0 9abb 7d0f 933a 1243 02bc 0268 34bb
00000130: 2ff8 ccba 21c6 4eba 08a7 9ab8 2ca7 3ebb
00000140: f640 97bb 8a7b 98ba 9ec5 22bb 50f8 1839
00000150: 608a 123a 2f27 93bb 82c6 3cbc 8f76 67bb
00000160: afc8 67bc ed54 fabc 7262 163c 4e10 843b
00000170: c890 44bc 4a4d 30bc a6b1 b9bb 3510 11ba
00000180: 8d96 d8bb 1cbd 093b 6c7f 6bbc 9775 333c
00000190: fc1b 9d3b 5674 3c3b fcad fbbb 9f7d 573b
000001a0: 98b0 c4bb 6335 49bb 49cf 76bc 9e77 efbc
000001b0: c371 e0bc 2e53 d8ba 31fd 9cbc 404a 6abc
000001c0: 84db 9cba 381b 183c 755e 9ebc 4dff 08bb
000001d0: 27f8 983b 0274 afba f5e3 0bbc f0ff 54bb
000001e0: 9ce2 39bb d9db 9bbb 4f69 93b9 5da3 283a
000001f0: 945b 6fbc f29c 67bc 5b29 30bc 6460 a2bb
00000200: 7e9a 42bd 233b b03d 3e01 62bc 43e9 8e3c
00000210: 0121 d7bc d7af 693c 743b 52bd 914f 72bc
00000220: 9024 83ba 07bc 12bb 429f 2a3d 73f2 96bd
00000230: 6c23 6cbc d00f a3bd e73a debc b469 67bc
00000240: 17c8 1ebb 320b 873d 82bb 13bd 1e0d 823d
00000250: 0d3d d5bc 7537 c13c fda9 ca3d fdb8 11bd
00000260: 2497 0fbd 72f2 d9bd fe76 923d b206 58bc
00000270: b2e4 d8bd e644 e7bb af07 64bd 1d2d 0dbc
00000280: 9961 0ebd e7bf 91bc 4d23 94bd 0e7f b3bc
00000290: b811 01bd 61fb 00bd 1687 2b3b a5e1 a13c
000002a0: f75c 3bbd 9d38 05bd 9bd6 c3bd 94cf d93d
000002b0: 2dea 0b3d 51c7 4a3d 9668 8e3c 48b0 58bc
000002c0: 275e 4f3d 7d44 823d fa2a 523d e281 073d
000002d0: c5ec 9ebd bdff bb3c f383 19bb d433 c1bc
000002e0: 0a42 9d3d 5256 c43d 31b8 48bd 05ee 56bd
000002f0: 78f3 853c c82b 283d c600 183d a453 88bd
00000300: 1d22 233c 65a7 2a3c 922b 8fbc f51e f13b
00000310: 5998 aabb 173a 113b 8cd4 0cbc 67df 183c
00000320: 0c35 e63b e60f 2c3a ec0a 763b a41c 8fba
00000330: f3ae 303c 9d72 2cbb 69d2 25b8 6246 32bc
00000340: 8fde 3c3b 4d72 aa3b 8ebe 55bc 2c4e c2bb
00000350: 8d99 1439 45dd 423c 8636 263c bfc4 e5b9
00000360: 4762 db3b daa8 9fbc 7795 623c 5fe9 1f3b
00000370: 166a 9a3b ec95 b13b 4de7 a83c 1b21 9bbc
00000380: 66b4 29bc 95cb cbbc d5ca cebc ebfd 0c3c
00000390: 29b1 af3c 7fd9 aebb d774 c8bc 2b66 9b3c
000003a0: 66d7 0ebb b191 fd3a 57ee 84bb 4409 94bc
000003b0: 50b5 96bc fd8f ae39 7258 cfbc ed9b 643c
000003c0: ddb1 883a c7cc f53b 2de8 1c3b 65f8 243c
000003d0: 3215 0d3b f21c c13a 7f7a b03b 94a3 d0bb
000003e0: 56f2 af3b 1d44 9f3b 75be dc3a c427 be3b
000003f0: c379 253c 9703 6e3c d1cd 0f3c ec07 4abc
