073123/0822_experiment_at_home.pth (torch, 453722 bytes, 34 tensors)

lstm.lstm1.weight_ih_l0 f4 [256, 12]
0	0x3d30afdd	0.043136466
1	0x3ba62ac9	0.0050710184
2	0xbd0257b1	-0.03182191
3	0xbc3abaab	-0.011397044
4	0x3a2398f0	0.0006240746
5	0x3b4152e9	0.0029498881
6	0xbb2d3b94	-0.0026433216
7	0xbbe3b2d4	-0.006948808
8	0xbc898765	-0.016788194
9	0xbb665635	-0.0035146598
10	0x3cd14ac4	0.025548346
11	0xbb002a36	-0.001955641
12	0x3c1e5913	0.009664792
13	0x38b6bbcf	8.713418e-05
14	0xbbbc9a28	-0.0057556815
15	0x3b66a0a1	0.0035190957
16	0xbaaf6d43	-0.0013384003
17	0xbc1d9766	-0.009618616
18	0xba85e89f	-0.0010216421
19	0xbbb2df33	-0.0054587363
20	0xbc711c49	-0.014716216
21	0xbb8661a3	-0.0041009947
22	0x3b732127	0.0037098618
23	0x3ae0f355	0.0017162362
24	0xbc666ac1	-0.014063538
25	0x3c138e1a	0.009006048
26	0xbc088491	-0.008332388
27	0xbcd6c69f	-0.026217757
28	0x3b6218e5	0.0034499702
29	0x3cf54cfd	0.029943937
30	0xbc7d2fc1	-0.01545328
31	0xbd198867	-0.0374836
32	0x3c017451	0.007901267
33	0x3b50ebd6	0.003187885
34	0x3b2bb55d	0.002620063
35	0x3c73f8bc	0.014890846
36	0xbb712521	-0.0036795812
37	0xbb14a117	-0.0022679025
38	0x3c812d87	0.01576878
39	0xbc7b90ca	-0.015354345
40	0xbab5a72a	-0.0013859023
41	0x3bebb148	0.0071927644
42	0xbc7e0043	-0.015502992
43	0xb998ea56	-0.00029166293
44	0xb89083cb	-6.8910034e-05
45	0xbb08debc	-0.0020884713
46	0xbc0725d2	-0.008248763
47	0x3c0335f2	0.008008467
48	0xbc43c28e	-0.011948241
49	0xbb03b26b	-0.002009536
50	0xbb65a47a	-0.0035040663
51	0xbbb427ba	-0.0054979
52	0xbb08ea69	-0.0020891672
53	0x3c9ccbfc	0.019140236
54	0xbccc0bfc	-0.024908058
55	0x3b17cfe9	0.0023164696
56	0xbca49519	-0.020090627
57	0xbc5ca460	-0.013466924
58	0x3c7379bd	0.014860568
59	0x3b808379	0.0039219228
60	0xbca41248	-0.020028248
61	0x3a83623c	0.0010023783
62	0x3d0cf936	0.034417354
63	0x3c2d8b57	0.010592303
64	0xbbe7b8e1	-0.0070716
65	0x3d118b04	0.035532966
66	0x3b71a783	0.0036873526
67	0x3c0a78c0	0.008451641
68	0x3cba9da3	0.022780245
69	0x3c8e388a	0.017360944
70	0xba9dbb24	-0.0012033922
71	0xbcc91340	-0.024545312
72	0x3d335f54	0.043792084
73	0xbb8341ac	-0.0040056314
74	0xbc58ff10	-0.013244405
75	0x3cc3eb75	0.023915986
76	0x3af79ed4	0.0018891939
77	0xbad9a839	-0.001660592
78	0xbb8bea21	-0.0042698537
79	0xbcf2fdab	-0.029661974
80	0x3c4221af	0.011848851
81	0x3c154df0	0.00911282
82	0x3bef3ade	0.0073007187
83	0xbc883b91	-0.016629966
84	0x3c882e78	0.01662372
85	0xbbfe3285	-0.0077574872
86	0x3bc5b7d7	0.0060338783
87	0x3c0868b2	0.008325743
88	0x3b97c3db	0.004631502
89	0x3c64c4a1	0.013962896
90	0xbd10d947	-0.03536346
91	0xbc86d406	-0.016458523
92	0xba530f0d	-0.0008051254
93	0x3bf6c4a6	0.0075307665
94	0xbb6e98c7	-0.003640698
95	0x3c9b5d6b	0.018965444
96	0x3c6fe53c	0.014642056
97	0xbc8599cd	-0.01630869
98	0xb9026de0	-0.00012438698
99	0x3d1d5514	0.038411215
100	0x3b4fa7a7	0.0031685622
101	0xbd3c29d7	-0.04593834
102	0x3c46da13	0.012136954
103	0x3d08753a	0.03331492
104	0xbcde1348	-0.027108803
105	0xbc7207d2	-0.014772372
106	0x3c2f6e4b	0.010707448
107	0xba579517	-0.0008223815
108	0xbc04b182	-0.008098962
109	0xbc6c4ed7	-0.014423094
110	0xbced03dd	-0.028932506
111	0x3ce7a7f9	0.028278338
112	0xbba5be53	-0.005058089
113	0xbcc80acf	-0.024419216
114	0x3d0fdb25	0.035121102
115	0x3d8f94a5	0.070107736
116	0x3d623b59	0.05523238
117	0x3d5fcfff	0.05464172
118	0x3cad5828	0.0211602
119	0xbd550943	-0.052010786
120	0x3c0648fa	0.00819611
121	0xbbefd7f0	-0.007319443
122	0xbaa027e3	-0.0012218918
123	0x3b2bec3c	0.0026233336
124	0x39867597	0.00025646083
125	0x3b042401	0.0020163062
126	0x3b9446a9	0.004525025
127	0x3c80b994	0.01571349
128	0x3c4b0c99	0.01239314
129	0x3c0e10ed	0.008671028
130	0x3aab1eb9	0.0013055421
131	0x3bf5a5b0	0.007496558
132	0xbc713615	-0.014722367
133	0xba999b29	-0.0011719215
134	0xbbec4a07	-0.007210973
135	0xbbbff9ec	-0.0058586504
136	0xba4c74ba	-0.0007799376
137	0x3b75bdc5	0.0037497145
138	0xb81b6fe4	-3.7059086e-05
139	0xbb542c54	-0.0032375054
140	0x3bc1bd83	0.005912484
141	0x39d4e831	0.00040608787
142	0xbb183c1c	-0.0023229187
143	0xba102da0	-0.0005499963
144	0x3d09ca75	0.033640344
145	0xbb45e4a5	-0.0030196097
146	0x3c8713b6	0.016488891
147	0xbcdd9f65	-0.027053544
148	0x3ab853c2	0.0014063048
149	0xbcce2f5d	-0.025169069
150	0x3d195150	0.03743106
151	0x3d303c5f	0.043026324
152	0x3d01db8f	0.031703528
153	0xba26ed72	-0.00063677796
154	0x3bda3038	0.00665858
155	0x3b211822	0.0024581035
156	0x3b82d25f	0.0039923633
157	0xbc065ab8	-0.00820034
158	0x3c8f7851	0.017513426
159	0x3c3fa665	0.011697386
160	0x3a917ecb	0.0011100409
161	0x3c01b7c4	0.007917348
162	0x3ca62b4f	0.020284323
163	0xbc953c80	-0.018217325
164	0xbaaff718	-0.001342508
165	0x3cebe305	0.028794775
166	0xbc13e4a2	-0.009026678
167	0xbb414fa3	-0.002949693
168	0xbc982339	-0.018571483
169	0x3d05415d	0.03253304
170	0xbc4142cb	-0.01179571
171	0xbb921341	-0.0044578617
172	0x3b1c6100	0.0023861527
173	0xbcbc4e47	-0.022986544
174	0xbd28f0d6	-0.041245304
175	0xbd037772	-0.032096334
176	0x3d07d223	0.033159386
177	0xbca367cc	-0.019946955
178	0xbc2f7fce	-0.010711623
179	0x3ba43c38	0.0050120614
180	0xbbe1b553	-0.0068880706
181	0xbabdf245	-0.0014491758
182	0x3a1422b4	0.0005650923
183	0xbb915c5a	-0.004436058
184	0xb8868745	-6.414814e-05
185	0x3b0d6261	0.002157353
186	0xbbb5ee86	-0.005552116
187	0x3aceb822	0.0015771429
188	0xbaad88fa	-0.0013239675
189	0xbafdf181	-0.0019374342
190	0xbb8d2e6c	-0.0043085124
191	0xba9cb197	-0.0011954781
192	0xb8ceccc1	-9.860984e-05
193	0x3b329b1c	0.0027253097
194	0xbac6bd8c	-0.001516269
195	0x3ad06311	0.0015898665
196	0x3904f04a	0.00012678016
197	0x3adbeb66	0.0016778528
198	0x3adeab5d	0.0016988326
199	0x3abff374	0.0014644698
200	0x3aa72e99	0.0012754976
201	0x3ae2e68a	0.0017311138
202	0x3a9ae565	0.0011817632
203	0x3a8dfb43	0.0010832328
204	0xbbe5761c	-0.007002605
205	0xbbaae2ec	-0.0052150395
206	0xbbb42fc5	-0.0054988586
207	0x3b2b8b05	0.0026175391
208	0xba8b4d65	-0.0010627924
209	0xbca3408f	-0.019928245
210	0x3c0d3d01	0.0086205015
211	0xbb724464	-0.0036967034
212	0x3b4899c9	0.0030609241
213	0xbb89717a	-0.0041944357
214	0xbb15ccd0	-0.0022857673
215	0xbb89c2ae	-0.004204116
216	0xbac18910	-0.0014765579
217	0xba7f865e	-0.00097475003
218	0x3bb71a24	0.005587833
219	0x3afb8252	0.0019188619
220	0x39b2288e	0.0003398102
221	0x3a6ebdc7	0.00091072585
222	0x3a3c7388	0.00071888464
223	0x397ad79f	0.00023922183
224	0xbab614b8	-0.0013891673
225	0x3afd3fc7	0.0019321375
226	0x3a50c53c	0.00079639605
227	0x39379450	0.0001750749
228	0xbc38832e	-0.011261744
229	0x3bba2d0e	0.0056816405
230	0x3c46e1e7	0.01213882
231	0x3a691f8e	0.00088929466
232	0xbaf31baf	-0.0018547679
233	0x3c88a957	0.01668231
234	0xbc09826b	-0.0083929105
235	0x3c75a8f5	0.014993896
236	0xbc888696	-0.016665738
237	0xbc2fd13a	-0.010731036
238	0xbb9e997b	-0.0048400736
239	0x3c2e194b	0.0106261475
240	0xbd04a0f0	-0.032380044
241	0xbb85cb30	-0.0040830597
242	0x3ba08e9d	0.0048998133
243	0x3c13fd29	0.009032526
244	0xb92fac66	-0.00016753524
245	0xbc81eeb0	-0.015860885
246	0xbbcaf7a8	-0.0061940737
247	0xbcb8f004	-0.022575386
248	0x3bf7e5c7	0.0075652334
249	0xbc8515f2	-0.016245816
250	0x3c0aa8c8	0.008463092
251	0xbc75de07	-0.015006549
252	0x3aa22507	0.0012370654
253	0xbc6a2260	-0.014290422
254	0xbc259e87	-0.010108597
255	0xbb37f85b	-0.0028071615

lstm.lstm1.weight_hh_l0 f4 [256, 64]
0	0xb908fa9e	-0.00013063333
1	0x3a1b01b6	0.0005913036
2	0x3a425cf4	0.0007414364
3	0xba50075a	-0.0007935666
4	0x3990c19a	0.00027610065
5	0xb98adf57	-0.00026487812
6	0xb98f546c	-0.00027337985
7	0x3891ee47	6.9585214e-05
8	0xb838dc64	-4.4074273e-05
9	0x389a1f74	7.349151e-05
10	0xb8f9fc8b	-0.00011920285
11	0x3a105d03	0.0005507024
12	0x38edac76	0.00011333164
13	0x3a42ef71	0.0007436192
14	0x39146ad0	0.0001415417
15	0x38c3f135	9.343253e-05
16	0x38f356d0	0.00011603313
17	0x3937ddfd	0.00017534937
18	0x39d8b56c	0.000413339
19	0xba23979f	-0.000624055
20	0xb9bf9a0f	-0.00036545141
21	0xb99ca392	-0.00029876508
22	0xba1ceaad	-0.0005985897
23	0xb8c5e6fa	-9.436715e-05
24	0x398d662b	0.00026969737
25	0xb91c4b85	-0.00014905453
26	0x39f3160b	0.00046364995
27	0x38e176ff	0.00010751001
28	0x3a58a096	0.0008263675
29	0xba35f756	-0.0006941458
30	0xb930b36c	-0.00016851508
31	0x396146be	0.00021484026
32	0xba2fc81f	-0.00067055406
33	0xb9ab21c5	-0.00032640822
34	0x37a329d9	1.9450601e-05
35	0x39adeeca	0.00033175043
36	0x38fa743f	0.000119425815
37	0xb9b13195	-0.00033797012
38	0xb7e483cf	-2.7241096e-05
39	0xb8a9c7ad	-8.0957405e-05
40	0x371b72c4	9.265441e-06
41	0x39d743ee	0.00041058607
42	0xba17dffe	-0.00057935703
43	0x38213022	3.843022e-05
44	0xb92a6fc3	-0.00016254098
45	0xb8abe901	-8.197316e-05
46	0x3978c1ef	0.00023723369
47	0xb992257f	-0.00027875227
48	0xb9b3390a	-0.00034184038
49	0x3a010126	0.00049211306
50	0xb9f24ff9	-0.0004621742
51	0xb92bfa67	-0.00016401113
52	0x39ecbb4e	0.0004515298
53	0xba058149	-0.00050928124
54	0xb8b184fd	-8.464789e-05
55	0xb8e7bcc1	-0.000110500965
56	0xb8e346bc	-0.00010837379
57	0x3982b8c3	0.0002493319
58	0xb8e6cdbe	-0.00011005577
59	0x3920ec54	0.00015346828
60	0xba02ec09	-0.00049942784
61	0xb9c94878	-0.000383917
62	0x39ef6d24	0.00045666948
63	0x3a0d95e5	0.0005401059
64	0xb860e2ed	-5.3617103e-05
65	0xb95c42ce	-0.00021005722
66	0xb9c124b3	-0.00036839172
67	0x39a6e09c	0.00031829334
68	0xba01ffe6	-0.00049590913
69	0xb92b2d34	-0.0001632467
70	0x390c106f	0.00013357562
71	0x38ba09f0	8.871022e-05
72	0x38b4b142	8.616086e-05
73	0xb9169d7c	-0.00014363782
74	0x381a554a	3.6795893e-05
75	0xb9cfc8dc	-0.0003963177
76	0xb99d2f8a	-0.00029980793
77	0xb91b9e1d	-0.00014840854
78	0xb8075c5b	-3.227252e-05
79	0xb986d55a	-0.0002571743
80	0x3903fb2a	0.000125867
81	0xb901296e	-0.00012317832
82	0xb8a55560	-7.8837154e-05
83	0x39f9c948	0.00047642947
84	0xb9b26f33	-0.00034033656
85	0xb8c82c7d	-9.54503e-05
86	0x399d7e35	0.00030039405
87	0x38c9bb59	9.619323e-05
88	0xb83f8618	-4.5662833e-05
89	0x398401c8	0.0002517833
90	0xb92e8db8	-0.00016646727
91	0xb9d6d6ee	-0.00040977396
92	0xb9f00254	-0.00045778102
93	0x39afb47e	0.00033513078
94	0x391f2619	0.00015177614
95	0xb8bfd685	-9.147547e-05
96	0x396cdd13	0.0002258907
97	0xb8bab820	-8.903467e-05
98	0xb8a99189	-8.085656e-05
99	0xb9f6a52d	-0.00047043842
100	0xb9be0eb9	-0.00036250593
101	0x3a0134bf	0.0004928819
102	0xb9a9dae5	-0.0003239728
103	0xb940e0bd	-0.00018394268
104	0xb9cb68f2	-0.00038797368
105	0xb8156ed0	-3.562757e-05
106	0x38bcac6b	8.996654e-05
107	0x38a12c64	7.685347e-05
108	0xb8f1eaf4	-0.00011535539
109	0xb93a3c78	-0.00017760869
110	0xb9e0dbb3	-0.00042888298
111	0x3895f0ce	7.149727e-05
112	0x39a3a799	0.00031214653
113	0x37ff6a1e	3.0447784e-05
114	0x39b0537e	0.00033631542
115	0xb83f314b	-4.5583856e-05
116	0x39b13a16	0.00033803348
117	0x39e87dd5	0.0004434424
118	0x39735de0	0.00023209257
119	0x398271ce	0.00024880323
120	0x3a11c419	0.0005560532
121	0x39933523	0.00028077615
122	0x3a4018ce	0.0007327915
123	0xb96fc83a	-0.00022867406
124	0xb989945a	-0.00026241207
125	0x39ad5433	0.00033059865
126	0x385a29b8	5.2014104e-05
127	0xb8ef2085	-0.00011402465
128	0x3a6b6b1d	0.00089804997
129	0x3a94b92c	0.001134669
130	0xb8d11af0	-9.970914e-05
131	0xbaa617f7	-0.0012671937
132	0x3aa1b83d	0.0012338232
133	0x3a8cebb1	0.0010751394
134	0xbaada96a	-0.0013249342
135	0xb9d72ad7	-0.00041039914
136	0xbab95849	-0.0014140691
137	0x3aab7a4d	0.0013082713
138	0x3a94ed6b	0.001136226
139	0x3ab3ada0	0.001370836
140	0x3a342391	0.0006871755
141	0x3a59e9ae	0.0008312714
142	0xb87c18da	-6.0104627e-05
143	0x3a7ac774	0.0009566464
144	0xb9f1daa4	-0.00046130002
145	0x3a64031e	0.0008697974
146	0x3aa47646	0.0012547455
147	0xbaa020d6	-0.0012216817
148	0x3a5c3f48	0.00084017636
149	0xba240b08	-0.00062577473
150	0xbaa85806	-0.0012843616
151	0xbabf6930	-0.0014603492
152	0xba6c1829	-0.00090062857
153	0xb9f98d74	-0.00047598372
154	0x3a321383	0.00067930686
155	0x3a7170bb	0.00092102186
156	0x3aac6f9d	0.0013155822
157	0xba8de98e	-0.0010827051
158	0xbaae3e97	-0.00132938
159	0x3a6c6c05	0.0009018782
160	0xba8e2af9	-0.0010846547
161	0xba0d3901	-0.00053872174
162	0xba1f92c1	-0.00060872367
163	0x3a17b811	0.0005787621
164	0x3ab766ae	0.0013992393
165	0xbaa24cc5	-0.0012382498
166	0x3a3f93b6	0.00073080824
167	0x39834dc3	0.00025044204
168	0x3a3633a2	0.0006950443
169	0x3a92b11d	0.00111917
170	0xba8af3d8	-0.0010601236
171	0xb9096d39	-0.00013106027
172	0x391f4f3d	0.0001519294
173	0x39f6ff6f	0.0004711109
174	0x3ad898fb	0.0016525084
175	0x38bc3a10	8.9753536e-05
176	0xba14dfa7	-0.0005679079
177	0x3a0591b1	0.0005095257
178	0xba9a6831	-0.0011780319
179	0xba5c18cb	-0.00083960284
180	0xba0672dd	-0.00051288103
181	0xbad0e8ed	-0.0015938558
182	0xba62d505	-0.0008652958
183	0xba300d4a	-0.00067158474
184	0xbaa6e295	-0.0012732322
185	0xb9f501ed	-0.00046731476
186	0xba68336b	-0.00088577595
187	0x39247e06	0.00015687206
188	0xb95bde7e	-0.00020968352
189	0xb9cbf932	-0.00038904842
190	0x39a0c593	0.00030664782
191	0x3a340288	0.0006866832
192	0xb9bcaf13	-0.00035988595
193	0xb9feb42f	-0.00048580903
194	0x39340ea1	0.00017171587
195	0x3a4073f9	0.00073415
196	0xba004617	-0.00048932567
197	0xb98cc792	-0.00026851572
198	0x3a031e08	0.00050017284
199	0x388c896e	6.7013185e-05
200	0x3a18a8ce	0.00058234937
201	0xba029a37	-0.0004982086
202	0xb9e8d72e	-0.0004441081
203	0xba088198	-0.0005207299
204	0xb9e4f6be	-0.00043671386
205	0xba0cbdb4	-0.0005368844
206	0x38064972	3.201649e-05
207	0xb9a476d9	-0.00031369066
208	0x36810fa9	3.8463227e-06
209	0xb8f1c231	-0.000115279465
210	0xb9edae82	-0.0004533418
211	0x3a1c4db5	0.0005962507
212	0x384547d4	4.7035355e-05
213	0x39b2359d	0.0003399075
214	0x3a1dc1e6	0.0006017968
215	0x39b341a7	0.00034190455
216	0x39ceafe2	0.00039422425
217	0x39528cd2	0.0002007962
218	0xb98734e9	-0.00025788628
219	0xb8a9fd8d	-8.1057755e-05
220	0xba13af74	-0.00056337495
221	0x3a01e094	0.0004954424
222	0x3a189667	0.00058207515
223	0xba032d0f	-0.00050039677
224	0x3a3c8606	0.0007191602
225	0x399fd110	0.00030482607
226	0x39845979	0.00025243664
227	0xb8c13e27	-9.214534e-05
228	0xb9816558	-0.00024680304
229	0x39a0b339	0.0003065111
230	0xb97dda3d	-0.0002420926
231	0xb8f20588	-0.000115404895
232	0xb981a6d6	-0.000247291
233	0xba0840cd	-0.00051976444
234	0x3a0b779d	0.0005320253
235	0x3987f56d	0.00025932063
236	0xb9be517a	-0.0003630033
237	0xb980f3d7	-0.00024595737
238	0xba046913	-0.00050510577
239	0x3903c852	0.00012567759
240	0x393b4f84	0.00017863332
241	0xb9a20f23	-0.00030910326
242	0x39ce5349	0.00039353434
243	0x395b5055	0.00020915394
244	0xb834d2ec	-4.311178e-05
245	0x3a41aea9	0.0007388392
246	0x39d1091e	0.0003987038
247	0x39b95dc9	0.00035355825
248	0x386b460d	5.6093606e-05
249	0x39badf4a	0.00035643048
250	0x38e21e08	0.000107821135
251	0x399cc76c	0.0002990322
252	0x3999572a	0.00029247376
253	0x382eeec6	4.1707208e-05
254	0x3947cbd8	0.00019054057
255	0xb7484710	-1.19374745e-05

lstm.lstm1.bias_ih_l0 f4 [256]
0	0xbc9a2e5d	-0.018820936
1	0xbc308ac5	-0.010775273
2	0x3c850417	0.016237302
3	0x3cc8cad5	0.02451078
4	0xbc7e0746	-0.015504664
5	0xbcc956ee	-0.024577584
6	0xbd5bdc0f	-0.05367666
7	0xbc22247e	-0.009896396
8	0xbb97e3b3	-0.004635298
9	0x3d05474c	0.032538697
10	0xbc671bba	-0.014105732
11	0xbc4b4d30	-0.01240854
12	0xbcebcd66	-0.028784465
13	0xbc97b9e5	-0.018521259
14	0x3d393639	0.045217726
15	0x3bfd2201	0.007725001
16	0x3b280f31	0.002564382
17	0xbcd01f69	-0.025405603
18	0xbb7bed92	-0.0038441163
19	0x3b9d57f5	0.004801745
20	0xbd041814	-0.032249525
21	0xbbe8dfa8	-0.00710674
22	0xbce97f72	-0.028503153
23	0x3d3a0a31	0.045419876
24	0xbd4d2a83	-0.05008937
25	0x3d57dee7	0.05270281
26	0xbcafb384	-0.021447904
27	0x3c9c6df7	0.019095404
28	0x3c422dfc	0.011851784
29	0x3cf7355c	0.03017681
30	0xbb8f4e2f	-0.004373334
31	0xbc1fceb3	-0.009753871
32	0x3c84be7a	0.016204108
33	0x3b3cce37	0.0028809437
34	0xbba38c5f	-0.004991099
35	0x3ca23ed6	0.019805353
36	0x3d17591f	0.036950227
37	0x3d1fa7a9	0.038978253
38	0xbad8f2d7	-0.0016551864
39	0x3c958d50	0.01825586
40	0x3b17226d	0.002306129
41	0x3d95800a	0.07299812
42	0xbc94cfd8	-0.018165514
43	0x3d0d7b1b	0.03454123
44	0x3ba4a3ff	0.0050244327
45	0x3ca90952	0.020634327
46	0x3cb7233f	0.022355674
47	0xbd0a17c9	-0.03371409
48	0xbca72bb0	-0.020406574
49	0x3bbf0fa3	0.0058307215
50	0x3cc7b969	0.024380403
51	0xbce6f8b6	-0.028194766
52	0x3d7572a4	0.059923783
53	0xbb1e1f5c	-0.0024127578
54	0x3d4ee940	0.050515413
55	0x3ca2523f	0.019814609
56	0xbca6661d	-0.020312363
57	0xbbf5ce3a	-0.0075013908
58	0xbb325abe	-0.002721473
59	0x3cf88db4	0.030341007
60	0x3c8712d2	0.016488466
61	0x3d24037a	0.040042378
62	0x3d51ed0b	0.051251452
63	0xbd32b23a	-0.043627
64	0x3ba7b1a8	0.005117614
65	0xbaa20a42	-0.0012362676
66	0xbd12c8f9	-0.035836194
67	0x3b85435e	0.0040668687
68	0x3c1054cc	0.00880928
69	0x3a284161	0.00064184336
70	0x3c948e47	0.01813425
71	0xbaee1355	-0.001816372
72	0x3cf33201	0.02968693
73	0xbc6b3624	-0.01435617
74	0xbb78599d	-0.003789521
75	0xbb784452	-0.003788252
76	0xbcccbb74	-0.024991728
77	0xbc7808ab	-0.015138785
78	0xbcb3c07d	-0.021942372
79	0x397d2e86	0.00024145292
80	0x3a47f508	0.000762776
81	0xbc2cf945	-0.010557477
82	0x3b00263e	0.0019554044
83	0xba750c01	-0.0009347797
84	0xbba9f151	-0.005186238
85	0xbcba0b8d	-0.022710586
86	0xbb3dfb8a	-0.002898904
87	0xbcc23393	-0.023706233
88	0xbb8f423f	-0.004371911
89	0x3b5b543f	0.0033466963
90	0x3cfd8ce1	0.030950965
91	0x3b8994b0	0.004198633
92	0xba9b2cde	-0.0011838933
93	0xbccd3b06	-0.025052559
94	0x3bce328e	0.0062926477
95	0x3b6586d4	0.003502299
96	0x3a9d3b37	0.0011995797
97	0xbb27516c	-0.002553071
98	0xbb873399	-0.004126024
99	0xbbd832d4	-0.006597856
100	0x3b22a994	0.0024820315
101	0xbb0f5284	-0.0021869252
102	0xbbcb0585	-0.0061957263
103	0xbbf6d5a6	-0.007532793
104	0x3c3d0996	0.01153793
105	0x3cd1e9b8	0.025624141
106	0x3ab10f52	0.0013508594
107	0x3bb82866	0.0056200502
108	0xbba8866b	-0.005142977
109	0xbcaa716e	-0.02080604
110	0x3c250af3	0.010073411
111	0xbd558a48	-0.05213383
112	0x3ace34a6	0.0015732243
113	0x3b3a3853	0.002841492
114	0x3ba9f2a8	0.0051863976
115	0x3bd09086	0.006364885
116	0x3be7242f	0.007053874
117	0x3a21d573	0.0006173469
118	0x3cba032b	0.022706589
119	0x3a045031	0.000504735
120	0x3c4b805c	0.01242074
121	0x3ce80c1e	0.02832609
122	0x3c5424b1	0.012948201
123	0x3bb05b1d	0.0053819553
124	0xbbc5dbac	-0.00603815
125	0xb9eb2f84	-0.00044858095
126	0x3ce88490	0.028383523
127	0x3c6f6718	0.014611982
128	0xbbf702c3	-0.007538171
129	0x3da3757b	0.07981392
130	0xbde89a4c	-0.11357555
131	0xbd967991	-0.07347406
132	0x3dcfb594	0.10142055
133	0xbd202a55	-0.03910287
134	0xbd927f60	-0.07153201
135	0xbdeaf37c	-0.11472222
136	0x3da165d2	0.07880749
137	0x3de6e2fb	0.11273762
138	0x3da7d97b	0.08195778
139	0x3ddd7d09	0.10814864
140	0x3db5b98c	0.08873281
141	0x3df91857	0.121628456
142	0x3d68c1ce	0.05682545
143	0xbb80f354	-0.003935257
144	0x3c350c3d	0.011050281
145	0x3dd2eb2b	0.10298761
146	0xbcb4f38e	-0.022088792
147	0xbd8ea4fc	-0.06965062
148	0xbde4ae06	-0.11166005
149	0x3d61df26	0.05514445
150	0xbdbc64b9	-0.09198899
151	0xbd9ccf07	-0.07656675
152	0x3de5f0d2	0.112275735
153	0x3b657890	0.0035014488
154	0x3c499d11	0.012305514
155	0x3dcf774a	0.101301745
156	0x3cec70b1	0.02886233
157	0xbc991316	-0.018685859
158	0xbb804735	-0.0039147385
159	0x3c810097	0.015747352
160	0xbd6e4c81	-0.05817843
161	0xbd2a0df7	-0.041517224
162	0x3cdfe92e	0.027332868
163	0x3c9961ac	0.018723331
164	0xbd536ede	-0.051619403
165	0xbb368147	-0.0027848051
166	0x3c879363	0.016549772
167	0x3d6d1037	0.05787679
168	0xbdd5d683	-0.104413055
169	0xbd269a59	-0.04067454
170	0xbd2f7ec9	-0.04284552
171	0x3d62dd42	0.05538679
172	0xbccfca51	-0.025365027
173	0x3cac8aac	0.021062218
174	0x3c9a3ce6	0.018827867
175	0xbd1258eb	-0.03572933
176	0xbb3de05d	-0.0028972842
177	0x3db4d08c	0.0882884
178	0xbd8eeeaa	-0.06979115
179	0xbc57c297	-0.013168952
180	0x3d9c9154	0.07644907
181	0xbdeed652	-0.11661972
182	0xbd2d7d39	-0.04235575
183	0xbdec4bc9	-0.11537892
184	0xbd4c023f	-0.04980683
185	0xbd6d0cd4	-0.057873562
186	0xbd00f0b9	-0.03147957
187	0xbc43e5af	-0.011956616
188	0x3d1cdec9	0.038298402
189	0xbd867c73	-0.065667056
190	0xbd90e914	-0.07075706
191	0xbd13d2ee	-0.03608983
192	0x3c04d035	0.008106281
193	0xbb4d194f	-0.0031295603
194	0xbd62094f	-0.05518466
195	0xbcb51a20	-0.022107184
196	0x3c749ba3	0.014929685
197	0x3d3f031e	0.046633832
198	0x3c0e50bb	0.00868624
199	0x3cc73ad9	0.024320053
200	0xbbad80e0	-0.005294904
201	0xbc5b3f2d	-0.0133817615
202	0x3c51717e	0.012783406
203	0x3ca8c95c	0.020603828
204	0x3d0483b9	0.032352183
205	0xbd1ed8a3	-0.03878082
206	0xbd310908	-0.043221503
207	0x3a9a6449	0.0011779155
208	0x3b05f914	0.0020442652
209	0xbc2c7b2a	-0.0105274115
210	0xbb4aaa95	-0.0030924429
211	0x3cbec404	0.023286827
212	0x3c4ca790	0.012491122
213	0xbcbc2e3d	-0.022971267
214	0xbc5ae89a	-0.013361121
215	0xbd89d433	-0.06729927
216	0xbcdeefce	-0.027213957
217	0xbb55a1a9	-0.0032597578
218	0x3b4f8196	0.0031662933
219	0xbc067dbc	-0.008208688
220	0x3ca04d1a	0.019568015
221	0x3c33dd21	0.010978014
222	0x3cf50787	0.029910816
223	0xbc14fc11	-0.0090933
224	0xbc9b49a3	-0.018956011
225	0xb8dba60c	-0.000104736624
226	0xbaedfb28	-0.0018156515
227	0xbd4bf309	-0.049792323
228	0xbd38ebc3	-0.045146715
229	0x3d21c997	0.03949889
230	0x3b0539bf	0.0020328609
231	0xbd35e5c4	-0.044408575
232	0xbc946ce9	-0.018118339
233	0x3cbfb8ed	0.02340361
234	0x3b9a98ef	0.004717938
235	0x3d2c2c8c	0.04203467
236	0xbc6f0070	-0.014587507
237	0x3ab5e41b	0.0013877185
238	0xbd6b5287	-0.05745175
239	0x3bad2596	0.0052840216
240	0xbb927f2a	-0.0044707255
241	0x3b4b4546	0.0031016632
242	0xbbe91813	-0.0071134656
243	0xbd1833cf	-0.037158784
244	0xbc2a9311	-0.01041104
245	0xbd4c433e	-0.049868815
246	0xbd928c29	-0.0715564
247	0x3c6dd8b5	0.014516999
248	0xbc1bbb07	-0.00950504
249	0xbc049664	-0.008092497
250	0x3d1b8b17	0.037974443
251	0x3d60f387	0.054919746
252	0x3c83b817	0.016078992
253	0x3ad8762b	0.0016514709
254	0xbd40a524	-0.04703249
255	0x3d7662eb	0.06015293

lstm.lstm1.bias_hh_l0 f4 [256]
0	0xbb2660c0	-0.0025387257
1	0xbc6baafa	-0.014384026
2	0xbc5a6fd1	-0.013332323
3	0x3bbb02ab	0.005707105
4	0x3ca6f42b	0.0203801
5	0x3ca740d9	0.020416664
6	0x3c7bd288	0.015370019
7	0x3bb59467	0.0055413726
8	0xbd0c7647	-0.034292486
9	0xbc4639b8	-0.012098722
10	0xbaea57df	-0.0017878971
11	0x3a7f400d	0.00097370223
12	0x3d1e2e9d	0.038618673
13	0x3c84b798	0.016200826
14	0xbd382320	-0.044955373
15	0xbbfa99c2	-0.007647724
16	0x3b33f481	0.0027458968
17	0x3cd67ece	0.026183512
18	0x3b36e2f2	0.0027906266
19	0xbcd12958	-0.02553241
20	0xbc9090ee	-0.017647233
21	0x3c43778d	0.011930359
22	0xb9a045c4	-0.00030569558
23	0x3d7e272f	0.062049087
24	0x3c3b08c0	0.01141566
25	0xbd7ebf80	-0.062194347
26	0xbd6dae7b	-0.058027726
27	0xbd4dc39c	-0.050235376
28	0x3d015797	0.031577673
29	0x3c1c7f79	0.009551876
30	0x3caa8441	0.020815017
31	0x3cec93ae	0.028879013
32	0x3cf73c3e	0.030180093
33	0xbc9d85db	-0.019228866
34	0x3b06aa18	0.002054816
35	0x3cc1c592	0.02365378
36	0x3c4b9c79	0.012427443
37	0xbceb0858	-0.028690502
38	0x3b5d2d35	0.003374887
39	0x3d3f2137	0.046662536
40	0x3cc45017	0.023963971
41	0x3cfcd518	0.03086333
42	0xbc3b2198	-0.011421584
43	0xbd01d890	-0.03170067
44	0x3c279398	0.01022806
45	0x3d2ca65b	0.042150836
46	0x3cf00305	0.029298315
47	0xbce739c5	-0.028225789
48	0xbcd99212	-0.02655891
49	0x3bad856a	0.005295445
50	0x3b8bf89f	0.0042715813
51	0xbca5629b	-0.02018862
52	0x3cc46aac	0.023976646
53	0x3c949a37	0.018139942
54	0xbc620f3d	-0.013797578
55	0x3c73a752	0.014871435
56	0x3d762ff8	0.06010434
57	0xbd28fb05	-0.041255016
58	0xbd29a18a	-0.04141382
59	0x3d25e1ef	0.04049867
60	0xbbd79d4c	-0.0065800305
61	0x3bf5a2be	0.007496207
62	0x3d8ab237	0.06772273
63	0xbb933d26	-0.0044933734
64	0xbbf988b5	-0.0076151737
65	0xbaeb90ac	-0.0017972193
66	0x3c80a8af	0.015705435
67	0xbc05e289	-0.008171686
68	0xbc98e00b	-0.01866152
69	0xbd36f635	-0.044668395
70	0xbce42fe0	-0.02785486
71	0xba979223	-0.0011563938
72	0x3c5e2ef2	0.013560997
73	0xbd857be1	-0.06517769
74	0x3b730fd0	0.0037088282
75	0xbae0d28c	-0.0017152592
76	0xbc7e5fe7	-0.015525795
77	0xbb3aa2cd	-0.0028478384
78	0x3bb44904	0.005501868
79	0x397ed924	0.00024304219
80	0x3a409706	0.0007346723
81	0xbb40fbd6	-0.002944698
82	0x3b037b68	0.002006257
83	0x3a44c7e0	0.00075065903
84	0x3be5c6c3	0.0070122196
85	0xbc22fe40	-0.009948313
86	0xbb710ad8	-0.0036780145
87	0xbd405306	-0.046954177
88	0xbbfdd144	-0.0077458937
89	0xbce56488	-0.028002039
90	0x3c23c2f6	0.009995213
91	0xbbcc6d9d	-0.006238653
92	0x3bc6d62c	0.0060680117
93	0x3c90b7a7	0.017665697
94	0x38bc9b88	8.9935085e-05
95	0x3ad5495c	0.0016272473
96	0xbb9b312f	-0.0047360878
97	0xbae477e3	-0.0017430749
98	0xbb8865d2	-0.0041625286
99	0x3c3ed6dd	0.011647907
100	0xbc93a67a	-0.018023718
101	0xbcafaece	-0.021445658
102	0xb8c69c58	-9.470497e-05
103	0xbca78c1c	-0.020452552
104	0xbcc4cb33	-0.024022674
105	0xbb426580	-0.002966255
106	0x3b26c058	0.0025444236
107	0x3c5b2fee	0.013378127
108	0xbbd432f6	-0.0064758016
109	0x3a5eab65	0.00084941677
110	0xbb10904a	-0.002205866
111	0xbd978269	-0.07397921
112	0x3c7deabc	0.01549786
113	0x3b003612	0.0019563478
114	0x3b9fa816	0.0048723323
115	0x3c28c859	0.010301673
116	0x3be874b8	0.007093992
117	0x3c08a401	0.008339883
118	0xbbd057fa	-0.006358144
119	0x3bb39a15	0.0054810145
120	0xbb02f04e	-0.0019979659
121	0x3cbd7814	0.023128547
122	0x3c41974d	0.011815858
123	0xbbff33e7	-0.0077881697
124	0xbbc089ec	-0.0058758166
125	0xbc601fe6	-0.01367948
126	0x3c55afe2	0.013042422
127	0xbcb400c0	-0.021973014
128	0xb9706cbd	-0.00022928692
129	0x3c255b2f	0.010092541
130	0x3d4ffe1f	0.050779458
131	0x3b6e30df	0.0036345047
132	0xbd9e923c	-0.07742736
133	0x3dbcfc4c	0.09227809
134	0xbdaa90cd	-0.083284
135	0x3dd986bc	0.10621402
136	0xbdbd4247	-0.09241157
137	0x3bea8246	0.007156643
138	0xbde24b38	-0.11049503
139	0x3dcb7eb6	0.099362776
140	0x3806e2f7	3.2159467e-05
141	0xbccfa0d9	-0.025345253
142	0x3ca34131	0.019928547
143	0x3d8fc59e	0.07020114
144	0xbd94ffcd	-0.072753526
145	0x3b8cf540	0.004301697
146	0x3d0f187f	0.03493547
147	0xbdc5b1ce	-0.09653054
148	0x3db8a7e2	0.09016396
149	0x3c8bb4d1	0.017053993
150	0xbcfa4087	-0.030548347
151	0xbd5ce8c1	-0.05393291
152	0xbdf68da1	-0.12038732
153	0xbdb41653	-0.087933205
154	0x3d79e3f7	0.06100842
155	0x3d3f3ab3	0.04668684
156	0x3d9b90e8	0.07595998
157	0xbd94cd57	-0.07265728
158	0xbd115daa	-0.035489716
159	0x3d3cbc01	0.046077732
160	0xbcb23fe0	-0.021758974
161	0xbdd6945a	-0.104775146
162	0x3dd21ff9	0.102600046
163	0xbb3136db	-0.0027040753
164	0x3d7fa4fb	0.062413197
165	0x3c4f8bf6	0.012667647
166	0xbd7e7fc3	-0.06213356
167	0x3dc3fa83	0.09569266
168	0x3b86da95	0.0041154125
169	0x3c93d5ae	0.018046226
170	0x3c8cdd24	0.017195292
171	0xbddfd5ad	-0.10929427
172	0x3cb5194d	0.02210679
173	0xbca87458	-0.02056329
174	0x3dc5f0e8	0.0966509
175	0xbd79e51e	-0.06100952
176	0xbdb54b44	-0.088522464
177	0x3d98ef1b	0.07467481
178	0x3cd4ef83	0.025993114
179	0xbdc47f8a	-0.09594639
180	0xbc003e46	-0.007827347
181	0xbb39765c	-0.0028299307
182	0x3d8ddd88	0.06927019
183	0x3d0e484c	0.034736916
184	0xbdb75f92	-0.089537755
185	0xbd22160c	-0.039571807
186	0xbdbea54f	-0.09308874
187	0x3d0a458f	0.033757742
188	0x3d4b2825	0.04959883
189	0xbc0f51eb	-0.008747558
190	0x3896ad93	7.184888e-05
191	0x3cb9c1ab	0.022675356
192	0x3d3aef09	0.045638118
193	0xba1dcee5	-0.00060199044
194	0x3bde2f07	0.0067805084
195	0x3bd4ede0	0.0064980835
196	0x3b7d776f	0.0038675924
197	0x3cd84295	0.026398936
198	0x3ab246b3	0.0013601392
199	0xbb785bb5	-0.0037896459
200	0x3d18253b	0.03714488
201	0x3b1aa939	0.00235994
202	0x3c95525f	0.018227754
203	0x3cb852be	0.022500392
204	0x3d023707	0.03179076
205	0xbc540977	-0.01294171
206	0xbd36f98c	-0.04467158
207	0xbc4ade6e	-0.012382133
208	0x3abecfd3	0.0014557786
209	0xbcac1930	-0.021008104
210	0xba8cc1f7	-0.0010738958
211	0x3c07b25c	0.00828227
212	0x3b4c595c	0.0031181192
213	0x3d17cb27	0.037058976
214	0x3cd96848	0.026538983
215	0xbd0d8385	-0.034549255
216	0x3d50eebe	0.051008932
217	0xbd93d2eb	-0.07217964
218	0x3d3afe03	0.0456524
219	0x3d19d344	0.037554994
220	0xbbb7256f	-0.005589179
221	0xbcddb6e3	-0.027064746
222	0xbbb07003	-0.0053844466
223	0x3baf61d3	0.0053522377
224	0x3c6e3c91	0.014540807
225	0x3c65a3e4	0.014016125
226	0xba617296	-0.00086001435
227	0x3ca6e948	0.020374909
228	0xbcecfea8	-0.028930023
229	0xbca71a3b	-0.02039825
230	0xbd05d348	-0.032672197
231	0x3ceaf245	0.028679976
232	0x3c003760	0.007825702
233	0xbd8a44c0	-0.06751394
234	0xbc893462	-0.01674861
235	0x3a805a00	0.0009792447
236	0xbbacd43a	-0.005274323
237	0x3cf80f40	0.03028071
238	0x3b617fc8	0.003440844
239	0xbc6ca199	-0.014442825
240	0xb9fc02bc	-0.00048067223
241	0x3ba373e7	0.004988182
242	0xbb6c72f6	-0.0036079264
243	0xbd0e44ab	-0.034733456
244	0xbc42a86a	-0.011880973
245	0xbcaed559	-0.021341966
246	0x3c898026	0.016784739
247	0x3d193a2a	0.037408985
248	0x3c8f70fe	0.017509934
249	0x3cac9146	0.021065366
250	0xbbbfde78	-0.0058553778
251	0xbc2cd46f	-0.010548695
252	0xbbb280e2	-0.005447493
253	0xbd08f909	-0.033440623
254	0xbca700cf	-0.020386128
255	0x3d3d4f4a	0.046218194

lstm.bn1.weight f4 [3]
0	0x3f1210e1	0.57057005
1	0x3f37c15a	0.71779406
2	0x3f632b9e	0.8873843

lstm.bn1.bias f4 [3]
0	0xba5407f5	-0.0008088344
1	0xbaf397b6	-0.0018584642
2	0x3971edec	0.00023072184

lstm.bn1.running_mean f4 [3]
0	0xbaddc35b	-0.0016919182
1	0xbb355519	-0.002766913
2	0xbb5fb2a2	-0.0034133573

lstm.bn1.running_var f4 [3]
0	0x3aa1a839	0.001233346
1	0x3b2bb743	0.0026201762
2	0x3b61c876	0.003445176

lstm.lstm2.weight_ih_l0 f4 [256, 64]
0	0x3b8c3690	0.0042789653
1	0x3cab5f62	0.020919506
2	0x3a306bd8	0.0006729937
3	0x3cefbebb	0.029265752
4	0xbbecc4bf	-0.0072256024
5	0x3b477833	0.0030436635
6	0xbbd2b106	-0.0064297942
7	0x3a6fa764	0.00091420696
8	0x3abab0c3	0.0014243353
9	0x3aad9e1f	0.0013245976
10	0x3adc8c2c	0.0016826442
11	0xbca6c91e	-0.020359572
12	0x3a0266e4	0.00049744383
13	0xbc5af35e	-0.013363687
14	0x3950abec	0.00019900472
15	0xbc8f4c25	-0.017492363
16	0x3a2147a9	0.0006152341
17	0xba903fb7	-0.0011005317
18	0xba8e9c7e	-0.0010880379
19	0xbcbe8943	-0.02325881
20	0xb6cbe365	-6.0763437e-06
21	0xbaaddb7d	-0.0013264265
22	0x3bf9b9be	0.007621019
23	0x3b3930d5	0.0028257866
24	0xba9455ae	-0.0011317038
25	0xbbcc0ff9	-0.00622749
26	0x3beba87a	0.007191715
27	0xbc30cc21	-0.010790856
28	0x3c9303e9	0.0179462
29	0xbad251ec	-0.0016046143
30	0xbc080382	-0.008301618
31	0xba9677eb	-0.001147983
32	0x3cc3df24	0.023910113
33	0x3ab5b518	0.0013863174
34	0x394b95be	0.00019415372
35	0x3c789a62	0.0151735265
36	0xbca883c1	-0.020570638
37	0xbbcbf0bb	-0.0062237657
38	0xbc852f92	-0.016258035
39	0xbab258e4	-0.0013606814
40	0xbcd5bf79	-0.026092278
41	0xbc1e3f04	-0.009658579
42	0x3b90f543	0.0044237687
43	0x390df918	0.00013539603
44	0xbcae23d0	-0.021257311
45	0x3ba950ed	0.005167118
46	0xba944d77	-0.001131459
47	0xbbc5291e	-0.0060168644
48	0x3ae35ab7	0.0017345761
49	0x3a4ed341	0.00078897557
50	0x3c740d98	0.014895819
51	0x3b6495ef	0.0034879406
52	0xba417834	-0.00073802774
53	0x3d08bca3	0.033383023
54	0x3c06b4ac	0.0082217865
55	0x3ba1d6f3	0.004938954
56	0x3b933673	0.004492575
57	0xba277b78	-0.0006388943
58	0x3c8e8513	0.01739744
59	0xbc128d9a	-0.008944893
60	0xbaba87df	-0.0014231167
61	0x3c1d9086	0.009616977
62	0xbab0ff2e	-0.0013503784
63	0x3bd0d1cb	0.0063726655
64	0x3ae7dece	0.0017690302
65	0x3b2b6b4b	0.002615648
66	0x393e0e78	0.00018125202
67	0xbb3813c4	-0.0028087953
68	0x3b3b528d	0.002858314
69	0x3af09d3b	0.0018357405
70	0xbadc604e	-0.0016813369
71	0xba27beb4	-0.00063989614
72	0xbb094811	-0.0020947496
73	0x3b0129ab	0.0019708674
74	0x39fac9da	0.00047834107
75	0x3b3a84cc	0.00284605
76	0x3b019eb2	0.0019778428
77	0x3b335eae	0.0027369666
78	0x3a873e92	0.001031833
79	0x3b2d33c8	0.002642857
80	0xb98a049d	-0.00026324848
81	0x3a94fc90	0.0011366773
82	0x3a802939	0.000977791
83	0xbb36adb4	-0.0027874531
84	0x3acfdb54	0.0015858212
85	0x38e6d7e4	0.000110074674
86	0xbb31168f	-0.0027021503
87	0xbac83ba8	-0.0015276568
88	0xba4c59ba	-0.0007795353
89	0xbaeb694f	-0.0017960462
90	0x3ace261f	0.0015727914
91	0x3b2b0445	0.0026095074
92	0x3b444185	0.002994628
93	0xbb33024b	-0.00273146
94	0xbb25b805	-0.0025286686
95	0x3b0e91e1	0.002175443
96	0xbb2864fd	-0.002569496
97	0xb9fc6071	-0.0004813704
98	0x3a078a99	0.0005170494
99	0x3b0021ba	0.0019551353
100	0x3b2ec3f5	0.0026667092
101	0xbb3ca3c5	-0.0028784138
102	0x3b24656c	0.0025084866
103	0x3afa201b	0.0019083055
104	0x3b0fcc8a	0.0021941983
105	0x3ade5d49	0.0016965057
106	0xbb047c20	-0.0020215586
107	0xba058f78	-0.0005094926
108	0x3ab3a510	0.0013705809
109	0x3a4de4ba	0.00078542123
110	0x3b1dee25	0.0024098244
111	0xbae6f8b1	-0.0017621723
112	0xbb143d8c	-0.0022619693
113	0x3a86eec5	0.0010294548
114	0xbb216272	-0.0024625328
115	0xba8e00e4	-0.0010834006
116	0x37e2180b	2.6952495e-05
117	0xbb37708b	-0.0027990665
118	0xbacfd1b9	-0.0015855349
119	0xbad04601	-0.0015890003
120	0xbb454dd9	-0.0030106215
121	0xbaeba5c1	-0.0017978476
122	0xbb26083c	-0.0025334498
123	0x3a4d08b0	0.0007821424
124	0x3a0e932b	0.00054388
125	0xbac765b4	-0.0015212805
126	0xba1efa52	-0.00060645223
127	0x3a7b5cf0	0.0009588739
128	0x3c0525f3	0.008126724
129	0xbce11097	-0.027473731
130	0xbbed0604	-0.007233383
131	0x3cd882a8	0.02642949
132	0xbd2d8b95	-0.042369444
133	0x3a1ecf6d	0.00060581305
134	0xbc973243	-0.018456584
135	0x3b3ff478	0.0029290002
136	0xbc2ff10f	-0.010738625
137	0x3c698445	0.014252727
138	0x3b8922a7	0.004185039
139	0xbca83add	-0.02053588
140	0x3b6eda5f	0.0036446077
141	0x3b113179	0.0022154732
142	0xbbfcb93b	-0.007712511
143	0xbad217da	-0.0016028837
144	0x3a829894	0.0009963685
145	0xb973766d	-0.00023218403
146	0x3b8267ae	0.0039796447
147	0x3c234f22	0.009967597
148	0x3c6d78ca	0.01449413
149	0xba299276	-0.0006468663
150	0x3bbe949b	0.005816055
151	0xbb95f538	-0.0045763515
152	0xbbc9a691	-0.0061538895
153	0x3caeead1	0.021352204
154	0x3ace9f14	0.0015763962
155	0xbc362e27	-0.011119402
156	0x3d319300	0.04335308
157	0xbcc3efc4	-0.02391804
158	0x3c9af66b	0.01891633
159	0x3cc92203	0.02455235
160	0x3c8a7b39	0.01690446
161	0x3b904c72	0.0044036442
162	0x3c765ec9	0.015037247
163	0xbcb37150	-0.021904618
164	0xbc73ce0b	-0.014880667
165	0x3c91a376	0.01777814
166	0xbc218bfa	-0.009860033
167	0x3adc79f2	0.001682101
168	0x3cc288a5	0.023746798
169	0xbc4d197b	-0.012518282
170	0xbd10abc4	-0.03532006
171	0xbb5988e4	-0.0033193165
172	0xbccf2ae1	-0.025289001
173	0x3c65f1d0	0.014034703
174	0x3ce7f612	0.028315578
175	0xbc8e1641	-0.017344596
176	0x3cdbfbfe	0.026853558
177	0x3b29c0ec	0.0025902344
178	0xbcda2064	-0.026626773
179	0x3ac70f16	0.0015186991
180	0x3b2483da	0.0025103004
181	0x3cb1bb19	0.02169566
182	0xbc0ac5f8	-0.008470051
183	0xbbcdb6a1	-0.0062778746
184	0xbbcd30ca	-0.0062619196
185	0xbb44d82d	-0.0030036077
186	0xbcfbb47d	-0.030725712
187	0xbb8a15b2	-0.004214012
188	0xbb54ec06	-0.0032489314
189	0xbc1b0d4f	-0.009463622
190	0xbb05a606	-0.0020393147
191	0xbc2217c3	-0.009893361
192	0x3b75da5b	0.0037514183
193	0x3ccca5f5	0.024981478
194	0x3b5e5581	0.0033925476
195	0x3b54322a	0.0032378533
196	0x3c8d20c1	0.017227532
197	0x3c40e3e4	0.011773083
198	0xbc84214d	-0.01612916
199	0xbc19cc6c	-0.009387117
200	0xbc29a334	-0.010353852
201	0x3b828149	0.003982697
202	0x3c48cb15	0.01225545
203	0x3c214bf6	0.009844771
204	0x3c7fc8c3	0.01561183
205	0xbbb686f9	-0.005570289
206	0x3bbd8fed	0.0057849796
207	0x3ccfa122	0.025345389
208	0xbb7529e1	-0.0037408995
209	0x3c73851c	0.014863279
210	0x3d057ed1	0.032591645
211	0x3c075d7a	0.008262033
212	0x3bd472ab	0.006483396
213	0xbb9e6d48	-0.0048348047
214	0xbd2e3bac	-0.042537376
215	0xbb2edec6	-0.0026683076
216	0x3b8d9877	0.0043211537
217	0xbcf17759	-0.029475855
218	0x3c68ba4c	0.014204573
219	0x3bb95aeb	0.00565659
220	0x3cd0771b	0.025447419
221	0x3ba07297	0.0048964727
222	0xbcb1575e	-0.021648105
223	0x3c8e5326	0.017373633
224	0xbd2c0ebd	-0.042006243
225	0xbb63bf2f	-0.0034751405
226	0xbb9a9bfd	-0.0047183023
227	0x3cb0d549	0.021586077
228	0xba1504ee	-0.00056846335
229	0x3c572725	0.013131891
230	0x3d1fb469	0.038990412
231	0xbbb18859	-0.0054178652
232	0x3c8c186c	0.017101489
233	0x3ca6b886	0.02035166
234	0xbce42d73	-0.027853703
235	0x3b6360ae	0.0034695077
236	0x3c4f29ee	0.012644274
237	0xbaec742b	-0.0018039992
238	0x3d103ba8	0.035213143
239	0xbbd0802a	-0.0063629346
240	0xbc4bc42c	-0.012436908
241	0x3c45a835	0.012064029
242	0xbcfb6095	-0.030685702
243	0xbc42514e	-0.011860205
244	0x3b340599	0.0027469157
245	0xbca05923	-0.019573754
246	0xbbc80322	-0.006103889
247	0xbc449e2c	-0.012000602
248	0xbcbde959	-0.023182558
249	0x3b8754fb	0.0041300035
250	0x3a68e349	0.0008883966
251	0x3cab7418	0.020929381
252	0xbb78bd11	-0.003795449
253	0xbcd3f63c	-0.02587425
254	0x3c7d0a8f	0.015444412
255	0x3d09b34a	0.03361825

lstm.lstm2.weight_hh_l0 f4 [256, 64]
0	0xb986eee4	-0.0002573646
1	0xb9b673b3	-0.00034799948
2	0xb9b0951b	-0.00033680428
3	0x39c78ca4	0.00038061023
4	0xb9a9d590	-0.00032393308
5	0x38d7d56e	0.00010291753
6	0xb9e8cf54	-0.0004440496
7	0x39f58c4c	0.0004683457
8	0x3997b2fd	0.0002893432
9	0x38b472a2	8.604421e-05
10	0xb92868cf	-0.00016060773
11	0xb96c7af3	-0.00022552516
12	0xb96795ba	-0.00022085654
13	0xb98653ea	-0.00025620993
14	0xb759a296	-1.2972063e-05
15	0x3838a5f4	4.4023574e-05
16	0xb92833f3	-0.00016041081
17	0xb9bb826f	-0.000357646
18	0xb9326ddd	-0.0001701633
19	0x39dfb730	0.0004267036
20	0x38e11602	0.00010732935
21	0x396056ac	0.00021394592
22	0xb6d8fe5a	-6.466912e-06
23	0xb894e93d	-7.100634e-05
24	0x36c78128	5.945698e-06
25	0x3926ab4d	0.00015894808
26	0xb92b2e6e	-0.00016325127
27	0x3912274e	0.00013938287
28	0x39252290	0.00015748502
29	0x39afbfc3	0.00033521475
30	0x39bd3167	0.00036085697
31	0xb986f2c0	-0.00025739335
32	0x39657f25	0.00021886507
33	0x38fed38d	0.00012151068
34	0x381e64d7	3.776405e-05
35	0xb9cf0120	-0.00039482955
36	0x390b59c6	0.00013289516
37	0x36b1cc53	5.2987975e-06
38	0xb74eef7e	-1.2334318e-05
39	0x37ec72bc	2.818682e-05
40	0xb973719f	-0.00023216613
41	0x39004862	0.00012233996
42	0xb95a729f	-0.000208328
43	0xb940bf58	-0.00018381828
44	0xb99bd859	-0.00029725095
45	0xba06f165	-0.0005147665
46	0x38b79b0d	8.7550005e-05
47	0xb9310143	-0.00016880505
48	0xb90bd6bc	-0.00013336068
49	0xb9ded4db	-0.0004250173
50	0x390f9d4c	0.0001369614
51	0x37899c7c	1.6404541e-05
52	0x372328af	9.7250295e-06
53	0x398036b3	0.00024454817
54	0x389ab95e	7.3778196e-05
55	0xb8bd99c1	-9.040861e-05
56	0xb9fa0478	-0.00047687045
57	0x38a9f108	8.1034435e-05
58	0x391a2b9b	0.00014702829
59	0xb9192ecd	-0.00014608652
60	0xb904d3e3	-0.00012667435
61	0xb794874a	-1.7705974e-05
62	0x3850451c	4.9655428e-05
63	0xb8f8dbb2	-0.00011866483
64	0x39c7427e	0.00038005778
65	0x390a4236	0.00013185371
66	0x39ea6705	0.00044708714
67	0x38a0fceb	7.676504e-05
68	0x3a08297d	0.00051941705
69	0x391adc0b	0.00014768557
70	0x38fae06b	0.0001196273
71	0xb93aa3e2	-0.00017799393
72	0xb992f8bb	-0.0002803261
73	0x38025242	3.1071024e-05
74	0x37c76b10	2.3772503e-05
75	0xb82b1b7e	-4.079518e-05
76	0x3996c49c	0.00028756715
77	0x39cb5072	0.00038779114
78	0x389e2160	7.540244e-05
79	0xb96bb367	-0.00022478179
80	0x39197668	0.00014635327
81	0x39af551e	0.00033442018
82	0x38d59a78	0.000101854035
83	0xb78d19ab	-1.6820462e-05
84	0xb992be2b	-0.00027988976
85	0x39d51cd6	0.0004064801
86	0x39949780	0.00028341636
87	0x36bc40a3	5.6103613e-06
88	0xb9cecd13	-0.00039444174
89	0xb8dcd381	-0.00010529813
90	0xb653e49a	-3.1574514e-06
91	0x396f2ca0	0.0002280944
92	0xb9247e40	-0.0001568729
93	0xba0496e2	-0.00050578837
94	0xb99443c2	-0.00028279243
95	0x39397004	0.00017684704
96	0x38aff2f4	8.389904e-05
97	0x3984785c	0.00025266677
98	0xb9b6b439	-0.00034848021
99	0x39ea7f0d	0.00044726618
100	0xb993c442	-0.00028184248
101	0x37043684	7.880506e-06
102	0x39827931	0.00024885827
103	0xb9b50469	-0.00034526296
104	0x39862df2	0.00025592704
105	0xb918540a	-0.00014527157
106	0x399859cb	0.000290586
107	0x39dd343f	0.0004219133
108	0x399b4070	0.00029611913
109	0xb5585b31	-8.059897e-07
110	0x394a3a08	0.0001928584
111	0x3779ba73	1.4884968e-05
112	0x38c59335	9.4211115e-05
113	0x39a45ea4	0.0003135103
114	0xb94ab835	-0.00019332844
115	0x39d51a8a	0.000406463
116	0x393b8b5f	0.0001788563
117	0xb936d9cd	-0.0001743801
118	0x38a11870	7.68163e-05
119	0xb8218a04	-3.851393e-05
120	0x39acb908	0.00032944256
121	0xb9385673	-0.00017579812
122	0xb9917961	-0.0002774699
123	0x38c7d63d	9.5289644e-05
124	0x3783cd07	1.571189e-05
125	0x38b32c41	8.543628e-05
126	0xb98fcc5f	-0.00027427354
127	0x3820a387	3.829927e-05
128	0xb95cc263	-0.0002105325
129	0xb9c84b24	-0.00038202957
130	0xb9dc7684	-0.0004204997
131	0x3a4fa31e	0.00079207297
132	0xb8d72ab5	-0.00010259954
133	0x39e80911	0.00044257243
134	0xba2d8856	-0.0006619742
135	0x3a387a16	0.0007037235
136	0xb8a888dc	-8.036356e-05
137	0xb764d694	-1.3639819e-05
138	0xb9984cd4	-0.0002904894
139	0xba455760	-0.00075279735
140	0xb9032346	-0.00012506274
141	0xb9930ef0	-0.00028049154
142	0x3912783d	0.00013968437
143	0xb913e9e7	-0.00014106148
144	0xb9105a55	-0.00013766561
145	0xb9a4b761	-0.00031417146
146	0x3863fcf9	5.4356617e-05
147	0x3a2c362b	0.0006569351
148	0xb9d52799	-0.00040656028
149	0x397981c4	0.00023794832
150	0x39a33962	0.00031132536
151	0x38a0bb72	7.664309e-05
152	0xb9b699b7	-0.00034828272
153	0x391f2160	0.00015175855
154	0xba012360	-0.0004926231
155	0x3a02b6b6	0.00049863325
156	0x391c8963	0.000149285
157	0xb7e38bdb	-2.7125634e-05
158	0x3a0e31b2	0.00054242753
159	0x385b7176	5.2319338e-05
160	0x3a234622	0.0006228407
161	0x3a19a05b	0.00058603816
162	0xb9ba0209	-0.000354782
163	0xba986157	-0.0011625689
164	0x39888261	0.0002603708
165	0x3955dd57	0.00020395718
166	0x39ac13cc	0.00032821146
167	0xb9a504dd	-0.00031474876
168	0xb951a99f	-0.00019994982
169	0x39a26204	0.00030972075
170	0xb98bace4	-0.0002664096
171	0xb80e91da	-3.3991273e-05
172	0xb9465179	-0.00018913102
173	0xba1e63ce	-0.0006042094
174	0x39b396b3	0.0003425382
175	0x390f4a96	0.00013665328
176	0xb8f6c756	-0.00011767323
177	0xb9e1ee4c	-0.0004309289
178	0xb74b06e0	-1.2101344e-05
179	0x39da95d6	0.00041691837
180	0x390fc8e7	0.00013712385
181	0xb80ab0bd	-3.3066364e-05
182	0x3a0e8631	0.0005436866
183	0xb9a67337	-0.0003174783
184	0xba284bc5	-0.0006419982
185	0xb8522001	-5.0097708e-05
186	0xb8a21cfe	-7.730162e-05
187	0x3867e139	5.5284447e-05
188	0xb9543db7	-0.00020240886
189	0x391fd5bb	0.00015243042
190	0x39abf39e	0.0003279717
191	0xb8af21fe	-8.350982e-05
192	0x3b0eab98	0.0021769758
193	0x374e8633	1.23098025e-05
194	0x3b3c7b10	0.0028759874
195	0xbb146c43	-0.0022647537
196	0x3b9a1bf0	0.0047030374
197	0xb9870a86	-0.00025757047
198	0x3ba2f675	0.0049732276
199	0xbac4559a	-0.0014979125
200	0xbba89596	-0.005144785
201	0xbaa99481	-0.0012937934
202	0x3b129f58	0.0022372808
203	0xba1951fa	-0.0005848702
204	0x3aacae38	0.001317448
205	0x3b4545bc	0.003010138
206	0x3a27d282	0.00064019125
207	0xbb4565c4	-0.0030120471
208	0x3abb8ab9	0.001430831
209	0x3b36b67f	0.0027879772
210	0x39f1ebb7	0.00046142723
211	0xb7ccaf85	-2.4400428e-05
212	0xba9d63c5	-0.0012007883
213	0x3a9d31b3	0.0011992961
214	0x3b8d97ba	0.0043210657
215	0xba03f114	-0.0005033177
216	0xbb0da71e	-0.0021614502
217	0xba919454	-0.0011106827
218	0xb9bd0bd2	-0.00036057696
219	0xba2cb030	-0.0006587533
220	0xbb99b989	-0.004691307
221	0xbb7b1b18	-0.003831571
222	0xbb038c55	-0.0020072658
223	0x3b6a1bc7	0.0035722123
224	0x3b0f98f2	0.002191123
225	0x3a9963a2	0.0011702667
226	0xbb6bac77	-0.0035960951
227	0x3b57db3d	0.0032937073
228	0xbad63f46	-0.0016345761
229	0x39d556ac	0.00040691101
230	0xba06cdd4	-0.0005142365
231	0xbb6dccda	-0.003628543
232	0x3acdd19a	0.0015702725
233	0xbb834dcc	-0.004007077
234	0x3b61ed7b	0.0034473825
235	0x3b891ff2	0.0041847164
236	0x3b8afa4c	0.0042412635
237	0x3a709f43	0.0009179005
238	0xb99cc95b	-0.0002990466
239	0x3b5bfeb0	0.0033568554
240	0x3b21f081	0.0024710002
241	0x3af0d83d	0.0018374991
242	0xba306b35	-0.0006729842
243	0x3b3b2dfa	0.002856134
244	0x3af1d368	0.0018449845
245	0xba30194c	-0.0006717637
246	0x3aa9e38a	0.0012961489
247	0x3a62c497	0.000865051
248	0x3ba06c55	0.0048957267
249	0xba315ed0	-0.00067661423
250	0xbac3530b	-0.0014902068
251	0x3ac58ce7	0.0015071899
252	0x39b8f31f	0.00035276354
253	0x3a6ef953	0.00091161317
254	0xba961f7b	-0.0011453474
255	0x3a56bbe8	0.00081914524

lstm.lstm2.bias_ih_l0 f4 [256]
0	0x3c51eaee	0.012812359
1	0x3b4ae988	0.003096195
2	0x3b5b893c	0.0033498546
3	0xbc685b6b	-0.014181952
4	0x3c9d461a	0.019198466
5	0xb9ab5aba	-0.00032683258
6	0xbad4431b	-0.0016194315
7	0x3c23056b	0.009950022
8	0xbb0a3519	-0.0021088778
9	0xbb5c8672	-0.0033649472
10	0x3a1623bc	0.0005727371
11	0x3b78bd71	0.0037954713
12	0xbc00b594	-0.007855792
13	0x3b28f94f	0.0025783365
14	0xb769775d	-1.3915674e-05
15	0xbcb88c46	-0.022527825
16	0x3a87e17d	0.0010366883
17	0x3d3efe7e	0.04662942
18	0xba7a2644	-0.0009542445
19	0x3be064a7	0.006847936
20	0x3d13e053	0.036102604
21	0x3b43a31d	0.0029851862
22	0xbb48251c	-0.0030539697
23	0xb9db468c	-0.00041823497
24	0xbb42815f	-0.0029679162
25	0xbb5d9c74	-0.0033815177
26	0xbcb1ca4d	-0.02170291
27	0x3b10fb34	0.0022122385
28	0x3b682ef2	0.0035428372
29	0x3ca29b80	0.019849539
30	0xbc23f074	-0.010006059
31	0x3cc9f1a3	0.024651354
32	0x3a1fe111	0.0006098906
33	0xba77546a	-0.0009434881
34	0xbc745150	-0.014911965
35	0xba6ce99e	-0.0009037497
36	0xbb84b534	-0.0040499214
37	0x3b5efccc	0.003402519
38	0x3b6fd9f1	0.003659841
39	0x3ba7295b	0.0051013655
40	0xbc47e16a	-0.012199739
41	0x3a098d2c	0.00052471715
42	0x3c7b8fbf	0.015354096
43	0x3ba8e6a8	0.0051544495
44	0xbbc5346f	-0.0060182135
45	0xbab2a262	-0.0013628716
46	0x3b75fffd	0.0037536614
47	0xbc9fc4ad	-0.019502962
48	0xbcda4075	-0.026642064
49	0x3d1a7837	0.037712302
50	0x3a88cc0f	0.0010436791
51	0x3c1cff2c	0.009582322
52	0xbbe37be0	-0.0069422573
53	0xba772805	-0.00094282656
54	0x3ad8dfa9	0.0016546148
55	0xbbe9cc08	-0.007134918
56	0xbb2a5ecf	-0.0025996452
57	0xbc19a611	-0.009377972
58	0xbb1b2ec8	-0.0023679007
59	0xb86983ca	-5.5674267e-05
60	0x3a01ab59	0.0004946492
61	0xbc1c2e08	-0.009532459
62	0xbb879d7e	-0.0041386476
63	0xb9db8c0e	-0.00041875284
64	0xba356ac3	-0.0006920511
65	0x38100d75	3.434481e-05
66	0xbca3563b	-0.019938579
67	0xbd3e306c	-0.046432897
68	0x3d6cc47c	0.05780457
69	0x3986dd93	0.00025723557
70	0xbac018e8	-0.001465586
71	0xbb8275bc	-0.00398132
72	0x3b103175	0.0022002135
73	0xba9fc339	-0.0012188918
74	0xbb797633	-0.0038064837
75	0xbba4f73a	-0.0050343545
76	0xbc2597ba	-0.010106975
77	0x3ad39660	0.0016142838
78	0xb99768ea	-0.0002887913
79	0xbbf55e2f	-0.007488034
80	0xbac646f3	-0.0015127346
81	0x3c712dfa	0.014720434
82	0xba3fa626	-0.000731083
83	0xbac7c369	-0.0015240732
84	0xbc285fdb	-0.01027676
85	0x3aacf207	0.0013194688
86	0xbaa3a933	-0.0012486338
87	0xb9b5fb64	-0.0003471031
88	0xbb0a2769	-0.002108062
89	0xba7d3665	-0.00096592895
90	0xbc8d63ce	-0.017259505
91	0xbc965335	-0.018350223
92	0xbc70234f	-0.014656856
93	0x3b05264c	0.0020317016
94	0xbc1c6cac	-0.009547394
95	0x3c4b2512	0.012398975
96	0xbc56e6ad	-0.013116521
97	0xbc3defe0	-0.011592835
98	0xbc0b292e	-0.008493705
99	0xbb959b98	-0.0045656674
100	0x3a8788c7	0.0010340445
101	0xbac11e9e	-0.0014733856
102	0xbb361b4d	-0.0027787269
103	0xb9859a6d	-0.00025482793
104	0x3bf85159	0.007578057
105	0x38a9bf65	8.094198e-05
106	0xba9c05fa	-0.0011903637
107	0xb94bfd91	-0.0001945405
108	0x3a0c30e5	0.0005347862
109	0xbba94565	-0.005165743
110	0x3a6290a1	0.0008642767
111	0xbb0bceb4	-0.0021332921
112	0xbaf571d4	-0.001872594
113	0xbc8851c1	-0.016640546
114	0x3ad69f62	0.0016374404
115	0xbb441eb9	-0.0029925539
116	0x3905827d	0.00012732479
117	0xbb86c54d	-0.0041128756
118	0xbb37dcef	-0.002805527
119	0xbcc7464a	-0.024325509
120	0xbb301ea9	-0.0026873744
121	0x3a92b640	0.0011193231
122	0xbb15d4c1	-0.0022862407
123	0xb92e3919	-0.00016615204
124	0xb9af95fa	-0.00033490342
125	0xba986e90	-0.001162963
126	0xbb6c8ea6	-0.0036095767
127	0xb9a5f205	-0.0003165157
128	0xbce4f962	-0.027950946
129	0x3daaf3d1	0.083472855
130	0x3dd6e95d	0.10493729
131	0x3dd748db	0.10511943
132	0xbbb66fc5	-0.005567523
133	0x39e52a83	0.00043709957
134	0xbd92cba1	-0.071677454
135	0xbd570db0	-0.052503288
136	0xbd495bd6	-0.049159847
137	0x3cbb6f8a	0.022880334
138	0x3d557734	0.052115634
139	0x3a0e6039	0.00054312084
140	0xbc14f1c4	-0.009090845
141	0x3d8a83fb	0.067634545
142	0x3cefa3f8	0.029252991
143	0xbd7adbbc	-0.06124471
144	0x3d60adfe	0.054853432
145	0xbc7c4c41	-0.01539904
146	0x3cb1d917	0.021709962
147	0x3d5d18ae	0.053978615
148	0x3d8714ae	0.06595741
149	0x3d439f29	0.04775921
150	0x3d5d10d3	0.053971123
151	0x3ca14042	0.01968396
152	0xbc858a12	-0.016301189
153	0xbd3e0bf2	-0.04639811
154	0x3d4e1c5e	0.05032002
155	0x3cb7daf6	0.022443276
156	0x3c71071b	0.014711167
157	0xbd5b930a	-0.053607024
158	0x3d99c75d	0.07508729
159	0xbcd1d4c1	-0.025614144
160	0x3dde3123	0.10849216
161	0x3d30ff85	0.043212432
162	0xbd7830bd	-0.060593355
163	0xbc84f70b	-0.01623108
164	0x3dea8a3c	0.11452147
165	0x3ce3ddfe	0.027815815
166	0xbc41031e	-0.011780528
167	0x3d823166	0.06357078
168	0x3d83d074	0.06436244
169	0x3d2d1534	0.04225655
170	0x3d92ce4f	0.071682565
171	0xbd217c0c	-0.03942494
172	0x3d9a3e87	0.075314574
173	0xbd820c17	-0.06349962
174	0x3d30a66d	0.043127466
175	0x3da77116	0.08175866
176	0x3af604b4	0.0018769712
177	0x3ddd07e6	0.10792522
178	0xbd95b657	-0.07310169
179	0xbcdfa163	-0.027298635
180	0x3d3dd963	0.046349894
181	0xbd1b1c66	-0.03786888
182	0xbc8989b1	-0.01678929
183	0xbdc0199d	-0.09379885
184	0x3ae9e577	0.0017844875
185	0x3d2571ab	0.040391605
186	0x3d912721	0.07087541
187	0xbd2d7d9c	-0.04235612
188	0x3d4a305d	0.04936253
189	0x3da3e7c3	0.080031894
190	0x3ce65299	0.028115558
191	0xbd76efd5	-0.060287315
192	0x3c0bef19	0.008540892
193	0x3b24b672	0.002513316
194	0x3b1ccf72	0.0023927358
195	0x3d1d90e8	0.03846827
196	0x3d5379aa	0.0516297
197	0xb88350d3	-6.2616215e-05
198	0x3b9f7a86	0.004866901
199	0x3bfd7f0e	0.0077360934
200	0xba92493c	-0.0011160742
201	0xbb29a7f4	-0.0025887461
202	0x3be7564e	0.007059849
203	0xba39a927	-0.00070823956
204	0xbc910294	-0.017701425
205	0x3c972b7a	0.018453348
206	0xb9797ed7	-0.00023793742
207	0xba4d27d1	-0.00078260625
208	0x3c61a723	0.013772759
209	0x3d2a981c	0.04164897
210	0xbc44b848	-0.012006827
211	0x3b858ca5	0.004075604
212	0xbca64f48	-0.020301476
213	0x3bbb0eb1	0.0057085385
214	0xbb031c05	-0.0020005715
215	0x3ae1d86a	0.0017230634
216	0xbaea0433	-0.0017854035
217	0xb98e4f23	-0.00027143312
218	0xbbeed90d	-0.007289058
219	0xbc2f82e0	-0.010712355
220	0x3c8ea1fd	0.017411226
221	0xbd32892e	-0.043587856
222	0x3b1adb9b	0.002362943
223	0x3d20087d	0.039070595
224	0xbc72608f	-0.014793529
225	0x3c533076	0.012889972
226	0x3c2c8fda	0.010532344
227	0xbc529b6b	-0.012854437
228	0x3bfb754c	0.007673895
229	0x3bfcd8a9	0.0077162576
230	0x3b72330c	0.0036956696
231	0x3b98a064	0.004657792
232	0xbbdfecee	-0.006833664
233	0x3a9923b2	0.0011683612
234	0x3c252868	0.010080434
235	0x3d0683a0	0.03284037
236	0xbc54bddc	-0.012984719
237	0x3b065c62	0.0020501842
238	0x3a048787	0.00050555955
239	0xbc9c1716	-0.019053977
240	0xbbe96ec5	-0.0071238005
241	0xbc802191	-0.015641006
242	0x3a654141	0.00087453803
243	0xba9486cf	-0.001133168
244	0xbb703d73	-0.003665772
245	0xbc464556	-0.012101492
246	0x3a46969f	0.0007575545
247	0x3ac25018	0.0014824895
248	0x3d0a4330	0.03375548
249	0xbc969346	-0.018380772
250	0xbb4989a3	-0.0030752204
251	0x3b81b418	0.0039582364
252	0x3836c671	4.3576994e-05
253	0xbc542b75	-0.012949814
254	0xbc1cbe7d	-0.0095669
255	0xba11dafc	-0.0005563942
