073123/hoxy_model2.pth (torch, 468236 bytes, 32 tensors)

lstm.lstm1.weight_ih_l0 f4 [256, 12]
0	0xbcb3005e	-0.021850761
1	0x3d60ce58	0.054884285
2	0x3d233e54	0.039854363
3	0xbd8cebbd	-0.06880901
4	0xbd93884a	-0.072037295
5	0x3d2430cb	0.040085595
6	0x3c5b0e3f	0.013370096
7	0xbaf20a81	-0.0018466265
8	0xbbe6d6c2	-0.007044644
9	0xbbe69bc2	-0.0070376107
10	0xbde242ac	-0.11047873
11	0xbddabb1c	-0.106802195
12	0xbc22c800	-0.009935379
13	0xbdb403d4	-0.08789793
14	0xbde82fc0	-0.113372326
15	0xbd407389	-0.046985183
16	0xbdda8416	-0.10669725
17	0x3ded96a0	0.11600995
18	0xbcc3c847	-0.02389921
19	0x3dcc8545	0.09986357
20	0xbbfad5f9	-0.007654902
21	0xbdcf2d10	-0.10116017
22	0xbdfe9469	-0.12430651
23	0x3da17a03	0.078846
24	0xbd906ba5	-0.070517816
25	0xbd2185b0	-0.039434135
26	0xbdc758a6	-0.09733705
27	0xbdbda0e3	-0.09259202
28	0xbdced1f6	-0.100986406
29	0x3c62096c	0.013796192
30	0x3daca5a9	0.08430035
31	0xbe104f26	-0.14092693
32	0x3b1bf2a7	0.0023795755
33	0x3d39c37c	0.045352444
34	0xb9a1a5c9	-0.00030831833
35	0xbac98753	-0.0015375413
36	0xbd0af8fb	-0.033928853
37	0x3d4cd610	0.050008833
38	0xbd9a8244	-0.075443774
39	0x3dbe5f7a	0.092955545
40	0x3de3a999	0.111163326
41	0x3dd66b31	0.10469664
42	0x3d876a8b	0.06612118
43	0xbd8c28ec	-0.06843743
44	0xbd82ddee	-0.06389986
45	0xbc2da09a	-0.010597372
46	0xbdf6590a	-0.120287016
47	0x3d9b27d3	0.07575955
48	0x3d77193a	0.060326792
49	0xbd059b09	-0.032618556
50	0xbdaa4373	-0.08313646
51	0x3d83373c	0.064070195
52	0x3c3a4318	0.011368535
53	0xbcce9090	-0.025215417
54	0x3d66e512	0.056370802
55	0xbe17d041	-0.14825536
56	0xbdaea0ae	-0.08526741
57	0xbd42e056	-0.047577225
58	0xbd5afd54	-0.05346425
59	0xbdf97eb9	-0.121823736
60	0xbd9cb520	-0.07651734
61	0x3b56e76a	0.0032791742
62	0xbcaf1f12	-0.02137712
63	0x3e002d89	0.1251737
64	0xbd6efa2b	-0.058344048
65	0xbd6a9daa	-0.057279266
66	0xbde5c32c	-0.11218867
67	0x3dd1c561	0.10242725
68	0xbd4bcf5f	-0.04975831
69	0xbdba6387	-0.091010146
70	0x3d4db8b3	0.05022497
71	0xbbb48cef	-0.0055099647
72	0xbd410dd9	-0.047132347
73	0xbd9b77bb	-0.07591196
74	0x3d604e09	0.05476192
75	0xbcbf28f5	-0.02333496
76	0x3c34e8e7	0.011041856
77	0xbd21dc51	-0.03951675
78	0x3dbdb283	0.09262564
79	0x3e1c98d7	0.15292679
80	0xbca28e6a	-0.019843299
81	0xbd2d79af	-0.042352375
82	0xbd86984e	-0.065720186
83	0x3e08b3af	0.13349794
84	0x3dda544b	0.10660609
85	0x3bff851e	0.007797851
86	0xbc3482bf	-0.0110175
87	0x3e1419c8	0.1446296
88	0xbd0a98e1	-0.033837203
89	0x3d4b3571	0.049611513
90	0x3e1e818b	0.15479104
91	0x3e2a62bd	0.16639228
92	0xbd5c7be9	-0.053829107
93	0x3dbd2aab	0.09236654
94	0xbca59ef8	-0.020217404
95	0xbde94e17	-0.113918476
96	0xbca3e9e7	-0.020008994
97	0x3d25b656	0.040457092
98	0xbd80ef84	-0.06295684
99	0x3e17fd35	0.14842685
100	0xbd7d0cd2	-0.061779805
101	0xbd686128	-0.05673328
102	0x3dd83134	0.1055626
103	0xbc87cf22	-0.01657826
104	0xbd79b8f0	-0.060967386
105	0x3cf15ea4	0.029464073
106	0x3d1d18d1	0.038353745
107	0x3dc327fe	0.09529112
108	0x3d8e8172	0.069582835
109	0x3e00df91	0.12585284
110	0xbd93c3ce	-0.07215081
111	0xbd6bef3c	-0.0576012
112	0xbda290da	-0.079377845
113	0xbd9c06b9	-0.0761847
114	0x3def13c1	0.1167369
115	0x3bd891f1	0.0066091944
116	0x3dd7b4ee	0.105325565
117	0x3e0489cc	0.1294319
118	0x3d82e2ea	0.06390937
119	0xbce9324d	-0.028466368
120	0x3da1c7ad	0.07899413
121	0xbe02093a	-0.12698832
122	0x3d86ba27	0.065784745
123	0x3d89983b	0.06718489
124	0xba833c71	-0.001001252
125	0xbe07a50a	-0.13246551
126	0x3d4211fa	0.047380425
127	0xbdc0e548	-0.09418732
128	0x3d960a42	0.07326175
129	0x3cb9a876	0.022663336
130	0x3d82eac8	0.06392437
131	0x3df34582	0.11878492
132	0xbd9c152e	-0.07621227
133	0xbd23b037	-0.039962973
134	0x3e17a369	0.1480843
135	0x3d1e049d	0.03857862
136	0x3d8f9c67	0.07012253
137	0x3e01185b	0.12606947
138	0xbd6abc05	-0.057308216
139	0x3d098311	0.03357226
140	0x3b0ed2d1	0.0021793137
141	0x3d4685d9	0.04846749
142	0xbcb4954c	-0.022043847
143	0x3e1677a5	0.14694078
144	0x3d39a616	0.045324408
145	0xbdab721a	-0.083713725
146	0x3da1b95e	0.07896684
147	0xbd43d501	-0.04781056
148	0xbe013632	-0.1261833
149	0x3db04138	0.086061895
150	0xbca7d662	-0.020487968
151	0xbd8f1b1f	-0.06987595
152	0xbd3eff5f	-0.04663026
153	0xbd655dd6	-0.055997692
154	0x3d1c8a22	0.03821767
155	0x3cd68618	0.026186988
156	0x3e06f3dc	0.13178962
157	0x3ba3c03b	0.004997281
158	0xbc7b01d2	-0.015320258
159	0x3e220d2a	0.15825334
160	0xbc8528e1	-0.016254844
161	0x3cd09921	0.025463643
162	0x3da30735	0.07960359
163	0x3d1264a2	0.035740502
164	0xbda8946b	-0.082314335
165	0x3d8d9685	0.06913475
166	0x3df61ff5	0.12017814
167	0x3d027d04	0.031857505
168	0x3d7efe51	0.062254254
169	0xbc909895	-0.017650882
170	0x3d86f55b	0.065897666
171	0xbd933a98	-0.0718891
172	0xbd948048	-0.0725103
173	0xbdc7c36b	-0.0975407
174	0xbab20775	-0.0013582545
175	0xbd3ce54d	-0.046117116
176	0xbd2dd810	-0.04244238
177	0x3dea37d7	0.11436432
178	0x3ce01658	0.027354404
179	0x3e10a330	0.14124751
180	0xbc3c359f	-0.011487394
181	0x3d8a30ad	0.067475654
182	0x3db181dc	0.08667347
183	0xbd0bf782	-0.03417159
184	0xbcf60f72	-0.030036662
185	0x3ded0d1a	0.115747645
186	0xbd153f4d	-0.03643732
187	0x3d848137	0.06469958
188	0x3c9c76c4	0.0190996
189	0x3d5e2d96	0.054242693
190	0xbd6fe6cf	-0.058569726
191	0x3d98de47	0.07464271
192	0xbde4610e	-0.11151324
193	0xba1843cd	-0.0005808443
194	0x3d9077e2	0.07054116
195	0x3df3471c	0.118787974
196	0xbcff1506	-0.031137954
197	0xbddc8cba	-0.10769029
198	0xbdc17a3f	-0.09447145
199	0x3d5cef45	0.053939123
200	0xbd431d54	-0.04763539
201	0x3d54d27b	0.051958542
202	0xbde7f96c	-0.1132687
203	0x3c21fafd	0.0098865
204	0xbd2b0707	-0.04175475
205	0xbd4839b4	-0.048883155
206	0xbd989d51	-0.07451881
207	0xbdf8ee45	-0.12154821
208	0xbdc2d5bc	-0.09513423
209	0xbdbeec70	-0.093224406
210	0x3dae9ad8	0.08525628
211	0xbdf255d9	-0.118327804
212	0x3dc1f210	0.09469998
213	0x3d26e482	0.040745266
214	0x3d308684	0.043097034
215	0x3d51157d	0.051045883
216	0xbdb52a1f	-0.088459246
217	0xbd620d43	-0.05518843
218	0xbd5c6ea4	-0.053816453
219	0xbd999ae1	-0.07500244
220	0xbdf00f68	-0.117216885
221	0xbd5c0f50	-0.05372554
222	0xbe1d6d87	-0.15373813
223	0xbe0a8a3c	-0.13529295
224	0xbdc6e8d3	-0.097123764
225	0x3cad49da	0.02115338
226	0xbe1e19f4	-0.15439588
227	0xbdf6e04c	-0.120545
228	0x3d8f7f94	0.070067555
229	0x3dc74c8a	0.097313955
230	0xbca62f22	-0.020286147
231	0xbcc5e893	-0.024158752
232	0xbcfb1ff5	-0.030654887
233	0xbcf808ff	-0.030277727
234	0x3db0ea65	0.08638457
235	0x3d891cd9	0.066949554
236	0xbdb52c6e	-0.08846365
237	0xbdc222bb	-0.094792806
238	0xbdded0e6	-0.10879688
239	0x3c199c46	0.009375637
240	0xbdf3329b	-0.118748866
241	0x3d70300f	0.058639582
242	0xbd969834	-0.07353249
243	0x3bd3431f	0.0064472104
244	0x3cd699f7	0.026196463
245	0x3c08636a	0.008324483
246	0xbc58961d	-0.013219384
247	0x3c526f71	0.0128439525
248	0xbd8c9e3c	-0.06866118
249	0xbd8b68ce	-0.06807099
250	0xbd907e28	-0.070553124
251	0x3d406dc7	0.04697969
252	0xbd491493	-0.049091887
253	0xbcb5aed3	-0.02217809
254	0x3d9ecee5	0.07754306
255	0x3b2df428	0.0026543234

lstm.lstm1.weight_hh_l0 f4 [256, 64]
0	0x3d26bbd5	0.040706474
1	0x3de6f9b9	0.112780996
2	0x3e1b259b	0.15151064
3	0x3e01f8d3	0.12692575
4	0xbd2d2693	-0.042273115
5	0x3da0fc32	0.078606024
6	0x3a1c6fcc	0.0005967587
7	0x3da7af4e	0.081877336
8	0x3dac0858	0.08400029
9	0xbdf48713	-0.11939826
10	0x3d60a592	0.0548454
11	0x3d17aa37	0.037027564
12	0xbe05668e	-0.13027403
13	0x3cd15a7b	0.02555584
14	0xbdb04704	-0.08607295
15	0x3d9112a2	0.07083632
16	0xbde79bab	-0.11308988
17	0x3dfd22bc	0.12360141
18	0x3e161009	0.14654554
19	0xbdd987a7	-0.10621577
20	0x3d3f570d	0.046713877
21	0x3d84008f	0.06445419
22	0xbdd5e02b	-0.10443147
23	0xbbf9c5eb	-0.0076224706
24	0x3c7d3365	0.015454148
25	0xbda6b0ed	-0.08139215
26	0xbe1711cd	-0.14752884
27	0xbda62a9f	-0.08113598
28	0xbc53e33a	-0.012932593
29	0x3d791699	0.060812566
30	0xbd91eccc	-0.071252435
31	0x3b7cc965	0.003857219
32	0x3deb95bc	0.11503169
33	0xbdc86944	-0.09785703
34	0xbd866c6e	-0.0656365
35	0x3dbb7049	0.09152276
36	0x3e00fc90	0.12596345
37	0x3d81284c	0.06306514
38	0xbcd3855c	-0.025820427
39	0xbdd2b0db	-0.10287639
40	0xbb8215b8	-0.0039698742
41	0xbcafe5ea	-0.021471936
42	0x3cbcfff8	0.023071274
43	0x3d56c884	0.05243732
44	0x3d6d3c29	0.0579187
45	0xbddfb26f	-0.109227054
46	0xbd09ad2f	-0.033612426
47	0xbe09116b	-0.1338555
48	0xbdafcdd2	-0.08584179
49	0x3d894c7a	0.0670404
50	0xbdd75669	-0.10514528
51	0x3d441337	0.047869887
52	0xbdd1dafa	-0.102468446
53	0x3d182855	0.03714784
54	0x3d21b769	0.039481554
55	0xbb81b44a	-0.0039582597
56	0x3db17280	0.08664417
57	0xbbeb9984	-0.0071899313
58	0xbcb82c64	-0.022482105
59	0x3de02dfd	0.109462716
60	0xbdfb1edd	-0.12261746
61	0xbcf91ebb	-0.030410161
62	0xbb8ea3c9	-0.004353021
63	0x3d80a070	0.06280601
64	0xbde9b423	-0.114113115
65	0xbdd4a1e5	-0.103824414
66	0x3d67d2fe	0.056597702
67	0xbc98ccc1	-0.018652322
68	0x3af600ad	0.0018768512
69	0x3cc98262	0.024598304
70	0xbdd5c3ed	-0.104377605
71	0x3dd12cea	0.10213645
72	0x3dea0a60	0.1142776
73	0x3de124d7	0.10993355
74	0xbd680d03	-0.056653034
75	0xbdc7e31d	-0.09760115
76	0x3c87c1c9	0.016571896
77	0xbd0a6741	-0.033789877
78	0x3de55676	0.11198132
79	0x3cb1138b	0.021615764
80	0x3b6031c6	0.0034209355
81	0xbcad60e3	-0.021164363
82	0x3dada395	0.084784664
83	0xbd109f61	-0.035308246
84	0xbe1d7a28	-0.1537863
85	0xbc7fcf01	-0.015613318
86	0xbcbd877b	-0.023135891
87	0xbd999743	-0.07499554
88	0x3d1989c9	0.037484918
89	0x3dd37be1	0.103263624
90	0x3b9691e0	0.0045950264
91	0x3daae74f	0.083449
92	0x3d1dd276	0.03853079
93	0xbd8e927a	-0.06961532
94	0xbd0dc470	-0.034611166
95	0x3d70867d	0.058722008
96	0xbd26faa0	-0.04076636
97	0x3da3705e	0.07980417
98	0x3da36e9c	0.079800814
99	0xbdd4fae6	-0.103994176
100	0x3d073856	0.03301271
101	0x3d0467c3	0.032325517
102	0x3e06c1e6	0.13159904
103	0xba8b929e	-0.0010648554
104	0xbd791a49	-0.060816083
105	0xbdc63575	-0.09678165
106	0xbda0d385	-0.07852844
107	0xbdc74df7	-0.097316675
108	0xbd2d475e	-0.04230439
109	0xbc3112ff	-0.010807752
110	0x3dfd770d	0.12376223
111	0x3c2272f4	0.009915102
112	0xbd2e8849	-0.04261044
113	0xbdfe07a4	-0.12403801
114	0xbc55722c	-0.013027709
115	0xbe29e1c7	-0.16590033
116	0xbde34c67	-0.11098557
117	0x3dad4c29	0.08461792
118	0x3da32627	0.07966261
119	0xbc45fb55	-0.012083848
120	0xbd92386e	-0.07139669
121	0xbd850e9c	-0.06496927
122	0xbda1c957	-0.07899731
123	0x3c86c3f3	0.016450858
124	0xba34eb04	-0.0006901475
125	0xbe131f23	-0.14367346
126	0xbde0624b	-0.10956248
127	0xbdd23dce	-0.102656946
128	0x3e033f0b	0.12817018
129	0x3db3eb75	0.08785144
130	0xbde4b6cd	-0.11167679
131	0xbe160ea9	-0.1465403
132	0xbd41cc34	-0.047313884
133	0x3dd1222b	0.10211595
134	0x3da47a72	0.08031167
135	0xbc1d2ba7	-0.009592927
136	0xbd2e7998	-0.04259643
137	0xbc8b8363	-0.017030424
138	0x3dd4e9fc	0.103961915
139	0xbcfce5a7	-0.030871226
140	0x3c17029d	0.009216932
141	0xbddbf286	-0.10739617
142	0xbc9e7ae6	-0.019345712
143	0xbc96f5a6	-0.018427681
144	0x3dc104a5	0.09424714
145	0x3d92e1a8	0.07171947
146	0xbd2fdcb1	-0.042935077
147	0xba96f960	-0.0011518411
148	0x3befa3e6	0.0073132394
149	0x3d969d65	0.073542394
150	0xbc937e60	-0.018004596
151	0xbdc86aed	-0.097860195
152	0x3dd2608d	0.10272322
153	0xbe0a1027	-0.13482724
154	0xbc89a3a0	-0.016801655
155	0x3cc59c27	0.02412231
156	0x3d2435eb	0.040090483
157	0x3e217ae1	0.15769531
158	0xbd02bc46	-0.031917833
159	0xbdd8832e	-0.105718955
160	0x3d825834	0.0636448
161	0x3dafb717	0.085798435
162	0xbd9438c9	-0.072373934
163	0x3e0993f7	0.1343535
164	0x3dae714b	0.08517703
165	0xbc2ab126	-0.010418212
166	0xbdc4159d	-0.09574435
167	0xbd57b9fd	-0.052667607
168	0xbc491957	-0.012274108
169	0xbdf50940	-0.11964655
170	0xbd0aef7e	-0.033919804
171	0x3e21c8e2	0.15799287
172	0xbae2ec85	-0.001731292
173	0xbdb6d5fe	-0.089275345
174	0x3cd7729b	0.026299765
175	0xbd8a05a1	-0.06739355
176	0x3dce5b21	0.10075975
177	0x3d7ff6cf	0.062491234
178	0xbc46e4e9	-0.012139537
179	0xbe018416	-0.12648043
180	0x3e18a5a8	0.14906943
181	0x3de5fc19	0.112297244
182	0x3db51c3e	0.088432774
183	0x3c9aad68	0.018881515
184	0x3d9aa271	0.075505145
185	0x3d237179	0.039903138
186	0xbdd80326	-0.105474755
187	0xbd9e32e1	-0.07724548
188	0x3e185daa	0.1487948
189	0x3d5668ad	0.05234592
190	0x39cabd45	0.0003866946
191	0xbdad804a	-0.08471735
192	0x3d955522	0.072916284
193	0x3d0e736a	0.034778036
194	0x3c5f4ad4	0.01362868
195	0xbd8fe3db	-0.07025882
196	0x3e061700	0.13094711
197	0xbdb05011	-0.086090215
198	0xbda1d603	-0.079021476
199	0xbe0c90ff	-0.13727187
200	0x3dc11a87	0.09428888
201	0xbd3c78d7	-0.04601368
202	0xbd9049cb	-0.07045325
203	0x3d49e40c	0.049289748
204	0xbd59b18e	-0.053147845
205	0xbd5204d6	-0.051274143
206	0x3daa312d	0.08310161
207	0x3dc3739d	0.09543536
208	0x3d538a21	0.051645402
209	0x3d88d73d	0.066816784
210	0x3d6309af	0.055429157
211	0x3dc9118c	0.098178
212	0x3dccffee	0.10009752
213	0x3d370bef	0.044689115
214	0xbda411db	-0.08011218
215	0x3ca37987	0.01995541
216	0x3daa0346	0.083014056
217	0xbd391ef1	-0.045195524
218	0x3ddb95be	0.107219204
219	0x3ddcde81	0.10784627
220	0xbdd07d7f	-0.101801865
221	0x3d909ed4	0.07061544
222	0xbd0c7975	-0.034295518
223	0x3d8521b5	0.0650057
224	0xbe0169f0	-0.12638068
225	0x3d5691d7	0.052385177
226	0x3db60eaf	0.088895194
227	0xbdaac58d	-0.08338461
228	0xbda62293	-0.08112063
229	0x3dc50393	0.09619822
230	0xbdfa2e7c	-0.122158974
231	0x3ddd1e28	0.107967675
232	0x3dd19682	0.10233785
233	0x3dcc2e5b	0.09969779
234	0x3df85c37	0.121269636
235	0x3e1fb89c	0.15597767
236	0x3ded2449	0.115791865
237	0x3e1c087c	0.15237612
238	0xbe0fb3b0	-0.14033389
239	0xbd796823	-0.06089033
240	0x3d2478a3	0.04015411
241	0x3d449d57	0.048001613
242	0x3cae3370	0.021264762
243	0x3dab597d	0.08366678
244	0x3df40511	0.11915029
245	0x3dd31d88	0.10308367
246	0x3a9cdc97	0.0011967596
247	0xbc43926b	-0.011936764
248	0xbda6a5f1	-0.081371196
249	0x3ca3e845	0.020008216
250	0x3d21acf7	0.039471593
251	0x3ceacb03	0.028661257
252	0x3da3ba7a	0.07994552
253	0x3dbb18a9	0.09135563
254	0xbda02409	-0.07819373
255	0x3da4915f	0.0803554

lstm.lstm1.bias_ih_l0 f4 [256]
0	0xbc634753	-0.0138719855
1	0x3dbebab5	0.09312955
2	0xbc41f390	-0.011837855
3	0xbdeaed3f	-0.11471032
4	0x3da1d456	0.07901828
5	0xbd4b7a3f	-0.04967713
6	0xbd9b54bb	-0.075845204
7	0xba4d147d	-0.00078231824
8	0x3dc68060	0.09692454
9	0x3df07b48	0.11742264
10	0x3ce6211a	0.028091956
11	0x3ce4ee76	0.027945738
12	0xbd812d46	-0.06307463
13	0x3db9f8bd	0.09080646
14	0xbb69705e	-0.0035619955
15	0xbd366817	-0.04453286
16	0xbc387265	-0.0112577425
17	0x3d871d96	0.0659744
18	0x3b6079ae	0.0034252214
19	0xbd4a0303	-0.04931928
20	0x3d544879	0.051826928
21	0x3d5765aa	0.05258719
22	0x3daa6341	0.083197124
23	0x3e181eb8	0.14855468
24	0xbd66872d	-0.056281257
25	0xbd25a5fe	-0.040441506
26	0x3d64fcb4	0.05590506
27	0xbc9be180	-0.019028425
28	0x3dff744d	0.124733545
29	0x3d9fd8d0	0.078050256
30	0x39ac09c1	0.00032813664
31	0xbd04c8dc	-0.032418117
32	0x3d39ed65	0.045392413
33	0xbd5c67c0	-0.05380988
34	0x3d5478f9	0.05187318
35	0xbd00fd99	-0.03149185
36	0x3de717b8	0.11283821
37	0xbdfc2705	-0.1231213
38	0x3d78663b	0.06064437
39	0xbdc7e435	-0.09760324
40	0x3c88e8d2	0.01671258
41	0xbc7ff935	-0.01562338
42	0x3deed9f4	0.11662665
43	0x3dc1d068	0.094635785
44	0xbd9332ab	-0.071873985
45	0x3d70f88c	0.058830783
46	0x3dc2585f	0.09489512
47	0x3d6b1d06	0.057400726
48	0xbc6813ad	-0.014164847
49	0x3d84639c	0.064643115
50	0x3da48cf1	0.08034695
51	0x3e2d8b6e	0.1694772
52	0xbe121c32	-0.14268568
53	0x3ded9929	0.116014786
54	0x3deba559	0.11506147
55	0x3df277d3	0.11839261
56	0xbdec2194	-0.11529842
57	0xbe0c76d9	-0.13717212
58	0xbdd75a1f	-0.10515236
59	0x3ca8ea9e	0.020619687
60	0xbdefea4b	-0.1171461
61	0xbe26f0da	-0.16302815
62	0xbdacb412	-0.08432783
63	0x3d9b01cd	0.07568703
64	0x3dcb1d1c	0.099176615
65	0x3c16b2f3	0.009197938
66	0x3ce44a54	0.027867474
67	0x3db89757	0.09013241
68	0x3d9a8baa	0.0754617
69	0xbdac486a	-0.084122494
70	0x3dc0ae3b	0.09408232
71	0x3c1b1bb1	0.009467051
72	0xbd43c0f1	-0.047791425
73	0xbb39818d	-0.0028305978
74	0xbd16a9a6	-0.036782883
75	0x3d09d2be	0.033648245
76	0x3c09eabc	0.008417781
77	0x3b9b4f41	0.0047396724
78	0xbd971951	-0.073778756
79	0x3dacc20d	0.0843545
80	0x3dda69d1	0.10664714
81	0x3dc7e63f	0.09760713
82	0x3b02e318	0.0019971784
83	0xbcf0dc14	-0.029401816
84	0x3c9f7b26	0.019467901
85	0xbdc7c884	-0.09755042
86	0xbd06b366	-0.03288593
87	0xbd324008	-0.043518096
88	0xbc6c356f	-0.014417036
89	0x3b5c9a96	0.0033661476
90	0x3d49b06f	0.049240526
91	0xbcafb59c	-0.021448903
92	0xbd823f95	-0.063597836
93	0xbe2184cf	-0.15773319
94	0xbe0b7086	-0.13617143
95	0xbd2af5be	-0.041738264
96	0x3b39d5db	0.0028356228
97	0x3d92b3ac	0.07163176
98	0xbdecc2b6	-0.11560576
99	0x3cd4338c	0.025903486
100	0xbdb2b8c6	-0.08726649
101	0xbe2247fc	-0.15847772
102	0xbd8cde4d	-0.06878338
103	0x3c8670fe	0.0164113
104	0xbdc20c12	-0.094749585
105	0xbd73ad65	-0.059491534
106	0xbd159a8f	-0.03652435
107	0x3d8c178b	0.06840428
108	0xbdda8962	-0.10670735
109	0x3dc2f601	0.09519578
110	0xbc2de7f9	-0.010614389
111	0x3cef1bd8	0.029188082
112	0x3d83b7ee	0.06431566
113	0x3c62527d	0.013813612
114	0xbd80b334	-0.0628418
115	0xbd2eca4b	-0.04267339
116	0xbde7b581	-0.11313916
117	0xbd83f43d	-0.06443069
118	0xbda30ce8	-0.07961446
119	0xbd0561c3	-0.032563936
120	0x3db80e10	0.08987057
121	0x3d62a964	0.055337325
122	0x3dab4e08	0.08364493
123	0x3d9f50b7	0.07779067
124	0xbdac3793	-0.084090374
125	0xbe173e0f	-0.14769767
126	0x3d4c35b6	0.04985591
127	0x3dd3682a	0.10322602
128	0x3ca23c69	0.019804196
129	0x3db9d1dd	0.09073231
130	0xbcef25fc	-0.029192917
131	0x3bb8583e	0.0056257537
132	0xbda3eeea	-0.080045536
133	0x3c669b15	0.01407506
134	0x3d154d19	0.03645048
135	0x3ca04c58	0.019567654
136	0x3dcd9e94	0.10040012
137	0x3c060c37	0.008181623
138	0xbd874027	-0.06604033
139	0xbd834c39	-0.06411023
140	0x3cdf7743	0.027278548
141	0xbd2ca919	-0.04215345
142	0xbdcaf0ab	-0.09909185
143	0x3da9ebc2	0.0829692
144	0xbdfecbc7	-0.12441211
145	0xbb16756d	-0.0022958175
146	0x3d952a1e	0.07283424
147	0x3db3d7fa	0.08781429
148	0xbdb1e3f0	-0.08686054
149	0x3d2f73e7	0.042835142
150	0x3dcee72f	0.101026885
151	0x3d9c5ffb	0.07635494
152	0xbe0fbdd2	-0.14037254
153	0x3be42f8f	0.0069636772
154	0x3d8dad3e	0.06917809
155	0x3d41f4ce	0.047352605
156	0xbb48985c	-0.0030608391
157	0x3ce3a39d	0.027787978
158	0x3c9a37f2	0.018825505
159	0xbd898e70	-0.06716621
160	0x3da756f9	0.081708856
161	0x3d92d75c	0.07169983
162	0x3c399c87	0.011328823
163	0xbd8460ac	-0.06463751
164	0x3df3d378	0.11905569
165	0x3da05e1e	0.078304514
166	0xbd26479a	-0.04059563
167	0xbc2c0d43	-0.010501209
168	0x3c82ef1e	0.01598316
169	0xbcce49ef	-0.025181739
170	0x3c30896f	0.010774954
171	0xbd85849c	-0.06519434
172	0x3d8edc39	0.06975598
173	0xbd2a6fd2	-0.041610546
174	0x3d01790e	0.031609587
175	0x3c63f1e2	0.01391265
176	0x3cbdde21	0.023177208
177	0x3da5f3ea	0.081031635
178	0x3d73b6ee	0.059500627
179	0x3ddc6762	0.10761906
180	0x3db114e4	0.08646563
181	0xbc971ded	-0.018446887
182	0xbd0d4900	-0.034493446
183	0xbc49154b	-0.012273143
184	0xbc2a5a31	-0.01039748
185	0xb954e519	-0.00020303241
186	0x3d86420f	0.065555684
187	0xbda51467	-0.08060532
188	0xbd1a2a79	-0.03763816
189	0xbc4a354d	-0.012341809
190	0x3d907721	0.07053972
191	0xbd22ee62	-0.03977812
192	0xbd287e9d	-0.041136373
193	0x3d8534bf	0.06504201
194	0xbdc07700	-0.093976974
195	0xbd5f8f3b	-0.054579955
196	0x3dd30874	0.10304347
197	0x3c1879cb	0.009306381
198	0x3d174e36	0.036939822
199	0xbb9b7d3a	-0.004745153
200	0x3d96de92	0.07366671
201	0xbdb4acfd	-0.088220574
202	0xbe0b599d	-0.13608404
203	0x3dd2b7f9	0.10288996
204	0x3c63a92a	0.013895312
205	0x3d49f5bd	0.04930662
206	0x3d8df11c	0.069307536
207	0xbcbc7392	-0.023004327
208	0xbd1244da	-0.035710193
209	0x3d5873c5	0.05284478
210	0x3cfaee74	0.030631281
211	0xbd2c2386	-0.042026065
212	0xbdfaea16	-0.122516796
213	0x3da70ae6	0.081563756
214	0x3dec62ca	0.1154228
215	0x3d10c24e	0.035341553
216	0x3d94f5fe	0.07273482
217	0x3ddb3dee	0.107051715
218	0x3dd490c6	0.10379176
219	0x3d97338a	0.07382877
220	0x3df6e768	0.12055856
221	0xbe16a304	-0.14710623
222	0x3d22fa67	0.039789584
223	0x3e0b4c1a	0.13603249
224	0xbd2b4519	-0.041813944
225	0xbcca81ce	-0.024720099
226	0xbc2f6e88	-0.010707505
227	0xbc1583bc	-0.009125646
228	0x3e09bd96	0.13451228
229	0xbd98a68c	-0.07453641
230	0x3cbd61f2	0.023117993
231	0xbdd3cb01	-0.10341454
232	0xbab366b2	-0.0013687222
233	0xbc56f34e	-0.013119532
234	0xbd4b4c58	-0.049633354
235	0x3d185035	0.037185866
236	0x3d9dc3a0	0.07703328
237	0x3d5fc7f7	0.05463406
238	0x3deb36dc	0.11485073
239	0xbd18c90d	-0.037301112
240	0xbd497652	-0.049185105
241	0xbcaf9c00	-0.021436691
242	0xbd84eb76	-0.06490223
243	0x3e179bfb	0.14805596
244	0xbd308ace	-0.043101124
245	0xbd1fa522	-0.038975842
246	0x3dc2ce58	0.09512013
247	0xbaf671e1	-0.0018802249
248	0x3ce7a331	0.028276058
249	0x3cff3f19	0.031158017
250	0x3dbeec77	0.09322446
251	0xbb2cac6b	-0.0026347886
252	0xbe144e57	-0.1448301
253	0xbd75dd45	-0.060025472
254	0x3d0e8b32	0.034800716
255	0xbd496da1	-0.049176816

lstm.lstm1.bias_hh_l0 f4 [256]
0	0x3d75927c	0.05995415
1	0xbd7fa283	-0.062410843
2	0xbe175d8f	-0.14781784
3	0x3dbe740b	0.09299477
4	0xbb3c0920	-0.0028691962
5	0xbc382718	-0.011239789
6	0xbd99821f	-0.07495522
7	0x3ca882a1	0.020570101
8	0x3d529b62	0.051417716
9	0x3de6a692	0.112622395
10	0x3da625b4	0.0811266
11	0x3c9ef7d8	0.01940529
12	0xba146485	-0.00056607305
13	0x3e04081c	0.12893718
14	0x3dd254c9	0.10270078
15	0x3c54ac74	0.012980569
16	0xbdd0d067	-0.101959996
17	0xbd3ce2c9	-0.046114717
18	0xbcc8a722	-0.024493758
19	0xbd834c71	-0.064110644
20	0xbe10d915	-0.1414531
21	0xbc4c05a8	-0.01245252
22	0xbd01a98e	-0.03165584
23	0xbdba995f	-0.091112845
24	0x3d763743	0.060111295
25	0xbd1c4aaa	-0.038157143
26	0x3da5b28a	0.08090694
27	0x3da9adea	0.082851246
28	0xbd82be67	-0.063839726
29	0xbd1edbee	-0.03878396
30	0x3dccb422	0.09995295
31	0x3dcf2b5c	0.10115692
32	0x3e25c6cf	0.1618912
33	0xbddc8a1e	-0.10768531
34	0xbdba1d9d	-0.090876795
35	0xbd0ac03f	-0.033874746
36	0xbd4d2d14	-0.050091818
37	0x3d9707b6	0.073745176
38	0x3dd7907a	0.105256036
39	0x3c5123db	0.012764896
40	0xbd175f03	-0.036955845
41	0xbcece11f	-0.02891594
42	0x3e06cca9	0.13164009
43	0xbcb21676	-0.021739226
44	0x3d49c7d6	0.049262844
45	0x3d94a47d	0.07257936
46	0x3da49195	0.0803558
47	0x3d905390	0.07047188
48	0x3d5ab819	0.053398225
49	0xbe1a6d08	-0.15080655
50	0x3e15a379	0.14613141
51	0x3d061a6c	0.03274004
52	0x3cdd1b61	0.026990594
53	0x3c7a9708	0.015294798
54	0x3e0b5897	0.13608013
55	0x3d29ffdd	0.041503776
56	0x3d7ffd2e	0.06249731
57	0xbc6bd193	-0.014393228
58	0xbc0b165e	-0.0084892195
59	0xbcb1e4c3	-0.021715527
60	0xbe07b4fc	-0.13252634
61	0x3d29a88c	0.041420504
62	0x3e130285	0.1435643
63	0x3d58949a	0.052876092
64	0xbdeeb116	-0.1165487
65	0x3cd9a231	0.026566597
66	0x3cf3fb3d	0.029782886
67	0xbd971ea8	-0.07378894
68	0xbd94f047	-0.07272392
69	0xbdfc856e	-0.12330137
70	0x3dc6b5cd	0.097026445
71	0xbc2e20ba	-0.01062792
72	0x3da1afe4	0.078948766
73	0x3ddd0ae7	0.10793095
74	0xbe29f9a6	-0.1659914
75	0x3d793a18	0.06084642
76	0x3d09cfb6	0.033645354
77	0xbcee47a9	-0.029086905
78	0x3cb7043c	0.022340886
79	0xbd09bf29	-0.03362957
80	0x3d68c73c	0.05683063
81	0x3d102e88	0.035200626
82	0x3cc8730f	0.024468927
83	0x3d468dbf	0.048475023
84	0x3ce594a0	0.028024971
85	0x3d99437e	0.07483576
86	0xbd51da17	-0.051233377
87	0xbc4dd92b	-0.012563984
88	0x3ca2d091	0.019874843
89	0xbdce6440	-0.10077715
90	0x3dd5f5d5	0.10447279
91	0xbdd6a9f6	-0.10481636
92	0xbe09228d	-0.13392086
93	0xbc53cf4d	-0.012927842
94	0xbde5bfcd	-0.11218224
95	0x3d1062c0	0.035250425
96	0x3dbe8a3c	0.0930371
97	0x3c944e1b	0.01810365
98	0xbd109f26	-0.035308026
99	0x3926af59	0.00015896316
100	0xbcd50c0d	-0.026006723
101	0x3c8d878b	0.017276546
102	0xbd73371b	-0.059378725
103	0x3b9ead41	0.004842431
104	0xbc6ab1e0	-0.014324635
105	0x3d972c4c	0.07381496
106	0xbd297648	-0.041372567
107	0xbd38b6f1	-0.04509634
108	0xbc8f8174	-0.017517783
109	0xbde95efc	-0.1139507
110	0xbd8e11c0	-0.06936979
111	0xbded995a	-0.11601515
112	0xbe11c988	-0.14237034
113	0xbdf999ea	-0.1218756
114	0x3d6982ad	0.057009388
115	0x3d9cea39	0.07661862
116	0xbd35026e	-0.04419177
117	0x3d89ba1e	0.06724952
118	0xbc6fd150	-0.014637306
119	0xbd694ed1	-0.05695993
120	0x3db74dce	0.08950387
121	0xbd3300bf	-0.043701883
122	0xbdd49aee	-0.10381113
123	0x3c143e00	0.009047985
124	0xbe229159	-0.15875758
125	0xbddf74ba	-0.10910936
126	0xbd90b158	-0.07065076
127	0xbc84f7a9	-0.016231375
128	0x3cb90988	0.022587553
129	0xbdf6248f	-0.12018692
130	0x3cef5acc	0.0292181
131	0xbd275a84	-0.040857807
132	0x3dcccd5a	0.10000105
133	0xbd9c7a35	-0.07640497
134	0x3c9617a9	0.018321829
135	0x3d3512d7	0.04420742
136	0xbdc87020	-0.09787011
137	0x3e125b75	0.142927
138	0xbd88d81f	-0.06681847
139	0xbce39240	-0.027779698
140	0xbc78d9f6	-0.015188685
141	0xbd1be3f5	-0.038059194
142	0xbe0d633a	-0.13807383
143	0x3ddd6e72	0.108120814
144	0xbac74267	-0.0015202285
145	0xbda45e5a	-0.08025809
146	0x3da0036c	0.07813153
147	0x3d670176	0.056397878
148	0xbd1ae603	-0.037817013
149	0x3dc13937	0.09434741
150	0xbcdfd43d	-0.027322883
151	0x3beff441	0.0073228185
152	0xbd9212ad	-0.071324684
153	0xbd80d6da	-0.0629098
154	0xbdbcf5b3	-0.09226551
155	0xbdf4f215	-0.11960236
156	0xbdb1e57e	-0.0868635
157	0x3b9c2904	0.0047656316
158	0xbdc48fd1	-0.09597743
159	0x3d96b2b4	0.07358304
160	0xbd11602e	-0.035492115
161	0x3d89e0e4	0.067323476
162	0x3d173393	0.03691442
163	0xbc9f538a	-0.019449014
164	0x3d3445ed	0.044012
165	0xbdb71ffa	-0.08941646
166	0x3d8068a8	0.062699616
167	0xbd864067	-0.065552525
168	0x3c9d22e6	0.01918168
169	0x3ddc64be	0.107614025
170	0xbcc9eb25	-0.024648258
171	0xb9c73b27	-0.0003800031
172	0xbdf15a27	-0.11784773
173	0xbd343346	-0.04399421
174	0x3c32f2b0	0.010922119
175	0x3d1ede45	0.03878619
176	0xbb6f8814	-0.0036549615
177	0xbdaa20e2	-0.08307053
178	0x3d41ebb0	0.04734391
179	0xbd1dfffd	-0.038574208
180	0xbdd26838	-0.102737844
181	0x3da2dd50	0.07952368
182	0xbd58a4c9	-0.052891526
183	0x3d279477	0.04091307
184	0x3d831155	0.0639979
185	0xbd1948cf	-0.03742295
186	0xbd8ff2ff	-0.0702877
187	0x3dc49937	0.09599536
188	0xbc11f6b1	-0.0089089135
189	0x3d5428ba	0.051796652
190	0x3dbce254	0.09222856
191	0x3ca96fae	0.020683136
192	0xbe00e645	-0.12587841
193	0x3ded2c66	0.11580734
194	0xbe1244b4	-0.1428402
195	0x3c0aad72	0.008464204
196	0xbdd737a6	-0.10508661
197	0x3d212dd7	0.039350357
198	0xbd2aafbd	-0.041671503
199	0x3d39c71c	0.0453559
200	0xbc3b7e14	-0.011443634
201	0x3cd6680c	0.02617266
202	0x3c6c9e13	0.014441985
203	0xbd3f6e95	-0.04673632
204	0xbe0cd367	-0.13752519
205	0xbc0f952d	-0.008763594
206	0xbd15ec54	-0.036602333
207	0x3d37aaa9	0.04484049
208	0xbd285e26	-0.041105412
209	0xbde758ea	-0.11296256
210	0x3d2b26fe	0.041785233
211	0x3d2d2256	0.042269073
212	0xbe06a665	-0.13149412
213	0x3ce099b7	0.027417047
214	0xbda20f0f	-0.079130284
215	0x3cf33540	0.029688478
216	0x3dedf16d	0.11618314
217	0x3dfe63c5	0.12421373
218	0x3cd22565	0.025652597
219	0x3d474328	0.04864803
220	0xbdd0b9fa	-0.10191722
221	0x3d820802	0.063491836
222	0xbd8fe02c	-0.07025179
223	0xbb9a1937	-0.004702713
224	0x3dcb31eb	0.099216305
225	0x3da157a2	0.07878043
226	0x3dde653a	0.10859151
227	0x3cc98fbf	0.024604676
228	0x3cb97f4b	0.022643706
229	0x3ce1c334	0.0275589
230	0x3c3ff020	0.011714965
231	0xbd22173a	-0.03957293
232	0x3dc31c8b	0.095269285
233	0x3e1e7c3a	0.15477076
234	0x3e064981	0.13113977
235	0xbd3195ce	-0.043355756
236	0x3c8ee9d8	0.01744549
237	0x3e03d402	0.12873843
238	0x3db81d4d	0.08989964
239	0x3de47937	0.111559324
240	0xbd57ecb9	-0.05271599
241	0xbdad35d3	-0.08457532
242	0xbc662a9b	-0.014048244
243	0x3e30bc1f	0.17259263
244	0xbb9f0b68	-0.0048536547
245	0x3e1b39df	0.15158795
246	0xbb670bb5	-0.003525478
247	0xbddb91a8	-0.10721141
248	0xbdb26817	-0.0871126
249	0xbda32e0f	-0.07967769
250	0xbde0554d	-0.1095377
251	0xbd8591f7	-0.06521981
252	0xbdc56ffc	-0.096405
253	0x3c0c77d4	0.008573491
254	0x3c3f56f4	0.011678446
255	0x3d3f34a4	0.04668106

lstm.bn1.weight f4 [24]
0	0x3f7cf211	0.98806864
1	0x3f7c77f5	0.9862054
2	0x3f8024d7	1.0011243
3	0x3f821581	1.0162812
4	0x3f824caf	1.0179652
5	0x3f817ae3	1.0115627
6	0x3f8047c7	1.0021905
7	0x3f7e2f9d	0.992914
8	0x3f7c0dbb	0.9845845
9	0x3f79a7ec	0.97521853
10	0x3f76d02a	0.96411383
11	0x3f7500e5	0.9570449
12	0x3f787424	0.97052217
13	0x3f7cbe9d	0.9872835
14	0x3f7e723a	0.99393046
15	0x3f7f1e76	0.99655855
16	0x3f7f0fad	0.99633294
17	0x3f7ee4a1	0.9956761
18	0x3f81fc5b	1.0155138
19	0x3f822ce3	1.0169948
20	0x3f82b254	1.0210671
21	0x3f844005	1.0332037
22	0x3f847c5f	1.0350455
23	0x3f8a4a2b	1.0803884

lstm.bn1.bias f4 [24]
0	0xbceab423	-0.028650349
1	0xbd32db18	-0.043665975
2	0xbd438334	-0.047732547
3	0xbd26922a	-0.040666737
4	0xbd06f3f6	-0.032947503
5	0xbce0ae65	-0.027426908
6	0xbcfed0ef	-0.031105487
7	0xbd2a85f5	-0.041631658
8	0xbd519e83	-0.05117656
9	0xbd750f3e	-0.05982899
10	0xbd6c9359	-0.05775771
11	0xbd18a14c	-0.0372632
12	0xbd052964	-0.032510176
13	0xbcd1b845	-0.025600562
14	0xbc6ab0b6	-0.014324358
15	0xbc390456	-0.011292538
16	0xbc09cddf	-0.0084109
17	0xbb9d58c1	-0.00480184
18	0xb98bc6a3	-0.00026660142
19	0x3b975806	0.0046186475
20	0x3c3a7086	0.011379367
21	0x3d085e30	0.03329295
22	0x3aa241d0	0.0012379233
23	0x3d243e7f	0.040098663

lstm.bn1.running_mean f4 [24]
0	0x3c2535ab	0.010083596
1	0x3c8b1228	0.016976431
2	0x3cb018e6	0.021496248
3	0x3cc7850c	0.024355434
4	0x3cd6471f	0.02615696
5	0x3cdfcb45	0.027318606
6	0x3ce60b28	0.028081492
7	0x3cea16ee	0.028575387
8	0x3cec9375	0.028878907
9	0x3cedfa00	0.029049873
10	0x3ceeab21	0.029134335
11	0x3ceef079	0.0291674
12	0x3ceefdcb	0.029173752
13	0x3ceef328	0.02916868
14	0x3ceee22e	0.029160585
15	0x3ceed2e1	0.02915329
16	0x3ceec7b6	0.029147964
17	0x3ceec082	0.02914453
18	0x3ceebc29	0.029142456
19	0x3ceeb95d	0.029141122
20	0x3ceeb7b0	0.029140323
21	0x3ceeb669	0.029139714
22	0x3ceeb582	0.029139284
23	0x3ceeb4cb	0.029138943

lstm.bn1.running_var f4 [24]
0	0x3b63019a	0.0034638406
1	0x3c1bda55	0.009512504
2	0x3c73a17a	0.014870042
3	0x3c96e91a	0.018421698
4	0x3ca5bdc0	0.020232081
5	0x3caad35d	0.020852739
6	0x3caacece	0.020850565
7	0x3ca8f198	0.020623013
8	0x3ca70103	0.020386225
9	0x3ca5ae4c	0.020224713
10	0x3ca50cd0	0.020147711
11	0x3ca4ec6a	0.020132262
12	0x3ca510c3	0.020149594
13	0x3ca54aaf	0.020177213
14	0x3ca57ef4	0.020202138
15	0x3ca5a302	0.02021933
16	0x3ca5b67f	0.020228622
17	0x3ca5bdb3	0.020232057
18	0x3ca5bda0	0.020232022
19	0x3ca5ba41	0.020230414
20	0x3ca5b666	0.020228576
21	0x3ca5b32e	0.020227041
22	0x3ca5b102	0.020226005
23	0x3ca5afed	0.02022549

lstm.lstm2.weight_ih_l0 f4 [256, 64]
0	0x3d756f58	0.05992064
1	0xbcf45156	-0.02982394
2	0xbde0d681	-0.109784134
3	0x3bdcf2da	0.0067428173
4	0x3e071376	0.13191018
5	0x3e099f2b	0.13439624
6	0xbdb86df5	-0.09005348
7	0xbd828163	-0.06372335
8	0xbe07b7b9	-0.13253678
9	0xbdf57f5b	-0.11987182
10	0x3e0dcdfc	0.13848108
11	0xbdf2fa1f	-0.11864113
12	0x3dda189b	0.10649224
13	0x3e318288	0.1733495
14	0x3da5c73e	0.08094643
15	0x3cacc093	0.02108792
16	0x3dfc98ee	0.123338565
17	0x3cf28759	0.029605554
18	0xbd65f35f	-0.0561403
19	0xbe01742c	-0.12641972
20	0xbcaf9b3f	-0.021436332
21	0x3d9fadf8	0.07796854
22	0xbd09f4af	-0.033680614
23	0xbb61346f	-0.0034363528
24	0x3caf7b0c	0.021420978
25	0x3d4015ee	0.046895914
26	0xbd8177a5	-0.063216485
27	0x3d73bb21	0.059504632
28	0xbd8d9f94	-0.06915203
29	0xbcd96f46	-0.026542317
30	0x3de6e252	0.11273636
31	0xbbebdc75	-0.0071979114
32	0xbde59ec8	-0.11211926
33	0x3db1eec9	0.08688123
34	0xbdaa2503	-0.08307841
35	0xbdce197d	-0.10063455
36	0x3d1f5028	0.038894802
37	0x3d6beff7	0.057601895
38	0x3d8e105d	0.06936715
39	0x3c205177	0.009785048
40	0xbcacb577	-0.021082623
41	0x3cbdeace	0.023183253
42	0xbd817f9a	-0.06323166
43	0xbd829013	-0.06375136
44	0x3d2688d0	0.04065782
45	0x3da8f9e0	0.08250785
46	0x3dbc4d44	0.09194425
47	0x3d934bd6	0.07192199
48	0x3d7a1253	0.06105263
49	0x3dd733fa	0.105079606
50	0x3d88eff2	0.06686391
51	0x3d3dfb86	0.04638245
52	0xbc017496	-0.007901331
53	0x3d81c0aa	0.06335576
54	0xbb37575b	-0.0027975652
55	0xbd677f2a	-0.056517757
56	0x3dc1231a	0.09430523
57	0xbe07a007	-0.1324464
58	0x3d933869	0.07188494
59	0xbccd8675	-0.025088528
60	0x3d1684a1	0.03674758
61	0xbdfa3116	-0.12216394
62	0xbd9d1b59	-0.07671232
63	0x3df727a4	0.12068108
64	0x3d48f178	0.049058408
65	0xbdd0cd17	-0.10195368
66	0xbe06765a	-0.13131085
67	0x3dc4c1f1	0.09607304
68	0xbd30835c	-0.043094024
69	0x3d88e96d	0.066851474
70	0x3d4354cf	0.0476883
71	0xbdc1f590	-0.094706655
72	0x3de42964	0.11140707
73	0x3d56d9f1	0.05245394
74	0x3d07315a	0.03300605
75	0xbde618d0	-0.11235201
76	0x3cd81343	0.026376372
77	0xbd86aef6	-0.0657634
78	0x3dab5f4c	0.08367786
79	0x3d748ef1	0.059706632
80	0xbbfc11a4	-0.0076925326
81	0xbdeb5382	-0.11490537
82	0x3d789bcd	0.06069546
83	0xbbb224f1	-0.0054365327
84	0xbbd6d7f3	-0.006556505
85	0x3d3c4054	0.045959786
86	0xbd133d97	-0.03594741
87	0x3d48463b	0.048895102
88	0x3d820de0	0.06350303
89	0x3d940637	0.07227748
90	0xbcafe312	-0.02147058
91	0xbd094e73	-0.03352208
92	0x3c2db2e5	0.010601734
93	0x3bc062a3	0.0058711334
94	0x3cbc9ae6	0.02302308
95	0xbc3c818a	-0.011505494
96	0xbd1ad2a9	-0.037798557
97	0x3d96b372	0.07358445
98	0xbd66cae4	-0.056345835
99	0xbdba30ed	-0.09091363
100	0x3bdb20b2	0.006687247
101	0xba18c217	-0.00058272615
102	0xbdb403e1	-0.08789802
103	0x3ce87ab3	0.02837882
104	0x3d8edff3	0.06976309
105	0x3d8e6fd7	0.069549255
106	0x3ce41fd2	0.027847204
107	0xbd1470a4	-0.036240235
108	0xbde5f863	-0.11229017
109	0xbd8d8780	-0.0691061
110	0x3dd78afb	0.10524555
111	0x3c77b797	0.015119455
112	0x3dff19dd	0.12456105
113	0x3c453bef	0.012038215
114	0x3d405272	0.046953626
115	0xbd80c3d8	-0.06287354
116	0x3dbf2a56	0.09334247
117	0xbd3884d6	-0.045048557
118	0xbde5affb	-0.11215206
119	0xbde97b28	-0.11400443
120	0xbd0f0e44	-0.034925714
121	0xbd3343c7	-0.04376581
122	0x3d9768c1	0.07393027
123	0xbd9d2250	-0.0767256
124	0x3d8b8288	0.06812006
125	0xbdbb75ae	-0.09153305
126	0xbc777551	-0.015103654
127	0x3d564eaf	0.052321132
128	0x3a9e29f2	0.0012066944
129	0x3dabfef3	0.08398237
130	0xbe0627c8	-0.13101113
131	0xbd6a7a52	-0.05724556
132	0xbcd31d67	-0.025770856
133	0x3d0cc8a3	0.03437103
134	0x3e3d22e6	0.18470344
135	0xbe277a6d	-0.16355295
136	0xbda292c6	-0.07938151
137	0xbda97ecd	-0.082761385
138	0xbd03dda8	-0.03219381
139	0x3e05f2e0	0.1308093
140	0x3de2c1d3	0.11072125
141	0x3ca50e60	0.020148456
142	0x3d49cb69	0.049266253
143	0xbe1b46ba	-0.15163699
144	0xbdf95f6e	-0.12176405
145	0xbdd18a57	-0.10231464
146	0xbe34677f	-0.17617606
147	0x3e176d49	0.14787783
148	0xbe10ae7b	-0.14129059
149	0x3e240089	0.16015829
150	0x3d798866	0.060921095
151	0x3e0372ec	0.12836808
152	0xbd0781e4	-0.033082858
153	0x3dd210d2	0.102571145
154	0xbdbaf9f8	-0.09129709
155	0xbd578ce5	-0.052624602
156	0xbdea3b36	-0.11437075
157	0xbc0a33b0	-0.008435175
158	0x3ce3b7d2	0.027797613
159	0xbc435f3a	-0.011924559
160	0xbd0663ef	-0.032810148
161	0xbc9cda52	-0.019147072
162	0xbc4bcfbe	-0.012439666
163	0xbd0b1862	-0.0339588
164	0x3d428959	0.047494266
165	0xbe491fdc	-0.1964106
166	0x3dd9fc65	0.106438436
167	0x3d8f4ba7	0.069968514
168	0x3d4fb3ff	0.050708767
169	0x3e287e82	0.16454509
170	0x3e3eb443	0.18623452
171	0x3d510beb	0.051036756
172	0xbd315d24	-0.043301716
173	0x3d33e2bf	0.043917414
174	0x3d07530e	0.03303819
175	0x3c10de0e	0.008842004
176	0x3aa4dc56	0.0012577872
177	0xbc8877c1	-0.016658666
178	0xbd90e600	-0.07075119
179	0xbe248c87	-0.16069232
180	0xbd81bd05	-0.06334881
181	0x3da4c39c	0.08045122
182	0xbe03fc8c	-0.12889308
183	0x3d218750	0.039435685
184	0x3db295ce	0.08719979
185	0xbe35d488	-0.17756855
186	0xbde6c32a	-0.11267693
187	0xbd1abed3	-0.03777964
188	0xbcc762a5	-0.02433903
189	0xbdf1efa2	-0.118132845
190	0x3d512470	0.05106014
191	0x3da6a7ea	0.08137496
192	0xbdb9ced2	-0.09072651
193	0x3ce9d705	0.028544912
194	0xbda49ebf	-0.08038091
195	0xbd5f9fbb	-0.05459569
196	0xbd387414	-0.045032576
197	0xbdc624f6	-0.096750185
198	0xbcbab6e3	-0.022792285
199	0x3e0855f0	0.13314033
200	0x3d323b60	0.043513656
201	0x3e0f6ed7	0.14007126
202	0xbe10e66a	-0.14150396
203	0x3e03ad06	0.12858972
204	0xbdc49dd9	-0.096004196
205	0xbd9e2456	-0.07721774
206	0xbdaa438e	-0.08313666
207	0xbd6f05d1	-0.058355156
208	0x3975f16b	0.00023454956
209	0x3d9af137	0.07565539
210	0x3df51c5e	0.11968301
211	0x3cc69b74	0.024244048
212	0xbd6c2705	-0.0576544
213	0xbacfc51c	-0.001585159
214	0x3cf6c7a1	0.030124487
215	0x3bfdfe7a	0.0077512832
216	0xbcafb85a	-0.02145021
217	0x3d483ce8	0.04888621
218	0xbc909eac	-0.017653786
219	0x3c87b0e8	0.016563848
220	0x3de01317	0.10941141
221	0x3caac19c	0.020844273
222	0x3d293987	0.041314628
223	0x3cffd95e	0.031231578
224	0x3c7c49e7	0.015398479
225	0xbd38168a	-0.04494337
226	0xbdad21a5	-0.08453683
227	0xbdb385f6	-0.087657854
228	0x3d35017e	0.044190876
229	0x3c825fef	0.015914885
230	0x3e29070d	0.16506596
231	0x3dc93ea2	0.098263994
232	0xbd5ee5ab	-0.054418247
233	0x3dce709d	0.10080073
234	0x3d824fc1	0.06362868
235	0xbcc7b851	-0.024379881
236	0x3d66e85c	0.05637394
237	0xbd623039	-0.05522177
238	0x3d3a2175	0.045442063
239	0x3ca74d01	0.02042246
240	0x3e12be40	0.14330387
241	0x3d4c77be	0.049918883
242	0x3d5f5b7e	0.054530613
243	0x3d40caac	0.047068283
244	0xbb59b2df	-0.0033218188
245	0x3b3f7f7f	0.002922028
246	0xbe2e20db	-0.17004721
247	0xbcb00b34	-0.021489717
248	0x3d3b02b9	0.045656893
249	0xbcbdfe2b	-0.023192486
250	0x3dbcf576	0.092265055
251	0x3e0e6443	0.13905434
252	0xbddf98a6	-0.10917787
253	0xbdc8f121	-0.09811617
254	0x3e155b37	0.14585577
255	0xbe079d6c	-0.13243645

lstm.lstm2.weight_hh_l0 f4 [256, 64]
0	0xbdd54425	-0.10413388
1	0xbdad015c	-0.08447525
2	0x3d8bd665	0.06828002
3	0x3d343a88	0.044001132
4	0x3d9ca4d0	0.07648623
5	0xbc96186a	-0.018322188
6	0x3d99653f	0.07490014
7	0x3dc64b5f	0.09682345
8	0xbdc5b0d1	-0.09652866
9	0xbdd684b6	-0.10474531
10	0xbd239767	-0.03993931
11	0xbc65ad21	-0.014018328
12	0xbd5fa50c	-0.05460076
13	0x3cebd1d5	0.02878658
14	0x3d2a0cd4	0.04151614
15	0x3c31f1e1	0.010860891
16	0xbd849dfa	-0.06475444
17	0x3d4b75dd	0.04967295
18	0x3df30a9d	0.11867259
19	0x3e02b2a9	0.12763466
20	0xbd258e74	-0.040419057
21	0x3a2152d1	0.0006154003
22	0xbdedd724	-0.116133004
23	0xbd5ec1b4	-0.05438395
24	0xbdcfb72a	-0.10142358
25	0xbd6d9aa1	-0.058008794
26	0x3ddbb49c	0.10727808
27	0x3dac01c0	0.08398771
28	0xbe093962	-0.13400796
29	0x3c69f8f6	0.014280548
30	0xbe03ff55	-0.1289037
31	0x3bb654b6	0.0055642975
32	0xbd646bb7	-0.055766787
33	0x3d385945	0.04500701
34	0xbd714ea4	-0.05891289
35	0xbd9b3f09	-0.075803824
36	0x3b130d49	0.0022438338
37	0xbd89c12a	-0.06726296
38	0x3db67198	0.08908385
39	0x3cf874e6	0.030329179
40	0x3d82b30e	0.06381808
41	0xbd1aa8bd	-0.037758578
42	0xbda2d5a3	-0.07950904
43	0xbe04a99d	-0.12955327
44	0x3da0a36a	0.07843669
45	0x3de2adf8	0.11068338
46	0x3e0bd1b8	0.1365422
47	0x3cac5dcb	0.021040818
48	0x3d17cb6e	0.03705924
49	0xbd6ac12b	-0.057313126
50	0xbc4e9231	-0.012608097
51	0x3dd8da79	0.10588545
52	0x3c4d7867	0.012540913
53	0xbccbd7c7	-0.024883164
54	0x3dc02445	0.09381918
55	0x3d0437fb	0.03227995
56	0xbd2ac098	-0.041687578
57	0x3dcd03bc	0.10010478
58	0x3da081cd	0.078372575
59	0x3e0b2700	0.13589096
60	0x3d8d93d5	0.06912962
61	0x3d2c6c39	0.042095397
62	0x3e18ad1e	0.14909789
63	0xbcf1d7db	-0.029521873
64	0x3dc66b44	0.09688428
65	0xbd9d068b	-0.076672636
66	0xbc6989f4	-0.014254082
67	0xbdeeeac5	-0.116658725
68	0x3db0cc12	0.08632673
69	0xbcacd568	-0.021097854
70	0x3db4019a	0.08789368
71	0x3bcf0f40	0.0063189566
72	0xbc9781c5	-0.018494496
73	0xbdce5744	-0.10075238
74	0x3de4ee6e	0.11178289
75	0x3cb83974	0.022488333
76	0xbd127107	-0.035752323
77	0xbd8eb1d2	-0.0696751
78	0xbd95b4cf	-0.07309877
79	0xbc43ae99	-0.011943483
80	0x3727d7e7	1.0004244e-05
81	0xbe01ec07	-0.12687694
82	0xbd8f5811	-0.06999219
83	0xbd56f1be	-0.052476637
84	0xbdd05923	-0.101732515
85	0x3c0c00b7	0.008545092
86	0x392b023a	0.0001630866
87	0x3cb32095	0.021866122
88	0x3df12ab6	0.117757246
89	0x3df09cac	0.11748633
90	0xbc09ce1c	-0.008410957
91	0xbd81a41d	-0.0633013
92	0x3cce6d69	0.025198655
93	0x3d1c86f3	0.038214635
94	0xbe0c618d	-0.13709088
95	0x3dc2fc2f	0.095207565
96	0xbdb5c1ab	-0.0887483
97	0x3db49fe8	0.08819562
98	0x3dba6e5a	0.09103079
99	0x3b764cca	0.003758239
100	0x3d9d2daf	0.07674729
101	0x3d427b0a	0.04748062
102	0xbd8d7ac6	-0.06908183
103	0xbd4d494b	-0.050118726
104	0x3b6f2d88	0.0036495645
105	0xbd811c2e	-0.06304203
106	0x3d44daa6	0.048060082
107	0xbdb3d111	-0.087801106
108	0xbb6a5ae8	-0.003575975
109	0xbd4b1cd0	-0.049588025
110	0xbd1feaae	-0.039042167
111	0x3d8131a9	0.063083
112	0x3dc95b01	0.09831811
113	0x3c786a89	0.015162119
114	0x3cef0615	0.029177705
115	0xbce9f64a	-0.028559823
116	0xbd0573f2	-0.032581277
117	0x3d48bbe9	0.04900733
118	0xbd7c4174	-0.06158586
119	0x3d107b7f	0.035274025
120	0x3c3438e7	0.010999895
121	0xbdfcca01	-0.12343217
122	0xbd4db89e	-0.050224893
123	0x3d4e541d	0.050373185
124	0x3dd6c5b4	0.10486928
125	0xbc4729ed	-0.012155992
126	0x3d976ece	0.07394181
127	0x3d15e5f7	0.036596265
128	0x3dc3baa9	0.09557087
129	0xbb92a413	-0.0044751256
130	0xbd1d189d	-0.03835355
131	0x3c73d300	0.014881849
132	0x3e06c881	0.13162424
133	0x3d03efbf	0.03221106
134	0x3ddcc703	0.10780146
135	0xbe00457b	-0.12526505
136	0xbdd38658	-0.103283584
137	0x3db80bdb	0.08986636
138	0xbe05efef	-0.13079809
139	0x3dd7447f	0.105111115
140	0xbe0d2de2	-0.13787034
141	0xbcb0477c	-0.021518461
142	0x3e140860	0.1445632
143	0xbbd49c85	-0.006488385
144	0xbe383295	-0.17988046
145	0x3c073f61	0.008254857
146	0xbe286a5f	-0.16446827
147	0xbcfc361f	-0.030787526
148	0x3df04dfb	0.117336236
149	0xbde0531f	-0.10953354
150	0xbc4fce0c	-0.012683403
151	0xbd6d6919	-0.057961557
152	0x3dbb2693	0.09138217
153	0x3bc1b1f9	0.0059111086
154	0xbdee9b27	-0.11650687
155	0xbc9d1f28	-0.019179896
156	0x3790d0d8	1.7263388e-05
157	0x3c27e494	0.010247368
158	0xbe2ca341	-0.16859151
159	0xbdbdef13	-0.092741154
160	0x3ea2b4e6	0.3177864
161	0x3c945e79	0.018111454
162	0x3d86a886	0.06575112
163	0x3d95f326	0.073217675
164	0x3d59c50d	0.053166438
165	0xbc0a1150	-0.008426979
166	0xbd162a14	-0.036661223
167	0xbe0d42cf	-0.13795017
168	0xbe51b741	-0.20480062
169	0x3cd5b3f4	0.026086785
170	0x3daa4aed	0.08315072
171	0xbddee418	-0.10883349
172	0x3e0d8fb2	0.13824347
173	0xbda030c2	-0.078218
174	0x3e21de5b	0.15807478
175	0x3dc6fd5e	0.09716295
176	0x3dd9c92b	0.10634073
177	0x3e0620de	0.13098475
178	0x3ba8a4d6	0.005146603
179	0xbdf935d2	-0.121684685
180	0x3d420a82	0.047373302
181	0x3de49ba6	0.111625
182	0x3cae4381	0.021272423
183	0x3e58fe38	0.21190727
184	0xbd49acd1	-0.049237076
185	0xbe363ba6	-0.17796192
186	0xbce65dc1	-0.028120877
187	0x3dec21b3	0.11529865
188	0x3da30dc4	0.0796161
189	0xbd768632	-0.060186572
190	0xbd7c1bd0	-0.06154996
191	0x3de99190	0.11404717
192	0xbb06671a	-0.002050823
193	0xbd5af003	-0.05345155
194	0xbdd46846	-0.10371451
195	0x3d30efc2	0.0431974
196	0x3b16640b	0.0022947814
197	0x3df29d9a	0.11846466
198	0xbda327a0	-0.07966542
199	0x3d034e2a	0.032056965
200	0x3dc441c8	0.09582859
201	0x3d569ce5	0.05239572
202	0xbd52d3f9	-0.051471684
203	0xbdfeb798	-0.124373615
204	0x3c3fea9d	0.011713651
205	0xbc590ec0	-0.013248146
206	0xbd840ff1	-0.06448353
207	0x3cbeb10b	0.02327778
208	0x3d244e37	0.040113654
209	0x3dc44c31	0.09584845
210	0xbe1c63d2	-0.15272453
211	0xbd9dd772	-0.077071086
212	0xbdbec6f7	-0.09315293
213	0x3ddde13a	0.10833974
214	0xbdfea70a	-0.12434204
215	0x3bae70fd	0.005323528
216	0x3cb1d4db	0.021707943
217	0x3e03b077	0.12860285
218	0x3dbd48ec	0.09242424
219	0x3dc685fa	0.09693523
220	0xbdc06244	-0.09393743
221	0xbd5b56be	-0.05354952
222	0xbd140503	-0.036137592
223	0xbd79b8d9	-0.0609673
224	0x3d21498a	0.039376773
225	0xbe00ce1a	-0.12578622
226	0xbdfca53c	-0.123362035
227	0xbda9468d	-0.082654096
228	0x3d67b095	0.056564886
229	0x3c6b5516	0.014363548
230	0xbe0c6e2c	-0.13713902
231	0xbcfade6e	-0.03062364
232	0xbd8229b7	-0.06355613
233	0xbcc449a9	-0.023960905
234	0xbdbba48a	-0.09162243
235	0xbcd59fa6	-0.026077103
236	0x3ce9e308	0.02855064
237	0xbe0c9289	-0.13727774
238	0xbb8cc525	-0.0042959624
239	0xbd6363d1	-0.055515114
240	0x3dc37084	0.09542945
241	0x3d079059	0.033096645
242	0xbcfd7a8b	-0.030942222
243	0xbd611542	-0.054951914
244	0x3c59e640	0.013299525
245	0xbd4e3491	-0.0503431
246	0x3d98105d	0.07424996
247	0x3c1a7031	0.009426163
248	0xbbcc3f97	-0.0062331664
249	0x3cc310a0	0.023811638
250	0x3da1ea7b	0.07906052
251	0xbd176de9	-0.036970053
252	0xbce9de18	-0.028548285
253	0xbd849ced	-0.06475244
254	0x3c0e86ad	0.008699101
255	0xbda2bb42	-0.07945873

lstm.lstm2.bias_ih_l0 f4 [256]
0	0x3c88a924	0.016682215
1	0x3dc67776	0.09690754
2	0xbd927f54	-0.07153192
3	0x3e1e8209	0.15479292
4	0xbda82b8a	-0.082114294
5	0xbdbff5aa	-0.093730286
6	0x3c9b507a	0.018959273
7	0x3db552f2	0.08853711
8	0xbd93ce4a	-0.07217081
9	0xbc0a49fc	-0.008440491
10	0xbcf26aac	-0.02959188
11	0xbdb4af46	-0.08822493
12	0xbdefb9a4	-0.1170533
13	0x3dec97de	0.11552404
14	0x3da84785	0.08216766
15	0x3c10e78c	0.008844268
16	0x3da893a3	0.082312845
17	0xbe0491f9	-0.12946309
18	0x3cffc12a	0.031220037
19	0xbd1de92c	-0.03855245
20	0x3db82874	0.08992091
21	0xbdba7d6b	-0.09105953
22	0x3e107250	0.14106107
23	0xbd3bbb92	-0.045833178
24	0x3e06dbb7	0.13169752
25	0x3daf401f	0.08557152
26	0xbcf2d517	-0.029642625
27	0x3dbb58be	0.091477856
28	0xbdd2ab39	-0.102865644
29	0xbd54735b	-0.051867824
30	0x3d9de9f9	0.07710642
31	0x3d07eb49	0.03318337
32	0x3dd295e2	0.10282494
33	0xbd3eb947	-0.046563413
34	0x3e120a32	0.14261702
35	0xbcff60fe	-0.03117418
36	0xbcdeb5c8	-0.02718629
37	0xbd38760c	-0.045034453
38	0xbd8bc6cc	-0.06825027
39	0x3d4b7bf4	0.049678758
40	0xbd872f47	-0.06600814
41	0xbd8e5cc8	-0.0695129
42	0x3d9ad1bc	0.07559535
43	0xbc5f0849	-0.013612815
44	0xbbe4806f	-0.0069733183
45	0x3d1cda36	0.03829404
46	0x3ddb7a6c	0.107167095
47	0x3d9c3aa1	0.0762837
48	0x3cb84a96	0.022496503
49	0xbd2728c9	-0.04081038
50	0xbde2155a	-0.11039229
51	0xbd0852fb	-0.03328226
52	0xbd44f2aa	-0.048082985
53	0xbe0a7368	-0.13520586
54	0x3de50b93	0.11183848
55	0x3dd494c5	0.10379938
56	0xbd947101	-0.07248116
57	0x3c4acc2d	0.012377781
58	0x3dce15ca	0.1006275
59	0xbc2659d9	-0.010153257
60	0x3d98b146	0.07455687
61	0xbd595ac7	-0.053065088
62	0xbdb3a82d	-0.08772311
63	0xbc8bdf1a	-0.017074157
64	0x3d7aec3d	0.06126045
65	0x3d82bc10	0.06383526
66	0xbdce7f4b	-0.10082873
67	0x3e17eab7	0.1483563
68	0xbd3cfb0b	-0.04613785
69	0x3d77f3f3	0.060535382
70	0x3d42ee73	0.047590684
71	0x3dc91ba4	0.09819725
72	0x3d866e75	0.06564037
73	0x3dbae7e6	0.09126262
74	0xbdf4bdc3	-0.11950257
75	0x3dae0399	0.0849678
76	0x3d4f90c4	0.05067517
77	0xbdde588a	-0.10856731
78	0xbdf048c3	-0.11732628
79	0x3df233f1	0.11826313
80	0xbc474295	-0.0121618705
81	0xbd98798a	-0.07445057
82	0x3deab9d8	0.11461228
83	0x3da96569	0.082712956
84	0x3da0f3aa	0.07858975
85	0xbd5f9f27	-0.05459514
86	0xbc4a6f62	-0.012355657
87	0x39a5bc81	0.000316117
88	0xbcadecc2	-0.021231059
89	0x3728642b	1.00369025e-05
90	0xbc12269b	-0.008920337
91	0x3c1e1116	0.009647628
92	0x3dd8cc32	0.10585822
93	0xbcb882a3	-0.02252323
94	0x3dc7837e	0.09741877
95	0xbbb82393	-0.005619475
96	0xbe04d825	-0.12973078
97	0x3de25091	0.11050523
98	0x3cfd9571	0.030955048
99	0xbdbfdaf3	-0.09367933
100	0xbcab44d9	-0.020906853
101	0x3d03cd23	0.032178055
102	0xbad84597	-0.0016500232
103	0xbd4bec8c	-0.049786136
104	0x3d5844c7	0.052799966
105	0xbe281b40	-0.16416645
106	0x3da4a42f	0.08039128
107	0x3cf2e539	0.029650318
108	0xbe03b7a0	-0.12863016
109	0x3da566db	0.08076259
110	0xbdb67d78	-0.0891065
111	0xbd8662af	-0.06561791
112	0xbe00d896	-0.12582621
113	0xbe0ce448	-0.13758957
114	0xbdf62520	-0.120188
115	0xbc12e488	-0.008965619
116	0xbad58b79	-0.0016292176
117	0xbcf6bdb9	-0.030119764
118	0x3d2b8ff8	0.041885346
119	0xb8c7c1da	-9.525167e-05
120	0xbd8f2e55	-0.06991259
121	0xbcefa99b	-0.029255679
122	0xbd303a08	-0.043024093
123	0xbdc2e204	-0.09515765
124	0x3dc02a07	0.09383016
125	0xbdbecf66	-0.09316902
126	0x3dcad166	0.09903221
127	0x3d9afd2d	0.07567821
128	0xbd5c458a	-0.053777255
129	0xbc8882eb	-0.016663989
130	0x3ddef6cf	0.10886919
131	0x3db7ae19	0.08968753
132	0x3d7f1c05	0.06228258
133	0x3d21241d	0.03934108
134	0x3d4c78aa	0.04991976
135	0xbe23e507	-0.16005336
136	0xbdbe74bf	-0.09299611
137	0xbdd275b5	-0.10276357
138	0x3dfe57cb	0.12419089
139	0x3dac949f	0.08426785
140	0x3c3c2d4b	0.011485408
141	0x3dd36344	0.10321668
142	0x3c9792c2	0.018502597
143	0xbb8124e3	-0.003941165
144	0x3dc92f14	0.098234326
145	0xbdba7c77	-0.09105771
146	0x3dadf892	0.08494677
147	0x3d839bf8	0.06426233
148	0xbcc322d5	-0.02382032
149	0xbdf6943a	-0.12039991
150	0x3cb57e64	0.022154994
151	0x3c5c9e92	0.0134655405
152	0x3c72e48f	0.014825
153	0xbaa2605a	-0.0012388334
154	0xbcb28946	-0.021793973
155	0x3d978bcc	0.07399711
156	0x3e1c7363	0.15278392
157	0xbe0f162e	-0.13973305
158	0x3ce21906	0.027599823
159	0x3d4e290b	0.05033211
160	0xbd3d4151	-0.04620487
161	0xbdc45247	-0.09586006
162	0xbdb433f9	-0.087989755
163	0xbc669a26	-0.014074838
164	0xbdee92fb	-0.11649128
165	0x3d78a5d7	0.060705032
166	0xbd6f5487	-0.05843022
167	0xbdf87d2c	-0.1213325
168	0xbd071608	-0.032979995
169	0xbd3d84c4	-0.046269193
170	0xbd6d9e02	-0.058012016
171	0xbb3bd7f2	-0.002866265
172	0xbda78b77	-0.08180898
173	0xbd97a410	-0.07404339
174	0xbd84dd71	-0.06487549
175	0x3d065dfa	0.032804467
176	0x3dd93ac5	0.106069125
177	0x3b8eccd8	0.0043579154
178	0x3db93fef	0.090453975
179	0xbdda44b7	-0.106576376
180	0x3d90aa87	0.070637755
181	0x3d8a757b	0.06760689
182	0x3dbff2cf	0.09372484
183	0xbd820649	-0.06348855
184	0x3ded0245	0.115726985
185	0x3dfd727f	0.12375354
186	0x3ca902fe	0.02063131
187	0xbd2746fb	-0.040839177
188	0xbd91fa64	-0.07127836
189	0xbd008698	-0.03137836
190	0xbc4e4bf3	-0.01259135
191	0xbdd50f98	-0.10403365
192	0x39845a02	0.00025244063
193	0xbcc0ce79	-0.023535954
194	0x3d721b3d	0.059108008
195	0x3d90ba84	0.07066825
196	0x3d7f9dc0	0.0624063
197	0xbcf6b476	-0.030115347
198	0xbd8f5d27	-0.07000189
199	0x3e030a1c	0.12796825
200	0xbd207f40	-0.039183855
201	0xbc250473	-0.010071862
202	0x3ca1ec39	0.01976596
203	0x3ba1b470	0.00493484
204	0xbe1be6c8	-0.15224755
205	0x3d05ee91	0.032698218
206	0x3da694c2	0.08133842
207	0xbd6d8847	-0.057991292
208	0x3dd4ec82	0.10396673
209	0xbdb83f89	-0.08996493
210	0x3e1a4673	0.15065937
211	0xbc541995	-0.012945552
212	0x3c577877	0.01315128
213	0xbcd5230d	-0.02601769
214	0x3d6dcb1d	0.058055032
215	0xbcc6ec3f	-0.024282573
216	0x3d2a4588	0.041570216
217	0xbdaf81d1	-0.085696824
218	0xbd5d6d0e	-0.05405908
219	0x3b721640	0.0036939532
220	0xbd9913f7	-0.07474511
221	0x3d48afee	0.048995905
222	0xbd4e4783	-0.050361168
223	0xbb2a2a7e	-0.0025965269
224	0xbd9bca70	-0.07606971
225	0xbcb2b832	-0.021816347
226	0x3dda585c	0.106613845
227	0xbd44ce83	-0.048048507
228	0x3d9bdfd5	0.07611052
229	0x3d490c2a	0.049083866
230	0xbd990d5a	-0.0747325
231	0x3d0244d6	0.03180393
232	0x3d0aaa3e	0.03385376
233	0xbddec20a	-0.10876854
234	0xbd885594	-0.06656948
235	0xbde0167e	-0.1094179
236	0x3daf0dc0	0.085475445
237	0xbd01a1a3	-0.03164829
238	0x3e0410bb	0.12897007
239	0xbd35e70b	-0.044409793
240	0xbe313ac2	-0.1730757
241	0x3d90ea62	0.07075955
242	0x3dc67569	0.09690363
243	0x3cd97d3d	0.026548976
244	0x3d88c08e	0.06677352
245	0x3d5e04ce	0.0542038
246	0x3dd19660	0.1023376
247	0xbd3dd9e4	-0.046350375
248	0x3e03d839	0.12875451
249	0xbd2290bf	-0.039688822
250	0xbd93c281	-0.07214833
251	0xbd601342	-0.054705866
252	0x3d3b18c8	0.04567793
253	0xbd819fdf	-0.06329321
254	0xbd9af140	-0.07565546
255	0xbd8b7f3d	-0.06811378
