073123/hoxy_model4.pth (torch, 570062 bytes, 34 tensors)

lstm.lstm1.weight_ih_l0 f4 [256, 12]
000000 e4 b8 ca 3d c7 fa ec 3d b6 4f e9 3d 38 7e ab bd
       0.09898546 0.115712695 0.11392157 -0.08373684
000010 38 d1 32 3e 7d 50 cc bd 9e b7 58 bc 92 17 85 bd
       0.17462623 -0.099762894 -0.0132273715 -0.06498636
000020 b4 c3 10 3e 2e df da 3d 86 12 e1 3d 47 c3 9c 3e
       0.14137155 0.106870994 0.10989861 0.30617735
000030 d6 df b0 bc 12 8b 91 3d d1 03 ef 3c 68 61 bf 3c
       -0.021591108 0.07106604 0.029176624 0.023361877
000040 3b 94 1e 3e 62 38 9d 3d e0 23 e5 3d bd 82 8f 3d
       0.15486233 0.0767677 0.11188483 0.07007358
000050 8d 8d 25 3d b6 99 1b bb 82 f3 08 3d 0c f4 0a 3e
       0.040418196 -0.0023742742 0.033435352 0.13569659
000060 c6 c2 7d bd 3a ed ca 3d 67 bd ec bd 3e 34 98 bd
       -0.06195333 0.099085286 -0.11559563 -0.074318394
000070 a1 cf c6 3d 2b 4b d9 bd 7f a7 7a bd ac 4f 52 3d
       0.09707571 -0.1061004 -0.061194893 0.051345512
000080 a9 71 fc 3b f1 1c bf 3d ab 31 a8 3c 76 eb c1 b9
       0.007703979 0.09331692 0.020531496 -0.0003698726
000090 59 49 a3 bd d8 d9 a1 bc d9 4a 9e bd ea 87 9c bd
       -0.07972974 -0.019757196 -0.0772912 -0.07643111
0000a0 10 17 03 be 66 f2 d1 bd 3b 92 5a 3d e8 c0 a7 3d
       -0.12801766 -0.10251312 0.053362112 0.08191091
0000b0 cb 47 21 bd df 9a ac 3d 21 55 95 bd f4 a6 aa 3d
       -0.039375108 0.08427977 -0.07291628 0.08332625
0000c0 d3 e7 63 bd 6f af 4a bd 7f 75 cc bd 90 5e de bd
       -0.055641007 -0.049483713 -0.09983348 -0.1085788
0000d0 3e 92 59 bb dd ab 0d be 91 c8 9f 3d d2 1b 34 bd
       -0.003319874 -0.13835092 0.07801927 -0.043971844
0000e0 93 a0 55 3d db f6 8e bd 87 8a 60 bd 70 07 00 be
       0.05215509 -0.06980678 -0.05481961 -0.12502837
0000f0 73 3a ee 3d 10 d3 0f 3e ee 44 26 3c 38 c5 2e 3b
       0.11632242 0.14045358 0.01014827 0.0026667845
000100 25 04 b1 3c df aa 58 bd 0d 46 a0 3d ce 73 0c bd
       0.021608422 -0.05289733 0.07825861 -0.034290127
000110 a9 d9 3f bd 2c 9f 1d 3d fa 0d 11 3e 84 3e 42 3c
       -0.046838436 0.038481876 0.14165488 0.011855725
000120 87 a1 7c bd b2 4d 92 3d 23 64 1c 3d 21 d2 a4 bc
       -0.061677482 0.071437255 0.038181435 -0.020119729
000130 a0 81 a2 bd 69 0d af 3c 12 86 ac bd 50 ac 9b bd
       -0.0793488 0.0213687 -0.084240094 -0.076012254
000140 38 c2 44 3d 53 cc e8 bc 24 67 88 3d cb 4a 2e be
       0.048036784 -0.028417742 0.066602975 -0.17020719
000150 08 62 d1 3d a8 00 05 3a 02 14 58 bd e6 ea ff bc
       0.10223776 0.0005073645 -0.052753456 -0.031239938
000160 e6 e0 1b 3d d8 8d 9e 3d de cb b3 ba aa 5d 1b 3d
       0.038056277 0.07741898 -0.0013717373 0.037931122
000170 ef b0 78 bc c1 2c 3a 3b 42 7c a2 bd 51 66 98 3e
       -0.015178903 0.0028408023 -0.079338565 0.2976556
000180 9f 74 ac 3d c9 ed df 3c 70 34 a9 bd 79 bb 17 bd
       0.08420681 0.027335064 -0.08261955 -0.037044022
000190 e2 29 74 bd cb 66 d5 3b 87 b3 9d 3d a9 3d 1c bd
       -0.059610255 0.006512498 0.07700258 -0.03814474
0001a0 dd c9 ac 3d c2 50 99 3d 3d fc cf 3d 3b 97 52 3d
       0.0843694 0.074861065 0.101555325 0.051413756
0001b0 f3 f3 ac bd de 6c 3d 3d 7a c6 a3 bd 6e e4 72 bd
       -0.08444967 0.046246402 -0.07996841 -0.05929988
0001c0 d8 d7 8b bd 48 1d 11 be 07 5c 62 3d 98 6f 09 bd
       -0.06828278 -0.14171326 0.055263545 -0.03355369
0001d0 6e 9f a3 bc 22 7c a6 3d c9 c5 cf bd 52 d2 13 3e
       -0.019973483 0.08129145 -0.101451464 0.144357
0001e0 1b be ad bd df 7e 31 bc b9 f4 29 3d 0c 3e 35 be
       -0.08483525 -0.010833471 0.04149315 -0.1769945
0001f0 85 f7 31 be 1c 01 b7 3c 2e 0d 88 bd 06 16 31 be
       -0.17379577 0.022339396 -0.06643139 -0.17293558
000200 18 34 13 bd 91 50 a2 bc 0a 32 13 be 0f d3 7b bc
       -0.035938352 -0.019813808 -0.14374557 -0.0153701445
000210 90 3e c8 3d e8 0a d9 3b f9 29 31 3d 1c 54 87 3c
       0.09777558 0.0066236146 0.04325292 0.016519599
000220 ea 24 6a bd 69 c6 b1 3d 6e a5 3e bc 4a b2 76 bd
       -0.05716411 0.08680422 -0.011636121 -0.060228623
000230 dc 3d ac bd 8c d3 92 3d 9a 37 f3 3d 35 de 40 3a
       -0.08410236 0.071692556 0.118758395 0.000735733
000240 b0 3d cb bd bc 64 15 3e f7 c1 58 3d f0 39 12 3c
       -0.09923875 0.14589208 0.052919354 0.008924946
000250 3d 25 63 3c 9a 44 c2 3d 3e 84 d6 3d 94 82 15 3d
       0.013863859 0.09485741 0.10474442 0.036501482
000260 30 c4 c8 bd 8e 21 64 3d c1 d4 82 3d e9 e2 86 3e
       -0.09803045 0.055696063 0.06388236 0.26344994
000270 28 25 5f bd 1c 43 f7 3d d2 7a ad 3c 5d 14 96 bc
       -0.054478794 0.12073347 0.02117673 -0.018320257
000280 b6 0f 42 3e d1 1b c8 3d 87 d4 0d 3e 01 86 15 3e
       0.18951306 0.097709306 0.13850604 0.146019
000290 e4 d6 11 3e 5f 81 f7 ba af 70 b0 3d 3b f1 59 3e
       0.1424213 -0.001888316 0.08615243 0.21283428
0002a0 0e e4 2b 3a c4 c7 da bd a4 12 d4 3d f1 94 e0 bd
       0.0006557115 -0.106826335 0.10355118 -0.10965908
0002b0 cc 73 43 3d 43 e9 00 be 5c 47 61 bd 90 fe b5 bd
       0.047717854 -0.12588982 -0.054999694 -0.088864446
0002c0 d5 3d 95 bd 5c 24 08 3d ec 4f c7 bd e9 a4 6c 3e
       -0.07287184 0.0332378 -0.09732041 0.23109783
0002d0 e3 5b a5 bd bd d0 e4 bd e1 f7 83 bd 60 aa a5 bd
       -0.080741666 -0.11172626 -0.064437635 -0.08089137
0002e0 ab 4e 7b bb 88 41 a4 3d 84 7f 96 bc e9 a1 b1 3d
       -0.003834645 0.080203116 -0.018371351 0.0867346
0002f0 34 ca 80 3c 55 d0 00 3d d5 57 f8 bd dd 9b 64 bd
       0.015721418 0.03144868 -0.12126128 -0.055812705
000300 ba 01 b5 bd 9c 09 6b bd e9 f0 b4 bc d8 d8 39 3d
       -0.0883822 -0.05738221 -0.022087531 0.045372814
000310 e1 b4 31 3e 25 94 f5 3b f7 69 6f 3d fb 43 01 3d
       0.17354156 0.007494467 0.058450665 0.03155897
000320 90 5e 5d 3d 0d f5 17 3e c3 da 0c 3e 4c 61 dc 3d
       0.05404526 0.14839573 0.13755326 0.107607454
000330 54 3f 1a be 08 b5 a6 3d 04 1c 80 bd 09 4d c1 bd
       -0.1506322 0.08139998 -0.062553436 -0.094385214
000340 d3 ce 58 3d ce b2 2a be 74 77 87 bd 10 f2 44 be
       0.052931618 -0.16669771 -0.06614581 -0.19232965
000350 d6 0f 3e be bb c5 87 bb fc 6b 95 3d d6 2d c7 3d
       -0.18560728 -0.0041434444 0.07295987 0.097255394
000360 dd a4 b4 bd 1b 58 bb 3d 33 31 ed bd 8e f0 cc bd
       -0.08820508 0.09147664 -0.1158165 -0.1000682
000370 c3 15 f4 bc 71 7f 1f bd c8 8d a1 bd 7c f0 40 bc
       -0.029795533 -0.038939897 -0.07888371 -0.011776086
000380 8f 44 5d 3d e3 c5 1d be e8 38 0f 3d 6c fd 55 bd
       0.05402046 -0.15407519 0.03496638 -0.052243635
000390 67 23 cf 3d 09 5e 05 bc f8 a1 d9 3d cb ae 2b 3c
       0.10114174 -0.0081400955 0.10626596 0.010478686
0003a0 01 d7 46 bd c1 11 fc bb 18 4f cd 3d 01 0d a1 bc
       -0.048544887 -0.007692546 0.100248516 -0.019659521
0003b0 a4 9e 20 3c 59 a5 cd bd 6f cf 73 bb d7 ef bc 3b
       0.009803448 -0.10041303 -0.0037202497 0.005765896
0003c0 81 ff b3 bd 04 cb ea 3d 94 ef 0d 3e cb 84 00 3c
       -0.08788968 0.114645034 0.13860923 0.00784416
0003d0 78 a0 20 3e 61 cb 6a bd 65 7f cf 3c c3 b0 06 3e
       0.15686214 -0.057322863 0.025329301 0.13153367
0003e0 26 82 bc 3c 1c 0b a1 bd 0d 58 8b bb 34 e5 80 3e
       0.023011278 -0.07863447 -0.00425244 0.25174868
0003f0 68 e9 67 be 1f c5 ef bd 40 80 4a bd 8c 68 ca 3d
       -0.22647631 -0.1170752 -0.049438715 0.09883222

lstm.lstm1.weight_hh_l0 f4 [256, 64]
000000 c2 33 bf bd 3f c2 96 3d 44 9f 5e be 11 f7 1e be
       -0.09336044 0.07361268 -0.21740443 -0.15523936
000010 e5 88 16 3e aa 91 20 3d 13 3f 74 bc ff fe 4a 3c
       0.14700659 0.039201416 -0.014907616 0.012389897
000020 28 1d e7 bd 86 90 49 3d e8 8f ce 3c a6 0d 40 bd
       -0.11284858 0.049210094 0.025215104 -0.046888016
000030 fc a5 23 3e d9 01 21 bd 33 1b 2b bd a1 37 22 bd
       0.15981287 -0.039308403 -0.041773986 -0.039603833
000040 e5 5f 2d bd be 28 ee bc 95 1a 3b be b0 d6 98 3d
       -0.04232778 -0.029072162 -0.18271859 0.074628234
000050 8e dc a3 3c b9 3b 55 bd 99 3b 90 3d 67 22 4c 3c
       0.02000263 -0.05205891 0.07042617 0.012459374
000060 53 01 44 be 0a c4 41 3d 6a 77 f6 bd 6f 63 9d 3d
       -0.1914113 0.047306098 -0.12034495 0.07684981
000070 dc 9b 2b 3e 49 87 81 3c 81 c0 2a 3b 3b 34 3d be
       0.16758674 0.01581158 0.0026054683 -0.18476956
000080 82 4e dc 3d 9f 73 06 bd 99 d1 0d bd fe f5 2f 3e
       0.10757162 -0.03282511 -0.034623716 0.17183682
000090 98 c3 a8 3d 5b 6f 60 3d 2a 6c b8 bd 00 98 2f 3d
       0.082404315 0.054793697 -0.09005006 0.042869568
0000a0 5c a2 03 3e 52 22 83 bb 80 5b 6b 3d 6c 90 8d bd
       0.12854904 -0.004001894 0.057460308 -0.06912312
0000b0 bf bb 0d be 31 63 ac bd 68 be 8a 3d 0c a6 96 bd
       -0.1384115 -0.08417357 0.06774598 -0.0735589
0000c0 39 52 97 bd 5f 9b d2 3c f9 b4 25 3e 07 85 b6 bd
       -0.073887296 0.025708852 0.16182317 -0.08912092
0000d0 0a 90 ed bd 7d ad 2d 3c 73 23 21 3e 72 6f c1 3d
       -0.11599739 0.010600445 0.15736179 0.09445085
0000e0 a2 6f fc 3d 9f 85 ea 3c 8a 27 d9 3b c6 5c ca 3d
       0.1232598 0.028628169 0.006627028 0.098809764
0000f0 af 72 03 bd 7e 30 13 be 05 bc ed bc a4 fa bc bc
       -0.032091793 -0.14373967 -0.029020319 -0.023068734
000100 bc 3e a2 3d 3f 27 be bc a3 e0 5f 3c a8 a1 8a bb
       0.07922122 -0.023212073 0.013664397 -0.0042306967
000110 69 e7 46 3c 9f 63 6c bd ef 10 bf 3d 0a af c7 3d
       0.012140133 -0.057712194 0.09329402 0.09750183
000120 4a 34 9f 3d 27 fc b7 bd aa 1c ed 3d 82 4f a0 3b
       0.07773645 -0.08983641 0.11577733 0.0048922906
000130 19 14 c4 3d 33 6b 5d 3c 63 2d 93 bd 01 d2 9d 3d
       0.09574146 0.013514328 -0.07186391 0.07706071
000140 33 00 14 3d e7 6b 03 be 58 35 0f be ae b6 9e bd
       0.036133002 -0.1283413 -0.13985193 -0.07749687
000150 f4 b4 2d 3d eb 8b 04 bc f6 f0 b0 bd d0 49 f3 bd
       0.0424089 -0.00809 -0.0863971 -0.11879313
000160 fc 33 c2 3d 74 aa 9a bd da 66 0b be 41 dd 15 3e
       0.094825715 -0.075520426 -0.13613454 0.14635183
000170 24 1a bd 3d f1 a4 aa bd 17 93 c0 bd 17 09 9a bd
       0.092335016 -0.08332241 -0.09403055 -0.07521265
000180 85 83 9d bc 72 c3 d0 3d 76 35 18 be 6d 76 f9 3d
       -0.019227752 0.10193528 -0.14864144 0.12180791
000190 ae 37 07 3d 6a cd c1 3d b6 57 d7 bd 5a da 07 be
       0.033012085 0.09463008 -0.105147764 -0.13266888
0001a0 86 0d 6c bc 53 c8 e2 bd e6 8b 96 bd 02 80 0d bc
       -0.014407521 -0.11073365 -0.07350902 -0.0086364765
0001b0 aa 71 15 3c cb b9 83 3d 64 64 0a 3e 95 59 f7 bc
       0.009121338 0.064319216 0.13514858 -0.030194083
0001c0 5a 9b 18 3d 1d d9 82 bb ac 25 15 3e 56 52 c9 3d
       0.03725753 -0.003993167 0.14565152 0.098301575
0001d0 5e 93 f6 bd 3e 1c f3 bd b6 85 bc 3d 0c f5 b6 bd
       -0.12039827 -0.11870621 0.09205191 -0.08933458
0001e0 83 6d 9e bc bf ca 02 bd 30 1e 34 3d 81 91 1d 3e
       -0.019339329 -0.031931635 0.0439741 0.15387537
0001f0 26 81 8f 3c b8 34 67 bd 05 05 98 3c 24 f2 a5 bc
       0.017517637 -0.05644676 0.018557081 -0.020257063
000200 13 cf 2a bd 0b 95 a7 3c 3e b3 1d 3d 89 df cf bd
       -0.041701388 0.020456811 0.038501017 -0.10150058
000210 39 70 bd 3c ea 33 05 3e 60 d9 34 3c 12 c8 95 3d
       0.023124801 0.13008085 0.011038154 0.07313551
000220 85 26 23 3e 0d 52 44 3d cf 65 a4 3d c2 9e 29 3e
       0.15932663 0.047929812 0.08027231 0.16564468
000230 25 b7 c5 3c da 88 b0 3d 00 bd 13 3d be 1f 13 be
       0.024135182 0.08619852 0.036068916 -0.14367577
000240 24 b5 3c 3d 0e 77 1c 3d 9f 73 01 3c 4e 6a 14 be
       0.046071187 0.038199477 0.007901101 -0.14493677
000250 3e 49 64 bb ff 70 13 be f4 64 30 bc ce dd 0b 3d
       -0.0034833695 -0.14398573 -0.010766257 0.034147076
000260 7d f5 ca bd f3 86 6a bd 77 6a b3 bc eb 0c c0 3d
       -0.099101044 -0.057257604 -0.021901352 0.09377464
000270 d5 62 90 3d 98 9c c7 bd e5 a9 c3 3d 24 99 dc 3c
       0.07050101 -0.09746665 0.09553889 0.026928492
000280 6f 03 f1 3c 30 b5 e9 bc 85 8f 98 3d ab 0b 73 bc
       0.029420583 -0.02852878 0.07449249 -0.014834325
000290 33 51 f7 bc cf af 74 bd 52 9d dc 39 ea 43 af 3c
       -0.030190086 -0.059737977 0.00042078883 0.021394689
0002a0 3c 6a f2 3d a5 5a db 3c 1a e9 f7 3b 44 06 92 bd
       0.11836669 0.026776621 0.0075656297 -0.07130101
0002b0 c8 d1 bb 3d 5b 13 97 bd 3f ec 97 bd 05 fc 00 be
       0.09170872 -0.07376739 -0.07418107 -0.12596138
0002c0 df bc 7f 3d b6 16 db 3d fc 7c 80 3d 64 08 12 be
       0.06243598 0.10697691 0.06273839 -0.14261013
0002d0 74 34 6a 3c 63 a5 17 bc a5 6b 36 3e 56 da ed 3d
       0.014294732 -0.00925574 0.178145 0.1161391
0002e0 14 ea ac 3d 03 5b 0a 3e ad d6 ef 3d 31 0c f9 3c
       0.08443084 0.1351128 0.11710868 0.030401321
0002f0 57 3f a0 bc 06 77 21 3d e4 6b b2 3c 53 e3 e7 bd
       -0.019561453 0.03942015 0.021779962 -0.113226555
000300 44 1d c6 3b ed 39 8c bd da 3c 7a 3d cd 39 82 3d
       0.006045969 -0.06846986 0.06109319 0.06358681
000310 5c fa d4 bd b6 b6 3b bc 13 4a 0a bd 95 0c 02 be
       -0.10399315 -0.011457136 -0.03376205 -0.12700112
000320 15 b0 ba bd 22 59 66 3d c8 85 f7 3b f0 a9 7a bd
       -0.09115616 0.056237347 0.0075537898 -0.06119722
000330 0e bf 84 bd b8 b8 7c 3c b1 58 54 bd 18 55 3a 3c
       -0.06481753 0.0154249 -0.051842395 0.011372827
000340 57 f3 1a bd e9 18 d9 3d ab 70 b2 3d 08 8e 8f 3b
       -0.037829723 0.10600454 0.08712896 0.004380945
000350 c9 a4 0e 3d 55 f9 b0 3d ac 27 cd 3d fc 14 e1 3c
       0.03482512 0.08641306 0.100173324 0.027475826
000360 0a 07 b1 3d 50 9f d4 3d 3e 98 b3 3c 72 96 f3 bb
       0.08643921 0.10381949 0.02192318 -0.007433706
000370 fe 03 86 3d 15 e4 6a 3d 79 fd f9 bd 86 79 12 bd
       0.0654373 0.057346422 -0.12206549 -0.035760425
000380 2c 48 78 3d 8e e6 72 bc 7f 7e 04 be 90 27 c5 bd
       0.060615703 -0.014825476 -0.1293888 -0.096266866
000390 d2 3f f8 3c 8f 8d e0 3d ab 65 8d bd 11 b6 8a 3d
       0.03030387 0.109645 -0.06904157 0.06773008
0003a0 12 de c3 3d a2 ea 62 3d ba a2 a1 3d a8 b9 d7 bd
       0.09563841 0.055399545 0.07892366 -0.10533458
0003b0 8f b2 79 bd c8 7e fe bd a9 77 a2 3c 36 cb a9 bd
       -0.060961302 -0.12426525 0.019832449 -0.082907125
0003c0 c3 ea 9e 3d ed f4 d7 bc d5 d2 d0 3c 71 74 b6 bd
       0.07759621 -0.026361907 0.025491158 -0.08908928
0003d0 d7 1c f6 bc 23 b0 50 bc 20 e8 67 3c 1f 83 31 3d
       -0.030043049 -0.012737307 0.014154464 0.043337937
0003e0 69 46 46 bd b9 4e 36 3d 28 a6 b4 3d 76 98 71 bd
       -0.048406992 0.04450867 0.08820754 -0.05898329
0003f0 ce fd 60 bd 3a 3a 0b 3d 3f 67 8f 3d ce 10 0d be
       -0.054929547 0.033991076 0.070021145 -0.13775942

lstm.lstm1.bias_ih_l0 f4 [256]
000000 ed 58 21 bd ef dd 00 bc ff 62 84 3d 15 19 9b bd
       -0.039391447 -0.007865413 0.064641945 -0.075731434
000010 b5 71 86 bd 8b d8 2b 3d d9 aa 19 3c 4d fc b5 3c
       -0.06564657 0.04195456 0.009379112 0.022215033
000020 fd 42 98 bd 35 c5 8c 3c 76 90 0c be a9 b4 47 bc
       -0.07434652 0.01718388 -0.13726982 -0.012189069
000030 38 94 06 bd 92 db 13 3d f8 14 00 3d ff 77 39 bd
       -0.032856196 0.03609807 0.031269997 -0.045280453
000040 fb d7 bd bd 5d bd 3e bd 99 f9 9d bd 43 31 ec 3d
       -0.09269711 -0.04656731 -0.077136226 0.115328334
000050 1c 79 a2 3d 3f ba ee 3c d9 2c 7a bb 10 8d b6 3d
       0.07933256 0.029141543 -0.0038173704 0.08913624
000060 da 97 b9 bc 01 f7 6e 3d b2 62 1d 3c cd bd 09 be
       -0.022655416 0.05834103 0.00960605 -0.1345131
000070 a5 b0 a3 3c d3 b9 3b bd 43 45 22 3d 06 f0 c3 3c
       0.019981692 -0.045831513 0.039616834 0.023918163
000080 90 17 a2 bd 1d 0a a0 bd 83 89 20 bd fc 88 09 3d
       -0.079146504 -0.07814429 -0.03919364 0.033577904
000090 ef 99 cf bc 02 be 88 bd dc 7e d3 3d 86 fd 8a 3d
       -0.025341956 -0.06676866 0.10326931 0.06786637
0000a0 92 0e 2a ba ff 76 07 bd 24 95 cc bd 3c 49 ac bd
       -0.00064871565 -0.033072468 -0.09989384 -0.08412406
0000b0 dd 32 0c 3e 42 c1 82 bd 1e 55 19 bd 12 e4 44 bd
       0.13691278 -0.06384517 -0.03743469 -0.048069067
0000c0 89 28 68 3d 7a 6e 6a bd 63 c7 9e 3d 82 e2 59 bd
       0.056679282 -0.057234265 0.07752874 -0.05319453
0000d0 c2 fd c4 3d a5 1f cf 3d 19 a3 c6 3d 61 ec 47 bd
       0.09618713 0.101134576 0.09699077 -0.048809413
0000e0 88 d6 05 be 5e 92 0d 3d 89 4e d9 bc 2f 44 98 bd
       -0.13070118 0.034563415 -0.026526706 -0.0743488
0000f0 13 70 ce 3d 4d 8e cd bc e0 a2 e1 3d 2d a8 89 bd
       0.1007997 -0.025092268 0.11017394 -0.0672153
000100 98 73 02 be 4a 29 64 3d 7f a4 03 ba d4 7e 1d bd
       -0.12739408 0.05570344 -0.0005021765 -0.03845103
000110 12 bc eb bc ae 69 b0 bc 13 02 84 bd 7a 1b 0b bc
       -0.028776202 -0.021534767 -0.06445708 -0.008490438
000120 5b cb aa 3d 74 0f eb bd 23 b5 52 bd f3 10 2c bd
       0.08339568 -0.11477557 -0.051442277 -0.04200835
000130 d7 e4 37 3d d4 d1 ae 3d 1c f6 9d 3d 20 09 04 be
       0.044895973 0.08536115 0.07712957 -0.12894106
000140 ed 74 c0 bc a7 bb 3a bd 9d 24 62 bd 7d 98 06 be
       -0.023493255 -0.045589115 -0.0552107 -0.13144107
000150 f5 4f 10 bd 28 26 cd bc 8e 3a c0 bd ab 29 c6 3b
       -0.035232503 -0.025042608 -0.093861684 0.0060474477
000160 70 37 d9 bd f9 2a ae 3d dd 1c 6b 3c 38 02 8b 3d
       -0.10606277 0.0850429 0.014350143 0.067875326
000170 2f 99 ae 3d 3b df c4 bc 2f d2 4b 3d b9 80 16 3d
       0.08525311 -0.024032226 0.049760994 0.036743853
000180 1d cc e4 bd 80 bb a6 bd 89 27 ee bd 61 ee 4d 3d
       -0.11171744 -0.081412315 -0.116286345 0.050276164
000190 00 ae e7 bd ff 01 69 bd cd 73 c9 bd 29 fc a6 3d
       -0.11312485 -0.05688667 -0.0983654 0.081535645
0001a0 00 eb e5 bd 57 07 84 3d 0c ef 22 be 57 e2 38 3d
       -0.11226463 0.064467125 -0.15911502 0.04513773
0001b0 86 b6 b4 3d 4b 95 92 3d 44 af a3 bd d5 7a 0a be
       0.08823876 0.071573816 -0.07992414 -0.13523419
0001c0 a2 bf f4 bc eb f0 30 3d cd 8a cb 3c c3 a5 b5 3d
       -0.029876534 0.043198507 0.024846459 0.08869507
0001d0 e1 a8 fa bd f6 e7 09 3e 9c 93 5a bd 3a e5 4b bc
       -0.12239242 0.13467392 -0.053363428 -0.012444789
0001e0 ce 01 89 3d ec 3f b6 bd 92 50 99 bd 80 54 0c 3e
       0.06689797 -0.08898911 -0.07486071 0.13704109
0001f0 d6 37 97 bd a6 92 ba bd 0b 13 fc 3d 61 59 b1 3b
       -0.07383697 -0.09110002 0.1230832 0.005412266
000200 85 6a 82 bd b8 02 19 bd 4f f4 8a bd 4d 52 c2 bc
       -0.06367973 -0.03735611 -0.067848794 -0.023720885
000210 c6 f2 ae 3c bc b2 b1 bd 76 5b ae 3d d4 b8 e1 3d
       0.021355998 -0.08676669 0.085135385 0.11021581
000220 e9 ee 40 bc d1 7b ca bd a5 84 da 3c 5a 3d ae bd
       -0.011775711 -0.09886897 0.026674578 -0.08507796
000230 2b e4 93 3d b4 81 ff bc 63 92 d0 bd fb 4b 70 3c
       0.07221254 -0.031189777 -0.10184171 0.014666553
000240 2f 52 8a bd 5a 60 08 3e 65 6d 2a bd aa ab a3 bd
       -0.067539565 0.13318005 -0.041608233 -0.07991727
000250 ee 1e aa bc 0d f5 6a bd 28 e2 ee bc 2c f3 eb 3d
       -0.020766702 -0.057362605 -0.029160574 0.11520991
000260 46 d5 37 3d ee 75 bb bd fd 7a d3 bb 17 f0 21 bd
       0.044881128 -0.09153353 -0.0064538703 -0.03953561
000270 9a 55 1d 3e d7 1b 2f bb 18 27 5a 3d 8b e8 25 3d
       0.15364686 -0.0026719475 0.05325994 0.040504973
000280 88 6d 9b bc 43 fb 8e bd 9d c9 cc 3d e3 38 f6 3c
       -0.018973127 -0.06981518 0.09999392 0.030056423
000290 45 6c e2 3d 73 f4 a4 bd c1 76 6f 3d a3 2d c5 bd
       0.11055807 -0.080544375 0.058462862 -0.09627845
0002a0 91 4f 9f 3c 0b cb 4f 3d 9e fe d2 3b 9d 49 74 bd
       0.01944712 0.050730746 0.006439044 -0.059640516
0002b0 8f d1 0e bb 79 40 22 3d 33 98 7d bd 70 aa 9b 3d
       -0.0021792387 0.039612267 -0.061912727 0.07600868
0002c0 b9 c7 9f 3d 2b 50 27 bd 78 ab 8d bc ec 4b c5 3d
       0.07801766 -0.04084794 -0.017293677 0.096336216
0002d0 75 fc 90 3d 6f bd 11 3d 1a 25 a9 bd de c9 11 bd
       0.07079402 0.03558105 -0.0825903 -0.035592906
0002e0 91 de 78 bd 6a c8 b8 3d eb 5c e6 bd 27 13 aa 3d
       -0.06075913 0.09022601 -0.112481914 0.08304434
0002f0 ab d3 f3 bd 92 79 c5 3d 13 33 0c 3d db 56 fa bc
       -0.11905607 0.09642328 0.034228396 -0.030558994
000300 11 ed 00 bd 19 b6 98 bd 75 65 b9 3d 0e 37 a5 3d
       -0.031476084 -0.07456607 0.090525545 0.080671415
000310 51 db bf bd cb 1d d8 3d 9f 36 8b bd 59 36 a7 3d
       -0.09368003 0.105525576 -0.067975275 0.08164663
000320 72 38 11 bd 59 37 ce bc 61 9d a2 bd d0 fd a6 3d
       -0.03545422 -0.025172876 -0.07940174 0.0815388
000330 c2 94 2d 3d 3b 90 07 bc 22 7d ed bc ff df 3b bd
       0.042378195 -0.008274133 -0.028990332 -0.045867916
000340 88 57 17 3d 87 70 30 3d 91 a0 28 3d ff 5c ce 3c
       0.03694871 0.043076064 0.041168753 0.025190828
000350 d5 9b 22 3d 3e 64 ba bd b6 1e 16 bc b1 06 fc 3d
       0.039699394 -0.09101151 -0.0091625955 0.12305964
000360 ff 12 0e be a0 a4 79 bd 74 89 a3 bd 10 10 72 3d
       -0.13874434 -0.060948014 -0.079852015 0.05909735
000370 61 36 52 bc ea 98 bd bd 8b 40 a4 3d ad 0e 35 bc
       -0.012830348 -0.09257682 0.08020123 -0.011050862
000380 bc 50 72 3d 31 e3 36 be 91 55 f1 bd 59 b4 a3 3d
       0.059159026 -0.17860104 -0.117838986 0.07993383
000390 2d 4a c2 bd 59 df d6 3c 24 f1 03 3e 66 e2 57 3d
       -0.09486804 0.026229547 0.12884957 0.052706145
0003a0 da c7 ff 3b c2 3e 60 bb 72 f2 4e 3b fb 82 eb 3c
       0.0078058066 -0.0034217094 0.0031577614 0.02874898
0003b0 54 36 07 3e 5e 9b f2 bb 5f 78 e5 3d 3c 7c 00 be
       0.13204318 -0.007403775 0.112045996 -0.12547392
0003c0 09 f8 08 3e 8a 7f 9f bd de db 81 3d 86 7c 98 3a
       0.13375868 -0.07787998 0.063407645 0.001163379
0003d0 31 5c 5f 3d fd 77 18 3d 51 a3 ef bc 24 f7 64 bd
       0.05453128 0.037223805 -0.02925268 -0.055899754
0003e0 40 47 b6 bc 92 78 6a 3c 6e a4 06 3d 8e 65 af 3d
       -0.022250772 0.014310973 0.032871656 0.08564292
0003f0 9b e6 38 3d 6e f1 a7 bd 10 ff f5 bb 8b 87 52 3d
       0.045141798 -0.08200346 -0.0075072125 0.051398795

lstm.lstm1.bias_hh_l0 f4 [256]
000000 97 04 eb 3d f3 1c 97 3d 35 7a 9d bd 1d c1 1a bd
       0.11475485 0.073785685 -0.07689325 -0.037781823
000010 bf b3 b5 bd e6 ec 1f 3e ba 5d 45 bc 5d cf f2 bb
       -0.088721745 0.15617713 -0.012046272 -0.0074099735
000020 17 b8 a7 bd f3 65 b0 bd f8 b7 cb bc 71 2e 92 3d
       -0.08189409 -0.08613195 -0.024867997 0.07137764
000030 3f 50 bb 3b 6f 46 b3 bd ab 61 06 be 87 b6 c2 3d
       0.005716353 -0.087536685 -0.13123195 0.095074706
000040 42 a4 3e 3d 4e 61 0b be 42 f3 8a bd 83 b1 df 3d
       0.046543367 -0.13611338 -0.06784679 0.109225295
000050 47 07 8d bb d9 4f 80 bc 92 75 1a 3d 1b e6 b9 bb
       -0.004303846 -0.015663074 0.03770978 -0.0056731827
000060 2d e6 d5 bd 87 83 ef bd 04 5a ea 3c 0e e9 ac bd
       -0.10444293 -0.11695009 0.028607376 -0.08442889
000070 5e 8c 1b be 7d 2e b8 3d e7 b9 51 bd 1f 46 5d 3d
       -0.15190265 0.08993242 -0.05120268 0.05402195
000080 f0 e4 8a 3d c1 ad 8e bd 0b 5d d6 3c e1 23 ad bd
       0.067819476 -0.06966735 0.026167413 -0.08454109
000090 80 bd 01 3d d9 25 ef 3d 3e 90 c4 3d 9f 0c 1b be
       0.031674862 0.11677141 0.095978245 -0.15141533
0000a0 82 4d 93 bd 73 d2 4a 3d 3b b2 53 3d 28 5c cd bd
       -0.07192518 0.049517106 0.051683646 -0.10027343
0000b0 b1 b1 57 3c 82 6d a1 bc 3e 35 17 3d fd d3 d7 3c
       0.0131649235 -0.019705538 0.03691601 0.026346201
0000c0 69 12 d8 bd 6a f9 6e bd 39 03 c5 3d 99 e1 a4 bd
       -0.105503865 -0.05834333 0.09619755 -0.08050842
0000d0 e6 e4 f6 bd f9 c7 6e 3d a7 2f e8 bc 8d f7 9d bd
       -0.12055378 0.058296178 -0.028343035 -0.07713232
0000e0 1f 95 fb bd 86 74 9c bc bc ab 96 bd 6b d4 34 bd
       -0.12284302 -0.019098531 -0.073569745 -0.04414789
0000f0 c4 9d 75 3d 96 2f ae 3d 67 16 c2 3b 13 f3 3f bc
       0.05996491 0.0850517 0.0059230807 -0.011715668
000100 91 2b 2a bd 2e 9b 0f 3d 9b c6 6b bd 7b 65 7e bd
       -0.041545454 0.0350601 -0.05756245 -0.062108498
000110 db 8c c8 bd bf e3 ca 3d 2c 1a 0e bd 9f 8f 03 3d
       -0.09792491 0.0990672 -0.03469293 0.03211939
000120 77 46 47 bd 46 30 cf bd b0 ae 16 be 58 37 83 3d
       -0.048651185 -0.10116629 -0.14715075 0.0640704
000130 9d 25 0e bc 5d 05 11 bd fc ea e3 bd 3a 52 e5 bd
       -0.00867596 -0.035405505 -0.11128804 -0.11197324
000140 24 02 4a 3d 9a 1e 02 be 3b c1 ae 3d e8 09 84 3d
       0.049318448 -0.12706986 0.085329495 0.06447202
000150 0f ec f2 3d 1d 19 9b bc a3 37 86 bd 55 ce e0 3c
       0.11861431 -0.018932873 -0.065535806 0.027442137
000160 18 38 e9 bd 51 13 b1 bd cb 31 f7 3c d0 33 a4 3d
       -0.11387652 -0.086462624 0.03017511 0.08017695
000170 0e 82 ef 3c 52 37 d1 3d ff 43 9b 3d 17 ce c3 bd
       0.02923682 0.1021563 0.075813286 -0.09560793
000180 3d 93 64 3d c2 be 37 be 0f e8 02 bc e9 89 1a be
       0.05580448 -0.17943862 -0.007989897 -0.15091671
000190 98 07 8e bd 98 d8 00 3e 67 42 0c 3c fd b9 d0 bc
       -0.06935042 0.12582624 0.008560753 -0.025479311
0001a0 4e d0 8a 3c 15 cf 83 bd 52 b5 3a 3d d3 d9 94 3c
       0.01694503 -0.06435982 0.045583077 0.018170273
0001b0 ee a9 b3 bc a4 4a c5 3d 17 64 6a bd 6a 57 b4 bd
       -0.021931615 0.09633377 -0.05722436 -0.088057354
0001c0 1e 1a ac 3d 74 46 4c 3d 64 22 91 bd f0 14 23 3d
       0.08403419 0.049871877 -0.070866376 0.03981489
0001d0 5c 93 44 3d 06 57 d7 bd 3e eb a2 3c 8d 99 79 bd
       0.047992095 -0.10514645 0.019887563 -0.060937453
0001e0 ad 57 25 3c f1 4b 4c 3a 6e da be 3c 7d 23 cd 3d
       0.010091704 0.00077932986 0.023297515 0.100165345
0001f0 98 ee b0 3c 81 fa d8 bc 81 0a ab bd c6 b6 89 bc
       0.021598145 -0.026486637 -0.08351613 -0.016810786
000200 66 c8 5c 3d 80 e3 65 3d 84 01 ef bb f5 ed 19 bc
       0.053902052 0.056125164 -0.007293882 -0.009395112
000210 37 fb 91 3d 37 ac 9d 3d 0e 2a 35 3c be 6e 42 bd
       0.071279936 0.07698863 0.01105739 -0.047468893
000220 8e 42 3b bd ed 25 b5 3d 86 4b 28 3d 7f 0e 2d bd
       -0.04571777 0.088451244 0.04108765 -0.042250153
000230 2b e9 00 3d 79 e1 b4 bd cf b7 b1 3d c0 68 cd 3d
       0.031472366 -0.08832068 0.08677637 0.10029745
000240 1b 5e a5 3d 0f 24 62 3d 8f fd 79 3d e4 f5 aa bd
       0.0807459 0.05521017 0.061032828 -0.08347681
000250 3a e9 ed 3c ac ef 33 3d b5 01 c6 bd 2b 79 97 3d
       0.029041875 0.04392974 -0.09668294 0.07396158
000260 d4 74 0a 3c e0 28 a9 bd 7e 6f 57 bd 01 5a 56 bd
       0.008450706 -0.082597494 -0.05259656 -0.05233193
000270 97 08 a2 bd db ff b9 bd 03 9c 8a bd d0 9d e1 bd
       -0.07911795 -0.09082004 -0.06768038 -0.110164285
000280 58 7f f6 3d 6d 63 c1 3d f9 56 ce bd 58 53 82 bc
       0.12036008 0.09442792 -0.100751825 -0.015908882
000290 85 b8 6a 3d 26 66 08 be 07 80 a3 bc 5d 3e 60 3d
       0.057304878 -0.13320217 -0.01995851 0.054746974
0002a0 c8 92 c7 3d b3 79 f1 bc d5 09 9f bd 2b 29 ac bd
       0.09744793 -0.029476976 -0.07765547 -0.0840629
0002b0 81 99 05 3e b7 b8 2a 3d 3c 54 e9 3d 40 73 2d bd
       0.13046838 0.041680064 0.113930196 -0.04234624
0002c0 f4 81 05 3e a9 bf 9c 3c 68 ec 11 3d 90 63 d2 bd
       0.13037854 0.01913436 0.035625845 -0.10272896
0002d0 1b 80 f6 bd a1 e1 0f bb 3c b0 9c bc 2c b4 a0 bd
       -0.12036153 -0.0021954554 -0.019127004 -0.07846865
0002e0 67 20 ac bd 1e eb 34 bd 6a d6 f3 3b a5 79 d5 bc
       -0.08404618 -0.044169538 0.0074413316 -0.026058981
0002f0 f4 17 2c bd f5 78 03 be ff c8 88 3d bf b5 df 3c
       -0.04201503 -0.1283911 0.06678962 0.027308343
000300 61 4e ae bd ee e1 a3 3d e0 ff 5b 3d f0 87 29 bc
       -0.08511043 0.08002077 0.05371082 -0.010347351
000310 96 7e 77 3d 68 fc 2b bd 2c 27 02 3e f4 1f 3d bc
       0.060423456 -0.04198876 0.12710255 -0.011543263
000320 b2 52 25 bc b9 e7 14 be 83 f1 31 bd 53 2c b5 3c
       -0.010090517 -0.1454152 -0.043443214 0.022115862
000330 40 e2 12 3e e1 f3 ad bd b8 81 ea 3d c4 92 35 bc
       0.1434412 -0.08493782 0.11450523 -0.011082355
000340 78 3d 5f 3c 65 be cf 3b 20 d8 39 bd 29 ee 00 3d
       0.013625495 0.0063398355 -0.04537213 0.031477127
000350 22 c2 47 3d 20 28 c2 3d 9c 6b e4 3c 3c 6a 22 3e
       0.048769124 0.094803095 0.027883343 0.15860838
000360 cb 3b cb bd 24 82 ed bd 26 0e a7 3d 3b 15 c2 bc
       -0.09923514 -0.11597088 0.081569955 -0.023691764
000370 ed c5 ca bc e0 d8 28 3c d0 30 f4 3d a0 78 cb 3d
       -0.024752581 0.010305613 0.11923373 0.09935117
000380 24 f5 21 3d 68 83 22 be a1 70 ab bd 06 40 30 3d
       0.039540425 -0.1587044 -0.08371092 0.043029808
000390 47 03 19 3e 92 b3 99 3d 23 71 ca 3d be bb 59 3d
       0.14942656 0.075049534 0.0988486 0.05315756
0003a0 55 c5 0c 3e c8 1e 6a 3c 59 94 a0 bd 3a 71 c5 3d
       0.13747151 0.014289565 -0.07840795 0.09640737
0003b0 c2 20 40 bd 5f 95 c7 3d 9e 5b b7 bd 53 1e c2 bd
       -0.04690624 0.09745287 -0.089530215 -0.0947844
0003c0 a9 d6 0b bd f6 18 97 bd 2d 5f f4 bd d1 5a a1 bd
       -0.034140263 -0.07377808 -0.11932216 -0.0787865
0003d0 48 3f 54 3d 64 90 de 3c 4e 95 00 3e 6f b5 b0 3d
       0.051818162 0.02716846 0.12556955 0.08628356
0003e0 18 eb 9b bc e8 a4 01 bc 6d a2 dd 3c b0 59 49 3d
       -0.019033 -0.007912852 0.02705499 0.0491578
0003f0 6c f7 0e bd 1b 15 6e 3c f1 5d fa 3d 2c 4f 8d bb
       -0.03490393 0.014531399 0.12224949 -0.0043124165

lstm.bn1.weight f4 [24]
000000 87 72 87 3f 30 c8 89 3f 49 42 8c 3f 65 49 8b 3f
       1.0581826 1.0764217 1.0957729 1.0881773
000010 91 23 8b 3f d8 e8 8a 3f da 4d 8a 3f 3d 9f 89 3f
       1.0870229 1.0852308 1.0805008 1.0751721
000020 6a b7 88 3f ee 7c 87 3f a6 4f 86 3f 78 32 85 3f
       1.0680974 1.0585 1.0493057 1.0406027
000030 88 13 84 3f db 02 83 3f 9f 4c 82 3f f0 9f 81 3f
       1.031846 1.0235246 1.0179633 1.0126934
000040 e5 d6 80 3f da ed 7d 3f 30 0b 81 3f 4c a4 82 3f
       1.0065581 0.9919106 1.0081539 1.020639
000050 d9 72 81 3f 99 8e 7f 3f 54 d8 7f 3f 62 c6 82 3f
       1.0113174 0.9982696 0.99939466 1.0216792

lstm.bn1.bias f4 [24]
000000 7a c4 27 3d f2 6a 53 3d d4 ce 68 3d 8b 10 56 3d
       0.04095886 0.051615663 0.05683787 0.05226187
000010 4d 78 67 3d db cf 79 3d 1e e8 37 3d 4c c1 29 3d
       0.056511212 0.060989242 0.0448991 0.041444108
000020 ca 4f 18 3d e8 17 09 3d 7a ef fd 3c b2 fc e5 3c
       0.037185468 0.033470064 0.03099798 0.028074596
000030 75 54 c9 3c f7 0a a7 3c 9d 52 4c 3c a5 44 13 3c
       0.024576405 0.02039097 0.012470868 0.008988534
000040 66 2c c5 3c 80 28 e6 3c ff 3e e1 3c 8a 96 97 3c
       0.024069022 0.028095484 0.02749586 0.0185044
000050 1a 32 a1 3b 46 29 82 bb 34 7a 48 bb 80 ce 6a bc
       0.0049193026 -0.0039722053 -0.0030590417 -0.01433146

lstm.bn1.running_mean f4 [24]
000000 4b ba 41 3c e6 28 a6 3c a4 90 d5 3c e7 9a f3 3c
       0.011824201 0.020283174 0.026069947 0.02973695
000010 64 97 02 3d 5c 51 07 3d 15 98 09 3d 39 7f 0a 3d
       0.03188266 0.033036575 0.033592302 0.033812735
000020 0d b2 0a 3d 0b 94 0a 3d bd 5a 0a 3d 00 20 0a 3d
       0.03386121 0.03383259 0.03377794 0.033721924
000030 63 ee 09 3d 47 c8 09 3d 96 ac 09 3d 45 99 09 3d
       0.03367461 0.033638265 0.033611856 0.033593435
000040 21 8c 09 3d 56 83 09 3d 72 7d 09 3d 55 79 09 3d
       0.033580903 0.033572517 0.0335669 0.033562977
000050 b0 76 09 3d de 74 09 3d b0 73 09 3d 00 73 09 3d
       0.033560455 0.03355872 0.033557594 0.03355694

lstm.bn1.running_var f4 [24]
000000 06 ab 4a 3b 73 90 f5 3b ff 91 33 3c bb b9 59 3c
       0.0030924692 0.0074940263 0.010960101 0.0132889105
000010 03 fe 70 3c b3 13 7e 3c 25 6c 82 3c a5 fe 83 3c
       0.014708999 0.015507626 0.015920708 0.016112635
000020 0c 9b 84 3c 9f c0 84 3c 6b b4 84 3c bd 98 84 3c
       0.016187213 0.01620513 0.016199311 0.016186113
000030 e4 7c 84 3c fb 65 84 3c e4 54 84 3c ce 48 84 3c
       0.016172834 0.01616191 0.01615376 0.016147997
000040 79 40 84 3c c0 3a 84 3c be 36 84 3c c5 33 84 3c
       0.016144024 0.016141295 0.016139384 0.016137967
000050 94 31 84 3c cd 2f 84 3c 5a 2e 84 3c 57 2d 84 3c
       0.016136922 0.016136074 0.016135383 0.016134901

lstm.lstm2.weight_ih_l0 f4 [256, 64]
000000 b2 86 df 3b 8d 04 2e be 49 44 65 3c 9b 0d 2a 3d
       0.006821477 -0.16993923 0.013993331 0.04151688
000010 0f ce 59 bd 5c 4b a3 bb 84 17 dd 3d 04 a6 bd bd
       -0.05317503 -0.004983349 0.10795501 -0.092601806
000020 b5 62 3f 3d 79 2b 34 bc 7f 3e f7 3c 8c 48 2c bd
       0.046724994 -0.010996693 0.030181168 -0.042061374
000030 43 74 47 3d 25 8d 18 bd 3a f4 a9 bc 28 76 8c 3d
       0.04869486 -0.03724398 -0.02074634 0.06858474
000040 bd da 9a bd 4f 75 35 be a2 ac 7a bd 4c 36 5c 3c
       -0.07561252 -0.17720531 -0.06119979 0.01344068
000050 ff 80 a3 3d 0a d5 ca bd f3 6b da bc db 38 d4 3d
       0.079835884 -0.09903915 -0.026662802 0.10362407
000060 26 40 ce 3d 2f 61 dc 3d a7 66 9c bd e2 0e ac 3d
       0.10070829 0.10760724 -0.07636767 0.08401276
000070 66 b7 02 be 43 d7 85 bd b4 2a de bd f2 f5 25 bd
       -0.12765273 -0.065351985 -0.10847989 -0.040517755
000080 b0 73 dd bd 77 c4 1d 3d 41 1f c4 bd 0e 23 11 3d
       -0.10813081 0.03851744 -0.09576274 0.03543382
000090 e1 64 27 3d 82 b7 4c 3a bf 0b bc bd a8 6b a8 3d
       0.04086769 0.0007809327 -0.09181928 0.08223659
0000a0 29 09 57 bd dd da 15 be 75 22 7d bc 9e 99 3e bd
       -0.05249897 -0.14634271 -0.01545011 -0.04653322
0000b0 c6 08 a5 bc cb 87 db 3c 43 18 1b be ee 5a 84 bd
       -0.020145785 0.02679815 -0.15145974 -0.06462656
0000c0 9c e5 89 3d 84 76 e5 3c fd b0 b7 bb 2b 5c 81 bc
       0.06733248 0.028010614 -0.0056058154 -0.01579102
0000d0 b0 67 0a be 26 55 d0 bd 6f 42 87 3c c1 f3 e9 3c
       -0.13516116 -0.10172491 0.01651117 0.028558614
0000e0 1d 5c b6 bd bb 50 23 bd 69 86 90 bd 38 e9 a7 bc
       -0.08904288 -0.039871912 -0.07056887 -0.02049695
0000f0 9b 6d ff 3c 80 d3 de 3c 36 c1 e8 3d 43 db 96 3d
       0.031180194 0.02720046 0.11364977 0.073660396
000100 de 30 71 3d e9 ce 82 3d 65 01 5c bc 55 72 d9 bd
       0.058884494 0.06387121 -0.013428067 -0.1061751
000110 4a ab 83 3c ac ca 7c 3d 46 3d 5b bc 7e 08 d4 bd
       0.016072888 0.06171672 -0.013381308 -0.10353182
000120 b9 0a 69 3d c8 36 c1 3d f6 f7 8e 3d 65 8e 8b 3c
       0.05689499 0.09434277 0.069808885 0.017035672
000130 75 e4 e9 bb c1 b7 f4 bd 20 2d a0 bd d2 fd fe bc
       -0.00713783 -0.11949111 -0.07821107 -0.03112689
000140 73 9a 1b be 9b ca a2 bb 5a 99 b7 bb 50 b0 7d bd
       -0.15195636 -0.004968 -0.0056029977 -0.061935723
000150 a4 ef 93 3d 2e 11 3f bd ab c4 34 3d 70 27 65 bd
       0.07223442 -0.046647243 0.04413287 -0.055945814
000160 14 dd 46 bd a8 01 08 3e a8 77 8e 3d f1 0f ce bd
       -0.04855068 0.13281882 0.06956416 -0.10061634
000170 1c 22 d2 3c 2d e4 a2 bd ba 95 c9 bd 7f 9b a1 bd
       0.02565103 -0.07953677 -0.09843011 -0.07890987
000180 d9 26 e0 3c 31 bb 1b 3d ab 0e cb bc 27 a4 a5 3c
       0.027362274 0.038020317 -0.024787268 0.020219875
000190 89 41 8c 3d 05 a1 4b 3d 78 8f 85 3c da 81 8f 3b
       0.06848437 0.049714107 0.016303763 0.004379493
0001a0 62 6d b5 3c 68 2a 6e bc 26 e4 f8 bb 68 09 88 3c
       0.022146884 -0.014536478 -0.007595557 0.016606048
0001b0 58 5e 5c 3d aa 29 9d 3d 0e 8e 9e 3b 4c 4a c3 3c
       0.05380091 0.076739624 0.0048387116 0.023839138
0001c0 cb 88 bd bd ba c8 c6 3d 2b 56 b9 3d bd 68 b4 3d
       -0.09254607 0.09706254 0.09049638 0.0880904
0001d0 6a 98 cd 3d f8 fe b3 bd 4e 29 b6 3d 8c 57 88 3d
       0.10038836 -0.08788866 0.08894597 0.06657323
0001e0 27 46 98 bd 89 e9 c3 3d fa 5b 6e ba dd ac 0d 3d
       -0.074352555 0.09566028 -0.0009092685 0.034588683
0001f0 79 74 f8 3d 5c 7b 10 3c 32 9e fe bc f5 99 26 3d
       0.121315904 0.008818474 -0.031081293 0.04067417
000200 94 dd 14 3e be c3 15 3e 5c 4b 71 bd 82 90 c6 3d
       0.1453765 0.14625451 -0.05890976 0.096955314
000210 5c 06 fa 3b 53 ea 91 3c 93 87 24 be e6 d9 da 3c
       0.0076301526 0.01781193 -0.16067342 0.02671523
000220 26 5c c3 bd 63 1c 59 bd b7 5f 38 bd 9f 31 0e 3d
       -0.0953906 -0.053005587 -0.045013156 0.03471529
000230 83 8e e7 3d 8a 99 71 bc de 79 8f 3d 13 6e 9f 3d
       0.11306479 -0.014746079 0.07005666 0.07784667
000240 ca 9f 95 bc 0c 08 bb bd 20 44 06 3e d7 71 e5 bb
       -0.01826467 -0.09132394 0.13111925 -0.007002096
000250 95 69 c5 3d f9 8e 10 be 95 47 0b be c3 77 dd 3d
       0.09639279 -0.1411704 -0.13601525 0.10813858
000260 25 83 8b 3d fa dc 03 be 35 95 b6 bc 5e 40 03 3d
       0.06812123 -0.12877265 -0.022287944 0.032043807
000270 3c fb 11 3e c9 ba 07 3e 1f a7 83 bd f3 93 79 3d
       0.14255995 0.13254847 -0.0642836 0.06093211
000280 29 bf c9 bb b2 54 28 bd ad 81 bd bc 6c 8e 0c 3e
       -0.0061568213 -0.041096397 -0.023133123 0.13726205
000290 dd 25 b7 bd 24 00 0e 3d 34 c7 06 3c 17 21 8a 3d
       -0.08942769 0.034668103 0.008226205 0.06744593
0002a0 54 11 8d bd d6 dd d4 bd a9 64 e1 3d b7 f8 da bd
       -0.06888071 -0.10393874 0.110055275 -0.1069197
0002b0 ea 54 d1 bd 10 ec 98 bd 49 ed 2c 3e 99 35 ad bd
       -0.10221274 -0.074669 0.16887392 -0.084574886
0002c0 26 e8 03 bb a2 76 c1 3c 9e dd 9f 3d 4c 57 4e 3d
       -0.0020127385 0.023616139 0.07805942 0.05037622
0002d0 6d 52 04 be 08 53 92 3d 03 08 08 bd 0d d8 bb 3d
       -0.12922068 0.07144743 -0.033210766 0.09172068
0002e0 18 b3 c4 3c ab 16 10 3e f3 e4 95 3d 44 2d 89 bc
       0.02401118 0.14071147 0.07319059 -0.016745217
0002f0 17 34 03 be 91 c8 84 bd 90 78 07 be 6a 65 42 3d
       -0.1281284 -0.064835675 -0.13229585 0.047459997
000300 16 ef ec bd ef 13 f6 bc 55 0f dc bd 9c e3 49 bd
       -0.115690395 -0.030038802 -0.10745112 -0.04928933
000310 ed dc 8d bd e5 7e e1 3d a0 f7 65 3d 29 9d ae 3d
       -0.06926904 0.11010531 0.056144357 0.0852607
000320 fa 62 a6 bd a5 52 a6 3d b6 20 ef 3b 5a c4 2d bb
       -0.08124347 0.08121232 0.0072976006 -0.002651474
000330 d0 63 f4 bd 8f e7 aa 3d 96 cf f1 bc 3a 72 62 bd
       -0.119331 0.083449475 -0.02951793 -0.055284716
000340 db 8a 0f bd ec 87 13 3d 62 bf 19 3d 17 a5 be 3d
       -0.035044532 0.036018297 0.037536032 0.09308832
000350 25 4a 8f bd 4e 91 01 3d 9c f3 6d bd db 3a d3 bc
       -0.06996564 0.031632714 -0.058093652 -0.0257849
000360 2b ba a6 3c cb 1e fe bd 3a 5d 1a bc 33 d2 b0 bd
       0.020352444 -0.12408217 -0.009421641 -0.08633842
000370 c9 72 db bd 25 92 94 bd a2 c3 c6 bb 10 78 33 bd
       -0.10715253 -0.07254437 -0.0060658017 -0.043815672
000380 be 89 24 bd ef e2 ca 3d 1a f8 aa 3c 52 26 ea 3d
       -0.040170424 0.099065654 0.020870257 0.1143309
000390 5e 98 63 bd 0f 54 6c bd 7e 6b 4a 3d bb ab 88 3d
       -0.05556523 -0.057697352 0.04941892 0.0667338
0003a0 23 b1 8b 3c cd 7c 06 bb 4a e6 23 3d 14 6a b6 3c
       0.017052239 -0.0020521164 0.040014543 0.022267379
0003b0 e3 0b 1e bb 24 01 45 3d 5f 99 ae 3d f5 b8 d9 bd
       -0.0024115972 0.04809679 0.08525347 -0.10630981
0003c0 a7 69 ed 3c 84 20 39 3d ca 07 4f bd ec c5 b5 3d
       0.028981043 0.045197025 -0.050544538 0.08875641
0003d0 79 72 a3 bd 2e 56 10 3e 68 dd 29 3d 22 10 00 bd
       -0.07980818 0.14095375 0.041470915 -0.031265385
0003e0 0d 28 de 3d 1b e4 9d bd cc 14 80 bd 5f b9 df bc
       0.10847483 -0.07709523 -0.06253967 -0.027310072
0003f0 6c 83 b8 bd fd e9 d4 3d 64 87 e2 3d 8d 08 1c be
       -0.09009442 0.10396192 0.1106098 -0.15237637

lstm.lstm2.weight_hh_l0 f4 [256, 64]
000000 84 6b 0d bd cd c0 28 bd bb 51 1b 3e 71 2a 9a bd
       -0.034526363 -0.041199494 0.15167896 -0.07527626
000010 4e d1 97 3d 8a bc a1 3c 86 15 06 be d5 cf 7c 3d
       0.074129686 0.019743223 -0.13094148 0.06172164
000020 fd d9 fc bc 24 9b b6 3d c8 a5 c6 3c d4 4e b3 3d
       -0.030865664 0.089163095 0.024248973 0.0875527
000030 d4 10 c3 bd 6f 75 f7 3c cf a6 c3 bd 56 49 21 3d
       -0.09524694 0.030207364 -0.095533006 0.03937658
000040 17 de 45 be 44 31 b0 bd ab 55 4f 3d a1 a2 4f 3d
       -0.19323002 -0.08603147 0.05061881 0.050692204
000050 44 55 9e 3d 69 33 8e bd 56 81 a4 bd e6 b8 bb bd
       0.07731107 -0.069433995 -0.08032481 -0.09166126
000060 45 c1 02 bd e1 ae 1e 3c f1 ae 91 bd 20 8b 50 3d
       -0.031922597 0.009685249 -0.071134456 0.05091393
000070 5c c6 75 3d 4d a9 65 3b d6 f1 ed bc 88 e8 77 3c
       0.060003623 0.0035043538 -0.02904598 0.015131123
000080 e1 d8 cf bd 3c 15 2d bd 2a 46 dc bd 01 43 81 bd
       -0.10148788 -0.04225658 -0.1075557 -0.06311608
000090 53 bf 5b 3d 4d b5 2f bd d0 d7 0f bd 7e ef 35 be
       0.053649258 -0.04289751 -0.035117924 -0.1776714
0000a0 f7 f5 1c 3c a7 ab da bd aa 72 36 3d df 2d dc 3d
       0.009580127 -0.10677271 0.044542946 0.10750937
0000b0 6f 5e fb bc 5f 1a 20 3d ca c0 24 3c b7 91 b7 bc
       -0.030684678 0.03908765 0.01005573 -0.02240835
0000c0 af 88 1f 3e bc 8e 61 bd 4a 46 a2 3d 52 ab c1 bd
       0.15579484 -0.055067763 0.07923563 -0.09456505
0000d0 a6 29 6a bd fd 4b aa bd f4 73 b0 3c ad f3 dc 3b
       -0.057168625 -0.08315275 0.021539666 0.0067429156
0000e0 1c db 6d bd e1 2c 95 3d 67 ba 93 bd 2d 98 fb 3b
       -0.058070287 0.072839506 -0.07213288 0.007678053
0000f0 1e 24 1f 3c 3c cc a5 bd 03 cd e4 bd 69 c1 bf 3c
       0.009713201 -0.08095595 -0.111719154 0.023407655
000100 2d ad 82 bc 8b 99 0e 3d 69 6e 9a 3d f1 b0 32 3d
       -0.015951717 0.0348144 0.0754059 0.043625776
000110 98 2d 92 3c ef 56 a6 3a 2e 97 49 3d 20 c0 09 bc
       0.017844006 0.0012690703 0.04921644 -0.008407623
000120 f8 ce 30 bd 22 22 83 bd dc f3 bb 3d 86 d4 d5 bd
       -0.04316613 -0.06402995 0.09177372 -0.10440926
000130 34 63 8b bd e8 8c 8c 3d 14 8f ac bd 44 dd 00 bd
       -0.06806031 0.06862813 -0.084257275 -0.031461015
000140 86 45 05 3e 99 91 3e bd 02 9e 14 bd 57 fd b3 3d
       0.13014802 -0.04652557 -0.0362835 0.08788555
000150 2e 79 7d 3d 2d 5b 3a 3c 13 87 10 bd 3b d7 15 be
       0.061883144 0.011374277 -0.035285067 -0.14632885
000160 8b dd c5 bd 1f 1c f3 3d 76 5d c0 3d d5 33 95 bc
       -0.096613966 0.11870598 0.09392826 -0.018213192
000170 90 fe 83 3d af 75 97 bb 03 55 20 bd da d8 1d 3e
       0.06445038 -0.0046221833 -0.039143573 0.15414754
000180 37 7c 43 3d f7 cb 66 bd cc 15 19 bd f5 7b c9 3d
       0.047725882 -0.05634686 -0.037374303 0.09838096
000190 c8 41 29 bc 63 d3 b1 bd bb c1 ba bd 0b 1c c4 3b
       -0.010330625 -0.08682897 -0.091189824 0.0059847883
0001a0 d5 f9 bc 3b 10 53 c1 bd cf 03 34 3d e5 a3 05 3d
       0.005767087 -0.09439671 0.043948945 0.032627005
0001b0 54 d9 e3 bd 21 86 ce bd 9e 7e a1 bd 62 09 16 be
       -0.111254364 -0.10084177 -0.078854784 -0.14652017
0001c0 b6 58 92 bd 19 7a a6 3d 7a 9c af 3d 8c 32 dd 3d
       -0.071458265 0.08128757 0.085747674 0.10800657
0001d0 14 3c f9 bd 26 db af 39 1b af a7 bd 8c 52 be 3d
       -0.12169662 0.0003354188 -0.081876956 0.09293088
0001e0 e4 d3 8e 3d 61 19 0e 3d b6 ba 18 3d 77 1e 11 be
       0.06974009 0.034692172 0.037287436 -0.14171778
0001f0 6f 66 18 3d 75 30 94 3d 92 19 8e 3c bc 30 73 3d
       0.037207063 0.07235805 0.017346177 0.05937265
000200 5a b5 a3 bd 4e b5 9e 3d 64 39 9a bd a1 0c c3 3d
       -0.079935744 0.07749425 -0.07530478 0.09523893
000210 eb 1b fa bc bf a6 9c 3d b0 e8 be bd b8 83 38 be
       -0.03053089 0.07648992 -0.09321725 -0.18018997
000220 35 91 c0 3d 43 41 c8 bd 0a a2 68 bd c7 d6 c5 bd
       0.09402696 -0.09778073 -0.056795157 -0.09660106
000230 16 24 d7 3d 1f 60 2c 3e 00 13 2a bd 4b 0c 9a bd
       0.1050493 0.16833542 -0.041522026 -0.07521876
000240 ed 9f f0 bc 22 bf 7a 3b 4a 60 5c bd f0 2a ee bc
       -0.029373134 0.0038260897 -0.053802766 -0.029073209
000250 1c d4 91 bd 1c cf 3c bd c9 e0 45 bd e8 c1 b6 3d
       -0.07120535 -0.046095952 -0.048310075 0.089237034
000260 cc fe 9c bd 38 e9 3e bd 38 7f 08 3e 14 13 98 bd
       -0.07665786 -0.046609133 0.1332978 -0.07425514
000270 00 59 d7 3d 61 74 fd bd 83 1c d9 3d 94 ef 56 bb
       0.10515022 -0.12375713 0.10601141 -0.0032796608
000280 33 81 e6 3d 61 05 6d 3d 99 98 d8 3c d4 be 42 bd
       0.112551115 0.057866458 0.026439952 -0.04754527
000290 14 70 63 bd 8c 92 a1 3d 81 ea 98 3c b3 b0 92 3d
       -0.055526808 0.0788928 0.018666508 0.07162609
0002a0 0a a0 1c be 28 78 60 bd c8 48 5f 3c a6 8d f3 3d
       -0.15295425 -0.05480209 0.013628192 0.11892252
0002b0 0a dd e1 3d 63 e6 b3 3d 73 43 23 3e 74 1f 84 3d
       0.11028488 0.08784177 0.15943699 0.06451312
0002c0 33 a5 ab 3d be 66 53 3d 61 a1 43 3d 4c 5b 9d bc
       0.083811186 0.051611654 0.047761325 -0.019208573
0002d0 3a 25 c9 3d c9 05 98 bb c8 7b 6f 3d f4 8e af bc
       0.098215535 -0.0046393615 0.058467656 -0.02143047
0002e0 5f 1a 58 3d 3c 0a bb 3d 1b 76 b2 3d 1c 65 2f 3d
       0.052759524 0.091328114 0.08713933 0.042821035
0002f0 47 ba 0f be 13 9c 59 3d 42 30 83 bd 20 8f 13 bd
       -0.14035903 0.05312736 -0.06405689 -0.036025167
000300 45 01 bb bd 5a de 0c be 17 b5 69 bd 3d 58 9b 3b
       -0.091311015 -0.13756695 -0.057057466 0.0047407434
000310 9a 32 cc bd e1 45 4c 3d 04 85 9e bd 1a 66 0c 3d
       -0.09970589 0.04987133 -0.077402145 0.03427706
000320 43 86 8a 3a 15 a4 f0 3d f8 1c 52 3d d5 bf 02 be
       0.0010568578 0.11750046 0.051297158 -0.1276849
000330 8b 43 f8 bd b7 29 b6 bc 18 ec 93 bb 66 a9 92 3c
       -0.12122258 -0.022236688 -0.0045142286 0.017903041
000340 1f 0d 55 bd 65 8b 1b be a5 ce 72 3d 8c 39 ed 3c
       -0.052014466 -0.15189894 0.059279103 0.028958105
000350 45 69 92 3d 7b 66 e4 3c 57 d3 e6 3d 2a 9e a4 3d
       0.07148985 0.027880898 0.112707786 0.0803798
000360 79 88 7c 3c 3b 29 85 3d b8 9f d8 3d 79 54 7b 3c
       0.015413397 0.06502005 0.10577339 0.015339964
000370 3a 12 92 3c 7d ac 20 bd f9 51 89 bd b6 23 76 3d
       0.017830957 -0.039226998 -0.06705088 0.06009265
000380 99 51 2d be 05 5a d4 3b 1d 80 02 be c9 f3 84 bc
       -0.16925658 0.0064804577 -0.12744184 -0.016229527
000390 5f e8 a3 3b 6c 7c 9c bd b9 7b e1 3d 1a 57 66 3c
       0.005002066 -0.07640919 0.11009926 0.014058853
0003a0 51 62 ab bb 85 ec e6 bd fd 00 60 3d c6 d2 88 3c
       -0.005230226 -0.11275581 0.054688442 0.016702067
0003b0 37 92 2c bd ee 6d 0a bd a1 3d 85 3d cf ff 0f bd
       -0.04213163 -0.033796243 0.065058954 -0.035156067
0003c0 eb e1 b1 3b 6a 67 af 3d 11 38 41 3d 93 24 b4 3c
       0.005428543 0.085646465 0.04717261 0.021990096
0003d0 2a c7 23 3e a3 f8 c6 bd 50 2e 08 3e 22 c1 ed 3c
       0.15993944 -0.097153924 0.13298917 0.029022757
0003e0 ee 4f 9b 3d 76 94 32 bd 0b d8 da bd 2b 17 22 bd
       0.07583605 -0.043598615 -0.10685738 -0.039572876
0003f0 35 a7 7c 3c bc 79 ec 3c 83 66 67 3d 36 d2 15 bb
       0.015420725 0.028866641 0.056494247 -0.0022860891
